corintho_ai/python/tflite_models/model_30.tflite (tflite, 521576 bytes, 27 tensors)

model/dense_1/MatMul;model/activation_1/Relu;model/dense_1/BiasAdd f4 [100]
000000 e3 a1 c5 c1 3c de 9e 42 f8 09 23 c2 bb f3 3c c0
       -24.704046 79.43405 -40.759735 -2.9523761
000010 b1 11 3d 42 8e c1 b5 41 ea fd 36 42 24 76 bb c1
       47.267277 22.71951 45.747963 -23.432686
000020 5a 5e 12 c2 8a 27 2e 41 17 48 b9 40 4e e1 1b c2
       -36.59214 10.884653 5.79005 -38.970024
000030 17 9a 9f 40 2b 14 b4 c1 43 be d2 3f c7 4a 35 c2
       4.98756 -22.509848 1.6464313 -45.323025
000040 01 c5 c0 40 87 f3 1d 41 57 99 d4 c0 ec 1e 80 c0
       6.0240483 9.871955 -6.6437182 -4.0037746
000050 80 c5 b0 40 7c 2d c2 40 27 ab 4b 41 12 c2 05 c2
       5.524109 6.0680523 12.729285 -33.43952
000060 13 d3 37 42 ce c2 38 bf 24 09 3f c1 a4 ca 15 c0
       45.956127 -0.7217225 -11.939732 -2.3404932
000070 e5 68 ea c1 57 15 d0 41 f5 80 b2 c1 59 dd f1 c0
       -29.301218 26.01042 -22.312967 -7.55827
000080 82 33 80 41 65 07 04 c2 c8 75 43 42 c3 45 05 42
       16.02515 -33.00722 48.86502 33.318127
000090 e0 24 30 c0 3e f1 96 c1 ed 89 e8 bf c0 21 cc 41
       -2.7522507 -18.867794 -1.8167092 25.51648
0000a0 e2 09 31 42 14 98 b6 c0 b9 3d f0 c1 26 78 96 c0
       44.25965 -5.706064 -30.030138 -4.7021666
0000b0 ef d9 14 41 0b ca 23 c1 eb e9 32 3e 78 75 e4 c1
       9.303206 -10.236827 0.17472045 -28.557358
0000c0 0d 28 5e c0 5f 79 5b c1 92 e6 57 41 c0 ec da c1
       -3.4711945 -13.717132 13.493792 -27.3656
0000d0 fe f6 5d 40 5a c3 be 42 bf 5f f0 bf f2 54 d8 41
       3.4682002 95.381546 -1.8779219 27.041477
0000e0 1d 2a 47 41 3e 6e 04 c1 0b 4c af 41 ae f3 34 c1
       12.447782 -8.276915 21.91213 -11.309492
0000f0 15 01 1f 41 62 ac 1b 42 fc 0d 96 40 21 c7 72 41
       9.937764 38.918343 4.689207 15.173615
000100 c6 fe 1c 42 fc a9 2d 42 70 02 88 42 10 0f 9e 41
       39.248802 43.416 68.00476 19.757355
000110 4d 6a 09 c1 b0 64 12 c2 b7 e6 b1 c0 ee b6 4b c1
       -8.588452 -36.598328 -5.5594134 -12.732161
000120 cb 5f 34 41 0b 29 5e 42 d4 d5 26 c1 11 29 1d 42
       11.273387 55.54008 -10.427204 39.290104
000130 a8 08 95 3f 4a 0f 31 40 44 f3 62 c2 58 f8 3b c0
       1.1643267 2.7665582 -56.737564 -2.9370327
000140 db 4d 5c 40 0d fd 08 42 fa fb bc 40 e1 50 86 c1
       3.442252 34.24712 5.905759 -16.789492
000150 5f c1 c0 c1 a4 b5 2c 42 63 90 6e 41 46 54 a3 c1
       -24.09442 43.177383 14.910251 -20.41615
000160 97 c0 3e 42 c7 e9 16 42 7b 7c 64 42 a9 50 a0 40
       47.688076 37.7283 57.121563 5.009846
000170 35 2d 4f 42 29 16 ac 40 70 e5 cf be 08 92 c1 40
       51.794147 5.377705 -0.40604734 6.049076
000180 de ec a5 42 f6 75 2f 41 be b3 c5 40 e3 11 6e c2
       82.96263 10.966299 6.178191 -59.517467

model/batch_normalization/batchnorm/mul_1;model/batch_normalization/batchnorm/add_1;model/dense_1/MatMul;model/activation_1/Relu;model/dense_1/BiasAdd f4 [100, 100]
000000 a1 d1 95 3d 14 3a d0 be 07 91 49 3f a2 34 23 3e
       0.07315374 -0.4066931 0.7873692 0.15938047
000010 5c c4 dd 3f f4 99 e8 3e d1 27 5d bf 04 30 55 bf
       1.7325549 0.45429957 -0.8638888 -0.8327639
000020 33 6c e7 3d ae 72 16 3f 63 b8 c8 3e 5b 47 b9 3e
       0.11299934 0.5876874 0.39203176 0.36187252
000030 14 f3 be 3e 38 32 a4 3d 8f 2c c5 be 67 09 a3 3d
       0.3729483 0.08017391 -0.38510558 0.07960778
000040 7a e4 61 3e 7b 13 8a bf 0e 99 49 3e cb d5 81 be
       0.22059813 -1.0787195 0.19687292 -0.25358424
000050 3d fd 33 3e c7 7d 81 40 22 2d a2 3d 7f 63 be bc
       0.17577071 4.0466037 0.07918765 -0.023240803
000060 17 13 66 be f6 93 1e 3e 32 af 87 3c 3c 98 15 bf
       -0.2246822 0.1548613 0.016563032 -0.58435416
000070 c4 1a b3 3e 7a ae ad be 1a 06 11 be dd 46 1f 3f
       0.34981358 -0.33922178 -0.14162484 0.62217504
000080 a2 33 7b 3e 64 df 27 be 24 01 a0 be 23 29 55 be
       0.24531415 -0.1639381 -0.3125087 -0.20816474
000090 a0 ec a8 bc 72 c4 4c be 69 08 04 bd 8e 68 bd 3d
       -0.020620644 -0.19996813 -0.032234583 0.09248458
0000a0 e7 57 25 3f 1a ea 7d 3f fe 07 05 3f e4 0a 2a 3e
       0.64587253 0.99185336 0.5196532 0.16605717
0000b0 10 48 96 be 5b db 49 be 8c fc 86 3e cc 68 73 be
       -0.29351854 -0.19712584 0.26364553 -0.23770446
0000c0 57 60 0f 3f a1 b6 08 be ca 97 85 bd a4 81 b9 bf
       0.5600638 -0.13350917 -0.06523092 -1.4492688
0000d0 95 a2 ed 3e 6e bf 6f 40 3f 16 cd 3e be e0 10 be
       0.46413103 3.746059 0.40056035 -0.14148232
0000e0 1a 84 24 be df ee b8 3e 27 81 93 3f ef 16 ed 3e
       -0.16066018 0.36119744 1.1523789 0.4630656
0000f0 5e a8 e7 3e a5 21 4b bd d6 0b fa 3c 48 23 5b bf
       0.4524564 -0.049592633 0.030523222 -0.8560071
000100 b5 c1 dd 3e b4 2e 9e be 1c d5 6d be 32 b3 40 3e
       0.4331185 -0.30895007 -0.23225826 0.18818358
000110 14 52 b5 bd e5 6c 37 3f d6 f2 f5 3e e7 0f 74 3d
       -0.08853546 0.71650535 0.48036832 0.05958548
000120 7e 09 50 be b3 e3 d4 3b 84 94 37 3f 21 c5 dc be
       -0.20316121 0.0064968704 0.7171099 -0.43119147
000130 e5 3f 9e be cf 80 80 be 31 e7 85 bc eb d1 10 3f
       -0.30908123 -0.25098273 -0.016345592 0.5657031
000140 c7 aa 00 bf c6 53 a9 3e 62 1f c2 be dc 2b 13 bd
       -0.50260586 0.33071727 -0.37914568 -0.0359305
000150 5b 74 dc be 63 d7 05 3b b0 16 e1 bd ea 8e 11 bf
       -0.43057522 0.002042257 -0.109906554 -0.56858695
000160 f2 4d 93 bd 4a 89 19 be 5f 35 45 bf 45 bf 4e 3f
       -0.07192601 -0.14993778 -0.7703456 0.80760604
000170 8e 1d 21 3e 27 07 1a bf 67 da 37 be 9f 80 26 3e
       0.1573393 -0.60167164 -0.17954408 0.16260003
000180 9c 29 f0 3d 22 75 bb bd 12 cf a4 be dc 84 f3 bd
       0.11726686 -0.09153201 -0.32189232 -0.11890575
000190 01 f7 31 bf ae 00 75 bf f3 1c b2 be 1e 47 94 3c
       -0.69517523 -0.9570416 -0.34787712 0.018100318
0001a0 b4 d4 61 bf fd 66 c8 3f 8d e6 6b 3e c4 a5 14 3e
       -0.88215184 1.565643 0.23037167 0.1451636
0001b0 b1 fc 0d 3e 36 7f 72 be 70 54 ba 3e ec d1 9d 3b
       0.13865925 -0.2368134 0.36392546 0.0048162844
0001c0 43 02 91 bf 78 0a f3 bd 53 5b b3 be af cd 3f bf
       -1.1328815 -0.11867231 -0.35030612 -0.74923223
0001d0 07 17 db 3d 97 8d ad bf 84 a6 0e bf d2 e8 9b bd
       0.106977515 -1.3558835 -0.5572283 -0.07612766
0001e0 5b 65 42 bf a5 0b 9f bf 8b 9b 28 bc ea 8f c1 bd
       -0.75935906 -1.2425429 -0.010290991 -0.094512776
0001f0 a1 da e2 bd 68 cb 20 3d 95 16 eb be 1b 54 a8 3d
       -0.110768564 0.039256483 -0.45915666 0.08219167
000200 96 1b 6f be 71 06 13 3e 29 9d 4d 3d a9 c5 a9 3e
       -0.23350367 0.14357926 0.050198708 0.33158615
000210 e3 4d 3c 3e 87 83 67 bd 39 11 ba bd 92 93 66 3d
       0.18389086 -0.05652192 -0.09085316 0.056293078
000220 b3 a3 c5 be 8b 27 e2 bf 81 52 23 bf 17 44 fd be
       -0.38601455 -1.7668318 -0.63797766 -0.4946601
000230 cf c5 0e 3e d9 1b 7d be af ae 53 bf 28 23 87 be
       0.13942645 -0.24717654 -0.8268842 -0.2639401
000240 c5 c4 66 be fd 14 5b bf e2 02 96 3e 81 b0 25 be
       -0.22535999 -0.855789 0.29299074 -0.16180612
000250 0e 94 bd be 51 c8 e5 3d ae 08 7f bd 0f 23 20 40
       -0.3702702 0.11219848 -0.062264137 2.5021398
000260 49 d5 92 be 09 96 7b 3f 2c 2c 8d 3e 08 d9 90 be
       -0.2867835 0.9827581 0.27572763 -0.28290582
000270 07 06 b3 be 6e 82 54 3f e3 7b 4e 3e aa f4 cc 3e
       -0.34965536 0.8301152 0.20164447 0.40030414
000280 73 f3 c3 3e 96 14 7e 3e 63 06 1e 3e a3 76 32 bf
       0.38271675 0.2481254 0.15432124 -0.69712275
000290 f4 a8 58 bf fa 86 ba be 74 59 0a 3e cf 00 5d 3f
       -0.846328 -0.36431104 0.13510686 0.8632936
0002a0 e6 60 4f bd 0f 8e 3e be 24 53 a5 3c 3b 4a a9 3e
       -0.05062952 -0.18608879 0.020181246 0.33064446
0002b0 87 3a f5 bd d5 a9 16 3e fb de f8 bd 84 52 19 be
       -0.11974054 0.14713223 -0.12151905 -0.14972883
0002c0 0b 4b 0b bf a6 d3 76 be 5a 25 ac 3e 50 a2 a8 3d
       -0.5441138 -0.24104175 0.33622247 0.08234084
0002d0 6c c3 4f 3d 9a ca 16 bf 07 ea b2 3e ae 88 37 3e
       0.05072348 -0.58902895 0.34944174 0.17923233
0002e0 6e 97 fe bc fd 56 48 3e a4 0b c3 3b 98 9d 87 bd
       -0.031078067 0.19564433 0.0059523154 -0.066218555
0002f0 19 f3 96 3e da 08 ad 3d 11 c7 90 bf 10 d9 44 3f
       0.29482344 0.08448954 -1.131075 0.7689371
000300 71 83 0a be cf 7d 0a bf 37 d3 14 bf 18 4e 5e 3e
       -0.13526703 -0.5409822 -0.5813479 0.21709478
000310 95 97 c9 bd 15 f3 77 bf 1c 96 42 bf b3 6b 1b bf
       -0.09843365 -0.9685529 -0.760103 -0.6071121
000320 21 62 44 3f 10 eb 01 bf c5 7b 29 3d 9e 24 0c be
       0.7671223 -0.507493 0.0413778 -0.13685843
000330 32 53 0f 3f fe dd e3 3b 65 7f 64 3f be 8d 7e bf
       0.5598632 0.0069539538 0.8925689 -0.9943503
000340 5f 3b 61 bf d7 22 11 bf 6e 07 8f be 6c 63 b7 3f
       -0.8798122 -0.56693786 -0.27935356 1.4327216
000350 8e e0 0d 3e b0 39 2f 3e da 11 01 be a4 41 dc 3e
       0.13855192 0.1711185 -0.12604466 0.4301883
000360 21 32 85 3e 32 e9 af be 0f 8f 60 bf 7e 4a 87 be
       0.26014808 -0.343576 -0.8771829 -0.2642402
000370 8a f7 45 bd a3 af e3 bf af 93 8e bd 13 45 4e 3e
       -0.048331775 -1.7787975 -0.06961762 0.20143537
000380 cf 0a 2c 3c 6a d7 2b 3d 1d 1a 68 be f3 d7 95 3e
       0.010500624 0.04195348 -0.22666211 0.2926632
000390 77 22 cd 3e 0a 5a ac 3f e8 ad 55 3f 34 02 24 3f
       0.40065357 1.3464978 0.83468485 0.6406586
0003a0 66 d3 7e 3b 9c fe c0 3e 56 6f 82 3f 2d df bb bb
       0.0038883328 0.37694252 1.0190227 -0.0057333917
0003b0 44 9d 9f 3c ca fd 66 3e 65 79 c7 3e 99 6e 10 bf
       0.01948417 0.2255775 0.38959804 -0.5641876
0003c0 82 69 0b 3e 3f e4 21 bd a7 77 68 3f 76 42 92 3e
       0.13614467 -0.039524313 0.90807575 0.2856633
0003d0 de c7 0a 3e 79 f2 85 bf ed e3 46 3f 7b 54 25 be
       0.13552806 -1.0464622 0.7769154 -0.16145508
0003e0 5e 27 95 bf 82 ed 10 bd a1 b6 9d 3d 77 33 89 3f
       -1.1652639 -0.035382755 0.07700849 1.0718831
0003f0 60 8f b0 3d b1 3b c2 bd 04 8d ea 3d fc 7b c7 39
       0.086210966 -0.094840415 0.11452678 0.00038048613

model/dense_2/MatMul;model/activation_2/Relu;model/dense_2/BiasAdd f4 [100]
000000 7b e9 14 42 0f 1b 30 c2 3e 8a ee 40 5a db 29 c2
       37.22801 -44.026424 7.4543753 -42.46421
000010 c5 22 bc c0 6d e8 0d 41 94 76 dd 41 fb 13 ae 41
       -5.8792443 8.869245 27.6829 21.759756
000020 e2 be 22 c1 78 66 ad be 7b 91 f8 c0 8b 47 17 c1
       -10.171602 -0.3386724 -7.767759 -9.454967
000030 7d 9f 2c c0 c1 a3 6b 41 d7 f3 cf 40 73 39 12 c2
       -2.6972344 14.727479 6.4985156 -36.556103
000040 50 81 ec c1 df 80 5f 3f b8 b2 3f be 15 95 a6 40
       -29.56314 0.87306017 -0.1872052 5.2056985
000050 74 b1 7e 41 a3 3f 0c 41 23 09 6a 41 94 87 5d 41
       15.9183235 8.765536 14.627231 13.8456
000060 7e 8b b3 be 28 84 08 41 02 66 88 40 f5 41 15 42
       -0.35067362 8.532265 4.262452 37.31441
000070 41 3b 27 c1 17 27 9e 3f c1 88 16 c1 18 72 34 41
       -10.451966 1.2355679 -9.408387 11.277855
000080 10 98 c4 41 b7 ff 3e c1 8b be af 41 f5 19 fa c1
       24.57425 -11.93743 21.968039 -31.262674
000090 14 69 34 42 bc ad 01 c2 e2 ff a6 c1 3e b4 88 c1
       45.102615 -32.419662 -20.874943 -17.088009
0000a0 13 63 7a 40 53 ac 07 c2 ca 6f e8 bf 3b dd 08 c1
       3.912297 -33.918285 -1.8159115 -8.554011
0000b0 8b 3e 12 c1 31 b8 c2 41 9e 15 55 c1 fe 96 c9 c0
       -9.140269 24.339937 -13.317778 -6.2996817
0000c0 69 90 1a c2 fb 96 27 41 6f bb 2c 42 09 e9 45 42
       -38.641026 10.47436 43.18304 49.477573
0000d0 e0 54 93 40 c3 3f e1 c0 7f 0b 70 41 bb bd e7 c0
       4.6041107 -7.0390334 15.002807 -7.2419105
0000e0 40 22 a2 40 06 40 26 42 5c 6b c4 41 f5 81 c6 c1
       5.066681 41.562523 24.552422 -24.813456
0000f0 2e 17 14 c0 db 2c 41 40 b7 b2 ff 3f 9a 31 a5 42
       -2.3139148 3.0183628 1.9976414 82.59688
000100 2c de fa 41 00 a3 1c 41 4a f7 20 c2 7d 30 ab c1
       31.358482 9.789795 -40.241493 -21.398676
000110 df 7f 2c c1 19 e5 11 42 3a 38 ba c2 b6 2b 6f 41
       -10.781219 36.47373 -93.10982 14.948172
000120 e3 18 05 c2 c4 52 ac 41 a9 17 b8 c1 41 d9 a4 c1
       -33.274303 21.540413 -23.011553 -20.606081
000130 b4 80 46 41 48 62 77 c1 af 55 92 c1 2e 16 95 41
       12.406422 -15.461494 -18.291838 18.63583
000140 a1 4e 0d 42 33 fd 81 41 c0 42 b8 41 10 87 65 41
       35.326786 16.248632 23.032593 14.345474
000150 04 90 07 c1 46 95 0b c2 4c 73 8c c0 b5 64 c9 41
       -8.47266 -34.895775 -4.3890743 25.174173
000160 b6 3d ad 41 cf 47 8f 41 60 b4 08 c2 9d 1f d8 40
       21.655132 17.910063 -34.176147 6.753859
000170 14 47 80 bf 2a e5 b9 40 d1 d8 13 c0 2b 00 0e 42
       -1.0021691 5.809224 -2.3101084 35.500164
000180 3b 9b 13 42 96 8f ab 41 3a 87 fd 40 72 73 fc be
       36.901592 21.44511 7.922757 -0.49306828

model/batch_normalization_1/batchnorm/mul_1;model/batch_normalization_1/batchnorm/add_1;model/dense_2/MatMul;model/activation_2/Relu;model/dense_2/BiasAdd f4 [100, 100]
000000 d0 8e d6 bd 44 0d 3f be 54 1b 09 3e 77 35 08 be
       -0.10476458 -0.18657404 0.13389331 -0.13301645
000010 13 64 39 be 30 a5 10 be e0 1c 15 3e ac 90 9f 3d
       -0.18104582 -0.14125514 0.14561796 0.07791266
000020 cd 71 6b 3e f7 89 98 bb 4e b2 fb 3d 22 f5 13 3e
       0.2299263 -0.0046551186 0.12289868 0.1444898
000030 59 6c 04 3e 9d f4 ee bd d1 51 72 be e6 53 53 3d
       0.12931956 -0.1166775 -0.23664023 0.051593684
000040 4e 1d 08 3d c6 c9 8f be 0b b6 2f 3e e1 4c a6 bd
       0.033231072 -0.28083628 0.17159288 -0.08120132
000050 a4 47 f9 bd 60 ae b0 bd f0 fd 01 3e a0 2f 45 3e
       -0.121718675 -0.086270094 0.12694526 0.19256449
000060 6f a5 a5 bd ed 06 3f 3c 7a e7 0d bd 49 29 cb 3c
       -0.080881946 0.011659366 -0.03464458 0.02479996
000070 3a f6 14 bc f1 44 08 be ab 5c 23 bd df 61 05 bc
       -0.009091908 -0.13307549 -0.039883297 -0.00814101
000080 c9 6c a4 be 8b fe f8 bc 18 23 e3 bc d4 02 77 3e
       -0.32114246 -0.030394813 -0.027726695 0.24122173
000090 bf cf 88 bd d4 1b 50 3d 4c 87 be 3d 6a ad 64 bd
       -0.066802494 0.05080779 0.093031496 -0.055829443
0000a0 cb 5c b6 bc b5 aa 4b be c0 cb 5f be 08 41 dc 3d
       -0.022261044 -0.19889338 -0.21855068 0.10754591
0000b0 5d 20 d1 bc 09 35 6a 3d 59 f9 61 bd bd a4 1b bd
       -0.025528127 0.057179485 -0.055169437 -0.037998904
0000c0 e9 95 96 bd 04 d9 e5 bc e1 0f 87 3d 05 67 83 3d
       -0.07352812 -0.028057583 0.065948255 0.06416134
0000d0 c7 90 06 3d d6 5c 35 bd 5f 39 d2 bd ca bc e7 bd
       0.032852914 -0.04427799 -0.10264849 -0.113153055
0000e0 5d 37 73 3d 30 e6 82 3d 2e 1a 84 3e 44 f1 7e bd
       0.05937897 0.06391561 0.25801224 -0.062241808
0000f0 cd 6a 90 3e 8e fb 1b be 22 78 b9 3c 37 6f 87 be
       0.28206483 -0.15232679 0.022640292 -0.26452038
000100 82 78 6f bc c9 7b 42 3d a4 49 e7 3c bb f2 9a bd
       -0.014616134 0.047481332 0.028233357 -0.075658284
000110 ef a7 1c bd 3e f3 9c 3d 13 aa 66 be 13 50 02 be
       -0.03824609 0.07663582 -0.22525816 -0.12725858
000120 82 8e 7a bd ed 02 3f bd d7 87 78 be 01 e3 0a be
       -0.061171062 -0.04663365 -0.24270569 -0.13563158
000130 33 8e 36 bc 8d a5 d6 3a 94 a5 8f bd 3a f3 a0 be
       -0.011142301 0.0016376242 -0.070140034 -0.31435567
000140 72 d7 0c 3d 26 12 cb bc 67 32 85 3d 63 e0 04 3e
       0.034385152 -0.024788927 0.06503754 0.12976222
000150 d0 70 94 bd e8 71 68 bc 25 e4 b7 3d 9a df a6 3c
       -0.0724808 -0.014187314 0.08979062 0.020370293
000160 68 12 15 be b8 4b b0 bd c5 3a 73 3d 2f b0 7e bd
       -0.14557803 -0.08608192 0.05938222 -0.06217974
000170 29 3a de bd 62 63 22 be 71 b0 04 bf 83 b2 da 3e
       -0.10850937 -0.15858224 -0.5183173 0.4271432
000180 fb 93 47 3e 9b 30 0f bf a1 24 33 3d 6b ad b8 be
       0.19490044 -0.5593354 0.043736104 -0.36069807
000190 43 3d ee 3c f1 5a f8 3d ee 01 8a 3b 6f 04 37 be
       0.029081946 0.12126721 0.004211656 -0.17872785
0001a0 5b 9c b4 3d 40 95 d4 3d 39 16 da 3d 16 3c 93 3d
       0.08818885 0.1038003 0.1064877 0.07189195
0001b0 28 24 16 3d dd 89 8e 3c a1 c6 9a bc 42 1a 63 3c
       0.036655575 0.017399723 -0.018893542 0.013861241
0001c0 fe b1 76 bc ec ad 80 bd 01 04 f4 3d 68 3c 11 3e
       -0.015057085 -0.06283173 0.11914826 0.141832
0001d0 88 d8 76 bd 4a b6 c3 bd 57 52 d7 bd 58 9f fd 3d
       -0.060265094 -0.09556253 -0.10513752 0.12383908
0001e0 f9 e1 bc bd d3 a4 de bc 87 26 97 3c 88 94 b3 3c
       -0.09222788 -0.027178204 0.018450988 0.021921411
0001f0 6e 36 31 3d 80 88 df 3c 0e 43 15 bd 84 66 ea bd
       0.0432648 0.027286768 -0.0364409 -0.114453346
000200 98 f9 c3 3c f7 2a 48 3d 7d 6f 77 3e e9 2c 9c 3e
       0.023922727 0.0488691 0.24163623 0.30503014
000210 65 4c 87 3d a2 2f 52 3d 6a 50 d3 3c 88 03 a3 bd
       0.06606368 0.051314957 0.02579518 -0.07959658
000220 5c de cd bb 70 fb d7 3c 96 7f b7 3c 20 36 dd 3b
       -0.006282611 0.026365012 0.022399705 0.006750837
000230 ba 93 5f bd 98 74 39 bd 9f 85 38 3d 46 36 29 3d
       -0.054584242 -0.045277208 0.045049306 0.041311525
000240 ab 1e 97 3d 00 0b 06 3e 2d 54 d2 3c 24 b9 b2 3d
       0.07378896 0.13090134 0.025674904 0.08726719
000250 75 d4 09 3e 9f 04 9d 3d a6 83 73 3d 6b 94 19 be
       0.13459952 0.07666897 0.05945172 -0.14998023
000260 ae ec 7a 3e de 91 20 3f 25 51 3a 3e ce 3d de bc
       0.24504349 0.62722576 0.18195017 -0.02712908
000270 de ed 03 3e e7 93 e1 3c 5f bf 9c bd 15 8e 2b bc
       0.12883708 0.027536346 -0.07653689 -0.010470887
000280 ab d8 19 bd 63 22 42 be cb ed d3 3e 21 a4 b0 bd
       -0.037560146 -0.1895843 0.4139236 -0.08625055
000290 e0 81 20 bd 1d 90 52 3d 82 de bf bd 82 f3 59 bd
       -0.03918636 0.05140697 -0.09368612 -0.053210743
0002a0 ec ec ab bc 88 34 7a bc 06 76 2f be 71 85 86 3d
       -0.020986997 -0.0152713135 -0.17134866 0.06568421
0002b0 24 dd 80 bd e8 e3 6e 3e 3d 6a bc 3c ad 71 1c be
       -0.06292179 0.23329127 0.022999877 -0.15277739
0002c0 c0 72 8e bc 4a 46 da 3d fa 27 24 bc e5 92 82 bd
       -0.017388701 0.10657938 -0.010019297 -0.06375674
0002d0 42 a5 5c 3d 1a a2 35 3b dc 12 88 3d ae 85 01 3e
       0.05386854 0.0027715028 0.06644222 0.12648651
0002e0 e7 ce 72 bc df 37 35 bd 8a 83 1f bd de df ef 3d
       -0.014819837 -0.044242736 -0.038943805 0.11712621
0002f0 cc a8 46 bb 28 00 3e 3d aa b1 f9 3e b7 82 fb 3c
       -0.0030313013 0.046386868 0.4876836 0.030701978
000300 3b f0 28 be 4f f3 a9 3d 59 83 8f bd b4 99 f2 bc
       -0.1649789 0.082983606 -0.070074745 -0.029614307
000310 d4 47 57 be c6 8a 89 bd 2d 7e e1 bd 00 ab 38 be
       -0.21023494 -0.06715922 -0.11010394 -0.18033981
000320 8f 7d c7 3e 1d 7c 24 3e df fb b4 3c 9d 07 a1 3d
       0.3896298 0.1606297 0.022092758 0.0786278
000330 8e 94 6a bc de b7 77 bd 3e 17 e0 3d e1 6b 82 bd
       -0.014317645 -0.060478084 0.10941933 -0.063682325
000340 5e 75 4a bd f4 81 29 3e 0d 77 6d 3c 0b 39 50 3d
       -0.049428336 0.1655348 0.014493716 0.05083565
000350 69 b9 15 bd b5 d3 9a bd a2 db e2 3c 3d a5 4d be
       -0.036553774 -0.07559911 0.02769262 -0.20082565
000360 bf 1f 33 3d 12 9b a9 bc 5c 14 f5 bd ff f8 5b 3e
       0.043731447 -0.020703826 -0.11966774 0.21481703
000370 b9 89 49 3e 69 5c 87 3b 59 a2 96 bc 83 db d1 3c
       0.19681443 0.004130889 -0.01838796 0.025617367
000380 e0 34 20 bd d3 0a 05 3d 02 68 8a bd 61 9b 90 bd
       -0.039112926 0.032481026 -0.06758119 -0.07060886
000390 6e 18 b0 3d 89 78 56 3d db 2d 07 3d 78 d9 10 3e
       0.085984096 0.052361045 0.033002716 0.14145458
0003a0 16 cc 65 3c 1e 51 79 3d d3 1e 24 be 76 18 55 bc
       0.014025709 0.060868375 -0.16027384 -0.01300632
0003b0 fd 3a 89 3d d0 c0 85 bc cd c3 c5 bc 60 05 4e 3d
       0.06700704 -0.016327292 -0.024141217 0.050298095
0003c0 41 b1 ed 3c af 6b da 3e ab 6b 65 3d 10 c2 a2 3d
       0.029015185 0.4266028 0.056010883 0.07947171
0003d0 c6 a9 09 3e 83 ec e2 3d 5c 66 38 bd 27 f1 f3 ba
       0.1344367 0.11080267 -0.045019493 -0.0018611298
0003e0 d7 75 09 be cc a2 64 bd 6d 46 ad 3b de 29 48 ba
       -0.13423859 -0.055819318 0.0052879364 -0.0007635633
0003f0 3f 70 89 bd 74 bd 4f 3d 50 df 3c be 12 05 82 3c
       -0.06710862 0.050717786 -0.18444562 0.015871558

model/dense_3/MatMul;model/activation_3/Relu;model/dense_3/BiasAdd f4 [100]
000000 07 ee 06 c1 8f ba db 41 9d 42 24 c0 26 73 97 c0
       -8.433112 27.466093 -2.5665658 -4.732806
000010 83 ba 68 41 52 32 f2 c0 13 eb 02 40 bf 7d 20 41
       14.545535 -7.5686426 2.0455978 10.0307
000020 c8 d6 65 41 db c5 85 40 40 60 b7 41 cf f4 0f 42
       14.364937 4.1804023 22.921997 35.98907
000030 ef 64 c0 41 64 23 b0 40 c0 4b 1e 41 5b 84 02 40
       24.049284 5.50432 9.893494 2.0393283
000040 2c d0 5b c1 ef 9a 94 3f e0 23 c0 40 1d f5 a3 40
       -13.738323 1.1609782 6.0043793 5.123671
000050 be 1d 36 41 85 64 85 bf 23 41 66 c0 d6 32 b7 41
       11.382261 -1.0421301 -3.5977256 22.899822
000060 65 8b be 41 41 9b f2 41 1e 78 bf 41 c4 15 ff c0
       23.818064 30.325808 23.933651 -7.971407
000070 ff b9 29 c1 d1 f8 cb c1 a4 3a 30 c0 46 6c 65 41
       -10.607909 -25.496492 -2.7535791 14.338934
000080 11 1f 1a 41 2f c9 d2 c0 9b 43 07 c0 2c ae 38 42
       9.632585 -6.5870585 -2.1135013 46.17009
000090 5a a6 c4 c0 9b a2 cc 41 27 62 a3 c1 84 d6 1d 41
       -6.1453066 25.579397 -20.422926 9.864872
0000a0 a1 d8 bb 41 bc b8 97 41 8b 3a c1 41 44 a4 8b c1
       23.480776 18.965202 24.153585 -17.455208
0000b0 66 12 b3 40 f3 32 1f 40 fe e6 44 c1 31 56 5a 40
       5.595996 2.4874847 -12.306395 3.4115107
0000c0 da 76 67 41 2b 61 84 40 ce 9b 44 c0 16 3c 83 c1
       14.4665165 4.1368613 -3.0720096 -16.404339
0000d0 3a fa b7 c0 85 6e 32 c1 9c cd 8c c1 e6 11 89 41
       -5.749295 -11.151982 -17.600395 17.13374
0000e0 e4 2d dc c0 e8 88 42 c0 96 67 c1 40 2b 0a 79 41
       -6.880602 -3.039606 6.043895 15.564982
0000f0 bc b1 21 c0 61 66 36 41 4f 54 0e c0 6b 67 87 41
       -2.526473 11.399995 -2.2238958 16.925497
000100 08 d1 fa c0 d4 a7 3e 41 f4 91 2c 40 e2 b1 54 3f
       -7.8380165 11.915974 2.6964083 0.8308393
000110 b5 63 d4 40 fa 87 c0 40 6f 63 0c 41 e5 30 c7 40
       6.6371713 6.0165987 8.774276 6.2247186
000120 81 40 2c 41 ad 8b 82 c1 f1 68 54 41 81 7b 5f c0
       10.765748 -16.318201 13.27562 -3.491913
000130 95 de 48 c1 90 fc 40 40 75 f5 2b c1 62 d2 b1 c1
       -12.554341 3.0154152 -10.747426 -22.227726
000140 fa 45 33 c1 82 d9 9b 3f 9f 70 b6 c0 cc 6a 30 41
       -11.204584 1.2175753 -5.7012477 11.026073
000150 17 23 3d c1 b4 d0 9c c0 a4 65 2a 41 56 ed 09 41
       -11.821067 -4.9004765 10.649815 8.620443
000160 fb 5b cb c0 04 06 28 41 ee e1 c9 c0 87 7b 76 41
       -6.354978 10.501469 -6.3088293 15.405158
000170 b4 6a 5d 40 0c 2b 28 3f b7 68 85 41 f5 c2 12 c2
       3.4596376 0.65690684 16.67613 -36.690388
000180 55 d8 36 bf 80 4a 3c 41 42 6f 96 41 60 e1 ff c0
       -0.71423846 11.768188 18.804325 -7.9962616

model/batch_normalization_2/batchnorm/mul_1;model/batch_normalization_2/batchnorm/add_1;model/dense_3/MatMul;model/activation_3/Relu;model/dense_3/BiasAdd f4 [100, 100]
000000 67 f4 19 3e ff 16 81 bc 74 97 b9 bd 63 05 2b 3d
       0.15034638 -0.015758036 -0.090620905 0.041753184
000010 17 19 26 3d 0d 51 f9 bd 06 40 7e 3a f4 7e f5 3d
       0.04055127 -0.12173662 0.0009698871 0.11987105
000020 cd 9f 65 bd 61 98 90 3e b0 29 29 be 3c e0 1b bd
       -0.0560606 0.28241256 -0.16519809 -0.038055643
000030 73 02 49 be 5b e0 cc bd 32 dd 82 3e 24 ed 06 be
       -0.1962984 -0.1000373 0.25559384 -0.131764
000040 cf bf 30 bb 40 58 79 3e 06 c9 df 3c 97 7b b6 3d
       -0.0026969796 0.24350071 0.027317535 0.08910292
000050 84 7b ef bd e3 61 36 bd da 2f d8 3e f3 fe bc bd
       -0.116934806 -0.044526946 0.42224008 -0.09228315
000060 0f 6e b4 bc 29 89 84 bd a0 51 09 3e 59 91 90 3d
       -0.022025136 -0.06471474 0.13410044 0.07058973
000070 a3 d8 55 be 01 84 8e bd 83 3b 90 bc 05 63 f6 bb
       -0.20883422 -0.069587715 -0.017606502 -0.0075191283
000080 5c 41 5b 3d 41 59 5b bc 17 91 2b be 34 a9 ff bc
       0.05352913 -0.013387979 -0.16754566 -0.031208612
000090 85 2f 1b 3e fb 1c 05 be 6f e1 a2 bb af c5 5b 3c
       0.15154846 -0.12999336 -0.0049707214 0.013413831
0000a0 54 6f ad 3c f2 2a 8c bd bf 58 2d bd b5 3a 8a 3d
       0.02117125 -0.06844129 -0.042320963 0.06749479
0000b0 ee 79 dc bb d2 40 cd bd ac e9 93 bc 54 91 76 be
       -0.0067284023 -0.10022129 -0.01805576 -0.24078876
0000c0 a4 3f e6 3d e3 b2 3d 3e 04 a0 c2 bc 47 df 5a 3d
       0.11242607 0.18525271 -0.023757942 0.05343559
0000d0 6e 89 c9 3d 95 eb 3e 3d 2a dd 28 be b0 56 ea 3c
       0.09840666 0.046611387 -0.16490617 0.028605789
0000e0 9e cf 63 bc 6f e6 36 3e 66 3d 3c 3e 64 4b 30 be
       -0.01390448 0.17861341 0.18382797 -0.17216259
0000f0 51 5d 38 be 05 0e ac 3e cb fa 1d 3e 13 d5 e9 bd
       -0.18004347 0.33604446 0.15427701 -0.11417594
000100 85 a5 df 3c 28 8b 29 bd 08 2c 76 c0 ac 73 b3 bd
       0.027300606 -0.041392475 -3.8464375 -0.08762297
000110 2b 14 83 bc 5f f8 3a 3d e3 a1 a1 bd 84 9b 32 be
       -0.016000828 0.04564702 -0.078922056 -0.17442137
000120 72 cc 81 bd 0f c1 7a bc 65 fd 57 3d 6b 5e 0e 3d
       -0.06337823 -0.015304818 0.05273189 0.034758013
000130 aa 6e c8 bc 3d f3 77 bd 4f 71 14 be 3d 2f 90 3d
       -0.024466831 -0.060534704 -0.14496349 0.0704026
000140 ad fa 99 bd 15 d2 11 be 4e 1b 25 be ba 65 a4 3d
       -0.07518516 -0.14240296 -0.16123697 0.08027215
000150 b3 ea 9b 3d 56 ab 80 3c 69 60 50 3d 70 93 30 be
       0.07613125 0.0157067 0.050873194 -0.17243743
000160 6a 66 2c 3e 36 88 d7 3e e1 e5 75 bd 13 a8 35 be
       0.16835943 0.42096108 -0.060033683 -0.17739896
000170 41 23 03 3c 3d 51 16 3e f6 e1 5c 3e 91 9a d1 bd
       0.008004011 0.14679427 0.21570572 -0.10234559
000180 3e 31 c0 bc 49 b1 8c be 0b 2f ac bd cf 1d 88 bd
       -0.02346098 -0.27479008 -0.0840741 -0.066463105
000190 a9 3b 1c be b7 7a 18 3d 47 9c a5 be c3 2c 84 bd
       -0.15257134 0.037226405 -0.32345793 -0.0645385
0001a0 06 87 27 be 35 62 68 3d b3 38 b6 3d aa f9 89 3d
       -0.16360101 0.056734283 0.08897533 0.06737073
0001b0 24 78 23 be 69 b9 92 be f1 e3 0f 3d 56 49 77 3e
       -0.15963799 -0.28657082 0.03512949 0.24149069
0001c0 99 f3 c1 bc 92 1c a4 3c a6 33 69 3e 0c 2a fd 3c
       -0.023675727 0.020033155 0.22773609 0.030903839
0001d0 46 8c 87 bd c5 47 96 bd 40 ce 24 be e4 3b f2 bd
       -0.06618552 -0.07337908 -0.16094303 -0.118278295
0001e0 8b 8f ae 3d ea 3e 8e 3d 17 0a 0f be c9 3d f6 bd
       0.085234724 0.06945594 -0.13968693 -0.12023503
0001f0 66 98 62 3d 95 48 3e be 32 a2 25 3e 51 ef 05 3e
       0.05532112 -0.18582375 0.16175154 0.13079573
000200 84 76 93 3d e7 06 62 3d 2c a4 2c be e7 19 44 3e
       0.072003394 0.055182364 -0.16859502 0.19150506
000210 18 69 8a 3d fd 16 15 3e ee 1b a5 bd f8 2b 0c be
       0.06758326 0.1455955 -0.08061968 -0.13688648
000220 8b fc 98 3d 97 36 de 3d 2f b4 a2 3d 1a 7b 67 3e
       0.07470044 0.10850256 0.079445235 0.22605553
000230 a3 d9 04 be a7 df 69 bd 90 bf 65 bd 70 a5 5b be
       -0.12973647 -0.057098057 -0.05609089 -0.21449828
000240 cc 2d 0a 3e e7 04 2a 3e 88 a5 0b 3e 6d 96 ea be
       0.13494033 0.16603433 0.13637364 -0.4581789
000250 d5 65 0a 3e 72 47 8c be 5a 05 b4 bc 00 5b 13 3e
       0.13515408 -0.27398258 -0.021975208 0.14390182
000260 99 c9 06 be a5 f7 8b be e0 2a 30 be 05 b6 28 3d
       -0.13162841 -0.27337375 -0.17203856 0.041189212
000270 98 a9 f8 3d c2 5e d5 3c 19 46 b2 be cd 35 01 3e
       0.121417224 0.02604616 -0.34819105 0.1261818
000280 d0 3c 52 3e 5c ca 25 3e 37 c4 9c bd 12 b9 59 be
       0.2053101 0.16190475 -0.076546125 -0.21262005
000290 da 9e 40 bd 48 d7 b6 bd 17 b0 a5 be 4b 3d b9 bd
       -0.047026493 -0.089277804 -0.32360908 -0.09044894
0002a0 78 b7 57 3d 89 b2 f1 bd 7a 79 0a be dd 54 24 3e
       0.052665204 -0.11801631 -0.13522902 0.16047998
0002b0 26 4f 34 bc a0 ce c1 3d 56 f9 75 bd 43 f8 04 bd
       -0.011005199 0.09463239 -0.06005224 -0.032463323
0002c0 79 c3 29 be 5e 32 16 3c 33 83 ab 3c 4a ce e4 3d
       -0.16578473 0.009167282 0.020936584 0.11172159
0002d0 ab 62 0e 3d 09 75 8a bd cc 7d 1d 3e 45 da 5e be
       0.034762066 -0.06760604 0.15380019 -0.2176295
0002e0 fe 97 a2 bd 19 5c 56 bd a6 44 99 3e 8d d3 87 be
       -0.079391465 -0.052333925 0.29935187 -0.26528588
0002f0 a8 bc 35 be 14 6b b4 3d 56 57 fb 3c f4 a8 f8 3d
       -0.17747748 0.08809486 0.030681293 0.121416
000300 21 21 f0 3d a8 bc 5b bd e3 1c b2 bd df 86 e1 3b
       0.11725069 -0.053646713 -0.08696916 0.006882533
000310 bc 5f 8f 3d 2c 6d 7a bc e9 dd e2 bd 4c 87 e3 bc
       0.07000682 -0.015284818 -0.11077482 -0.027774476
000320 b3 a6 c6 3d 39 86 9d 3d ba 04 16 be 81 41 a5 bd
       0.09699764 0.076916166 -0.1465024 -0.080691345
000330 7b 16 3d 3d 2d b7 54 bb 83 2c cc 3d ad df 12 3e
       0.046164017 -0.0032457814 0.099694274 0.14343138
000340 9a d2 28 3d 12 9c ce 3c b8 fe c9 bd a7 11 35 3e
       0.04121647 0.025220904 -0.09863037 0.17682515
000350 5f fe 8e 3d 2b 1b 40 be 96 19 8f 3d 82 f9 63 3e
       0.06982111 -0.18760364 0.06987302 0.22263148
000360 b3 91 8e 3e da 54 91 bc 6c 96 b9 bd 87 80 09 3e
       0.27845535 -0.017740656 -0.09061894 0.13427936
000370 bf 90 87 bd bc b1 cb 3d 40 38 02 bb df fd 52 bd
       -0.06619405 0.099460095 -0.0019869953 -0.05151164
000380 3b 15 0f be 54 13 e3 bb 5b 35 01 3d ed 5a 6e 3d
       -0.13972943 -0.0069297943 0.031545024 0.058192182
000390 60 bc 3c be fa ec 1b be 5c 40 02 be d4 c3 c3 bd
       -0.18431234 -0.15227118 -0.12719864 -0.095588356
0003a0 ac 80 20 be a0 b5 0f 3e 3d ec 07 bd 3c 13 2f bd
       -0.15674084 0.14034128 -0.03318428 -0.042742953
0003b0 ec 5a c6 3d 84 9b e9 3d d0 d3 3d bc d8 80 3a bd
       0.09685311 0.114066154 -0.011586145 -0.04553303
0003c0 8a b9 d2 bb d2 b1 70 bd 38 d4 72 be 29 1d 00 3e
       -0.0064308094 -0.058763333 -0.23713768 0.12511124
0003d0 d8 09 36 bd bc fd 87 be 85 0a 11 bd cb d7 1c bc
       -0.04444298 -0.2656077 -0.035410423 -0.009572933
0003e0 99 a0 dd bc d1 0b fa bc 73 2d 85 be 5d e0 e3 bd
       -0.027054118 -0.030523213 -0.26011238 -0.11126778
0003f0 30 e5 08 3e 2d 63 63 b9 60 3e 78 bd eb 8b f9 bc
       0.13368678 -0.00021685353 -0.06060636 -0.030462226

model/dense_4/MatMul;model/activation_4/Relu;model/dense_4/BiasAdd f4 [100]
000000 df dd f9 c0 5e 35 71 3f 22 75 e2 bf 97 f7 54 40
       -7.808334 0.94222057 -1.7691996 3.3276117
000010 c2 ba 37 c0 63 d8 d6 3f 0a b0 09 41 7e 2e ff 3b
       -2.8707738 1.6784786 8.605478 0.0077875247
000020 70 f0 bb 41 ad f9 e4 40 de 30 2a c1 55 58 c0 c0
       23.492401 7.155478 -10.63693 -6.0107827
000030 35 ab d7 41 dc 80 54 41 28 88 4b c1 d6 62 1a c1
       26.958597 13.28146 -12.720741 -9.64913
000040 e9 d8 25 c0 be d3 bf bf 78 ea 22 40 e1 5b e2 40
       -2.5913641 -1.4986494 2.5455608 7.0737157
000050 bb af ee c0 1a bb 40 c1 62 96 3d 41 fe 12 35 c1
       -7.4589515 -12.045679 11.849215 -11.317137
000060 b4 1f 05 42 58 63 84 c0 fd 67 56 41 1f 4f 47 41
       33.28096 -4.137127 13.400388 12.456817
000070 7a db 1c 41 fe b1 8d c0 7c 62 08 bf 32 e4 44 c0
       9.803583 -4.4279776 -0.53275275 -3.076428
000080 54 e2 91 41 9e 67 a1 40 72 f6 65 41 cc 2a 35 c1
       18.235512 5.0438986 14.372667 -11.322948
000090 82 f5 5d c0 e5 18 08 41 4c 00 85 41 82 4c b0 41
       -3.4681096 8.506078 16.625145 22.037357
0000a0 5c ea 08 42 a6 6f 8a 40 18 b7 e2 40 74 c5 8b c0
       34.228867 4.326129 7.0848503 -4.367853
0000b0 bd 1c 05 42 d2 96 d4 c0 08 4e de c0 5d 8c d7 c0
       33.278065 -6.6434107 -6.9470253 -6.735884
0000c0 09 1c 95 c1 79 1b b7 40 4c 07 cd 41 0d 91 4c 41
       -18.638689 5.7221036 25.628563 12.785413
0000d0 0f 5b 06 c1 ad c4 44 40 d1 31 41 41 46 c4 03 41
       -8.397231 3.0745041 12.074662 8.235418
0000e0 d1 e6 c0 40 24 11 46 41 db 8e 8a 41 b0 ab 2d 41
       6.028176 12.379185 17.319754 10.854416
0000f0 79 4c a0 c1 7f 82 05 41 19 11 27 c0 e2 d7 0e 41
       -20.03734 8.344359 -2.6104186 8.927706
000100 8f 13 06 40 9a ce a0 41 89 5f 0c c1 01 3c 34 41
       2.0949438 20.10088 -8.773324 11.264649
000110 da 97 97 41 94 78 99 41 78 6f b2 bf 61 a4 d9 41
       18.949146 19.183876 -1.3940268 27.205263
000120 76 64 e9 40 03 5c bd c1 45 13 20 41 c0 62 e5 41
       7.2935133 -23.669928 10.004704 28.673218
000130 78 a9 b2 41 4f be ba 40 99 98 68 41 8b 64 aa c1
       22.332748 5.835731 14.537255 -21.299093
000140 5c 06 6b 41 c4 be a4 41 54 78 6d 41 56 c6 77 c1
       14.689053 20.593147 14.841877 -15.485922
000150 f6 8a 7a 40 01 b6 e0 3f d9 bf 2e 41 31 45 24 40
       3.9147315 1.7555543 10.921838 2.566723
000160 73 42 6f 40 b2 4d 5d c0 36 25 51 c1 dc e2 94 41
       3.7384307 -3.4578671 -13.071585 18.610771
000170 bb 6a 5e 41 8c 9b 51 40 da 4f c6 41 c4 37 c3 41
       13.901057 3.2751188 24.78899 24.40223
000180 6e c5 d4 bd 3c fc 0f c1 d1 c9 90 41 90 3d 81 c0
       -0.10389219 -8.999081 18.098543 -4.038765

model/batch_normalization_3/batchnorm/mul_1;model/batch_normalization_3/batchnorm/add_1;model/dense_4/MatMul;model/activation_4/Relu;model/dense_4/BiasAdd f4 [100, 100]
000000 9c b0 b7 bd e7 4d 7c bb 91 25 dd 3a 0e 3b 24 be
       -0.089692324 -0.0038498582 0.0016872158 -0.16038153
000010 40 c9 3f be e4 7a d4 3d b5 bf a6 3d d3 c0 88 bd
       -0.18729115 0.10375002 0.08142034 -0.06677403
000020 1b b7 16 be 18 9a 0f 3d b2 cb 69 bd 51 30 14 3e
       -0.14718287 0.035059065 -0.057079025 0.14471556
000030 ef 2f ce 3c 7f db 1a bc b6 7e 3d 3e d6 d9 50 3e
       0.02516934 -0.009451746 0.18505368 0.20395598
000040 fa 1a ad bd 54 60 c5 bc 8c d7 db 3b 98 e3 2b 3d
       -0.08452411 -0.024093784 0.006709045 0.041965097
000050 dc c9 00 bd fb 36 8c 3e 54 50 a4 3e 32 bf 0c 3e
       -0.031442508 0.27385697 0.32092535 0.1374481
000060 e3 68 a0 bd 6e 91 ce 3c 45 5d 21 3e 8d 13 0a 3d
       -0.078325056 0.02521583 0.15758236 0.03371005
000070 53 ec e8 bd a9 b9 8f bd 53 29 23 be 24 76 94 be
       -0.113732 -0.07017834 -0.15933733 -0.28996384
000080 a8 05 b6 3a ae 1a a1 bd 71 d8 f3 bb 0b d2 fa 3d
       0.0013887184 -0.07866417 -0.0074415733 0.12247094
000090 fb 46 64 3e 09 2d 44 bd 44 e4 89 be 77 e1 0a bc
       0.22292702 -0.04789451 -0.26931965 -0.008476607
0000a0 1e 78 52 be ed 1a 80 bd b4 a6 2c 3c 62 d9 83 3d
       -0.20553634 -0.06255136 0.010537792 0.06437947
0000b0 62 94 ff 3d 5a 73 e3 3d 50 6d 1e be c3 f2 9f 3b
       0.12479474 0.11105986 -0.15471387 0.0048812344
0000c0 59 3c ae 3e 8f e5 c6 3b c6 dd 0c 3e 2f ce 07 3e
       0.34030417 0.006069846 0.13756475 0.13262247
0000d0 c6 20 26 3e b2 e2 7a 3d 3c 62 f8 3c d2 04 b2 bc
       0.1622344 0.06125135 0.03032028 -0.021730814
0000e0 dc a0 59 bd eb 3c d2 3d 9e 3a 15 3c 96 23 47 3e
       -0.053131923 0.102655254 0.009108214 0.19447169
0000f0 9e 00 6c be 76 80 3e bc bd 9c 7d 3b 16 85 01 3e
       -0.2304711 -0.011627307 0.003869816 0.12648425
000100 2e 0a 96 bd a1 71 de 3c 28 ad 7b 3d 4b d3 f8 3c
       -0.0732616 0.027153792 0.06144443 0.03037419
000110 d2 c7 7b 3d e7 a6 a0 3d 0d 16 63 bd 9e 8e 97 3d
       0.06146986 0.07844334 -0.05544095 0.07400249
000120 97 7c 57 3e 66 1c 76 3d a9 03 d4 bd ca b3 d1 be
       0.21043621 0.060085677 -0.103522606 -0.4095748
000130 b2 5f 32 be 21 a7 2a be 52 55 2d bb b8 7b e5 3c
       -0.17419317 -0.16665317 -0.002644856 0.028013095
000140 60 d2 37 3d bd 72 ae 3d e5 87 15 3d d7 4c c0 bd
       0.044878364 0.08517978 0.036506552 -0.09389656
000150 31 f8 b3 3d 14 27 a9 bd 1c 1e 7c bd a0 e1 f2 3d
       0.08787573 -0.08259407 -0.061552152 0.11859441
000160 fd e5 43 bd b0 04 5a 3d 67 e4 a8 bd 27 f2 32 bb
       -0.047826756 0.053227127 -0.08246689 -0.0027304979
000170 f2 f4 e2 3d 94 58 aa bd 5c 4c a2 be 78 47 cf 3d
       0.11081876 -0.08317676 -0.31698883 0.101210535
000180 94 c3 0f 3e 94 b0 14 3e 1c 7f 3f 3c a6 14 01 3d
       0.14039451 0.14520484 0.01168802 0.031513833
000190 8d f4 62 3d 87 fb aa 3d 99 e6 43 3d 40 df 7c 3d
       0.055409003 0.08348756 0.047827337 0.061736345
0001a0 7b 28 a7 bd 92 32 4c bc 9e 2a 1a 3d 23 89 62 3e
       -0.08162018 -0.012463229 0.0376383 0.22122626
0001b0 b7 98 54 be 91 fb ac 3d 2c 00 10 3b 4a 90 64 3e
       -0.20761381 0.0844642 0.0021972759 0.22320667
0001c0 53 03 b3 bd c7 78 4e 3d 6a 33 52 3d 1e c9 46 3d
       -0.087408684 0.05040815 0.051318564 0.048531644
0001d0 a4 9e 94 3d 43 11 f0 3d 71 c5 d0 3d cc 2c d2 be
       0.07256821 0.117220424 0.10193909 -0.41049802
0001e0 c6 97 4f bd 78 fd ad bd 6f ca e3 bc fd 27 66 3e
       -0.05068185 -0.08495611 -0.027806489 0.22476192
0001f0 fc a3 bf bc 02 fe 6b 3d 29 86 ed bd ee de 30 3d
       -0.023393624 0.057615288 -0.11597855 0.043181352
000200 b6 39 30 bd b0 55 8a 3e 89 80 c7 3d f5 52 e1 bd
       -0.043023787 0.270185 0.09741313 -0.11002151
000210 9e f0 10 3d b0 0e ce bd ee d6 01 3e 30 3a 21 bd
       0.03538572 -0.10061395 0.12679645 -0.039362133
000220 84 d3 19 3e 46 a7 cf bd cf 07 0a 3e 7d 6d 38 bc
       0.15022093 -0.10139327 0.13479541 -0.011256573
000230 bd 04 c1 3d c3 37 a6 be 44 88 9b 3c b8 c5 33 bc
       0.09424732 -0.32464418 0.018985875 -0.010972433
000240 8f f6 46 3d 9c f4 ec bc fe fd 6e 3e 61 fe c4 bd
       0.04857498 -0.028925233 0.23339078 -0.096188314
000250 7a d8 e1 bd f5 32 02 3d 60 23 fe 3b b6 53 2b 3e
       -0.11027618 0.031786878 0.007755682 0.16731152
000260 51 48 69 be d4 77 dc 3d d7 8f 9d 3d 53 49 9c 3c
       -0.22781493 0.10765043 0.07693451 0.019077932
000270 52 fb 94 3c 15 b3 1d be 47 a8 c9 ba a1 c0 81 be
       0.018186245 -0.15400346 -0.0015385234 -0.25342277
000280 c6 10 1d 3d 29 2e c3 bc 2c 56 06 be 35 c8 23 3d
       0.038346075 -0.023825722 -0.1311881 0.039985854
000290 45 6e 1c 3e 2a f6 0d be e4 50 11 3c a5 5e 05 bd
       0.1527644 -0.13863435 0.0088693835 -0.032560963
0002a0 34 ba 30 3e bd 8c ea 3d 66 1a 46 bd 18 33 aa be
       0.17258531 0.11452625 -0.04836502 -0.33242106
0002b0 b4 f2 d7 3e fa b7 7b 3e 7f 79 42 3b e0 a9 ce bd
       0.42177355 0.245819 0.0029674468 -0.10090995
0002c0 f7 c9 e4 bd 36 b0 61 3e f1 b9 a0 3d 5a 28 fa bd
       -0.11171334 0.22039875 0.078479655 -0.12214728
0002d0 75 64 14 bc 6f c6 20 3e 4b 24 4f be f5 6e 23 be
       -0.009057154 0.15700696 -0.20228688 -0.15960295
0002e0 26 64 c3 bd 69 fa 44 be 24 5b e5 3d 3c c4 61 be
       -0.09540586 -0.19236149 0.11199024 -0.22047514
0002f0 b4 88 fb bd 0d 53 91 bc 8f 3e 9f 3c 28 08 2e be
       -0.122819334 -0.017739797 0.01943901 -0.16995299
000300 76 82 64 bc 7e 24 c5 bc 74 21 cc 3d 68 89 06 3e
       -0.01394712 -0.024065252 0.09967318 0.13138354
000310 31 85 e9 3e 38 79 72 3e f6 2d 10 bd cf a9 27 3e
       0.4560943 0.23679054 -0.03520008 0.1637337
000320 76 4e aa ba c7 9f ad 3e c1 8b ee 3d fe 2f 27 3e
       -0.0012993354 0.33910963 0.1164775 0.16326901
000330 dd 2a 05 3e b1 f6 9d bd 99 04 59 bc e4 ac 16 3e
       0.13004632 -0.07713068 -0.013245725 0.1471439
000340 12 ed 96 3d ca 22 cf bd 3a 4b 1a be a3 50 a9 3e
       0.07369436 -0.10114057 -0.15067759 0.33069333
000350 0d 03 26 3e ef 96 06 bc 87 8d 1a 3d 55 2a a5 3c
       0.16212101 -0.008214696 0.037732627 0.020161787
000360 f5 d3 c6 3b b3 30 d6 3d bf 35 61 be 45 7a 9b 3d
       0.0060677477 0.104585074 -0.21993159 0.075916804
000370 fa 5b 1a 3b 60 c1 f2 3c 97 a7 a4 3b be 9a 9f bc
       0.0023553357 0.029633224 0.005024861 -0.019482967
000380 5c 3a c4 bc 70 4b 53 be e2 fd b2 3d b7 3b c4 3c
       -0.02395361 -0.20634246 0.087398306 0.023954256
000390 c6 7f 4a bd ee 14 25 3e 4f 29 cd 3b 4c 6a 48 bd
       -0.04943826 0.16121265 0.006261028 -0.048929498
0003a0 5d f8 02 be 7b c9 d7 3d d7 df 3f 3c b1 81 8b be
       -0.12790056 0.10536476 0.011711082 -0.27247384
0003b0 e8 01 4d 3c bf a9 fb 3b 39 cf 6d bd 58 b2 f8 bd
       0.0125126615 0.0076801474 -0.05805895 -0.12143391
0003c0 36 79 58 bd fe 93 3e be d6 33 37 be 1a 30 e7 3d
       -0.05284997 -0.18611142 -0.17890868 0.112884715
0003d0 b5 50 40 bd b9 8b 11 bd 9d 65 15 3e 92 14 46 3c
       -0.04695197 -0.03553364 0.14589544 0.012089865
0003e0 8d 63 70 3e 5a ea 74 bd 9c 02 16 3e 1a 72 ac be
       0.23475476 -0.059793808 0.14649433 -0.33680803
0003f0 28 a9 38 3d f5 57 53 3d ed 01 04 3e 0e 58 df 3d
       0.045083195 0.051597554 0.1289136 0.10905467

model/dense_5/MatMul;model/activation_5/Relu;model/dense_5/BiasAdd f4 [100]
000000 84 3c 04 c0 df 64 9c 41 0a e6 0d c1 eb 8b e9 3e
       -2.0661936 19.549253 -8.868662 0.4561456
000010 30 c0 f5 40 f5 f7 19 c1 43 5d fd 41 c2 94 08 41
       7.6797104 -9.623036 31.670538 8.536318
000020 bd b4 4d bf d9 5b 81 40 63 01 c0 41 56 0e 63 40
       -0.8035391 4.042462 24.000677 3.54775
000030 ba ee 7d c0 7f 6b bd 41 9a 2b 88 c1 61 d8 57 41
       -3.9676957 23.677488 -17.02129 13.490327
000040 d9 7b e1 c0 b4 93 7b 40 fa 22 79 40 4f e5 97 3f
       -7.046368 3.93089 3.8927598 1.1866854
000050 74 d1 0f 42 66 a5 4a c1 8e 66 7f 41 d5 f6 45 41
       35.954544 -12.6653805 15.962538 12.372762
000060 eb 3d ad 41 5e 26 b2 40 2f 5f ea c0 7c f6 84 40
       21.655233 5.5671835 -7.324119 4.1550884
000070 c9 2a 32 41 cc 78 ac 41 69 2c 46 c1 88 e6 85 bf
       11.135446 21.558983 -12.385842 -1.0460978
000080 11 cd 51 c0 34 42 55 c0 8c 17 17 41 07 80 6c 41
       -3.2781413 -3.3321657 9.443249 14.781257
000090 7f c3 a0 40 56 07 62 41 bb 31 49 3e 3a 30 da c1
       5.0238643 14.126791 0.19647877 -27.273548
0000a0 e3 88 95 41 6d f3 8c c1 70 27 dc 40 fb ff 80 41
       18.69184 -17.61886 6.879814 16.12499
0000b0 cb cd 28 41 0f 0f 89 c1 fb 87 81 bf 40 68 61 40
       10.550242 -17.132353 -1.0119623 3.521988
0000c0 44 3e b6 c1 11 20 82 41 82 46 18 3f b4 9a 34 41
       -22.780403 16.265657 0.59482586 11.287769
0000d0 59 9c 6a c1 12 26 10 40 78 c9 bf 40 6e 59 80 c0
       -14.663171 2.2523236 5.9933434 -4.0109167
0000e0 c8 81 e7 c0 6d 60 03 41 c0 5c 23 c0 06 98 88 41
       -7.2345924 8.211041 -2.552536 17.07423
0000f0 b4 b3 45 41 ee 07 8e 40 11 75 35 41 9f dc 27 41
       12.356373 4.438468 11.341081 10.491363
000100 39 15 33 c0 60 94 84 41 2d 11 30 41 e0 58 3b c0
       -2.7981703 16.572449 11.004193 -2.9272995
000110 57 25 97 c0 43 7f ae bd 45 60 b6 c1 fb 92 0e 41
       -4.723308 -0.08520367 -22.797007 8.910884
000120 e7 65 f3 41 87 cb 13 41 bd b1 70 40 dc 5e d5 3d
       30.424757 9.237189 3.7608483 0.104184836
000130 c8 ce 33 c0 71 4f 38 c1 9c d5 26 c0 5c 51 06 c2
       -2.809496 -11.519395 -2.6067877 -33.579453
000140 73 31 12 42 b0 9e 2f bf b1 97 d0 41 cf f5 d4 41
       36.54829 -0.6860151 26.074068 26.620024
000150 f8 c7 c5 40 bf 83 8d 3f bc 69 37 c0 72 d6 41 41
       6.1806602 1.1055831 -2.8658285 12.114855
000160 60 94 2e c1 de 81 b8 3f 06 34 0d c1 21 be a7 41
       -10.911224 1.4414632 -8.825201 20.967836
000170 b7 bf c7 bf d9 9c b8 c0 1e 05 3b 40 be 5b af 40
       -1.5605382 -5.7691464 2.9221873 5.479949
000180 11 89 4d 41 88 34 95 41 c5 2c 08 41 12 7e 62 40
       12.8459635 18.65065 8.51093 3.5389447

model/batch_normalization_4/batchnorm/mul_1;model/batch_normalization_4/batchnorm/add_1;model/dense_5/MatMul;model/activation_5/Relu;model/dense_5/BiasAdd f4 [100, 100]
000000 2e e2 3a 3d df 66 00 be c6 13 ab 3c 01 6d 06 3d
       0.045625858 -0.12539242 0.020883452 0.032818798
000010 48 1a 9b 3d 25 57 0d 3f 92 f2 0f 3e 6a 61 e0 3e
       0.07573372 0.55211097 0.14057377 0.4382432
000020 69 9d f5 3d 78 14 41 be f8 4d 5c bf b1 ae 2d bf
       0.11992914 -0.18855464 -0.8605647 -0.6784468
000030 ee 23 2e bd ea 25 91 bd b7 ee 08 be 59 39 90 3e
       -0.042514734 -0.0708731 -0.13372312 0.28168753
000040 6b fb bf bd 46 66 01 be ad 16 79 3e ab 53 0b be
       -0.09374126 -0.1263667 0.24325056 -0.13606136
000050 9a 05 60 3d 8a 4b 5a 3d 7a 24 ae 3c 4e 03 c2 bd
       0.054692842 0.053294696 0.021257628 -0.094732866
000060 fa 52 41 3d 75 de 82 bc a3 58 aa bd f7 ec 06 3d
       0.047198273 -0.015975216 -0.08317687 0.03294083
000070 95 dd 0c 3e a1 e0 f8 3d 26 39 e4 bd 72 46 d2 bd
       0.13756402 0.121522196 -0.11143713 -0.102673426
000080 a4 b6 a3 bd b2 36 de bc 2e 1b 17 be 45 cb 60 be
       -0.0799382 -0.02712569 -0.14756462 -0.21952541
000090 b5 54 01 3b 55 39 84 3d e7 ce 82 3d 16 ae 6c bb
       0.0019734327 0.06456248 0.0638712 -0.0036114505
0000a0 89 e7 a3 3d 41 05 59 3e 77 d7 10 bd 56 4e db bd
       0.08003146 0.2119341 -0.035361733 -0.10708301
0000b0 ae ee 3e 3d e9 b3 80 3e 3a ac 2a be 49 80 9b bc
       0.04661434 0.2513726 -0.16667262 -0.01898207
0000c0 64 e6 57 bd c7 85 d7 bf 29 96 58 3d 4f 29 bf bd
       -0.052709952 -1.6837701 0.05287758 -0.09334051
0000d0 d0 46 7c 3e 3a 74 33 3c d7 d1 43 3d 81 8a 1a 3e
       0.24636388 0.010953004 0.04780754 0.15091898
0000e0 ac 7f b6 3c 76 55 59 be 12 b0 00 be 1d f3 4b 3d
       0.022277676 -0.21224007 -0.12567165 0.049792398
0000f0 0d 17 e6 3c 45 be d1 3c 13 ef a2 3c 5b da 58 3e
       0.028087163 0.025603423 0.01988939 0.21177046
000100 9b 7b 12 3e 4d 85 01 3d a6 d2 12 3e fe 40 4d 3d
       0.14304964 0.031621266 0.14338169 0.05011081
000110 cc 9b 84 bc 98 bd 4f be fb b1 80 3c b7 f2 eb bd
       -0.016187571 -0.20287168 0.015709868 -0.115209036
000120 cd fe de bd fe 2d 2c be 6e d9 21 bd 52 cd 4b 3d
       -0.10888443 -0.1681442 -0.039513998 0.049756356
000130 5a 22 fe 3b 11 b7 8a 3d 0e 54 9b 3e 67 c3 ee 3d
       0.00775556 0.067731984 0.30337566 0.11658364
000140 3f 80 09 be 3c ff 6d bc fe d9 c6 bd 2a c1 ef 3e
       -0.13427828 -0.014526185 -0.097095475 0.4682706
000150 7f 9b 12 be 75 b6 84 bd 6a c3 01 3e 05 18 34 3e
       -0.1431713 -0.064801134 0.12672201 0.17587288
000160 6a 12 4d be ca 1b a5 be 23 6b be be 80 a9 55 3d
       -0.20026556 -0.32247764 -0.37191114 0.0521636
000170 ea cd 9c 3d 27 bf 9f bd 56 76 f7 3d f8 ff 1e bd
       0.076564625 -0.07800131 0.12083118 -0.03881833
000180 10 97 90 be f0 3f 10 be cb 8d 05 3e 1a 65 c0 bd
       -0.28240252 -0.1408689 0.13042371 -0.093942836
000190 0e 60 79 3d 86 ee a4 bd ca 02 36 be 27 ef 8a be
       0.06088262 -0.08053307 -0.17774501 -0.27135584
0001a0 71 1b 42 3d 71 9e 4c 3e 41 14 b1 3c 5f 6d 47 bc
       0.04738945 0.19982316 0.021616103 -0.012172072
0001b0 3b a9 c5 3d b8 b6 66 3e 1d 8a e4 3e 40 94 9b 3d
       0.09651419 0.22530639 0.44636622 0.07596636
0001c0 de 61 3b b9 c3 c9 41 3e 0c e7 96 3e c0 30 19 be
       -0.00017870168 0.18924622 0.2947315 -0.14960003
0001d0 60 98 59 be de 8a fa be 8d 27 d6 3d e8 a8 f2 3b
       -0.21249533 -0.48934072 0.104567625 0.007405389
0001e0 4b 60 58 be e5 8f 55 be a3 f3 be 3c 91 ed 90 3c
       -0.21130483 -0.20855673 0.023309534 0.017691405
0001f0 18 89 83 bd 64 b7 9d bd f8 b1 d1 3c 75 a5 3f bd
       -0.06422633 -0.077009946 0.025597557 -0.04678865
000200 4f b7 28 bd bc b7 de bd 7d b5 07 bd c5 5c a0 be
       -0.04119044 -0.10874888 -0.033132065 -0.31320778
000210 41 a1 4c 3d c5 2d a1 3d d6 6e e5 3c 86 67 42 be
       0.04995847 0.07870058 0.028006952 -0.18984804
000220 09 5f e7 ba b8 fc a9 3d 1a 41 d3 3d 11 7c 35 3d
       -0.0017652224 0.083001554 0.103151515 0.044307772
000230 f4 49 a1 3c c7 21 0d be ed 03 ab bc 3f ff 0f 3e
       0.019688584 -0.13782416 -0.020875895 0.14062212
000240 62 6f af 3c 71 be 29 bf aa 99 51 3c bf 10 70 be
       0.021415416 -0.66306216 0.012792984 -0.23443888
000250 2f c2 bb 3a da 05 10 3e ee 74 67 3e 78 e6 7b 3b
       0.0014324839 0.14064732 0.22603199 0.003843693
000260 b4 29 47 3e 3b a4 6f 3c 21 7f d2 bb 34 35 d9 bd
       0.19449502 0.014626558 -0.0064238464 -0.10605851
000270 7f 3a 2e 3c 39 8f e6 bc 13 47 1e be 03 07 48 bc
       0.010634064 -0.028144466 -0.154568 -0.012208703
000280 a1 58 cc bd 89 b9 79 3d 3f 6d a5 3c ad b9 18 be
       -0.09977842 0.060967956 0.020193694 -0.1491458
000290 8a 60 93 bd 6b 7a c5 bd 04 9c 2a 3e e9 78 18 be
       -0.07196148 -0.0964249 0.16661078 -0.14889874
0002a0 40 c8 40 be e9 42 39 3c 60 eb 10 bf af dd 9a bc
       -0.1882639 0.0113074565 -0.56609154 -0.018904535
0002b0 91 d0 54 bd 22 ab 27 bd 75 82 33 be be 63 14 bd
       -0.051956717 -0.04093469 -0.17530234 -0.036227934
0002c0 9b 47 b0 bc 07 74 10 be 4a b8 f7 bd ea 48 f7 3d
       -0.02151852 -0.14106761 -0.12095697 0.12074454
0002d0 46 9b 95 3d 1d e3 82 bd ed ad cd bb df 68 67 bd
       0.07305007 -0.06390975 -0.006276837 -0.056496497
0002e0 f8 e9 ec be f5 9c a3 bc 96 0c 98 3d bb 90 ba bd
       -0.46272254 -0.019972304 0.074242756 -0.091096364
0002f0 78 38 96 3e f4 30 7e 3e c8 1f 13 3d ff ef bf be
       0.29339957 0.24823362 0.03591898 -0.3748779
000300 83 85 56 bd e3 38 05 bd 60 f8 8a ba 4d 5a a2 bd
       -0.05237342 -0.032524955 -0.0010602586 -0.0792738
000310 06 5d 94 bd ca 4d 3f be c1 79 29 be 81 42 ca be
       -0.07244305 -0.18682018 -0.16550352 -0.39503863
000320 8c 21 4e 3e e3 62 3d 3e 5d 98 36 3c 1f 35 0f be
       0.20129985 0.18494754 0.011144725 -0.13985108
000330 c3 54 a5 bb 21 4d 68 be 43 0b 15 bc 96 a8 36 3e
       -0.005045505 -0.22685672 -0.009096923 0.17837748
000340 6e f5 aa bc 5c 89 3a be 16 22 5e 3d 6e ec 84 bd
       -0.020868983 -0.18216461 0.054231726 -0.06490408
000350 04 b5 26 3d 45 e7 23 be 5b 2b 04 3d de 6c 73 3c
       0.040699974 -0.16006191 0.03226791 0.014857499
000360 01 f0 6b 3d 7e 2b 22 be 5c 08 10 be f0 63 75 3e
       0.057601932 -0.15836903 -0.14065689 0.23963904
000370 90 2d 87 bd fa 1a 5e 3e d0 2c ca 3d 99 e0 f7 bc
       -0.06600487 0.21689978 0.098718286 -0.030258464
000380 cd 83 63 bd ec fe ea bc 3f 68 a5 bd a8 08 0f 3d
       -0.055545617 -0.02868601 -0.08076524 0.034920365
000390 aa c8 9d 3e c4 fa 57 bd 65 e6 38 bd 71 82 82 3d
       0.30817157 -0.052729383 -0.045141596 0.06372536
0003a0 72 22 8c bd 77 30 c1 bd 11 5b cf 3b 10 d4 89 3c
       -0.068425074 -0.09433072 0.0063279946 0.016824752
0003b0 ff 40 7f 3d e5 4e d1 bd 61 af eb 3d 68 c5 88 3d
       0.062317844 -0.10220126 0.1150806 0.06678277
0003c0 20 8b 89 3d e3 49 65 bd 2d ef 4d 3d 15 b7 5f be
       0.06715989 -0.055978667 0.050276924 -0.21847184
0003d0 df ce 6e 3c 35 67 8a 3d e7 6d aa 3d 06 eb 10 3c
       0.014575689 0.067579664 0.083217435 0.008845096
0003e0 a7 3a b2 3c b3 0f 8b bf 2b 6d 71 3f ea bd 8b bd
       0.021756483 -1.0864166 0.943072 -0.068233326
0003f0 25 18 82 3c 38 95 c8 3c cf 5a 27 be 36 13 4d bd
       0.015880654 0.024485216 -0.16343234 -0.05006715
