corintho_ai/python/tflite_models/model_41.tflite (tflite, 521576 bytes, 27 tensors)

model/dense_1/MatMul;model/activation_1/Relu;model/dense_1/BiasAdd f4 [100]
000000 e7 fa de c1 9b ac c7 42 f8 4e 32 c2 21 a6 21 bf
       -27.87251 99.83712 -44.577118 -0.6314412
000010 bc 82 57 42 98 4b c7 41 d4 7a 67 42 a8 e4 d4 c1
       53.87767 24.911911 57.86995 -26.611649
000020 25 fe 1b c2 de da b1 40 e8 51 86 3e fd 83 14 c2
       -38.998188 5.557967 0.26234365 -37.128895
000030 8a b0 a5 40 01 15 fd c1 ab 62 ec c0 7c d8 59 c2
       5.1778 -31.635256 -7.3870444 -54.46141
000040 84 07 51 41 2c 9b 29 c0 ad 62 13 c1 13 19 cc 3f
       13.064335 -2.650096 -9.211591 1.5945152
000050 33 d8 ce 40 ef 5c d5 3f 00 b6 27 41 73 62 3d c2
       6.4638915 1.6668986 10.481934 -47.34614
000060 5c c7 64 42 45 9b e0 40 08 cd 6e c1 4d d3 15 be
       57.194687 7.018954 -14.925056 -0.14631386
000070 0f 0c 0e c2 2a 2f fc 41 5f a6 d2 c1 0a e3 1b bf
       -35.511776 31.52303 -26.331236 -0.6089331
000080 5d e4 d5 41 0b 4b dd c1 ac 0e 62 42 2d f8 19 42
       26.736506 -27.661642 56.514328 38.49236
000090 5c 7c 5b 41 c4 47 db c1 61 d8 f1 40 ed dd f0 41
       13.717861 -27.410042 7.5576634 30.108362
0000a0 e2 59 6a 42 93 b1 c4 c0 0d de 10 c2 9a a8 01 bf
       58.587776 -6.1466765 -36.216846 -0.5064789
0000b0 03 49 6a 41 a1 86 8f c1 46 d3 f2 40 b6 f4 c4 c1
       14.642825 -17.940737 7.58829 -24.619488
0000c0 82 da b6 c0 8e 82 8b c1 15 af 80 41 0a 21 35 c2
       -5.7141733 -17.438747 16.08549 -45.282265
0000d0 52 09 11 41 c2 b5 eb 42 eb 20 62 c0 94 35 ec 41
       9.064775 117.854996 -3.5332592 29.526161
0000e0 bb b7 27 41 55 71 4a c1 b3 26 b2 41 36 d1 44 c1
       10.482356 -12.652669 22.268896 -12.301077
0000f0 b6 24 34 41 a3 e9 44 42 01 84 75 c0 3d 29 b1 41
       11.258963 49.22816 -3.8361819 22.145136
000100 92 c5 32 42 a1 1c 7e 42 2c 1b b1 42 c7 5e 9a 41
       44.69294 63.527958 88.55307 19.296278
000110 30 00 8d c1 86 13 59 c2 91 b8 62 c1 5b 4c ac c1
       -17.625092 -54.269066 -14.17006 -21.537283
000120 ec 76 33 41 17 14 85 42 bc 59 5a c0 e4 7b 61 42
       11.216534 66.53924 -3.411727 56.370987
000130 f9 c7 35 c0 1b 20 af 40 00 b8 a7 c2 b4 1c 2a 3f
       -2.8403304 5.472669 -83.859375 0.6645005
000140 d3 f3 b7 40 33 5f 00 42 ed cf 14 41 93 0f a8 c1
       5.7485137 32.092968 9.300763 -21.007605
000150 b0 85 b6 c1 f3 d4 5c 42 a4 aa 8c 41 28 f9 9e c1
       -22.815277 55.20796 17.58332 -19.871658
000160 d7 a0 6e 42 89 b6 13 42 1d 0a 95 42 23 15 10 41
       59.65707 36.928257 74.51975 9.00516
000170 8b 30 68 42 a7 2b d4 40 6c 34 fc 3f 10 bf 7f bf
       58.047405 6.6303287 1.9703498 -0.99900913
000180 89 73 e3 42 6b 2c c5 41 59 c7 0d 41 9a 8d 97 c2
       113.725655 24.646688 8.861169 -75.776566

model/batch_normalization/batchnorm/mul_1;model/batch_normalization/batchnorm/add_1;model/dense_1/MatMul;model/activation_1/Relu;model/dense_1/BiasAdd f4 [100, 100]
000000 ec f7 6a 3e eb 26 23 bf 5d 5e b2 3e 15 6c ee 3d
       0.22946137 -0.6373126 0.34837618 0.11641709
000010 61 db ac 3f 39 59 21 3e b6 fe 5a bf 0f 12 31 bf
       1.3504449 0.15756692 -0.8554491 -0.6916818
000020 e7 8d 99 3d d2 61 24 3f 21 e2 f7 3e cf 50 85 3e
       0.07497769 0.6421176 0.4841471 0.26038215
000030 84 c3 b0 3e 12 c6 bd 3d 64 6b 09 bf 8d 69 91 3c
       0.34524167 0.092662945 -0.5367949 0.017750526
000040 59 1f 34 3e dd 3c a8 bf 54 1e 8e 3e 51 91 83 be
       0.17590083 -1.3143574 0.27757514 -0.25696805
000050 ed 8d 2f 3e 4d 27 88 40 15 84 69 3d b8 b8 92 3d
       0.17143984 4.2547975 0.05701073 0.071641386
000060 8f 98 81 3d ea ce dc 3c 53 7d 32 3e 2a 5b 0b bf
       0.06327926 0.026954133 0.1743062 -0.5443598
000070 ba 9b 40 3e 7e 95 2f be 68 1c 88 bd a9 6e 1d 3f
       0.18809405 -0.1714687 -0.06646043 0.6149698
000080 52 91 9c 3d dd 07 90 be 46 04 23 be cc 4d 02 be
       0.07644905 -0.28131 -0.15919599 -0.1272499
000090 f4 d7 a7 bd 06 50 04 be 70 8a 2b 3d fc 24 43 3e
       -0.08195487 -0.12921152 0.04188007 0.19057077
0000a0 a8 03 0d 3f 49 e8 87 3f ca 73 e3 3e a4 fd 56 3e
       0.55083704 1.0617763 0.44424278 0.20995194
0000b0 4b 87 a0 be 67 b0 db bd 9d 00 8a 3e 56 ea a6 3d
       -0.3135322 -0.107270055 0.26953593 0.08150165
0000c0 b5 7b 3c 3f 60 c5 8f 3c bf d4 d5 bc ea bf d1 bf
       0.7362626 0.01755017 -0.026102422 -1.6386693
0000d0 42 ee e8 3e 42 05 83 40 e1 dc 71 3e 35 21 2d bd
       0.45494276 4.094392 0.23619415 -0.042267997
0000e0 eb 26 20 be 5f 80 ee 3e 68 de b8 3f b7 ce e6 3e
       -0.15639846 0.46582314 1.4442873 0.45079586
0000f0 95 3b 92 3e 4d 64 01 be aa d2 32 3e d1 b7 63 bf
       0.28561082 -0.12635918 0.17463174 -0.88952357
000100 1b 12 d7 3e 1d b4 ce be ff 98 68 be 4a a8 2a 3e
       0.42006 -0.4037179 -0.22714613 0.1666576
000110 07 ee 0e be 4b bd 1b 3f fc 9e 05 3f 39 3a c1 bd
       -0.13957988 0.60835713 0.52195716 -0.09434933
000120 c3 de 77 be 04 52 8a 3c ff df 29 3f 16 7e b8 be
       -0.2420607 0.016884811 0.66357416 -0.36033696
000130 bb 40 d1 be 61 45 90 bd 7d 44 58 be 4e 72 a2 3e
       -0.40869698 -0.07044483 -0.21119876 0.31727833
000140 ee 6b 0b bf e0 de 8a 3e b8 3b cf be d6 7f 82 bb
       -0.5446156 0.27123165 -0.4047525 -0.0039825244
000150 9f e0 d5 be 2d 0e 38 bd d0 f8 5f bd f8 0b 5d be
       -0.41772935 -0.044935394 -0.054680645 -0.21586597
000160 61 a3 45 be 3f cc 13 be 44 c4 6c bf f7 a9 7d 3f
       -0.19300605 -0.14433382 -0.9248698 0.9908747
000170 ef c3 1c 3e ce 98 e4 be d9 f3 e2 bd e2 fd 16 3e
       0.15309118 -0.4464783 -0.110816665 0.14745286
000180 64 48 92 3e 24 94 c3 bd e4 59 b9 be a4 2a 08 bd
       0.28570855 -0.0954974 -0.36201394 -0.03324379
000190 8a 71 4f bf 57 91 6e bf c8 49 7f be e9 81 8c 3d
       -0.8103262 -0.9319052 -0.24930489 0.06860716
0001a0 30 da 7e bf 27 86 ec 3f 72 aa e9 3e 1d 50 80 3e
       -0.9955168 1.847844 0.45637852 0.25061122
0001b0 26 a2 52 3d ce 87 c5 be b4 3f c9 3e 8c 52 5f 3c
       0.051424168 -0.38580173 0.39306414 0.013630521
0001c0 da 16 9b bf 22 6e 28 be b6 01 4d be 0d 21 46 bf
       -1.2116349 -0.16448262 -0.20020184 -0.7739418
0001d0 3f 06 e7 bc fd 59 bd bf be 10 42 bf 04 5a 59 3d
       -0.02820122 -1.4793087 -0.75806797 0.05306436
0001e0 6e 56 a7 be 40 cc c0 3e 81 f2 01 3d 7e 55 f1 bd
       -0.32683128 0.3765583 0.03172541 -0.117838845
0001f0 f5 fd 57 3b ab c5 83 bd 91 95 b9 be 21 fc fb 3d
       0.0032957767 -0.064341865 -0.36246923 0.12303949
000200 24 9e a8 be 3c f0 91 3e ba b5 6e bc 68 1b b6 3e
       -0.32933152 0.28503597 -0.014569694 0.35567784
000210 a6 a0 1a 3e dc 40 7f bd cd 9d 95 be c1 38 09 3f
       0.15100345 -0.062317714 -0.29221955 0.53602225
000220 ba 4d 95 be a3 67 e4 bf b1 e4 2c bf e2 f6 25 bf
       -0.29160863 -1.7844127 -0.67536455 -0.6482984
000230 76 6a fc 3d f6 6b a3 be fb 7e 80 bf 8c 00 56 be
       0.12324993 -0.31918305 -1.0038751 -0.20898646
000240 5f 00 4b be 1f 98 7c bf 9a a3 95 3e 0d 67 55 be
       -0.1982436 -0.9866962 0.2922638 -0.20840092
000250 76 99 aa be 01 b1 ca 3e 5f 0e 67 bd 0b 55 8e 3f
       -0.33320206 0.39588168 -0.05641019 1.1119703
000260 6e e7 3c 3d 76 86 48 3f c6 eb e6 3d 1d c2 49 be
       0.046119146 0.7833017 0.11275439 -0.19702955
000270 a0 ba 25 bf c7 e4 5b 3f 70 9f 12 40 39 cb 0e 3e
       -0.6473789 0.8589596 2.2909813 0.13944711
000280 4d 6a 81 3e 27 15 ea 3e 7f fa 88 bd 81 6a 50 bf
       0.25276414 0.45719263 -0.06688403 -0.8141251
000290 78 15 55 bf c5 41 e1 be c8 86 40 3e 30 d5 74 3f
       -0.83235884 -0.4399549 0.18801415 0.956378
0002a0 a0 93 0a be 67 a8 17 be f3 88 da bc 2c 2f ce 3e
       -0.13532877 -0.14810334 -0.02667663 0.40270364
0002b0 c4 a9 11 3e 03 45 1d 3e b3 4e 02 be a6 4b a4 bd
       0.14224917 0.15358357 -0.12725334 -0.08022241
0002c0 ad 28 fd be a8 a7 f6 be 69 37 16 3f 3f 45 9d 3d
       -0.49445096 -0.48174787 0.586783 0.07679223
0002d0 47 3f 92 3e 4c 88 4b bf 9c b1 ab 3e 9d 24 bb 3e
       0.28563902 -0.7950485 0.33533943 0.3655137
0002e0 1a 9b df bd d8 50 3b 3e a3 c5 da 3d 2f 68 aa 3d
       -0.10918255 0.18292558 0.106822275 0.08320653
0002f0 e1 9b a4 3e 65 e6 9c 3c 37 d5 31 bf 15 38 36 3f
       0.32150176 0.01915283 -0.69465965 0.71179324
000300 20 89 81 be 93 87 04 bf ca 50 26 bf 6c f7 84 bd
       -0.2529993 -0.5176937 -0.64967024 -0.064925045
000310 f6 d0 34 be 44 77 74 bf 76 ed 3e bf fd 3e d8 be
       -0.17657837 -0.95494485 -0.74581087 -0.42235556
000320 7d 00 5a 3f bc 18 0e bf 38 87 13 bd 7f 5c 89 3c
       0.85156995 -0.5550649 -0.036017627 0.016767738
000330 56 77 50 3f 19 ca cc bd d6 bc 6c 3f fd a3 95 bf
       0.8143209 -0.099994846 0.9247564 -1.169067
000340 12 d0 59 bf cb 83 23 bf 73 5e 53 be f6 22 d7 3f
       -0.85083115 -0.63872975 -0.20641498 1.6807544
000350 24 ae 45 bd f9 1f cb 3d 2a ba f2 bd b4 43 01 3f
       -0.048261777 0.09918208 -0.11851914 0.5049393
000360 51 95 b7 3e e3 78 c4 be fc 87 8d bf 45 d9 e4 bd
       0.35856107 -0.3837348 -1.1057124 -0.111742534
000370 ed 70 1b be 07 ad d9 bf ec 96 95 3c 00 a9 0f 3e
       -0.15179797 -1.7005929 0.018260442 0.14029312
000380 e9 30 a3 3c a5 b5 be 3d 6e 69 f4 be ed 43 2a 3e
       0.019920783 0.0931199 -0.47736686 0.16627474
000390 12 6b 4b 3f 01 0d 2a 3f 3b 90 47 3f 52 f6 34 3f
       0.7946025 0.6642609 0.77954453 0.70688355
0003a0 db f5 1b bd 00 d8 9b 3e a3 b1 69 3f 52 75 0d bd
       -0.038076263 0.30438232 0.9128668 -0.034535713
0003b0 f8 50 05 bd 9c 41 35 3e c7 11 f1 3e e7 86 46 bf
       -0.03254792 0.17700809 0.47083876 -0.77549595
0003c0 94 da 8d 3e 65 36 ee 3c 1e 14 80 3f 6e c7 e3 3d
       0.27705824 0.029078672 1.0006139 0.111220226
0003d0 71 d2 02 3e 8e 35 92 bf 55 5f 50 3f f8 89 cc bd
       0.1277559 -1.1422594 0.81395465 -0.09987253
0003e0 f3 80 bd bf 46 6d 3c bd a9 c5 ba 3d cc e5 7e 3f
       -1.4804977 -0.04600265 0.09119732 0.9956939
0003f0 b2 1b 68 3d d2 5a 1f bd 23 c4 29 3e b4 fc 15 3e
       0.056667037 -0.038904972 0.16578726 0.1464718

model/dense_2/MatMul;model/activation_2/Relu;model/dense_2/BiasAdd f4 [100]
000000 47 36 6b 42 96 56 75 c2 30 80 c6 bf 6f 43 7a c2
       58.803005 -61.334557 -1.550787 -62.565853
000010 95 67 03 c1 3c 44 66 41 cd e0 06 42 d3 a6 f2 41
       -8.212789 14.391659 33.719532 30.331457
000020 fa da 57 c1 87 0c 02 3f 22 41 ce c0 f6 07 57 c1
       -13.490961 0.50800365 -6.445451 -13.439444
000030 f6 0b 8d 40 81 12 07 41 79 2c d0 40 57 e5 49 c2
       4.40771 8.442018 6.505429 -50.473965
000040 8e 3b ba c1 99 49 16 40 1d 27 43 3f 11 1b 00 41
       -23.27908 2.348242 0.7623156 8.006608
000050 25 67 99 41 c7 52 bc 40 52 29 c1 41 df 07 9f 41
       19.175364 5.8851047 24.145176 19.878843
000060 78 b8 c0 3f 75 61 5a 41 67 d5 c4 c0 1e ca 2b 42
       1.5056295 13.648793 -6.15105 42.94738
000070 40 2b 89 c1 2c fc 53 40 80 b1 95 c0 40 88 f1 40
       -17.146118 3.3122663 -4.6779175 7.547882
000080 5e d1 f5 41 a8 a2 48 c1 44 ca dc 41 c4 f8 0f c2
       30.72723 -12.539711 27.598763 -35.992935
000090 ad 83 88 42 63 a6 03 c2 a2 de dd c1 06 9d ce c1
       68.25718 -32.912487 -27.733707 -25.826672
0000a0 e0 58 29 40 14 fb 2f c2 21 53 2f c0 54 b0 8c c1
       2.6460495 -43.995193 -2.7394488 -17.586098
0000b0 94 af c9 c1 f4 e5 12 42 83 7a 94 c1 13 58 9d c0
       -25.210732 36.724564 -18.55982 -4.9170012
0000c0 2b 34 24 c2 85 33 8e 41 40 6b 5d 42 a1 59 61 42
       -41.050945 17.775156 55.354736 56.33753
0000d0 b9 1a 86 40 4c 53 e9 c0 e7 42 20 41 f3 4d 77 40
       4.190762 -7.291418 10.016334 3.8641326
0000e0 8f f0 0b 41 79 a3 2a 42 5d 36 cc 41 5e d0 cb c1
       8.74623 42.65964 25.526545 -25.476742
0000f0 11 d4 a3 c0 9f 82 20 40 18 37 1d c1 58 83 cd 42
       -5.119637 2.5079725 -9.825951 102.75653
000100 da d0 18 42 54 0a 4c 41 fa 08 35 c2 45 31 be c1
       38.203957 12.7525215 -45.258766 -23.774057
000110 0a 82 c4 c0 b8 fa 07 42 30 6a f7 c2 19 8c 91 41
       -6.140874 33.994843 -123.7074 18.193407
000120 47 3e 1f c2 a8 cc df 41 69 ef f6 c1 cb e9 99 c1
       -39.810818 27.97493 -30.8669 -19.239157
000130 2c 31 9b 41 ec e2 b7 c1 44 07 ea c1 a3 cb eb 41
       19.39901 -22.985802 -29.253548 29.474432
000140 f3 37 3f 42 9b 3e 9b 41 a6 41 bd 41 bb e7 5b 41
       47.804638 19.40557 23.657055 13.744075
000150 23 3e 96 c0 43 db 3e c2 2d c8 50 3e d3 4d f8 41
       -4.695085 -47.714123 0.20388861 31.038
000160 6f af 07 42 4d df a5 41 57 36 0b c2 28 a7 04 41
       33.92132 20.734034 -34.803066 8.29081
000170 60 ff e6 40 03 94 cb 40 f7 1a 35 c1 b3 66 34 42
       7.2186737 6.361818 -11.319083 45.100292
000180 85 75 50 42 3c f6 d9 41 15 d2 c5 40 f7 9b 6a c0
       52.114765 27.245232 6.181895 -3.6657693

model/batch_normalization_1/batchnorm/mul_1;model/batch_normalization_1/batchnorm/add_1;model/dense_2/MatMul;model/activation_2/Relu;model/dense_2/BiasAdd f4 [100, 100]
000000 eb ae 29 be af ca ef bd f5 34 76 3e 14 ce 90 bd
       -0.16570632 -0.11708581 0.24043639 -0.07070556
000010 a2 d6 67 be 6c d6 48 be 07 e2 09 3e 49 08 4c 3d
       -0.2264047 -0.19613045 0.13465129 0.04981259
000020 4e 18 68 3e 63 55 0b bd fb 6c 01 3e 32 39 19 3e
       0.22665522 -0.034016978 0.12639229 0.14963225
000030 aa 3f e8 3d 2d 64 17 be 7d 9c 7a be 8d 4b 85 3d
       0.11340268 -0.14784308 -0.24473758 0.06508551
000040 57 ef 5a 3b de 52 94 be e4 e5 14 3e a6 41 2b bb
       0.0033406818 -0.28969473 0.14540821 -0.0026131659
000050 5e 49 f7 bd de a9 8b bd 8d 12 10 3e de a2 19 3e
       -0.120745406 -0.06819509 0.14069577 0.15003535
000060 3c 0a b4 bd a8 e6 5d 3b a5 49 0b bd 65 49 8f 3c
       -0.087910146 0.0033859406 -0.03400578 0.017491052
000070 bd b2 d1 bd 32 a6 0a be d7 6e 4d bd 48 1d 7f bb
       -0.1023917 -0.13539961 -0.050154533 -0.0038927365
000080 b1 bd 64 be 3f 2d cd 3b 6e 92 4c bd bf 80 65 3e
       -0.22337987 0.0062614973 -0.049944334 0.22412394
000090 0b b1 91 bd a6 ef 14 3b b0 e2 8b 3d 86 eb c8 bd
       -0.071138464 0.002272585 0.068303466 -0.098105475
0000a0 47 0d cd bc 16 96 47 be 87 9f 7e be 40 75 1f 3d
       -0.025030745 -0.19490847 -0.24865542 0.038930178
0000b0 89 0e 93 bb 8c c1 71 3b db 6d 91 bd de 96 8d bd
       -0.0044878167 0.0036889045 -0.071010314 -0.06913541
0000c0 e1 73 cf bd 32 c4 24 bd 46 d4 9c 3d ae d5 91 3d
       -0.10129524 -0.04022617 0.076576754 0.07120834
0000d0 5f 20 df 3c 5c d0 97 bd 0e 8b d8 bd 3d 9a 39 bd
       0.027237115 -0.07412788 -0.105733976 -0.04531311
0000e0 19 49 88 3d 2f 97 ef 3c bc 5f 4c 3e 40 ac 10 bd
       0.06654567 0.029246895 0.19958395 -0.03532052
0000f0 fc 71 42 3e 27 48 1b be 4c 6f 20 3d 90 3f 89 be
       0.18988794 -0.15164243 0.03916864 -0.26806307
000100 84 b6 e7 3c 86 d4 2c 3d 81 15 1a 3d 91 1c ad bd
       0.028285272 0.042194866 0.037618164 -0.08452714
000110 66 6c 07 bd 65 1a f2 3c 09 da 7b be cb e2 0d be
       -0.03306236 0.029553602 -0.24594893 -0.13856046
000120 22 5f 36 bd 8a 38 49 bd 05 a5 87 be 1e 8f c4 bd
       -0.04452432 -0.049126185 -0.26493087 -0.0959761
000130 a9 87 78 ba a9 5a 54 bc b6 42 95 bd ee 8b a5 be
       -0.0009480664 -0.012961068 -0.07288115 -0.3233332
000140 b7 e8 5b 38 1e 02 65 bd 6e 6b 78 3d 5e 96 3b 3d
       5.24304e-05 -0.055910222 0.060649328 0.0457977
000150 96 fa 50 bd 19 81 94 bc 7a 40 8c 3d a5 8c 02 3c
       -0.051020227 -0.018127965 0.068482354 0.007968103
000160 09 27 04 be e0 59 e5 bc 49 89 ba 3d 22 e6 c4 bc
       -0.12905516 -0.027996957 0.09108216 -0.024035517
000170 83 18 aa bd b1 b0 48 be 7a 19 f1 be 51 d5 9c 3e
       -0.083054565 -0.19598652 -0.4708975 0.30631498
000180 08 ea 40 3e 41 e6 04 bf 7d 60 23 3d 4d a4 99 be
       0.18839276 -0.5191384 0.03988694 -0.30008164
000190 d3 ab 00 3d 68 c8 5d 3d 13 91 5b ba ce b4 be bd
       0.031413864 0.0541462 -0.0008375805 -0.093118295
0001a0 96 74 86 3d 9d ba 5d 3d d4 fc ab 3d 44 b9 ad ba
       0.06565206 0.054133046 0.083978325 -0.0013254066
0001b0 aa f7 6c 3c e6 6f f2 3c 12 bf d2 ba 09 0a 64 bc
       0.014463345 0.029594373 -0.0016078672 -0.013918408
0001c0 1d 64 45 bd 3e df c8 3b 27 fd c0 3d 5b b5 de 3d
       -0.04819118 0.006130128 0.09423285 0.108744346
0001d0 e7 c6 23 bc 42 c0 e3 bc d5 fd 89 bd 01 cb 45 3d
       -0.0099961525 -0.027801637 -0.06737868 0.048289303
0001e0 49 9b c0 bd 47 9f 2c 3d 9f 29 23 bc d6 d3 d3 3d
       -0.09404618 0.042144086 -0.009958654 0.10343139
0001f0 a1 18 78 3d e5 43 28 bc 6e b3 a2 bd 0a 14 ba bd
       0.060570363 -0.010270094 -0.0794438 -0.090858534
000200 f1 79 39 3d 09 b6 49 bc 79 87 39 3e f8 1f b9 3e
       0.045282308 -0.012311467 0.18118085 0.36157203
000210 71 1c 56 3e 41 1e 2d 3d 0f 84 e2 3c c5 4b a8 bd
       0.20909287 0.04226518 0.027650861 -0.08217577
000220 bc 8c b8 bc 5f 71 cc 3d 66 1e 0a be d9 4d 1e 3c
       -0.022528045 0.09982561 -0.13488159 0.009662115
000230 57 32 3a bd 87 62 3b bd 6c 02 3a 3d 9e 72 be bc
       -0.045458164 -0.04574826 0.045412466 -0.023248013
000240 d9 98 13 3e c1 92 81 3d 20 df 50 3c fb dc 82 3d
       0.14413776 0.06326819 0.01274851 0.06389805
000250 4e 3d 0b 3e ff 9e a5 3d 1e ed 30 3d 16 53 ec bd
       0.13597605 0.08086967 0.043194883 -0.11539285
000260 16 b2 58 3e be 2e 81 3f 99 45 05 3e 54 b3 e3 3c
       0.21161684 1.009239 0.1301483 0.027795471
000270 cb 1c 32 3e 19 8c 5d 3c d6 84 b8 bc 18 1a d4 3a
       0.17393796 0.013522171 -0.022524279 0.0016182093
000280 4c 86 f1 3c bd 5b 2e be 84 a1 c3 3e 65 fe 11 bd
       0.029482983 -0.17027183 0.38209164 -0.035643
000290 94 5e 68 bb f0 92 93 3d 2f 26 10 be 3e e6 60 bc
       -0.0035456764 0.072057605 -0.14077066 -0.013726769
0002a0 ad 46 ce 3c 86 6b 70 bd 0d 53 7c bd 72 d7 82 3c
       0.025180185 -0.058696292 -0.06160264 0.015971873
0002b0 1b e6 22 bd cb 65 87 3e fb 8d f3 3c cb 27 e1 bd
       -0.039770227 0.2644485 0.029730788 -0.10993918
0002c0 1c 70 00 3c e0 42 ed 3d 1f a0 e4 bc 84 44 75 bd
       0.007839229 0.11585021 -0.027908383 -0.059879795
0002d0 0b 55 91 3d 50 46 8e 3c b4 6b 4c 3d d5 a1 32 3d
       0.07096299 0.017367512 0.0499074 0.043611366
0002e0 7b c8 b9 3b f2 c2 4d bd 45 00 81 bd 04 0d af 3d
       0.005669651 -0.050234742 -0.062988795 0.085474044
0002f0 a1 f0 10 3c d7 c5 4f 3d 91 c9 ec 3e d8 ce 1b bc
       0.008846433 0.050725784 0.46247533 -0.009509765
000300 2b 43 47 be 02 cc 18 3e 8e 44 b2 3d 48 10 de bd
       -0.19459216 0.14921573 0.08704482 -0.10842949
000310 d6 de 5f be 6e d8 84 3d a3 5c 37 be 74 05 6b be
       -0.21862349 0.06486593 -0.17906432 -0.22951299
000320 13 ea d2 3e 4a 8c 6d 3e b5 de dd bc 2d e6 a9 3d
       0.4119421 0.23198047 -0.027083734 0.08295856
000330 ce bb 59 bc a1 a2 f0 bb da c9 cf 3d 3c 63 a5 bc
       -0.013289405 -0.0073436056 0.10145922 -0.02018892
000340 3d cc 5c bd b5 2a 13 3e 35 02 7e 3c 66 00 81 3d
       -0.053905714 0.1437176 0.015503456 0.06298904
000350 d5 ff f5 bc a0 97 8b bd c9 5e 28 3c 41 1e 3e be
       -0.030029217 -0.068160295 0.010276505 -0.18566228
000360 dd 52 76 3d fb 56 2d 3c 10 49 df bd 11 57 63 3c
       0.06013762 0.01057982 -0.109026074 0.013875739
000370 da 75 47 3e b6 4c fd 3b 9d 2a 19 3d f1 01 57 3d
       0.1947855 0.007730092 0.037394155 0.052492086
000380 7f ad e2 bc 68 82 06 bd ee fc 66 bd 68 a4 b0 bd
       -0.02767062 -0.03283921 -0.056393556 -0.08625108
000390 e2 4c a3 3d 6a 14 2a 3d d3 d6 aa 3c 3c 4e 1f 3e
       0.079736486 0.041523375 0.02085439 0.15557188
0003a0 15 f9 21 bd d5 2d 8c 3d 56 95 f2 bd 7d 3d b1 bc
       -0.039544184 0.06844679 -0.1184489 -0.021635765
0003b0 a3 7f 68 3d b7 c4 5b 3d 68 26 a7 bc 40 91 58 3d
       0.05676235 0.0536544 -0.020404056 0.052872896
0003c0 b9 5d 61 3d e0 34 ee 3e f3 78 ce 3c 60 1b 8a 3c
       0.05502102 0.46524715 0.025204157 0.016858757
0003d0 3b c0 32 3e cb fc 0b 3d ca 20 89 bc c9 ce 15 bb
       0.17456143 0.03417663 -0.016739268 -0.002285885
0003e0 cb e7 f1 bd 8f ed ba bc 4a a4 d8 3d c7 45 52 ba
       -0.11811789 -0.022818355 0.10578211 -0.0008021262
0003f0 f8 01 80 bd 33 93 a5 bb 05 52 38 be b9 30 3d 3c
       -0.062503755 -0.005052948 -0.18000038 0.011547261

model/dense_3/MatMul;model/activation_3/Relu;model/dense_3/BiasAdd f4 [100]
000000 3d 0d b0 c1 a0 b3 03 42 47 7f 5b bf 13 e4 06 c1
       -22.006464 32.925415 -0.85741085 -8.430682
000010 ec 5f 86 41 b8 f3 0a c1 38 24 e9 bf b8 78 44 41
       16.796837 -8.684502 -1.8214178 12.279472
000020 85 b6 b5 41 08 d5 64 41 fc 7a c5 41 18 60 27 42
       22.71412 14.30201 24.685051 41.84384
000030 39 3e 03 42 ee 8d 54 41 7b 4d 0c 41 95 fa 65 3f
       32.810764 13.284651 8.768916 0.8983548
000040 92 b1 04 c1 c7 3b 9a 41 a5 ae 3e 41 c0 da 86 40
       -8.293352 19.279188 11.917638 4.214203
000050 40 44 b4 41 f6 cb 84 c0 a6 69 68 c0 5a 42 e2 41
       22.533325 -4.1498976 -3.6314483 28.282398
000060 e8 a0 10 42 0d 10 25 42 8e 0d dd 41 d6 3d 0e c0
       36.157135 41.265675 27.631618 -2.2225242
000070 65 4a 91 c1 11 68 f7 c1 47 09 ba 3f b8 45 57 41
       -18.161325 -30.925814 1.4534081 13.454521
000080 f8 9d 41 41 76 e0 1d c1 2e 74 87 40 1f 6b 58 42
       12.101067 -9.8673 4.232932 54.10461
000090 b2 28 46 c1 03 35 b9 41 1a 82 c7 c1 69 9e fd 40
       -12.384935 23.150885 -24.938526 7.925587
0000a0 4a 0d b7 41 c2 8b d1 41 77 31 2d 42 0e 8f c2 c1
       22.881489 26.193241 43.298306 -24.31985
0000b0 b1 99 00 41 ff b1 14 c0 aa 87 84 c1 f1 b9 83 40
       8.037522 -2.323364 -16.566242 4.116448
0000c0 cc ad 93 41 92 2f 06 40 e9 fd 70 be 0d 5f ba c1
       18.459862 2.0966535 -0.23534359 -23.296412
0000d0 08 f0 01 c1 a6 86 9a c1 ec f1 bb c1 26 50 90 41
       -8.121101 -19.315746 -23.493126 18.039135
0000e0 3e 01 d2 c0 35 56 3f c1 84 10 08 41 48 99 b3 41
       -6.5626516 -11.958547 8.504032 22.449844
0000f0 e5 24 25 3d f8 da 96 40 35 8d b9 c0 4e 12 dc 41
       0.04031839 4.7142296 -5.798487 27.508938
000100 41 e8 92 c1 43 01 68 41 4c ac 45 bf ee 93 03 c1
       -18.363405 14.500308 -0.7721603 -8.223616
000110 f5 b4 65 41 74 31 0f 41 95 4c 53 bf 3b 25 8b 41
       14.356679 8.9495735 -0.8253873 17.393179
000120 75 3c 3d 41 c1 ee a8 c1 13 d2 b4 41 22 80 ef c0
       11.82726 -21.11658 22.602575 -7.484391
000130 86 5f b6 c1 9e f5 f2 40 14 ab 2b c1 7b 13 04 c2
       -22.796642 7.5924826 -10.729267 -33.019024
000140 20 a1 c0 c1 8e c8 40 40 72 24 a5 c0 22 2d 63 41
       -24.078674 3.012241 -5.160699 14.198519
000150 5a 7b 0a c1 45 80 95 c1 8f fe 0d 41 38 7a a0 40
       -8.655115 -18.687632 8.874648 5.0149193
000160 3a a0 74 c1 0a 93 31 41 d8 e7 44 c1 74 6f ba 41
       -15.289118 11.098398 -12.3066025 23.30442
000170 9d 5b 7e c0 71 d7 02 c1 35 aa 8d 41 51 e4 36 c2
       -3.9743416 -8.177598 17.708109 -45.722965
000180 e4 bc dc bf 13 92 95 41 84 e5 b2 41 45 0a 96 c0
       -1.7245145 18.696325 22.362068 -4.6887536

model/batch_normalization_2/batchnorm/mul_1;model/batch_normalization_2/batchnorm/add_1;model/dense_3/MatMul;model/activation_3/Relu;model/dense_3/BiasAdd f4 [100, 100]
000000 1d 95 f9 3d 86 d5 93 bd d5 00 45 bd fe c6 c4 3d
       0.12186644 -0.07218461 -0.048096497 0.09608267
000010 1b 3e 9e 3d 58 93 28 be 9e fa 88 3d fa d6 46 3e
       0.077266894 -0.16462457 0.066884264 0.19417945
000020 3d 7c 70 bd ef 48 06 3e 06 e6 48 be 98 68 69 bc
       -0.058712233 0.1311376 -0.19618997 -0.0142461285
000030 7a 90 16 be 9c e0 71 bd b4 e8 0d 3e 6f 24 bf bc
       -0.14703551 -0.059052095 0.138583 -0.023332803
000040 18 cf c7 bc ae 72 0a 3e d6 76 99 3d 75 4c 44 3d
       -0.024390742 0.1352031 0.07493369 0.047924478
000050 9e 18 88 bd 0d 3f 58 3d 5d 76 f5 3e 91 84 bf bd
       -0.0664532 0.052794505 0.47941867 -0.09351457
000060 57 71 a4 3c 02 45 86 bd a8 ee 32 3e 45 dd 53 3d
       0.020073576 -0.06556131 0.17473853 0.05172469
000070 f3 13 98 be b4 82 f1 bd b1 c4 9c bd 39 fa 15 bc
       -0.2970272 -0.11792508 -0.076547034 -0.009153896
000080 9b 62 16 bd bc 65 00 bd a7 d9 30 be e2 78 33 bd
       -0.03671513 -0.03134702 -0.17270528 -0.043816455
000090 90 60 16 3e d3 fc c0 bd 0a a4 70 bd e2 3d f5 bc
       0.14685273 -0.094232224 -0.05875019 -0.029936735
0000a0 69 d6 23 ba e2 b2 85 bd 06 f4 a2 bb 06 48 d2 3d
       -0.0006249906 -0.0652826 -0.0049729375 0.10267644
0000b0 11 7c 17 3b a9 74 23 bd da 2e 1e bb 73 ad 84 be
       0.002311472 -0.039906178 -0.0024136812 -0.2591358
0000c0 a8 3c 20 3e 1e b2 5d 3e 1e 92 57 3d 68 ba da 3d
       0.15648139 0.21649978 0.052629583 0.106800854
0000d0 3f f2 1b 3e 53 1f ea 3d 01 8e 2e be c8 74 43 3d
       0.15229128 0.11431756 -0.17046358 0.047718793
0000e0 4b af 2f 3c f5 cf 54 3e 69 5a 09 3e 2b 8e 62 be
       0.010722945 0.20782454 0.13413395 -0.22124545
0000f0 24 3e 2e be 13 27 54 3e 47 27 4a 3e 08 63 0b be
       -0.17015892 0.2071803 0.19741546 -0.13611996
000100 02 38 33 3d ec 50 52 bd e0 ff 61 c0 9e 4c 10 bd
       0.043754585 -0.051346704 -3.5312424 -0.035229318
000110 9c 76 28 3d e9 90 46 3d 3d f1 5c bd 06 9b a1 bd
       0.04112874 0.04847804 -0.053941 -0.078908965
000120 f8 f1 8b bd 51 db 1e bd 4e 70 a7 3c 84 3d e1 3d
       -0.06833261 -0.038783375 0.020439293 0.10998061
000130 62 65 d9 bc 35 4e 1e bd 4e e5 ce bd 77 20 ca 3d
       -0.0265376 -0.038648803 -0.1010233 0.098694734
000140 93 fb df 3c fb dd fc bd e1 52 37 be 44 aa 61 3d
       0.02734164 -0.12347027 -0.1790271 0.05509402
000150 dd de c8 3c 9e 31 8b bc 52 ce a0 3d a0 42 28 be
       0.024520332 -0.016991433 0.078518525 -0.16431665
000160 43 c3 5c 3e 9f ec c0 3e 6d 9a b6 bd e1 06 6f be
       0.21558861 0.37680528 -0.08916173 -0.23342468
000170 27 74 09 bb a0 7b 00 3e 3f 92 fe 3d 2c 37 b3 bc
       -0.0020973773 0.12547159 0.12430238 -0.021876894
000180 6c 63 ed 3b da f7 bb be 6c d1 ee bd 02 08 29 bd
       0.007244518 -0.36712533 -0.11661038 -0.041267402
000190 ba 18 38 be bb 7f aa 3c 8f a5 59 be e0 79 89 bd
       -0.17978182 0.02081286 -0.21254562 -0.06712699
0001a0 f3 3a 60 bd 28 88 17 3d 3e 00 80 3d bd cd 21 3e
       -0.05474372 0.036995083 0.06250046 0.15801139
0001b0 1d 61 23 be ff 85 90 be db f3 9b 3d 91 0c 44 3e
       -0.15955015 -0.2822723 0.07614871 0.19145419
0001c0 67 f2 d2 bc ef 48 ce bc 18 c2 56 3e a2 c8 c6 3d
       -0.025750352 -0.025181262 0.20972478 0.097062364
0001d0 b5 9d 5c 3c 9d e9 62 bd 36 17 17 be 1b bd b6 bd
       0.013465335 -0.055398572 -0.14754948 -0.08922788
0001e0 ee 68 bf bc 9d d9 f5 3c ae 28 1e be 79 45 d3 bd
       -0.023365464 0.030010993 -0.15445206 -0.10315985
0001f0 cf 6d 37 3d f3 55 60 be e2 0d 32 3e d8 36 a1 3d
       0.044782456 -0.21907787 0.17388108 0.07871789
000200 68 6f 89 3d 7c 15 26 3d 64 3b 32 be 38 3b 90 3e
       0.06710702 0.040547833 -0.17405468 0.2817018
000210 e5 34 af 3d 71 33 1a 3e c1 04 b4 bd a1 c9 6d bc
       0.08555011 0.15058686 -0.08789969 -0.014513404
000220 53 6a 18 3d 37 0f 04 3e 2f 7f d6 3c 70 b1 8c 3e
       0.037210774 0.12896429 0.026183693 0.27479124
000230 3b 21 5f be 3d 54 af bc 6d 9a 1c bd b7 8b 83 be
       -0.2179002 -0.021402473 -0.03823321 -0.2569253
000240 bd 22 07 3e 7b 60 f8 3d 56 69 63 3d d4 d2 fa be
       0.13196845 0.12127777 0.055520378 -0.48988974
000250 54 a0 41 bd 89 ca a2 be 5d 3f ae bd ef 92 69 3e
       -0.04727204 -0.31795147 -0.08508179 0.22809957
000260 cc bb e1 bc d2 0c 61 be fe df 77 be f9 35 36 bd
       -0.027555369 -0.21977547 -0.2420654 -0.044485066
000270 29 ab 02 3d f7 dd 96 bb 69 42 91 be e2 d5 49 3e
       0.031901512 -0.004604097 -0.2837098 0.19710496
000280 fa 54 31 3e 38 53 23 3e 19 cb 86 bc 86 16 45 be
       0.17317572 0.15949714 -0.016454266 -0.19246873
000290 e6 89 13 bd b5 be 0b be 3e 09 ba bd de f4 79 bc
       -0.036020182 -0.13646968 -0.09083794 -0.015256135
0002a0 c5 af 24 3d 9e 08 aa bd f4 74 fd bd a9 47 b1 3d
       0.04020669 -0.08302425 -0.12375823 0.08656246
0002b0 90 14 16 3d c6 9a 0e 3d ff 59 b3 bd d0 0a 34 bd
       0.036640704 0.034815572 -0.087574 -0.043955624
0002c0 53 2f a8 bd 28 0a 54 bc e1 39 92 bd e4 12 3c 3e
       -0.082121514 -0.012941875 -0.07139946 0.18366581
0002d0 6b 2e 79 bc c2 e0 39 be a7 20 bd 3d 5e c0 9a be
       -0.015208821 -0.18152145 0.092347436 -0.3022489
0002e0 e1 40 c1 bd 03 e3 a7 3c a3 81 a7 3e 85 37 62 be
       -0.09436203 0.02049399 0.32716092 -0.22091492
0002f0 e1 e3 5d be 0e af 98 3c af 4e f9 3d 0e e0 f6 3d
       -0.2166896 0.01863816 0.12173211 0.12054454
000300 bb c3 f8 3d d7 e5 93 bc f2 9d d9 bd 3f 3c 37 bd
       0.121467076 -0.018053932 -0.10625829 -0.04473519
000310 13 78 c0 3d 24 32 c3 bd 89 03 cb bc fc 95 0c bc
       0.09397902 -0.09531048 -0.02478196 -0.008580681
000320 56 29 a8 3d ed 20 5b 3e 03 6f 82 bc 7a 0a 1e bd
       0.08211009 0.21399279 -0.015922075 -0.03858421
000330 2b 2c 03 3d f3 e1 9b 3d fd 36 f4 3d 28 a3 4e 3d
       0.032024544 0.07611456 0.11924551 0.050448567
000340 e0 df bb 3d 66 da b3 3b 02 e8 8c bd d8 61 5f 3d
       0.0917356 0.0054886816 -0.068801895 0.05453667
000350 bb 6b 8c 3d e6 c1 5d be e2 53 88 3d 2a 81 36 3e
       0.068564855 -0.21655998 0.066566244 0.1782271
000360 87 c6 a1 3e 17 5e 38 bd b5 00 10 be f0 9e 0c 3e
       0.31596777 -0.045011606 -0.1406277 0.13732505
000370 b9 22 d7 bd db e9 55 3d e0 ab 90 3c ea a5 af bd
       -0.1050467 0.052224975 0.017660081 -0.085765675
000380 79 05 22 be 41 e3 d7 3c aa 89 ae 3d 15 99 4c 3c
       -0.158224 0.02635348 0.08522351 0.0124876695
000390 89 0f 85 bd c2 16 1d be cc ff 89 bd 22 ce 90 bd
       -0.06497104 -0.15340713 -0.067382425 -0.07070567
0003a0 45 73 71 be 94 82 3b 3d 54 35 91 bc 16 51 e3 bd
       -0.23579128 0.045778826 -0.017725624 -0.1109945
0003b0 0a 29 b3 3d bb 76 be 3d 65 50 42 3d 40 f1 2f be
       0.08748062 0.0929999 0.04743995 -0.17181873
0003c0 2c 1f 5e 3c b6 e9 01 be 0e 56 56 be c3 c6 da 3d
       0.013557237 -0.1268681 -0.20931265 0.10682442
0003d0 04 c1 4d bc 9b d3 69 be e4 f5 22 bc dd f5 1a be
       -0.012558226 -0.22834627 -0.00994632 -0.15132852
0003e0 c6 ca 15 be 68 34 d4 bc 13 75 75 be 15 4a 1a be
       -0.14628133 -0.025903895 -0.23970442 -0.15067323
0003f0 1a 4e a5 3d 2f 0e 1a bd e1 ad 60 bd c2 67 1e be
       0.08071537 -0.037611183 -0.054853324 -0.15469268

model/dense_4/MatMul;model/activation_4/Relu;model/dense_4/BiasAdd f4 [100]
000000 03 ee ee c0 0f 91 c5 40 61 29 04 c1 69 df fc bf
       -7.466554 6.1739573 -8.260102 -1.9755679
000010 0b da 00 40 c5 ca 77 40 1f 09 c5 40 78 38 c8 40
       2.0133083 3.871751 6.1573634 6.256893
000020 ac 80 e8 41 b1 c0 9d 40 00 34 4d c0 92 6b 3f c0
       29.062828 4.929772 -3.2062988 -2.9909406
000030 78 d9 eb 41 a6 53 51 41 46 70 4c c1 2c ff 78 c1
       29.481186 13.082922 -12.7774105 -15.562298
000040 2b 84 03 c1 d9 38 d7 c0 d1 bc db 40 77 61 a1 40
       -8.219768 -6.7256894 6.866799 5.0431476
000050 68 09 9d c0 fd 35 8b c1 99 49 1e 41 26 93 0c c0
       -4.907398 -17.401361 9.892968 -2.1964812
000060 54 1e 05 42 29 9a 38 c0 23 5c 4a 41 b1 51 dd 40
       33.279617 -2.8844092 12.647494 6.916222
000070 84 71 86 3e bd f7 80 c0 02 b8 09 41 61 1b 07 c0
       0.2625848 -4.0302415 8.607424 -2.111046
000080 a0 cf f7 41 93 5c dd 3f 7b 14 2b 41 3c 39 69 c1
       30.97638 1.7293876 10.6925 -14.576473
000090 d7 80 48 c1 94 bf 75 41 22 7d bc 41 90 09 b1 41
       -12.531455 15.359272 23.5611 22.12967
0000a0 f9 62 21 42 97 5d e1 40 88 cb 91 40 95 ed 0d 40
       40.346653 7.0426745 4.556095 2.2176259
0000b0 7e e5 31 42 73 5a 06 c1 57 7d 92 c1 af af 34 c1
       44.474113 -8.397082 -18.311201 -11.2928915
0000c0 ed 3f d0 c1 a0 16 11 41 67 4a f0 41 40 ef a4 41
       -26.031214 9.068024 30.03633 20.616821
0000d0 16 79 19 c0 5e 8c a8 be ab 61 90 41 4e 51 08 41
       -2.3980155 -0.32919592 18.04769 8.51985
0000e0 d6 d2 bc 41 3a 02 67 41 89 03 ac 41 80 25 74 41
       23.602947 14.438044 21.501726 15.259155
0000f0 72 49 a7 c1 4a 0a 42 41 02 43 c1 c0 7f 60 a5 41
       -20.910862 12.127512 -6.0394297 20.672117
000100 87 ef db 40 09 59 df 41 42 3e b6 c0 33 71 45 41
       6.872989 27.918474 -5.6951 12.340137
000110 66 5e e4 41 08 f0 ce 41 a8 a8 58 c0 6b fc f3 41
       28.546093 25.867203 -3.385294 30.498251
000120 22 63 c9 40 ae 8c 08 c2 3c 41 04 41 80 ca 15 42
       6.293351 -34.137383 8.265926 37.447754
000130 60 74 f7 41 de d8 a8 3f 5c 55 9d 41 86 1a 84 c1
       30.931824 1.3191183 19.66668 -16.51295
000140 79 99 c9 41 54 b2 d6 41 b9 a1 71 40 aa e3 8e c1
       25.199938 26.837074 3.7754958 -17.861164
000150 68 1e f3 bf d8 4e 0f c1 4b b1 9c 41 5f 9b bb 40
       -1.8993654 -8.956749 19.586569 5.862716
000160 b0 c2 e2 3f 93 32 d8 3f 75 d5 90 c1 40 3a c2 41
       1.7715664 1.6890434 -18.104227 24.278442
000170 49 78 77 41 77 d6 d3 40 81 fa 05 42 e7 7e 01 42
       15.4668665 6.61993 33.494633 32.373928
000180 33 9d c5 40 ca e9 81 c1 b3 70 f6 41 50 a0 61 c0
       6.1754394 -16.239155 30.805029 -3.5254097

model/batch_normalization_3/batchnorm/mul_1;model/batch_normalization_3/batchnorm/add_1;model/dense_4/MatMul;model/activation_4/Relu;model/dense_4/BiasAdd f4 [100, 100]
000000 0d 27 fd bd f7 fa 47 bc 29 93 4c 3b ac dc 3b be
       -0.12360964 -0.012205831 0.0031215644 -0.18345898
000010 55 f1 17 be 9c a7 cd 3d 78 28 78 3d e1 ad 4f 3c
       -0.14838155 0.100417346 0.06058547 0.012675733
000020 64 34 69 be 09 53 22 3d d4 69 ab bc 8b 16 c6 3d
       -0.22773892 0.03962997 -0.020924486 0.096722685
000030 8c 38 09 bd b7 26 68 3d 29 c2 13 3e 1c 4d 0b 3e
       -0.033501193 0.056677546 0.14429535 0.13603634
000040 08 e5 f4 bc 48 dc 8a bd 7a 07 0d bd bf 99 47 bc
       -0.029894367 -0.067802966 -0.03443096 -0.012182652
000050 9e 16 35 3c 74 6c 02 3f be 1b 02 3f e4 bf 14 3e
       0.011052756 0.50946736 0.5082358 0.14526325
000060 52 ea 9c bd db 8f 1f 3d ef 6b 20 3e 91 6d 03 3d
       -0.076618806 0.03895555 0.15666173 0.032086913
000070 f0 0c 69 be bd fc cc bd c8 e8 a2 bd ea 13 8d be
       -0.22758842 -0.100091435 -0.07954556 -0.27554256
000080 05 66 68 bc 3f 3e 72 bd 94 9b 08 bd ac 77 b3 3d
       -0.01418448 -0.059141394 -0.033351496 0.0876306
000090 e4 97 77 3e 54 25 13 bd 2e 20 50 be 55 fc 95 3b
       0.24179035 -0.03592427 -0.20324776 0.0045771995
0000a0 95 20 70 be fb 7a ef bc 11 c9 e0 3c bd 03 06 3d
       -0.23449929 -0.029233446 0.027439626 0.03271841
0000b0 53 59 f1 3d 14 d2 db 3d 25 fc 84 be a9 10 35 3d
       0.11784615 0.107334286 -0.2597362 0.04420534
0000c0 52 28 aa 3e 4b f5 25 bc ef 56 1e 3e f0 43 6c 3d
       0.33233887 -0.010129283 0.1546285 0.057681978
0000d0 1e d5 84 3e 30 16 53 3d 60 f2 9d 3d 6a 13 f7 bc
       0.25943846 0.05153483 0.07712245 -0.030160625
0000e0 2c 87 9f bd 8d 6d b4 3d 32 00 a6 3d ee 96 47 3e
       -0.07789454 0.08809958 0.08105506 0.19491169
0000f0 30 aa 94 be 89 42 ca bc b0 81 a0 3d 48 eb 19 3d
       -0.29036093 -0.02468993 0.07837236 0.037577897
000100 7a 27 92 bd 95 1d 1b bd 89 87 b9 3d b0 72 0a 3d
       -0.07136436 -0.03787001 0.090590544 0.03380078
000110 dc 3e 42 3d 5f f6 10 3d 07 18 39 bd 9e e6 d0 3b
       0.04742323 0.035391208 -0.04518893 0.006375148
000120 38 f5 a5 3d 62 ea 6f ba 58 a6 21 bd b4 82 8e be
       0.081034124 -0.0009152052 -0.03946528 -0.27834094
000130 93 e4 2f be ca 85 fc bd 0d 66 bf bc dd b2 32 bc
       -0.17177038 -0.12330206 -0.023364091 -0.010906902
000140 f5 b7 b4 3d 40 4b 80 3c 71 76 11 3d b1 02 a8 bd
       0.088241495 0.015660882 0.035513345 -0.08203638
000150 fa 74 36 3d fe cc a6 3c 66 b6 98 bd 84 01 13 3d
       0.04454515 0.02036142 -0.07456665 0.035890117
000160 92 32 f3 3b 2e cf 27 3d c5 02 8a bd 12 ae 2d 3d
       0.0074218 0.040969066 -0.067388095 0.042402335
000170 a4 3b 24 3e 2b 34 c8 bc cd 81 a4 be 0e cc a2 3d
       0.16038376 -0.024438938 -0.3213028 0.079490766
000180 91 3b 03 3e 58 53 f8 3d 40 0e b0 3c 44 55 98 3c
       0.12815692 0.121252716 0.02149117 0.018595345
000190 ef 42 b5 3d 1f 1a 24 3d 01 3f 10 b9 61 bc d8 3d
       0.08850657 0.040063974 -0.00013756381 0.105828054
0001a0 fc 7d a9 bd 1a 6f c8 3c 9b f9 19 3d 89 bb 9c 3e
       -0.08275983 0.02446704 0.037591558 0.30611828
0001b0 02 ff 92 be 95 fa 0e 3c 8b 6b 42 bd ec 2e 47 3e
       -0.2871018 0.008726736 -0.047465842 0.19451493
0001c0 c0 15 21 3c c6 43 1f bd bf 97 b8 3d 98 c1 65 3d
       0.009831846 -0.038882993 0.09013318 0.05609283
0001d0 a2 ed 9b bc c8 67 43 3d 53 62 9e 3d fb e2 07 bf
       -0.01903421 0.047706395 0.077335976 -0.5308072
0001e0 0f f6 60 bd 82 65 a4 bc 67 b1 e5 bc b4 a3 3f 3e
       -0.05492216 -0.020067934 -0.028038694 0.18714792
0001f0 5a 1b c6 bd 07 ff 9e 3d fc 54 03 be 6e d6 dd 3d
       -0.09673186 0.07763486 -0.12825388 0.10831915
000200 1f 36 9a 3b ec 1b 58 3e 27 77 b2 3a dd e7 a3 bd
       0.004706159 0.21104401 0.0013615832 -0.08003209
000210 3a c9 dd 3c b7 2b 01 bd 97 0e de 3d 67 78 69 bc
       0.027073491 -0.03153583 0.108426265 -0.014249898
000220 e6 ee ea 3d 88 4e 43 bd ab 14 f5 3c 69 e0 44 3b
       0.114713475 -0.047682315 0.029917082 0.0030040985
000230 6a ed ca 3d 82 07 35 be 9e 2a 02 3c 1d c1 c1 bc
       0.099085644 -0.17678645 0.007944731 -0.023651654
000240 e5 dd ee 3d 5e 3d 59 bd 9b 06 40 3e cf 89 ea bd
       0.11663417 -0.05303704 0.1875252 -0.11452066
000250 60 b1 0d be 33 a4 dc 3c 25 1d 34 bd e1 f3 50 3c
       -0.13837194 0.026933765 -0.043973107 0.012753458
000260 ec e5 5c be 89 ca 1a 3e 59 9a fb 3c fb 4d f5 3b
       -0.21572083 0.15116324 0.030713247 0.0074861026
000270 8f fd e6 bd 12 6a 0a be 10 5f de bc f8 7c 81 be
       -0.11278831 -0.13517025 -0.027144939 -0.25290656
000280 9e 5d 2a bd e8 3e 44 bc d3 d4 e7 bd 23 13 1a 3d
       -0.041593187 -0.011977889 -0.1131989 0.037615906
000290 bf d9 0f 3e cd c5 2d be fc 61 05 bd 28 dc 1d bd
       0.14047907 -0.16969986 -0.03256415 -0.038540035
0002a0 1d 1a 48 3e e1 df 2c 3e c2 64 aa bc b6 ee fd be
       0.19541211 0.16882278 -0.020799998 -0.49596184
0002b0 3c a1 6f 3d 69 67 46 3e f2 ea 36 bd b9 3f 22 bd
       0.058503374 0.19375385 -0.044657655 -0.039611552
0002c0 0e 5d b1 bd d8 7c 44 3e cd 1b 8d 3d eb b3 6b bd
       -0.08660327 0.19188249 0.06890068 -0.05754463
0002d0 0a c2 f5 bc 38 86 8e 3d 01 74 60 be 4e 75 28 be
       -0.029999752 0.06959194 -0.21919252 -0.16450998
0002e0 53 6a 5a be cb c6 15 be 18 f6 19 3e ee db 09 bf
       -0.21329622 -0.14626615 0.15035284 -0.5385121
0002f0 e9 f9 a0 bd 18 6d ab 3a 12 d1 09 3d 51 24 04 be
       -0.078601666 0.0013078777 0.03364665 -0.12904479
000300 b5 9e cf bd 8f 75 77 bd 23 b4 81 3c 43 c6 c0 3d
       -0.10137693 -0.060414847 0.015832966 0.094128154
000310 35 10 f4 3e c9 03 26 3e 94 8a 5f bb a9 fa 11 3e
       0.47668615 0.16212381 -0.0034109699 0.14255776
000320 12 ce 4b bd 54 b0 a6 3e be 03 7a 3e 7d a5 20 3e
       -0.04975707 0.32556403 0.2441549 0.15688129
000330 1f 36 d0 3d e5 64 89 bd 78 a0 20 bd 0b dd bb 3d
       0.10166573 -0.06708697 -0.039215535 0.0917302
000340 e7 36 e7 bb 47 ed 79 bd 62 62 45 be 01 f6 ab 3e
       -0.0070561054 -0.0610173 -0.19275811 0.33586124
000350 38 4e 75 3d 71 35 26 3c c5 96 ed 3c a6 a6 50 3c
       0.05988905 0.010144577 0.029002557 0.012735045
000360 2b 75 bb 3d 79 c6 df 3d 78 6b 17 be be 17 c4 3d
       0.091532074 0.109265275 -0.1478709 0.09574841
000370 e5 8c b2 3c 1e a1 dc bc 80 04 7d bc 39 a5 77 bc
       0.0217957 -0.026932295 -0.015442967 -0.015115076
000380 74 ed 2a 3c ff 42 6b be a7 bc 37 3e 5c d5 e0 bc
       0.01043259 -0.22974776 0.17943059 -0.027445488
000390 37 64 c4 3d 35 56 2c 3e cb f5 b4 3d 2d d3 2f bd
       0.09589427 0.1682976 0.08835944 -0.042926002
0003a0 5f 8d 04 be e8 b2 a3 3d ae 97 51 3d 81 88 77 be
       -0.12944554 0.07993108 0.051170044 -0.24173166
0003b0 78 9e 32 3d f7 35 c3 3c 95 f1 8d bd a8 f4 43 bd
       0.04360816 0.023829443 -0.06930844 -0.047840744
0003c0 b9 df e3 3b 31 28 0b be 06 4c 18 be 28 49 a4 3d
       0.00695416 -0.1358955 -0.1487275 0.08021766
0003d0 76 15 d7 bd 05 df a1 3d 73 87 34 3e cb 5e d8 3b
       -0.1050214 0.07903866 0.17629795 0.006603097
0003e0 ad f6 3f 3e 53 22 ab bd 25 92 ae 3d 6c 96 97 be
       0.18746443 -0.08356156 0.085239686 -0.2960695
0003f0 3e ca 19 3e 1b 7f 0c 3e 79 26 9f 3d 4a bc b5 3d
       0.15018556 0.13720362 0.0777101 0.08873804

model/dense_5/MatMul;model/activation_5/Relu;model/dense_5/BiasAdd f4 [100]
000000 f2 f9 d5 3e dd 85 ec 41 28 79 e5 c0 7c 56 f1 40
       0.41792256 29.565363 -7.1710396 7.541807
000010 dc ca 49 41 87 92 73 c1 5e b2 19 42 72 fc 89 41
       12.612026 -15.223273 38.424187 17.248264
000020 cc 5a 87 bf 47 d8 c9 40 fc 05 cb 41 12 20 d3 c0
       -1.0574584 6.307651 25.377922 -6.597665
000030 d4 59 d1 3f 66 97 e5 41 88 23 b6 c1 30 62 b1 41
       1.6355538 28.698925 -22.76735 22.172943
000040 53 3c 5d c1 01 6d da 3f 17 75 2e 41 e9 a4 29 40
       -13.827228 1.7064515 10.903586 2.6506903
000050 a8 8c 3d 42 d6 c5 bb c1 6f de b6 41 97 ef 9e 41
       47.38736 -23.4716 22.85861 19.866987
000060 66 a5 ce 41 75 f5 5f 41 95 50 ee c0 c8 25 c3 40
       25.830761 13.997426 -7.4473367 6.098362
000070 79 28 6c 41 99 c3 ba 41 df a4 75 c1 62 f4 af bf
       14.759881 23.345507 -15.352752 -1.3746455
000080 95 c1 7e c1 fb 5c 97 c1 cf 94 58 40 c3 86 95 41
       -15.922261 -18.9204 3.3840826 18.690802
000090 c1 76 96 40 0c 3e 95 41 7e 20 d0 bd 5c 30 08 c2
       4.7019963 18.655296 -0.101624474 -34.047226
0000a0 74 81 d7 41 9e 3f db c1 c4 95 f8 40 a4 c9 96 41
       26.93821 -27.406063 7.768282 18.848457
0000b0 d0 0a 46 41 80 55 93 c1 7a 62 db 40 4d 50 37 41
       12.37764 -18.416748 6.855771 11.457105
0000c0 0a e0 04 c2 96 f3 8c 41 37 10 5a 3f b1 fc 93 40
       -33.21879 17.618938 0.8518099 4.624596
0000d0 23 46 b9 c1 c0 27 a5 bf 54 63 1b 41 7f b7 84 bf
       -23.159246 -1.2902756 9.71175 -1.0368499
0000e0 2a 9c c8 c0 e5 73 5c 41 c9 9d 12 41 d7 22 d6 41
       -6.269063 13.778295 9.163522 26.767012
0000f0 79 d1 66 41 54 9d 68 3f 00 7d aa 41 8e e2 b1 41
       14.426141 0.90865064 21.311035 22.235622
000100 07 9e 75 c1 ce 96 94 41 57 d6 a0 41 d2 19 b7 c0
       -15.351081 18.573635 20.104658 -5.721902
000110 52 11 d2 c0 fe 26 2a 40 fc 3d cc c1 8c ea 3b 41
       -6.5646143 2.65863 -25.530266 11.744762
000120 88 11 f0 41 2b e4 18 41 57 14 4a c0 db cc da 40
       30.00856 9.555705 -3.1574914 6.837507
000130 13 85 ab 40 e8 64 53 c1 f3 a5 ee c0 43 1a 2e c2
       5.3599944 -13.212135 -7.4577575 -43.525646
000140 33 b2 4a 42 f6 dc 14 c1 d5 99 d8 41 3b 94 b1 41
       50.674023 -9.303946 27.075113 22.197378
000150 81 fc db 40 b3 a7 45 41 c0 4d 68 3f 16 5a 66 41
       6.874573 12.353442 0.9074364 14.396994
000160 44 c4 5e c1 eb 74 22 c1 50 30 3d c1 2a 70 83 41
       -13.922916 -10.153544 -11.824295 16.429768
000170 66 3d 05 3f 9d 32 11 c1 82 aa 37 3f 09 dc 02 41
       0.5204681 -9.074857 0.7174455 8.1787195
000180 29 a8 8e 41 a6 64 7d 41 8f c0 86 41 b2 73 3a 40
       17.83211 15.837072 16.844023 2.9133115

model/batch_normalization_4/batchnorm/mul_1;model/batch_normalization_4/batchnorm/add_1;model/dense_5/MatMul;model/activation_5/Relu;model/dense_5/BiasAdd f4 [100, 100]
000000 2b 86 92 3c a5 c9 ae bd 75 62 8d 3c a9 13 2d 3e
       0.017886242 -0.085345544 0.017258862 0.16902031
000010 3f c8 2b 3d d6 89 59 3f 45 78 60 3d b6 56 c9 3d
       0.041939016 0.84975946 0.054802198 0.09830992
000020 6a a1 17 3e 58 0c 7c be 54 47 12 bf 6e d4 c5 be
       0.14807668 -0.24614084 -0.5714009 -0.38638633
000030 83 2c d5 3d f2 01 12 bd 58 f3 5c bd e8 3f 83 3e
       0.104088806 -0.035646386 -0.05394301 0.25634694
000040 46 ec 2d be 44 0e 5b bc 5e d0 2d 3e c5 04 3e be
       -0.16984662 -0.0133701 0.16974017 -0.18556507
000050 ff 6a 1b 3e 0a 41 7d bd 95 1d ac bd 40 0e 0f bd
       0.15177535 -0.061829604 -0.0840408 -0.0349257
000060 8a 4e 5d 3d 67 74 11 3c e9 3a 31 bd 78 ed 54 3c
       0.05402998 0.00887785 -0.04326907 0.01299607
000070 86 df 26 3e 6d 7c b9 3d ff e4 06 be 47 a2 63 be
       0.16296205 0.090569355 -0.13173293 -0.22229873
000080 86 2b 37 bd f8 d9 5f 3d 9f 85 67 be 72 58 bb be
       -0.04471924 0.05465123 -0.22609566 -0.36590916
000090 22 e3 d6 bd 91 46 4d bb 20 4b 03 3d 46 f7 28 3d
       -0.10492541 -0.0031322578 0.032054067 0.041251443
0000a0 9e 83 09 3e 63 fb 3b 3e a6 96 f2 39 ef 2c a6 bd
       0.13429114 0.18357615 0.0004627008 -0.08114039
0000b0 59 18 60 bd 58 87 df 3d 9b f4 89 bd d4 b3 21 3e
       -0.05471072 0.10914487 -0.06736108 0.15791255
0000c0 28 a0 4d 3c 05 8f d0 3d c8 16 15 3e 0a 49 66 bb
       0.012550391 0.10183529 0.14559472 -0.003513875
0000d0 33 b4 2c 3e d0 0e e7 ba 94 f3 a4 bb 0d 3b 80 3e
       0.16865616 -0.0017628316 -0.0050339196 0.25045052
0000e0 6e a6 9d bd b5 2d 8c be b2 69 41 be 6c 2c 6b 3d
       -0.076977596 -0.27378622 -0.18887976 0.05741541
0000f0 e3 c2 c7 bc 24 1d 22 bd 48 ac ca 38 dc 13 14 3e
       -0.024384921 -0.039578572 9.6642005e-05 0.14460701
000100 ef 58 8b 3e e4 16 fe bc be 39 43 be 31 47 1c 3d
       0.27216288 -0.031016774 -0.19064996 0.03815383
000110 a5 aa 90 bc 44 e8 5a be c3 ea 86 3d b3 7b b8 bd
       -0.017659495 -0.21377665 0.06587746 -0.09007969
000120 27 ee ec bd ba 23 0c be 79 ba ef b9 e2 4b 85 bd
       -0.115688615 -0.13685504 -0.00045724565 -0.06508614
000130 f3 7c 9a 3b 0f b1 47 3d 1d c3 ce 3e 3a b9 05 3e
       0.004714602 0.04875284 0.40383235 0.1305894
000140 68 85 16 be be 25 d8 bd f4 08 41 be b7 3e 9b 3e
       -0.14699328 -0.10554074 -0.18851072 0.30321285
000150 0c ba d9 bd 64 a5 ad 3d eb 5b 44 3d 91 51 cc 3d
       -0.10631189 0.084788114 0.047939222 0.09976495
000160 6a 77 51 be e0 74 50 be e5 cd 5b be e5 b3 57 3d
       -0.20455709 -0.20357084 -0.21465261 0.052661795
000170 cf ec a1 3d 9e ee b4 bc 57 cf 43 3e 7b 8e 20 3c
       0.07906496 -0.022086438 0.19122063 0.009799595
000180 7d 37 2c be 09 b7 b7 be 1a e3 b4 3d 77 16 85 be
       -0.16818042 -0.35881832 0.08832379 -0.25993702
000190 f3 2f 82 3c 70 3b 4f 3c a6 da d1 bd 64 85 fd be
       0.015892005 0.012648448 -0.10246782 -0.4951583
0001a0 c4 7c b5 3c 60 71 23 3e 01 19 7c 3d e2 8e 22 be
       0.02215422 0.15961218 0.061547283 -0.15874818
0001b0 90 df b9 3c 63 ba 82 3e 86 14 9c bd 9a a9 25 be
       0.02268961 0.25532827 -0.07621102 -0.16177979
0001c0 77 3d 3f bd b5 0c 15 3e 81 f1 7e 3e ad a0 16 be
       -0.046689477 0.14555629 0.24896814 -0.1470973
0001d0 e5 98 95 be 46 35 21 bf 0b ef 2e 3e d3 f7 8d bc
       -0.29218212 -0.62971914 0.17083375 -0.017330086
0001e0 df b4 61 be 57 a2 87 be e5 8e bf bc 8c 52 e4 3c
       -0.22041653 -0.26491043 -0.023383567 0.027871393
0001f0 62 42 7c bd e5 31 f5 bc 28 b8 87 3d d5 fb 11 bd
       -0.061586745 -0.029931018 0.06626922 -0.035640556
000200 f8 0e 1a bd 65 38 1e be de d2 f5 bd 53 50 8e be
       -0.03761193 -0.154512 -0.1200311 -0.27795658
000210 63 e1 9b 3d fe 3f 9d 3d 3c fe 36 bc cb 05 8e be
       0.076113485 0.07678221 -0.011169013 -0.27738795
000220 51 55 34 be 2f 4e c1 3d 97 f1 35 3e 3e c7 13 bd
       -0.1761067 0.094387405 0.1776794 -0.036078684
000230 28 75 9b 3c 1a 1f 12 be 72 ee 45 bd 4b e7 e1 3c
       0.018976763 -0.14269677 -0.048323102 0.02757611
000240 32 36 4c bb 8d 2b 38 bf d6 f0 ba 3d 32 f1 83 be
       -0.0031160233 -0.71941453 0.09127967 -0.25769955
000250 f8 8c 6e bc e2 72 4a 3d 84 f6 df 3d 9b ad 16 bd
       -0.014559977 0.049425967 0.10935691 -0.036786657
000260 e7 22 19 bd 3b 37 21 bd ce 85 86 bd 29 2c 28 bd
       -0.0373868 -0.039359313 -0.0656849 -0.04105774
000270 ac ea 03 3d a5 a1 00 bd ff ef 4a be 2f 1c 11 bd
       0.032206222 -0.031404156 -0.19818114 -0.03542727
000280 a7 60 ad bc b8 62 e3 3b 7d 59 f1 bc f2 54 e9 bd
       -0.021164251 0.0069392584 -0.029461617 -0.11393155
000290 26 a5 9d bc 0c 9a 03 be cf 27 ee be 64 1d 59 bd
       -0.019243788 -0.12851733 -0.46514747 -0.053006545
0002a0 b5 89 8d bd ec e6 27 3d ef 65 13 bf b2 e1 2d bd
       -0.06911031 0.04099171 -0.57577413 -0.042451568
0002b0 55 b4 90 bd 83 0d 82 3c 55 ea 26 be 94 aa c4 3d
       -0.070656456 0.015875584 -0.16300328 0.09602848
0002c0 cf 67 d2 bc de f0 40 be 85 e5 3f be 8d b7 df 3d
       -0.025684265 -0.18841884 -0.18739899 0.109236814
0002d0 36 0d ef 3d 2c e9 59 bd 08 20 3c 3c bb 5e c5 3d
       0.11672442 -0.053200886 0.011482246 0.09637209
0002e0 47 c3 10 bf 1b b3 8f 3d 5d a3 d2 3d 55 1b 3e bc
       -0.5654797 0.070165835 0.10285065 -0.011603196
0002f0 a0 5f 22 3e 61 53 05 3e cf 07 d4 3c fd d0 84 be
       0.1585679 0.13020088 0.02588263 -0.25940695
000300 02 02 00 bd a9 7c e3 bc 12 c3 33 bd 2f 5a 19 be
       -0.031251915 -0.027769404 -0.043887205 -0.14975809
000310 dc d1 e7 bd 83 27 a0 be ba ce f9 bd 0a 7d c6 be
       -0.113193244 -0.31280145 -0.12197633 -0.38767272
000320 94 2a 0f 3e 9a 79 cc 3c cb a2 44 3b f5 c0 01 bd
       0.13981086 0.024960328 0.0030004259 -0.03167816
000330 d7 6c fd bc f7 92 22 be 0b 41 5c bd 82 bd bb 3d
       -0.030935688 -0.15876375 -0.053772967 0.09167005
000340 83 cb 3a 3d fd 13 e5 bb f6 95 f7 3d ef b6 18 3e
       0.04560424 -0.006990908 0.1208915 0.14913534
000350 7d e9 e2 3c da f6 84 be 98 fd b2 3d 1a 16 d6 bc
       0.027699227 -0.25969583 0.087397754 -0.026133586
000360 a1 55 60 3c 80 4c 91 be 8d ad 20 be f4 d1 42 3e
       0.0136922905 -0.28378677 -0.15691204 0.19025403
000370 f4 f8 4d bd 53 e6 11 3e 10 48 91 3d 23 54 07 3d
       -0.05028625 0.14248018 0.07093823 0.033039223
000380 02 20 cb bd 6f 80 4f bd 05 f3 dc bc d1 d0 58 bc
       -0.099182144 -0.050659593 -0.02697135 -0.013233379
000390 36 42 85 3e bc 76 16 bd 05 8f 77 3d 54 f4 89 bd
       0.26027077 -0.036734328 0.06043913 -0.06736055
0003a0 09 14 48 bd c1 49 32 bd f5 c8 09 3c 28 a2 52 3e
       -0.048847232 -0.04352737 0.008409728 0.2056967
0003b0 76 16 e5 3d 4d df 0b be c2 8d d5 3d 27 95 ab 3d
       0.11185925 -0.13659401 0.10427429 0.08378058
0003c0 85 47 8e 3d ae 2b 34 bd 0f 9f d3 3c 10 76 cd bd
       0.06947235 -0.04398697 0.025832681 -0.10032284
0003d0 c1 91 bd ba 52 ca 35 3d 4c 93 03 bc 3a ee 26 3d
       -0.0014462994 0.0443824 -0.008030724 0.040754534
0003e0 67 8d 9d bc e2 3b 32 bf aa 79 83 3f 6f 91 92 bd
       -0.019232465 -0.69622624 1.0271504 -0.071566455
0003f0 1e 9c ce bd 64 04 b7 3d 66 62 15 be 04 fe 1e 3d
       -0.10088371 0.08936384 -0.14588317 0.038816467
