corintho_ai/python/tflite_models/model_62.tflite (tflite, 521576 bytes, 27 tensors)

model/dense_1/MatMul;model/activation_1/Relu;model/dense_1/BiasAdd f4 [100]
000000 18 54 a2 c1 71 fa 13 43 55 c8 6e c2 ab a6 87 40
       -20.291061 147.97829 -59.695637 4.239095
000010 cb 53 86 42 be a4 38 42 dc a0 a2 42 cb f3 02 c2
       67.16366 46.16088 81.31418 -32.73808
000020 b3 a1 3a c2 84 8d 0d bf 25 f0 82 c0 31 5c 65 c2
       -46.65791 -0.5529406 -4.0918145 -57.34003
000030 7c 44 ba 41 ee c0 3d c2 31 a2 01 c1 85 33 93 c2
       23.28344 -47.438408 -8.1020975 -73.600624
000040 e7 04 18 42 4b d5 77 41 f7 00 76 c1 cd fb 98 40
       38.004787 15.4895735 -15.375236 4.7807374
000050 e2 23 1e 41 e9 c7 8f 3f 5d c4 38 41 aa 36 78 c2
       9.88376 1.1232883 11.54794 -62.053383
000060 60 45 a0 42 19 33 44 41 81 ef 28 3f 3b bc 1e c1
       80.1355 12.262475 0.65990454 -9.920955
000070 71 cc 8e c2 c7 ee 2b 42 6e f5 38 c2 c9 df de 40
       -71.3993 42.98318 -46.239677 6.9648175
000080 c4 c3 19 42 2f 62 37 c2 63 3d 99 42 f0 48 66 42
       38.441177 -45.845882 76.619896 57.571228
000090 2b b0 83 41 78 ef 11 c2 c5 ed 94 41 c8 e3 1b 42
       16.46102 -36.483856 18.616098 38.972443
0000a0 93 c9 9a 42 e7 90 e1 c1 66 a2 55 c2 8e e3 ba bf
       77.3937 -28.195753 -53.408592 -1.4600694
0000b0 47 35 52 41 0b c4 f4 c1 49 0e 9d 40 ce 56 06 c2
       13.138007 -30.595724 4.907994 -33.58477
0000c0 d0 85 4c c1 f6 c3 88 c0 62 a8 d4 41 27 91 5f c2
       -12.782669 -4.273921 26.582218 -55.89175
0000d0 1b d0 83 41 89 7f 14 43 4a cc fe c0 37 40 df 41
       16.476614 148.49818 -7.9624376 27.906355
0000e0 59 fb 19 41 01 83 ae c1 0f 67 d8 41 39 62 0c c1
       9.623864 -21.813967 27.050322 -8.77398
0000f0 a4 6b ae 41 c6 66 a1 42 ee 11 81 bf 98 1d 1b 42
       21.802559 80.70073 -1.0083597 38.7789
000100 ec 8a 5a 42 15 0d ba 42 99 ec 05 43 1c c4 2d 41
       54.635666 93.02555 133.92421 10.860378
000110 05 ea b3 c1 38 ee bd c2 02 a3 fb c1 58 60 f7 c1
       -22.489267 -94.96527 -31.454594 -30.922043
000120 b1 43 64 c1 ce c8 e8 42 3f ac 29 c1 fd bd a0 42
       -14.266526 116.3922 -10.604552 80.37107
000130 28 22 5f c0 e5 0e 75 41 31 2c 02 c3 49 d9 da c0
       -3.4864597 15.316136 -130.17262 -6.839024
000140 b6 01 c2 41 ae 04 41 42 c2 8c c6 41 34 3f f0 c1
       24.250835 48.25457 24.81873 -30.03086
000150 0e a5 9f 40 e3 d9 9b 42 eb c4 0f 42 6e a8 da c1
       4.9888983 77.92556 35.942303 -27.332241
000160 c3 f3 ad 42 76 3d 19 42 fe 91 d9 42 9e 44 48 41
       86.9761 38.31002 108.78514 12.516752
000170 46 df 85 42 e5 68 00 41 31 5b 92 41 e8 c7 f7 c0
       66.93608 8.025609 18.294527 -7.7431526
000180 fb b9 19 43 a7 8b f4 41 6c 5f 5c 41 d6 f0 b0 c2
       153.72649 30.56819 13.773296 -88.47038

model/batch_normalization/batchnorm/mul_1;model/batch_normalization/batchnorm/add_1;model/dense_1/MatMul;model/activation_1/Relu;model/dense_1/BiasAdd f4 [100, 100]
000000 ca c5 14 3e 73 d8 40 bf 41 08 a5 3e ce 55 cc 3d
       0.14528576 -0.75330275 0.3223286 0.099773034
000010 e3 78 b8 3f 32 b4 75 3e ee 83 82 bf ae 32 82 bf
       1.4411892 0.2399452 -1.0196512 -1.0171716
000020 18 3a a7 3d b6 23 25 3f 09 3d f2 3e 1f 91 a6 3d
       0.081653774 0.64507616 0.4731219 0.081331484
000030 44 e2 6b 3e 46 28 ca bc 9c b1 21 bf da 4a 89 bb
       0.23035532 -0.024677407 -0.63161635 -0.004189831
000040 34 67 f3 3d 61 c5 cb bf 98 7f 93 3e 8c fe e4 be
       0.11884919 -1.591961 0.28808284 -0.44725454
000050 47 3b dc bd d2 7b 85 40 65 53 53 bd 41 34 12 3d
       -0.10753494 4.171365 -0.051593203 0.035694364
000060 d7 e3 c9 bd 03 e0 07 3e a4 14 18 bd 0a ca 6b bf
       -0.0985791 0.13269047 -0.03712906 -0.9210516
000070 d8 07 1b 3e 6e f3 93 be 4e b9 16 bd c9 3f 2a 3f
       0.15139711 -0.2889666 -0.036797814 0.6650358
000080 f4 d4 dd 39 c8 a5 02 bf b0 50 18 3d 33 00 7d bd
       0.00042311067 -0.5103421 0.037186325 -0.061767768
000090 26 9d 1e be 07 0c 57 be 0d d6 58 bd 8e 5c 34 3e
       -0.15489635 -0.21000682 -0.05293851 0.17613432
0000a0 99 04 f2 3e 8f 42 9a 3f 16 19 d9 3e 92 9a 67 3e
       0.47269133 1.2051562 0.42401952 0.22617558
0000b0 77 4a 81 be 3b 05 16 be 83 2b 97 3e a6 c2 0b bd
       -0.25252125 -0.14650433 0.29525384 -0.034121178
0000c0 45 c5 40 3f 24 4c 43 3e 06 eb 8f 3c e2 5d ca bf
       0.7530101 0.19072014 0.017568123 -1.5809901
0000d0 93 2c 62 3f f7 ff a6 40 c8 7a 78 3e 65 ac 3a bd
       0.88349265 5.2187457 0.24265587 -0.045574564
0000e0 cb f6 85 be 5e f8 ca 3e 19 82 b1 3f 8d fd 02 3f
       -0.2616485 0.39642614 1.3867828 0.5116814
0000f0 a3 b3 b6 3e dc c3 28 be 41 8c 0d 3e 20 92 62 bf
       0.35683927 -0.16480964 0.13823034 -0.8850422
000100 a1 61 b0 3e e4 ee df be 6a 00 14 be bd 5e ae 3e
       0.34449485 -0.43736947 -0.14453283 0.34056655
000110 88 8f 1f bd 9a 37 53 3f 33 88 00 3f 8e c6 29 be
       -0.03895524 0.82506716 0.50207824 -0.16579649
000120 71 be 74 3d d5 9d bf bd bd f0 3a 3f c3 ef 2f bf
       0.05975193 -0.09356276 0.7302359 -0.6872522
000130 6b 92 f9 be aa 35 d9 3d 92 4e c9 3d ad f7 b7 3e
       -0.4874452 0.10605939 0.09829439 0.3593115
000140 3b aa 34 bf 7e d1 72 3e 2c a9 4c be d2 f5 1d be
       -0.7057225 0.23712727 -0.19986409 -0.15425804
000150 d7 8d 7e be 48 f6 83 be e5 56 2e be 62 d7 69 bf
       -0.24858795 -0.25773835 -0.17025335 -0.91344273
000160 69 a4 dd bd 5b 35 56 be b2 91 8a bf 3a f1 86 3f
       -0.108223744 -0.20918791 -1.0825713 1.0542367
000170 d0 92 04 3e 49 73 d0 be 77 2f 34 be 43 15 4b 3e
       0.1294663 -0.40712956 -0.17596231 0.1983233
000180 fa 1b 6c 3e e0 1e e6 bd 50 c5 cc be ba d4 16 be
       0.23057547 -0.11236358 -0.39994287 -0.14729586
000190 9d 93 7c bf 9d ed 95 bf 26 9f c3 be b4 f4 71 3d
       -0.9866274 -1.1713139 -0.38207358 0.059071258
0001a0 fc 1f 86 bf db c3 00 40 0a 75 27 3f fe cc 2f 3e
       -1.0478511 2.011954 0.6541296 0.17168042
0001b0 6f 1e 02 3d 77 08 1b bf 2e fe 8f 3e 62 13 ad bb
       0.031767305 -0.6055979 0.2812361 -0.0052818516
0001c0 f9 48 a4 bf f1 4f 1c be 19 b3 b2 be 30 0d 4f bf
       -1.283477 -0.1526487 -0.34902266 -0.808795
0001d0 b7 77 e6 3d bf 0c d4 bf 0c 6f 71 bf 34 f5 0d 3d
       0.112533025 -1.656639 -0.9431007 0.034657672
0001e0 a8 b0 db be bc 55 c9 3e 3f 45 db bd 34 7f 86 bc
       -0.42908216 0.39323223 -0.10706567 -0.016418077
0001f0 81 54 02 3e 28 a9 01 be f3 9b d0 be e7 8b e2 bb
       0.12727548 -0.12662184 -0.4074398 -0.0069136503
000200 4e 8c 68 be 37 82 e3 3d eb fb af bc fa b4 ab 3e
       -0.22709772 0.11108821 -0.021482429 0.33536512
000210 93 75 bf 3d e4 e1 2e bc 4a ee fe be e8 e8 6a 3d
       0.093485974 -0.010673974 -0.49791175 0.057351023
000220 62 b1 d0 be 46 16 e8 bf b8 24 40 bf d8 09 53 bf
       -0.40760332 -1.8131797 -0.7505603 -0.82436895
000230 92 6d 7c 3e e4 19 d9 be f9 d2 80 bf 37 f0 33 be
       0.24651173 -0.42402565 -1.0064384 -0.17572103
000240 b3 d2 23 be 50 f6 90 bf 90 10 d0 3d a5 7e 5f 3d
       -0.15998344 -1.1325169 0.10159409 0.054564137
000250 31 7c 4b be 1b 5b bb 3e 58 99 c5 3d 29 43 8f 3f
       -0.19871594 0.36592945 0.096483886 1.1192371
000260 13 c9 55 be fa 52 6c 3f 9d 74 b8 3b e8 2d 9d be
       -0.20877485 0.9231411 0.0056291358 -0.30699086
000270 7c 60 0e bf e2 8a 83 3f e7 c5 11 40 d5 82 12 3e
       -0.55615973 1.0276759 2.277704 0.14307721
000280 54 f2 34 3e 73 4a 14 3f e9 fc 05 3e ba e0 55 bf
       0.17670566 0.579261 0.13084759 -0.8354603
000290 ff b4 70 bf 3e f3 eb be 44 52 85 3e 6a 05 63 3f
       -0.9402618 -0.46084017 0.26039326 0.88680136
0002a0 00 4d c0 be b1 4e e6 bd ab f9 08 3c e2 1f c8 3e
       -0.37558746 -0.11245478 0.008360307 0.39086825
0002b0 ed e6 4d 3e 59 eb 3a 3e b6 72 36 be 1f 12 cb be
       0.20107622 0.1825384 -0.17817196 -0.39662263
0002c0 d2 67 0d bf b6 73 46 bf eb 28 0b 3f f7 db bd 3d
       -0.5523654 -0.7752031 0.5435931 0.092704706
0002d0 59 92 17 3e 8a fe 88 bf 58 1d 0f 3f 1a 67 5a 3f
       0.14801921 -1.0702679 0.5590415 0.8531357
0002e0 9f 98 40 be 3c f5 57 3e 4a e7 8f 3b 8d 61 71 3e
       -0.1880822 0.21089643 0.0043915855 0.23572369
0002f0 13 4e 4b 3e a1 12 ff 3d 26 37 cb be ef d8 55 3f
       0.19854002 0.12454725 -0.39690512 0.8353414
000300 1e e8 e9 be e8 da 0b bf 7d 36 22 bf 7a 92 16 be
       -0.45684904 -0.546309 -0.6336439 -0.14704314
000310 3a c6 81 be c1 91 31 bf c1 2b 5c bf 12 b4 3c be
       -0.25346547 -0.6936303 -0.86004263 -0.18428066
000320 6f f4 6c 3f 31 ca 23 bf 45 e3 cc 3d c2 98 84 3e
       0.92560476 -0.63980395 0.10004286 0.25897795
000330 43 22 87 3f 37 9c 4e bc 44 2f 83 3f 01 31 af bf
       1.0557331 -0.012610487 1.0248799 -1.368683
000340 0f a2 80 bf ab eb 39 bf d2 ee 03 be 16 20 05 40
       -1.0049456 -0.72625226 -0.12884071 2.0800834
000350 0a 6a 05 bd c6 86 63 3d a8 a9 53 be 17 88 12 3f
       -0.03257183 0.05554845 -0.20670187 0.57238907
000360 05 db 9f 3e 29 af 04 bf 07 0e a0 bf 96 65 f5 bd
       0.31221786 -0.51829773 -1.2504281 -0.119822666
000370 ee 45 90 bd d8 c2 a2 bf c9 a9 8a bd 4f 01 2d 3d
       -0.07044588 -1.2715712 -0.06770665 0.042237576
000380 84 63 40 3c 50 f9 d2 bd ab c1 07 bf 0d 87 41 3e
       0.011742476 -0.10301459 -0.5302989 0.18899174
000390 ab 17 4e 3f 20 a0 a1 3e 95 34 53 3f a8 5b 28 3f
       0.80504864 0.31567478 0.8250211 0.65764856
0003a0 f3 40 e7 bd e2 40 b5 3e a6 de 3a 3f 81 b8 ee 3c
       -0.11291685 0.35401064 0.72995985 0.029140713
0003b0 7c 8b 0b be af 7c ff 3d c7 0d 15 3f 3b 8c 71 bf
       -0.13627428 0.124749534 0.5822415 -0.943546
0003c0 8d 1f 8d 3e 91 08 ff bd 00 50 95 3f 52 34 99 3d
       0.27563134 -0.12452806 1.1665039 0.074806824
0003d0 3e e9 18 3e 5b 34 a4 bf 7e 87 67 3f b2 66 f2 3c
       0.14932725 -1.2828478 0.9044112 0.029589985
0003e0 2d a9 c7 bf 2a 00 ae 3c ed 7e 0d 3e bf 78 23 3f
       -1.5598503 0.021240313 0.1381795 0.6385612
0003f0 05 f4 94 be cc a3 8c 3d aa a7 bd bd c9 98 92 3e
       -0.29092422 0.06867179 -0.09260495 0.2863219

model/dense_2/MatMul;model/activation_2/Relu;model/dense_2/BiasAdd f4 [100]
000000 66 73 8d 42 12 7c 9f c2 dd 14 2b c1 2b 00 83 c2
       70.72539 -79.742325 -10.692594 -65.50033
000010 b7 a8 36 c1 ce 6a 88 41 b4 58 e6 41 e3 21 15 42
       -11.41619 17.05215 28.793312 37.283092
000020 4d 1b 8b c1 7c 3e d0 40 e3 04 28 c1 d2 a3 73 c1
       -17.38833 6.5076275 -10.501193 -15.227495
000030 e0 56 ee 3e 9c 39 8e 41 e1 92 83 bf 7b dd 91 c2
       0.46550655 17.77813 -1.0279199 -72.93258
000040 7e 36 83 c2 13 43 4d 41 fb 2c 92 40 03 26 8b c0
       -65.60643 12.828876 4.567991 -4.34839
000050 03 5e 88 42 fb c6 b5 40 c0 c5 f1 41 d4 db 95 41
       68.18362 5.6805396 30.221558 18.732338
000060 e9 79 36 40 90 c2 b3 41 be b8 86 c0 15 31 5b 42
       2.8511908 22.470001 -4.2100515 54.79793
000070 34 59 b1 c1 d9 28 69 41 0e 87 ab 40 c6 64 43 41
       -22.168556 14.572473 5.360236 12.212103
000080 77 cc 0b 42 26 68 33 c1 b1 1c cf 41 f6 9a 71 c2
       34.949673 -11.212927 25.88901 -60.40133
000090 70 f1 b0 42 2a 3d 01 c2 2a 5d e3 c1 36 8d bc c1
       88.47156 -32.30973 -28.42049 -23.56895
0000a0 e9 d2 92 c1 26 49 84 c2 c5 33 f0 c0 25 91 a8 c1
       -18.352983 -66.14287 -7.5063195 -21.070871
0000b0 d8 ea 1e c2 73 3f 26 42 b3 22 f8 c1 65 bd 8e c1
       -39.72934 41.561962 -31.016943 -17.842478
0000c0 c9 f2 26 c2 cc 82 13 41 f2 67 8e 42 09 6d 99 42
       -41.737095 9.219433 71.20302 76.71296
0000d0 37 57 96 41 1a 1b 81 be c5 b0 12 41 5d 08 9b 3e
       18.792585 -0.2521599 9.168157 0.30279818
0000e0 67 7e 07 41 5a bf 76 42 47 1c 32 42 cf ff fa c1
       8.46836 61.686867 44.527615 -31.374907
0000f0 e2 f0 90 c1 a2 84 4e c1 4f 2d a5 c1 6c 38 03 43
       -18.117619 -12.907381 -20.647123 131.2204
000100 2f ea ad 41 d9 0c 51 41 9b d0 81 c2 7d 87 31 c2
       21.739347 13.065637 -64.90743 -44.382313
000110 d0 ab 9a 40 ef 1b 3c 42 a0 eb 1f c3 76 9f d7 41
       4.833473 47.02728 -159.92041 26.952862
000120 4a 75 92 c1 7c 5b 5f 41 9d bf 53 c2 d8 5d f0 c1
       -18.30727 13.959835 -52.937122 -30.045822
000130 5d 63 00 42 cf 8a 08 c2 47 76 07 c2 cc 39 6f 42
       32.097034 -34.135555 -33.865505 59.806442
000140 6c ed 6e 42 9a db 5f 42 7d f3 42 42 bf 01 fc 41
       59.731857 55.964455 48.73778 31.500853
000150 49 3b 5d c1 37 dc 6e c2 90 9e 58 40 62 2d 3b 42
       -13.826974 -59.715054 3.384678 46.79432
000160 7a 50 0b 42 f0 30 e9 41 8b c0 45 c2 e2 fe cb 41
       34.82859 29.148895 -49.43803 25.499454
000170 28 b0 b2 41 0d 49 8d 41 d8 ff b8 c1 3b c4 8c 42
       22.336014 17.66067 -23.124924 70.38326
000180 9c b4 9a 42 42 fc 41 42 e9 ac 19 41 1e 76 9b c1
       77.35275 48.496346 9.604714 -19.432674

model/batch_normalization_1/batchnorm/mul_1;model/batch_normalization_1/batchnorm/add_1;model/dense_2/MatMul;model/activation_2/Relu;model/dense_2/BiasAdd f4 [100, 100]
000000 6c 3c 55 bd 1d b1 71 bd 65 33 9e 3e fd 4c cc 3c
       -0.052059576 -0.0590068 0.30898586 0.024939055
000010 55 6b 59 be 94 ff 24 be b5 9f 00 3e 24 23 89 bd
       -0.2123235 -0.1611312 0.12560923 -0.06696156
000020 17 30 54 3e c1 1c 3a bd c0 54 09 3e 23 92 44 3e
       0.2072147 -0.045437578 0.13411236 0.19196372
000030 a1 eb c4 3d 11 8a 0d be d3 11 72 be ef 55 a1 3d
       0.09615255 -0.138222 -0.23639612 0.07877719
000040 de a1 d3 3b 93 01 65 be 9c 0c 19 3e 26 70 bb bc
       0.006458505 -0.22363882 0.14946216 -0.022880625
000050 13 1f ec bd 34 db 41 bd 40 36 08 3d 92 d7 05 3e
       -0.115293644 -0.04732819 0.03325486 0.13070515
000060 d0 8d e5 bd ff f0 34 bd d2 7e c2 bc 37 aa 18 3d
       -0.11208689 -0.044175144 -0.023742113 0.037271705
000070 31 e5 39 be bf e8 cb bd fd fc a2 bc c2 cc a0 ba
       -0.18153836 -0.09956502 -0.019896025 -0.0012268054
000080 24 bc 8e be 18 92 2f 3d 8c ca 11 bd ab 5b 17 3e
       -0.27877915 0.042863935 -0.035593554 0.14781062
000090 63 f6 3b bd 9b 6b 63 3d aa b0 59 3d 12 17 01 be
       -0.04588927 0.055522542 0.053146996 -0.12606457
0000a0 7d 09 0f bd 6a 4b 3f be 76 15 9c be 44 f3 a9 3d
       -0.034921158 -0.18681112 -0.30485123 0.08298352
0000b0 d0 ee 42 3d c1 a0 cd bc d6 81 f0 bd 39 f1 be bd
       0.04759103 -0.025101067 -0.11743514 -0.09323353
0000c0 4e 41 ce bd 83 69 a8 3c 84 3e 8d 3d c4 e5 5e 3d
       -0.1007105 0.020558124 0.068966895 0.05441834
0000d0 1e ef f2 b6 0c f1 67 be f0 0a 1d be 13 3d 44 bd
       -7.239999e-06 -0.22650546 -0.15336204 -0.047909807
0000e0 24 6e ff 3c 0e 7e af 3c 43 6b 4f 3e 6d a0 60 bd
       0.031180449 0.021422412 0.20255761 -0.054840494
0000f0 b9 d1 26 3e f9 6d cd bd a9 ba c2 3d 4c f4 81 be
       0.1629094 -0.10030741 0.09508259 -0.25381696
000100 b0 9c cf bb dc c8 5d 3d 19 36 8e 3d c5 67 1e bd
       -0.0063358173 0.054146633 0.06943912 -0.03867318
000110 2b 65 7f bc 8a e0 f7 bc 9f b9 72 be 74 b2 1e be
       -0.015588085 -0.030258436 -0.23703621 -0.15497762
000120 1b 02 b3 bb 44 61 5f bd 3d 95 7b be 38 5a 89 bd
       -0.0054628975 -0.05453612 -0.24568649 -0.06706661
000130 56 cd ca 3d 50 99 c8 bc 45 29 75 bd 44 e4 9c be
       0.09902446 -0.024487168 -0.05985381 -0.30642903
000140 f6 d5 9f 3d 69 3c a6 bd f1 a1 88 3d 68 ba 33 3d
       0.07804482 -0.08116991 0.06671513 0.043878943
000150 2c b9 45 bd 6a 40 48 bc 30 81 bd 3d c3 34 44 bc
       -0.048272297 -0.012222389 0.09253156 -0.01197547
000160 2e aa 0d be 23 52 5b 3d 1f 16 a8 3d cc f3 d0 bc
       -0.1383445 0.05354513 0.08207344 -0.025506876
000170 89 ef a7 bd 0f cc 1d be 9b 4c 9d be 7e f6 44 3e
       -0.081999846 -0.15409873 -0.30722508 0.19234654
000180 68 2d 51 3e 9a 2f e2 be bb 44 d2 3d ef dd 86 be
       0.20427477 -0.44176942 0.102670155 -0.26341197
000190 b2 82 2a bd d9 d9 1e 3d c3 1b c6 3c ce 1a c9 bd
       -0.041628547 0.038781974 0.02418316 -0.09819566
0001a0 9a fc eb 3c fc 96 4d 3d e8 b3 8a 3d 39 ce 89 3c
       0.028806973 0.050192818 0.06772596 0.016821967
0001b0 2c f0 79 3d 61 3e 2b 3d 22 e6 85 bc 5b e9 20 3d
       0.06102006 0.041807536 -0.016345087 0.039285045
0001c0 ba 56 2f bd 0a 7a 96 bd be c9 9c 3d bd ef af 3d
       -0.04280732 -0.07347496 0.07655667 0.08590648
0001d0 20 54 f3 bb 4c af c0 bc 7e 52 cc bd 71 6f 02 3e
       -0.0074258 -0.023521088 -0.09976672 0.12737824
0001e0 ba bc 01 be 9a 14 74 3c b7 58 8a 3d 9b b4 dd 3d
       -0.1266965 0.01489749 0.06755202 0.108254634
0001f0 35 0d 2e 3c fd c9 51 3c 97 eb e6 bd 17 6b ac bd
       0.010623266 0.012804505 -0.11275404 -0.08418863
000200 79 4b 62 3d a0 a0 62 bd 2e 52 6b 3e c4 cb 8a 3e
       0.055247758 -0.055328965 0.22980568 0.27108586
000210 1f b6 e8 3d c9 72 70 3c 1d c1 5c 3d ce 1a 80 bd
       0.11362862 0.014675804 0.053895105 -0.062551126
000220 9b 23 b9 bc e3 fc 0b 3e 28 28 71 bd 66 07 98 3c
       -0.022599986 0.13670687 -0.058876187 0.018558215
000230 07 a8 02 bd ab 19 1e bd 67 1f 8b 3d 45 08 39 3c
       -0.031898525 -0.038598698 0.06793099 0.0112934755
000240 c5 c4 ce 3d bb 32 9d 3d 22 06 df 3d ff 22 24 3d
       0.100961246 0.07675692 0.108898416 0.040072437
000250 84 51 83 3d 8b 10 a9 3d ba 96 5a 3d 15 ce ed bd
       0.06412032 0.082551084 0.0533664 -0.11611573
000260 f4 19 6f 3e 9a c8 60 3f 41 8b a1 3d c6 1d 78 3d
       0.23349744 0.87806094 0.07887889 0.06057527
000270 ca 7c 1d 3e b8 b6 db 3c 9c 16 ce 3b 67 33 29 3d
       0.15379634 0.026820526 0.0062893163 0.041308787
000280 c9 64 36 3d 5c a1 02 be fa f3 a3 3e b9 ba 55 3d
       0.04452971 -0.12756866 0.32022077 0.052180026
000290 91 6a 0e 3d ac f9 b5 3d 14 af 32 be dc ed cd bc
       0.0347696 0.08885512 -0.174496 -0.025137834
0002a0 4d d5 13 3d 9e 65 48 bd b2 6f fd bd 4c aa ca 3c
       0.03609209 -0.048925035 -0.1237482 0.024739407
0002b0 52 ac c0 bc bc 6c 90 3e 47 4f a2 3c 89 27 12 be
       -0.023519669 0.28207958 0.019813193 -0.14272894
0002c0 64 4e 86 3d b0 5a d1 3d 7f 2f cd bc a2 ef 00 be
       0.065579206 0.102223754 -0.025047062 -0.12591413
0002d0 f6 65 ac 3d 88 2e 73 3c ca 46 d2 3c 1b fa 41 3e
       0.08417885 0.014842637 0.02566852 0.18943064
0002e0 f0 b5 dc 3c 4a 2b 55 bd 6e 6a ac bd 5f d4 30 3a
       0.026942223 -0.052043237 -0.08418737 0.0006745513
0002f0 6b dc 98 3c d2 99 a0 3d ba d7 f0 3e 77 4e 91 3c
       0.018659791 0.07841839 0.47039586 0.01773761
000300 78 56 51 be e4 6e 17 3e 58 f4 2d 3d 7e aa f0 bd
       -0.20443141 0.14788395 0.042469352 -0.11751269
000310 ae 7b 61 be 19 9f 82 bb 71 fd 9c be 7e ac e1 bd
       -0.22019836 -0.003986251 -0.3066211 -0.110192284
000320 5c 7f 9b 3e a0 9a 3a 3e d4 dd 5b bd 82 31 9d 3d
       0.30370605 0.18223047 -0.05367835 0.076754585
000330 ad 50 20 bb 4d 11 ba bc 58 be 8d 3d fe b6 80 bc
       -0.002446215 -0.022713328 0.06921071 -0.015712257
000340 1d e2 97 bd 0d fe 3a 3e e0 5e c4 3c 73 9c 52 3d
       -0.074161746 0.18260975 0.023971021 0.051418733
000350 d6 b1 ee bb 18 6b b0 bd f8 13 17 bd bc 78 66 be
       -0.0072843833 -0.086141765 -0.036884278 -0.22506994
000360 b3 f9 4d 3d 03 b8 03 3d 3d 30 81 bd d9 06 c1 3d
       0.05028696 0.03215791 -0.06308029 0.09425134
000370 fc d2 35 3e 40 fb 3a bb 48 d4 bc b9 50 aa fe 3b
       0.17756265 -0.0028531104 -0.00036016316 0.0077717677
000380 be 99 25 bd b1 fd a0 bd a8 fb 13 bc 5d 97 42 bd
       -0.040429823 -0.07860888 -0.0090321675 -0.047507633
000390 ec ae a3 3c d4 1d 33 bb c3 b9 5a bc 1e 59 07 3e
       0.01998087 -0.0027331011 -0.013349953 0.1321759
0003a0 77 1e e0 bd a2 ee 91 3d b5 f1 08 be cf c8 29 bd
       -0.10943311 0.07125594 -0.13373454 -0.04145127
0003b0 c3 6e 9c 3d f3 8f b8 3b 91 12 14 bd 42 06 bc 3d
       0.076383136 0.0056323945 -0.03615052 0.09180881
0003c0 0c ca 3f 3d 7d 49 13 3f 6e e2 7a 3d 3d 01 30 3d
       0.046823546 0.5753401 0.061251096 0.04296993
0003d0 1f 27 2c 3e f5 01 26 3d c4 6b 7d bc c5 f6 8a 3c
       0.16811799 0.04052921 -0.015467588 0.016963372
0003e0 9d cb 9c bd a5 cf b4 3d ee bc fe 3d 70 a0 e0 bb
       -0.07656024 0.088286676 0.12438379 -0.006855063
0003f0 d2 0a 06 bd 95 e7 ed 3c b1 94 ba bd fd e3 80 3c
       -0.032725163 0.029041091 -0.09110392 0.015733713

model/dense_3/MatMul;model/activation_3/Relu;model/dense_3/BiasAdd f4 [100]
000000 f4 78 d7 c1 5a f0 29 42 3d db 9b 40 38 33 9e c0
       -26.93406 42.48472 4.8705125 -4.9437523
000010 d4 c3 52 41 9c c0 e8 c1 c8 92 89 c0 60 5e 95 41
       13.17281 -29.094048 -4.2991676 18.671082
000020 72 b6 44 42 d9 27 b0 41 44 2b 36 42 d9 a2 4f 42
       49.17817 22.019457 45.54225 51.90903
000030 32 7f 35 42 69 b6 e3 40 2e 59 50 41 4a 0a bf 40
       45.374214 7.116017 13.021772 5.970006
000040 09 85 d5 c0 54 2a a8 41 92 d4 c4 40 39 34 34 c0
       -6.6724896 21.020668 6.1509485 -2.8156874
000050 77 3c 19 42 d8 bb 0f c1 a1 4c d0 bf de fd 0c 42
       38.309048 -8.98336 -1.6273385 35.247917
000060 0f 4b 38 42 e7 8a 6b 42 0d df fc 41 b8 00 42 3e
       46.0733 58.885647 31.608912 0.18945587
000070 8c 73 47 c1 aa 1c 41 c2 8c 9a 80 41 45 d0 ac 41
       -12.46571 -48.277992 16.075462 21.601694
000080 b3 c6 c1 41 be 86 90 c0 ff 84 3f 41 d2 db 8e 42
       24.222021 -4.516448 11.96997 71.42934
000090 22 3a ee c0 fc 98 dd 41 dc ad 1d c2 66 77 69 41
       -7.4445963 27.6997 -39.419785 14.59165
0000a0 bf d3 12 42 0b ee 1a 42 55 d6 52 42 52 f8 c1 c1
       36.706783 38.732464 52.70931 -24.24625
0000b0 a9 38 24 3f 91 48 13 41 8f 6a b0 c1 79 b9 13 41
       0.64148957 9.205216 -22.05203 9.232781
0000c0 1b 26 dd 41 7e 80 0c 40 19 2b 61 41 ca ce f7 c1
       27.643606 2.1953425 14.073022 -30.975971
0000d0 7e 6f 88 c1 9f 47 01 c2 1c f4 04 c2 b7 b7 8c 41
       -17.05444 -32.319942 -33.238388 17.589705
0000e0 53 70 72 be be f4 53 c1 83 77 a4 40 6f cb 98 41
       -0.23675661 -13.2472515 5.139589 19.099333
0000f0 41 aa a1 c0 9d e0 3b 41 b1 c5 ac 3f ad ea 9c 41
       -5.052033 11.742337 1.3497831 19.614588
000100 67 b7 95 c1 8a 91 01 41 9c f8 2f 41 e0 ce 49 c0
       -18.714552 8.098032 10.998196 -3.1532516
000110 22 a2 87 41 2e b6 1d c0 12 24 02 c1 17 62 1c 41
       16.954166 -2.4642444 -8.133806 9.773948
000120 a7 a0 96 3f 2e bf 04 c2 ac 0b 12 42 af c7 b2 c0
       1.1767777 -33.1867 36.5114 -5.5868754
000130 19 2e c5 c1 ff 58 36 41 7f 57 28 c0 af be 1e c2
       -24.647509 11.396728 -2.6303403 -39.686214
000140 6c 83 3a c2 81 ef 50 3f cf ab c6 3f 4e e6 d4 41
       -46.62834 0.81615454 1.5521182 26.612453
000150 34 90 cb c0 a2 73 a7 c1 e7 f1 2b 41 ac af 74 3f
       -6.361353 -20.931461 10.746558 0.95580554
000160 87 ca 25 c1 e2 e2 31 41 5f c9 e0 c0 28 5c 09 42
       -10.361945 11.117891 -7.0245814 34.339996
000170 49 b1 eb be a2 97 2b c0 11 0d bf 41 e2 c5 70 c2
       -0.46033695 -2.68113 23.88138 -60.193245
000180 6c 52 3f bf be 99 bc 41 f9 76 df 41 e2 51 d5 3e
       -0.7473514 23.57507 27.933092 0.41664034

model/batch_normalization_2/batchnorm/mul_1;model/batch_normalization_2/batchnorm/add_1;model/dense_3/MatMul;model/activation_3/Relu;model/dense_3/BiasAdd f4 [100, 100]
000000 5a f6 c3 3d a1 57 7a 3b a4 2e 87 bc ed bf 41 3d
       0.09568472 0.0038199204 -0.016501732 0.047302175
000010 fc eb 52 3d 49 c7 70 bd a6 bb 8f 3d 2a f5 75 3e
       0.051494583 -0.058783803 0.07018213 0.24019304
000020 9d 6a df bd 06 1f 12 bc 7e 74 83 be 37 47 91 bd
       -0.10909007 -0.008918529 -0.25674814 -0.07093661
000030 de d7 04 be a0 88 9e bd 17 aa 96 3d 33 3b 46 3d
       -0.12972972 -0.07740903 0.07356661 0.0483963
000040 c7 48 e7 bc b5 18 14 3e d3 b9 75 3d 31 d2 ce ba
       -0.028232945 0.1446255 0.05999167 -0.0015779195
000050 a4 47 15 bc f1 c9 78 3d 9c 8f 0c 3f 17 3d 99 bd
       -0.009111319 0.06073946 0.5490663 -0.07482355
000060 8b 81 08 bd ed a5 a3 bc ff 80 ed 3d 97 40 d4 3c
       -0.033326667 -0.01997658 0.1159687 0.025909705
000070 e2 72 6d be 08 0a e9 bd e7 23 c0 bd 40 51 b6 bd
       -0.23188356 -0.113788664 -0.09381848 -0.08902216
000080 98 a6 00 bc f4 ce f3 3b f6 22 5e be 3b 9c 2f be
       -0.007852219 0.007440442 -0.21693024 -0.17149441
000090 fd d7 e6 3d 0a ae 1d bd 1a 51 4a bd 40 17 b3 bc
       0.11271665 -0.038496055 -0.04939375 -0.021861672
0000a0 cf dc b6 bc fc aa ed ba eb 76 db 3c 76 27 30 3e
       -0.022322087 -0.0018132622 0.026790103 0.17202553
0000b0 a3 73 b6 bb 00 e2 1c bd 42 ae ca 3d 25 c9 8b be
       -0.005567984 -0.038301468 0.09896518 -0.273019
0000c0 54 37 de 3d 18 9f 89 3e 2c 63 85 3d 87 18 d6 3d
       0.10850397 0.2687919 0.06513056 0.10453897
0000d0 60 b3 79 3d e2 0b ac 3d 74 c2 a3 bd 15 8f b6 3d
       0.06096208 0.08400704 -0.07996073 0.089140095
0000e0 8d 74 b4 3d c4 6b 83 3e 4f 19 bd 3d 96 30 2d bd
       0.08811293 0.25668156 0.09233343 -0.042282663
0000f0 37 4b 11 be 11 95 49 3c ca 72 a5 bd 99 c8 c5 bd
       -0.14188848 0.012303607 -0.08078535 -0.096574016
000100 31 0a 2a 3e 97 54 0f bc 8c 85 84 c0 45 24 87 3d
       0.1660545 -0.008748195 -4.141302 0.06598715
000110 6d ea 94 3d 48 44 10 3e c8 e8 a1 3a 43 7e db bd
       0.07271276 0.14088547 0.0012352699 -0.10717442
000120 60 93 4e bc 9c ba 5a bd 45 84 2b 3d e2 27 6c 3d
       -0.012608379 -0.05340062 0.04187419 0.057655223
000130 7c c1 32 3c 63 66 c6 3d 26 d6 06 bd 37 d0 c4 3d
       0.010910388 0.096874975 -0.03291907 0.09610026
000140 86 ed 3b 3c 07 94 f9 bd d0 c4 0e 3d d1 34 f5 3b
       0.011470204 -0.12186437 0.034855664 0.007483103
000150 b9 8c f8 3b e6 d7 99 bd af 84 b9 3d bc 7c 1b be
       0.007585135 -0.075118825 0.090585105 -0.15184301
000160 08 08 88 3e f8 b4 d4 3e cd 9f d5 bd 33 60 19 be
       0.26568627 0.41544318 -0.1043087 -0.14978103
000170 94 f5 f4 3c 71 06 ea 3d 34 bd a9 3d d5 34 28 3c
       0.029902257 0.1142701 0.08288041 0.010266502
000180 a9 d5 c7 3b 1d 05 94 be 71 4a 14 be 32 fa d3 bc
       0.0060984683 -0.2891015 -0.14481522 -0.025876138
000190 3f d9 73 be 06 bb 66 bd 92 9a f0 be c6 50 e6 bb
       -0.23813342 -0.056330703 -0.46992928 -0.007028672
0001a0 d6 26 c0 bd 91 28 b2 3c 66 4a 79 3d 62 05 38 3e
       -0.09382407 0.02174786 0.060861968 0.17970803
0001b0 99 c3 e5 bd 4c 3e 8b be 89 fe 84 3d ea 95 24 3e
       -0.11218948 -0.27195966 0.06493861 0.16072813
0001c0 2f c9 4d 3c dc f9 1c be 23 4c 22 3e b5 fe 34 3c
       0.012560173 -0.15329689 0.15849356 0.011047055
0001d0 76 36 83 bc db 8d ed bd 9b 6e 9d bd 62 5f 1b be
       -0.01601718 -0.115993224 -0.07687112 -0.15173104
0001e0 c7 ce 16 bd ec 81 0d 3d fc 07 05 be 0a 0f 9d bd
       -0.036818292 0.03454773 -0.12991327 -0.07668884
0001f0 dc 9f 50 3e 60 db 32 be 74 33 b9 3e 08 e9 32 3e
       0.20373482 -0.17466497 0.36172068 0.17471707
000200 c3 f3 0e 3e 6c 8b e5 3d f0 8c 1c be b9 7b b2 3e
       0.13960175 0.11208233 -0.15288138 0.34860018
000210 cb b8 9c 3d 14 f2 fa 3d 79 3c 05 bd 02 b3 87 bd
       0.07652434 0.12253204 -0.032528374 -0.0662594
000220 80 2a 47 3c 77 62 d1 3d fb 79 69 bd 34 b8 75 3e
       0.012156129 0.10223859 -0.057001095 0.23996049
000230 24 b2 20 be 6e 07 43 bd 28 56 46 bd 7a 9a e6 bd
       -0.15692955 -0.047614507 -0.04842201 -0.11259933
000240 02 ba 0a 3e 42 76 62 3d 96 36 90 bd 2f 34 cc be
       0.13547519 0.05528856 -0.070416614 -0.39883563
000250 cb 1e 4f 3d 36 3c 87 be 18 8d de 3a f4 32 8a 3e
       0.050566476 -0.26413125 0.0016979305 0.26992
000260 c8 72 bd bd 3f 38 7e be 62 2f 2f be 18 79 0e be
       -0.092504084 -0.24826144 -0.17107919 -0.13913381
000270 c7 4a e5 3c a9 5d f5 bc 03 05 57 be e2 b8 f7 3d
       0.027989758 -0.029951887 -0.20998006 0.120958105
000280 87 14 94 3d dc f2 32 3e 2c ec 39 3d 74 61 e3 bd
       0.07230478 0.17475456 0.045391247 -0.11102572
000290 97 5d 6f 3c 05 3d 8b bc 5a fa 84 bd 50 0e 67 bd
       0.014609716 -0.01699687 -0.06493063 -0.056410134
0002a0 4c 06 4b 3d b8 e8 af bd e2 fc 9b bd ec 75 09 3e
       0.049566552 -0.085893095 -0.07616593 0.1342389
0002b0 49 b2 11 3e f4 2e 84 3b a9 77 c4 bc 33 8c ad bd
       0.14228167 0.0040339176 -0.02398284 -0.084740065
0002c0 d0 45 0c be 37 9b 8f bd 76 b7 b8 3c 72 38 9d 3e
       -0.13698506 -0.07012027 0.022548418 0.30707127
0002d0 f1 46 48 bd d5 b7 06 be 9c 4b e4 3d ee 3d 8d be
       -0.04889578 -0.13156064 0.11147234 -0.2758631
0002e0 e4 15 99 bd 2a a9 27 3c 82 b4 85 3e a5 60 92 be
       -0.074748784 0.010233203 0.2611428 -0.2858936
0002f0 de 00 53 be 48 59 83 bd ba dc a8 3d d2 11 18 3e
       -0.206058 -0.064135134 0.08245225 0.14850548
000300 d6 e7 d6 3d a4 64 05 3d 53 2d 0c be 9d a3 c4 bd
       0.10493438 0.03256668 -0.13689165 -0.09601519
000310 b8 b8 97 3d 28 25 2f be 4d ab 92 3d 8f 42 07 3d
       0.07408279 -0.17104018 0.07161579 0.03302246
000320 b2 01 bf 3d 6b e7 4d 3e 36 86 bc bc 6a 24 9a bd
       0.09326495 0.2010781 -0.023013216 -0.07526477
000330 fc 0d 8f 3d a6 a0 c2 3c 69 d2 77 3d 5e 44 5e 3d
       0.06985089 0.023758244 0.060503397 0.05426442
000340 71 67 a6 3d 0e d9 c2 3d 36 f3 d3 bd b9 0d 22 3e
       0.08125199 0.09514056 -0.10349123 0.15825547
000350 62 fb d3 bc a4 e0 76 be c1 52 03 3d 90 7d 4f 3e
       -0.025876705 -0.24109131 0.032061342 0.20262742
000360 8c 15 10 3e 0a 1b 70 3c 6f 3e 03 be 60 6d b2 3d
       0.1407072 0.014654884 -0.12816785 0.08712268
000370 fc 62 76 bd f5 63 8c 3d fb 1d b5 39 b7 0a b1 bc
       -0.060152993 0.06855003 0.00034545347 -0.021611555
000380 fb 2f 3a be 56 cf 36 3d 38 01 80 bd d3 93 b6 3b
       -0.18182366 0.044631325 -0.062502325 0.0055718212
000390 a7 6d 0d 3e 0c b2 98 3d be 1e 1a be 7b 19 06 bd
       0.1381136 0.07455835 -0.1505079 -0.032739144
0003a0 77 a3 65 be 72 c3 0f bd c2 1c 2a bd 3a 73 32 3d
       -0.22425638 -0.0350985 -0.04153133 0.04356692
0003b0 9b 80 aa 3d a7 e2 19 3e ed 51 27 3d b2 bd 11 be
       0.08325311 0.15027867 0.040849615 -0.1423252
0003c0 bb d7 8d 3c 83 62 68 bd 58 b6 46 be 38 01 06 3d
       0.017314782 -0.056734573 -0.19405496 0.032716006
0003d0 8b 1c 71 3d 26 f2 7e be 6e 1a 5c bc 6f 1d a1 bd
       0.05886511 -0.2489706 -0.013434036 -0.07866942
0003e0 54 38 33 be ee c4 39 bd 5a 73 68 be 0a 61 3d 3c
       -0.17501956 -0.045353822 -0.22700253 0.01155878
0003f0 fe 6b c7 3d dd 33 4e bd 15 b8 9f bd da d6 b3 bd
       0.09737395 -0.05034243 -0.07798783 -0.08781214

model/dense_4/MatMul;model/activation_4/Relu;model/dense_4/BiasAdd f4 [100]
000000 5c 16 af c0 65 62 40 41 9d a4 c3 40 86 a3 6e 40
       -5.4714794 12.024022 6.1138444 3.7287307
000010 bb a1 7a c0 e1 0a 0d c0 d5 19 ba bf 33 ea 36 41
       -3.9161212 -2.203789 -1.4539133 11.432178
000020 60 c2 2b 42 50 22 82 41 91 2a 04 c1 4b 67 2f c1
       42.93982 16.266754 -8.260392 -10.962718
000030 be 89 52 42 30 ae c0 41 e0 bb 43 c1 c0 9f 95 c1
       52.634514 24.085052 -12.233368 -18.703003
000040 85 2a 8a 40 15 94 08 c1 cb 6e a3 41 dc 41 7b 40
       4.3176904 -8.536153 20.429098 3.9258947
000050 74 4e 71 c1 03 89 f9 be be d6 2a 41 f4 ba 68 41
       -15.081654 -0.48737344 10.677427 14.545643
000060 c1 8c 20 42 c6 1f 1b 40 3c 9f e2 41 70 de 0c 3f
       40.137455 2.4238143 28.327751 0.5502691
000070 97 7c 02 41 5b 4c 0c be 3c 5e a9 41 95 39 d6 bf
       8.155417 -0.13701002 21.171013 -1.6736323
000080 26 b6 05 42 00 d6 ae 40 70 fd 98 41 a9 98 b0 c0
       33.42788 5.463623 19.123749 -5.5186353
000090 9f 8a a6 c1 46 ac 8c 41 4d f5 f0 41 fc 3d 17 42
       -20.817686 17.584118 30.119776 37.81053
0000a0 bc b5 2c 42 2e 8f 36 40 f6 cb 5f 40 6d e5 0c c0
       43.177475 2.852489 3.4968238 -2.201503
0000b0 00 c8 4f 42 31 7d 08 c1 d6 df 6b c1 bf 3c c0 c1
       51.945312 -8.530564 -14.742147 -24.029661
0000c0 3f 65 f5 c1 23 21 82 40 02 a9 46 42 f1 7b ba 41
       -30.674437 4.066545 49.665047 23.310518
0000d0 45 e3 9e bf a0 9a 58 be 85 50 04 42 ee b6 6e 41
       -1.2413107 -0.21152735 33.078632 14.919661
0000e0 fb 96 c2 41 be 38 d6 40 1a ff 8c 41 a5 79 99 41
       24.32372 6.6944265 17.624561 19.184397
0000f0 af 3c 04 c2 a5 d8 9b 41 f6 63 86 c1 35 c0 af 41
       -33.05926 19.480783 -16.79881 21.968851
000100 ef 5b 18 41 89 80 f9 41 72 c7 c7 c0 52 2c 8d 41
       9.522445 31.187761 -6.2430964 17.64664
000110 06 06 f8 41 8d 81 31 42 f6 81 eb c0 82 b8 24 42
       31.002941 44.376514 -7.3596144 41.180183
000120 8b a8 d0 bf 34 59 47 c2 ce 13 34 41 68 d0 45 42
       -1.6301435 -49.837112 11.254835 49.45352
000130 b9 ab 28 42 5d fe 4b c1 81 a5 f5 41 ea 72 64 c1
       42.167698 -12.7496 30.705812 -14.278055
000140 5c 04 fa 41 92 a3 f2 41 7a e4 6b 40 25 45 82 c1
       31.252129 30.329868 3.68582 -16.283762
000150 b9 1d f2 c0 42 cc c3 c0 f5 04 ca 41 e6 3a ee 3f
       -7.5661283 -6.118684 25.25242 1.8611724
000160 c2 5b 16 41 1d 70 37 41 98 d5 72 c1 2d ae ff 41
       9.397402 11.464871 -15.177147 31.960047
000170 f2 f8 fe 41 94 77 ed 40 3c 7a 62 42 d2 14 1d 42
       31.871555 7.420847 56.61937 39.270332
000180 cf d8 92 40 3a d0 68 c1 87 85 3f 42 26 79 89 c0
       4.588966 -14.550837 47.880398 -4.2960386

model/batch_normalization_3/batchnorm/mul_1;model/batch_normalization_3/batchnorm/add_1;model/dense_4/MatMul;model/activation_4/Relu;model/dense_4/BiasAdd f4 [100, 100]
000000 60 c8 02 be 7b 58 bb 3c 47 ef cc 3c 1b 0f 36 be
       -0.1277175 0.02286934 0.02501644 -0.177792
000010 fd 2c 47 be 75 83 cb 3d e4 8d 73 bd 8b f9 dd 3c
       -0.19450755 0.09937183 -0.05946149 0.02709653
000020 ff d2 40 be 9b b8 be 3d 96 b5 58 bc 41 b2 1d 3e
       -0.18830489 0.093125544 -0.013226887 0.1540003
000030 9c 2f 11 bd b8 9f 84 3d 62 58 c8 3d e7 8a 8f 3d
       -0.035445794 0.064757764 0.09782483 0.070089154
000040 64 d9 e0 bb c9 18 04 bd 43 91 05 be e2 b6 d6 bc
       -0.0068618525 -0.0322502 -0.13043694 -0.026210252
000050 d1 6c 16 3d 05 f5 01 3f 3d 5c 03 3f e7 ea 2c 3e
       0.03672487 0.50764495 0.5131262 0.16886483
000060 df cb 9d bd cb 96 74 3d eb 94 28 3e f0 cb 31 3c
       -0.07704901 0.05971412 0.16463058 0.010851845
000070 0f 07 e6 be cc b8 30 bc d8 b0 03 bc f6 12 8a be
       -0.4492726 -0.0107862465 -0.008037768 -0.2696759
000080 60 52 b6 bb 16 94 be bd 12 9c c8 3c f6 72 ac 3c
       -0.005564019 -0.09305589 0.024488483 0.021050911
000090 e9 3b 55 3e 0a 47 ea bd 1d 88 f1 bd b2 df a5 3a
       0.20823635 -0.11439331 -0.1179354 0.0012655167
0000a0 e0 5e 89 be 08 69 70 3d 7c 92 b2 bb 7d e4 62 3d
       -0.26830196 0.058693916 -0.005449591 0.055393685
0000b0 0a 96 fb 3d fb e7 91 3d e4 11 c2 3d 24 d3 7b bc
       0.12284477 0.07124325 0.094760686 -0.015370164
0000c0 ed 15 89 3e db c2 16 3d 16 5a 72 3d e0 0c 05 3c
       0.2677454 0.036806922 0.059167944 0.008120745
0000d0 c6 55 5a 3e 4c 6b 42 3c bd d1 57 3d 65 53 da 3d
       0.21321782 0.011866402 0.052690256 0.106604375
0000e0 1e dc 8b bd d9 75 64 3d 6a 36 33 3c 2e 8e 2c 3e
       -0.068290934 0.05577645 0.010938266 0.16851112
0000f0 23 b4 9b be 9d 6c b8 bc 2a ee 25 3d 01 61 1f 3d
       -0.3041087 -0.022512728 0.040510334 0.03891087
000100 8b ef 43 bd fb 70 5f bd 34 d6 0c 3e 2d 6b 2e 3d
       -0.047835868 -0.054551106 0.13753587 0.04258268
000110 13 9c 37 3d 32 94 d8 3d ca 59 e5 bc 4e f6 ed 3c
       0.04482658 0.10575141 -0.027996916 0.029048111
000120 b3 58 fc 3d e6 59 fc bc 2c 86 41 bd bb de fa bd
       0.123216055 -0.030804586 -0.047247097 -0.12249514
000130 9f d5 45 be 8d d6 0e bd 8e 61 82 3c f4 80 1d 3c
       -0.19319771 -0.03487258 0.015915658 0.009613264
000140 95 a4 01 3e 92 64 79 bd 9e 79 03 3e bf dd be bd
       0.1266044 -0.060886927 0.12839362 -0.093196385
000150 d4 13 09 3d 5f 31 6d 3d a5 d7 dc bd 41 29 0d 3e
       0.033466175 0.057908412 -0.107833184 0.13785268
000160 c9 18 14 bd 3e f4 97 bc 56 d7 59 bd 79 ee 83 3d
       -0.03615645 -0.018549081 -0.053183876 0.064419694
000170 c9 1d 42 3e 1f a0 70 3d bf bd be be 5f a7 18 3c
       0.18956675 0.058746453 -0.3725414 0.009317248
000180 29 aa d9 3d cf 92 b4 3d 6a a3 5c bc dc 1d d1 3d
       0.106281586 0.08817064 -0.013466695 0.10210773
000190 60 6c b2 3d 78 d2 30 3d 03 e5 94 bc fd 0e 02 3e
       0.08712077 0.04316947 -0.018175608 0.1270103
0001a0 17 a0 8d bd f4 23 5c bd c7 48 2a 3d 80 e4 58 3e
       -0.069153 -0.053745225 0.041573312 0.21180916
0001b0 42 69 81 be 2c 8f 13 3d de 32 dd bc 51 a3 35 3e
       -0.25275618 0.03602521 -0.027001794 0.17738082
0001c0 0f 89 8a bd 5d ab 7e bd 20 57 db 3d 78 87 86 3d
       -0.06764423 -0.062175144 0.10709977 0.06568807
0001d0 bb 3f 71 3d 14 65 49 bc 32 cc be 3d 1c 82 f1 be
       0.05889867 -0.012292165 0.09316291 -0.47169578
0001e0 b3 0e a5 bc ef a6 8b bd 94 32 db bc be 7b 3c 3e
       -0.02014861 -0.068189494 -0.026757516 0.18406579
0001f0 5e 6c 22 be db b9 02 3d 68 dd 23 be 2d 35 26 3b
       -0.15861651 0.031915527 -0.16002429 0.0025361285
000200 d3 8d 7c 3c ff 92 4e 3e f1 0e 05 3d 25 3b e5 bd
       0.015414673 0.20173262 0.032484952 -0.111929215
000210 3c 0d a8 bc 08 75 4c bd 97 e8 4c 3e 9b 27 12 bd
       -0.020514123 -0.049916297 0.20010601 -0.035682302
000220 1a 04 96 3d 31 33 5b bc 50 c3 ac 3d 9b f8 94 3d
       0.07325001 -0.013378904 0.084356904 0.0727398
000230 92 2c 9d 3d fe 36 2c be e7 65 a0 bc 25 6b 90 bd
       0.07674517 -0.16817853 -0.01957984 -0.07051686
000240 e6 5c d4 3d 3b e1 d8 3b de 1b 0a 3e 7d 1e 79 bd
       0.103692815 0.0066186464 0.13487193 -0.06082009
000250 13 65 e5 bd fe f5 80 3d 69 40 ec 3b 97 72 13 3e
       -0.11200919 0.06296919 0.0072098267 0.14399181
000260 81 12 20 be 5d 61 24 3e 44 b9 cb 3c be 17 94 bb
       -0.15632059 0.16052766 0.024868615 -0.004519432
000270 63 3c 08 be 9c a7 c0 bd e6 cd f1 bc be 63 8d be
       -0.13304286 -0.09406969 -0.029517125 -0.2761516
000280 a9 f9 d7 3d ec af 09 bd a8 b9 e6 bd 5e f5 10 3d
       0.10545666 -0.033615038 -0.1126588 0.03539025
000290 1e 41 09 3e 4d 3d be bd 11 d3 56 bd 42 b1 92 3d
       0.13403746 -0.09289036 -0.052447382 0.071627155
0002a0 94 8f 82 3e e5 10 22 3e 9e ff a8 bd 17 9a 36 bf
       0.25500166 0.15826757 -0.0825188 -0.7132887
0002b0 0d d9 87 be 40 01 90 3d be 2d 5d bd fa 23 03 bd
       -0.26532784 0.070314884 -0.0539987 -0.03201673
0002c0 14 7a 1c be a5 94 7d 3e ac cd 23 3d 1d d2 90 3c
       -0.15280944 0.24763735 0.039991066 0.017678315
0002d0 7d 44 8a bd 44 cd 41 3d 95 f7 78 be 52 b9 fa bd
       -0.06751344 0.047314897 -0.24313195 -0.12242378
0002e0 ff 01 89 bd 58 74 1d be 41 fc 46 3e a2 9d 68 bf
       -0.06689834 -0.15376413 0.19432165 -0.9086553
0002f0 d5 10 14 3b bd f9 bc 3c f1 5c b1 3d 8f 65 42 be
       0.002259304 0.023068303 0.08660305 -0.18984054
000300 1a 76 19 be 0d 82 34 3d 22 5f ef bc d1 91 11 3d
       -0.14986458 0.04406934 -0.029220168 0.035539452
000310 61 48 c4 3e 2f 16 d9 3d f0 c6 06 3c 8a 47 1f 3e
       0.3833647 0.10599934 0.008226141 0.15554634
000320 57 26 a3 bd e9 9d 8f 3e 7c 94 bf 3e 2f d6 42 3e
       -0.07966297 0.28050163 0.37417972 0.19027017
000330 87 31 a8 3d 39 d6 9b bd 8a 1f 59 bb 1f ab 8d 3d
       0.082125716 -0.07609219 -0.003313037 0.069174044
000340 7c 14 99 bd e8 01 42 bd a8 59 66 be 28 c4 5a 3e
       -0.0747461 -0.0473651 -0.22495139 0.2136389
000350 51 8b 34 3e cc 03 5e 3d e0 5d ec bc 6d 57 03 3d
       0.1763127 0.05420284 -0.028853357 0.032065798
000360 00 30 93 3d 95 df 60 3e 9e fe 92 3d 41 99 c6 3d
       0.0718689 0.2196029 0.071774706 0.096971996
000370 67 84 be 3d 99 a5 80 3c 76 af b0 bb 07 b6 5a 3c
       0.093025975 0.015703963 -0.0053920103 0.013349063
000380 92 8c 9d bd 92 44 81 be 24 06 2d 3e 20 ef 3b bc
       -0.07692827 -0.25247627 0.16896874 -0.011470586
000390 40 7d 9e 3d bc b7 ac 3d e9 79 a2 bc dd c2 1d 3b
       0.07738733 0.08433482 -0.019833522 0.0024072446
0003a0 8f 33 40 be ca 01 cc 3d d3 f3 4e bd 9b 78 36 be
       -0.18769668 0.09961279 -0.050525498 -0.17819445
0003b0 6c a1 12 3e e6 50 67 3c 7c 37 1d be 63 6e 71 bd
       0.1431939 0.014118409 -0.15353197 -0.058943164
0003c0 ba b0 cc bd 67 c9 bc bd 9d d9 18 be b9 2b 86 3c
       -0.099946454 -0.09218102 -0.14926763 0.01637827
0003d0 99 8a 58 b9 ff 81 1b b9 18 4c a3 3d 28 59 ec bc
       -0.00020650997 -0.00014830379 0.07973498 -0.028851107
0003e0 8d 68 f8 3d 92 1d fe bd fa 1e 1d bd 70 90 84 be
       0.121293165 -0.12407984 -0.03835962 -0.25891447
0003f0 71 2e b1 3c da fd 12 3e ff 73 74 bb ba f8 72 3d
       0.02162859 0.14354649 -0.0037300584 0.059319235

model/dense_5/MatMul;model/activation_5/Relu;model/dense_5/BiasAdd f4 [100]
000000 a0 d9 b2 40 e0 20 2c 42 83 34 4f c1 f7 cd 8b bf
       5.5890656 43.032104 -12.95032 -1.092223
000010 33 06 f8 41 58 bb ae c0 34 d9 22 42 20 66 97 41
       31.003027 -5.460369 40.712112 18.924866
000020 1a c7 bb 40 d1 e1 ca bf f5 df ed 41 84 c6 a8 c0
       5.8680544 -1.5850164 29.734354 -5.274233
000030 09 98 96 40 59 85 00 42 b8 a2 f2 c1 3a 00 d9 41
       4.706059 32.130222 -30.329453 27.12511
000040 15 c4 ac c1 13 d4 45 41 86 89 94 41 30 38 8b c1
       -21.595743 12.364276 18.56715 -17.402435
000050 3f 9b 89 42 3f 67 86 c1 e5 b3 ad 41 9c 8a 12 42
       68.803215 -16.800413 21.71284 36.63536
000060 b5 93 e4 41 90 f3 ab 40 95 a2 08 40 d3 fc 04 3f
       28.572123 5.3734818 2.1349232 0.5194828
000070 a7 65 18 41 ae a1 27 41 2c a2 5a c1 7b e9 ed 40
       9.524817 10.476973 -13.664593 7.434751
000080 5d 94 89 c1 32 67 00 c2 27 e9 5c 40 41 46 01 42
       -17.197443 -32.100777 3.4517305 32.318607
000090 62 2e ab 41 82 3a 11 42 1e 2d 4f be 60 e2 01 c2
       21.397648 36.307137 -0.20232055 -32.47107
0000a0 06 16 e7 41 1b 29 0f c2 48 a3 9e 41 cd 80 82 41
       28.885754 -35.790142 19.829727 16.312891
0000b0 05 26 5f 41 e8 fc fe c1 d6 21 da 40 39 d2 44 41
       13.946782 -31.87349 6.8166304 12.301324
0000c0 33 97 15 c2 8d fb e3 41 91 87 61 3e 8f 95 e1 41
       -37.397655 28.497828 0.2202437 28.198027
0000d0 79 70 fb c1 86 0e bd c0 03 da 16 41 3a ec b3 3f
       -31.429918 -5.908023 9.4282255 1.4056466
0000e0 cb 41 10 41 23 e1 92 41 4a 31 8e 3f 03 fb 33 42
       9.016063 18.35993 1.1108792 44.99513
0000f0 13 cf db 41 4c d8 cd 3f 6f d3 3b 42 b8 98 d9 41
       27.47611 1.6081634 46.95648 27.19957
000100 f7 be ce c0 67 c9 d0 41 e6 87 95 c0 09 fe 2b c1
       -6.460811 26.098341 -4.672839 -10.74952
000110 14 6f 0e c1 af c4 1f 41 ad 7b d0 c1 a6 c8 c5 41
       -8.902119 9.985518 -26.060389 24.722973
000120 99 94 15 42 da de cc 41 b8 ea a6 c1 c7 f3 e4 3e
       37.395115 25.608814 -20.864609 0.44717237
000130 3b 16 5a 41 e8 7f 84 c1 e5 d0 7c 3f de 63 78 c2
       13.630427 -16.562454 0.9875625 -62.097527
000140 33 ae 85 42 8f 06 e3 c1 84 01 e3 41 86 30 bd 41
       66.84023 -28.378202 28.37574 23.648693
000150 cd eb 9c c0 57 5d ec 41 d8 98 0a c0 6a 7f 80 41
       -4.9037843 29.545576 -2.1655788 16.062214
000160 35 3d e1 c0 7f 70 77 40 37 4c 50 c1 63 82 8e 41
       -7.0387216 3.8662412 -13.018607 17.813665
000170 83 a9 04 40 48 a3 22 c1 03 15 b7 c0 2f ac 4c 40
       2.0728462 -10.164864 -5.721315 3.1980093
000180 e3 cd cc 41 d7 ff da 40 13 43 31 41 fe df 65 41
       25.60053 6.8437304 11.078876 14.367186

model/batch_normalization_4/batchnorm/mul_1;model/batch_normalization_4/batchnorm/add_1;model/dense_5/MatMul;model/activation_5/Relu;model/dense_5/BiasAdd f4 [100, 100]
000000 65 a1 58 bc df 50 a3 3d d5 eb ac bc 99 63 41 3d
       -0.013222073 0.07974409 -0.021108547 0.047214124
000010 56 c9 48 3d cb cd dd 3e c9 7f 62 3c fe da 20 be
       0.049020134 0.4332107 0.013824412 -0.15708539
000020 e5 dc 7e 3e a0 62 02 be 8c b2 81 bf a3 cd 54 bf
       0.24888952 -0.12732935 -1.0132613 -0.83126277
000030 3c e8 cb 3d 53 dc 4e bd 6b 62 2d bd 95 8c 4d 3e
       0.099564046 -0.050503086 -0.042330187 0.20073159
000040 84 8c 5c be f5 49 0c be 89 fb 46 3e 4c 87 83 bd
       -0.21537977 -0.13700087 0.1943189 -0.0642229
000050 2d 7b b8 3d 60 67 24 bc 92 5c ce bd f8 3e 10 be
       0.09007869 -0.010034412 -0.1007625 -0.1408652
000060 d8 cc 50 bd 50 d8 84 3d c9 74 42 3d 6d b7 37 3d
       -0.050976604 0.06486571 0.047474656 0.044852663
000070 65 3d 32 3e 86 1e 4c 3d 7e 4d 20 3d 17 98 3c be
       0.17406233 0.049833797 0.039136402 -0.18417393
000080 e5 47 95 bb 61 fa 2d bc 98 e4 63 be d1 b8 1a be
       -0.0045556896 -0.010618777 -0.2225517 -0.15109564
000090 d5 2a a8 3c c8 11 dd bd 88 cc 65 bd 0f 5b 91 3d
       0.020528236 -0.10794407 -0.05610326 0.07097446
0000a0 97 3f e2 3d 80 1e d8 3d bf 68 ee bd 3d d0 cf bc
       0.11047285 0.105526924 -0.116410725 -0.02536785
0000b0 8c 7a b5 3c 57 49 cc 3d 56 8c 0f be 72 f7 b4 3d
       0.022153161 0.09974926 -0.14018378 0.08836259
0000c0 81 f1 da 3c 1f e8 1b 3e 98 1d a7 3d 56 8d 80 3d
       0.026726486 0.15225266 0.081599414 0.06276958
0000d0 70 c7 83 3e ae 59 80 3d 86 3c 53 bd 79 3b 3e 3e
       0.25738096 0.06267105 -0.05157139 0.18577375
0000e0 f0 b4 17 bc 1f 08 bd be 9c c6 69 be fd c1 f9 3d
       -0.009259447 -0.36920258 -0.2282967 0.121952035
0000f0 20 71 b8 3d 2c d8 d1 bb fb f7 55 3c d3 08 62 3e
       0.09005952 -0.0064039435 0.013059611 0.22073679
000100 d4 d8 e2 3c c9 9f 03 bd 79 59 d4 be d0 18 58 bc
       0.027691282 -0.032134805 -0.41474512 -0.0131895095
000110 a3 99 8a bd 5e 4f bf be 7e ab f5 bc a3 af b7 bd
       -0.06767585 -0.3736524 -0.029989 -0.08969047
000120 35 c8 77 bd d0 17 bb 3c 04 d0 cd 3b 46 4f 48 bd
       -0.060493667 0.022838503 0.006280901 -0.048903726
000130 28 41 a4 3b 3c a0 9a 3c b3 da ac 3e 82 62 22 3e
       0.00501265 0.018875234 0.33760604 0.1585789
000140 fb 06 04 be 2b 23 bc bd d0 ed 6e be db 1c ba 3e
       -0.12893288 -0.09186395 -0.23332906 0.3635014
000150 d2 a3 96 be d8 7b d3 3d fa 59 37 3d 1e b6 cb bc
       -0.2942186 0.10326356 0.044763543 -0.024867114
000160 e7 7e 5b be 2d d4 43 be 9b 58 dd bd 1d 39 7c 3c
       -0.21435128 -0.19123907 -0.10807916 0.015394476
000170 c1 b8 f1 3d 11 97 03 3d 96 63 5b 3e 5c d2 30 3d
       0.11802817 0.03212649 0.21424708 0.043169364
000180 e5 40 c7 bd cd 9f 45 be c2 dd 10 bc 9a 89 a5 bc
       -0.097291745 -0.1929924 -0.008841934 -0.020207215
000190 db 04 06 bd 23 fd 21 3b 08 c2 c5 bd ef ce 25 bf
       -0.032719474 0.0024717532 -0.09656149 -0.6476888
0001a0 32 83 9c bd db 04 5a 3f 61 6b 98 bc 58 4e ca be
       -0.07642211 0.8516366 -0.01860589 -0.39512897
0001b0 1c 07 c5 3b b9 23 80 3e 03 a0 ad 3e 91 33 c3 3e
       0.0060128104 0.25027254 0.33911142 0.3812528
0001c0 8e 04 01 bc a8 0c d0 3c 0b 2e c7 3e e4 b8 2d bc
       -0.007874621 0.02539666 0.38902315 -0.010603163
0001d0 f6 65 0f bf 28 62 2f bf 6d e1 1f 3e 0e e6 8a 3d
       -0.56014955 -0.6850915 0.15613337 0.06782161
0001e0 3e 53 3d be bd 59 1f be 5a 4a fa bc 78 88 f6 3c
       -0.18488786 -0.15561576 -0.030553032 0.03009437
0001f0 8c b6 f1 bc cd 1e 21 bc a7 d2 03 3d 76 2b 0b be
       -0.02950599 -0.009834004 0.032183316 -0.13590798
000200 49 b9 15 bd ee 4f c8 bd 02 80 36 be 05 ad 08 3d
       -0.036553655 -0.097808704 -0.17822269 0.03336813
000210 81 96 fe 3d 1d 73 97 3d fa 0f 6c bd 3b a5 9a be
       0.1243105 0.07395003 -0.057632424 -0.30204186
000220 f1 a9 29 bf d5 72 15 ba a4 0f 4b 3e 55 e5 3b bc
       -0.66274935 -0.000570101 0.19830185 -0.011468251
000230 dd 2d ce bb 89 73 0c be 57 08 da 3d b7 8a 0e bc
       -0.0062920884 -0.13715948 0.10646122 -0.008700064
000240 f3 66 27 3d f3 0c 3e bf cb 50 6b 3d 95 ab 69 be
       0.040869664 -0.7423851 0.057450097 -0.2281936
000250 82 15 1d bd d1 4a 68 3e 69 5e c1 3d 76 5f ab bc
       -0.03835059 0.2268479 0.094418354 -0.020919543
000260 cc 4b 18 be c0 53 c0 bd 6b 5d 8c bd ba c8 14 bd
       -0.14872664 -0.09390974 -0.068537556 -0.03632424
000270 5b 3a 93 3d e5 8f 1d bd ba d0 86 bd a4 b0 5b 3d
       0.07188865 -0.038467307 -0.0658278 0.053635255
000280 fa 61 25 bd 08 2f 9b 3c 5c e6 99 3d ae 62 ef bd
       -0.04037664 0.018943325 0.07514641 -0.116887435
000290 e6 7f a4 bd 63 35 03 be 35 a0 df be 8a 96 db bb
       -0.08032207 -0.12813334 -0.43676916 -0.0067012953
0002a0 3d 14 c0 bc 30 e6 98 bd 28 38 0c bf 07 46 93 bd
       -0.02344715 -0.0746578 -0.5477319 -0.07191091
0002b0 79 ae 99 bd 4c fa f5 bc ab d5 fc bd 2a d2 a1 bb
       -0.07503981 -0.030026577 -0.123454414 -0.0049383836
0002c0 d8 aa 0b bd f5 4e 06 be b4 be 5c be cd 98 c1 3d
       -0.034098476 -0.13116057 -0.21557122 0.094529726
0002d0 7f 64 df 3d 6f e1 2d 3c a3 a7 e4 bc 27 17 5b 3b
       0.1090784 0.01061283 -0.027911967 0.0033430548
0002e0 e7 38 8a be 5c 16 d2 bd a6 05 66 3b a9 f8 73 bd
       -0.26996538 -0.10258171 0.0035098582 -0.059563313
0002f0 85 3c 1f 3b 71 0d 0d 3e 8a 6e 9f bd 94 b4 3c be
       0.0024297547 0.13774659 -0.077847555 -0.1842826
000300 0f d7 79 bc ad 84 b4 bc 1c 70 89 bd 8b 44 05 be
       -0.015249028 -0.022035921 -0.06710836 -0.13014428
000310 60 7d 97 bd 2b 0d 21 3d ba 4c 04 be 0a ed d2 be
       -0.0739696 0.0393192 -0.12919894 -0.4119647
000320 b6 74 b4 3d a6 bf d6 b9 85 8b 63 3d 8c 7f d3 3d
       0.08811323 -0.0004096005 0.055552978 0.10327062
000330 d3 52 e2 bc 87 7d 34 be af 0a 11 bd d7 f0 ff 3d
       -0.027627384 -0.1762601 -0.03541058 0.124971084
000340 a6 57 53 bb eb 04 2d be 63 0f 80 3b bb f5 3d bd
       -0.0032248287 -0.16896407 0.0039080842 -0.046376925
000350 9e e0 76 3d b6 a9 a0 be ac 2e 9a 3d 20 02 41 3b
       0.060272805 -0.3137948 0.07528433 0.002945073
000360 a9 d9 dd 3c 01 0a 89 bd 1f 63 7c bd 5f 3d 79 3e
       0.027081328 -0.06691361 -0.061617967 0.24339817
000370 a9 81 dc 3b 1f 8a b6 3d 9b 64 88 3c 7c df 59 3d
       0.006729324 0.08913063 0.016649535 0.053191647
000380 c8 1a 83 bd 73 e6 0a bd aa 9e 23 3d 7d e6 d0 bd
       -0.064015925 -0.03391118 0.039946236 -0.10200212
000390 fd f4 3b 3e e0 ad 2f bd 15 ad 68 3c 6b 37 1b bd
       0.18355174 -0.04289043 0.014201422 -0.037894648
0003a0 5e 4b 3f bc d7 f9 e7 bc c4 f3 fc 3c 56 cc 27 3d
       -0.011675684 -0.028317375 0.030877955 0.040966354
0003b0 ff 06 0e 3e 7f f4 db bd 16 cf a5 3d ca 97 27 3c
       0.13869856 -0.10739993 0.08096139 0.01022906
0003c0 eb bd 8c 3d 45 02 5f 3c b3 58 19 bd ce 20 a5 bd
       0.068721615 0.013611381 -0.037438106 -0.080628976
0003d0 01 a6 bd 3a 39 19 12 bc a9 4f d0 3c 7c 31 a0 3c
       0.0014469029 -0.008917146 0.02542861 0.019554846
0003e0 2c 26 3e bd 9c ee 14 bf be dc 8c 3f 40 02 9d bd
       -0.046423122 -0.5817659 1.1004865 -0.07666445
0003f0 00 ca e4 bd aa d8 3c 3d c8 6a 22 be 2d 85 f5 3c
       -0.11171341 0.046105064 -0.15861046 0.02997073
