corintho_ai/python/tflite_models/model_49.tflite (tflite, 521576 bytes, 27 tensors)

model/dense_1/MatMul;model/activation_1/Relu;model/dense_1/BiasAdd f4 [100]
00000000: ef83 b9c1 58b4 f742 3ab1 50c2 97de 0140
00000010: 42c6 4f42 9e24 fb41 6f8f 8442 fb5f f0c1
00000020: e292 1ac2 9bd3 f03f 23c5 2ebe f0b0 3dc2
00000030: be7e 7f41 7847 1fc2 1af6 81c0 7d7b 76c2
00000040: b454 6541 e548 153e fcc9 7cc1 4f87 0f40
00000050: 6035 0541 6513 7540 817b 4241 d0c7 4fc2
00000060: f845 8942 6aaf 0d40 a4af 17c1 d2e3 83c0
00000070: e43e 47c2 27d1 1542 d101 f0c1 e762 f8bf
00000080: f3b5 0342 3284 e1c1 31f3 8542 a602 2542
00000090: a767 8441 f01a 01c2 d718 8041 52b4 c341
000000a0: 8e99 6e42 9a96 4ec1 fe2f 33c2 79a0 babf
000000b0: e273 9c41 5952 87c1 579e 1341 11ba d2c1
000000c0: 4ebb 96c0 bc95 c4c0 4267 a041 3eee 50c2
000000d0: ddbd 7241 4838 0f43 b7ea 24c0 0b7c d741
000000e0: 67ea 4c41 0d5c 80c1 266c f141 622c 91c1
000000f0: 536b 8241 155f 8542 d422 0141 747d e441
00000100: 7b23 3d42 1d31 9c42 2a3a d342 b1fd 3841
00000110: fb42 8fc1 b530 92c2 ed4b 95c1 61b1 cfc1
00000120: b41a bb3e c407 9c42 a3cd 5bc0 d29d 7d42
00000130: 6cfb c1c0 eac0 b040 fb4e c0c2 f823 5fc0
00000140: 4f44 b440 83d9 0442 3bac 3b41 6619 c3c1
00000150: 4cd9 c1c0 f576 7842 9793 9241 23b4 90c1
00000160: acdf 9942 c93d 0242 052d ac42 8dfd 1d41
00000170: b042 7242 5f11 9840 a6c4 0841 96a4 5a40
00000180: 6d19 fe42 87e5 d641 2552 2241 3554 9ac2
-23.18942 123.852234 -52.173073 2.0292108 51.94361 31.39288 66.28014 -30.046865
-38.64344 1.8814577 -0.17067389 -47.42279 15.968443 -39.819794 -4.0612917 -61.620594
14.333179 0.14578588 -15.799313 2.2426336 8.325531 3.8293087 12.155152 -51.94513
68.63666 2.2138314 -9.480381 -4.12156 -49.811417 37.45425 -30.000887 -1.9405183
32.927685 -28.189548 66.97498 41.252586 16.550611 -32.276306 16.012129 24.463047
59.649956 -12.911768 -44.796867 -1.4580222 19.556583 -16.915209 9.226157 -26.340853
-4.7103643 -6.143278 20.050419 -52.23266 15.171353 143.21985 -2.5768259 26.935568
12.807227 -16.044947 30.177807 -18.146671 16.302404 66.68571 8.071003 28.561256
47.28465 78.095924 105.6136 11.561936 -17.907705 -73.09513 -18.662073 -25.96161
0.3654381 78.01517 -3.434426 63.40412 -6.061941 5.523549 -96.15426 -3.4865704
5.6333385 33.212414 11.729548 -24.387402 -6.0577755 62.11617 18.322065 -18.087957
76.93686 32.560337 86.08793 9.874402 60.565125 4.7521205 8.54801 3.4162955
127.04966 26.862074 10.145055 -77.16447

model/batch_normalization/batchnorm/mul_1;model/batch_normalization/batchnorm/add_1;model/dense_1/MatMul;model/activation_1/Relu;model/dense_1/BiasAdd f4 [100, 100]
00000000: d3d3 483e a55e 3dbf 53f8 8b3e 9f37 573d
00000010: e456 a93f 595d f33e 56ae 52bf b4bc 5ebf
00000020: 0e59 b03d 079f 1e3f 6e53 ea3e 4269 2e3e
00000030: f475 633a 1c26 993d efe5 13bf 3731 2cbc
00000040: ca1a 543e 5dfd c0bf 3d6f 183e 5ca6 c9be
00000050: 566a d4bd eebc 9640 4b76 393c 81b0 b73c
00000060: 5041 15be 7fb1 f63c 4502 0c3d 3494 37bf
00000070: 00f9 5f3e e4c0 43be bb98 dbbd 9f97 023f
00000080: 540d 823d a4e8 a5be 35ed 9ebd 8aee 9dbe
00000090: 518e f0bd 39eb 15be 8eed 0dbc 3e79 153e
000000a0: 07c2 213f b216 863f 9a68 c93e 5d23 543e
000000b0: 5efc 9fbe c402 02be aa32 393e 600e 0b3e
000000c0: c3fb 543f 8235 2c3d 670e bcbc 40e9 01c0
000000d0: 55cd f83e 6468 8940 78bb 3d3e 1fa6 283a
000000e0: 7ca8 fabd 5584 de3e e499 0340 417b 003f
000000f0: 7cfc ce3e 6640 15be 6b1f 0f3e f47f 5abf
00000100: e166 be3e 0284 ddbe 5649 27be 132c 6a3e
00000110: 1e63 09be ade3 2c3f e5a7 173f 33c6 ebbd
00000120: fce3 7d3e e6be 90ba 535a 1c3f dd7a 17bf
00000130: ae45 c1be e494 41bd 45cb 2dbe 1216 c63e
00000140: 2608 33bf d4ee 803e f46b 92be 1fa5 07bd
00000150: 46d6 90be 9bb4 30bd 60f3 50bd 917b c7be
00000160: d272 bbbd 58c9 f5bd d6c1 64bf 0f0d 8a3f
00000170: 1948 d53d c6a7 e6be dfb3 d7bd 1215 e33d
00000180: 1b20 333e 5d97 e7bd dbdd eebe 573d 17be
00000190: c90c 6bbf 6ff5 8ebf dbd7 cebe b274 a03d
000001a0: a32b a2bf fc48 fe3f 8f2b f53e 3b89 b63e
000001b0: 1a21 5d3d f63b 06bf cd78 cc3e 581d 6c3c
000001c0: 45cb a8bf 0523 dcbd 2770 3bbe ea8d 3fbf
000001d0: 008c 143e 3c34 b3bf f3ff 5fbf cba4 e73d
000001e0: f081 e0be 0702 17bf 97b8 56bd de07 b2bd
000001f0: 4b78 073e 4c5f e7bd a6ff d9be a1b7 c23d
00000200: e8d2 a5be 14a4 2e3e 7762 ebbc b031 a13e
00000210: 8786 073e 851c 14be e8a3 b0be 8ff6 063f
00000220: 610a e6be 049e debf 10db 23bf aae5 4cbf
00000230: e0de ee3d 62dd a9be 4ec3 8cbf 2a5a 49be
00000240: ab61 14be 6981 80bf b09b 243e 00c1 95bc
00000250: bc9c 90be e527 673e 807c a4bd fbac f83f
00000260: b756 12bf de1b 133f 5a09 203c 25b4 87be
00000270: 2642 6cbf a0d6 603f 19f7 823f fbed a93d
00000280: 673c 643e 236b 003f 66b8 ce3c de19 63bf
00000290: ca97 52bf 840b ebbe ccd5 573e 91f7 813f
000002a0: d5c3 90be 54e8 d4bd a8c3 d0bd ec9c b93e
000002b0: 56f3 debd 2c51 c83d b2cd 49be e514 fcbd
000002c0: 6b78 e4be 4649 1bbf 7a55 163f b32b eb3c
000002d0: 19ef 3d3e af37 5abf 9164 a43e afcb 363f
000002e0: 35b6 29be 5e15 313e 6a0d 9d3d fc16 b0bb
000002f0: 30ad 813e 1b09 98bd ad9a 3cbf eca2 493f
00000300: 01e9 cfbe 928f 12bf 19a6 03bf a7a8 1bbd
00000310: 15db 17be ec9d 81bf bbb1 41bf bb0a a5be
00000320: d2f2 683f 6088 22bf 428d 54be 4c36 1f3e
00000330: 68db 873f 1b32 c0bd b132 6f3f e328 a7bf
00000340: 95ac 6abf 2a77 2abf 583b 2fbe 207e f13f
00000350: 85ff 3d3d a7d3 503d 9c22 35be 1e7b 073f
00000360: 6f25 963e 588d f1be f622 9fbf f9d7 bebd
00000370: 0d2c 1abe fee3 a9bf a769 b4bd 0b33 353e
00000380: 7acf 0fbd 87fe 4d3e 3d7c e6be 979d 36bd
00000390: ee48 5e3f 90e3 cc3e c00c 423f 63e5 2d3f
000003a0: 885d e5bd 95bd 9f3e 22ee 4c3f 9261 1c3d
000003b0: 6e74 ebbd d8ae 423e d78f fd3e a010 53bf
000003c0: 0fbd 883e d316 4bbd 7ff5 8b3f 911e ba3d
000003d0: 89df 363e acaf 94bf 16c3 543f c779 50be
000003e0: 75c1 c5bf f5a3 7fba 550a f73d 432a 303f
000003f0: b606 783e e50f 773c bc3f db3d 0d78 413e
0.19612055 -0.7397254 0.27337894 0.05254328 1.3229642 0.47532156 -0.82297266 -0.8700669
0.08610736 0.61961406 0.45766777 0.1703234 0.0008676939 0.07477972 -0.57772726 -0.010509781
0.20713344 -1.507732 0.14886184 -0.39384735 -0.103718445 4.7105627 0.011319707 0.02242303
-0.14575696 0.030113934 0.034181852 -0.71710515 0.2187233 -0.1911655 -0.107224904 0.51012605
0.063501984 -0.32404053 -0.077600874 -0.30846053 -0.11745895 -0.14640512 -0.0086625945 0.14597031
0.6318669 1.0475676 0.39337617 0.20716615 -0.31247228 -0.12696368 0.18085733 0.13579702
0.8319666 0.042043217 -0.022956086 -2.0298615 0.48594156 4.293993 0.18528545 0.00064334454
-0.12239167 0.43460336 2.0562677 0.5018807 0.40427005 -0.14575347 0.13976829 -0.8535149
0.37187865 -0.43264776 -0.16336569 0.22868375 -0.13416716 0.67534906 0.5924056 -0.11512413
0.24794 -0.001104322 0.61075324 -0.5917185 -0.37748474 -0.047261134 -0.16972072 0.38688713
-0.6993431 0.2518221 -0.28597987 -0.033116456 -0.28288478 -0.04314099 -0.05101335 -0.3896146
-0.091527596 -0.12001294 -0.8935827 1.0785235 0.10414142 -0.45049876 -0.105323546 0.11088003
0.17492716 -0.11308167 -0.46653637 -0.14769493 -0.91816384 -1.116865 -0.4039906 0.07834758
-1.2669567 1.9866023 0.47884795 0.35651574 0.053986646 -0.52435243 0.39935914 0.014411293
-1.3187033 -0.10748867 -0.18304501 -0.7482592 0.14506531 -1.4000316 -0.8749992 0.11310729
-0.43849134 -0.5898747 -0.052422132 -0.08692907 0.13229482 -0.11297473 -0.42577857 0.09507681
-0.3238747 0.17054778 -0.028733475 0.3148322 0.13234912 -0.14464004 -0.3450005 0.5271997
-0.44929793 -1.7391973 -0.6400614 -0.8003794 0.11663604 -0.33176714 -1.0997102 -0.19663301
-0.14490382 -1.0039493 0.16075015 -0.018280506 -0.2824458 0.22573812 -0.08031559 1.942779
-0.57163566 0.57464397 0.009767855 -0.26504627 -0.92288435 0.8782749 1.0231658 0.08297344
0.22288667 0.5016348 0.025234412 -0.88711345 -0.8226286 -0.45907223 0.21077651 1.0153676
-0.28274408 -0.103958756 -0.101935685 0.36252534 -0.108862564 0.09781107 -0.19707373 -0.12308673
-0.44623122 -0.6065868 0.58724177 0.02870736 0.1854824 -0.85241216 0.32107976 0.71404546
-0.16573413 0.17293307 0.07668574 -0.0053738337 0.25327444 -0.07423612 -0.73673517 0.78764224
-0.40607455 -0.5725032 -0.5142532 -0.038002636 -0.14829667 -1.0126319 -0.7566182 -0.3223475
0.90995514 -0.6348934 -0.2075701 0.15548056 1.0613832 -0.09384557 0.93436724 -1.3059353
-0.9166959 -0.6658808 -0.17112482 1.8866615 0.04638626 0.050983097 -0.17688984 0.52922237
0.29325435 -0.4717815 -1.2432544 -0.09318537 -0.15055867 -1.3272703 -0.08809214 0.17695253
-0.035109974 0.20116626 -0.4501666 -0.044583883 0.8683003 0.40017366 0.75800705 0.6792814
-0.1119948 0.31199327 0.8005086 0.038178988 -0.114968166 0.1901201 0.49523804 -0.8244724
0.2670674 -0.049582314 1.0934294 0.09087861 0.1785871 -1.1616111 0.8311018 -0.20358954
-1.5449663 -0.00097519095 0.120625176 0.68814486 0.2422131 0.015079473 0.10705516 0.18893452

model/dense_2/MatMul;model/activation_2/Relu;model/dense_2/BiasAdd f4 [100]
00000000: e92a 7442 f106 7ec2 e055 85c0 7f81 95c2
00000010: 17ba 0cc1 3ed1 c041 8e9b 0542 4c39 0942
00000020: 01c5 0ac1 6a27 5740 8379 05c1 6883 b7c1
00000030: 1d1c 7c40 fe51 4c41 a9b5 b240 0529 63c2
00000040: def2 40c2 dedc 9d40 fc08 9dc0 2e24 2740
00000050: d59e f041 c0bb 9f40 0b8f 1542 f34c a141
00000060: 50a3 efbf 1c3d 8741 2fcd ebc0 a345 1b42
00000070: c824 c5c1 2742 0b41 153a 2340 31c9 5c41
00000080: 7a53 ec41 2cf1 33c0 fe88 dd41 46e0 20c2
00000090: eab3 9d42 770f dfc1 80b9 05c2 dd7c 97c1
000000a0: 58cc bbc0 12ce 38c2 c747 0bc0 d933 7fc1
000000b0: 3472 e6c1 9ebe 2842 e4e6 a1c1 9215 65c1
000000c0: 5112 18c2 970c 9141 e1d6 7c42 5d1d 7e42
000000d0: 4d2e 4a41 0e48 acc0 819f f940 f269 4a3f
000000e0: ab2e 9e40 7993 4642 d9d3 fd41 19eb 0bc2
000000f0: 9b40 77c1 0559 0cbf 7c49 76c1 9caf df42
00000100: c4e9 0e42 2c66 fb40 75f5 53c2 56a9 dcc1
00000110: cd6b a9bf aeba 0242 a222 0dc3 e66a 8341
00000120: 0e40 29c2 1914 0f42 9157 08c2 08fb 6cc1
00000130: bcb5 b241 e7e8 0ac2 21e0 edc1 cdd0 1542
00000140: 6d0a 6042 20d3 eb41 0cf1 0f42 b3bb be41
00000150: f61c 20c1 100c 5ec2 4690 c8bf 0cf3 2642
00000160: 19bf 0242 b678 f441 2fee 30c2 56db 6e41
00000170: 05d5 1541 af0c 2d41 12c3 15c2 036e 3e42
00000180: 8a9d 6a42 eac1 0442 1345 1e41 2c84 09c1
61.041904 -63.50678 -4.166733 -74.75292 -8.795432 24.102169 33.40191 34.305954
-8.673097 3.3617806 -8.342166 -22.939163 3.939216 12.770018 5.5846753 -56.79006
-48.237175 4.9332113 -4.9073467 2.6115832 30.077555 4.9916687 37.38969 20.162573
-1.8721714 16.904839 -7.368797 38.818005 -24.64296 8.70365 2.55042 13.799119
29.54076 -2.811595 27.69189 -40.219017 78.851395 -27.882551 -33.431152 -18.935968
-5.8686943 -46.20124 -2.176256 -15.950158 -28.805763 42.18615 -20.23774 -14.317766
-38.017887 18.131147 63.209843 63.528675 12.636304 -5.3837957 7.8007207 0.7906791
4.943197 49.644016 31.728441 -34.979588 -15.453273 -0.54823333 -15.3929405 111.84299
35.728287 7.856222 -52.989704 -27.582684 -1.3236023 32.682304 -141.13528 16.427197
-42.312553 35.769627 -34.085514 -14.811287 22.338737 -34.727444 -29.734438 37.453907
56.01018 29.478088 35.985397 23.84165 -10.007071 -55.51178 -1.5669029 41.73735
32.68662 30.55894 -44.2326 14.928549 9.364507 10.815597 -37.4405 47.607433
58.653847 33.18937 9.891864 -8.594769

model/batch_normalization_1/batchnorm/mul_1;model/batch_normalization_1/batchnorm/add_1;model/dense_2/MatMul;model/activation_2/Relu;model/dense_2/BiasAdd f4 [100, 100]
00000000: df4f 40be 93e5 c7bd cfd4 963e 182b 15bc
00000010: 5c9b 57be e733 19be 5baf 043e d04f 873c
00000020: 40c3 7c3e 801f 01bd 7776 0a3e 9b7f 2e3e
00000030: 9ba5 e23d ddaa febd bc67 80be 1182 703d
00000040: bc38 8c3c 371d 77be e220 283e 9f79 7bbd
00000050: 0c86 09be 9920 5dbd 3d70 d53d 6b0e 203e
00000060: 2cd5 d1bd 1450 6cbb 32f9 99bc f808 fe3b
00000070: e347 0dbe c809 fcbd 99e4 afbc 9ad8 193c
00000080: 8653 94be 32eb 60bb e59e 64bd 9a38 4f3e
00000090: 3f7a 5abd 67f0 443d cbeb a13d 3e3a c7bd
000000a0: d65a 39bd e747 3cbe 59b8 a2be 6f0c c03d
000000b0: 2422 fc3c 26fa b43c b67e e0bd 792a a6bd
000000c0: 987e d7bd 37ae 1c3b 0731 883d 1983 603d
000000d0: 344a ca3b ec4e 88bd 14f9 14be 664e 97bd
000000e0: 364d 1d3d b0fb b63c 5f3b 543e 6579 febc
000000f0: 6fec 233e 407d edbd b6f2 a93d a96a 8abe
00000100: 5933 cb3b 198c 073d b287 573d 7636 36bd
00000110: 97e1 43bd 7416 e63b c04e 67be add8 04be
00000120: 63d4 26bd 87f2 69bd 5d0d 82be 636b 9dbd
00000130: 8b8a c83c ca99 36bd 7846 73bd 1b9f a5be
00000140: e593 043d 7d2d abbd 8c90 7c3d 1203 783d
00000150: 6a42 fdbc 9fc2 4dbc 45cf a93d 5885 27bc
00000160: 1358 0dbe 3925 083d 1654 a23d e76a 19bd
00000170: 5c3a 9abd bc23 35be eafe a6be a9f7 9a3e
00000180: aaa8 473e 7629 eebe 3d1a 303e bb12 71be
00000190: 455c 4f3c bd6e a5bd ee3c a0bd ad1b 96bd
000001a0: 3806 e03c 7196 3c3d 3663 ab3d 0d3d c53c
000001b0: a7ab 893d 9493 1ebd 2d39 9dbc 6f93 9f3c
000001c0: b2de 46bd 3f46 543c a2fc c63d 5f5e 973d
000001d0: e66c 54bc 5a3a e4bc 54a3 9cbd 3ccd 9abc
000001e0: efcb a8bd 2866 6d3b 36ff 883c b063 783d
000001f0: eef6 c13c 4c8c 2a3c 9e71 20be 29d4 21be
00000200: 2d1a e4bc 1fae 2bbd ec98 5f3e 95df 883e
00000210: 6a77 713e 61de 173c bb41 323d d653 a9bd
00000220: fd92 bf3c 79a1 d23d 94e0 b5bd 35d6 953b
00000230: 35c3 e7bc bed8 d1bd 99f0 51bd 009a cfbc
00000240: 00ae f63d 7785 073e 7e24 4d3d 2a77 603d
00000250: ac46 193d 61ab e63d 9ae1 c03d f430 95bd
00000260: 0bfa 733e a5bd 753f a984 d03d 6706 463d
00000270: 74d6 213e 3711 333d d651 13bc 14f1 0a3b
00000280: e550 d43c 6bda 07be 9cb7 c73e 4974 cf3a
00000290: 10cd 363d 0bb3 1c3e 6f2e 09be 74cf 6ebc
000002a0: 2c8a 1a3d e950 e7bd e85c a4bd f062 38bc
000002b0: 8b16 46bd 213b 823e 2577 a8bc 2414 d4bd
000002c0: d01e 9fbc dadc bc3d 3967 5dbd f658 bbbd
000002d0: 743a c53d fbee 28bc 3e3f a53c 890e 063e
000002e0: b12e f93c 7abc 59bd a322 7bbd 7ede 853d
000002f0: 0413 c93c 973e 253d d681 ef3e 3e0e ac3c
00000300: 280d 80be dd69 1a3e 7c61 693d 0154 77bd
00000310: d661 5dbe ba7e 333d 0900 c6bd ae11 d8bc
00000320: b598 ca3e 46c8 5a3e b8b6 723c 193b a03d
00000330: 1c05 9bbb 917a acbc 74c1 c03d d018 f43c
00000340: 8c5d 8fbd 5f4c 103e 6580 053d c06c 663d
00000350: 46e6 84bb 9b22 77bd c309 b2bc dc35 45be
00000360: 5fd4 1a3d 8a6f 033d 68d6 b1bd bf2c 2fba
00000370: 8ac4 4e3e 7e93 38bc df58 183d 5ea8 113d
00000380: 26ed 15bd f64e 31bd ef63 e6bc 7b24 a1bd
00000390: 57fa 42bd 3e8a 6e3d 7d2c 183c f6fc 1f3e
000003a0: 0c11 5ebd 7c44 2f3d 0b42 06be 24ca 57bd
000003b0: 50b4 cc3d 4568 1d3d cbc5 663d 556a 563d
000003c0: b411 003d f9b1 f73e 1b4c 5dbd 7732 1c3d
000003d0: a812 423e 7716 1c3d 39d8 0fbd 51c3 69bc
000003e0: ebd2 cfbd b913 6a3d 2d38 d53d f6dd 3d3b
000003f0: 8603 74bd 9627 343d 133b cabd 23bc 4bbc
-0.18780468 -0.09760585 0.29459235 -0.009104513 -0.21055359 -0.14961205 0.12957518 0.01651755
0.24683857 -0.03152418 0.13521753 0.17040865 0.11066743 -0.12434933 -0.25079143 0.05871779
0.017116897 -0.24132238 0.16418794 -0.061395284 -0.13430041 -0.053986166 0.104217984 0.156305
-0.102457374 -0.0036058472 -0.018795583 0.007752534 -0.13796954 -0.12306553 -0.021471309 0.009390021
-0.28969973 -0.0034319875 -0.055815596 0.20236436 -0.05333924 0.048080828 0.07906302 -0.09727906
-0.045252644 -0.18386804 -0.3178127 0.093773715 0.030777998 0.022091936 -0.10961668 -0.0811357
-0.10522193 0.002390755 0.06649976 0.054812524 0.0061733965 -0.06655678 -0.14548141 -0.07388
0.038403712 0.02233681 0.20725773 -0.031063745 0.16008161 -0.11596155 0.082982466 -0.270345
0.0062011895 0.033092592 0.052619644 -0.04448553 -0.04782256 0.0070217196 -0.22588634 -0.1297328
-0.04072989 -0.057116058 -0.2540082 -0.07686498 0.024480125 -0.04458026 -0.059393376 -0.3234795
0.032367606 -0.083582856 0.06166129 0.060549803 -0.030915458 -0.012558608 0.08291487 -0.010224663
-0.13803129 0.033238623 0.07926194 -0.037455466 -0.075306624 -0.17689413 -0.3261636 0.30267075
0.19497934 -0.46516007 0.17197509 -0.23542301 0.012656276 -0.08077762 -0.078241214 -0.073294975
0.027346715 0.04604191 0.08368532 0.024076963 0.06722193 -0.03871496 -0.019192303 0.019479482
-0.048552223 0.012956201 0.09716155 0.07391047 -0.012965417 -0.027859855 -0.0764834 -0.018896692
-0.08242022 0.003622422 0.016723257 0.060641944 0.023677316 0.010409426 -0.15668342 -0.15803589
-0.027844513 -0.0419141 0.21835679 0.2673308 0.23580709 0.009269328 0.043519717 -0.082679436
0.02338552 0.10284705 -0.088807255 0.0045726546 -0.028291324 -0.102464184 -0.051254842 -0.025341988
0.120449066 0.13234507 0.05008363 0.054801144 0.037420914 0.11263157 0.0941803 -0.07284728
0.23825853 0.959925 0.10181553 0.04834595 0.15804464 0.04371759 -0.008991679 0.0021200823
0.02591748 -0.13266914 0.3900727 0.0015827502 0.044629157 0.15302674 -0.1339662 -0.014575828
0.037729427 -0.11294729 -0.08025533 -0.011254057 -0.048361342 0.25435737 -0.020564625 -0.10355404
-0.019423872 0.092218116 -0.05405352 -0.09147827 0.0963029 -0.010310884 0.020171758 0.13091482
0.030417772 -0.05315826 -0.06131233 0.06536578 0.0245452 0.040342893 0.46778744 0.021002885
-0.25010037 0.15079446 0.056977734 -0.060382847 -0.21619353 0.043822028 -0.096679755 -0.026375618
0.3956963 0.21365461 0.014814071 0.07823772 -0.0047308337 -0.021054538 0.09411898 0.029796988
-0.070002645 0.14091633 0.03259315 0.056256056 -0.004055771 -0.060335737 -0.02173317 -0.19258827
0.03780019 0.032088794 -0.08683473 -0.0006682388 0.20192161 -0.011265634 0.03719413 0.035560958
-0.036603115 -0.043288194 -0.028123824 -0.07868286 -0.047602024 0.058237307 0.009287951 0.1562384
-0.054215476 0.04278992 -0.13111131 -0.05268301 0.099953294 0.038429517 0.056340974 0.0523475
0.031266883 0.4837797 -0.054027658 0.038134065 0.1895243 0.03810736 -0.035118315 -0.0142677585
-0.10147651 0.057147715 0.10411105 0.002897141 -0.059573673 0.043983065 -0.09874549 -0.012434992

model/dense_3/MatMul;model/activation_3/Relu;model/dense_3/BiasAdd f4 [100]
00000000: b3be dac1 2adf 0342 d4d7 c6c0 bf8d 82c0
00000010: 31d6 6f41 2765 e1c0 acb7 4740 5df1 d440
00000020: b667 0642 fe7f 9741 8795 1d42 b904 2e42
00000030: bfa2 0842 d8a3 e940 6a2a 3341 1fad 6940
00000040: ebaa 4ec1 8a65 8641 e4ca 6840 c2d9 d0bf
00000050: 5d29 dd41 a8c7 fcc0 692d efc0 afe1 c341
00000060: fce4 1a42 bc64 4742 e23f b641 195b 46c0
00000070: d927 a1c1 53a0 08c2 9c6b 2e41 d4b2 5c41
00000080: e6d6 2641 018a e3c0 38e3 2241 d493 7242
00000090: 926d 03c1 0bbd 8741 b392 08c2 da9f 6141
000000a0: 46cb da41 5ae1 0c42 0277 4142 2ed5 b0c1
000000b0: 6026 e840 a0df ae40 e420 a4c1 1622 0441
000000c0: e195 b041 9295 97c0 0c92 9040 6d05 c4c1
000000d0: 0386 4ac1 7e84 05c2 03f9 e5c1 f5d5 9641
000000e0: e91a f4c0 cc23 6dc1 8a8f f240 532c a141
000000f0: f9d3 1cbf e6b6 f340 8129 a440 81c6 8b41
00000100: 8310 a6c1 a19f 3541 ca26 1440 fac7 10c0
00000110: 6e27 9841 735a c5bf 6502 03c0 7efc 1d41
00000120: e840 5d40 f44c abc1 1635 d441 d635 0ec1
00000130: c05a a7c1 f251 2041 425f c0c0 2e8c 11c2
00000140: 57b5 06c2 04f0 6640 772b c5be b87f c641
00000150: 0eaf 1dc1 3115 60c1 f6ef 7841 3bdb a240
00000160: dd1c 91c1 696d 1b41 7c01 b6c0 58cd c641
00000170: 44ce 13c0 36b4 1dc1 dc45 8641 9904 40c2
00000180: 6764 d6bf f514 7b41 0fda ee41 2a27 49c0
-27.343115 32.967934 -6.213846 -4.079803 14.989793 -7.0435977 3.1205854 6.6544633
33.60128 18.937496 39.396023 43.504612 34.15893 7.3012505 11.197855 3.6511915
-12.916728 16.79958 3.6373835 -1.6316454 27.645197 -7.899372 -7.474293 24.485197
38.723618 49.848373 22.781193 -3.0993102 -20.144457 -34.156567 10.901272 13.793659
10.427465 -7.110596 10.180473 60.644363 -8.214251 16.967306 -34.14326 14.101526
27.349255 35.22007 48.36622 -22.104092 7.2546844 5.464798 -20.51606 8.258322
22.073183 -4.737008 4.517828 -24.50265 -12.657718 -33.379387 -28.746588 18.854471
-7.628285 -14.821239 7.580022 20.146643 -0.61260945 7.6160765 5.1300664 17.471926
-20.758062 11.351472 2.3148675 -2.2622056 19.019253 -1.5418228 -2.0470212 9.874144
3.4570866 -21.412575 26.52592 -8.888144 -20.919312 10.020006 -6.011628 -36.386894
-33.67709 3.6083994 -0.38509724 24.812363 -9.855238 -14.005174 15.558584 5.0892615
-18.139093 9.714211 -5.687681 24.850266 -2.3094645 -9.856497 16.784111 -48.00449
-1.674939 15.692616 29.856474 -3.1430154

model/batch_normalization_2/batchnorm/mul_1;model/batch_normalization_2/batchnorm/add_1;model/dense_3/MatMul;model/activation_3/Relu;model/dense_3/BiasAdd f4 [100, 100]
00000000: 7e28 d93d 8784 8bbd aba9 f7bc c4ba 6d3d
00000010: 6109 143d 3d4c c6bd 571f d13d 2849 5e3e
00000020: da40 c2bd d3f3 413e d45e 5fbe 7b8e a23c
00000030: 824c c5bd 2071 9dbd 5236 b93d 5edf aa3d
00000040: 0693 2bbc 1f47 303e b3cc 9f3d 7524 c63c
00000050: 930c abbc 9ec0 98bc 9316 0c3f 1cb6 b0bd
00000060: 2a43 b83c 9438 8ebc 5d34 3c3e 1186 383d
00000070: 60cb cabd c2e5 dabc 61c9 c4bd e3a8 1abd
00000080: 0204 37bd 85b3 e9bc a738 2fbe e076 c4bd
00000090: 4954 d93d 3ec5 d0bd c667 17bd 6004 1a3b
000000a0: 4019 1cbc 3745 54bc f797 1b3d f6ae 1b3e
000000b0: 75ad f7bb 5ad4 35bd 090c d73d 2114 74be
000000c0: 9c75 2b3e 39e5 713e e4ff 763d 6bf4 693d
000000d0: 5cfb 0e3e 3043 e53d f78e 08be a270 4e3d
000000e0: 0af6 423d edda 793e e7a2 1a3e e3da 32be
000000f0: bb11 3cbe c422 7e3d 8ff1 4b3d 7dcd 17be
00000100: 51bc a83d 1171 5ebc 2982 8ac0 8cda 8b3d
00000110: 5dd8 d73d daa1 ea3d 2e84 eebc 5f93 18bd
00000120: ef6d 43bd ef29 debc 643f f03c 943d d83d
00000130: 94f7 febc 1215 c63d ab88 7f38 6de7 ec3d
00000140: 14f6 20bc c75a c9bd ac1a 36bd 0fcc 813c
00000150: 2a39 de3b 8f5a b43a 0730 d23d e2bd 37be
00000160: e770 873e 04d6 cd3e 304c bcbd af21 cbbd
00000170: a54d 4ebb 2427 0b3e 843e c93d c81b d1bc
00000180: 38a0 a13c 5292 a5be 6191 d9bd e194 4bbd
00000190: 97fa 89be cbdd 0bbc 2050 a2be 94bb 41bc
000001a0: 53cd 49bc e5f3 203d c009 a43d 067e 393e
000001b0: 4c9f 17bd c28a 77be 3f35 7d3d faf7 0e3e
000001c0: a362 00bd 88c4 65bc 7da9 433e 4ebe 4c3d
000001d0: c62e 003d 63f6 26bd 2f67 3bbe b925 97bd
000001e0: 63d2 e3ba ff84 183d 9331 08be c0e0 56bd
000001f0: f7d4 3e3e cd5d 5abe aed4 543e 3567 043e
00000200: a16d 2f3e bc8c 033e 961b 77be 5b6c 883e
00000210: 6b7a fd3d 685f 673d face c7bd 412c adbd
00000220: e0b1 ad3d cc62 023e 7215 9abc 87be 8a3e
00000230: cbbe 04be 6029 9cbd 8153 39bd 94d4 30be
00000240: d982 083e dceb a83d d8dd 073d f760 ffbe
00000250: f77a 1ebe 1523 71be 8a39 1ebd c405 9d3e
00000260: b98d 76bd d36a 44be b976 34be 010f 8abd
00000270: 47ad a83c 40fb 9b3c 1f3b 76be 8458 683e
00000280: 925a 193e 2385 7d3e fa6a e13d 6e54 19be
00000290: 07d5 63bc ec14 b7bd 86d4 30be e9b4 16bd
000002a0: 33eb 6f3d 0bc1 15bd dc85 30bc e5c6 6b3d
000002b0: 7372 1c3e 8847 163d b76e 95bd f9bc fbbc
000002c0: 168b 1d3c 03a3 44bd c155 85bd 12fe 713e
000002d0: 2674 a8bd f5be d2bd 0c13 c43d acf4 92be
000002e0: d4b5 8fbd d89f 8b3d 0eee 553e caf8 67be
000002f0: 818a 86be 591f cb3b 26b9 2f3e f497 153e
00000300: 5305 0e3e ac43 4fbc 4ff5 debd a0cf 13bd
00000310: 247a a83c 6e01 31be abf2 16bd 5c54 d23b
00000320: 54a6 3c3d 1892 593e e9d5 82bd 0d08 63bd
00000330: 5f76 a93d 5eb0 d03d 395b 5c3d 2e89 f53d
00000340: eaa7 0b3e 3f06 ab3d 5898 88bd cf78 fa3d
00000350: 3560 cb3c 7588 42be 697b 903d 41fd 043e
00000360: 5bd4 633e e935 593c 9527 babd c075 0c3e
00000370: 4f90 c0bd ed5e 083d e62f 6fbc c624 61bd
00000380: bf0f f1bd eb88 663d fb75 87bd 2c03 2f3c
00000390: 9593 c33d 38bf fc3d 177a a6bd a850 8abd
000003a0: abc9 80be 5402 a0bb 1780 7cbd cb9c 77bd
000003b0: edc3 b73d 16e8 d83d c4a0 873c e1da 75be
000003c0: 6225 773d 4c4e 16bd 6e1d 9abd ed54 683d
000003d0: f839 013d 4f08 54be 23cb 3fbd 13ff f63c
000003e0: 49c5 12be d2df 5fbd f6ab 6cbe 8869 4fbd
000003f0: 5963 c33d 5c30 06bd 246e 113c b5cd 1fbe
0.106034264 -0.06812387 -0.030232271 0.05803944 0.036141757 -0.0968251 0.10211056 0.21707594
-0.09485026 0.18940668 -0.21813518 0.01984333 -0.09633733 -0.076875925 0.09043564 0.08343385
-0.010472065 0.1721463 0.07802715 0.024187306 -0.02088002 -0.018646535 0.54721946 -0.086284846
0.022492964 -0.017360963 0.1837935 0.04504973 -0.09902072 -0.026720885 -0.096087225 -0.03775872
-0.044681557 -0.028527984 -0.17111455 -0.09592986 0.10611779 -0.10193871 -0.0369642 0.0023501143
-0.009527504 -0.012955955 0.03798672 0.15203461 -0.0075585195 -0.044391967 0.105003424 -0.23835804
0.16744083 0.23622598 0.06030263 0.05711786 0.13963073 0.111944556 -0.13335787 0.050400384
0.047597922 0.2439992 0.15101205 -0.17466311 -0.18366139 0.062044874 0.049790915 -0.14824481
0.082390435 -0.013576762 -4.3283887 0.06828794 0.10539315 0.11456652 -0.029115763 -0.03724992
-0.047712263 -0.027119605 0.029327102 0.1055862 -0.031123914 0.096719876 6.092402e-05 0.115675785
-0.009824295 -0.098317675 -0.04445903 0.015844373 0.006781717 0.0013759899 0.10263067 -0.17943528
0.26453325 0.40202343 -0.09194219 -0.09918534 -0.0031479385 0.1358915 0.09826377 -0.025525942
0.019729719 -0.32338196 -0.10623432 -0.04970253 -0.26948997 -0.008536766 -0.31701756 -0.011824507
-0.0123170195 0.039295096 0.08009672 0.1811448 -0.03701715 -0.24174026 0.061818358 0.13961783
-0.031344067 -0.0140239075 0.19107623 0.049986176 0.031294607 -0.040762316 -0.1830108 -0.07380242
-0.0017381426 0.03723621 -0.13300161 -0.052460432 0.18635927 -0.21324845 0.20784256 0.12929995
0.17131664 0.12846655 -0.24131617 0.2664517 0.12376865 0.05648747 -0.097562745 -0.084557064
0.084811926 0.12733 -0.018809054 0.27098486 -0.12963407 -0.07625079 -0.04524565 -0.17268592
0.13331164 0.082481116 0.03317055 -0.49878666 -0.15476595 -0.23548539 -0.038629092 0.3066846
-0.06019375 -0.19181375 -0.17623414 -0.06741143 0.020590438 0.019040704 -0.2404599 0.22690016
0.14975956 0.24757819 0.11006732 -0.14973614 -0.01390577 -0.089395374 -0.17268571 -0.036793623
0.058573913 -0.036561053 -0.010774102 0.057562727 0.15278034 0.03668931 -0.07296508 -0.030729758
0.00961568 -0.048007023 -0.06510497 0.23632076 -0.082252786 -0.102903284 0.095739454 -0.28702295
-0.07017103 0.06817597 0.20891592 -0.22653499 -0.26277545 0.0061988053 0.17160472 0.14608747
0.13869219 -0.012650412 -0.10886633 -0.03608668 0.020566054 -0.17285702 -0.03685252 0.006418748
0.04605706 0.21247137 -0.063884564 -0.0554276 0.082745306 0.10189889 0.053797934 0.119890556
0.13638273 0.08350801 -0.06669682 0.12230074 0.024826149 -0.18997367 0.070547886 0.12987234
0.22248976 0.013257482 -0.09089581 0.13716793 -0.09402525 0.033293653 -0.014598822 -0.05496671
-0.117705815 0.05628292 -0.066143 0.010681909 0.095496334 0.123411596 -0.081287555 -0.06753665
-0.2515386 -0.00488309 -0.061645593 -0.060452264 0.08972917 0.10591142 0.016556151 -0.24009277
0.060338385 -0.036695763 -0.075251445 0.056721617 0.031549424 -0.20706294 -0.046824586 0.030150926
-0.14333071 -0.05465681 -0.23112473 -0.05063775 0.095404334 -0.032760963 0.008876357 -0.15605815

model/dense_4/MatMul;model/activation_4/Relu;model/dense_4/BiasAdd f4 [100]
00000000: 8d6a 92c0 0e8b 3741 7bd8 aec0 b6d5 0c40
00000010: 132b b3bf c051 5ec0 484e 4441 21a9 0341
00000020: dd71 f941 e79c f340 5ee8 2bc0 310d 99c0
00000030: 747c 1b42 c1cf 2541 70d4 9ec1 f006 91c1
00000040: 8b64 bbc0 0a81 f8be 1b2d 8240 7a4e 8c40
00000050: 53e1 98c0 57bb 66c1 5529 8241 bb1b 8c3f
00000060: c756 0542 94ce 8440 d7da 7541 532d 4e3f
00000070: 772b e63f 6667 40c1 b95d 4f41 aae4 cd3e
00000080: 5e1c e341 f729 c1be 5220 5741 1a73 64c1
00000090: f3ee 73c1 860d 8241 3691 d141 dc67 fa41
000000a0: 4975 2342 7e3f 4440 2ba8 f83d 5db1 6e40
000000b0: 9044 2642 95fb 82c0 de25 39c1 0267 3bc1
000000c0: 3dfd bdc1 7da8 c940 b970 0442 baa3 9741
000000d0: 36df 9ac0 7b59 dd3d d473 9d41 ff34 1a41
000000e0: f2af b341 be20 b541 c889 6e41 2d70 b841
000000f0: d0eb a1c1 f4e7 5841 6475 e2c0 49f7 2641
00000100: a952 c340 9a46 ed41 0881 96c0 6e98 a741
00000110: 4a49 d541 5f27 0242 142d f5be 0ec3 1042
00000120: a704 4641 460a 1ac2 5ceb b340 068d 0a42
00000130: d7f5 1442 926f 8bbd 526c a041 0f6a d1c0
00000140: a6b8 fb41 b236 e441 6329 c040 25ee 81c1
00000150: dc54 81c0 30ce 84c1 53a6 9841 d93d d240
00000160: a3f9 2241 ff60 2041 414e 80c1 50c8 e341
00000170: d5b3 9a41 b107 e640 7068 1742 89a3 1742
00000180: b2ad b840 405c 6cc1 2df5 0c42 765b e6be
-4.5755067 11.471449 -5.463926 2.2005439 -1.399752 -3.4737396 12.269112 8.228791
31.180597 7.612903 -2.6860576 -4.7828603 38.871536 10.363221 -19.85373 -18.128387
-5.8560233 -0.4853595 4.068006 4.3845797 -4.7775054 -14.420737 16.270182 1.0945963
33.334743 4.150217 15.365928 0.8053791 1.7982014 -12.025244 12.9603815 0.4021352
28.388851 -0.3772733 13.445391 -14.278101 -15.245837 16.256603 26.195904 31.300713
40.864536 3.0663753 0.121414505 3.7295754 41.566956 -4.0932107 -11.571745 -11.712648
-23.748652 6.3018174 33.11008 18.954945 -4.8397474 0.10808083 19.681557 9.6379385
22.46091 22.640987 14.908638 23.054773 -20.240143 13.556629 -7.07683 10.435372
6.1038404 29.659473 -4.703251 20.949429 26.660786 32.53845 -0.47885954 36.190483
12.376136 -38.510033 5.6224804 34.63772 37.240078 -0.0680839 20.05289 -6.5441966
31.46516 28.526707 6.005052 -16.241282 -4.041609 -16.600677 19.081213 6.57005
10.185946 10.023681 -16.03821 28.472809 19.337809 7.188439 37.85199 37.909702
5.771203 -14.772522 35.23943 -0.44991654

model/batch_normalization_3/batchnorm/mul_1;model/batch_normalization_3/batchnorm/add_1;model/dense_4/MatMul;model/activation_4/Relu;model/dense_4/BiasAdd f4 [100, 100]
00000000: 58d1 fabd 1a90 173c 77bb d93b 128b 48be
00000010: 512f 32be 17a1 c53d 5951 f23c 151d 04ba
00000020: 4324 30be 69a4 983d dcc9 a1bc f92a df3d
00000030: 9096 90bd 20d9 473d 93d7 a23d f17c df3d
00000040: eead acbd 286b d2bd 9169 65bd 6898 bbbc
00000050: 01f6 0d3d 13f5 ea3e 2b39 1f3f 0703 093e
00000060: 56e5 8dbd 235c e63c e225 213e 6bfa 2d3d
00000070: 02fb bbbe 16cb 8ebc 5f9f c4bc f1c7 90be
00000080: c065 133b ab4a a1bd b1f7 10bc b509 ab3d
00000090: e7c3 603e 5eea ccbd 3223 29be ae7d f53b
000000a0: 2802 86be 8c44 453d d379 343c 0f67 e33b
000000b0: 68d7 ee3d 98d2 923d de51 393d f0e1 ccbc
000000c0: 0910 873e 473a f4bc 3aea b43d c7aa 34bd
000000d0: 7666 973e b9ae 913c 0838 153d b133 833c
000000e0: 8fc3 c9bd 292b b03d 8ea7 bb3c d4db 5d3e
000000f0: b3e9 98be b6ef e53b a44b 673d eccc 393d
00000100: d794 67bd ce25 6abb 31cf c33d 62b9 513c
00000110: 30d3 6d3d a959 2b3d 164c e33c 36af b43c
00000120: e685 263e 3849 37bd 20d1 4dbd 9ea0 52be
00000130: 2678 36be f19d cfbd 7b89 7ebc 48e5 9b3c
00000140: 9f0c 043e e591 0cbd dcdf c93d 9c24 babd
00000150: ce3e ed3d 1424 1b3d 61db a9bd d0ea 1f3e
00000160: a0f9 5bbc 6543 a2bb 049d e0bc b95d 923d
00000170: e6dd 2d3e 05fd 723c 9049 b1be 154e 023d
00000180: 20bc 703e 576a f23d bef7 e23c 9516 d43d
00000190: 2e0d 103e be00 053d 58af 2ebb 8a77 c03d
000001a0: 8af0 4bbd a1b9 15bd 8516 853d 9e4f 893e
000001b0: 1e44 96be fbe0 443d 367d d2bd d6c1 353e
000001c0: edc0 a5bd a50a 0bbd 7089 4a3d d16c 883d
000001d0: b05c ad3b c545 5f3d 445e 803d 39eb eabe
000001e0: e86e 26bd 3dbd a7bd 42ce 813b bf60 103e
000001f0: e23a 09be 7b0c 7b3d d8b5 efbd 6635 433d
00000200: 2eae 773d 32df 683e 175e bb3c 8ed7 0cbe
00000210: b7da 0bbc 75bf 78bd a199 393e 563f 08bd
00000220: ee84 be3d 9fb6 ae3c 7c47 393d 820c 3a3d
00000230: 5bf8 d43d 2f92 3fbe 7824 323d 1a67 1cbd
00000240: 4d1b da3d 6798 dfbb a7a6 533d 685e ddbd
00000250: 5774 febd 6160 8b3c 39d0 543b ccd5 dd3b
00000260: 0edf 43be 7835 003e 076c 3d3d ccce 0dbc
00000270: f0ae 28be 0386 cabc dde6 18bd 3d81 87be
00000280: 4c36 0b3e 87ca 92bc 80c3 d5bd cbe8 793d
00000290: eea5 e23d bdae 32be 36f6 d0bc 2da7 74bd
000002a0: 9e13 833e dc73 333e e921 d53c ca9a 0ebf
000002b0: 36ae 41be e889 0b3e 2f95 25bd b717 b4bd
000002c0: 3d5b d7bd 240e 883e 60e0 6a3d efbe dfbc
000002d0: b5d2 efbd d5ce 943c 42ff 70be 9879 dfbd
000002e0: d31a fcbd 1d7c 3fbe e30a d83d ac48 57bf
000002f0: 7ac3 18bd b8a3 5c3d e851 093d 4b85 44be
00000300: 3ba1 18be 9bd0 03bd 7e86 34bc ee99 8b3d
00000310: b895 f43e 9079 193e a8f6 70bc 0cd1 ef3d
00000320: 2f91 c1bd 650a f93d ea8f 973e 1c4c 6c3e
00000330: 7a5e 863d 1411 8bbd 590e 04bc 544a 0d3e
00000340: 7315 1b3b 556c 4cbd d190 83be f2b1 a63e
00000350: ff85 6d3d c32e ec3c 8941 cd3c ffd2 da3c
00000360: 5dee 6c3e f7e1 063e f12f 36bd 9fc1 ee3d
00000370: 0227 a13c 241e cebd 5831 a2bd 262b 0fbc
00000380: 1112 9abd 35e2 54be 65c5 5a3e 1b29 ccbd
00000390: a4b0 a13c 74bf 743e 379f a33c e751 863c
000003a0: 5495 afbd d3fb 243d e0c5 e33c aa00 3ebe
000003b0: 247c 923d 16fe 773c f660 2bbe b2bd e6bd
000003c0: 7275 82bd a0ae 91bd d03d 1bbe ba98 0a3d
000003d0: 5cb5 90bd 94f6 16bc b64b f5ba 0a85 7a3d
000003e0: b7a5 213e 9709 c4bd 167c 243c 6e03 15bf
000003f0: 03c5 a13d de4b dc3d dc0b b6bb 8bba f43c
-0.122469604 0.009250665 0.006644662 -0.19584301 -0.17400862 0.09649866 0.029579805 -0.0005039734
-0.17201333 0.07453234 -0.019749574 0.10896868 -0.070599675 0.04879105 0.07951274 0.109125026
-0.08431612 -0.10274345 -0.05600888 -0.022899821 0.034658436 0.45890102 0.62196606 0.13380061
-0.06928508 0.028120106 0.15737107 0.042475145 -0.3671494 -0.017430823 -0.024001775 -0.28277543
0.0022491068 -0.0787557 -0.008848117 0.08351461 0.21949731 -0.100056395 -0.16517332 0.007491789
-0.2617352 0.048161075 0.011015373 0.006939776 0.11662179 0.07169074 0.04524409 -0.02501008
0.2637942 -0.029812945 0.08833738 -0.04410818 0.2957036 0.01778351 0.03643039 0.01601586
-0.09851753 0.08601982 0.022907045 0.21665889 -0.29865798 0.007017101 0.05646862 0.045361444
-0.05653843 -0.00357281 0.09561003 0.012800546 0.058062732 0.041833553 0.027746242 0.022056203
0.16262016 -0.04474756 -0.050248265 -0.20569083 -0.1781927 -0.10137547 -0.015535708 0.019030228
0.1289544 -0.034318823 0.09857151 -0.09089014 0.11584245 0.037876204 -0.08293796 0.15616918
-0.013426214 -0.0049518817 -0.02741862 0.071467824 0.16979179 0.014830832 -0.34626436 0.031812746
0.23509264 0.11836689 0.027706023 0.1035587 0.14067528 0.03247141 -0.0026654806 0.093978
-0.049789943 -0.036553983 0.06498436 0.26818556 -0.29348844 0.04806612 -0.10277788 0.17749724
-0.08093438 -0.0339457 0.049447477 0.0666138 0.00529059 0.054509897 0.0626798 -0.45882586
-0.040633112 -0.08190391 0.0039613554 0.14099406 -0.13401368 0.0612912 -0.11704606 0.047658347
0.060468845 0.22741392 0.022872014 -0.13754103 -0.008536032 -0.060729463 0.18125011 -0.033263527
0.09302698 0.021327315 0.04523419 0.045422085 0.103989325 -0.18708108 0.04349181 -0.038184263
0.106497385 -0.0068235877 0.051672604 -0.10809022 -0.12424534 0.01701373 0.0032472743 0.0067698713
-0.19128057 0.12520397 0.0462456 -0.008655261 -0.16472983 -0.024722105 -0.037329543 -0.26465788
0.13594931 -0.017918838 -0.10437679 0.061013024 0.11066805 -0.1744947 -0.025508028 -0.059729744
0.25600904 0.17524666 0.026017146 -0.5570494 -0.18914112 0.13626826 -0.040425476 -0.08793586
-0.10515449 0.26573288 0.057342887 -0.027312724 -0.11710111 0.018165031 -0.23534873 -0.10911864
-0.12309804 -0.18699689 0.105489515 -0.84095263 -0.037295796 0.053867072 0.033525378 -0.19191472
-0.14905255 -0.032181364 -0.011018394 0.06816469 0.47770476 0.14987779 -0.014707245 0.117097944
-0.0945152 0.12160186 0.29601985 0.23075908 0.06560989 -0.06790367 -0.008060061 0.13797885
0.0023663908 -0.049908 -0.25696424 0.32557636 0.057989117 0.028830891 0.025055664 0.026711939
0.23137803 0.13172136 -0.044479314 0.11658024 0.01967192 -0.100643426 -0.07919568 -0.008738315
-0.07522977 -0.20789416 0.21364363 -0.09968778 0.01973755 0.23901159 0.01997338 0.016396476
-0.08573404 0.04027922 0.027804315 -0.18554941 0.07152584 0.015136262 -0.16736206 -0.1126665
-0.06370057 -0.07113385 -0.15160298 0.033837058 -0.070658416 -0.009214062 -0.001871458 0.061162032
0.15785871 -0.095721416 0.01003935 -0.5820836 0.07898905 0.10756658 -0.005555613 0.029874107

model/dense_5/MatMul;model/activation_5/Relu;model/dense_5/BiasAdd f4 [100]
00000000: 8b01 28bd 9322 2042 e44a 48c1 7ffd ff40
00000010: ede4 ca41 c7d7 2bc1 d268 3542 b7af 6241
00000020: 5b13 f1bf d53d 3e40 7bea f041 13b8 78c0
00000030: 59d0 013d 6379 0242 63b9 9ec1 18ba 9b41
00000040: 94f8 58c1 9748 e540 9ea4 7441 2f9c b3c0
00000050: 97d5 6e42 65bd ccc1 759a c941 75ca 0642
00000060: 9ee7 f341 3961 9a41 3333 24c1 d6d5 3040
00000070: 5345 3a41 7716 c241 a82f a0c1 5334 9940
00000080: 56cf 3ac1 e26f 3ac1 a544 c340 b16d e241
00000090: 559a 0841 525c dd41 528a 2641 984f fac1
000000a0: 4dc3 ee41 c8ef b6c1 bef1 6841 a123 6741
000000b0: 48ef 8141 0e6e acc1 89f7 1f41 45af 3141
000000c0: aa9b 0bc2 922f b041 0e28 f13f dff0 ac41
000000d0: e093 fec1 63c7 c0c0 eeae 4441 ebe2 18c0
000000e0: d04c 4840 3329 3241 6b78 d140 352b f341
000000f0: 5ebc 9f41 edc3 2d40 7c89 d941 6478 d741
00000100: 1f83 8dbf 04d0 9841 921d 0040 791f 54c1
00000110: 9c81 84c1 deb5 2a41 7c30 e0c1 eca1 7f41
00000120: 2f17 1a42 7f2c 9841 f89b 36c1 ee00 9040
00000130: 8445 2240 1759 72c1 00ed 4abf b07e 4bc2
00000140: 33fd 6542 f564 31c1 826d e841 9371 d441
00000150: a839 083f 1d14 6a41 0f56 c13e 54cd a141
00000160: 9d05 70c1 c175 0ac1 c90d 8bc1 a161 0341
00000170: a759 aabf ba2c 07c1 ad7b 51bf 50ed 0c41
00000180: dd19 ab41 0b8f 4c41 56d4 8a41 711a 873f
-0.041017096 40.033764 -12.518284 7.9996943 25.36178 -10.74018 45.352364 14.167899
-1.8834032 2.972524 30.114492 -3.886235 0.031692836 32.61854 -19.84052 19.465866
-13.560688 7.165111 15.29019 -5.6128154 59.708584 -25.592478 25.200418 33.697712
30.488094 19.297472 -10.2625 2.7630515 11.641925 24.26097 -20.02327 4.787637
-11.675619 -11.652315 6.1021295 28.30356 8.537679 27.670078 10.40877 -31.288864
29.845362 -22.86708 14.559019 14.446198 16.241837 -21.553738 9.997933 11.10529
-34.902016 22.023228 1.8840349 21.617613 -31.822205 -6.024339 12.292707 -2.38885
3.1296883 11.135058 6.5459495 30.396097 19.966976 2.7150834 27.192131 26.933784
-1.105564 19.10157 2.0018048 -13.257684 -16.563286 10.669401 -28.023674 15.977032
38.52264 19.021727 -11.413078 4.5001135 2.535493 -15.14675 -0.79267883 -50.87372
57.497265 -11.087148 29.05347 26.555456 0.53212976 14.62991 0.3776097 20.225258
-15.00137 -8.6537485 -17.381731 8.211335 -1.330861 -8.44842 -0.8182934 8.807938
21.387629 12.784923 17.35368 1.0554944

model/batch_normalization_4/batchnorm/mul_1;model/batch_normalization_4/batchnorm/add_1;model/dense_5/MatMul;model/activation_5/Relu;model/dense_5/BiasAdd f4 [100, 100]
00000000: e259 53bc f09f 2fbc 1824 513c d4de 113e
00000010: 136f a23c 69e1 f93e f981 083e 2f56 073e
00000020: 7466 783e 77d2 b6be d399 65be 8007 91be
00000030: 6d4a 4e3d e7c4 07bd 5ad6 89bc 8b18 6f3e
00000040: 5994 8ebe 730b 96bb 307a 153d 8758 d9bd
00000050: 51ed 263e 5900 a13b 2311 8dbd 21e6 b9bd
00000060: 0421 513c 9c14 d13c 693f 2dbd 45bf ed3a
00000070: 2e73 493e c103 923d 9fd9 b0bd 4d0c 66be
00000080: 3a79 96bd dba9 c7bc 9d47 56be e7ce e9be
00000090: 9b2d d7bd 84f9 debd d361 0c3d c1c0 143d
000000a0: f457 b73d d80d 243e 24b7 7fbd c4d9 9abd
000000b0: 7861 5dbd 00c5 a73d 77e6 dfbd 9bc0 15bd
000000c0: ad1b cd3c 5caf a73e 4bc0 893d 0ead 943c
000000d0: e77d f93d 5851 94bc 36f5 353b f179 d33d
000000e0: cf05 cebd 9894 74be 0fd4 56be 1cf4 753d
000000f0: a384 c23d 7ba7 053a 88bc 6ebc 6036 193e
00000100: 9f87 283e 65a6 073d ae53 aabe fb53 733c
00000110: c620 b6bd 4c42 6ebe 86d0 463d b114 d2bd
00000120: 779d 86bd 6af4 b5bd 3f3b dfbb d448 50bd
00000130: 3b6e 853b 9c7a 6c3d 1eb9 cb3e 52ce 073e
00000140: 2124 1bbe 8031 dcbd 2afa 4bbe 452f 7c3e
00000150: ac7d dcbd 2ea1 f83d c841 043d dd7a d63d
00000160: 3477 27be ebf4 1abe 2fb6 74be 3f86 653d
00000170: 913e 013e dc42 d7bc d4d8 443e 4f36 d33c
00000180: 9525 143c 3c5d babe 9043 c33d 38fa 9fbd
00000190: d08b 303d 0d8b 823c e2d4 c0bd 896e 22bf
000001a0: bcbe 04bc 0468 b33e 609d 42bb b1d2 ecbd
000001b0: 9976 babc 36f2 833e e5fd cdbe 0c7a a2be
000001c0: b9d8 6ebd e8aa 073e dbea 6b3e 5792 dabd
000001d0: 18ec c9be e154 0bbf de18 a53d 3a9b b03a
000001e0: fe15 4ebe 8965 54be 140a 8ebc da55 803d
000001f0: 7232 3abd 24ff bebd 4d0c 143d e84c a6bd
00000200: bd69 cdbc e58e cfbd 9c19 05be c222 6abe
00000210: 197b 593d cbff ba3d 0a7f 22bd b8f2 dcbe
00000220: de9a a0be e63a 593d 4417 1c3e 1534 29bd
00000230: 2f5e 873c e90b 0dbe 78a7 013d 83b7 0abd
00000240: 073f 603d 226e 43bf 9c6f be3d 525a 84be
00000250: d5ee 34bd 31be ec3d 463a 0e3e 1255 50bc
00000260: 6e6b 5fbe 6776 a9bd 27de 9cbd 7895 243d
00000270: 2ac1 703c 138f 5fbd 45fd c2bd 89db f9bc
00000280: 8a6a 59bd 7f79 613c 3161 c3bb 57c8 04be
00000290: 139e 51bd b78c 20be 6ccf 47be 1f3d 7abd
000002a0: 1c09 debc ea77 843a 73c0 19bf b698 82bd
000002b0: 3329 5bbd 6144 7bbc d639 10be 2a50 0c3d
000002c0: 8f1f 07bd a0ea 54be 8dfc 5ebe 1ab0 af3d
000002d0: 0602 a43d 1ea0 57bd d96d 89bb ac85 ab3c
000002e0: 1744 11bf be64 b63d 9a3b 8f3d 516c 82bd
000002f0: 08c3 263e e7f1 103e f885 2fbd 2b9e 8cbe
00000300: 20ee bcbd 4a1b 51bd 2f59 4fbc 5536 09be
00000310: 81fd ecbd 65d5 44be 1a2b 24be d4c3 c0be
00000320: ab57 b33d db7a 793d b60c a93c a9ce 353d
00000330: 073a 3ebc 06b5 81be 66e7 37bd abb8 2a3e
00000340: 4ff2 103d 9c7d 8fbd 33eb 2a3e 6cdd bdbc
00000350: 4d73 6a3d af4c 99be d83b 043e 413b 6b3c
00000360: 2862 cd3c 399b 11be a40c 16be a30e 6f3e
00000370: e285 a3bd 0ab8 013e 321f 543d 24fe 373d
00000380: c27e b0bd e2d8 4ebd e7c1 03bb 7d04 57bd
00000390: 4e34 823e 1642 10bb 5119 81ba 0021 273d
000003a0: fde4 5f3c 49c3 82bd f3b5 a33c 9602 2e3d
000003b0: c0bd b83d 968a 05be 9b7e 7f3d 5794 973d
000003c0: edd6 813d a727 5fbd fbb4 293c fa6c 1ebe
000003d0: a083 22bc c82e 643d 7d66 7abc 3fed 35bd
000003e0: 1fab 46bd 7cca 15bf d592 843f d2fb ddbd
000003f0: c42a c2bd b5a4 ef3d 51bf 09be 9fa8 9abc
-0.012899848 -0.010719284 0.012764953 0.14245158 0.019828355 0.48804787 0.1333083 0.1321647
0.24257833 -0.35707447 -0.2242196 -0.28326035 0.050363947 -0.033146765 -0.016825844 0.23349206
-0.27847555 -0.0045790016 0.03649348 -0.106125884 0.16301467 0.0049133715 -0.06888034 -0.09077097
0.012764219 0.025522523 -0.0422968 0.0018138668 0.19672844 0.07129622 -0.08635258 -0.2246563
-0.07347341 -0.024372986 -0.20925756 -0.45665666 -0.105067454 -0.10887435 0.03427298 0.036316637
0.089523226 0.16020906 -0.062430516 -0.07561067 -0.05404803 0.08191872 -0.109326296 -0.036560636
0.02503761 0.32750976 0.0672613 0.018148925 0.12182217 -0.018105194 0.0027764565 0.10325993
-0.10059702 -0.23884809 -0.20979331 0.060047254 0.09497955 0.0005098504 -0.014571317 0.14962149
0.16457985 0.03311767 -0.33266968 0.0148515655 -0.0889297 -0.23267478 0.048538707 -0.10257853
-0.06573003 -0.08884509 -0.0068124826 -0.050850704 0.0040719784 0.057734117 0.3978967 0.13262299
-0.15150501 -0.10751629 -0.19919649 0.24627407 -0.107661575 0.121401176 0.032289296 0.10472653
-0.16354066 -0.15132491 -0.23897623 0.05603623 0.12621523 -0.026276998 0.19223338 0.025782732
0.009042163 -0.36399257 0.09534371 -0.07811397 0.043102086 0.015935445 -0.09415604 -0.63449913
-0.008102115 0.35040295 -0.0029695854 -0.11563624 -0.02276163 0.2577073 -0.4023277 -0.3173374
-0.05831215 0.1324879 0.23038809 -0.10672443 -0.39437938 -0.5442639 0.08061384 0.0013473995
-0.20125577 -0.20741858 -0.01733879 0.06266375 -0.045458265 -0.09326008 0.036144543 -0.081201375
-0.025074834 -0.10134677 -0.1299805 -0.22864822 0.05309591 0.0913082 -0.039671935 -0.4315393
-0.31368154 0.053034686 0.1524325 -0.041309435 0.016524402 -0.13774075 0.03165385 -0.033866417
0.054747608 -0.76339924 0.092986315 -0.2585016 -0.04417308 0.11559714 0.13889417 -0.012715595
-0.21818325 -0.082745366 -0.0765956 0.040181607 0.014694491 -0.054579806 -0.095209636 -0.03050019
-0.05308012 0.013761877 -0.005962514 -0.12967049 -0.051176142 -0.15678678 -0.19512719 -0.061093446
-0.027103953 0.0010106538 -0.6005928 -0.063767835 -0.053506088 -0.015336127 -0.14084563 0.034256138
-0.03298908 -0.20792627 -0.21776028 0.085785106 0.080081984 -0.052642934 -0.004194003 0.020937763
-0.5674452 0.08905934 0.0699379 -0.06368316 0.16285336 0.14154778 -0.042852372 -0.27464423
-0.09225106 -0.051051416 -0.01265554 -0.13399632 -0.115717895 -0.19222029 -0.16032067 -0.37649405
0.08756956 0.06090818 0.020635944 0.04438654 -0.0116105145 -0.25333422 -0.044898413 0.16672008
0.035387333 -0.0700638 0.16691284 -0.023176871 0.057238866 -0.29941317 0.12913454 0.014357389
0.025071219 -0.14219369 -0.1465326 0.23345427 -0.079845205 0.12667862 0.051787563 0.0449201
-0.08617927 -0.050499804 -0.0020104588 -0.052494515 0.2543053 -0.0022012047 -0.0009849464 0.040802956
0.013665435 -0.06384904 0.019984221 0.042482935 0.09020567 -0.13041148 0.0623766 0.074013405
0.06339822 -0.054481175 0.0103580905 -0.15471259 -0.009919077 0.055708677 -0.015283224 -0.04441571
-0.048503038 -0.5851209 1.035731 -0.108390465 -0.09480813 0.11701337 -0.13451888 -0.018879233

model/dense_6/MatMul;model/activation_6/Relu;model/dense_6/BiasAdd f4 [100]
00000000: 540b e4c0 1079 4740 afb1 1741 c3f8 bbc0
00000010: 639d e041 b236 adc0 2faf 6341 64cf 8941
00000020: b3d7 19c1 dc92 9341 3d10 0542 b554 4340
00000030: 1013 f240 96ce d241 a3ca 8fc0 95e0 d7bf
00000040: f9e2 cb41 ed04 9140 d42b f441 db97 2241
00000050: 8e80 5a42 b621 9041 c642 23c1 bbba b3c1
00000060: 8a4d 2a41 c162 7a41 922b 2e40 3aa6 a341
00000070: 924d bc41 0669 21c0 0e9b e0bf 2eb6 b540
00000080: 2afe 1441 c747 31c0 ffb5 acbf 59a1 3442
00000090: 54fd bcc1 6bce b841 3c53 9c3f d664 4f41
000000a0: b10a b841 e820 a6bf f19a c541 1bc1 a3c1
000000b0: 8be5 a841 795d ad40 514e c8c1 3292 8b40
000000c0: 6878 7a41 7f79 c940 4678 0540 bbf5 b2c1
000000d0: 8690 c03f d1eb 6241 4fc7 2741 0657 bc41
000000e0: a47b c041 2670 60c1 c0b3 5c41 3859 0542
000000f0: 04bc 1b41 ed50 4ec1 cd99 543e a8b2 cb40
00000100: f497 00c1 ec7c 8441 f9ff 2642 7309 ba3f
00000110: 5c75 69c1 970a 4441 b87b d241 7a72 d040
00000120: 6af9 63c0 d6b6 f5bf 2c3f 8840 1935 42bd
00000130: b866 95c1 cbaf 8b41 54e2 5fc1 978d f1c0
00000140: e627 29c0 8dec 9240 8565 34c1 bd6f ab41
00000150: db6e 9441 a68c 7c41 17f3 5a41 bb2f c040
00000160: 51dc a8c0 e14d 1ac0 5f3c 5141 51db 80c1
00000170: 070c 4741 46ac 6541 0e3b a03f 0359 9e40
00000180: 4e25 f741 c24e 27c1 6fc3 bec1 a856 7ec0
-7.126383 3.116764 9.48088 -5.8741164 28.076849 -5.4129267 14.230269 17.226265
-9.615161 18.446709 33.265858 3.052045 7.564827 26.350872 -4.493486 -1.6865412
25.485826 4.5318513 30.5214 10.162074 54.62554 18.01646 -10.203802 -22.466177
10.64393 15.64911 2.7214093 20.456165 23.537876 -2.5220351 -1.7547319 5.6784887
9.312052 -2.770006 -1.3493041 45.157566 -23.623695 23.10079 1.2212901 12.962118
23.00522 -1.2978792 24.700655 -20.46929 21.112082 5.41766 -25.03824 4.361596
15.654396 6.296081 2.085466 -22.369986 1.5044105 14.182572 10.486159 23.542492
24.060371 -14.02738 13.793884 33.337128 9.733402 -12.894757 0.20761795 6.3655586
-8.037098 16.560997 41.749973 1.4534134 -14.591152 12.252585 26.31041 6.513974
-3.562098 -1.9196422 4.2577114 -0.04741392 -18.675156 17.460836 -13.992756 -7.548534
-2.6430602 4.591376 -11.274785 21.42956 18.554129 15.784338 13.684348 6.0058265
-5.276894 -2.4110034 13.077239 -16.107088 12.440436 14.354559 1.2518022 4.9483657
30.893215 -10.456728 -23.845427 -3.974039
