corintho_ai/python/tflite_models/model_48.tflite (tflite, 521576 bytes, 27 tensors)

model/dense_1/MatMul;model/activation_1/Relu;model/dense_1/BiasAdd f4 [100]
0	0xc1b210fc	-22.258293
1	0x42ee94ea	119.29085
2	0xc2476d45	-49.85671
3	0x403fd1cf	2.9971807
4	0x4249ad8f	50.41949
5	0x41facca7	31.349928
6	0x4280a821	64.32838
7	0xc1e086d4	-28.065834
8	0xc21e23a8	-39.53482
9	0x3f8b9a73	1.0906509
10	0x401d5fda	2.4589753
11	0xc2319493	-44.395092
12	0x41519b3a	13.100397
13	0xc21c5a4f	-39.088192
14	0xc03bf37c	-2.936736
15	0xc267145a	-57.769875
16	0x41616e7c	14.089474
17	0x3eaecb76	0.34139603
18	0xc1418c9c	-12.096828
19	0x408d9f5d	4.4257035
20	0x4120d224	10.051304
21	0x40d949c0	6.7902527
22	0x4121c601	10.110841
23	0xc2480600	-50.00586
24	0x428ca8a0	70.329346
25	0x40807364	4.014086
26	0xc139e646	-11.618719
27	0xc0300bd5	-2.7507222
28	0xc2394096	-46.313072
29	0x4211e52a	36.473793
30	0xc1ee3349	-29.775042
31	0x3ea86234	0.32887423
32	0x41fb1854	31.386879
33	0xc1c7a422	-24.955143
34	0x428444b8	66.13422
35	0x422ed7a3	43.710583
36	0x4188745e	17.05682
37	0xc1f91429	-31.134844
38	0x415ab7f2	13.669909
39	0x41d0c715	26.097208
40	0x4269d758	58.460297
41	0xc122ef01	-10.183351
42	0xc22a502e	-42.5783
43	0x3f666c01	0.9000855
44	0x41947e6b	18.561728
45	0xc1843a88	-16.52858
46	0x41170701	9.43921
47	0xc1ca6df2	-25.303684
48	0xc0ef16eb	-7.4715476
49	0xc09359ac	-4.6046963
50	0x419a09b3	19.254736
51	0xc230bac8	-44.182404
52	0x413dffef	11.874984
53	0x4310d95b	144.84904
54	0xc04f1b24	-3.2360315
55	0x41c94905	25.160654
56	0x416ef4a9	14.9347315
57	0xc18dbabf	-17.716185
58	0x41f8e54d	31.111963
59	0xc19edffd	-19.85937
60	0x417ebf65	15.921727
61	0x4283f066	65.96953
62	0x40bb7f2e	5.859275
63	0x41cce428	25.611404
64	0x423ddb84	47.46437
65	0x4299a37a	76.81929
66	0x42d91d54	108.55728
67	0x41807d49	16.061174
68	0xc16dbf01	-14.859132
69	0xc286cd1a	-67.40059
70	0xc194ce20	-18.600647
71	0xc1eccbfb	-29.5996
72	0x3ffe984c	1.9890227
73	0x42973a5b	75.613976
74	0xc091d3e3	-4.557115
75	0x426c3009	59.04691
76	0xc0b8bdc6	-5.7731657
77	0x41009655	8.036702
78	0xc2bbee4e	-93.96544
79	0x3e6e623e	0.23279664
80	0x4116a5a3	9.415439
81	0x42113501	36.30176
82	0x412df894	10.873188
83	0xc1b5d245	-22.72767
84	0xc048605e	-3.1308818
85	0x4274c2d5	61.190266
86	0x41aa15cf	21.260649
87	0xc1951355	-18.63444
88	0x4291674a	72.70174
89	0x41f770d8	30.9301
90	0x42a0f22d	80.473
91	0x410f8377	8.969596
92	0x427baaaa	62.916664
93	0x404c1d0d	3.189273
94	0x40b7984a	5.73734
95	0x4084179c	4.127882
96	0x42fc15e1	126.04273
97	0x41c4b585	24.588633
98	0x411c9c97	9.78823
99	0xc29ba23b	-77.81686

model/batch_normalization/batchnorm/mul_1;model/batch_normalization/batchnorm/add_1;model/dense_1/MatMul;model/activation_1/Relu;model/dense_1/BiasAdd f4 [100, 100]
0	0x3e3c47a5	0.18386705
1	0xbf27daac	-0.6556804
2	0x3e8108f1	0.25202134
3	0x3d7ea38a	0.06216768
4	0x3fa9f4ef	1.3277873
5	0x3ed13431	0.4086013
6	0xbf5aa9ad	-0.85415155
7	0xbf592113	-0.8481609
8	0x3db26f55	0.08712641
9	0x3f139419	0.57647854
10	0x3eeec197	0.46632072
11	0x3e61489f	0.22000359
12	0x3d1b5912	0.03792674
13	0x3db4c8b6	0.08827345
14	0xbf11b8d8	-0.56922674
15	0xbd0e8ddf	-0.034803268
16	0x3e4f51d1	0.20246054
17	0xbfb4c0c5	-1.4121329
18	0x3e3bf02c	0.18353337
19	0xbeef3e10	-0.46727037
20	0x3e22d80f	0.15902732
21	0x40931931	4.596825
22	0x3d7dc140	0.061951876
23	0x3d1bfa9f	0.038080808
24	0xbda0e969	-0.078570195
25	0x3d8be2f0	0.06830394
26	0x3dac7c0e	0.08422099
27	0xbf48762f	-0.78305334
28	0x3e635a4e	0.22202417
29	0xbe509d71	-0.20372559
30	0xbe159d6d	-0.14610834
31	0x3f125870	0.57166195
32	0x3d5d5b77	0.054042306
33	0xbeb36f87	-0.35046026
34	0xbdb0b9bc	-0.08629176
35	0xbeb3a4b5	-0.350866
36	0xbdef40de	-0.11682294
37	0xbde1ffbf	-0.11035108
38	0xbc78752a	-0.015164653
39	0x3e27fb80	0.16404533
40	0x3f1d9c36	0.61566484
41	0x3f816a66	1.0110595
42	0x3eb7a009	0.35864285
43	0x3e4e6cef	0.20158742
44	0xbe9dcaac	-0.3081869
45	0xbde44d28	-0.11147529
46	0x3e5cea46	0.21573743
47	0x3e00344b	0.12519948
48	0x3f4280b3	0.7597763
49	0x3d436c56	0.04771074
50	0xbc006119	-0.00783565
51	0xbff71c8b	-1.9305586
52	0x3ef9396a	0.48676616
53	0x408c9c1a	4.3940554
54	0x3e1bb8f4	0.15207273
55	0xbcc6be10	-0.02426055
56	0xbe236c4f	-0.15959285
57	0x3f01585b	0.50525445
58	0x3ff3f6b8	1.9059668
59	0x3ef69292	0.481587
60	0x3ed5034e	0.41604084
61	0xbe258d16	-0.16167101
62	0x3cb29775	0.021800736
63	0xbf5d856b	-0.86531705
64	0x3e9fb588	0.31193185
65	0xbf05c7ab	-0.52257794
66	0xbe15d8d7	-0.14633499
67	0x3e847bca	0.25875694
68	0xbe0c9053	-0.1372693
69	0x3f2c0f91	0.6721125
70	0x3f161389	0.5862356
71	0xbe0db819	-0.13839759
72	0x3dc66ebc	0.0968909
73	0x3d0c120b	0.034196895
74	0x3f2a56d6	0.6653875
75	0xbf247385	-0.6423877
76	0xbec6abde	-0.38803
77	0x3d31daab	0.04342143
78	0xbe29e181	-0.16589929
79	0x3ea68d40	0.3252964
80	0xbf1eaddf	-0.61984056
81	0x3e5047dd	0.20339914
82	0xbe8785c8	-0.26469254
83	0x3c934f77	0.017982228
84	0xbea97930	-0.3310027
85	0xbc54e2ae	-0.012993498
86	0xbd98ca0b	-0.07460412
87	0xbef098a1	-0.46991447
88	0xbe05fbd7	-0.1308435
89	0xbe1f8c84	-0.15580946
90	0xbf619dbb	-0.881313
91	0x3f8a23fc	1.0792232
92	0x3df2ccc0	0.11855459
93	0xbee97cf0	-0.45603132
94	0xbdd38549	-0.103281565
95	0x3dbaebdf	0.0912702
96	0x3e07bc61	0.13255455
97	0xbdb6d131	-0.08926619
98	0xbee58642	-0.44828993
99	0xbdec6b1f	-0.11543869
100	0xbf759356	-0.9592794
101	0xbf885f1f	-1.0654029
102	0xbe9fc51a	-0.31205064
103	0x3df4c72d	0.11952052
104	0xbf802af9	-1.0013114
105	0x3fee386e	1.8610971
106	0x3f0e7268	0.5564332
107	0x3ea3c341	0.31984904
108	0x3dc95b85	0.09831909
109	0xbf02f996	-0.5116209
110	0x3ed2b02a	0.41150028
111	0xbb95bc53	-0.004569569
112	0xbfa8fc48	-1.320199
113	0xbdcb440c	-0.09925088
114	0xbe492ebd	-0.19646735
115	0xbf28eefd	-0.6598967
116	0x3e431b4e	0.19053385
117	0xbfb69685	-1.4264685
118	0xbf55347a	-0.832832
119	0x3e2bd5b1	0.16780736
120	0xbede5f87	-0.43432257
121	0xbf41b9c6	-0.7567409
122	0xbd844f6a	-0.064604595
123	0xbd8afb09	-0.067861624
124	0x3dcff02c	0.10153231
125	0xbcf90e4e	-0.030402329
126	0xbf102e13	-0.56320304
127	0x3d791943	0.060815107
128	0xbead2e5c	-0.33824432
129	0x3e80089a	0.25006562
130	0x3cbeed8f	0.023306636
131	0x3eb3a959	0.3509014
132	0x3e371016	0.1787723
133	0xbe09a3d0	-0.13441396
134	0xbeb27021	-0.34851173
135	0x3f064d47	0.52461666
136	0xbed72a52	-0.42024475
137	0xbfe9437d	-1.8223721
138	0xbf3007f0	-0.6876211
139	0xbf1fcb5d	-0.6241968
140	0x3dc74123	0.09729221
141	0xbeb88645	-0.3603994
142	0xbf888ea5	-1.0668532
143	0xbe7e04ce	-0.2480652
144	0xbe00c188	-0.12573826
145	0xbf891877	-1.0710591
146	0x3e1aa55d	0.15102144
147	0x3e607c79	0.21922483
148	0xbee25ae1	-0.4420996
149	0x3e041356	0.12898001
150	0xbd8e46a1	-0.06947065
151	0x40059dde	2.0877604
152	0xbe89a8e8	-0.26886678
153	0x3f0d4fc1	0.5519982
154	0x3ca9db8f	0.020734577
155	0xbe86023b	-0.26173577
156	0xbf76ac57	-0.9635672
157	0x3f4a2280	0.7895889
158	0x3f4e52ec	0.8059528
159	0x3da8000e	0.082031354
160	0x3e3b488e	0.18289396
161	0x3f002129	0.500506
162	0xbcd72eda	-0.026267458
163	0xbf67cd20	-0.9054737
164	0xbf519283	-0.81864184
165	0xbf035fa8	-0.51317835
166	0x3e4c44ed	0.19948168
167	0x3f77acbd	0.9674795
168	0xbe8063c8	-0.25076127
169	0xbdddbe17	-0.108272724
170	0xbe0a14b1	-0.13484456
171	0x3eccbdcb	0.3998855
172	0xbe415c51	-0.18882872
173	0x3d667387	0.05626252
174	0xbe41f40d	-0.18940754
175	0xbe2fac8c	-0.17155665
176	0xbeb2d9bf	-0.34931752
177	0xbf175038	-0.5910678
178	0x3f33e4c2	0.7027093
179	0x3d89e45d	0.0673301
180	0x3e330d5f	0.1748557
181	0xbf4fa9e2	-0.81118596
182	0x3eb8ea7a	0.3611639
183	0x3f0c5a82	0.54825604
184	0xbe2ddf30	-0.1697967
185	0x3e501625	0.20320947
186	0x3e008ed2	0.12554482
187	0xbd661e56	-0.056181274
188	0x3e90b4df	0.28262994
189	0xbd8d27f9	-0.0689239
190	0xbf35264a	-0.7076155
191	0x3f5bf156	0.85915124
192	0xbec8c6ed	-0.39214268
193	0xbf123fd2	-0.5712863
194	0xbf16bade	-0.58878887
195	0xbcf1e95d	-0.029530222
196	0xbdf9ac9d	-0.121911265
197	0xbf79591c	-0.97401595
198	0xbf597808	-0.8494878
199	0xbea2be50	-0.31785822
200	0x3f674318	0.9033675
201	0xbf1c2c47	-0.6100506
202	0xbde30436	-0.110847875
203	0x3e17d84f	0.14828609
204	0x3f7e8fe5	0.99438316
205	0xbd521387	-0.051288154
206	0x3f5c3022	0.86010945
207	0xbfa8f1bb	-1.319877
208	0xbf6ed3b6	-0.93291795
209	0xbf2b1e7a	-0.6684338
210	0xbe2437b1	-0.1603687
211	0x3fefa730	1.8722897
212	0x3d20c1a5	0.039247174
213	0x3d7c032d	0.061526466
214	0xbe52b0ae	-0.2057521
215	0x3f0806f9	0.5313564
216	0x3e9de5af	0.30839297
217	0xbef1caa6	-0.4722492
218	0xbf9a5ec5	-1.2060171
219	0x3b1cec65	0.0023944613
220	0xbe12b6f8	-0.1432761
221	0xbfad6091	-1.3545095
222	0xbd689420	-0.056781888
223	0x3e1411eb	0.1445996
224	0xbcaed184	-0.02134014
225	0x3e38ef44	0.18060023
226	0xbedf0c0a	-0.43563873
227	0xbd557c56	-0.05212053
228	0x3f42e202	0.7612611
229	0x3ed21491	0.41031316
230	0x3f3a82d6	0.7285589
231	0x3f2dded5	0.6791814
232	0xbe0929a1	-0.13394786
233	0x3ea6e1c9	0.32594135
234	0x3f46c5c3	0.7764551
235	0xbad70f8a	-0.0016407829
236	0xbdded528	-0.108805
237	0x3e4370ad	0.19085951
238	0x3f02df31	0.51121813
239	0xbf4c15de	-0.79720867
240	0x3e5e4c6e	0.21708843
241	0xbc861686	-0.016368162
242	0x3f8eb32d	1.114843
243	0x3dc6d50c	0.09708604
244	0x3e30b57d	0.17256732
245	0xbf974191	-1.1816884
246	0x3f55dac7	0.8353695
247	0xbe6bceaf	-0.23028062
248	0xbfc1daed	-1.5144936
249	0xbcd1934f	-0.025582938
250	0x3df8c4f3	0.1214694
251	0x3f35ec00	0.7106323
252	0xbd83fa1e	-0.064441904
253	0x3b856892	0.0040713036
254	0x3e134096	0.14380106
255	0x3e4db5e2	0.20088914

model/dense_2/MatMul;model/activation_2/Relu;model/dense_2/BiasAdd f4 [100]
0	0x42718ce8	60.387604
1	0xc25be4a8	-54.973297
2	0xc085c610	-4.1804276
3	0xc291616c	-72.69028
4	0xc077db90	-3.872776
5	0x41a1e2e8	20.235794
6	0x41e2229c	28.2669
7	0x4202d5da	32.70884
8	0xc124a7a5	-10.290929
9	0x40472b4d	3.1120179
10	0xc0f82c96	-7.7554426
11	0xc1a5e19e	-20.735165
12	0x40111ae7	2.267267
13	0x413b3370	11.700058
14	0x412b697e	10.713255
15	0xc25c1d85	-55.028828
16	0xc223a2cd	-40.908985
17	0x41061fc2	8.382753
18	0xc0966fe1	-4.701157
19	0xbdf71cf9	-0.12066073
20	0x420a726b	34.611736
21	0x40c86b2d	6.263083
22	0x420a26dc	34.53795
23	0x419ac7f9	19.347643
24	0xc018b6bb	-2.386153
25	0x414cc812	12.798845
26	0xc1359691	-11.349259
27	0x42295fe7	42.343655
28	0xc1b28c7d	-22.318598
29	0x40d7f4c2	6.7486277
30	0x40768de5	3.8524106
31	0x416301d2	14.187944
32	0x41f50702	30.628422
33	0x3ff72e3a	1.9310982
34	0x41c86e9d	25.05401
35	0xc225c35d	-41.440784
36	0x4298a4f6	76.32219
37	0xc1ab5af4	-21.41941
38	0xc2181e82	-38.029793
39	0xc17839b3	-15.514087
40	0xc0ca6326	-6.324603
41	0xc234ac98	-45.16855
42	0xc005cbb4	-2.090558
43	0xc1829fdf	-16.328062
44	0xc1e8d851	-29.105623
45	0x421ed15a	39.704445
46	0xc1965664	-18.792183
47	0xc153f543	-13.247378
48	0xc211867a	-36.381325
49	0x419bf63a	19.495228
50	0x42760b36	61.51095
51	0x427b5cbb	62.840557
52	0x414c4a39	12.768121
53	0xc1099a03	-8.6001005
54	0x4118df06	9.554449
55	0x4057c52e	3.37141
56	0x40bd0674	5.9070377
57	0x424b9aa5	50.90102
58	0x42039551	32.895817
59	0xc205d978	-33.46237
60	0xc19ce8c5	-19.613657
61	0x403a2cd0	2.9089851
62	0xc16b0747	-14.689277
63	0x42e1600f	112.687614
64	0x42011631	32.27167
65	0x40b2798d	5.5773377
66	0xc24ce557	-51.223965
67	0xc1d6bc6f	-26.842009
68	0x3f496a1b	0.7867753
69	0x420d090f	35.258846
70	0xc30cc03e	-140.75095
71	0x4161df26	14.11698
72	0xc231b2b9	-44.424534
73	0x420b1684	34.771988
74	0xc2121ee3	-36.530163
75	0xc184fd29	-16.623613
76	0x41bea402	23.830082
77	0xc20b767d	-34.86571
78	0xc20e9576	-35.645958
79	0x4208a25e	34.15856
80	0x42521d50	52.528625
81	0x41d6e580	26.86206
82	0x4210be40	36.18579
83	0x419e98c0	19.824585
84	0xc114e9c6	-9.307074
85	0xc247267b	-49.78758
86	0xc0521af7	-3.2828958
87	0x422ed0ff	43.704098
88	0x41fd961f	31.698301
89	0x41da52f0	27.290497
90	0xc233f245	-44.98659
91	0x4159e05d	13.617276
92	0x409d10ee	4.9083166
93	0x40e0d17d	7.0255723
94	0xc1f04b60	-30.036804
95	0x4229a6f6	42.413048
96	0x42645d3f	57.09106
97	0x4201d450	32.457336
98	0x40eb175c	7.3466015
99	0xc1196ec2	-9.5895405

model/batch_normalization_1/batchnorm/mul_1;model/batch_normalization_1/batchnorm/add_1;model/dense_2/MatMul;model/activation_2/Relu;model/dense_2/BiasAdd f4 [100, 100]
0	0xbe08f1ca	-0.13373485
1	0xbd8712d7	-0.0659539
2	0x3e8d61e0	0.27613735
3	0xbce1d7ff	-0.027568815
4	0xbe60395e	-0.21896884
5	0xbe2b22bd	-0.1671247
6	0x3df8b5a8	0.12144023
7	0x3c81029c	0.015748315
8	0x3e67b430	0.2262733
9	0xbcd9abc8	-0.02657117
10	0x3dfed547	0.12443023
11	0x3e2d9256	0.16950354
12	0x3dcc734a	0.09982927
13	0xbe0ce71b	-0.13760035
14	0xbe82f24b	-0.2557548
15	0x3d752e13	0.059858393
16	0x3bab6d96	0.0052315695
17	0xbe80cd6c	-0.25156724
18	0x3e310591	0.1728728
19	0xbb704701	-0.0036663415
20	0xbe01e952	-0.12686661
21	0xbd937b46	-0.07201247
22	0x3db9bc6e	0.09069143
23	0x3e2674af	0.16255449
24	0xbdddc6e2	-0.108289495
25	0xbc1a0464	-0.009400461
26	0xbc6feed6	-0.014644345
27	0x3c7faf73	0.015605795
28	0xbdd51b92	-0.10405649
29	0xbe0d7bf1	-0.13816811
30	0xbc84601f	-0.016159115
31	0x3c26e22d	0.01018576
32	0xbe835bf2	-0.25656086
33	0xbc37bf90	-0.011215106
34	0xbd3a43fd	-0.045474995
35	0x3e5898ba	0.2115201
36	0xbd585aa2	-0.05282081
37	0x3d4dfe20	0.05029118
38	0x3d9e276b	0.07722362
39	0xbde0ede6	-0.109828755
40	0xbd3fe012	-0.04684455
41	0xbe462052	-0.19348267
42	0xbe9947ac	-0.29937494
43	0x3db61fb8	0.088927686
44	0x3cdd7240	0.027032018
45	0x3caee689	0.021350162
46	0xbdd7adf1	-0.105312236
47	0xbdacc1da	-0.08435412
48	0xbdc77bc0	-0.097404
49	0xbc8b718a	-0.017021913
50	0x3d79c554	0.060979202
51	0x3d88c154	0.066774994
52	0x3ca9065c	0.020632915
53	0xbda5608f	-0.08075058
54	0xbe2810ee	-0.16412708
55	0xbd896868	-0.06709367
56	0x3d0dbda6	0.03460469
57	0x3ca5a266	0.02021904
58	0x3e52f6b1	0.20601918
59	0xbd03c435	-0.03216954
60	0x3e1fcb22	0.15604833
61	0xbdf9c6b3	-0.12196102
62	0x3d87a122	0.066225305
63	0xbe73edd3	-0.23821191
64	0x3c4baf9e	0.012432007
65	0x3d1ea031	0.03872699
66	0x3d5009c2	0.050790556
67	0xbd5425f7	-0.05179402
68	0xbd13e6be	-0.036108725
69	0x3b8d7c2a	0.00431778
70	0xbe75c58a	-0.24001136
71	0xbe16cfde	-0.14727733
72	0xbcf4b994	-0.029873647
73	0xbd653aba	-0.05596421
74	0xbe801e4e	-0.2502312
75	0xbda34be3	-0.079734586
76	0x3d0184c0	0.03162074
77	0xbd1a43cb	-0.03766231
78	0xbd8b31c8	-0.067966044
79	0xbea75267	-0.32680055
80	0x3d31de4f	0.0434249
81	0xbd9ec459	-0.07752294
82	0x3d4ce4ef	0.050023016
83	0x3d3b09ea	0.04566375
84	0xbd02eb6f	-0.03196281
85	0xbc710db4	-0.01471274
86	0x3da9352d	0.082620956
87	0xbc24aa95	-0.010050436
88	0xbe06a5d0	-0.1314919
89	0x3cbe46e2	0.023227159
90	0x3da253db	0.079261504
91	0xbd0d46ed	-0.03449147
92	0xbda78e12	-0.08181395
93	0xbe4585f0	-0.19289374
94	0xbeb24172	-0.34815556
95	0x3ea6a274	0.32545817
96	0x3e54c9fe	0.20780179
97	0xbee1cc73	-0.44101295
98	0x3e13a357	0.14417778
99	0xbe553dec	-0.20824403
100	0xbab42edc	-0.0013746875
101	0xbd8c2c1a	-0.06844349
102	0xbda137ad	-0.078719474
103	0xbdc8b03b	-0.09799238
104	0x3d24cc73	0.04023404
105	0x3caf2267	0.021378709
106	0x3db7338a	0.08945377
107	0x3ceabfc3	0.028655892
108	0x3d85032c	0.064947456
109	0xbcca26d2	-0.024676714
110	0xbc7240b4	-0.014785934
111	0x3ba79fc0	0.005115479
112	0xbd42c453	-0.04755051
113	0xba4458d1	-0.00074900413
114	0x3da15a00	0.07878494
115	0x3d8fb4a4	0.07016876
116	0xbbedf5fc	-0.0072619896
117	0xbc0fe1e0	-0.00878188
118	0xbd8f5f0c	-0.07000551
119	0x3db27684	0.08714011
120	0xbdb0ade5	-0.08626918
121	0x3c8befa4	0.017082043
122	0x3d1c8544	0.03821303
123	0x3d23ffaa	0.040038742
124	0x3c1c3de2	0.009536238
125	0x3c6b05cc	0.014344644
126	0xbe220d54	-0.15825397
127	0xbe21f883	-0.15817456
128	0x3d47df9e	0.048797242
129	0xbd0135d0	-0.03154546
130	0x3e4a9f0c	0.19787234
131	0x3e766bd1	0.24064566
132	0x3e8b2398	0.27175593
133	0xbc3e998a	-0.011633286
134	0x3d63a87d	0.055580605
135	0xbdc7a44b	-0.09748133
136	0x3c3080b2	0.010772871
137	0x3dd72a0c	0.10506067
138	0xbdd076ee	-0.10178934
139	0xbc5a90e5	-0.01334021
140	0xbd0fbb8f	-0.03509098
141	0xbdaf87b2	-0.08570804
142	0x3cc4ef8b	0.024040004
143	0xbc2d1bde	-0.010565726
144	0x3dd1fb37	0.102529936
145	0x3df77ff7	0.12084954
146	0x3d72d44e	0.0592845
147	0x3d410b7b	0.04713009
148	0x3cfdc7ef	0.030979125
149	0x3e107c45	0.14109905
150	0x3d9c0b76	0.076193735
151	0xbd882675	-0.0664796
152	0x3e707ae2	0.23484376
153	0x3f76d8b6	0.96424425
154	0x3d9a2908	0.07527357
155	0x3d851245	0.06497625
156	0x3e349c1a	0.17637673
157	0x3d24e657	0.04025873
158	0xbcc72fa8	-0.024314716
159	0x3c263db2	0.010146545
160	0x3abb2fff	0.0014281272
161	0xbe052d1c	-0.13005489
162	0x3ed480eb	0.41504607
163	0xbb276fbf	-0.0025548784
164	0x3d803973	0.062609576
165	0x3e19b41a	0.1501011
166	0xbe182574	-0.14858037
167	0xbbd17fd1	-0.0063934107
168	0x3d25d043	0.040481817
169	0xbd92e5da	-0.07172747
170	0xbddc2fa2	-0.10751273
171	0xbc397f51	-0.0113218585
172	0xbd3bbeb2	-0.045836158
173	0x3e7dff96	0.2480453
174	0xbbd110ea	-0.00638019
175	0xbddf9c64	-0.10918501
176	0x3b2022df	0.0024434847
177	0x3d970cee	0.07375513
178	0xbd818626	-0.06324415
179	0xbdbc9085	-0.092072524
180	0x3dbb5f9d	0.09149096
181	0xbcaea1b9	-0.02131735
182	0x3ce85b3b	0.028363815
183	0x3de5752b	0.11203989
184	0x3cd49b21	0.025952877
185	0xbd223e32	-0.039610095
186	0xbd7041e1	-0.058656577
187	0x3d35ade7	0.0443553
188	0x3c8f89ce	0.017521765
189	0x3d0565a5	0.03256764
190	0x3efa2106	0.4885332
191	0x3c918689	0.017764347
192	0xbe801ce6	-0.25022048
193	0x3e1b524b	0.15168111
194	0xbd467ccb	-0.048458856
195	0xbc46563a	-0.012105519
196	0xbe671c21	-0.22569324
197	0xbc9cc530	-0.019136995
198	0xbdd9faab	-0.10643514
199	0xbc1569f7	-0.009119502
200	0x3ec34da1	0.38145164
201	0x3e48f596	0.19624934
202	0xbb73e3fb	-0.0037214744
203	0x3da33809	0.07969672
204	0xbc59fbe1	-0.0133046815
205	0xbc298955	-0.010347684
206	0x3dc82442	0.09772541
207	0x3d3fb838	0.046806544
208	0xbd16bd8a	-0.036801852
209	0x3e1a3ef7	0.15063082
210	0x3c9e03b4	0.019288875
211	0x3d671696	0.056418024
212	0xbb23ca76	-0.0024992502
213	0xbd640f41	-0.05567861
214	0xbd16b41b	-0.036792856
215	0xbe51e052	-0.20495728
216	0x3d6cdbb3	0.05782671
217	0x3d17890a	0.036995925
218	0xbdb54f61	-0.08853031
219	0xbcba2565	-0.02272291
220	0x3e497c18	0.19676244
221	0xbb8368e8	-0.0040103085
222	0x3cd2af70	0.02571842
223	0x3d37ff3f	0.044921156
224	0xbd3ffa6e	-0.046869688
225	0xbd400035	-0.046875197
226	0xbd1e6964	-0.038674727
227	0xbda4b9c6	-0.08043246
228	0xbcdd7a2c	-0.027035795
229	0x3d612584	0.05496742
230	0x3cda6cb7	0.026663167
231	0x3e16d9a5	0.14731462
232	0xbde37452	-0.11106171
233	0x3d5270b8	0.05137703
234	0xbdeba0dc	-0.11505291
235	0xbd265b22	-0.040614255
236	0x3dc74850	0.097305894
237	0x3d6a261d	0.057165254
238	0x3d51ffd1	0.051269356
239	0x3d7fa247	0.06241062
240	0x3d1723cd	0.036899377
241	0x3ef1f50d	0.4725727
242	0xbd1b659e	-0.037938707
243	0x3cd64616	0.026156466
244	0x3e54d09a	0.207827
245	0x3d0acd12	0.033886977
246	0xbd26995a	-0.04067359
247	0xbc6e1333	-0.014530945
248	0xbdf24363	-0.11829259
249	0x3d9066b9	0.07050843
250	0x3de0a1e4	0.10968378
251	0xba04d6f8	-0.0005067433
252	0xbd4fc89d	-0.05072843
253	0x3d981560	0.07425952
254	0xbd9d74c6	-0.076882884
255	0xbc18aadc	-0.00931808

model/dense_3/MatMul;model/activation_3/Relu;model/dense_3/BiasAdd f4 [100]
0	0xc1d00a2d	-26.004969
1	0x420b0fcb	34.765423
2	0xc0b3c527	-5.6178164
3	0xc10fcc65	-8.987401
4	0x418ad5d6	17.354412
5	0xc0fcca51	-7.899697
6	0x3f9f044d	1.2423187
7	0x40d4edff	6.6540523
8	0x4202fb9d	32.745716
9	0x4186d771	16.855196
10	0x41fde7e9	31.738237
11	0x42201bbb	40.02708
12	0x420545dc	33.318222
13	0x4170440e	15.016615
14	0x412befe9	10.746072
15	0x40957cc3	4.6714797
16	0xc138f2fb	-11.559321
17	0x41a2d700	20.35498
18	0xc00fa111	-2.2442057
19	0x3f03a913	0.5142986
20	0x41f5252f	30.643156
21	0xc0e96520	-7.2935944
22	0xc12a536d	-10.645368
23	0x41c97c1e	25.185604
24	0x4227810e	41.87603
25	0x424669bf	49.603268
26	0x41cc4428	25.53328
27	0xc02ff1cc	-2.749133
28	0xc17c6c04	-15.776371
29	0xc21b00b6	-38.750694
30	0x4151916c	13.098003
31	0x4180a258	16.07927
32	0x4143d891	12.240373
33	0xc1098467	-8.594825
34	0x40e29b94	7.0814915
35	0x42736a49	60.853794
36	0xc11e5f36	-9.898245
37	0x41967816	18.808636
38	0xc20a14c2	-34.52027
39	0x414736b1	12.450852
40	0x41d58d99	26.69414
41	0x4216fa36	37.744347
42	0x42500055	52.000324
43	0xc1dc5550	-27.541656
44	0x41176872	9.462999
45	0x40e36514	7.1060886
46	0xc1a1f949	-20.246721
47	0x413a9a97	11.662742
48	0x41b2470e	22.284695
49	0xc0e448ac	-7.133871
50	0x4145c011	12.359391
51	0xc1e6f7d4	-28.87101
52	0xc16694e6	-14.411352
53	0xc2058213	-33.377026
54	0xc1c3faf1	-24.49753
55	0x4182cb0c	16.349144
56	0xc05fa8e1	-3.4946826
57	0xc11a024b	-9.62556
58	0x40e05452	7.010293
59	0x419db492	19.71317
60	0xbfe51072	-1.7895644
61	0x40455d60	3.0838242
62	0x4052a3ab	3.2912395
63	0x41b092bd	22.07165
64	0xc1bec759	-23.847338
65	0x4113a69e	9.228178
66	0x40755ee9	3.8339179
67	0xc0b90210	-5.781502
68	0x419801af	19.000822
69	0x3f8b8eae	1.0902917
70	0x40094de6	2.1453795
71	0x4134912b	11.285441
72	0x401d20f5	2.4551365
73	0xc1a99bde	-21.201107
74	0x41d60b28	26.755447
75	0xc137fe29	-11.499551
76	0xc18cfeee	-17.624477
77	0x4112c4f4	9.173084
78	0xc0e0187d	-7.0029893
79	0xc20ebf71	-35.686954
80	0xc1ddc356	-27.720379
81	0x3febe116	1.8428066
82	0xc000c8a9	-2.0122473
83	0x41ac030d	21.50149
84	0xc09be18d	-4.871283
85	0xc16df754	-14.872883
86	0x412e497a	10.892939
87	0x4096b7c8	4.709934
88	0xc16bf9e8	-14.748512
89	0x41074b2d	8.455853
90	0xc057c645	-3.3714764
91	0x41c67489	24.806902
92	0xbd6895a7	-0.056783345
93	0xc0f85a57	-7.761028
94	0x41928adf	18.317808
95	0xc24c2348	-51.034454
96	0xbf0d34b9	-0.55158573
97	0x41599f57	13.601401
98	0x41c4e583	24.612066
99	0xc0b087a7	-5.516559

model/batch_normalization_2/batchnorm/mul_1;model/batch_normalization_2/batchnorm/add_1;model/dense_3/MatMul;model/activation_3/Relu;model/dense_3/BiasAdd f4 [100, 100]
0	0x3dc8a0cb	0.09796294
1	0xbd416ce5	-0.04722299
2	0xbcc7aaa1	-0.024373354
3	0x3d93de1d	0.07220099
4	0x3cb51c55	0.022108236
5	0xbdd314f8	-0.10306734
6	0x3dde6f75	0.108611025
7	0x3e6e18ba	0.2325162
8	0xbdd94842	-0.10609485
9	0x3e16ee0b	0.14739244
10	0xbe4f1b6b	-0.20225303
11	0xbb0178c2	-0.0019755815
12	0xbdea599a	-0.114428714
13	0xbd9e94ea	-0.07743247
14	0x3dba7cc8	0.091058314
15	0x3d512493	0.05106027
16	0xba501817	-0.000793816
17	0x3e3c3425	0.18379267
18	0x3db5fd8b	0.0888625
19	0x3d031046	0.03199794
20	0xbc4d36ee	-0.012525303
21	0xbbee6b9d	-0.007276012
22	0x3f0916bf	0.5355033
23	0xbdbc94d9	-0.09208078
24	0x3bff59c5	0.007792684
25	0xbd1cdef8	-0.038298577
26	0x3e1fcc13	0.15605192
27	0x3d341e77	0.043974366
28	0xbe25a2d7	-0.161754
29	0xbdb3b891	-0.087754376
30	0xbde531a4	-0.11191109
31	0xbc83845a	-0.016054321
32	0xbcf96202	-0.030442242
33	0xbce95d6e	-0.028486934
34	0xbe24fdd8	-0.16112459
35	0xbda33b82	-0.079703346
36	0x3dbd67a1	0.09248281
37	0xbdce6771	-0.10078324
38	0xbcffaad7	-0.031209392
39	0xbc2ef5f6	-0.010678759
40	0xbcbf18fd	-0.023327345
41	0x3c93bd9c	0.018034749
42	0x3d3fce46	0.046827577
43	0x3e1132d1	0.14179541
44	0xbc5c2d05	-0.013438468
45	0xbd19a9bd	-0.03751539
46	0x3dd158d1	0.102220185
47	0xbe4445d4	-0.19167262
48	0x3e5ee295	0.21766122
49	0x3e6502f3	0.22364406
50	0x3d8a65b8	0.067576826
51	0x3d81c43f	0.06336259
52	0x3e0ed674	0.13948995
53	0x3df10d96	0.117701694
54	0xbe2601e6	-0.16211662
55	0x3d8d666b	0.069043
56	0x3d1e22a0	0.03860724
57	0x3e851a36	0.2599656
58	0x3e115d25	0.14195688
59	0xbe3314c2	-0.17488387
60	0xbe419b44	-0.18906885
61	0x3d98055c	0.07422897
62	0x3da6c35b	0.0814273
63	0xbe1f2634	-0.15541917
64	0x3da81705	0.082075156
65	0x3b4a016e	0.0030823606
66	0xc079d2d2	-3.9034925
67	0x3d383d5f	0.044980403
68	0x3db9a278	0.090641916
69	0x3dc5aed8	0.096524894
70	0xbc402431	-0.011727379
71	0xbd53f386	-0.051745914
72	0xbd82fca7	-0.06395846
73	0xbd17bb8d	-0.037044097
74	0x3b86dc30	0.004115604
75	0x3df68221	0.12036539
76	0xbcaa1f47	-0.020766867
77	0x3dbc8fe0	0.092071295
78	0xbc8bc5ae	-0.017062034
79	0x3df40303	0.11914637
80	0x3b937107	0.004499558
81	0xbdee2878	-0.116288126
82	0xbd5527cb	-0.052039903
83	0x3cee5005	0.02909089
84	0xbc5efceb	-0.013610105
85	0x3b49a3c0	0.0030767769
86	0x3d8c42ec	0.06848702
87	0xbe2eed99	-0.17082824
88	0x3e8b13f7	0.2716367
89	0x3ec99806	0.39373797
90	0xbddd243e	-0.10797928
91	0xbddb6afd	-0.10713766
92	0xbaf8dc41	-0.0018986539
93	0x3df8ee3b	0.12154814
94	0x3dcfa567	0.1013897
95	0xbab07c0b	-0.0013464702
96	0xbbc29c68	-0.0059390552
97	0xbea480d4	-0.32129538
98	0xbde01249	-0.109409876
99	0xbd592a69	-0.05301896
100	0xbe977230	-0.29579306
101	0x3acc3904	0.0015580957
102	0xbe900041	-0.28125194
103	0x3ba151f4	0.0049230997
104	0x3ba5e844	0.0050630886
105	0x3dadb0cf	0.08480989
106	0x3db6dd9a	0.08928986
107	0x3e0dfc3a	0.13865748
108	0xbd7cc8fb	-0.061715107
109	0xbe825d7b	-0.25461945
110	0x3d8326a2	0.06403853
111	0x3e19186d	0.14950724
112	0xbd1efc6a	-0.03881494
113	0xbc47a847	-0.012186117
114	0x3e488b74	0.19584447
115	0x3d868ce8	0.065698445
116	0x3c9d7d2d	0.019224728
117	0xbd378497	-0.044804182
118	0xbe34271d	-0.17593046
119	0xbd5d3220	-0.05400288
120	0xba00e651	-0.00049171323
121	0x3c64b5bf	0.013959347
122	0xbe131b90	-0.14365983
123	0xbd4beab8	-0.049784392
124	0x3e295695	0.16536935
125	0xbe3fca9f	-0.18729638
126	0x3e4245f4	0.18971997
127	0x3e16dffa	0.14733878
128	0x3e50bc28	0.20384276
129	0x3dffecd6	0.12496345
130	0xbe83861c	-0.25688255
131	0x3e7f1237	0.24909292
132	0x3df78815	0.120865025
133	0x3d3f206e	0.046661787
134	0xbd95ead1	-0.07320178
135	0xbd90656c	-0.07050595
136	0x3da464b9	0.08027024
137	0x3e06715b	0.13129179
138	0xbcc023e0	-0.023454607
139	0x3e8e08ca	0.2774108
140	0xbddce185	-0.10785202
141	0xbd12f9f8	-0.03588292
142	0xbb57c3ab	-0.0032923024
143	0xbe2455fd	-0.16048427
144	0x3e04625c	0.12928146
145	0x3d9a0bb8	0.075217664
146	0x3cb2806d	0.021789754
147	0xbf14084a	-0.5782515
148	0xbe2e4e0d	-0.17021962
149	0xbe7cbebf	-0.24682139
150	0xbd2de270	-0.042452276
151	0x3ea2eb44	0.31820118
152	0xbd5804dd	-0.052739013
153	0xbe428b75	-0.18998511
154	0xbe0a6ae7	-0.13517343
155	0xbd820117	-0.06347864
156	0x3d283c6c	0.041073248
157	0x3bc529a6	0.006016928
158	0xbe6e4a67	-0.2327057
159	0x3e471a8b	0.19443719
160	0x3dff48ad	0.12465034
161	0x3e815e50	0.25267267
162	0x3e04203e	0.12902924
163	0xbdda307a	-0.106537774
164	0xbc4d316f	-0.012523993
165	0xbdaaf03f	-0.083466046
166	0x3cb534bb	0.02211987
167	0xba87732d	-0.0010334008
168	0x3d8227cf	0.06355249
169	0x3b49873d	0.0030750774
170	0xbcd17e7b	-0.025573006
171	0x3d5483c6	0.05188348
172	0x3e28817b	0.16455643
173	0x3cff5995	0.031170646
174	0xbdb23147	-0.08700805
175	0xbcada8be	-0.021198627
176	0xbc1c7c44	-0.009551112
177	0x3ccf92d4	0.025338568
178	0xbd2d27eb	-0.042274397
179	0x3e825cb8	0.25461364
180	0xbdbacab4	-0.09120694
181	0xbe0059b9	-0.12534226
182	0x3d642186	0.055696033
183	0xbe9ef68f	-0.31047484
184	0xbd8f1347	-0.06986099
185	0x3d28663e	0.04111313
186	0x3e2d2581	0.16908838
187	0xbe71b406	-0.2360383
188	0xbe93df02	-0.2888108
189	0xbbf19862	-0.007372902
190	0x3e3a3fa3	0.18188338
191	0x3e2ac8b1	0.1667812
192	0x3de9f427	0.114235215
193	0xbbf662d7	-0.007519107
194	0xbe132891	-0.14370944
195	0xbcc5b781	-0.024135353
196	0x3d537034	0.051620677
197	0xbe2423c2	-0.16029266
198	0xbca022df	-0.019547878
199	0x3cacb96f	0.021084515
200	0x3d6a954a	0.05727128
201	0x3e86acfa	0.26303846
202	0xbdfe0a86	-0.12404351
203	0xbd9945e5	-0.074840344
204	0x3dfa76c9	0.12229688
205	0x3d52c6c1	0.051459078
206	0x3d89f1ff	0.0673561
207	0x3db95f18	0.09051341
208	0x3e131827	0.14364682
209	0x3e0cfe99	0.13768996
210	0xbd737795	-0.059440214
211	0x3e2ac53c	0.16676801
212	0x3d529bee	0.051418237
213	0xbe4222c9	-0.18958582
214	0x3db4e95a	0.08833571
215	0x3da7be1c	0.08190557
216	0x3e512321	0.20423557
217	0xbb927939	-0.0044700173
218	0xbe08d667	-0.13363038
219	0x3dfd4621	0.12366892
220	0xbddfaa2a	-0.10921128
221	0x3c9910cb	0.018684765
222	0x3c22b11c	0.0099299215
223	0xbd9b2efc	-0.07577321
224	0xbd729f89	-0.059234176
225	0x3dbb7211	0.09152616
226	0xbd1d8a9b	-0.038462263
227	0x3c89ce5f	0.016822038
228	0x3db6a0e2	0.08917405
229	0x3dfae434	0.122505575
230	0xbd7ebc87	-0.062191512
231	0xbdee87e2	-0.11647011
232	0xbe86055b	-0.2617596
233	0x3c4203f1	0.01184176
234	0xbca396ec	-0.019969426
235	0xbcb1c44e	-0.02170005
236	0x3d748a6f	0.059702333
237	0x3ddeb969	0.10875208
238	0x3c4df25a	0.012569988
239	0xbe626e8e	-0.22112486
240	0x3d5653fa	0.05232618
241	0xbd38aba9	-0.045085583
242	0xbdbb8b46	-0.09157424
243	0x3d7285df	0.0592097
244	0x3d3e95c7	0.046529558
245	0xbe5e43d0	-0.21705556
246	0xbc9a59b9	-0.018841611
247	0x3b6695c5	0.0035184484
248	0xbe244956	-0.160436
249	0xbd326de8	-0.043561846
250	0xbe7d380d	-0.24728413
251	0xbda80270	-0.0820359
252	0x3ddd2d72	0.10799684
253	0xbb811e5e	-0.0039403876
254	0x3c9a9e79	0.018874394
255	0xbe2cb349	-0.16865267

model/dense_4/MatMul;model/activation_4/Relu;model/dense_4/BiasAdd f4 [100]
0	0xc04f9fe6	-3.2441344
1	0x410da651	8.853105
2	0xc113a4dd	-9.22775
3	0x406773e7	3.616449
4	0x3ee69e73	0.45042762
5	0xc079c936	-3.902906
6	0x4128a8e9	10.541238
7	0x4105951d	8.348905
8	0x41fc0541	31.502565
9	0x40f5cd95	7.6813455
10	0xc05f04cd	-3.484668
11	0xc0f9d276	-7.806941
12	0x421e08ed	39.508717
13	0x41281e5a	10.50741
14	0xc19acbac	-19.34945
15	0xc18a3925	-17.277903
16	0xc126551d	-10.39578
17	0x400343bc	2.0510092
18	0x40b1277f	5.5360713
19	0x4032c240	2.793106
20	0xbfa483ea	-1.2852757
21	0xc16323d3	-14.196246
22	0x417b1b24	15.694126
23	0xbd388f89	-0.04505876
24	0x41fa0531	31.252535
25	0x404e6615	3.2249806
26	0x4138c035	11.546926
27	0x4089ae75	4.302546
28	0x401db237	2.4640024
29	0xc126fcc4	-10.43671
30	0x418270ec	16.305138
31	0xbf6ccac1	-0.9249688
32	0x41d1d8b0	26.230804
33	0xc02dcbc7	-2.7155626
34	0x41788676	15.532827
35	0xc14bb15e	-12.730803
36	0xc184c9f5	-16.598612
37	0x418d571a	17.66753
38	0x41c62966	24.770214
39	0x41fc027b	31.501211
40	0x421f9ecb	39.90507
41	0x3ff32162	1.8994563
42	0x3f4a23a0	0.7896061
43	0x3f118a70	0.56851864
44	0x42208a05	40.134785
45	0xc0c8f799	-6.2802243
46	0xc1204089	-10.015756
47	0xc12ad60f	-10.67726
48	0xc1e5f027	-28.742262
49	0x4003f69d	2.061927
50	0x42077997	33.86874
51	0x41a67c17	20.81059
52	0xc0b8f608	-5.780033
53	0x40d97213	6.795175
54	0x41a9cbfb	21.2246
55	0x4102379f	8.138579
56	0x41c13a0d	24.153345
57	0x418b6ed2	17.429111
58	0x417e68b1	15.900559
59	0x41987916	19.059124
60	0xc1be75c4	-23.807503
61	0x413a7099	11.65249
62	0xc13058b8	-11.02166
63	0x418dde52	17.733555
64	0x40a8e306	5.277713
65	0x41f1e239	30.23546
66	0xc043656c	-3.0530653
67	0x418c60ab	17.547201
68	0x41dfdbb9	27.982286
69	0x420023d4	32.03499
70	0x3fb07c26	1.3787887
71	0x42181a04	38.025406
72	0x4129e8bd	10.619321
73	0xc2177865	-37.867573
74	0x4019beab	2.4022624
75	0x420be37d	34.972157
76	0x420de50f	35.47369
77	0xbfaeac13	-1.3646263
78	0x4191d75f	18.230162
79	0xc11c9b92	-9.787981
80	0x41bfedb6	23.99107
81	0x41d43160	26.524109
82	0x40a59886	5.1748686
83	0xc14764fe	-12.462156
84	0xc0b15f53	-5.5428863
85	0xc1358f99	-11.347558
86	0x41b3b812	22.464878
87	0x40a0c6a9	5.0242505
88	0x41348ba6	11.284094
89	0x41199301	9.59839
90	0xc16eeeb0	-14.933273
91	0x41f79fe1	30.953066
92	0x418be4fe	17.486813
93	0x411dd375	9.864125
94	0x420db1eb	35.423748
95	0x420d408b	35.31303
96	0x40b80dd3	5.7516875
97	0xc18734a8	-16.900711
98	0x4218205d	38.031605
99	0xbe1c4b9c	-0.15263218

model/batch_normalization_3/batchnorm/mul_1;model/batch_normalization_3/batchnorm/add_1;model/dense_4/MatMul;model/activation_4/Relu;model/dense_4/BiasAdd f4 [100, 100]
0	0xbe1411a7	-0.14459859
1	0xba2d1d42	-0.0006603786
2	0x3c6fe616	0.014642259
3	0xbe45b06f	-0.19305585
4	0xbe4089e6	-0.18802604
5	0x3dc05911	0.09391988
6	0x3d0813a5	0.03322186
7	0xbc0632f4	-0.008190859
8	0xbe235930	-0.15951991
9	0x3d92069a	0.071301654
10	0xbcfbe308	-0.030747905
11	0x3dc0bf94	0.09411541
12	0xbd2ba839	-0.041908477
13	0x3d4ba488	0.049717456
14	0x3d944c44	0.07241109
15	0x3e07c9b0	0.13260531
16	0xbd7c363f	-0.06157517
17	0xbdb95604	-0.09049609
18	0xbd7809ea	-0.06055633
19	0xbcc1c528	-0.023653582
20	0x3cfa8203	0.030579573
21	0x3ee99a7b	0.45625672
22	0x3f107523	0.56428736
23	0x3e0a1634	0.13485032
24	0xbdae3136	-0.0850548
25	0x3ce67749	0.028133051
26	0x3e23b80b	0.15988176
27	0x3c68216f	0.014168127
28	0xbe9ce1b8	-0.3064096
29	0x3bdaa90d	0.0066729845
30	0xbd6f5b47	-0.05843666
31	0xbe97ca95	-0.29646745
32	0xbbdff05d	-0.0068340735
33	0xbda627be	-0.08113049
34	0xbd0393af	-0.032123264
35	0x3da76638	0.081737936
36	0x3e67862f	0.2260978
37	0xbdf7c882	-0.12098791
38	0xbe28ec02	-0.1649628
39	0x3c9a4f1e	0.018836554
40	0xbe8567b6	-0.26055688
41	0x3c8aa87e	0.016926046
42	0x3c41c1c2	0.011825981
43	0xbae0f807	-0.0017163762
44	0x3e00fd65	0.12596662
45	0x3d94e908	0.0727101
46	0x3d5daa73	0.05411763
47	0xbbc57525	-0.0060259276
48	0x3e84cfe4	0.25939858
49	0xbd044188	-0.032289058
50	0x3dd229b0	0.102618575
51	0xbe1af20d	-0.15131398
52	0x3e9b853b	0.30375084
53	0x3cc5d3aa	0.02414878
54	0x3d278eba	0.0409076
55	0x3d0faebb	0.035078745
56	0xbdcf48a1	-0.10121275
57	0x3dd26bce	0.10274468
58	0x3d2d0694	0.0422426
59	0x3e50b8da	0.20383015
60	0xbe7e2ac8	-0.24821007
61	0xbb28936b	-0.0025722634
62	0x3d793d1c	0.060849294
63	0x3d6301c7	0.055421617
64	0xbd80822c	-0.06274828
65	0x3ccd3048	0.025047436
66	0x3dca505c	0.098786086
67	0x3b3b8e70	0.0028618835
68	0x3d50f047	0.051010396
69	0x3d40bee7	0.04705706
70	0x3bae9714	0.0053280685
71	0x3d0aa20b	0.033845942
72	0x3e44be95	0.19213326
73	0xbce809ca	-0.02832498
74	0xbd25e4d8	-0.040501446
75	0xbe568370	-0.20948577
76	0xbe332a56	-0.17496619
77	0xbd097bfb	-0.033565503
78	0xbc2271cd	-0.0099148275
79	0x3cb30d72	0.021856997
80	0x3df6e07b	0.12054535
81	0xbd01c3e3	-0.031680953
82	0x3dbf34f9	0.093362756
83	0xbda96ef0	-0.08273113
84	0x3e00596e	0.12534115
85	0x3cf40f27	0.029792381
86	0xbdb36797	-0.087599926
87	0x3e0a92ab	0.13532512
88	0xbc5e2449	-0.013558456
89	0xbc72020f	-0.014770999
90	0xbcbb85b4	-0.022890903
91	0x3d928f02	0.07156183
92	0x3e2f0dec	0.17095155
93	0xbc9107a4	-0.017703839
94	0xbeb22c57	-0.34799454
95	0x3cf9e4c7	0.030504597
96	0x3e81c81a	0.25347978
97	0x3df28aef	0.11842906
98	0x3cbab3e7	0.022790862
99	0x3dbd605f	0.09246897
100	0x3e0fc86a	0.14041296
101	0x3d0cb10c	0.034348533
102	0x3b3c9045	0.0028772515
103	0x3dd64e90	0.10464203
104	0xbd8d7f57	-0.06909054
105	0xbcbeec65	-0.023306081
106	0x3d82f210	0.06393826
107	0x3e7aebf9	0.24504079
108	0xbe94d3aa	-0.29067737
109	0x3c4d2d05	0.0125229405
110	0xbdc7d73c	-0.097578496
111	0x3e3c9218	0.18415105
112	0xbdac1ef4	-0.08404341
113	0xbd035f96	-0.03207358
114	0x3d79e8f3	0.061013173
115	0x3d9cef5d	0.076628424
116	0x3c70fdb4	0.014708925
117	0x3d90efa1	0.070769556
118	0x3dc04a2a	0.09389146
119	0xbf02024f	-0.5078477
120	0xbd151ae4	-0.036402598
121	0xbdae5e1e	-0.08514045
122	0xbb65c17d	-0.0035057955
123	0x3e1befb7	0.15228163
124	0xbdf7627f	-0.120793335
125	0x3d9b8fa5	0.075957574
126	0xbdf1598a	-0.11784656
127	0x3d1ad0b0	0.037796676
128	0xbd6bd9d9	-0.057580803
129	0x3e29dfd6	0.16589293
130	0x3d234452	0.039860077
131	0xbdf32fd6	-0.11874358
132	0xbbca5d4c	-0.0061756726
133	0xbd586f4d	-0.05284052
134	0x3e3cd646	0.18441114
135	0x3ab7805e	0.0014000048
136	0x3e0bee5e	0.13665149
137	0x3c4ae98d	0.012384784
138	0xbc868358	-0.016420051
139	0x3d7de267	0.061983492
140	0x3db62208	0.0889321
141	0xbe3911ff	-0.18073271
142	0x3d4b4a9d	0.049631704
143	0xbdb299f6	-0.08720772
144	0x3dce1e1c	0.10064337
145	0x3c1e5b06	0.009665256
146	0x3da245f7	0.07923501
147	0xbdbce33d	-0.0922303
148	0xbe08505b	-0.13311903
149	0x3c930098	0.017944619
150	0x3c85534e	0.016275074
151	0x3d0b21a3	0.033967625
152	0xbe21c2aa	-0.15796915
153	0x3dff6fc4	0.124724895
154	0x3d2edd2d	0.0426914
155	0x3b96b05a	0.0045986595
156	0xbe32a8cf	-0.17447208
157	0xbd276014	-0.04086311
158	0x3a93e532	0.0011283515
159	0xbe78b4b8	-0.24287689
160	0x3ded23c6	0.11579089
161	0x3a159110	0.0005705515
162	0xbde60473	-0.11231317
163	0x3d84e973	0.064898394
164	0x3df261de	0.11835073
165	0xbdfac4b6	-0.12244551
166	0xbd26bec6	-0.04070928
167	0xbd8d42ca	-0.06897505
168	0x3e4ee96e	0.20206234
169	0x3e485cea	0.19566694
170	0xbb2480fb	-0.0025101292
171	0xbf0b06ef	-0.54307455
172	0xbe564d15	-0.20927842
173	0x3decdd02	0.115655914
174	0x3993de7c	0.0002820379
175	0xbd842acc	-0.06453475
176	0xbdc011fd	-0.09378431
177	0x3e831ead	0.2560934
178	0x3d7e1c87	0.062038925
179	0xbb9eae92	-0.0048425877
180	0xbe0ed1d1	-0.13947226
181	0x3c25dd03	0.010123494
182	0xbe5a20fd	-0.21301647
183	0xbe028a4b	-0.12748067
184	0xbe0ecc62	-0.13945153
185	0xbe598483	-0.21241955
186	0x3db79d1f	0.08965515
187	0xbf46d17e	-0.7766341
188	0xbd627775	-0.055289704
189	0x3c9652ee	0.01835009
190	0x3d0ca9ef	0.03434175
191	0xbe38f4ed	-0.18062182
192	0xbe144a0d	-0.14481373
193	0xbd33a049	-0.04385403
194	0x3c97c2d8	0.018525526
195	0x3d81e9f9	0.06343455
196	0x3ed86d1a	0.42270738
197	0x3e21fc98	0.15819013
198	0xbcd65187	-0.026161922
199	0x3de85182	0.113436714
200	0xbdc98511	-0.098398335
201	0x3e15ddfc	0.14635462
202	0x3e8b6fe7	0.27233812
203	0x3e6838d2	0.22677925
204	0x3ddeac62	0.10872723
205	0xbd8b2969	-0.06795008
206	0xbc85553e	-0.016275998
207	0x3e00a526	0.12562999
208	0xba908ec1	-0.0011028872
209	0xbd3a647f	-0.045505997
210	0xbe6d9f23	-0.23205237
211	0x3eb61c87	0.3556864
212	0x3d464ede	0.048415057
213	0x3cf3e2db	0.029771259
214	0x3c63aec2	0.013896646
215	0x3cb9e4df	0.022692142
216	0x3e3ebfdc	0.18627876
217	0x3e10575e	0.14095828
218	0xbd638afc	-0.055552468
219	0x3e136824	0.14395195
220	0x3cfbbf15	0.030730763
221	0xbdaa8e5c	-0.08327934
222	0xbd81b417	-0.063331775
223	0xbb9af690	-0.0047290996
224	0xbddf6014	-0.10906997
225	0xbe31e1ce	-0.17371294
226	0x3e718778	0.23586833
227	0xbdd022a1	-0.10162855
228	0x3c899bfc	0.016798012
229	0x3e7946fc	0.24343485
230	0x3c8b33ca	0.016992468
231	0x3c1b1ff7	0.00946807
232	0xbda108c3	-0.07862999
233	0x3cff495d	0.031162912
234	0x3d350811	0.044197146
235	0xbe31f18d	-0.173773
236	0x3c79d806	0.015249258
237	0x3c1d268f	0.009591713
238	0xbdafb374	-0.0857915
239	0xbdf1d4b4	-0.11808148
240	0xbd615bfd	-0.055019367
241	0xbd53410e	-0.051575713
242	0xbe055f17	-0.13024555
243	0xbc29d762	-0.010366293
244	0xbd82489f	-0.063615076
245	0x3ae8feba	0.001777611
246	0x3d002475	0.031284768
247	0x3d8c625d	0.06854699
248	0x3e322588	0.1739713
249	0xbdbe26e5	-0.09284762
250	0x3d05f238	0.0327017
251	0xbf21099d	-0.62905294
252	0x3dd6517f	0.10464763
253	0x3dd4eea7	0.10397082
254	0x3c0dff36	0.008666804
255	0x3c81009e	0.015747365

model/dense_5/MatMul;model/activation_5/Relu;model/dense_5/BiasAdd f4 [100]
0	0xbf2ede70	-0.6830816
1	0x421c3f77	39.061977
2	0xc165e8d4	-14.369343
3	0x4095edba	4.6852694
4	0x419935b2	19.151218
5	0xc15e3958	-13.889
6	0x42297fb1	42.3747
7	0x4173a471	15.227647
8	0xc08023f3	-4.0043883
9	0x400d686a	2.209498
10	0x41ed1775	29.636454
11	0xc06f6ce0	-3.7410202
12	0x3fc1c925	1.513951
13	0x420c9a52	35.150703
14	0xc1a427eb	-20.519491
15	0x418519cc	16.637596
16	0xc1491919	-12.568627
17	0x406fd0a9	3.7471106
18	0x41503c80	13.0147705
19	0xc104dcf7	-8.3039465
20	0x426acbcb	58.699017
21	0xc1c64182	-24.781986
22	0x41c1d182	24.227299
23	0x4208f3b0	34.237976
24	0x41f62e68	30.77266
25	0x412e0d09	10.878182
26	0xc11454c8	-9.270699
27	0x401622f2	2.345883
28	0x40d03200	6.5061035
29	0x41cb32a5	25.399729
30	0xc1886f3d	-17.054316
31	0x40c6d063	6.212938
32	0xc108c5da	-8.548304
33	0xc14d0fd5	-12.816365
34	0x411a20e0	9.633026
35	0x41d26c7c	26.30297
36	0x41228de7	10.159644
37	0x41e4ae8f	28.585234
38	0x411f675f	9.962737
39	0xc2070297	-33.75253
40	0x41c05a79	24.044176
41	0xc1ebb493	-29.463171
42	0x41730f0f	15.191176
43	0x41606470	14.024521
44	0x41472c1d	12.44827
45	0xc1b087e2	-22.066349
46	0x4154e178	13.305046
47	0x410d281f	8.822295
48	0xc20a16f7	-34.522427
49	0x41a0cf57	20.10124
50	0x3f4ef0a7	0.80835956
51	0x4191a53c	18.20568
52	0xc202e5c7	-32.724392
53	0xc0e1312a	-7.0372515
54	0x4126ad38	10.41729
55	0xc0942ebe	-4.630706
56	0x401cca51	2.4498484
57	0x414f82d1	12.969438
58	0x410f5f00	8.960693
59	0x41eb8323	29.439032
60	0x4195a7f6	18.707012
61	0x3f30ca7e	0.6905898
62	0x41a9665b	21.174978
63	0x41e98beb	29.19332
64	0xbe776e6b	-0.24163215
65	0x41996297	19.17314
66	0x41030c1a	8.1904545
67	0xc16de017	-14.867209
68	0xc140b8f9	-12.045159
69	0x412311b2	10.19182
70	0xc1dae31a	-27.36089
71	0x415f2b3f	13.948058
72	0x4220462a	40.06852
73	0x41846eb2	16.55405
74	0xc0fae53e	-7.8404837
75	0x40648388	3.570528
76	0x403734dc	2.8626013
77	0xc1864e62	-16.788273
78	0xbfcd1565	-1.6022154
79	0xc24717b2	-49.77314
80	0x425ef008	55.734406
81	0xc1261bb0	-10.38176
82	0x41e7fe79	28.999254
83	0x41bdc88b	23.722921
84	0x40739098	3.8057003
85	0x413c3686	11.763311
86	0xc0fc1839	-7.877957
87	0x41b45da8	22.54573
88	0xc195b850	-18.714996
89	0xc0f6803a	-7.7031527
90	0xc14522f6	-12.321035
91	0x411f390d	9.951428
92	0xc0613653	-3.5189407
93	0xc0ce08e9	-6.4385877
94	0x3e373754	0.178922
95	0x4107e738	8.49395
96	0x4195b637	18.713972
97	0x417bfed5	15.749715
98	0x41900379	18.001696
99	0x3ed95c69	0.42453316

model/batch_normalization_4/batchnorm/mul_1;model/batch_normalization_4/batchnorm/add_1;model/dense_5/MatMul;model/activation_5/Relu;model/dense_5/BiasAdd f4 [100, 100]
0	0x3c7ac57c	0.015305873
1	0xbc6ea212	-0.014565008
2	0x3c187132	0.009304332
3	0x3e2d24d1	0.16908576
4	0x3d18fdbc	0.037351355
5	0x3ef09210	0.46986437
6	0x3dc6f7e8	0.09715253
7	0x3d9cc3ff	0.07654571
8	0x3e75b94c	0.23996466
9	0xbe8534de	-0.26016897
10	0xbed4a362	-0.415309
11	0xbe91d761	-0.28484634
12	0x3d118f46	0.035537027
13	0xbd3caa6a	-0.046060957
14	0x39a6ac52	0.00031790376
15	0x3e75403e	0.23950288
16	0xbe975ebc	-0.29564464
17	0xbd1ef81a	-0.038810827
18	0x3c4330eb	0.011913518
19	0xbde9aa5d	-0.11409447
20	0x3e3e3804	0.18576056
21	0x3c11b4ba	0.008893186
22	0xbd938e93	-0.07204928
23	0xbd9e57ac	-0.07731566
24	0x3c0c4aac	0.008562725
25	0x3d057475	0.032581765
26	0xbd2ce5d4	-0.04221137
27	0xbbc27d25	-0.0059353285
28	0x3e4b6a3a	0.19864741
29	0x3dac2a83	0.08406546
30	0xbd61ed46	-0.055157922
31	0xbe977c29	-0.29586914
32	0xbce9c0c1	-0.028534295
33	0xbcada857	-0.021198435
34	0xbe56aec6	-0.20965108
35	0xbec91884	-0.39276516
36	0xbdda57fd	-0.10661314
37	0xbdb38e8f	-0.08767425
38	0x3d131d3f	0.035916563
39	0x3c8e24c0	0.017351508
40	0x3e03a4bc	0.1285581
41	0x3e22ab38	0.15885627
42	0xbd9aa621	-0.07551218
43	0xbd8d7fb6	-0.069091246
44	0xbd53f789	-0.05174974
45	0x3dbe2ef8	0.09286302
46	0xbdfbb2c2	-0.12289955
47	0x3dc7291b	0.09724637
48	0x3d6d56b7	0.057944026
49	0x3eca92ee	0.39565223
50	0x3d83ca1e	0.06435035
51	0x3b4421c8	0.0029927362
52	0x3db5a2fb	0.08868977
53	0x3c5860ab	0.013206641
54	0xbbbdf84b	-0.005797421
55	0x3df2dbb8	0.11858314
56	0xbddec971	-0.10878266
57	0xbe83f237	-0.25770733
58	0xbe724e92	-0.23662785
59	0x3cdbe5aa	0.02684291
60	0x3dd80041	0.105469234
61	0xb94d1ad7	-0.00019560322
62	0x3aa6e6da	0.0012733594
63	0x3dd81f9d	0.10552905
64	0x3e2e8261	0.17041923
65	0x3d3a2b5d	0.04545151
66	0xbe701b2f	-0.2344787
67	0x3cf116a0	0.029429734
68	0xbddb1da1	-0.10699011
69	0xbe45c432	-0.19313124
70	0x3d1c7002	0.038192756
71	0xbdd05859	-0.10173101
72	0xbd499108	-0.04921058
73	0xbdc86250	-0.097843766
74	0x3c843e43	0.01614297
75	0xbd8613f4	-0.065467745
76	0xbb2cffe9	-0.0026397652
77	0x3db2f47f	0.0873804
78	0x3ed01e0f	0.40647933
79	0x3e1a8d91	0.15093066
80	0xbe15bfbf	-0.14623927
81	0xbda17881	-0.078843124
82	0xbe41d4b1	-0.18928792
83	0x3ea21eee	0.31664222
84	0xbd559945	-0.052148122
85	0x3d92b8f7	0.071641855
86	0x3cac63de	0.021043714
87	0x3d961be1	0.07329536
88	0xbe0fe435	-0.14051898
89	0xbe13ba77	-0.144266
90	0xbe8026f8	-0.2502973
91	0x3d09785d	0.033562053
92	0x3e200456	0.15626654
93	0xbc2e08bb	-0.010622199
94	0x3e301ea2	0.17199185
95	0x3d0bf3b2	0.034167953
96	0x3ca530c2	0.020164851
97	0xbeddb477	-0.43301746
98	0x3d8fd724	0.07023457
99	0xbd9a0c40	-0.07521868
100	0x3d2bf84d	0.041984845
101	0x3d44793a	0.047967173
102	0xbdc371a3	-0.09543159
103	0xbf148d7c	-0.5802839
104	0xbc83a32b	-0.016069015
105	0x3e8032b8	0.25038695
106	0x3d1ba993	0.038003515
107	0xbdb5282c	-0.08845553
108	0x3a0cc144	0.0005369375
109	0x3e9821a8	0.29713178
110	0xbef71e1e	-0.48265165
111	0xbf0b4579	-0.5440288
112	0xbd4d558a	-0.050130405
113	0x3dcd9de8	0.10039884
114	0x3e731852	0.23739746
115	0xbe03f925	-0.1288801
116	0xbed41e88	-0.41429543
117	0xbf0b267d	-0.54355603
118	0x3dba1aac	0.090871185
119	0xbc2c3dc1	-0.01051277
120	0xbe5c799e	-0.21530768
121	0xbe7bf97b	-0.24606888
122	0xbc6589ca	-0.014009902
123	0x3d8207da	0.06349154
124	0xbd81e516	-0.06342523
125	0xbd8605dd	-0.06544087
126	0x3d3b0f45	0.04566886
127	0xbdad8fd6	-0.084747
128	0xbd4efa84	-0.05053188
129	0xbdcd824d	-0.100346185
130	0xbdef9e5c	-0.117001265
131	0xbceab772	-0.028651927
132	0x3da4fdbd	0.08056209
133	0x3db2e059	0.08734197
134	0xbd0a4a9d	-0.033762563
135	0xbecf59b5	-0.4049813
136	0xbe764be6	-0.2405239
137	0x3d270ff7	0.04078671
138	0x3e05f85e	0.13083026
139	0xbd8e106f	-0.06936728
140	0x3d85a14d	0.06524906
141	0xbe02dbcb	-0.12779157
142	0x3c8e9d1e	0.017408904
143	0xbc2435d2	-0.010022597
144	0x3d538b16	0.051646315
145	0xbf5ee53c	-0.87068534
146	0x3dc98124	0.09839085
147	0xbe7f8b54	-0.24955493
148	0xbccc441d	-0.024934823
149	0x3c344f5d	0.01100525
150	0x3e028b72	0.12748507
151	0xbcf76d50	-0.030203491
152	0xbdacea00	-0.084430695
153	0xbd83452a	-0.064096764
154	0xbd8dcbcc	-0.06923637
155	0x3d06886c	0.032844946
156	0x3bc3b2a5	0.005972224
157	0xbd3de044	-0.046356454
158	0xbe0950b1	-0.13409688
159	0xbd378e24	-0.04481329
160	0xbd41a31d	-0.047274698
161	0xbb87a3b7	-0.0041393894
162	0x3c181445	0.009282176
163	0xbe09b13f	-0.1344652
164	0xbc8c0eb3	-0.017096853
165	0xbdf14fda	-0.117828086
166	0xbce7ac34	-0.028280355
167	0xbd5e4e64	-0.054273978
168	0xbd6ec94d	-0.058297444
169	0x3d295514	0.041340902
170	0xbf253436	-0.6453279
171	0xbd82b242	-0.06381656
172	0xbd4caf34	-0.049971774
173	0xbca5f2bf	-0.020257352
174	0xbe2332f3	-0.15937404
175	0x3b429a73	0.002969411
176	0xbd4975f2	-0.049184747
177	0xbe378764	-0.17922741
178	0xbe5fde71	-0.21862198
179	0x3d7062c5	0.058687944
180	0x3d94c48d	0.072640516
181	0xbd56c3b9	-0.05243275
182	0x3ba7c09c	0.0051193964
183	0x3d23b995	0.039971907
184	0xbefae0f2	-0.48999745
185	0x3c8b8c6d	0.017034734
186	0x3dd977a5	0.106185235
187	0xbd499dd9	-0.0492228
188	0x3e115a73	0.1419466
189	0x3dd84b1f	0.10561203
190	0xbcd8b248	-0.026452199
191	0xbe8d71cc	-0.27625883
192	0xbda0c480	-0.078499794
193	0xbd4c8b7b	-0.049937706
194	0xbc7c1919	-0.015386843
195	0xbe0ef591	-0.13960864
196	0xbddebd5c	-0.10875961
197	0xbe62c10d	-0.22143956
198	0xbe0e2f26	-0.13885173
199	0xbeae6182	-0.34058768
200	0x3de3357a	0.11094184
201	0x3d9efb9d	0.07762835
202	0x3ca8edc4	0.020621188
203	0x3d955308	0.072912276
204	0xbc8354fb	-0.016031733
205	0xbe9b4ddf	-0.30332848
206	0xbd4db318	-0.050219625
207	0x3e0d0fb4	0.13775522
208	0x3d888b2f	0.06667172
209	0xbce55123	-0.02799279
210	0x3db29a3f	0.08720826
211	0xbd656dc2	-0.056012876
212	0x3d5318b5	0.051537234
213	0xbe8f0dd6	-0.27940243
214	0x3db998eb	0.0906237
215	0x3d18b544	0.037282243
216	0x3d25b865	0.040459055
217	0xbe352311	-0.17689158
218	0xbe419270	-0.18903518
219	0x3e69f799	0.22848357
220	0xbd8346d6	-0.06409995
221	0x3e19cd52	0.1501973
222	0x3d5d8271	0.054079477
223	0x3d0c0c36	0.034191333
224	0xbdc9e414	-0.098579556
225	0xbd549851	-0.051903073
226	0x3bc8aa27	0.0061237994
227	0xbd449c6f	-0.04800075
228	0x3e86391a	0.2621544
229	0xbc9602bc	-0.01831185
230	0x3ad70b6f	0.0016406606
231	0x3d794ef5	0.060866315
232	0x3c6cf435	0.01446252
233	0xbd2bee44	-0.041975275
234	0x3d57cb24	0.052683964
235	0x3d88dcf1	0.06682766
236	0x3dc06ea5	0.09396104
237	0xbdf3318f	-0.11874687
238	0x3d344c94	0.044018343
239	0x3da350e5	0.07974414
240	0x3d411807	0.047142055
241	0xbd8d2e50	-0.06893599
242	0xba69f014	-0.0008924019
243	0xbe0f4f19	-0.13995017
244	0x3c4a89a2	0.012361916
245	0x3c322a39	0.0108743245
246	0xbbd2ebca	-0.0064367997
247	0xbd9b86d4	-0.07594076
248	0xbda300aa	-0.07959111
249	0xbf41450e	-0.75495994
250	0x3f8a5162	1.0806086
251	0xbde15f0c	-0.11004457
252	0xbdf1f6c9	-0.11814649
253	0x3dcf6714	0.101270825
254	0xbdfd7eb0	-0.12377679
255	0xbd0cf779	-0.034415696

model/dense_6/MatMul;model/activation_6/Relu;model/dense_6/BiasAdd f4 [100]
0	0xc10ea19a	-8.9144535
1	0x40604df3	3.5047576
2	0x4124c12b	10.29716
3	0xc03ffc11	-2.99976
4	0x41f4d051	30.601717
5	0xc0c8c4a4	-6.274004
6	0x41630481	14.1886
7	0x418c37a5	17.52717
8	0xc130f448	-11.059639
9	0x418ca523	17.580633
10	0x41fb4091	31.406527
11	0x408e3079	4.443417
12	0x4120e5ca	10.056101
13	0x41de09b3	27.754736
14	0x3f106a7f	0.564125
15	0xc10d69ff	-8.838378
16	0x41dbf3a0	27.493958
17	0x3f856aec	1.0423255
18	0x41f1ac7b	30.209219
19	0x410c70c0	8.777527
20	0x424d9d7d	51.403797
21	0x418f4b9c	17.911919
22	0xc10d92e1	-8.848359
23	0xc1bc037c	-23.501701
24	0x40c8b806	6.272464
25	0x417c816b	15.781596
26	0xbfbca48e	-1.4737718
27	0x419d5a90	19.66922
28	0x41c9ad69	25.209673
29	0xc0251a67	-2.5797365
30	0xc08f9710	-4.4871902
31	0x407482ad	3.8204758
32	0x414d3dba	12.82757
33	0xbfd8aede	-1.6928365
34	0xc0058c0b	-2.0866725
35	0x4229a41a	42.410255
36	0xc1eb234d	-29.392237
37	0x41be8ae3	23.817816
38	0xbf3f03a2	-0.7461492
39	0x4153c4ad	13.235517
40	0x41bd1c27	23.638746
41	0xbeaa3eda	-0.33251077
42	0x41d4c20d	26.594751
43	0xc1b30431	-22.377047
44	0x41a598c3	20.69959
45	0x40c52075	6.160212
46	0xc1dc8109	-27.563005
47	0x40d3a22d	6.613547
48	0x41276838	10.462944
49	0x4009584a	2.1460137
50	0xbf8186b0	-1.0119228
51	0xc1b799c4	-22.95008
52	0xbeb9778d	-0.36224023
53	0x413e6dad	11.901776
54	0x4107d057	8.488364
55	0x41b1362f	22.151457
56	0x41cc2615	25.518595
57	0xc14e3152	-12.887041
58	0x416cfa00	14.811035
59	0x41f76258	30.92302
60	0x411ce198	9.805077
61	0xc1847dda	-16.561451
62	0xc09f7efb	-4.9842505
63	0x40ccf2b0	6.404625
64	0xc0964fb8	-4.6972313
65	0x418864ab	17.049154
66	0x421b2943	38.790295
67	0x3f917a75	1.1365496
68	0xc1572b27	-13.448035
69	0x413bc022	11.734407
70	0x41dc3396	27.525188
71	0x406e7829	3.726084
72	0xc08b3aaf	-4.3509135
73	0xc02e0fa2	-2.7197042
74	0x40e9dbe4	7.308092
75	0xbf0a616f	-0.5405492
76	0xc196d981	-18.856203
77	0x419cec22	19.6153
78	0xc138d7d3	-11.552691
79	0xc07f103c	-3.9853659
80	0xbfeaa52d	-1.8331658
81	0x402c1f0a	2.6893945
82	0xc13bef3b	-11.745906
83	0x41a81aef	21.013151
84	0x419ca7aa	19.581867
85	0x41364619	11.392114
86	0x4155c62e	13.360884
87	0x40388ed2	2.883717
88	0xc11b9100	-9.7229
89	0xc045a0a6	-3.0879302
90	0x41693453	14.575274
91	0xc15cc04e	-13.796949
92	0x413129ba	11.072687
93	0x41742f61	15.261567
94	0xbf24d3a0	-0.64385414
95	0x3ffe9936	1.9890506
96	0x41ed1bb4	29.638527
97	0xc097378d	-4.725531
98	0xc1aeaeeb	-21.83541
99	0xc04866ea	-3.1312814
