corintho_ai/python/tflite_models/model_37.tflite (tflite, 521576 bytes, 27 tensors)

model/dense_1/MatMul;model/activation_1/Relu;model/dense_1/BiasAdd f4 [100]
-30.633488 91.551506 -41.729767 -0.49821764 51.18197 26.115973 53.74423 -26.97762
-38.97506 4.1679173 0.24380092 -37.340588 6.9839025 -23.631973 -4.6327343 -54.15018
13.803156 -2.2261775 -8.496581 2.2747405 9.616571 -0.5995009 10.539853 -42.893623
53.664104 -1.4896411 -16.147377 -9.101097 -32.841774 27.732738 -23.853273 -1.6165081
21.651802 -27.445377 52.82529 32.110935 12.524065 -27.75578 6.2461925 30.371529
51.120052 -10.82454 -31.794914 -4.4821844 9.546458 -14.246067 11.040564 -22.909153
-4.4382744 -13.088693 15.386223 -38.032955 7.2851396 107.66212 -5.024564 27.155811
10.119441 -10.7894535 20.943596 -16.555786 13.160613 53.97362 1.1624123 21.389822
40.701572 55.362087 84.053986 12.657586 -13.669213 -52.167946 -12.6410475 -10.257528
10.967635 58.76033 -4.590118 52.66492 -3.588333 3.4142635 -71.692764 -2.3802826
7.0910645 36.458775 1.8292912 -17.241085 -24.993727 45.095844 9.547113 -13.079354
54.155983 35.538414 72.48864 11.853455 52.99254 6.8850937 -0.5257934 4.874277
101.50802 19.459349 9.144364 -72.38774
00000000: 6211 f5c1 5f1a b742 48eb 26c2 6216 ffbe
00000010: 56ba 4c42 83ed d041 17fa 5642 2ad2 d7c1
00000020: 76e6 1bc2 945f 8540 f3a6 793e c35c 15c2
00000030: 217c df40 480e bdc1 5c3f 94c0 c999 58c2
00000040: bad9 5c41 b179 0ec0 fff1 07c1 5995 1140
00000050: 7add 1941 e478 19bf 3da3 2841 1293 2bc2
00000060: 0ba8 5642 8fac bebf d42d 81c1 189e 11c1
00000070: fa5d 03c2 a6dc dd41 81d3 bec1 bde9 cebf
00000080: e436 ad41 2290 dbc1 194d 5342 9971 0042
00000090: 9262 4841 d60b dec1 cfe0 c740 e4f8 f241
000000a0: ef7a 4c42 5131 2dc1 fc5b fec1 0e6e 8fc0
000000b0: 4bbe 1841 e4ef 63c1 26a6 3041 f245 b7c1
000000c0: 5806 8ec0 496b 51c1 f82d 7641 bf21 18c2
000000d0: dd1f e940 0153 d742 3ac9 a0c0 1a3f d941
000000e0: 3be9 2141 9aa1 2cc1 7c8c a741 4072 84c1
000000f0: df91 5241 fde4 5742 edc9 943f 5b1e ab41
00000100: 69ce 2242 c772 5d42 a41b a842 7985 4a41
00000110: 19b5 5ac1 faab 50c2 bb41 4ac1 d61e 24c1
00000120: 6f7b 2f41 940a 6b42 3fe2 92c0 e1a8 5242
00000130: 3fa7 65c0 4b83 5a40 b262 8fc2 8d56 18c0
00000140: 00ea e240 c9d5 1142 3726 ea3f beed 89c1
00000150: 27f3 c7c1 2562 3442 fac0 1841 0945 51c1
00000160: ba9f 5842 5627 0e42 2ffa 9042 c0a7 3d41
00000170: 5cf8 5342 b052 dc40 659a 06bf 14fa 9b40
00000180: 1b04 cb42 bfac 9b41 514f 1241 86c6 90c2

model/batch_normalization/batchnorm/mul_1;model/batch_normalization/batchnorm/add_1;model/dense_1/MatMul;model/activation_1/Relu;model/dense_1/BiasAdd f4 [100, 100]
0.19217634 -0.5867113 0.5091852 0.17210405 1.4018134 0.3508402 -0.8414641 -0.6138489
0.11292949 0.6103368 0.5305492 0.36640987 0.40734425 0.087429665 -0.53986216 -0.048429042
0.21596353 -1.3063834 0.19905818 -0.31143877 0.21713364 4.3472714 0.051583376 0.04891143
-0.09328105 0.11135449 0.17227335 -0.4717222 0.22267683 -0.18461236 -0.07643759 0.5871845
0.064570576 -0.36168355 -0.25704238 -0.0932984 -0.109792486 -0.1670472 0.012416602 0.16672081
0.62570494 1.037873 0.42151496 0.17820564 -0.23502809 -0.12225605 0.18879859 -0.010983657
0.65211433 -0.031654723 -0.058052626 -1.7074603 0.5714964 3.9721596 0.2725321 -0.022926394
-0.279881 0.46893397 1.5526036 0.5053858 0.33865795 -0.09385121 0.18300325 -0.8647354
0.4202356 -0.3322694 -0.19710825 0.3028579 -0.16997287 0.7385687 0.55966914 -0.060665738
-0.10490903 0.07244631 0.68614626 -0.2949925 -0.35986012 -0.049336486 -0.1125184 0.3231697
-0.46698448 0.31454754 -0.37969214 -0.122826844 -0.402603 0.0077262414 -0.13134128 -0.30504104
-0.22116068 -0.17150372 -0.9126664 0.9214749 0.17157184 -0.4686533 -0.008836306 0.16249673
0.35463026 -0.15191211 -0.32497114 -0.15899524 -0.8262791 -0.9389536 -0.24185064 0.10055814
-1.1172993 1.8664092 0.25191513 0.15299644 0.05706558 -0.28901634 0.43960002 0.10253768
-1.026781 -0.14476074 -0.27055147 -0.66420037 -0.011809834 -1.4616472 -0.6521597 -0.0112536065
-0.52733415 -1.2099977 0.015379765 -0.07222674 -0.12035156 0.109367564 -0.45231584 0.10648666
-0.2768775 0.1698631 0.02344317 0.33297908 0.09481605 -0.008201343 -0.22681674 0.48565844
-0.3617334 -1.7002213 -0.640085 -0.6977947 0.06281965 -0.25695765 -0.9465877 -0.24439332
-0.24247126 -0.97627366 0.17744553 0.088972494 -0.16191229 0.3873467 -0.075376324 2.463666
-0.6195892 0.6497641 0.2356921 -0.19677733 -0.35001588 0.8319659 0.23449376 0.3029326
0.16464938 0.44402018 0.14028741 -0.8793099 -0.84755075 -0.45388415 0.14770131 0.954661
-0.1401335 -0.12741208 -0.15546763 0.451777 -0.08334686 0.14329484 -0.21821457 -0.032306816
-0.43966913 -0.40638694 0.6862037 0.06746105 0.06050803 -0.731432 0.31351304 0.30530474
-0.06721562 0.08968429 0.08898577 0.38759127 0.39120954 -0.0012411473 -1.0506281 0.80601037
-0.23830287 -0.46931747 -0.6331608 -0.020957623 -0.18227004 -0.96814567 -0.7186351 -0.46629012
0.83270925 -0.5296217 0.026472481 0.07359401 0.7857624 -0.035125677 0.90233773 -1.1266241
-0.824188 -0.6028148 -0.22825062 1.5666045 0.058093727 0.15234065 -0.18849513 0.50601846
0.2895764 -0.34295115 -1.0986787 -0.3175506 -0.11191097 -1.836893 0.005521887 0.18486163
0.012450825 0.009899064 -0.33776572 0.37559327 0.7747683 0.82832277 0.80847967 0.6825023
0.035292145 0.39770144 0.99174786 0.0187174 0.00053328945 0.23548377 0.46095735 -0.71768683
0.18013306 0.014429773 0.971574 0.14251848 0.16088171 -1.1655755 0.75463873 -0.08726293
-1.4608159 -0.02476378 0.08344767 1.1178578 0.3661342 -0.06062666 0.08753232 0.1067818
00000000: e0c9 443e b632 16bf f659 023f 0b3c 303e
00000010: 9f6e b33f 54a1 b33e 316a 57bf 3425 1dbf
00000020: 9447 e73d 083f 1c3f 13d2 073f 139a bb3e
00000030: 6d8f d03e 530e b33d 6834 0abf 885d 46bd
00000040: 8b25 5d3e 9237 a7bf e8d5 4b3e e774 9fbe
00000050: 4858 5e3e d91c 8b40 1749 533d 5a57 483d
00000060: 230a bfbd d30d e43d 6d68 303e 9285 f1be
00000070: 6505 643e 060b 3dbe 508b 9cbd b951 163f
00000080: 943d 843d 962e b9be 0f9b 83be 3b13 bfbd
00000090: e2da e0bd 6c0e 2bbe 016f 4b3c dcb8 2a3e
000000a0: 332e 203f 06d9 843f cfd0 d73e 8a7b 363e
000000b0: 34ab 70be 6161 fabd 6b54 413e ccf4 33bc
000000c0: f7f0 263f 62a8 01bd 97c8 6dbd 0f8e dabf
000000d0: 974d 123f dd37 7e40 5489 8b3e 22d0 bbbc
000000e0: 904c 8fbe 1d18 f03e b7bb c63f f760 013f
000000f0: 9364 ad3e 1035 c0bd 3465 3b3e 4d5f 5dbf
00000100: 1f29 d73e 371f aabe bfd6 49be 3110 9b3e
00000110: 5e0d 2ebe d712 3d3f 7a46 0f3f a37c 78bd
00000120: 8cda d6bd bb5e 943d 48a7 2f3f 4209 97be
00000130: 963f b8be 0e15 4abd 0c70 e6bd 8076 a53e
00000140: 9718 efbe 600c a13e 0267 c2be a48c fbbd
00000150: fb21 cebe 692c fd3b 547e 06be 572e 9cbe
00000160: f277 62be ac9e 2fbe 81a4 69bf c7e5 6b3f
00000170: 87b0 2f3e 53f3 efbe 27c6 10bc 8b65 263e
00000180: 1992 b53e d98e 1bbe 9e62 a6be a6cf 22be
00000190: 0787 53bf 435f 70bf b2a7 77be 6df1 cd3d
000001a0: aa03 8fbf 7fe6 ee3f 05fb 803e 19ab 1c3e
000001b0: 99bd 693d f3f9 93be 4113 e13e 46ff d13d
000001c0: 8f6d 83bf 293c 14be b985 8abe 0909 2abf
000001d0: 097e 41bc 4117 bbbf f0f3 26bf 0c61 38bc
000001e0: 5fff 06bf 34e1 9abf 69fb 7b3c 9deb 93bd
000001f0: e17a f6bd 1afc df3d f195 e7be ae15 da3d
00000200: e3c2 8dbe 98f0 2d3e e40b c03c 3c7c aa3e
00000210: eb2e c23d ed5e 06bc a642 68be 39a8 f83e
00000220: 1f35 b9be daa0 d9bf 9cdc 23bf aca2 32bf
00000230: 97a7 803d f48f 83be 9253 72bf 3e42 7abe
00000240: 634a 78be 12ed 79bf 48b4 353e 3637 b63d
00000250: 56cc 25be 4f52 c63e e75e 9abd b4ac 1d40
00000260: 669d 1ebf f156 263f 4559 713e ff7f 49be
00000270: 4835 b3be b8fb 543f 221f 703e fb19 9b3e
00000280: d999 283e 9d56 e33e 81a7 0f3e 741a 61bf
00000290: 16f9 58bf 8163 e8be 033f 173e aa64 743f
000002a0: 287f 0fbe 5078 02be e832 1fbe 514f e73e
000002b0: c2b1 aabd e2bb 123e a473 5fbe 2754 04bd
000002c0: 501c e1be f311 d0be 0cab 2f3f 0529 8a3d
000002d0: 45d7 773d 213f 3bbf c884 a03e e750 9c3e
000002e0: 58a8 89bd 66ac b73d 2c3e b63d 5d72 c63e
000002f0: 9e4c c83e fead a2ba fb7a 86bf b256 4e3f
00000300: ab05 74be 614a f0be d416 22bf 52af abbc
00000310: ffa4 3abe 65d8 77bf 78f8 37bf 94bd eebe
00000320: 6f2c 553f 4a95 07bf d1dc d83c 75b8 963d
00000330: ba27 493f f1df 0fbd 9bff 663f 3835 90bf
00000340: fcfd 52bf 1252 1abf 88ba 69be 7f86 c83f
00000350: b0f3 6d3d 30ff 1b3e de04 41be 6d8a 013f
00000360: 5c43 943e 4b97 afbe 81a1 8cbf fe95 a2be
00000370: 9431 e5bd 4f1f ebbf f2f0 b43b 5e4c 3d3e
00000380: 8cfe 4b3c af2f 223c a1ef acbe c34d c03e
00000390: 3757 463f f60c 543f 86f8 4e3f 79b8 2e3f
000003a0: 7f8e 103d 869f cb3e 30e3 7d3f 3c55 993c
000003b0: 73cc 0b3a a822 713e 9a02 ec3e 53ba 37bf
000003c0: cd74 383e db6a 6c3c 13b9 783f 5df0 113e
000003d0: 2dbe 243e 9431 95bf 0130 413f e8b6 b2bd
000003e0: 04fc babf 69dd cabc 9de6 aa3d f715 8f3f
000003f0: f175 bb3e a953 78bd 2544 b33d 6bb0 da3d

model/dense_2/MatMul;model/activation_2/Relu;model/dense_2/BiasAdd f4 [100]
53.693596 -67.05162 1.1098293 -54.496918 -3.1256876 8.6382265 31.789387 32.27258
-15.082677 -2.2109144 -6.486091 -17.886213 3.1454172 12.398445 10.161315 -48.989674
-29.813742 -0.28616247 -0.20739973 8.998996 23.60137 4.32904 20.56568 18.703842
4.9206643 12.843228 -2.991929 40.133625 -15.245892 4.5906844 -6.5333557 5.8809834
31.619143 -17.095278 24.069279 -35.120953 62.03923 -34.037262 -27.373892 -22.616753
4.287647 -41.617172 -3.4486685 -19.646751 -17.53131 32.923847 -13.510638 -10.686561
-38.862743 15.501731 53.75515 50.862858 2.8597589 -5.815992 4.6878934 -11.238469
6.2538366 45.109024 24.709877 -24.027754 -2.809015 4.435491 -10.049134 91.13926
31.812914 10.797755 -41.22256 -22.570522 -8.185686 33.737976 -114.0233 19.216124
-44.48269 26.805758 -22.6707 -20.166355 16.082909 -21.877941 -27.997566 29.840172
43.445694 17.24316 24.827288 13.900474 -2.7571564 -38.774086 2.5711386 32.7109
28.410425 21.20705 -36.713688 6.6188364 1.5194759 7.802157 -11.29926 41.713345
46.393127 20.807257 5.4300637 -7.1008253
00000000: 3ec6 5642 6e1a 86c2 e30e 8e3f d8fc 59c2
00000010: 440b 48c0 2d36 0a41 aa50 fe41 1f17 0142
00000020: a552 71c1 9f7f 0dc0 0f8e cfc0 f716 8fc1
00000030: 844e 4940 0860 4641 bf94 2241 6df5 43c2
00000040: 8b82 eec1 e383 92be 9860 54be e3fb 0f41
00000050: 9bcf bc41 7f87 8a40 8386 a441 78a1 9541
00000060: 1576 9d40 dd7d 4d41 c47b 3fc0 d588 2042
00000070: 2cef 73c1 e3e6 9240 4011 d1c0 0431 bc40
00000080: 01f4 fc41 21c3 88c1 e28d c041 db7b 0cc2
00000090: 2c28 7842 2826 08c2 bbfd dac1 1cef b4c1
000000a0: 6734 8940 fc77 26c2 fcb6 5cc0 8c2c 9dc1
000000b0: 1f40 8cc1 05b2 0342 932b 58c1 27fc 2ac1
000000c0: 7373 1bc2 1707 7841 4605 5742 9173 4b42
000000d0: 4a06 3740 9b1c bac0 3903 9640 c5d0 33c1
000000e0: 6e1f c840 a46f 3442 d4ad c541 d738 c0c1
000000f0: e7c6 33c0 8bef 8d40 41c9 20c1 4d47 b642
00000100: d980 fe41 9bc3 2c41 e7e3 24c2 6e90 b4c1
00000110: 92f8 02c1 b0f3 0642 ee0b e4c2 9fba 9941
00000120: 46ee 31c2 3172 d641 985d b5c1 b254 a1c1
00000130: cca9 8041 0606 afc1 04fb dfc1 acb8 ee41
00000140: 64c8 2d42 fef1 8941 499e c641 5768 5e41
00000150: 4075 30c0 aa18 1bc2 898d 2440 f6d7 0242
00000160: 8d48 e341 0aa8 a941 d1da 12c2 82cd d340
00000170: 307e c23f 45ab f940 c5c9 34c1 77da 2642
00000180: 9092 3942 4375 a641 15c3 ad40 f639 e3c0

model/batch_normalization_1/batchnorm/mul_1;model/batch_normalization_1/batchnorm/add_1;model/dense_2/MatMul;model/activation_2/Relu;model/dense_2/BiasAdd f4 [100, 100]
-0.14291069 -0.17625564 0.21442482 -0.110822104 -0.21256368 -0.17402218 0.13863564 0.06564431
0.23366165 -0.048538003 0.12954572 0.15885903 0.124973275 -0.15667251 -0.24208577 0.08911665
0.008079329 -0.3041974 0.15938076 0.050893307 -0.14726858 -0.073905185 0.1322674 0.18245591
-0.089162074 -0.009869266 -0.040050223 0.025043575 -0.01917646 -0.14351656 -0.03778898 -0.018299665
-0.2861812 0.027422955 -0.038598996 0.2386432 -0.07350743 0.032256957 0.08144905 -0.07790776
-0.044354264 -0.20459692 -0.2043547 0.082918234 -0.005653493 0.023880081 -0.055790186 -0.055017557
-0.1061827 -0.014354495 0.04707265 0.070036784 0.032050263 -0.021351144 -0.096902624 -0.058928013
0.069932334 0.0302648 0.25441697 -0.030634753 0.21641253 -0.13399406 0.021334046 -0.27163962
0.013241938 0.027825996 0.041532397 -0.090554535 -0.006743608 0.022012742 -0.2426753 -0.11863106
-0.037774283 -0.048081487 -0.22052805 -0.11618849 -0.00605983 -0.026997447 -0.06746656 -0.30532184
0.00095149863 -0.069190964 0.06475507 0.07213557 -0.027157817 -0.012568144 0.0831387 0.012926373
-0.13909706 -0.05466398 0.06728884 -0.048897102 -0.0862978 -0.17201458 -0.5108132 0.41657135
0.18542017 -0.6374179 0.08819643 -0.29645675 -0.03156798 0.12605786 0.06457293 -0.08660855
0.07569852 0.029757295 0.106138796 -0.005822065 0.049515106 -0.0047497316 0.011564703 -0.049683906
-0.032070484 -0.032928992 0.09005042 0.09523897 0.011277076 -0.023741113 -0.093029514 0.15819593
-0.10978662 0.028717387 0.044840556 0.11703413 0.093873106 -0.014848331 -0.0678732 -0.07277143
0.09488363 -0.0022682413 0.20244633 0.33228007 0.07743652 -0.02415187 0.04523008 -0.053287912
0.018746946 0.024340859 -0.083234765 0.028160684 -0.028666055 -0.017075328 0.07837124 0.02277862
0.14969596 0.090224184 0.0020968646 0.06722331 0.15337683 0.09038497 0.0135534005 -0.14652345
0.19207627 1.038652 0.10102902 -0.009749704 0.17057897 0.017168505 -0.032459438 0.0023794926
-0.008590993 -0.17830855 0.38525572 0.018221665 -0.027374318 0.06720525 -0.09573757 -0.019322101
0.039473988 -0.06402894 -0.08813985 0.0133913485 -0.05302326 0.2588156 0.023378907 -0.09270493
-0.008508684 0.119012274 -0.028252179 -0.08827817 0.04920411 -0.008884927 0.068897694 0.13569903
0.010330448 -0.015775314 -0.055505272 0.15341762 -0.01894688 0.08040673 0.47438034 -0.023140011
-0.15752126 0.2042894 0.095698565 -0.26354766 -0.18694988 0.020607574 -0.118716784 -0.19283341
0.385092 0.2613585 -0.0066361907 0.14824817 -0.027421158 0.017986264 0.09939386 -0.02885917
-0.041062422 0.12586011 0.015354609 0.055389322 -0.01545176 -0.06666647 0.029743692 -0.19859794
0.040441293 0.007204177 -0.11011771 0.101920016 0.188361 -0.008822153 -0.02646587 0.013876394
-0.05538358 -0.022561632 -0.03730948 -0.07553685 0.09436137 0.08935876 0.020837294 0.15026551
-0.022245785 0.01582187 -0.13061656 -0.02346472 0.056359608 0.052935988 -0.033862647 0.049898826
0.037022468 0.48038524 0.042767875 0.03152928 0.16176952 0.044693436 -0.039390072 -0.0017903208
-0.13246314 -0.037920106 0.07738143 0.0034418916 -0.044823244 0.010591181 -0.19410424 0.008211404
00000000: 2e57 12be 5c7c 34be 2e92 5b3e b3f6 e2bd
00000010: 4baa 59be df32 32be 80f6 0d3e 8670 863d
00000020: 0045 6f3e c9cf 46bd a2a7 043e f1ab 223e
00000030: fdf1 ff3d c26e 20be 55e5 77be ca82 b63d
00000040: 295f 043c c3bf 9bbe b634 233e 8075 503d
00000050: 93cd 16be 9a5b 97bd 1b71 073e b9d5 3a3e
00000060: 9b9a b6bd b4b2 21bc b40b 24bd 2f28 cd3c
00000070: f417 9dbc 01f6 12be 9ec8 1abd 2ee9 95bc
00000080: 5886 92be 1ba6 e03c fb19 1ebd e25e 743e
00000090: 108b 96bd df1f 043d c2ce a63d 1b8e 9fbd
000000a0: d1ac 35bd db81 51be 5c42 51be 09d1 a93d
000000b0: f040 b9bb 29a0 c33c 4084 64bd 175a 61bd
000000c0: 5176 d9bd 1e2f 6bbc 40cf 403d 726f 8f3d
000000d0: 2347 033d 98e8 aebc e274 c6bd 805e 71bd
000000e0: af38 8f3d e3ed f73c f142 823e bcf5 fabc
000000f0: 3f9b 5d3e bd35 09be bdc4 ae3c 5914 8bbe
00000100: b7f4 583c 58f3 e33c e01d 2a3d a874 b9bd
00000110: 7cf9 dcbb 1154 b43c e07f 78be d7f4 f2bd
00000120: 35b9 1abd 18f1 44bd 1bd2 61be 3bf4 edbd
00000130: 8a91 c6bb c029 ddbc e82b 8abd 2553 9cbe
00000140: fe6d 793a feb3 8dbd 4e9e 843d d0bb 933d
00000150: 127a debc 9eea 4dbc 9f44 aa3d 23c9 533c
00000160: 766f 0ebe 56e7 5fbd bbce 893d 5448 48bd
00000170: e7bc b0bd 9724 30be a7c4 02bf d748 d53e
00000180: c9de 3d3e d22d 23bf 54a0 b43d 2ec9 97be
00000190: 6d4d 01bd 5015 013e d03e 843d d35f b1bd
000001a0: d307 9b3d 92c5 f33c 4c5f d93d 05c7 bebb
000001b0: 5ad0 4a3d a3a3 9bbb e179 3d3c 5a81 4bbd
000001c0: 575c 03bd 8de0 06bd 5b6c b83d a60c c33d
000001d0: 7cc3 383c b97c c2bc 4286 bebd 1dfe 213e
000001e0: cfd7 e0bd ba40 eb3c bbaa 373d 97af ef3d
000001f0: 8b40 c03d 6a46 73bc 1b01 8bbd 3009 95bd
00000200: 5952 c23d c6a6 14bb 174e 4f3e 9d20 aa3e
00000210: 0a97 9e3d 24da c5bc 2d43 393d 6d44 5abd
00000220: 3293 993c 7b66 c73c fd76 aabd 3cb1 e63c
00000230: 13d5 eabc 8fe1 8bbc 1a81 a03d 3a9a ba3c
00000240: e649 193e 75c7 b83d 8d6b 093b 60ac 893d
00000250: d10e 1d3e c11b b93d 150f 5e3c 3e0a 16be
00000260: a4af 443e 8cf2 843f 4ee8 ce3d 39bd 1fbc
00000270: 41ac 2e3e f7a4 8c3c 30f4 04bd 43f1 1b3b
00000280: 3cc1 0cbc 8496 36be 3d40 c53e 9a45 953c
00000290: 1b40 e0bc e8a2 893d 0f12 c4bd 6249 9ebc
000002a0: 7aaf 213d 9b21 83bd aa82 b4bd 6367 5b3c
000002b0: eb2e 59bd 7a83 843e 1f85 bf3c 15dc bdbd
000002c0: 0268 0bbc b5bc f33d 1d71 e7bc 2fcb b4bd
000002d0: 408a 493d 1692 11bc 3c1a 8d3d b0f4 0a3e
000002e0: 0a41 293c 3b3b 81bc 7f59 63bd 8219 1d3e
000002f0: 7d36 9bbc 49ac a43d fbe1 f23e 1f90 bdbc
00000300: 414d 21be 3e31 513e 9cfd c33d b8ef 86be
00000310: ca6f 3fbe 37d1 a83c c921 f3bd 1f76 45be
00000320: c72a c53e c8d0 853e 6774 d9bb 5ece 173e
00000330: 56a2 e0bc ee57 933c 028f cb3d 116a ecbc
00000340: 1231 28bd 79e1 003e e691 7b3c eadf 623d
00000350: 6129 7dbc 6e88 88bd 0ba9 f33c 425d 4bbe
00000360: c5a5 253d 0411 ec3b 6585 e1bd 71bb d03d
00000370: b5e1 403e cb8a 10bc f4ce d8bc d159 633c
00000380: e5d9 62bd 2cd3 b8bc d3d1 18bd 10b3 9abd
00000390: 8940 c13d ba01 b73d f9b2 aa3c 34df 193e
000003a0: cb3c b6bc de9c 813c 59c0 05be 1639 c0bc
000003b0: 55d9 663d 68d3 583d 8fb3 0abd b662 4c3d
000003c0: dfa4 173d 0ef5 f53e 5e2d 2f3d d924 013d
000003d0: e9a6 253e 7710 373d 7c57 21bd 33a9 eaba
000003e0: 6ba4 07be 1d52 1bbd 287a 9e3d 5c91 613b
000003f0: 9498 37bd a286 2d3c 43c3 46be 2089 063c

model/dense_3/MatMul;model/activation_3/Relu;model/dense_3/BiasAdd f4 [100]
-14.826772 30.679028 -7.925319 -7.679206 15.9304695 -7.5139527 -0.9838229 9.622295
22.427668 9.582011 26.773808 44.603046 33.26447 12.417566 10.473235 4.80844
-11.020354 10.506069 4.686534 3.0625298 17.657578 -2.377208 4.583139 26.351425
30.942642 36.973717 32.147423 -1.0572482 -15.643597 -29.06365 2.74936 13.48285
11.6965065 -8.729843 2.729323 51.450825 -12.73897 29.264341 -25.242233 6.204923
21.833467 25.588348 33.102516 -25.512817 10.628833 4.587718 -16.924107 5.9573545
15.794479 4.0074434 0.7146246 -23.896235 -8.180981 -21.057978 -22.776033 20.855917
-6.665951 -12.145335 9.236643 23.810776 -2.740939 15.101432 -3.735835 23.015205
-11.154571 18.373623 5.6486115 -5.0832605 9.107346 7.6345015 4.3063397 11.156652
13.505907 -18.526424 14.598045 -8.093726 -18.512726 6.703771 -16.228703 -30.164776
-19.90629 3.531246 -11.443344 17.542536 -13.903066 -15.557247 8.379332 2.7771611
-13.235157 12.962683 -6.608338 19.465084 -6.9077463 0.69758606 14.53965 -45.714485
-2.6895256 15.863449 19.102549 -0.61933726
00000000: 753a 6dc1 a66e f541 379c fdc0 0ebc f5c0
00000010: 34e3 7e41 4d72 f0c0 d1db 7bbf ecf4 1941
00000020: dd6b b341 eb4f 1941 c230 d641 8569 3242
00000030: d10e 0542 5aae 4641 5f92 2741 bede 9940
00000040: 5f53 30c1 dc18 2841 16f8 9540 7d00 4440
00000050: b842 8d41 2d24 18c0 13a9 9240 b8cf d241
00000060: 888a f741 16e5 1342 f696 0042 e953 87bf
00000070: 2c4c 7ac1 5b82 e8c1 84f5 2f40 c1b9 5741
00000080: e424 3b41 70ad 0bc1 3aad 2e40 a5cd 4d42
00000090: d2d2 4bc1 5f1d ea41 18f0 c9c1 bb8e c640
000000a0: f1aa ae41 f0b4 cc41 fa68 0442 401a ccc1
000000b0: b30f 2a41 96ce 9240 9264 87c1 a6a2 be40
000000c0: 30b6 7c41 fa3c 8040 a3f1 363f 7d2b bfc1
000000d0: 4ce5 02c1 bd76 a8c1 5135 b6c1 ebd8 a641
000000e0: 784f d5c0 4b53 42c1 4ac9 1341 787c be41
000000f0: 8b6b 2fc0 779f 7141 ec17 6fc0 241f b841
00000100: 1f79 32c1 2efd 9241 6dc1 b440 12aa a2c0
00000110: b0b7 1141 d64d f440 89cd 8940 a681 3241
00000120: 3218 5841 1e36 94c1 9891 6941 e77f 01c1
00000130: 101a 94c1 4b85 d640 62d4 81c1 7651 f1c1
00000140: 1540 9fc1 efff 6140 f017 37c1 1d57 8c41
00000150: f572 5ec1 7cea 78c1 be11 0641 02bd 3140
00000160: 34c3 53c1 2667 4f41 8177 d3c0 7eb8 9b41
00000170: 420c ddc0 0095 323f 68a2 6841 a2db 36c2
00000180: 3021 2cc0 b0d0 7d41 05d2 9841 e38c 1ebf

model/batch_normalization_2/batchnorm/mul_1;model/batch_normalization_2/batchnorm/add_1;model/dense_3/MatMul;model/activation_3/Relu;model/dense_3/BiasAdd f4 [100, 100]
0.12959102 -0.109759316 -0.011345169 0.052161824 -0.019105114 -0.09811558 0.08116918 0.13881402
-0.057257067 0.17533672 -0.18771373 -0.049242333 -0.14177464 -0.030684166 0.11868033 -0.105183564
-0.02147963 0.14025587 0.03605627 0.0530608 -0.109174795 0.014220831 0.44785365 -0.0766196
-0.021842385 -0.082838885 0.06803169 0.037290562 -0.23812674 -0.13049284 -0.083124466 -0.029907536
-0.04717576 -0.048874535 -0.18909277 -0.018867992 0.114115365 -0.120802134 -0.0068906997 0.011592529
0.06598217 -0.06718462 0.040021904 0.11660585 -0.013333905 -0.059124105 -0.0200026 -0.29457846
0.12457857 0.19640717 0.0201387 0.061151907 0.16325696 0.14149004 -0.16699827 -0.04578175
-0.033961233 0.19137672 0.1602352 -0.20724308 -0.19670789 0.22553712 0.19719325 -0.13331838
0.10840377 -0.061728396 -3.7330303 -0.03615483 0.02066834 0.089652054 0.00570845 -0.081772305
-0.07857601 -0.03499742 0.06175409 0.060027726 -0.05616467 -0.040980488 -0.14633983 0.08541603
-0.026473502 -0.095815785 -0.122261204 0.058068868 0.037502702 -0.009577034 0.07004228 -0.17697485
0.21822032 0.4713094 -0.12775828 -0.19936031 0.05401186 0.1142476 0.10974261 -0.018616213
0.051445045 -0.3581311 -0.15301624 -0.066597775 -0.22375807 0.09968736 -0.2544264 -0.15027007
-0.09307249 0.03881076 0.089835115 0.1172334 -0.17162229 -0.32033026 0.087773405 0.1985765
-0.0058459006 -0.06425445 0.24947803 0.12324342 0.027278291 -0.06275746 -0.16000086 -0.08852665
0.022415088 0.044413194 -0.13075598 -0.07440245 -0.01643306 -0.24833363 0.1999941 0.08139102
0.0523166 -0.11287214 -0.18206929 0.30070138 0.11056203 0.19022128 -0.066900134 -0.064637356
0.06581641 0.08178696 0.058967065 0.2753548 -0.14268135 0.0026763105 0.030863207 -0.20393452
0.08243752 0.122061044 0.0976546 -0.5347229 0.12399622 -0.3204638 -0.06848768 0.21793425
-0.033015262 -0.19397768 -0.11567696 -0.052400853 0.023725664 -0.02033016 -0.25947765 0.09061446
0.19772486 0.18755837 -0.0014712014 -0.18532136 -0.03383836 -0.12694612 0.21315305 -0.0041639404
0.022446722 -0.09633381 -0.08903248 0.08408729 0.02878262 0.058424674 -0.08776057 -0.020476038
-0.124179155 0.007378607 -0.062369596 0.18895553 -0.055583335 -0.14523353 0.122277156 -0.2068925
-0.116584785 0.008862077 0.28559965 -0.2419376 -0.20357308 0.026662424 0.1435159 0.067445636
0.08969491 -0.03308914 -0.11165217 -0.01985418 0.067153454 -0.09384996 -0.07148818 -0.03762453
0.11013063 0.11153199 -0.07285913 -0.044631697 -0.0061715147 0.04942801 0.1374078 0.113620326
0.100425 0.062045787 -0.048055712 0.089652136 0.08548852 -0.20895009 0.12232018 0.12604636
0.31491968 0.012498246 -0.12701827 0.16108784 -0.06879395 0.06333658 -0.005791445 -0.088139825
-0.067595765 0.023660444 0.14489013 -0.015633985 0.05167427 -0.204775 -0.0716775 -0.022931235
-0.16771244 0.05332771 -0.020150527 -0.10982839 0.15029499 0.14065935 0.045745883 -0.14983211
0.0082714185 -0.18816686 -0.010882963 0.1360841 -0.0068098768 -0.2101797 0.014364564 -0.059757337
-0.23181383 -0.042524736 -0.2284848 -0.09002063 0.10537891 -0.00958033 -0.057858553 -0.113629274
00000000: 82b3 043e 7ec9 e0bd 16e1 39bc a3a7 553d
00000010: 5482 9cbc d2f0 c8bd 073c a63d 4325 0e3e
00000020: 6386 6abd 788b 333e 0738 40be 54b2 49bd
00000030: 5f2d 11be 5c5d fbbc ac0e f33d 7b6a d7bd
00000040: 0df6 afbc 3c9f 0f3e bdaf 133d 4856 593d
00000050: 0997 dfbd 7dfe 683c 134d e53e bdea 9cbd
00000060: cdee b2bc 6fa7 a9bd 3354 8b3d fdbd 183d
00000070: 7fd7 73be ea9f 05be 293d aabd a600 f5bc
00000080: 5f3b 41bd aa30 48bd 89a1 41be 0c91 9abc
00000090: 51b5 e93d 1c67 f7bd 61cb e1bb 97ee 3d3c
000000a0: a921 873d 1798 89bd 02ee 233d 0ccf ee3d
000000b0: 7376 5abc 1e2c 72bd 7edc a3bc fdd2 96be
000000c0: 0d23 ff3d f61e 493e eaf9 a43c 6c7a 7a3d
000000d0: d52c 273e c4e2 103e 9801 2bbe a585 3bbd
000000e0: ef1a 0bbd 42f8 433e b214 243e 8837 54be
000000f0: cb6d 49be 34f3 663e 07ed 493e 9d84 08be
00000100: cc02 de3d ead6 7cbd f8e9 6ec0 1617 14bd
00000110: a750 a93c 7f9b b73d f30d bb3b 3d78 a7bd
00000120: 76ec a0bd 7459 0fbd dbf1 7c3d a2df 753d
00000130: ed0c 66bd 28db 27bd 1cda 15be 99ee ae3d
00000140: f5de d8bc 113b c4bd 1564 fabd 9fd9 6d3d
00000150: 6f9c 193d fee8 1cbc 5472 8f3d e538 35be
00000160: 2675 5f3e 774f f13e 11d3 02be 1c25 4cbe
00000170: 8a3b 5d3d a5fa e93d bcc0 e03d 0781 98bc
00000180: 0ab8 523d f65c b7be 4ab0 1cbe 6a64 88bd
00000190: d620 65be e328 cc3d 2d44 82be 66e0 19be
000001a0: ca9c bebd 08f8 1e3d 79fb b73d 1118 f03d
000001b0: c1bd 2fbe 5402 a4be 8bc2 b33d a357 4b3e
000001c0: f88e bfbb d697 83bd 2b77 7f3e 0c67 fc3d
000001d0: b976 df3c fc86 80bd 44d7 23be 764d b5bd
000001e0: d99f b73c 9cea 353d e5e4 05be 5060 98bd
000001f0: a09e 86bc 2c4b 7ebe 41cb 4c3e 56b0 a63d
00000200: ee49 563d 8229 e7bd 5f70 3abe 88f5 993e
00000210: 586e e23d 5ec9 423e f002 89bd 9760 84bd
00000220: c1ca 863d ec7f a73d 7387 713d 4efb 8c3e
00000230: 0f1b 12be 0a65 2f3b d6d4 fc3c 36d4 50be
00000240: 01d5 a83d 24fb f93d 23ff c73d 9ae3 08bf
00000250: bbf1 fd3d d513 a4be 4543 8cbd 282a 5f3e
00000260: 033b 07bd 16a2 46be 0be8 ecbd 47a2 56bd
00000270: 535c c23c 708b a6bc 41da 84be 1394 b93d
00000280: 6378 4a3e 4d0f 403e 54d5 c0ba e2c4 3dbe
00000290: 189a 0abd 2afe 01be cb44 5a3e aa71 88bb
000002a0: 30e2 b73c a94a c5bd a956 b6bd f535 ac3d
000002b0: 87c9 eb3c b64e 6f3d d0bb b3bd 5dbd a7bc
000002c0: a451 febd 3ec8 f13b 4377 7fbd 8f7d 413e
000002d0: 5aab 63bd 19b8 14be 726c fa3d a1db 53be
000002e0: 01c4 eebd 3f32 113c 1e3a 923e 7dbe 77be
000002f0: 7675 50be 286b da3c d5f5 123e f020 8a3d
00000300: f7b1 b73d 7a88 07bd e5a9 e4bd 3ca5 a2bc
00000310: c087 893d 6834 c0bd 6568 92bd 2e1c 1abd
00000320: 2b8c e13d e26a e43d 2b37 95bd bacf 36bd
00000330: 6b3a cabb 0675 4a3d a1b4 0c3e c6b1 e83d
00000340: 9fab cd3d b923 7e3d 11d6 44bd 8a9b b73d
00000350: 9b14 af3d 03f7 55be 0183 fa3d 4c12 013e
00000360: 273d a13e 71c5 4c3c 1411 02be 36f4 243e
00000370: d8e3 8cbd 9cb6 813d 29c6 bdbb a782 b4bd
00000380: a66f 8abd 8cd3 c13c 145e 143e d812 80bc
00000390: 66a8 533d 8ab0 51be a7cb 92bd 49da bbbc
000003a0: cfbc 2bbe 286e 5a3d b812 a5bc b5ed e0bd
000003b0: eee6 193e 0109 103e 0960 3b3d 976d 19be
000003c0: d884 073c d0ae 40be 754e 32bc a159 0b3e
000003d0: 6325 dfbb 5939 57be 5959 6b3c 1cc4 74bd
000003e0: 9b60 6dbe 6b2e 2ebd ebf7 69be bc5c b8bd
000003f0: e6d0 d73d d1f6 1cbc 17fd 6cbd 77b6 e8bd

model/dense_4/MatMul;model/activation_4/Relu;model/dense_4/BiasAdd f4 [100]
-9.152268 6.5030684 -5.1865726 -0.14883474 -2.0732486 0.13097052 4.4194274 4.638204
28.54763 7.282486 -8.665196 -5.2993402 28.77886 11.360953 -13.120335 -16.211449
-7.878235 -3.29031 3.5204444 4.2501335 -7.2256413 -17.803305 12.891121 -4.7170796
34.00538 -0.39196473 7.509002 12.790341 -0.29802585 -6.052006 7.9832067 -2.668675
24.674103 6.1986113 21.014427 -14.787595 -10.667593 10.94088 16.738438 22.99022
37.869953 5.554668 11.281198 2.0243883 38.082706 -7.761377 -19.842453 -14.163484
-29.282383 5.7077985 29.504883 16.78542 -8.01674 -2.5310068 17.985355 12.556318
19.532587 9.998152 13.017306 15.118117 -17.409296 13.992915 -4.2864165 13.481368
6.8770566 21.66246 -5.2059517 20.923903 26.420818 23.774553 2.3472934 30.793577
9.525662 -31.401535 6.188963 31.646648 26.09635 4.9052196 16.28505 -15.532795
22.604456 26.792112 5.409266 -17.053324 1.8299285 -6.5109305 14.487462 5.3387737
-2.769644 4.083026 -26.473019 19.525108 11.794709 9.04954 32.34352 30.472134
5.0788527 -15.937647 25.56658 -4.014654
00000000: b16f 12c1 2319 d040 67f8 a5c0 2268 18be
00000010: 1bb0 04c0 231d 063e f36b 8d40 2b6c 9440
00000020: 8c61 e441 200a e940 a5a4 0ac1 3294 a9c0
00000030: 1b3b e641 77c6 3541 e4ec 51c1 0cb1 81c1
00000040: 801a fcc0 7094 52c0 f64e 6140 1801 8840
00000050: 7438 e7c0 2b6d 8ec1 0842 4e41 51f2 96c0
00000060: 8205 0842 9aaf c8be bf49 f040 3da5 4c41
00000070: d896 98be 08aa c1c0 6e76 ff40 92cb 2ac0
00000080: 9064 c541 065b c640 8c1d a841 fd99 6cc1
00000090: 76ae 2ac1 d80d 2f41 52e8 8541 f8eb b741
000000a0: d57a 1742 d7bf b140 c97f 3441 948f 0140
000000b0: b154 1842 335d f8c0 58bd 9ec1 a19d 62c1
000000c0: 5242 eac1 49a6 b640 000a ec41 8a48 8641
000000d0: 9144 00c1 04fc 21c0 02e2 8f41 aee6 4841
000000e0: bd42 9c41 6ef8 1f41 e346 5041 cfe3 7141
000000f0: 3d46 8bc1 fbe2 5f41 532a 89c0 afb3 5741
00000100: d910 dc40 b84c ad41 2897 a6c0 2764 a741
00000110: d65d d341 4932 be41 0e3a 1640 3f59 f641
00000120: 1d69 1841 5836 fbc1 fc0b c640 562c fd41
00000130: 53c5 d041 8ff7 9c40 c847 8241 5486 78c1
00000140: edd5 b441 3f56 d641 b518 ad40 356d 88c1
00000150: 193b ea3f 8b59 d0c0 a5cc 6741 3cd7 aa40
00000160: d941 31c0 26a8 8240 bec8 d3c1 6c33 9c41
00000170: 21b7 3c41 eaca 1041 c45f 0142 eec6 f341
00000180: f685 a240 9a00 7fc1 5b88 cc41 0c78 80c0

model/batch_normalization_3/batchnorm/mul_1;model/batch_normalization_3/batchnorm/add_1;model/dense_4/MatMul;model/activation_4/Relu;model/dense_4/BiasAdd f4 [100, 100]
-0.07374965 -0.06191725 -0.035106078 -0.16800964 -0.17284031 0.120872945 0.0847491 -0.047877386
-0.14961593 0.03433467 -0.038115583 0.11193992 -0.0011671291 0.042405456 0.08995287 0.1657425
-0.043159563 -0.05041926 -0.035255905 0.05907357 -0.023985073 0.368575 0.44442093 0.16461319
-0.06336477 0.037896443 0.16085139 0.0145962145 -0.2927899 -0.08590363 -0.11256618 -0.23233457
-0.029383931 -0.044030745 0.022356592 0.065702535 0.25324783 -0.09699894 -0.15172409 0.000915159
-0.22898473 -0.020539265 0.03564446 0.037304107 0.09011282 0.12567548 -0.3272054 0.048069384
0.32366863 -0.014651353 0.16254863 0.12656419 0.18911748 0.0730575 0.08565582 0.017421477
-0.082289465 0.11394293 0.040220454 0.1878703 -0.25956038 0.00042692866 0.025409302 0.06977997
-0.07226328 -0.0822807 0.06681517 -0.01001727 0.049070854 0.05285106 0.012074503 0.040410485
0.15271454 0.009620552 -0.06113151 -0.3515791 -0.17862514 -0.23577106 -5.374245e-05 0.013114536
0.08249215 0.03251376 0.0075036483 -0.07690835 0.10241771 0.029353058 -0.07809179 0.10586048
-0.013908446 0.055515166 -0.09465944 0.026332332 0.137498 -0.013773705 -0.3488413 0.09880696
0.15051852 0.14902796 0.009383359 0.025083194 0.07917174 0.037415154 -0.012992451 0.08529964
-0.086323634 0.04941948 0.019773606 0.3301638 -0.28490525 0.03778811 -0.03145297 0.17254479
-0.007930819 -0.02997739 0.052522026 0.017607221 -0.018761525 0.06577033 0.07357304 -0.39186186
-0.09826156 -0.019081742 -0.020994222 0.21291597 -0.07418644 0.05574407 -0.14079241 0.08064778
-0.03534165 0.23672932 0.061165728 -0.09949907 0.017337207 -0.04701052 0.15320733 -0.049630105
0.14246309 -0.103575945 0.09589693 -0.01363975 0.1031972 -0.21567875 0.009326076 -0.029473139
0.088118605 -0.056638636 -0.0077727707 -0.06777222 -0.11841999 0.02566955 -0.05069738 0.0252522
-0.28436708 0.14177147 0.043172017 0.008553254 -0.06575226 -0.17348698 -0.015378361 -0.24954271
0.1078818 0.007865283 -0.071469404 0.02356796 0.118531644 -0.22327162 0.015324501 -0.06559536
0.20445424 0.15179107 -0.05244532 -0.42255518 0.09286412 0.1993406 -0.019926917 -0.0029102087
-0.09761998 0.18427129 0.056963686 -0.012149209 -0.013735453 0.123361595 -0.26820928 -0.1409448
-0.19488512 -0.15142977 0.14459635 -0.5811564 -0.062920146 -0.002598151 -0.0027990863 -0.14247432
-0.0678586 0.0036638086 0.004011383 0.08682518 0.49049985 0.24252258 0.016323168 0.16290702
-0.018524209 0.21639267 0.26072443 0.19445296 0.1114526 -0.08013795 0.006372677 0.13541417
-0.033045433 -0.11884756 -0.1465224 0.3119268 0.06769014 -0.017724901 -0.025630908 0.015291349
0.06528486 0.09805922 -0.1878484 0.10218941 -0.04206784 -0.0064578997 -0.012162797 0.0143805295
0.016179014 -0.19437434 0.14524941 -0.019239698 0.011142772 0.13125405 0.05669557 -0.0266007
-0.11914765 0.060393956 0.03963825 -0.23162842 0.06385278 0.056990374 -0.06995709 -0.10192372
-0.018389542 -0.1776715 -0.15463321 0.061043266 -0.019563489 -0.00071958284 0.119675376 -0.023301376
0.2542351 -0.044271633 0.09583068 -0.56568027 0.0957924 0.11070927 0.15954418 0.05487766
00000000: 0e0a 97bd f19c 7dbd 64cb 0fbd b80a 2cbe
00000010: 0dfd 30be 3c8c f73d f090 ad3d 141b 44bd
00000020: eb34 19be 83a2 0c3d 161f 1cbd c240 e53d
00000030: 5bfa 98ba 58b1 2d3d 3639 b83d 67b8 293e
00000040: 15c8 30bd 6d84 4ebd 7f68 10bd 21f7 713d
00000050: 587c c4bc ddb5 bc3e 248b e33e 5c90 283e
00000060: 63c5 81bd 4d39 1b3d 3ab6 243e f624 6f3c
00000070: 8fe8 95be 3eee afbd 1989 e6bd 1de9 6dbe
00000080: 92b6 f0bc 9559 34bd 2c25 b73c 0d8f 863d
00000090: b3a9 813e 61a7 c6bd 8f5d 1bbe 48e7 6f3a
000000a0: f97a 6abe f641 a8bc edff 113d 31cc 183d
000000b0: 128d b83d 13b1 003e 7787 a7be 67e4 443d
000000c0: e5b7 a53e 3a0c 70bc 2673 263e 0b9a 013e
000000d0: 03a8 413e 2c9f 953d 526c af3d 7cb7 8e3c
000000e0: 6187 a8bd e95a e93d 34be 243d 1261 403e
000000f0: 19e5 84be 65d5 df39 2b27 d03c cde8 8e3d
00000100: c5fe 93bd c982 a8bd 64d6 883d 7a1f 24bc
00000110: 85fe 483d 5a7a 583d 23d4 453c 7785 253d
00000120: 3361 1c3e 859f 1d3c 0965 7abd 2d02 b4be
00000130: 82e9 36be f86d 71be 8469 61b8 5ade 563c
00000140: a5f1 a83d 262d 053d 2ae1 f53b 2082 9dbd
00000150: 60c0 d13d d375 f03c 97ee 9fbd 61cd d83d
00000160: 40e0 63bc df63 633d cfdc c1bd e7b6 d73c
00000170: 47cc 0c3e 1bab 61bc 549b b2be 4e5b ca3d
00000180: 8721 1a3e c99a 183e a9bc 193c 457b cd3c
00000190: cb24 a23d a240 193d 4ade 54bc 94b1 ae3d
000001a0: 72ca b0bd 156c 4a3d 42fc a13c 3b0b a93e
000001b0: 1adf 91be b5c7 1a3d d4d4 00bd 95af 303e
000001c0: 44f0 01bc 2593 f5bc 5621 573d 053d 903c
000001d0: c5b1 99bc 98b2 863d 76ad 963d 1ea2 c8be
000001e0: 5b3d c9bd 5051 9cbc 13fc abbc a506 5a3e
000001f0: 0fef 97bd e553 643d e32b 10be aa2a a53d
00000200: 68c2 10bd 2c69 723e ea88 7a3d 2bc6 cbbd
00000210: c206 8e3c 1a8e 40bd 62e2 1c3e f048 4bbd
00000220: d8e1 113e a01f d4bd 9c65 c43d 4279 5fbc
00000230: 0e59 d33d e4da 5cbe 66cc 183c a771 f1bc
00000240: 8777 b43d eafd 67bd bab2 febb 29cc 8abd
00000250: 2e86 f2bd f348 d23c 0ea8 4fbd b4dd ce3c
00000260: 9098 91be 8a2c 113e 24d5 303d f322 0c3c
00000270: 1fa9 86bd 92a6 31be 85f5 7bbc 2088 7fbe
00000280: 22f1 dc3d 63dd 003c 8d5e 92bd 9811 c13c
00000290: b8c0 f23d 51a1 64be 9e13 7b3c dc56 86bd
000002a0: 745c 513e 1e6f 1b3e e7d0 56bd 2759 d8be
000002b0: 8b2f be3d f11f 4c3e c63d a3bc 33b9 3ebb
000002c0: fcec c7bd 9db1 3c3e c152 693d 7a0d 47bc
000002d0: aa0a 61bc 01a5 fc3d ba52 89be d553 10be
000002e0: f78f 47be 6810 1bbe 1111 143e aac6 14bf
000002f0: 47dc 80bd be45 2abb e070 37bb cae4 11be
00000300: 73f9 8abd 821c 703b eb71 833b 66d1 b13d
00000310: cc22 fb3e d757 783e 2ab8 853c 19d1 263e
00000320: 15c0 97bc 0a96 5d3e ac7d 853e ad1e 473e
00000330: 4341 e43d 5e1f a4bd e4d1 d03b 03aa 0a3e
00000340: a65a 07bd 5966 f3bd f809 16be dfb4 9f3e
00000350: 21a1 8a3d d033 91bc e9f7 d1bc 9188 7a3c
00000360: 12b4 853d 46d3 c83d 555b 40be ae48 d13d
00000370: 544f 2cbd ca9c d3bb 7846 47bc 509c 6b3c
00000380: da89 843c 110a 47be 43bc 143e 929c 9dbc
00000390: 2c90 363c 7667 063e 9d39 683d b6e9 d9bc
000003a0: af03 f4bd a75f 773d b85b 223d 0030 6dbe
000003b0: 3fc5 823d bd6e 693d aa45 8fbd 62bd d0bd
000003c0: aaa5 96bc 85ef 35be 2b58 1ebe 8108 7a3d
000003d0: 9c43 a0bc 63a2 3cba 5d18 f53d 87e2 bebc
000003e0: 1a2b 823e 2c56 35bd e042 c43d 6cd0 10bf
000003f0: ce2e c43d 8bbb e23d 8d5f 233e 66c7 603d

model/dense_5/MatMul;model/activation_5/Relu;model/dense_5/BiasAdd f4 [100]
-5.4033713 33.633965 -3.3005934 4.727575 12.330658 -5.85182 38.630802 7.949472
-2.3312483 4.101305 23.193615 -3.0114746 3.4464648 24.612642 -24.209967 16.423311
-15.10748 6.09032 8.153376 -1.4407966 42.6543 -21.247648 19.454842 19.582764
22.665268 6.5287247 -4.184502 2.0109997 13.253598 26.631199 -18.185858 -4.8397074
-13.107765 -17.350126 8.337608 15.875037 2.9619129 19.122862 -6.7179394 -28.969494
30.169233 -31.436697 3.5315316 14.65403 11.474496 -14.641613 8.848654 9.344227
-27.109785 20.05877 -2.0464437 3.709789 -16.042837 2.767303 9.183091 -1.2977822
-12.563817 13.0632 10.380438 19.788385 13.785387 3.9350064 19.9552 15.95369
-10.628293 15.590609 11.384652 -6.0947223 0.9519303 -0.46448144 -30.113573 11.943368
31.014896 8.287426 2.6150072 6.00693 2.6350334 -14.375269 -5.4326243 -41.728924
43.578373 -8.594412 30.103613 21.688131 4.5853567 4.972985 5.873143 14.305877
-8.692927 -1.1912794 -15.527796 16.167887 2.7044652 -12.290304 2.68636 6.076747
14.945313 18.3344 13.985145 5.675974
00000000: 6be8 acc0 2e89 0642 ec3c 53c0 4b48 9740
00000010: 604a 4541 1c42 bbc0 f185 1a42 1362 fe40
00000020: 2c33 15c0 e43d 8340 868c b941 00bc 40c0
00000030: e192 5c40 b1e6 c441 03ae c1c1 f162 8341
00000040: 3db8 71c1 e7e3 c240 3a74 0241 066c b8bf
00000050: 019e 2a42 2ffb a9c1 84a3 9b41 80a9 9c41
00000060: 7852 b541 50eb d040 71e7 85c0 38b4 0040
00000070: bd0e 5441 b20c d541 a37c 91c1 e2de 9ac0
00000080: 68b9 51c1 0fcd 8ac1 d866 0541 2700 7e41
00000090: fb8f 3d40 9ffb 9841 5cf9 d6c0 86c1 e7c1
000000a0: 975a f141 5b7e fbc1 9d04 6240 e876 6a41
000000b0: 8997 3741 0c44 6ac1 1694 0d41 f481 1541
000000c0: d7e0 d8c1 5c78 a041 eff8 02c0 2f6d 6d40
000000d0: bb57 80c1 7e1b 3140 f1ed 1241 ba1d a6bf
000000e0: 6505 49c1 de02 5141 4616 2641 9d4e 9e41
000000f0: f290 5c41 25d7 7b40 40a4 9f41 5042 7f41
00000100: 7d0d 2ac1 2273 7941 8927 3641 f707 c3c0
00000110: b4b1 733f 83d0 edbe 99e8 f0c1 0918 3f41
00000120: 821e f841 4c99 0441 475c 2740 c538 c040
00000130: 63a4 2840 1a01 66c1 0fd8 adc0 6bea 26c2
00000140: 4150 2e42 b682 09c1 33d4 f041 4b81 ad41
00000150: 3ebb 9240 b122 9f40 caf0 bb40 dfe4 6441
00000160: 3b16 0bc1 d87b 98bf da71 78c1 d557 8141
00000170: f515 2d40 16a5 44c1 52ed 2b40 b674 c240
00000180: 0120 6f41 daac 9241 27c3 5f41 94a1 b540

model/batch_normalization_4/batchnorm/mul_1;model/batch_normalization_4/batchnorm/add_1;model/dense_5/MatMul;model/activation_5/Relu;model/dense_5/BiasAdd f4 [100, 100]
0.044760067 -0.0838611 -0.008557524 0.2004814 0.05368057 0.5242386 0.12211301 0.36232597
0.13048978 -0.23427671 -0.42416227 -0.69984853 0.03161102 -0.03815048 -0.046263188 0.24559772
-0.2107059 -0.06001335 0.18398005 -0.16684568 0.15858753 0.004662639 -0.016267842 -0.045542922
0.078801475 -0.06451187 -0.060448978 0.021274287 0.11949678 0.09278192 -0.20174289 -0.13570793
-0.034579396 0.019919243 -0.17333643 -0.29435313 0.019086419 0.011337634 0.048048917 0.06545244
0.13869645 0.17115636 -0.026633887 -0.13411584 -0.001992413 0.14407557 -0.10207483 0.2569967
0.02245702 -0.3472194 0.10359369 -0.019449756 0.13113447 -0.027302908 -0.005891801 0.2766331
-0.0710814 -0.29640776 -0.18131611 0.05590891 0.085450344 -0.09152525 0.0036807498 0.098894164
0.2176441 -0.021907836 -0.067794494 0.08544422 -0.01214822 -0.18694128 0.076962024 -0.08273809
-0.16668493 -0.1982001 -0.03672701 -0.040800646 -0.010504241 0.10010243 0.37033567 0.17679237
-0.11115184 -0.03257137 -0.08092058 0.3902129 -0.21268491 0.105123624 0.07060819 0.10295916
-0.2252611 -0.31846905 -0.2358416 0.037694916 0.0056684357 -0.09666811 0.16469672 0.01534225
-0.12343108 -0.21396524 0.13711275 -0.14316417 0.034700915 -0.027013112 -0.13700314 -0.49019578
0.03322532 0.053550832 0.035913255 -0.19698 0.043056477 0.19501026 0.32056317 -0.17993142
-0.028884249 0.1848632 0.23938003 -0.14013813 -0.29526308 -0.39223367 0.059047338 -0.020245474
-0.20203188 -0.2273395 -0.0059745703 0.057752497 -0.05676223 -0.03779054 0.019946817 -0.049316823
-0.040308114 -0.18852901 -0.08969936 -0.24928178 -0.013794859 0.0580479 -0.012830136 -0.23179987
-0.2425324 0.07899916 0.1449438 -0.056257177 0.044048026 -0.1687918 -0.020042688 0.08059826
-0.035286028 -0.7516632 0.08547562 -0.24041231 -0.052679915 -0.0018255864 0.09243463 -0.053652123
0.00087454484 0.0038542799 -0.03767774 -0.058786348 0.03806525 -0.033409525 -0.19755995 0.029563205
0.008520738 0.043062426 -0.020778598 -0.06130131 -0.049696 -0.12680025 -0.1719087 -0.1081261
-0.115441985 0.04115912 -0.63786703 -0.08563458 -0.06462834 -0.10927062 -0.18014294 0.076832764
-0.025321519 -0.1477774 -0.14200811 0.15428282 0.09379069 -0.07405208 -0.022538735 -0.042277142
-0.6135436 0.033607602 0.13150094 -0.061689176 0.20575888 0.1518995 0.047726233 -0.30148223
-0.03624949 -0.012466113 -0.07305103 -0.15114546 -0.14350101 -0.11565051 -0.15657756 -0.35632288
0.16464211 0.16155829 -0.0073792087 -0.004178182 -0.024680752 -0.086102426 0.0019062746 0.07366619
0.03245154 -0.03661151 0.017969588 -0.10021729 0.033527713 -0.2882791 0.05778582 -0.02743225
0.043416984 -0.17447235 -0.08261583 0.23415118 -0.029380582 0.1395674 0.063816816 0.017749583
-0.053308543 -0.031378403 -0.08935743 -0.0073285154 0.2394573 -0.031505857 0.05357292 -0.09715821
-0.07118257 -0.09062803 0.046548434 0.18810815 0.13164037 -0.14621635 0.081654266 0.057095014
0.05975057 -0.050025813 0.08338855 -0.19218446 0.030701471 0.048074905 0.031099113 -0.06428259
-0.033774562 -0.6842617 1.0535951 -0.11613467 -0.0027413336 0.083539754 -0.14262463 0.028475855
00000000: 5556 373d 5ebf abbd db34 0cbc ff4a 4d3e
00000010: 28e0 5b3d 8034 063f 6316 fa3d ca82 b93e
00000020: 1d9f 053e 3ce6 6fbe cc2b d9be 4629 33bf
00000030: 8f7a 013d ad43 1cbd 787e 3dbd f87d 7b3e
00000040: 4ac3 57be 8fd0 75bd 4465 3c3e 98d9 2abe
00000050: c564 223e 0dc9 983b 2344 85bc 378b 3abd
00000060: ab62 a13d cd1e 84bd 5999 77bd 6a47 ae3c
00000070: baba f43d 7304 be3d b095 4ebe 05f7 0abe
00000080: 20a3 0dbd ae2d a33c 1b7f 31be 74b5 96be
00000090: 1f5b 9c3c 7cc1 393c f1ce 443d ee0b 863d
000000a0: 7106 0e3e 9d43 2f3e 4f2f dabc aa55 09be
000000b0: 2593 02bb 8c88 133e 9c0c d1bd 1295 833e
000000c0: c9f7 b73c bec6 b1be ee28 d43d 1855 9fbc
000000d0: 1d48 063e 59aa dfbc 0210 c1bb dba2 8d3e
000000e0: 2093 91bd c2c2 97be eeaa 39be be00 653d
000000f0: 9700 af3d 9771 bbbd bc38 713b 0689 ca3d
00000100: 18de 5e3e 1078 b3bc d7d7 8abd 61fd ae3d
00000110: 5409 47bc 896d 3fbe 449e 9d3d 9672 a9bd
00000120: 74af 2abe f8f4 4abe 106f 16bd 941e 27bd
00000130: fb19 2cbc 8102 cd3d a39c bd3e 0f09 353e
00000140: 93a3 e3bd 8f69 05bd b0b9 a5bd fcc9 c73e
00000150: 13ca 59be 0e4b d73d 079b 903d 41dc d23d
00000160: d9aa 66be 600e a3be 7680 71be fc65 1a3d
00000170: 49be b93b eef9 c5bd 42a6 283e 0f5e 7b3c
00000180: 6fc9 fcbd b419 5bbe 4967 0c3e a199 12be
00000190: 8c22 0e3d 9a4a ddbc 8d4a 0cbe f1fa fabe
000001a0: 4617 083d 1e58 5b3d c719 133d 20b5 49be
000001b0: fd5b 303d c5b0 473e db20 a43e f13f 38be
000001c0: a99e ecbc c74c 3d3e 0a20 753e 5f80 0fbe
000001d0: b92c 97be dad2 c8be 9fdb 713d d6d9 a5bc
000001e0: 72e1 4ebe b0cb 68be 54c6 c3bb e28d 6c3d
000001f0: 837f 68bd 41ca 1abd 8267 a33c 7000 4abd
00000200: 1f1a 25bd c00d 41be 4cb4 b7bd b943 7fbe
00000210: d503 62bc a3c3 6d3d 7e35 52bc f25c 6dbe
00000220: 6a5a 78be 50ca a13d 266c 143e ed6d 66bd
00000230: b46b 343d c2d7 2cbe 9030 a4bc b310 a53d
00000240: 1588 10bd 006d 40bf d80d af3d a52e 76be
00000250: e5c6 57bd 8448 efba 5e4e bd3d 54c2 5bbd
00000260: b641 653a 1698 7c3b f953 1abd f4c9 70bd
00000270: 4fea 1b3d 6dd8 08bd 284d 4abe 892e f23c
00000280: 919a 0b3c 3a62 303d e137 aabc 1517 7bbd
00000290: 088e 4bbd edd7 01be d608 30be 3771 ddbd
000002a0: d96c ecbd 7796 283d 414b 23bf 2f61 afbd
000002b0: dd5b 84bd 46c9 dfbd 6477 38be 7f5a 9d3d
000002c0: 136f cfbc f552 17be 936a 11be 51fc 1d3e
000002d0: 5515 c03d 9ea8 97bd 27a3 b8bc cc2a 2dbd
000002e0: 3211 1dbf 20a8 093d 2fa8 063e caad 7cbd
000002f0: 75b2 523e 8b8b 1b3e 957c 433d e15b 9abe
00000300: 587a 14bd ab3e 4cbc c79b 95bd e0c5 1abe
00000310: eef1 12be 2dda ecbd de55 20be f46f b6be
00000320: f197 283e 896f 253e 4acd f1bb 22e9 88bb
00000330: 4a2f cabc 7856 b0bd f6db f93a 4dde 963d
00000340: e8eb 043d f3f5 15bd f534 933c b93e cdbd
00000350: 5b54 093d 5199 93be d3b0 6c3d 99b9 e0bc
00000360: 02d6 313d e1a8 32be 7d32 a9bd 54c5 6f3e
00000370: 8caf f0bc c2ea 0e3e 64b2 823d 9367 913c
00000380: 0f5a 5abd a486 00bd 0701 b7bd 0b24 f0bb
00000390: 4b34 753e 490c 01bd 476f 5b3d e2fa c6bd
000003a0: 2bc8 91bd 309b b9bd 92a9 3e3d 6c9f 403e
000003b0: bccc 063e bdb9 15be 5a3a a73d 76dc 693d
000003c0: 04bd 743d dee7 4cbd 9ec7 aa3d 01cc 44be
000003d0: a781 fb3c 31ea 443d 91c3 fe3c 97a6 83bd
000003e0: 3257 0abd c62b 2fbf 34dc 863f 04d8 edbd
000003f0: f2a7 33bb e416 ab3d 310c 12be 3246 e93c

model/dense_6/MatMul;model/activation_6/Relu;model/dense_6/BiasAdd f4 [100]
-8.145996 5.663849 9.119096 1.6050602 25.187372 -4.183437 7.682842 14.959714
-10.0836935 9.436399 25.451576 -1.588575 0.7022464 21.951805 6.5964227 -6.796627
16.788433 -2.4461718 23.903967 9.219955 43.008247 14.245398 -8.791241 -13.464928
3.8362927 13.757338 -1.8324436 19.581686 17.622746 -8.088247 -6.3954806 -0.08489578
3.4553945 1.3877442 2.9262102 36.046833 -23.240332 11.753526 -9.093083 4.7701344
12.874615 3.1474075 11.475639 -4.977668 17.211727 4.136275 -15.500551 7.381883
8.912911 9.226976 -3.1703367 -13.085826 0.2603374 13.265466 6.9972577 19.225313
19.843197 -12.997894 13.061777 22.029501 15.861887 0.36767912 -6.1955323 1.2041205
-9.148181 14.495796 28.73109 2.2759888 -7.726803 7.820527 23.25999 7.819821
-1.7058994 12.404682 4.039581 0.7257351 -11.251055 20.862518 -15.271013 0.0045614443
-1.3015305 -3.849453 -5.2876773 18.335672 13.978495 2.4057097 17.388046 2.1213067
-13.901468 -1.8842621 11.956868 -13.501378 8.810135 9.63966 -1.6024884 3.1664453
24.210775 1.212363 -15.81093 -3.034377
00000000: 0056 02c1 403e b540 d1e7 1141 9d72 cd3f
00000010: bd7f c941 b7de 85c0 d7d9 f540 fd5a 6f41
00000020: cf56 21c1 7efb 1641 d49c cb41 6d56 cbbf
00000030: 6cc6 333f 4c9d af41 e515 d340 f87d d9c0
00000040: b64e 8641 148e 1cc0 533b bf41 f084 1341
00000050: 7208 2c42 26ed 6341 eca8 0cc1 5870 57c1
00000060: d285 7540 0e1e 5c41 838d eabf 4ba7 9c41
00000070: 62fb 8c41 7669 01c1 c7a7 ccc0 d7dd adbd
00000080: 2f25 5d40 9aa1 b13f 0747 3b40 f52f 1042
00000090: 33ec b9c1 710e 3c41 457d 11c1 f1a4 9840
000000a0: 6cfe 4d41 206f 4940 389c 3741 0e49 9fc0
000000b0: 9eb1 8941 5d5c 8440 4202 78c1 6338 ec40
000000c0: 499b 0e41 b2a1 1341 cce6 4ac0 8b5f 51c1
000000d0: f24a 853e 593f 5441 89e9 df40 71cd 9941
000000e0: debe 9e41 60f7 4fc1 0afd 5041 6b3c b041
000000f0: 4aca 7d41 7040 bc3e cd41 c6c0 9f20 9a3f
00000100: f35e 12c1 c8ee 6741 46d9 e541 cda9 1140
00000110: f841 f7c0 c241 fa40 7614 ba41 f93b fa40
00000120: e95a dabf 9479 4641 3f44 8140 c7c9 393f
00000130: 5204 34c1 70e6 a641 1256 74c1 2b78 953b
00000140: 8d98 a6bf 705d 76c0 a734 a9c0 75af 9241
00000150: eaa7 5f41 26f7 1940 b81a 8b41 7dc3 0740
00000160: 6a6c 5ec1 802f f1bf 554f 3f41 a505 58c1
00000170: 50f6 0c41 0c3c 1a41 571e cdbf 0aa7 4a40
00000180: abaf c141 b62e 9b3f 92f9 7cc1 3c33 42c0
