corintho_ai/python/tflite_models/model_86.tflite (tflite, 521576 bytes, 27 tensors)

model/dense_1/MatMul;model/activation_1/Relu;model/dense_1/BiasAdd f4 [100]
0	0xc1a65cfa	-20.795399
1	0x4315de5a	149.86856
2	0xc28830fe	-68.09569
3	0x40b39a9e	5.612624
4	0x42869235	67.28556
5	0x4239b028	46.422028
6	0x42ab1a7a	85.55171
7	0xc1f799eb	-30.950155
8	0xc2412ea0	-48.295532
9	0x3e12c55e	0.14333102
10	0xc0a29356	-5.0804853
11	0xc26294f0	-56.645447
12	0x41953911	18.652864
13	0xc242f425	-48.738422
14	0xc10a7145	-8.652654
15	0xc293cdc3	-73.90188
16	0x421a7cbd	38.621815
17	0x418414e3	16.510199
18	0xc13b948d	-11.723767
19	0x40a536c7	5.1629367
20	0x4160714e	14.027662
21	0x3d853f87	0.065062575
22	0x413aad8a	11.667368
23	0xc282e5e6	-65.44902
24	0x42a7b37c	83.850555
25	0x41338eeb	11.222392
26	0x3fd5d1fa	1.6704705
27	0xc0e757bf	-7.229461
28	0xc28f7412	-71.7267
29	0x423dc506	47.442406
30	0xc22cb42c	-43.17595
31	0x41108fca	9.035105
32	0x421f2c5c	39.79332
33	0xc20c41d4	-35.064285
34	0x42a003f7	80.007744
35	0x4281825d	64.754616
36	0x415caba7	13.791907
37	0xc203fa17	-32.99423
38	0x41b9a986	23.207775
39	0x420e1546	35.520775
40	0x42a0de23	80.43386
41	0xc1d50463	-26.627142
42	0xc254750c	-53.114304
43	0xbf915c24	-1.1356244
44	0x4163c3f4	14.23534
45	0xc201c068	-32.437897
46	0x3f3c98a3	0.73670405
47	0xc2140c49	-37.011997
48	0xc15f1ef3	-13.945056
49	0xc0dbb323	-6.8656173
50	0x41e2c02a	28.34383
51	0xc264a1d0	-57.15802
52	0x41887f3b	17.062124
53	0x4315a8ac	149.65887
54	0xc0a6a46d	-5.2075715
55	0x41f578c0	30.68396
56	0x415a074b	13.6267805
57	0xc1aa574a	-21.292622
58	0x41e0ab8e	28.083767
59	0xc11b0d69	-9.690774
60	0x41ce4d0a	25.787617
61	0x429add5d	77.43235
62	0xc08b3438	-4.3501244
63	0x421e27b3	39.53877
64	0x425a9fdf	54.656124
65	0x42bef286	95.47368
66	0x4306557b	134.33391
67	0x4124f8c2	10.310732
68	0xc1d62d13	-26.772009
69	0xc2cfedec	-103.96469
70	0xc1fed306	-31.853039
71	0xc20823b8	-34.03488
72	0xc14b8a77	-12.721305
73	0x42f20a22	121.01979
74	0xc1109f42	-9.038881
75	0x42a25ec9	81.18513
76	0xc0bd01d8	-5.906475
77	0x40f93ce9	7.7886853
78	0xc3048e13	-132.55498
79	0xc0a33075	-5.099665
80	0x41c39107	24.445814
81	0x4232661c	44.599716
82	0x419568ca	18.676167
83	0xc1d0d5fc	-26.104485
84	0x40fb13fe	7.8461905
85	0x42ab78d6	85.73601
86	0x4234f552	45.23957
87	0xc1b6138f	-22.75955
88	0x42b3b894	89.860504
89	0x421da9db	39.415874
90	0x42d3df99	105.936714
91	0x41788cec	15.534405
92	0x4288f768	68.483215
93	0x410fce00	8.987793
94	0x41a5d7d3	20.730383
95	0xc101f676	-8.122671
96	0x4321e8be	161.90915
97	0x4211df08	36.467804
98	0x418858c6	17.043346
99	0xc2b6c3ac	-91.38217

model/batch_normalization/batchnorm/mul_1;model/batch_normalization/batchnorm/add_1;model/dense_1/MatMul;model/activation_1/Relu;model/dense_1/BiasAdd f4 [100, 100]
0	0x3e140e2f	0.14458536
1	0xbf34107f	-0.7033767
2	0x3eb73d75	0.35789075
3	0x3e1398f4	0.14413816
4	0x3fbf6811	1.4953634
5	0x3e94abe1	0.29037383
6	0xbf843093	-1.0327324
7	0xbf87563a	-1.0573189
8	0x3dcda1ec	0.1004065
9	0x3f1a0155	0.6015828
10	0x3ef60bf0	0.48055983
11	0x3e0df105	0.13861473
12	0x3e874dc2	0.26426512
13	0x3bae54c4	0.0053201634
14	0xbf2643e5	-0.6494735
15	0x3cedfcc2	0.029051188
16	0x3e04b441	0.12959386
17	0xbfcb8531	-1.5900022
18	0x3e976dc7	0.2957594
19	0xbf09f2da	-0.5388619
20	0xbdcfec14	-0.1015245
21	0x4081586f	4.042045
22	0xbda43607	-0.080181174
23	0x39dd010a	0.0004215318
24	0xbdbcf1fa	-0.09225841
25	0x3e433917	0.19064747
26	0xbd99f8cf	-0.075181596
27	0xbf8d90f6	-1.1059864
28	0x3e307051	0.17230345
29	0xbe97d615	-0.2965552
30	0xbd29d0c0	-0.041458845
31	0x3f271f59	0.6528221
32	0x3db39dfe	0.08770369
33	0xbf01ba7e	-0.5067519
34	0x3d8c4198	0.068484485
35	0xbe167178	-0.14691722
36	0xbe32ba60	-0.17453909
37	0xbe4365d4	-0.19081813
38	0xbd55c0ab	-0.052185696
39	0x3e1355bb	0.14388172
40	0x3ed7ab0b	0.42122683
41	0x3f97b7e1	1.185299
42	0x3ed70f9e	0.42004102
43	0x3e629a8c	0.22129267
44	0xbe75a1a1	-0.23987438
45	0xbe2e2c8e	-0.17009184
46	0x3e9a38e8	0.3012154
47	0xbd92796c	-0.07152066
48	0x3f40c978	0.75307417
49	0x3e201437	0.15632711
50	0x3cbc43a6	0.022981476
51	0xbfbc5b32	-1.4715331
52	0x3f37ec74	0.71845174
53	0x40a4a491	5.1450887
54	0x3e765ae1	0.24058105
55	0xbd16aa9c	-0.0367838
56	0xbdd9ccd5	-0.10634772
57	0x3eca1349	0.39467838
58	0x3f9c783d	1.2224194
59	0x3f089cbb	0.5336415
60	0x3ece6a62	0.4031554
61	0xbe0e2e41	-0.13884832
62	0x3e076e90	0.1322577
63	0xbf696321	-0.91166884
64	0x3eab636b	0.33474287
65	0xbeddd4ac	-0.43326318
66	0xbe4198a4	-0.18905884
67	0x3ebc194b	0.36738047
68	0xbd8d935b	-0.069128715
69	0x3f59636c	0.8491733
70	0x3ef4f063	0.4783965
71	0xbe314977	-0.17313181
72	0xbda05089	-0.07827861
73	0xbdac45b0	-0.08411729
74	0x3f35a746	0.70958364
75	0xbf4bdc05	-0.796326
76	0xbefea323	-0.49733838
77	0xbb720ecb	-0.0036935087
78	0x3e020b3c	0.12699598
79	0x3eb306c2	0.34966093
80	0xbf62cb1d	-0.88591176
81	0x3e69ab4a	0.22819248
82	0xbe2808f5	-0.16409667
83	0xbdb87fd8	-0.09008759
84	0xbe8ae0c3	-0.27124605
85	0xbe688766	-0.227079
86	0xbe0bafce	-0.13641283
87	0xbf71aeba	-0.94407237
88	0xbe1d154a	-0.15340152
89	0xbe41dff5	-0.18933089
90	0xbf956731	-1.1672117
91	0x3f8b3284	1.0874791
92	0x3dffcd8d	0.124903776
93	0xbec0f437	-0.3768632
94	0xbe43fbbf	-0.19139002
95	0x3e4e3849	0.20138659
96	0x3e815a7c	0.25264347
97	0xbdf6560d	-0.12028132
98	0xbecb18c9	-0.39667347
99	0xbe3243c2	-0.1740866
100	0xbf7d4c26	-0.9894432
101	0xbf956c9f	-1.1673774
102	0xbea1c20f	-0.31593367
103	0x3d701f48	0.058623582
104	0xbf9d52a2	-1.2290843
105	0x4004ba92	2.0738873
106	0x3f30e49f	0.6909885
107	0x3e62af61	0.22137214
108	0x3d2a28a8	0.04154268
109	0xbf1c5ea0	-0.61081886
110	0x3e98f08d	0.29871026
111	0x3d7ef745	0.062247533
112	0xbf8a2a62	-1.0794184
113	0xbe207e5f	-0.15673207
114	0xbeb5255b	-0.35380062
115	0xbf45fd17	-0.7733931
116	0x3d10963f	0.035299536
117	0xbfcf3233	-1.6187195
118	0xbf781b76	-0.969169
119	0xbd80b5da	-0.062846854
120	0xbef31368	-0.47475743
121	0xbd478756	-0.04871305
122	0xbe00aea2	-0.12566617
123	0xbd0f9e39	-0.035063002
124	0x3e0e999e	0.13925788
125	0xbd38a6bc	-0.045080885
126	0xbeccf48e	-0.4003033
127	0xbde64720	-0.11244035
128	0xbe76e93b	-0.24112408
129	0x3e00637a	0.12537947
130	0x398b32ca	0.00026549987
131	0x3e9c143c	0.30484188
132	0x3d56a797	0.05240592
133	0xbc2f50d0	-0.01070042
134	0xbf0c0649	-0.5469709
135	0x3cdd1d15	0.026991406
136	0xbeced103	-0.40393838
137	0xbfe7ee18	-1.8119535
138	0xbf39dd4f	-0.72603315
139	0xbf59de52	-0.8510486
140	0x3e645dac	0.22301358
141	0xbec61cf0	-0.38693953
142	0xbf8746c4	-1.0568471
143	0xbe3d9283	-0.18512921
144	0xbe0d29ea	-0.1378552
145	0xbf8c0451	-1.0938817
146	0x3d68b782	0.05681563
147	0x3dfe4741	0.12415934
148	0xbe589026	-0.21148738
149	0x3e8c6740	0.27422523
150	0x3de7f0c8	0.11325222
151	0x3fbf6e35	1.4955508
152	0xbeb1148b	-0.34585986
153	0x3f617e55	0.8808339
154	0x3cf57fd7	0.029968185
155	0xbebfd490	-0.3746686
156	0xbf106764	-0.5640776
157	0x3f879a00	1.0593872
158	0x3fda391d	1.704868
159	0x3e15062f	0.1455314
160	0x3e2e2d03	0.17009358
161	0x3f23c2ce	0.63969123
162	0x3d351478	0.044208974
163	0xbf6179e1	-0.880766
164	0xbf692d7b	-0.9108502
165	0xbee429ec	-0.44563234
166	0x3e8f3dc6	0.27976817
167	0x3f5e1bb2	0.8676101
168	0xbec332a7	-0.38124582
169	0xbe16c4b2	-0.14723471
170	0x3b598af0	0.0033194385
171	0x3ed94b8b	0.42440447
172	0x3e814653	0.25248966
173	0x3e25c6dc	0.1618914
174	0xbe8bd104	-0.27307904
175	0xbef093a2	-0.46987635
176	0xbf05872e	-0.5215939
177	0xbf291c02	-0.6605836
178	0x3f241e0e	0.6410836
179	0x3ddf4c90	0.10903275
180	0x3ce88a87	0.028386367
181	0xbf86612c	-1.0498405
182	0x3f2886e3	0.6583082
183	0x3f4f9ae2	0.8109571
184	0xbe0a85bb	-0.13527577
185	0x3e45a50f	0.19301246
186	0x3cf0d0e9	0.029396491
187	0x3ec19881	0.37811664
188	0x3e573e0a	0.2101976
189	0x3e1f346c	0.15547341
190	0xbe821c82	-0.25412375
191	0x3f6b8b67	0.92009586
192	0xbefc191a	-0.492379
193	0xbf049e62	-0.51804173
194	0xbf228570	-0.6348486
195	0xbe2dbe64	-0.1696716
196	0xbe929ffe	-0.2863769
197	0xbf36c49a	-0.7139374
198	0xbf4a6ef4	-0.7907555
199	0xbe361815	-0.17782624
200	0x3f6e04c8	0.92976046
201	0xbf1c3c10	-0.6102915
202	0x3ba725f0	0.005100958
203	0x3e4a4c8d	0.19755764
204	0x3f83e749	1.0304958
205	0xbc3e9b55	-0.011633714
206	0x3f8549d3	1.0413154
207	0xbfb77e04	-1.4335332
208	0xbf807518	-1.0035734
209	0xbf390d19	-0.7228561
210	0xbd930066	-0.0717781
211	0x4008291b	2.1275089
212	0xbd12774b	-0.035758298
213	0x3d55ddda	0.052213527
214	0xbe759e21	-0.23986103
215	0x3f0aa38d	0.5415581
216	0x3eac4ab2	0.33650738
217	0xbf0c4dfd	-0.548065
218	0xbf9fe7fd	-1.2492672
219	0x3d2bf772	0.04198403
220	0xbd95774d	-0.072981454
221	0xbf82871a	-1.019748
222	0xbc0d9443	-0.008641305
223	0x3d885d08	0.06658369
224	0x3bdf9b86	0.0068239598
225	0xbd648e5e	-0.055799834
226	0xbefbe432	-0.49197537
227	0x3dcbcc9e	0.09951137
228	0x3f57a48b	0.8423545
229	0x3e9bb39a	0.30410463
230	0x3f4bad79	0.79561573
231	0x3f2b97cd	0.67028505
232	0xbe08630e	-0.13319036
233	0x3ea9d42b	0.33169684
234	0x3f392ee8	0.723372
235	0xbcbc79a7	-0.023007227
236	0xbe07210b	-0.13196199
237	0x3e06559d	0.13118596
238	0x3f16d7f7	0.58923286
239	0xbf6d9758	-0.9280906
240	0x3e80c173	0.2514759
241	0xbe01cce6	-0.12675819
242	0x3f972071	1.1806775
243	0x3d9aa67a	0.07551284
244	0x3e4bd05a	0.19903699
245	0xbfa05c9e	-1.2528265
246	0x3f69d7d9	0.9134498
247	0x3e146d86	0.14494905
248	0xbfc4bd3e	-1.5370252
249	0xbc878172	-0.016541217
250	0x3e2664ce	0.16249391
251	0x3eda20c0	0.4260311
252	0xbe964c83	-0.2935525
253	0x3d243ca3	0.04009689
254	0xbdafecc2	-0.0859008
255	0x3e8cf849	0.27533177

model/dense_2/MatMul;model/activation_2/Relu;model/dense_2/BiasAdd f4 [100]
0	0x42918e8c	72.77841
1	0xc2abf693	-85.98159
2	0xc0d06975	-6.512873
3	0xc286fcd3	-67.4938
4	0xc1583356	-13.512533
5	0x41884624	17.034248
6	0x41e4878d	28.566187
7	0x4204eb0a	33.22953
8	0xc1902e66	-18.022655
9	0x409953f9	4.7915006
10	0xc10f1df3	-8.944812
11	0xc17a714d	-15.652661
12	0xc0787932	-3.8823972
13	0x418b6518	17.424362
14	0xbfcac8bd	-1.584251
15	0xc29c6b75	-78.20988
16	0xc2772897	-61.78964
17	0x41a9811c	21.188042
18	0x3fe3e449	1.7804042
19	0xc09d2af2	-4.9114923
20	0x4280c64f	64.38732
21	0x40d90ac7	6.7825656
22	0x4200a1bc	32.157944
23	0x419983df	19.18939
24	0x3f1978ad	0.5994976
25	0x41b612be	22.759151
26	0xc07627b0	-3.8461723
27	0x4277c0dd	61.938343
28	0xc199e0a4	-19.234688
29	0x4154fc9a	13.31167
30	0x40c455a2	6.135453
31	0x417667ac	15.4003105
32	0x420fc4f2	35.94233
33	0xc15d68f9	-13.838128
34	0x41c330a7	24.398756
35	0xc27953de	-62.3319
36	0x42baea11	93.45716
37	0xc1d5a7ea	-26.70699
38	0xc1c9384f	-25.152494
39	0xc1b0a706	-22.081554
40	0xc18766cb	-16.925192
41	0xc288d5be	-68.417465
42	0xc0274a75	-2.6139195
43	0xc1c0cf3e	-24.101192
44	0xc2428406	-48.62893
45	0x4230a5e2	44.161995
46	0xc1ed4e27	-29.66316
47	0xc1a3332e	-20.39999
48	0xc219820a	-38.37699
49	0x4160e068	14.054787
50	0x428eadd6	71.33952
51	0x42964eb4	75.15372
52	0x41a2b927	20.340406
53	0x4086f571	4.217461
54	0x3fc85c47	1.5653161
55	0x40a85d11	5.2613606
56	0x40cb3402	6.3500986
57	0x42829fae	65.311874
58	0x4232c0fd	44.688465
59	0xc210b218	-36.17392
60	0xc18005ee	-16.002895
61	0xc116a79a	-9.415918
62	0xc18cd1d8	-17.602463
63	0x430b6ef9	139.43349
64	0x41c272fd	24.306147
65	0x41736604	15.212406
66	0xc287c3bb	-67.882286
67	0xc247e78f	-49.97613
68	0x40fe5723	7.948137
69	0x423d5a15	47.33797
70	0xc320134d	-160.0754
71	0x41ed05be	29.627804
72	0xc1774c3b	-15.456111
73	0x41876b2e	16.927334
74	0xc265fa40	-57.494385
75	0xc1f2b251	-30.337069
76	0x420bbb5a	34.93296
77	0xc211c094	-36.438065
78	0xc2059ef4	-33.405228
79	0x42769c8f	61.65289
80	0x4281b6ce	64.85704
81	0x42548a96	53.135338
82	0x424d5058	51.32846
83	0x420e390a	35.555702
84	0xc134ef36	-11.308401
85	0xc275de02	-61.466805
86	0xbd39cd2d	-0.045361686
87	0x42441d48	49.028595
88	0x421b22f1	38.784122
89	0x42000c1b	32.01182
90	0xc2499827	-50.398586
91	0x41c7dea7	24.983717
92	0x41d0acc1	26.084352
93	0x419cedc2	19.616093
94	0xc1d785a8	-26.940262
95	0x428d1ef0	70.560425
96	0x42a15d72	80.68251
97	0x424be3ed	50.972584
98	0x4132df59	11.179528
99	0xc19a925e	-19.321468

model/batch_normalization_1/batchnorm/mul_1;model/batch_normalization_1/batchnorm/add_1;model/dense_2/MatMul;model/activation_2/Relu;model/dense_2/BiasAdd f4 [100, 100]
0	0xbd1d51df	-0.038408156
1	0xbd1b311e	-0.03788864
2	0x3e9f33cc	0.31094205
3	0x3d2b3162	0.041795142
4	0xbe5e7ae7	-0.21726571
5	0xbe216a03	-0.15763097
6	0x3dfd1b82	0.12358762
7	0xbd567480	-0.052357197
8	0x3e5aefbc	0.21380514
9	0xbd2998f7	-0.041405644
10	0x3e01a9e4	0.12662464
11	0x3e3bc774	0.18337804
12	0x3dca9f60	0.098936796
13	0xbe2f8007	-0.17138682
14	0xbe6aaacb	-0.22916715
15	0x3da26628	0.07929641
16	0xba9251de	-0.0011163314
17	0xbe5ea717	-0.21743427
18	0x3e16a212	0.14710262
19	0xbb9465dd	-0.0045287446
20	0xbde1470b	-0.109998785
21	0xbd3e3460	-0.046436667
22	0x3d9a2991	0.075274594
23	0x3de6ffe6	0.112792775
24	0xbdedaeba	-0.11605592
25	0xbd2c4868	-0.04206124
26	0xbcb7bd50	-0.022429138
27	0x3d07e621	0.033178452
28	0xbe347222	-0.17621663
29	0xbdd9ba82	-0.10631277
30	0xbc705731	-0.014669226
31	0x3b3e390d	0.0029025704
32	0xbe8ce537	-0.27518627
33	0x3d028651	0.031866375
34	0xbd2f1fd3	-0.04275496
35	0x3e165e0e	0.14684317
36	0xbd4a0d10	-0.049328864
37	0x3d60ad1a	0.054852583
38	0x3d55cf31	0.052199546
39	0xbdff5cc3	-0.12468865
40	0xbcec0ebe	-0.028815623
41	0xbe467e1d	-0.19384046
42	0xbe9c43b8	-0.30520415
43	0x3dcfba91	0.101430066
44	0x3d4d7d9e	0.050168626
45	0xbcb8cf2d	-0.022559727
46	0xbde13fe6	-0.10998516
47	0xbdb9afdc	-0.09066746
48	0xbdc10118	-0.09424037
49	0x3ceb04da	0.028688837
50	0x3dac6cc4	0.08419183
51	0x3d634386	0.055484317
52	0xbbce27b9	-0.0062913564
53	0xbe57fc32	-0.21092299
54	0xbe02cd7f	-0.12773703
55	0xbd46ac69	-0.048504267
56	0x3ce2be28	0.027678564
57	0x3d278682	0.04089976
58	0x3e47393f	0.19455431
59	0xbd5a50f3	-0.053299855
60	0x3e11d00d	0.14239521
61	0xbdd94834	-0.10609475
62	0x3db4046e	0.087899074
63	0xbe816fd2	-0.25280625
64	0xbb90bcde	-0.004417046
65	0x3d53fada	0.051752903
66	0x3d9b335a	0.07578154
67	0xbd079549	-0.033101354
68	0xbcade1af	-0.021225778
69	0xbcda31b1	-0.026635023
70	0xbe6c6425	-0.23085077
71	0xbe219c20	-0.15782213
72	0xba38a376	-0.00070434005
73	0xbd60d052	-0.05488617
74	0xbe83176a	-0.256038
75	0xbd8ee49d	-0.06977198
76	0x3dd6f29d	0.104954936
77	0xbca6ecf8	-0.020376667
78	0xbd78a5a2	-0.060704835
79	0xbe9bb084	-0.30408108
80	0x3da10f67	0.07864266
81	0xbdca1c32	-0.09868659
82	0x3d80d3de	0.062904105
83	0x3d3b34bc	0.04570459
84	0xbd2261bf	-0.039644
85	0xbc85ca85	-0.01633192
86	0x3dbce47a	0.09223266
87	0xbc86376a	-0.016383845
88	0xbe08f47a	-0.1337451
89	0x3d58c1f4	0.052919343
90	0x3d9cec24	0.07662228
91	0xbc9879d6	-0.018612783
92	0xbda01ef2	-0.07818402
93	0xbe2fca15	-0.17166932
94	0xbe9cc60a	-0.30619842
95	0x3e536145	0.20642574
96	0x3e515250	0.20441556
97	0xbee28bf4	-0.442474
98	0x3d9bc4ec	0.07605919
99	0xbeaf9d32	-0.34299618
100	0xbd4b5452	-0.04964096
101	0x3d38ca1d	0.045114625
102	0xbc33f453	-0.010983544
103	0xbd6b3665	-0.05742492
104	0x3ce7a1ca	0.02827539
105	0x3d813c88	0.063103735
106	0x3d80b1ad	0.06283889
107	0x3d335db4	0.043790534
108	0x3d681698	0.056662172
109	0x3d5ba4f8	0.053624123
110	0xbd01500c	-0.03157048
111	0x3d489483	0.048969757
112	0xbcec44fa	-0.028841484
113	0xbda35bf8	-0.07976526
114	0x3db17ac5	0.086659946
115	0x3d931835	0.071823515
116	0x3a239dec	0.0006241489
117	0xbc123948	-0.00892479
118	0xbddbdbcd	-0.10735283
119	0x3d8e10c5	0.06936792
120	0xbe0d03b7	-0.13770948
121	0x3cbe67ad	0.023242796
122	0x3de17944	0.11009458
123	0x3db69c0f	0.089164846
124	0x3c3e6650	0.011621073
125	0x3ceb9c42	0.028761033
126	0xbde8606e	-0.113465175
127	0xbdcffe9c	-0.10155985
128	0x3c55df9a	0.013053799
129	0xbcfdeae0	-0.030995786
130	0x3e63a0ec	0.22229356
131	0x3e89bf38	0.269037
132	0x3dd6bd45	0.10485319
133	0xbca9c880	-0.020725489
134	0x3da3a829	0.079910584
135	0xbcdd435f	-0.027009664
136	0xbcf670ac	-0.030083023
137	0x3df4f24a	0.119602755
138	0xbd31bce2	-0.043393023
139	0x3cf693a4	0.030099697
140	0xbc4a39af	-0.012342854
141	0x3c28d640	0.010304987
142	0x3c71642e	0.014733357
143	0x3c831150	0.015999466
144	0x3db13f4f	0.08654653
145	0x3dbf7ebc	0.093503445
146	0x3da7d722	0.0819533
147	0x3d5829c8	0.05277422
148	0x3d84e0ac	0.06488165
149	0x3d8f22ea	0.06989081
150	0x3d842921	0.06453157
151	0xbde6dac2	-0.112721935
152	0x3e6b0c11	0.22953822
153	0x3f61239d	0.87944967
154	0x3db244b0	0.08704507
155	0x3da71f27	0.08160239
156	0x3e2185f0	0.1577375
157	0x3d0339d1	0.03203756
158	0x3c916f72	0.017753337
159	0x3d0b3c67	0.03399315
160	0x3d47ef82	0.048812397
161	0xbdfda8aa	-0.12385686
162	0x3ea8c8b8	0.32965636
163	0x3da11291	0.078648694
164	0x3d3af7fe	0.04564666
165	0x3d98f3ed	0.074684
166	0xbe34a84b	-0.17642324
167	0xbcd1d9f3	-0.025616622
168	0x3d2ab8d2	0.041680165
169	0xbd47c262	-0.048769362
170	0xbdbf818e	-0.093508825
171	0x3cfb4675	0.030673245
172	0xbbdfcb0b	-0.0068296245
173	0x3e8cd43e	0.27505678
174	0x3ce672fe	0.028131004
175	0xbe023df5	-0.12718947
176	0x3dcc14b8	0.09964889
177	0x3dba9821	0.091110475
178	0xbcb18431	-0.02166948
179	0xbdf54664	-0.119763166
180	0x3d84bada	0.064809516
181	0xba9a2988	-0.0011761645
182	0x3d13ee2c	0.03611581
183	0x3e2e091e	0.16995665
184	0x3cf1c270	0.02951166
185	0xbc84e0e1	-0.016220512
186	0xbd4b1af5	-0.049586255
187	0xb9b52a66	-0.000345546
188	0x3cd13b96	0.025541108
189	0x3dc36ad7	0.095418625
190	0x3eefedd4	0.46861136
191	0x3d5cd922	0.05391801
192	0xbe541f62	-0.20715097
193	0x3e0a5353	0.13508348
194	0xbca98f5b	-0.02069824
195	0xbdf2aa6f	-0.11848914
196	0xbe65e13a	-0.22449198
197	0xbc375bc9	-0.011191317
198	0xbe9c54e1	-0.30533507
199	0xbe04b302	-0.12958911
200	0x3ea72d53	0.32651767
201	0x3e47bd6c	0.19505852
202	0xbd425057	-0.0474399
203	0x3dd02cd9	0.10164804
204	0x3b05f377	0.0020439306
205	0xbba2f1d2	-0.004972675
206	0x3d8e950b	0.069620214
207	0xbc212b28	-0.009836949
208	0xbd8e1a8c	-0.06938657
209	0x3e419c6b	0.18907325
210	0x3ce1db63	0.027570432
211	0x3d750580	0.0598197
212	0xbc1eec06	-0.009699827
213	0xbdc04fc4	-0.09390214
214	0xbd20cbc2	-0.03925682
215	0xbe61b28e	-0.2204077
216	0x3d37d475	0.04488035
217	0x3d035f0b	0.032073062
218	0xbd80b78e	-0.0628501
219	0x3e12d5a6	0.14339313
220	0x3e2b6ae9	0.16740002
221	0xbc892a03	-0.016743666
222	0x3c1577d8	0.009122811
223	0x3b5c1177	0.0033579746
224	0xbd20a3c7	-0.03921869
225	0xbdaad14b	-0.08340701
226	0xbbe7f1d2	-0.007078388
227	0xbd33151a	-0.043721296
228	0x3d96cc1c	0.073631495
229	0xbc2d65e0	-0.010583371
230	0xbc5be839	-0.013422065
231	0x3df743d3	0.12073483
232	0xbde13947	-0.10997253
233	0x3d4f3747	0.050589826
234	0xbe0d746e	-0.13813946
235	0xbd42d61b	-0.047567468
236	0x3d9a4ac1	0.075337894
237	0x3c5cae09	0.013469228
238	0xbd05c22d	-0.032655884
239	0x3db6a216	0.08917634
240	0x3d715bd2	0.058925457
241	0x3f13901d	0.57641774
242	0x3d965eec	0.07342324
243	0x3d7a6da3	0.061139714
244	0x3e2da135	0.16956027
245	0x3d240fd0	0.040054142
246	0xbd171d79	-0.03689334
247	0x3cb1ba40	0.021695256
248	0xbd95b6c7	-0.07310253
249	0x3d8f0997	0.06984251
250	0x3ddf72e5	0.10910586
251	0xbc4e4311	-0.012589232
252	0xbd1816b4	-0.037131026
253	0xbc9cef10	-0.019156963
254	0xbd9ec258	-0.07751912
255	0xba8c71f2	-0.0010715111

model/dense_3/MatMul;model/activation_3/Relu;model/dense_3/BiasAdd f4 [100]
0	0xc1e81c91	-29.013948
1	0x4246bb47	49.682888
2	0x4141d74b	12.115062
3	0xc0b9ce7a	-5.8064547
4	0x4181b79e	16.214657
5	0xc18e0a27	-17.754957
6	0xc04f1587	-3.235689
7	0x41831d68	16.389359
8	0x4241515d	48.329456
9	0x41b0dd68	22.108109
10	0x4238112c	46.01677
11	0x424b333e	50.80004
12	0x4246a058	49.656586
13	0x3f50c47b	0.81549805
14	0x417d9229	15.848184
15	0x411d91d7	9.848105
16	0xc0fdc039	-7.9297147
17	0x41777775	15.466664
18	0x410a650f	8.6496725
19	0xc092d6a7	-4.5887027
20	0x420325e6	32.78701
21	0xc113942f	-9.223678
22	0xbf76d9cc	-0.9642608
23	0x420e85cd	35.630665
24	0x424d9288	51.393097
25	0x4274f8e3	61.243053
26	0x41f7d88c	30.980736
27	0xc0da250b	-6.817022
28	0xc1602872	-14.009874
29	0xc246cf52	-49.70246
30	0x41630b5b	14.190272
31	0x41b5c372	22.720432
32	0x41c1898b	24.19216
33	0xc006c9e4	-2.1060724
34	0x415a3ce0	13.639862
35	0x42898b03	68.77151
36	0xbfe29b76	-1.7703693
37	0x41e61d07	28.764174
38	0xc20cb6dd	-35.178577
39	0x4127e09d	10.492337
40	0x42258281	41.377445
41	0x423258e7	44.58682
42	0x4258110d	54.01665
43	0xc1dec0de	-27.844173
44	0x40640e2d	3.5633652
45	0x40c1fdb5	6.06222
46	0xc1b590ea	-22.695759
47	0x4094058e	4.625678
48	0x41d524df	26.643003
49	0x3dded3b6	0.108802244
50	0x414f0a8b	12.940074
51	0xc20e205a	-35.531593
52	0xc19921f0	-19.141571
53	0xc21c19f5	-39.02535
54	0xc1e6dbe2	-28.857365
55	0x41922a7a	18.27074
56	0xbf6a3eda	-0.91502154
57	0xc1999b5c	-19.20086
58	0x4122da6f	10.1783285
59	0x41b1d08a	22.226826
60	0xc07e6e34	-3.9754763
61	0x407a298f	3.9087865
62	0x40cca6ea	6.3953753
63	0x41a6759c	20.807426
64	0xc158b1b7	-13.543387
65	0x40a55ccc	5.1675777
66	0x4136b806	11.419928
67	0x3efff3e8	0.49990773
68	0x41909a8f	18.075468
69	0xc0d6e752	-6.7157373
70	0xc0d6793c	-6.702299
71	0x40e4a45a	7.1450624
72	0xbf6eec71	-0.9332953
73	0xc1edc35d	-29.720392
74	0x4216e75e	37.725945
75	0xbfdf559f	-1.7448004
76	0xc1b5556f	-22.666716
77	0x412e1034	10.878956
78	0x40019503	2.02472
79	0xc21bdc5c	-38.965195
80	0xc24028fc	-48.040024
81	0xbf1848eb	-0.59486264
82	0xbf80e012	-1.0068381
83	0x41e85295	29.040323
84	0xc02b1c42	-2.6735997
85	0xc1c15f52	-24.171543
86	0x416a1701	14.630616
87	0x402e9a3c	2.7281637
88	0xc155bf4b	-13.359202
89	0x4130d5e7	11.052222
90	0xc0b5eeb3	-5.685388
91	0x42121ec8	36.53006
92	0xc0b9be99	-5.8045163
93	0xbf229d43	-0.6352121
94	0x41bf3449	23.90053
95	0xc26d119f	-59.26721
96	0x4064ea20	3.5767899
97	0x41be3b19	23.778856
98	0x41d7670c	26.925316
99	0x40ae79bd	5.4523606

model/batch_normalization_2/batchnorm/mul_1;model/batch_normalization_2/batchnorm/add_1;model/dense_3/MatMul;model/activation_3/Relu;model/dense_3/BiasAdd f4 [100, 100]
0	0x3dad6f05	0.08468441
1	0x3cd85f19	0.026412534
2	0xbc99a90e	-0.01875737
3	0x3cbec55a	0.023287464
4	0x3d3a1766	0.04543247
5	0xbd4467f5	-0.047950704
6	0x3d8b779b	0.06809922
7	0x3e631548	0.22176087
8	0xbe009a5a	-0.1255888
9	0xbd2b4354	-0.041812256
10	0xbe8504bd	-0.25980178
11	0xbd25b7af	-0.040458377
12	0xbdeb9ce5	-0.11504535
13	0xbd6aa364	-0.057284728
14	0x3d336c3d	0.043804396
15	0x3c98db54	0.018659271
16	0xbc79fb0f	-0.015257611
17	0x3e005af9	0.12534703
18	0x3d9d0703	0.07667353
19	0x3c488d13	0.012240666
20	0xbc04feaa	-0.008117357
21	0x3d8df85b	0.06932136
22	0x3f111fa9	0.56688935
23	0xbd917298	-0.07101935
24	0x3d14765b	0.036245685
25	0xbcbbe022	-0.022934023
26	0x3da207fa	0.07911678
27	0x3c82a945	0.015949855
28	0xbe5fc9e4	-0.21854359
29	0xbe0a73bb	-0.1352071
30	0xbd8e5d22	-0.069513574
31	0xbdb7b1e8	-0.0896948
32	0xbbe599c3	-0.007006855
33	0xbbb896ff	-0.0056332345
34	0xbe5c41df	-0.21509503
35	0xbe400ff4	-0.18756086
36	0x3ddb3f73	0.10705461
37	0xbd306c5c	-0.04307209
38	0xbd3ea1b9	-0.04654095
39	0xbcaeb4c5	-0.021326432
40	0xbcbcdeee	-0.02305552
41	0x3c54714d	0.012966466
42	0x3cc87af9	0.0244727
43	0x3e2581b8	0.16162765
44	0xbc6254d6	-0.013814172
45	0xbc98bc5a	-0.0186445
46	0x3dc59f21	0.09649492
47	0xbe6b55d4	-0.2298196
48	0x3dc59c75	0.096489824
49	0x3e923469	0.2855561
50	0x3dad8a3d	0.084736325
51	0x3d9edaa2	0.07756545
52	0x3d47867e	0.048712246
53	0x3d8e302d	0.069427826
54	0xbdb1c2b4	-0.08679715
55	0x3d825e0d	0.06365595
56	0x3dacf0ed	0.084443904
57	0x3e6c664f	0.23085903
58	0x3dd7ea28	0.10542709
59	0xbd35a01c	-0.044342145
60	0xbe0658be	-0.1311979
61	0xbc4f11c5	-0.012638514
62	0xbd8cfc49	-0.06884057
63	0xbdbe3053	-0.09286561
64	0x3e229fba	0.15881243
65	0x3c563a00	0.013075352
66	0xc08feba4	-4.4975147
67	0x3d6059e6	0.054773234
68	0x3da49fd7	0.080382995
69	0x3e32bc8e	0.1745474
70	0xbc7425cb	-0.014901589
71	0xbdf24920	-0.11830354
72	0x3cf686ce	0.030093577
73	0xbd39c0f5	-0.045350034
74	0x3d082c1d	0.033245195
75	0x3d947c94	0.07250324
76	0xbcea4197	-0.028595729
77	0x3dd54514	0.10413566
78	0xbd07a9d8	-0.03312096
79	0x3db10010	0.0864259
80	0x3c2524ad	0.010079545
81	0xbe057a64	-0.1303497
82	0x3d21fb01	0.039546017
83	0xbc8ad177	-0.016945584
84	0x3ca01648	0.019541875
85	0xbda9e653	-0.08295884
86	0x3d95903c	0.07302901
87	0xbe1931f6	-0.14960465
88	0x3e91dc7b	0.28488526
89	0x3ee7312b	0.451547
90	0xbdca405f	-0.09875559
91	0xbdff526f	-0.12466895
92	0x3b7cbc50	0.0038564391
93	0x3e0fe14f	0.14050792
94	0x3db258fe	0.0870838
95	0x3bf8cf2b	0.0075930557
96	0x3bfdb3b8	0.0077423714
97	0xbe90fc60	-0.28317547
98	0xbe01d2ba	-0.12678042
99	0xbc93920b	-0.018013975
100	0xbe924acc	-0.2857269
101	0xbcb0f95a	-0.021603275
102	0xbee1299e	-0.43977064
103	0xbcce9e96	-0.025222104
104	0xbdebd746	-0.115156695
105	0x3d48aa15	0.048990328
106	0x3d84d881	0.06486607
107	0x3e0eb9a6	0.13938007
108	0xbdc60748	-0.096693575
109	0xbe8d423c	-0.27589595
110	0x3dbc4035	0.09191934
111	0x3e18bb75	0.14915259
112	0xbc2080b0	-0.0097963065
113	0xbe27afad	-0.16375609
114	0x3e32019e	0.1738343
115	0x3bcf2efa	0.0063227387
116	0xbc34bb4c	-0.011030983
117	0xbdce0da3	-0.10061195
118	0xbddef890	-0.10887253
119	0xbe06c187	-0.13159762
120	0xbd72eee9	-0.059309874
121	0x3d2ceac8	0.042216092
122	0xbe2fe5a6	-0.17177448
123	0xbd944cce	-0.07241212
124	0x3e4c1cc5	0.1993285
125	0xbe27ea27	-0.16397916
126	0x3ed793d7	0.4210498
127	0x3e529dc3	0.20567994
128	0x3dfea7a4	0.12434319
129	0x3debb7db	0.11509677
130	0xbe0ea4eb	-0.13930099
131	0x3ea97d7f	0.33103558
132	0x3dbbae3a	0.091640905
133	0x3dca06cd	0.098645784
134	0xbcc11763	-0.023570722
135	0xbdf683f8	-0.1203689
136	0x3d05bfd2	0.032653637
137	0x3d83ccea	0.06435569
138	0xbd97b8bc	-0.07408282
139	0x3e6d8287	0.23194323
140	0xbdfd677a	-0.12373252
141	0xbcf69a5e	-0.030102905
142	0xbb7caa27	-0.0038553567
143	0xbdb8ee9c	-0.09029886
144	0x3e1d282d	0.15347357
145	0x3d641f02	0.055693634
146	0xbd755ecb	-0.059904855
147	0xbee537c9	-0.44769123
148	0x3d7763eb	0.060398024
149	0xbe8093a8	-0.25112653
150	0x3d1df709	0.03856567
151	0x3e8bd29f	0.2730913
152	0xbda934b0	-0.082620025
153	0xbe867b41	-0.2626591
154	0xbe248486	-0.16066179
155	0xbe2d5c52	-0.16929749
156	0xbc2754e0	-0.010213107
157	0xbd8270d6	-0.06369178
158	0xbe60a955	-0.21939595
159	0x3e2b5730	0.16732478
160	0x3dad6986	0.084673926
161	0x3e5602b2	0.20899466
162	0x3d7af257	0.06126627
163	0xbded8369	-0.1159733
164	0xb8a1dcff	-7.718242e-05
165	0xbd064af5	-0.03278633
166	0x3c1bbb37	0.009505085
167	0xbd11b84e	-0.035576157
168	0x3d4a6d03	0.049420368
169	0xbdf40e5f	-0.119168036
170	0xbc182c5a	-0.009287918
171	0x3dea36c2	0.114362255
172	0x3e00c08f	0.12573455
173	0xbc8fc193	-0.017548358
174	0xbcbebdab	-0.0232838
175	0xbd87f661	-0.0663879
176	0xbe1e80a4	-0.1547876
177	0x3c1b2db0	0.009471342
178	0xbcc534ba	-0.024072994
179	0x3e94aa2c	0.2903608
180	0xbd5ba926	-0.05362811
181	0xbe0bb8f3	-0.13644771
182	0x3e04b417	0.12959324
183	0xbe82a475	-0.25516096
184	0xbd895191	-0.06705011
185	0x3d1b7a2d	0.037958313
186	0x3e59b37d	0.21259876
187	0xbe8b6dd9	-0.27232245
188	0xbe59bef6	-0.21264252
189	0xbd7d1afd	-0.061793316
190	0x3d89a36c	0.067206234
191	0x3e0f4855	0.13992436
192	0x3e0a1159	0.1348318
193	0x3c98d35f	0.018655477
194	0xbe141de6	-0.1446453
195	0xbdc7e14e	-0.0975977
196	0x3d49104e	0.049087815
197	0xbe3c2a8a	-0.18375602
198	0x3d6e417f	0.05816793
199	0xba8b1407	-0.0010610827
200	0x3dc34dfb	0.09536358
201	0x3e3cba8a	0.18430534
202	0xbd8baa04	-0.06819537
203	0xbdb61986	-0.08891587
204	0x3d85b272	0.06528176
205	0xbc01aea9	-0.007915177
206	0x3d7c7622	0.061636098
207	0x3d7a4a19	0.06110582
208	0x3dc367ec	0.09541306
209	0x3e16f887	0.14743243
210	0xbdf84bfd	-0.121238686
211	0x3e0b308b	0.13592736
212	0xbd169d11	-0.036770884
213	0xbe807497	-0.2508895
214	0x3c5fe647	0.013665742
215	0x3e12c439	0.14332666
216	0x3e0dbddb	0.13841955
217	0x3b2729db	0.0025507126
218	0xbdf537a6	-0.11973505
219	0x3dbbafb0	0.09164369
220	0xbd87d5dc	-0.06632587
221	0x3d98bc85	0.07457832
222	0x3d08ffbd	0.033447016
223	0xbc4fece4	-0.0126907565
224	0xbe277a05	-0.1635514
225	0x3d15e0b2	0.03659124
226	0xbdb5a170	-0.088686824
227	0xbd3dd410	-0.046344817
228	0x3dc7af5a	0.097502425
229	0x3d6aab19	0.057292078
230	0xbe1500d7	-0.14551102
231	0xbdc0354a	-0.09385164
232	0xbe68086b	-0.22659461
233	0xbba39788	-0.004992429
234	0xbcbdd7b7	-0.02317415
235	0x3d2eb738	0.0426552
236	0x3d43e0ae	0.047821693
237	0x3e20af8e	0.15691969
238	0x3d0a5739	0.03377459
239	0xbdee02c1	-0.11621619
240	0x3c9eb071	0.019371243
241	0xbd8d92e7	-0.06912785
242	0xbe70f8a9	-0.23532356
243	0x3da563ae	0.08075653
244	0x3d9d82e6	0.076909825
245	0xbe8e7b46	-0.27828425
246	0xbbea981a	-0.007159245
247	0xbda1070d	-0.07862673
248	0xbe0da40c	-0.1383211
249	0xbd269cce	-0.040676884
250	0xbe68b9f8	-0.22727191
251	0x3b82827e	0.003982841
252	0x3d938c79	0.072045274
253	0xbd077990	-0.033074915
254	0xbd536772	-0.051612325
255	0xbdb731f1	-0.089450724

model/dense_4/MatMul;model/activation_4/Relu;model/dense_4/BiasAdd f4 [100]
0	0x3f743708	0.9539647
1	0x416502d0	14.313187
2	0x3f52e0d1	0.8237429
3	0x4033b567	2.807947
4	0xc0d7c7b2	-6.743127
5	0xc0cb9552	-6.3619776
6	0x403c7866	2.9448485
7	0x413cc4cd	11.798047
8	0x422c0ff1	43.015568
9	0x417bebfb	15.745112
10	0xc0c6d232	-6.2131586
11	0xc13d6f10	-11.839615
12	0x4260ec6a	56.230873
13	0x41ba82c7	23.313856
14	0xc1240cce	-10.253126
15	0xc1ad5d0b	-21.670431
16	0x3f480ed8	0.7814765
17	0xc141af7f	-12.105346
18	0x41891ba0	17.138489
19	0x40a11f26	5.0350523
20	0xc16f6c6e	-14.963972
21	0xbf677023	-0.9040548
22	0x410df45b	8.872157
23	0x417c42f2	15.766344
24	0x421de570	39.47406
25	0xc0478031	-3.1171992
26	0x41deb9ba	27.840687
27	0x3e218181	0.15772058
28	0x40fe940a	7.955571
29	0xc09c87da	-4.8915834
30	0x41a337e9	20.4023
31	0xbf2afa0a	-0.6678778
32	0x41f8aed6	31.08537
33	0x41226e81	10.1519785
34	0x41c8a52b	25.080648
35	0xc1108e36	-9.034719
36	0xc18b9742	-17.448856
37	0x411cd10c	9.801037
38	0x4204ece0	33.231323
39	0x42356d23	45.35658
40	0x422ab0dc	42.672714
41	0xbee66300	-0.44997406
42	0x3f3c060d	0.7344673
43	0xbf5b66fb	-0.8570401
44	0x424e5def	51.591732
45	0xc1368374	-11.407093
46	0xc172dd3a	-15.17901
47	0xc1b0a2bd	-22.079462
48	0xc207c07b	-33.93797
49	0x40398afe	2.8991084
50	0x42389b1d	46.151478
51	0x41b964c4	23.174202
52	0xc016bef3	-2.3554046
53	0xbf86c95f	-1.0530204
54	0x420792f4	33.89351
55	0x41240a46	10.252508
56	0x41c084c2	24.064823
57	0x4108e722	8.556429
58	0x41a96bb8	21.177597
59	0x41ae1838	21.761826
60	0xc1d5860b	-26.69045
61	0x41c1c675	24.221903
62	0xc18d4074	-17.656471
63	0x418e54cf	17.79141
64	0x4111b64a	9.107004
65	0x41f7b5ec	30.963829
66	0xc10b7dcf	-8.718215
67	0x4197eca9	18.990557
68	0x41e203d4	28.25187
69	0x4247d53d	49.95824
70	0xc085eb48	-4.184971
71	0x421be701	38.97559
72	0x408b8e54	4.361124
73	0xc24016ee	-48.022392
74	0x41223a6b	10.139262
75	0x424a8b5e	50.6361
76	0x42288fb2	42.140327
77	0xc16b3535	-14.70049
78	0x41e7cc45	28.974741
79	0xc197b3b6	-18.96275
80	0x420b166d	34.7719
81	0x41e17ebe	28.186886
82	0x40a459dc	5.135969
83	0xc19b8030	-19.437592
84	0xc05c1fea	-3.4394479
85	0xc0b37f97	-5.609325
86	0x41a906c7	21.12831
87	0x403565d9	2.8343413
88	0x411d1392	9.817278
89	0x4104af69	8.292825
90	0xc18ba6fb	-17.456533
91	0x4202163e	32.52172
92	0x420756e5	33.834858
93	0x408ca248	4.3948097
94	0x425caa9e	55.16662
95	0x421be8f2	38.977486
96	0x40421eb0	3.033123
97	0xc1748e07	-15.284675
98	0x4222fa47	40.74441
99	0xc0b4b3b7	-5.646938

model/batch_normalization_3/batchnorm/mul_1;model/batch_normalization_3/batchnorm/add_1;model/dense_4/MatMul;model/activation_4/Relu;model/dense_4/BiasAdd f4 [100, 100]
0	0xbe03c8b9	-0.12869538
1	0x3c3b0630	0.011415049
2	0x3ca46554	0.020067848
3	0xbe46e849	-0.19424547
4	0xbe6958e1	-0.22787811
5	0x3dfa8746	0.122328326
6	0xbd8a3319	-0.06748027
7	0x3d021105	0.031754512
8	0xbe4feca1	-0.2030511
9	0x3db92ef7	0.09042161
10	0xbbd6f07e	-0.0065594306
11	0x3de87838	0.11351055
12	0xbd4bdcb9	-0.049771044
13	0x3d41fac9	0.047358308
14	0x3dc070a5	0.09396485
15	0x3d86fb55	0.065909065
16	0x3bf1903a	0.0073719295
17	0xbd1f1f42	-0.03884817
18	0xbe16f00d	-0.1474001
19	0xbaef60b8	-0.0018263077
20	0x3d377971	0.04479355
21	0x3effb6f5	0.49944273
22	0x3f1b4997	0.60659164
23	0x3e30b7b7	0.17257582
24	0xbdb096d4	-0.08622518
25	0x3d289409	0.041156802
26	0x3e1b6cb9	0.15178193
27	0x3c7c91f3	0.015415656
28	0xbee777c9	-0.45208576
29	0xbb229518	-0.0024808105
30	0xbbe96ea0	-0.007123783
31	0xbe87e415	-0.265412
32	0xbb56e3e8	-0.0032789651
33	0xbdc5d29e	-0.09659313
34	0x3d295d4a	0.041348733
35	0x3cb800e7	0.022461368
36	0x3e535629	0.20638336
37	0xbddc0a91	-0.10744203
38	0xbd6e3121	-0.05815232
39	0x3c2128b0	0.009836361
40	0xbe89f8ff	-0.2694778
41	0x3d60c77d	0.054877747
42	0xbbd926e2	-0.0066269496
43	0x3d56b964	0.052422896
44	0x3de9d753	0.11418023
45	0x3d655082	0.05598498
46	0x3e355d0b	0.17711274
47	0xbc750848	-0.014955588
48	0x3e94d444	0.29068196
49	0x3d2ea327	0.042636063
50	0x3d493b5b	0.04912887
51	0x3de364b3	0.11103191
52	0x3e72d36e	0.23713467
53	0x3d28f95d	0.041253436
54	0x3d0c5fa2	0.03427089
55	0x3e2ec29d	0.17066427
56	0xbd585824	-0.052818432
57	0x3d8ef886	0.06980996
58	0x3d09fe10	0.03368956
59	0x3e252a79	0.16129483
60	0xbea793c8	-0.32729936
61	0xbcb11cae	-0.02162012
62	0x3c88e8f2	0.01671264
63	0x3cf15b37	0.02946244
64	0xbd411436	-0.047138415
65	0xbd7e1ad5	-0.062037308
66	0x3e048d66	0.12944564
67	0x3c98f82f	0.01867303
68	0x3d4c63fc	0.04990004
69	0x3db9d2e6	0.09073429
70	0xbd2d1eeb	-0.042265814
71	0x3cc681fe	0.024231907
72	0x3e326641	0.1742182
73	0xbd58e851	-0.05295593
74	0xbd3223c2	-0.043491133
75	0xbdb900c9	-0.09033353
76	0xbe427e09	-0.18993391
77	0x3cb62a73	0.022237038
78	0x3b4adc46	0.0030954047
79	0x3cc849cd	0.024449253
80	0x3decba98	0.115590274
81	0xbd9116f6	-0.070844576
82	0x3e150d9e	0.14555976
83	0xbdab1c08	-0.08354956
84	0x3d242f78	0.040084332
85	0x3d37eb70	0.044902265
86	0xbdd2a7f0	-0.10285938
87	0x3dc6e619	0.097118564
88	0xbcd46270	-0.025925845
89	0xbd19fa65	-0.03759231
90	0xbd6af28a	-0.05736021
91	0x3dbb8dde	0.091579184
92	0x3e41e560	0.18935156
93	0x3d731872	0.059349485
94	0xbec28a47	-0.37996122
95	0x3bac65b6	0.0052611483
96	0x3e046419	0.12928809
97	0x3da58226	0.080814645
98	0xbcb17efb	-0.021666994
99	0x3d9bbd4e	0.076044664
100	0x3db12bcc	0.08650932
101	0x3d1a3ddc	0.03765665
102	0xbc4f48d4	-0.012651641
103	0x3e00766e	0.12545177
104	0xbdafdf00	-0.08587456
105	0xbd61a68a	-0.055090465
106	0x3d042938	0.03226587
107	0x3e74d6af	0.2391002
108	0xbe8b2c33	-0.2718216
109	0x3ce942bf	0.02847421
110	0xbc9a3196	-0.018822473
111	0x3e3029ba	0.17203417
112	0xbd509168	-0.05091992
113	0xbd72d6c5	-0.05928685
114	0x3de16346	0.11005263
115	0x3d9a42ea	0.07532294
116	0x3d5d24ab	0.053990047
117	0xbcfed709	-0.031108396
118	0x3daae78e	0.08344947
119	0xbf02b8aa	-0.51063025
120	0xbc7f4be4	-0.015582059
121	0xbe0d427e	-0.13794896
122	0xbd50aa8d	-0.0509439
123	0x3e47f08a	0.19525352
124	0xbe2e968a	-0.17049614
125	0x3d04a911	0.032387797
126	0xbe371aa2	-0.17881253
127	0x3b48e781	0.0030655565
128	0x3d8c884b	0.06861933
129	0x3e6cf5b2	0.231406
130	0x3cabe876	0.02098487
131	0xbdd3a109	-0.103334494
132	0xbcafa052	-0.021438751
133	0xbd50861d	-0.05090915
134	0x3e4dc7de	0.20095775
135	0xbcb6c0cd	-0.022308731
136	0x3d8d6c2a	0.06905396
137	0xbcb0bae7	-0.021573497
138	0x3d83c7f3	0.06434622
139	0x3d989ed3	0.07452168
140	0x3dabbbe5	0.083854474
141	0xbe31ecb1	-0.17375447
142	0xbcc81e00	-0.024428368
143	0xbd1bd53d	-0.038045157
144	0x3de2a80d	0.110672094
145	0xbcbe4cfa	-0.023230065
146	0x3e26e3d6	0.1629785
147	0xbd5880d1	-0.052857224
148	0xbdcea8b7	-0.100907736
149	0x3d9773b0	0.073951125
150	0xbbbee57b	-0.005825696
151	0x3e8c5926	0.27411765
152	0xbe217197	-0.15765987
153	0x3e18a0ab	0.1490504
154	0xbbcf1332	-0.006319427
155	0xbce0eccf	-0.02745667
156	0xbdb118d2	-0.08647312
157	0xbdccb4d6	-0.09995429
158	0xbd484026	-0.0488893
159	0xbe953dc4	-0.29148686
160	0x3df11a2b	0.11772569
161	0xbcf7234b	-0.030168196
162	0xbdf0b4d4	-0.1175324
163	0x3caabd97	0.020842357
164	0x3e2af23c	0.16693968
165	0xbd9d0531	-0.07667006
166	0xbd8684f7	-0.0656833
167	0x3d57d475	0.05269285
168	0x3e7140be	0.23559853
169	0x3e1fa9da	0.15592137
170	0xbda7988a	-0.081833914
171	0xbf28f1ee	-0.65994155
172	0xbe90b052	-0.28259522
173	0x3dd19333	0.10233154
174	0xbd828d06	-0.06374554
175	0xbd1a473c	-0.03766559
176	0xbe130311	-0.14356638
177	0x3e5b5dd5	0.21422513
178	0x3d19413c	0.037415728
179	0x3c90876f	0.017642705
180	0xbd84ddbc	-0.06487605
181	0x3d166f4d	0.03672724
182	0xbe82dea7	-0.25560495
183	0xbddf4c48	-0.10903221
184	0xbdb24485	-0.08704475
185	0xbe2e3249	-0.1701137
186	0x3e2e4465	0.17018278
187	0xbf84a7f4	-1.0363755
188	0x3b8b80e1	0.004257307
189	0x3d1baec8	0.03800848
190	0x3da02746	0.07819991
191	0xbe234316	-0.1594356
192	0xbe1a4565	-0.15065534
193	0x3d6b2bd7	0.057414856
194	0xbcb4116f	-0.02198097
195	0xba2e1a74	-0.0006641515
196	0x3ebcea61	0.36897567
197	0x3daa5095	0.08316151
198	0xbb89602e	-0.0041923737
199	0x3e151dbe	0.14562127
200	0xbda2a86d	-0.07942281
201	0x3e85165b	0.25993618
202	0x3eba5c95	0.3639876
203	0x3e451a60	0.19248343
204	0x3dceb909	0.100938864
205	0xbd98bf1b	-0.074583255
206	0x3cac6473	0.021043992
207	0x3d4d371f	0.050101396
208	0xbd8f173c	-0.069868535
209	0xbd65df77	-0.056121316
210	0xbe51d188	-0.20490086
211	0x3e4d11e7	0.2002636
212	0x3e278f09	0.16363157
213	0x3d57f9c0	0.052728415
214	0xbd4e351b	-0.050343614
215	0x3d0bba47	0.034113195
216	0x3d7857fe	0.06063079
217	0x3e6eaa6b	0.23307197
218	0x3d8e6f82	0.06954862
219	0x3dce2c36	0.10067026
220	0x3da94682	0.082654014
221	0x3cc9832d	0.024598682
222	0xbb560722	-0.003265806
223	0x3cb19015	0.021675149
224	0xbd874e12	-0.066066876
225	0xbe7b2152	-0.2452443
226	0x3e1da75a	0.15395871
227	0xbda988f0	-0.08278072
228	0x3b86adf1	0.004110091
229	0x3e072f15	0.13201554
230	0xbb482496	-0.0030539385
231	0x3c097ce5	0.008391594
232	0xbe3268c9	-0.17422785
233	0x3de11378	0.109900415
234	0xbd53a97b	-0.0516753
235	0xbe1f0c52	-0.15532044
236	0x3e075be7	0.13218652
237	0xbc7ec819	-0.015550637
238	0xbe1d5e54	-0.15368015
239	0xbd391d43	-0.04519392
240	0xbdb5d939	-0.088793226
241	0xbde24ff7	-0.11050408
242	0xbe272c64	-0.16325527
243	0x3cffd98e	0.031231668
244	0x3b10dbbf	0.0022103635
245	0xbbacd00e	-0.0052738255
246	0xbb9febaf	-0.0048803906
247	0xbce6e432	-0.028184984
248	0x3e1a677f	0.15078543
249	0xbdebb34e	-0.11508809
250	0xbd1d565f	-0.038412448
251	0xbe1d21c6	-0.15344915
252	0x3c443e93	0.0119778095
253	0x3e235678	0.15950954
254	0x3d0b1585	0.03395607
255	0x3d9153a4	0.07096031

model/dense_5/MatMul;model/activation_5/Relu;model/dense_5/BiasAdd f4 [100]
0	0x4103c78c	8.2362175
1	0x42388d69	46.138096
2	0xc13820f4	-11.508045
3	0x403934bc	2.8938437
4	0x42073bd8	33.80844
5	0xc0f862e4	-7.7620716
6	0x42253cf9	41.309544
7	0x4191ef2d	18.241785
8	0x408737ad	4.2255464
9	0x403035a7	2.7532747
10	0x41ff6ddc	31.928642
11	0xbe93b7ca	-0.28851157
12	0x41103451	9.012773
13	0x4200aaca	32.166786
14	0xc1f7f8d2	-30.996494
15	0x41e7dd38	28.983017
16	0xc178cfcb	-15.550731
17	0x41697a53	14.592364
18	0x419a3fd0	19.281158
19	0xc1c55f35	-24.671488
20	0x4290df66	72.436325
21	0xc174ab68	-15.291847
22	0x41b55ee3	22.671331
23	0x421d5306	39.331078
24	0x41ffe3ed	31.986292
25	0x4132a66a	11.165628
26	0xc02a0126	-2.65632
27	0x3f4c20da	0.7973763
28	0x4144aee1	12.292695
29	0x415348dd	13.205289
30	0xc183bbe0	-16.466736
31	0x40e49d36	7.144191
32	0xc1854e8e	-16.663357
33	0xc1e5be92	-28.718052
34	0x40816630	4.043724
35	0x420ceb52	35.229805
36	0x41b7c98d	22.973413
37	0x4217584e	37.836235
38	0x3ff29621	1.8952066
39	0xc2079f1d	-33.905384
40	0x41eafe2a	29.374104
41	0xc1e32fa5	-28.398264
42	0x419c4c36	19.537212
43	0x4191c297	18.220015
44	0x417abfa9	15.671792
45	0xc1da79ba	-27.309437
46	0x41143aae	9.264326
47	0x41773d13	15.452411
48	0xc2268d2f	-41.637875
49	0x4206eab0	33.729187
50	0x4062233c	3.5334005
51	0x41dc0226	27.501049
52	0xc1f1227f	-30.141844
53	0xc09e3c97	-4.944896
54	0x41505a29	13.022012
55	0x40b4b159	5.646649
56	0x410cef69	8.80845
57	0x4182806a	16.312702
58	0x3e9feb05	0.31233993
59	0x4233b766	44.9291
60	0x41b041dd	22.03216
61	0x408d6fd4	4.419901
62	0x4231ce38	44.451385
63	0x41f6f1f0	30.868134
64	0xc0be5b25	-5.948626
65	0x41e8bd86	29.09254
66	0xc0c79b9e	-6.2377462
67	0xc1552786	-13.322149
68	0xc0d590b5	-6.6739144
69	0x411aef42	9.683413
70	0xc1d07420	-26.056702
71	0x41c6580a	24.792988
72	0x4215b4d9	37.42661
73	0x41f32366	30.392284
74	0xc1a6e34a	-20.860981
75	0x3fd637f9	1.6735831
76	0x418b310d	17.39895
77	0xc18abd64	-17.342476
78	0x400772fe	2.1163936
79	0xc2695336	-58.33126
80	0x428cddba	70.43306
81	0xc1e10729	-28.128496
82	0x41d1b30d	26.212427
83	0x41e1cb99	28.224413
84	0xc1007670	-8.028915
85	0x41f5a849	30.70717
86	0xc09bd976	-4.8702955
87	0x415dd450	13.864334
88	0xc10a986d	-8.662213
89	0x403213d5	2.7824605
90	0xc135a6e9	-11.35325
91	0x41a99c85	21.201426
92	0x3edcc598	0.43119502
93	0xc1309073	-11.035266
94	0xc05e8117	-3.476629
95	0x4092a36d	4.5824494
96	0x41e4eea7	28.61653
97	0x409d9869	4.9248548
98	0x412b5f44	10.710758
99	0x41496b8c	12.588757

model/batch_normalization_4/batchnorm/mul_1;model/batch_normalization_4/batchnorm/add_1;model/dense_5/MatMul;model/activation_5/Relu;model/dense_5/BiasAdd f4 [100, 100]
0	0x3b247589	0.002509447
1	0x3d98b560	0.074564695
2	0xbbb488c5	-0.0055094683
3	0x3da5a06a	0.08087237
4	0x3d597f63	0.0531
5	0x3efdc77b	0.49566254
6	0x3caea519	0.02131896
7	0xbe5dca8d	-0.21659298
8	0x3e73541a	0.23762551
9	0xbe0d7a80	-0.13816261
10	0xbfb6ec80	-1.4290924
11	0xbf903119	-1.1264983
12	0x3dc2f7df	0.09519934
13	0xbd79b9e1	-0.060968284
14	0xbcbf7b35	-0.02337418
15	0x3e546236	0.2074059
16	0xbe7c8b6f	-0.24662565
17	0xbde0885e	-0.1096351
18	0x3e173d83	0.14769559
19	0xbd39cd67	-0.045361903
20	0x3d998d5f	0.074976675
21	0x3ce6f69f	0.02819377
22	0xbdcede73	-0.101010226
23	0xbdf20cd2	-0.118188515
24	0xbd873b06	-0.06603055
25	0x3d6965e7	0.056981947
26	0x3d33f02c	0.043930218
27	0x3d2f54d8	0.042805523
28	0x3e5148fc	0.20437998
29	0x3d81b6b0	0.06333673
30	0x3c61535e	0.013752786
31	0xbd490a7c	-0.049082264
32	0xbc9bef48	-0.019034997
33	0x3ca1c008	0.019744888
34	0xbe5dc93e	-0.21658799
35	0xbe0bd1bb	-0.13654225
36	0xbc458ac1	-0.012057007
37	0xbdf8b569	-0.12143976
38	0xbd928fa7	-0.07156306
39	0x3d4b1478	0.049580067
40	0x3dc05e37	0.0939297
41	0x3dd3ee98	0.103482425
42	0xbe298073	-0.16552906
43	0xbd07fc89	-0.03319982
44	0x3c87e727	0.016589714
45	0x3de355c1	0.11100341
46	0xbe087dc6	-0.13329229
47	0x3cda2cb8	0.026632652
48	0x3c80fca3	0.015745467
49	0x3bb14d89	0.0054108542
50	0x3de90514	0.11377922
51	0x3c3ad6ac	0.011403721
52	0x3ea005b1	0.31254342
53	0x3d671c3b	0.056423407
54	0xbd439dd1	-0.047757927
55	0x3e4f98a4	0.20273072
56	0xbca51976	-0.020153742
57	0xbeb612bc	-0.35561168
58	0xbe6e0660	-0.2324462
59	0x3de05bc0	0.10955
60	0x3dce3c62	0.10070111
61	0xba81beef	-0.0009898822
62	0x3c3fe4f9	0.011712306
63	0x3e6a269b	0.2286629
64	0x3d2b2132	0.041779704
65	0xbd37e20e	-0.044893317
66	0xbedcd9cf	-0.43134925
67	0xbc4f8e6e	-0.012668235
68	0xbd48fbf7	-0.049068417
69	0xbeb33bf0	-0.35006666
70	0xbc86bf48	-0.016448632
71	0xbd95a53c	-0.073069066
72	0xbda2e0eb	-0.07953056
73	0x3d1f6be2	0.038921244
74	0xbb6e55ef	-0.0036367138
75	0xbd7d4f43	-0.061843168
76	0xbade3a7b	-0.0016954684
77	0x3c95ec94	0.018301286
78	0x3ec92050	0.39282465
79	0x3e1ee08e	0.15515348
80	0xbddd887c	-0.10817048
81	0xbdd3a581	-0.10334302
82	0xbe696716	-0.2279323
83	0x3ec1bfd5	0.3784167
84	0xbe80c401	-0.2514954
85	0x3db4d0aa	0.08828862
86	0x3d3291ca	0.043596067
87	0xbcb1dba3	-0.021711176
88	0xbe5b8504	-0.2143746
89	0xbe043d51	-0.12914015
90	0xbdf85e6f	-0.12127387
91	0x3c93ceca	0.01804294
92	0x3dda5c6c	0.10662159
93	0x3c85ab87	0.016317142
94	0x3e566dca	0.20940319
95	0x3d0551d4	0.03254874
96	0xbdf56c93	-0.119835995
97	0xbe1530fe	-0.1456947
98	0x3bb8d2f7	0.0056403833
99	0xbd03ced2	-0.03217966
100	0xbd1e35d9	-0.038625572
101	0xbd36f883	-0.044670593
102	0xbdd9bc0e	-0.10631572
103	0xbf1de104	-0.6167147
104	0xbda80743	-0.0820451
105	0x3f540707	0.8282322
106	0x3c3d51b1	0.011555121
107	0xbeabeefd	-0.3358077
108	0xbb185cc8	-0.0023248661
109	0x3e6faf2b	0.23406665
110	0x3edb1764	0.42791283
111	0x3eab4358	0.33449817
112	0xba83a663	-0.0010044094
113	0x3d78282f	0.060585197
114	0x3eabb164	0.33533776
115	0xbcdf12f4	-0.027230717
116	0xbf0492fb	-0.51786774
117	0xbf2a21c7	-0.6645779
118	0x3e406407	0.18788157
119	0x3d4123d6	0.047153316
120	0xbe413121	-0.18866397
121	0xbe0d0f60	-0.13775396
122	0xbd005d7d	-0.031339157
123	0x3ce2e760	0.027698219
124	0xbcf9b525	-0.030481884
125	0xbc799dd2	-0.015235381
126	0x3d2980bf	0.041382547
127	0xbe0b0237	-0.13575064
128	0xbcad4dd2	-0.021155272
129	0xbde7250d	-0.11286364
130	0xbe0ab98a	-0.1354734
131	0x3ddb2f57	0.10702389
132	0x3df6de97	0.120541744
133	0x3d5b149c	0.05348645
134	0xbd8e4e93	-0.069485806
135	0xbe86b256	-0.26307935
136	0xbeef4420	-0.46731663
137	0xbc19ef82	-0.009395482
138	0x3e4a7adc	0.1977343
139	0x3c4d5e1f	0.012534647
140	0xbc2b8516	-0.010468742
141	0xbe2523ea	-0.16126981
142	0x3dfcd2fe	0.12344931
143	0x3cb5e649	0.022204535
144	0x3d444c22	0.04792417
145	0xbf1e0db1	-0.6173964
146	0x3ce44711	0.027865918
147	0xbe9a6d5a	-0.30161554
148	0xbcfb7042	-0.030693177
149	0x3e226cbe	0.15861794
150	0x3d37e036	0.04489156
151	0x3d19868f	0.03748184
152	0xbe9b1eec	-0.3029703
153	0xbdb6fe1a	-0.08935185
154	0xbda49a0c	-0.080371946
155	0xbd09818d	-0.033570815
156	0x3db618c2	0.08891441
157	0xbd18999e	-0.037255876
158	0xbdb6b0a6	-0.08920412
159	0x3d966adb	0.073446
160	0xbda40b29	-0.08009941
161	0x3cdd2b01	0.026998045
162	0x3d9b09cf	0.0757023
163	0xbde6874a	-0.11256273
164	0xbd962345	-0.07330946
165	0xbdfc3d19	-0.12316341
166	0xbedaf689	-0.42766216
167	0xbd1b592d	-0.03792684
168	0xbccede29	-0.025252419
169	0xbdb61272	-0.08890237
170	0xbf04bc7a	-0.5185009
171	0xbdc51e8f	-0.09624969
172	0xbd8f94a7	-0.07010775
173	0xbc516241	-0.012779773
174	0xbe047453	-0.12934999
175	0xbbbbe939	-0.0057345894
176	0xbd1b9b9f	-0.03799021
177	0xbdf22065	-0.11822585
178	0xbe6d1848	-0.23153794
179	0x3db6ef63	0.08932378
180	0x3d85190b	0.06498917
181	0xbcf83a21	-0.030301156
182	0xbd7a7284	-0.061144367
183	0x3d35bcea	0.044369616
184	0xbe9ee570	-0.31034422
185	0xbe02dc77	-0.12779413
186	0x3a124d14	0.00055809435
187	0xbd37c08b	-0.044861358
188	0x3c624a5b	0.013811673
189	0x3dbdae7d	0.092617966
190	0xbdbefc3b	-0.09325453
191	0xbe53d849	-0.20687975
192	0xbb39b3b1	-0.0028335864
193	0xbd3d7f65	-0.04626407
194	0xbd57d1cf	-0.052690323
195	0xbe07e7dd	-0.13272043
196	0xbdf1b126	-0.118013665
197	0x3cb19114	0.021675624
198	0xbd9a3b41	-0.07530833
199	0xbee53cb4	-0.44772875
200	0x3db2f624	0.08738354
201	0x3db9d04f	0.09072935
202	0x3d9321fc	0.071842164
203	0x3ddd438a	0.10803898
204	0xbccc3018	-0.024925277
205	0xbdbaf2e5	-0.0912836
206	0xbcc803e5	-0.02441592
207	0x3df5b02e	0.11996494
208	0x3a73dd88	0.0009302725
209	0xbe15a5ee	-0.14614078
210	0xbe019edc	-0.12658256
211	0xbe0a1e80	-0.13488197
212	0x3d95c708	0.07313353
213	0xbe9e42a9	-0.30910233
214	0x3d78e5c3	0.060765993
215	0xbbf8f766	-0.0075978516
216	0x3cbebfb5	0.023284772
217	0xbda5899c	-0.080828875
218	0xbd9d05d8	-0.0766713
219	0x3e75e8d7	0.24014603
220	0x3d3f03c3	0.046634447
221	0x3d98aed1	0.074552186
222	0x3cf0b563	0.029383367
223	0x3d5eab07	0.054362323
224	0xbd52adf7	-0.051435437
225	0xbd0235d0	-0.0317896
226	0x3d2aee68	0.04173127
227	0xbdd711a4	-0.105014116
228	0x3e4d227f	0.2003269
229	0xbd2b2a27	-0.041788246
230	0x3d8709bc	0.065936536
231	0xbd9c7869	-0.07640154
232	0xbcc85308	-0.024453655
233	0xbc65a0a4	-0.0140153505
234	0x3d597789	0.053092513
235	0x3d113078	0.035446614
236	0x3d9dc3cc	0.07703361
237	0xbdcdd576	-0.1005048
238	0x3d75aa44	0.05997683
239	0x3b82b9e8	0.003989447
240	0x3da21fa6	0.07916193
241	0x3d088897	0.033333387
242	0xbc91ccce	-0.017797854
243	0xbd9fcde9	-0.07802946
244	0xbb08ca74	-0.0020872625
245	0xbd16899e	-0.036752336
246	0x3d1d0974	0.038339093
247	0xbd59203f	-0.053009268
248	0xbd48d06e	-0.0490269
249	0xbf85409d	-1.0410343
250	0x3f9aced4	1.2094369
251	0xbdabfe0e	-0.083980665
252	0xbe04f6d9	-0.1298479
253	0x3d92c027	0.071655564
254	0xbe0b8fc9	-0.13629068
255	0x3c53c652	0.012925701

model/dense_6/MatMul;model/activation_6/Relu;model/dense_6/BiasAdd f4 [100]
0	0xc0f5bc30	-7.679222
1	0x412862da	10.524134
2	0x40c93bc2	6.2885447
3	0xc10350d5	-8.207234
4	0x4207c0d5	33.938313
5	0xc13224a8	-11.133949
6	0x40a42e2b	5.1306357
7	0x41d95995	27.168741
8	0xc11a7d10	-9.655533
9	0x41cbf1b9	25.493029
10	0x422543f5	41.316364
11	0xbf91a574	-1.1378617
12	0x3e43eddd	0.19133706
13	0x41da19c4	27.26258
14	0x4054c831	3.3247187
15	0xbfac1bc3	-1.3445972
16	0x4209a629	34.412266
17	0x415029ed	13.010236
18	0x41f01ef1	30.015108
19	0x41a8a422	21.080143
20	0x42637da5	56.8727
21	0x4199e4e2	19.23676
22	0xc1009b3b	-8.037898
23	0xc18533d0	-16.6503
24	0x40ecd6e2	7.401231
25	0x41a89019	21.07036
26	0xc0f46bf8	-7.63818
27	0x41b4a990	22.582794
28	0x41c97167	25.180372
29	0x3fe51f04	1.790009
30	0xc08825e5	-4.254626
31	0x412f6cec	10.964092
32	0x40aea8c4	5.4581013
33	0x3f813bd6	1.0096385
34	0xbf382518	-0.719316
35	0x424182cf	48.377743
36	0xc18382f5	-16.438944
37	0x41595b16	13.584738
38	0x4035c0dc	2.8398962
39	0x408ee165	4.465014
40	0x41fb7c0f	31.435575
41	0x40bd2625	5.9109063
42	0x41bbdb4c	23.482079
43	0xc181f20b	-16.243185
44	0x41c59704	24.698738
45	0xc07153f6	-3.7707496
46	0xc1bad6fd	-23.354975
47	0x40c06341	6.012116
48	0x4155944f	13.348708
49	0x411d5009	9.83204
50	0x41047288	8.277962
51	0xc200c47f	-32.19189
52	0x3fbd9120	1.4809914
53	0x4191b477	18.213118
54	0x4189edf5	17.24119
55	0x421442ff	37.065426
56	0x4210c2b5	36.190144
57	0xc0f2dc5b	-7.589399
58	0x41b6045d	22.75213
59	0x422d03df	43.25378
60	0x413b7bba	11.717707
61	0xc1809f79	-16.077868
62	0xc0493877	-3.1440713
63	0x4146d691	12.427384
64	0xbf989f6e	-1.1923654
65	0x41883401	17.025393
66	0x424eb38f	51.67535
67	0x3ffb23d5	1.962031
68	0xc15dada2	-13.854891
69	0x41826e00	16.30371
70	0x42041998	33.024994
71	0x411a295c	9.6350975
72	0xc1135be0	-9.20993
73	0x40256c3d	2.5847313
74	0x41267c86	10.405401
75	0xc028cc8d	-2.6374848
76	0xc138951b	-11.536403
77	0x41b8dafd	23.106928
78	0xc10ef77d	-8.935422
79	0xc101c79c	-8.111233
80	0xc08c7fb5	-4.390589
81	0x40c6dbbb	6.2143226
82	0xc122f1e3	-10.184054
83	0x41e295d5	28.32316
84	0x41793fa7	15.57804
85	0x41bbd50f	23.479033
86	0x418b08ee	17.37936
87	0x4107e9d5	8.494588
88	0xc19b5660	-19.417175
89	0x3e1d265e	0.15346667
90	0x41b0a689	22.081316
91	0xc0c29e97	-6.081859
92	0x412f6a2e	10.963423
93	0x41931820	18.38678
94	0x3e0e1ec1	0.13878919
95	0x40bbfd69	5.874684
96	0x4221abee	40.4179
97	0xbfa5b642	-1.2946246
98	0xc1c3bc21	-24.46686
99	0xc11ec4c6	-9.92304
