corintho_ai/python/tflite_models/model_83.tflite (tflite, 521576 bytes, 27 tensors)

model/dense_1/MatMul;model/activation_1/Relu;model/dense_1/BiasAdd f4 [100]
00000000: 2dc7 a2c1 857d 1643 2133 89c2 8ac3 c240
00000010: 6bd0 8542 b71d 3942 49b7 aa42 dc6d f9c1
00000020: 59ef 3fc2 847c 353e c8ec a9c0 d218 63c2
00000030: e815 9b41 5ca0 42c2 6661 06c1 38bb 92c2
00000040: 6be9 1942 8dc9 8841 2f5e 3cc1 acc6 9640
00000050: 2b1d 5e41 d9e2 35be f02f 3e41 1c70 83c2
00000060: 678e a742 c59d 2c41 84d5 d53f 4643 ddc0
00000070: 85e5 90c2 8fb9 3b42 7ff9 2cc2 0ae3 1541
00000080: 738c 1d42 2714 10c2 c2a9 9f42 dbcd 8042
00000090: e15b 5d41 d139 04c2 339d ba41 a683 0e42
000000a0: 1f38 a042 f7c3 d2c1 8204 56c2 90c2 6cbf
000000b0: b9e6 6741 4233 ffc1 de54 3a3e 452a 13c2
000000c0: 47de 6bc1 6fba c8c0 be9a df41 d735 62c2
000000d0: 3254 8941 f171 1543 6d9d a4c0 6033 f241
000000e0: fc03 5741 1354 a9c1 8d9f df41 5659 18c1
000000f0: 89e0 cf41 1947 9a42 7c68 8bc0 a7f0 1c42
00000100: b4d2 5c42 c696 bd42 6ec2 0543 e1d1 2c41
00000110: b036 d8c1 5e59 cfc2 f1df fec1 53db 06c2
00000120: bb5b 4bc1 4ac0 f042 1b99 0fc1 6869 a242
00000130: 404f bcc0 b242 fc40 71ba 04c3 b97c a9c0
00000140: 771a c341 274e 3142 2b1b 9541 07a7 d3c1
00000150: 5350 f740 bb55 ab42 e670 3642 2435 b5c1
00000160: 4931 b442 6b59 1f42 e060 d242 a505 7b41
00000170: b5d8 8842 8105 0c41 e8d3 a441 3a8e f0c0
00000180: 3657 2143 7615 1042 78a0 8841 4192 b7c2
-20.347254 150.49031 -68.59986 6.0863695 66.90707 46.27902 85.35798 -31.178642
-47.983738 0.1772328 -5.310154 -56.77424 19.385696 -48.6566 -8.398779 -73.36566
38.477947 17.098413 -11.772994 4.711752 13.882121 -0.17762317 11.8867035 -65.71896
83.77813 10.788518 1.6705785 -6.914462 -72.44828 46.93121 -43.24365 9.367929
39.387157 -36.01968 79.83156 64.40206 13.834931 -33.05646 23.326757 35.628563
80.10961 -26.345686 -53.504402 -0.9248438 14.493829 -31.900028 0.18196437 -36.79128
-14.741767 -6.272758 27.950558 -56.552578 17.166111 149.44508 -5.144217 30.275085
13.438473 -21.166052 27.952906 -9.521811 25.984636 77.13886 -4.3565044 39.235012
55.205765 94.79448 133.75949 10.80124 -27.026703 -103.674545 -31.859346 -33.714184
-12.709895 120.375565 -8.974879 81.20587 -5.884674 7.8831415 -132.72829 -5.296475
24.387922 44.32632 18.638266 -26.456556 7.728555 85.66744 45.610252 -22.650948
90.09626 39.837322 105.18921 15.688878 68.423256 8.751344 20.60347 -7.5173616
161.34067 36.020958 17.078354 -91.78565

model/batch_normalization/batchnorm/mul_1;model/batch_normalization/batchnorm/add_1;model/dense_1/MatMul;model/activation_1/Relu;model/dense_1/BiasAdd f4 [100, 100]
00000000: 5096 153e 168e 34bf 555f ba3e a587 153e
00000010: 5586 bf3f 3206 963e 05ee 82bf 079b 89bf
00000020: 5ada d63d 7710 1b3f 4fdf f33e 9479 133e
00000030: 1db1 803e 53ed ca3b a6f2 26bf cfc5 e13c
00000040: ff8a 093e 34c5 cbbf 9b26 973e 8ddf 06bf
00000050: d521 bfbd 5004 7640 3e9f 9ebd c2cb 15ba
00000060: 5565 c0bd cf2f 433e e8b2 a7bd 2aa7 8abf
00000070: 93f0 2e3e ef75 96be 94ad 1abd d5d7 273f
00000080: f5de ad3d 0a1d 02bf 9d9e 843d 20d3 18be
00000090: df39 2fbe 57c6 44be 0618 4cbd 9f0c 193e
000000a0: 76af d53e 9187 973f 456e d53e bdb0 5f3e
000000b0: f7c8 79be 79ea 37be 8c38 9c3e 5c5a 8fbd
000000c0: e421 3e3f ce91 213e 4963 c93c 51d9 a6bf
000000d0: 3dc6 313f 5abd a340 e3be 7b3e d0e1 f7bc
000000e0: 8182 ecbd 7777 c73e c82c 773f e6a9 083f
000000f0: 5b81 cd3e a815 09be 3688 073e 6fa5 68bf
00000100: d8c1 b03e a062 e2be e7ff 45be 9f4c ba3e
00000110: 3df8 89bd 9e46 5a3f 1a01 f63e e749 37be
00000120: 467d acbd e0dc afbd e46a 363f cc59 47bf
00000130: c361 fbbe 7a7a 29bb c754 083e 0bd8 b63e
00000140: 64dc 5dbf d861 673e 4364 2dbe c0f0 b8bd
00000150: d6ce 8bbe 9293 6dbe 602c 0cbe e342 6fbf
00000160: 21dc 15be ecca 3ebe d52b 95bf dff7 8a3f
00000170: ebf3 023e 7bec c3be 6b69 42be 79d7 4d3e
00000180: 5eb0 7f3e 65ce 03be 880f c8be 0a57 2fbe
00000190: 7c0e 7dbf b57c 95bf f021 a3be 1c89 753d
000001a0: 58b3 9bbf a008 0440 8b67 313f 9819 623e
000001b0: b907 143d 33a6 1cbf 0b08 983e b324 793d
000001c0: bea3 8ebf 8c4d 22be 32ff b6be ad6a 43bf
000001d0: d45e 203d aa12 cebf 0db0 77bf 37b8 82bd
000001e0: a3a2 f1be c100 dabd 1135 f9bd cf96 08bd
000001f0: 961d 0c3e 9cdf 1cbd bde2 cbbe e3ce edbd
00000200: f81f 71be c684 fe3d ecf6 7dbb 4a82 983e
00000210: fa05 563d d764 87bc a8e5 0abf b2e5 e23c
00000220: 305c d2be 70b5 e9bf 0272 39bf c240 58bf
00000230: 0813 643e 925e c8be 8e73 87bf 1819 41be
00000240: 4ded 0cbe d990 8dbf 973b 6f3d 0e41 123e
00000250: 2ec0 4bbe ba11 8e3e 369c e33d 60b2 c53f
00000260: 84e4 a1be 6c5d 5e3f b254 e23c fa53 bdbe
00000270: 21c3 0cbf 6234 873f 2fa3 d03f d6e0 163e
00000280: 3109 2b3e 5692 243f 414a 483d 7477 63bf
00000290: 8d20 69bf f1f5 e4be a62d 8d3e 2865 5d3f
000002a0: 4480 c0be aa38 1ebe 1e8a 7a3b b117 da3e
000002b0: 51a5 803e f729 2a3e 5fac 8bbe 4f27 f8be
000002c0: 8be8 04bf 2afe 27bf 8755 263f e8fd e03d
000002d0: 7018 973c 960a 87bf 312e 2b3f c41b 4f3f
000002e0: 5803 11be 205f 3f3e 20ff f83c 37d3 be3e
000002f0: f137 553e 4eb1 1b3e 74ff 83be a75f 693f
00000300: c204 fbbe cb18 05bf a542 25bf c57b 2ebe
00000310: 73f5 92be 6e24 35bf 576b 4cbf 92d9 30be
00000320: 0959 6e3f 434b 1cbf a8ce ff3b f3a0 4e3e
00000330: cbbc 833f bb82 16bc dae0 843f be6a b7bf
00000340: 24c0 80bf e8ab 39bf 7606 8fbd 6e79 0840
00000350: dce7 29bd d025 5d3d e127 76be 0919 083f
00000360: 778e af3e cd13 0cbf 7d36 9fbf 8a91 ef3c
00000370: 11f5 93bd 8c1a 7dbf 7eee e3bb 5ae6 8a3d
00000380: b7a8 433c ec40 56bd 4273 fabe 0b13 d63d
00000390: 6c4c 563f d790 983e bf04 4d3f 3c9e 2a3f
000003a0: e362 06be f642 aa3e 6058 383f 7ac3 8abc
000003b0: 6b0b 09be 1d9f 053e 7ba9 163f 12ba 6abf
000003c0: ae99 7e3e f180 febd a991 973f 3290 9a3d
000003d0: 59c1 4c3e 3bd2 a0bf 81f2 693f bc8e 033e
000003e0: fa2d c3bf 4976 58bc 3f29 263e 28a5 cc3e
000003f0: 3273 9bbe 375f 333d fde7 abbd 4a1a 8c3e
0.14608121 -0.70529306 0.36400858 0.14602526 1.496287 0.29301602 -1.0228888 -1.0750436
0.10490866 0.60572 0.47631308 0.14401847 0.25135127 0.006192842 -0.65214 0.027560143
0.13431929 -1.5919557 0.2952164 -0.5268486 -0.09332625 3.8440132 -0.07745217 -0.0005714261
-0.093943276 0.19061206 -0.081884205 -1.0832264 0.1708396 -0.2938685 -0.037763193 0.6556371
0.08489791 -0.5082556 0.064755656 -0.14924288 -0.1711192 -0.19216286 -0.049827598 0.14946221
0.4173543 1.1838247 0.4168569 0.21844764 -0.24393068 -0.17960538 0.30511892 -0.069996566
0.74270463 0.15778276 0.024583476 -1.303507 0.6944311 5.116864 0.24584536 -0.030259043
-0.11548329 0.38958332 0.96552706 0.53384244 0.40137753 -0.13387167 0.13235554 -0.9087743
0.3452289 -0.4421587 -0.193359 0.36386582 -0.06736801 0.85264003 0.48047715 -0.17899285
-0.084223315 -0.085870504 0.7125685 -0.77871394 -0.49098024 -0.0025860355 0.1331359 0.35711703
-0.86664414 0.22595918 -0.16932778 -0.090302944 -0.2730624 -0.23200825 -0.13688803 -0.93461436
-0.14634754 -0.18632096 -1.1654001 1.0856894 0.1278836 -0.38266358 -0.18985526 0.20101728
0.24969622 -0.12871702 -0.3907435 -0.17123047 -0.98850226 -1.1678683 -0.3186183 0.05994521
-1.2164106 2.0630264 0.6929862 0.22080076 0.036140177 -0.611911 0.29693636 0.060826015
-1.114372 -0.15849894 -0.35741574 -0.7633465 0.039152935 -1.6099446 -0.9675301 -0.063827924
-0.47194394 -0.10644675 -0.12168325 -0.033346947 0.13683161 -0.038299188 -0.39821425 -0.11611726
-0.23547351 0.12427668 -0.0038751913 0.29786903 0.052251793 -0.016527576 -0.5425668 0.027697418
-0.41085958 -1.8258495 -0.7243959 -0.8447381 0.22272885 -0.3913465 -1.058214 -0.18857229
-0.13762398 -1.1059829 0.05840644 0.14282629 -0.1989753 0.277479 0.11113779 1.5445061
-0.31619656 0.868613 0.027628276 -0.36978132 -0.54985243 1.0562861 1.62998 0.14734206
0.16702725 0.6428579 0.04889894 -0.88854146 -0.91065294 -0.44718888 0.2757389 0.8648248
-0.3759786 -0.15451303 0.0038229297 0.425962 0.25126126 0.16617571 -0.27279946 -0.4846749
-0.5191733 -0.656222 0.64974254 0.10985929 0.01844427 -1.0550106 0.6686736 0.8090174
-0.14161432 0.18688631 0.03039509 0.3727052 0.20822121 0.15204355 -0.25780833 0.9116158
-0.49027067 -0.51990956 -0.64554816 -0.17039402 -0.28702888 -0.7075871 -0.7985129 -0.17270496
0.93104607 -0.6105234 0.0078066178 0.20178585 1.029199 -0.009186442 1.0381119 -1.432945
-1.0058637 -0.72527933 -0.06983654 2.1324115 -0.041480884 0.05399114 -0.2403865 0.531632
0.3428838 -0.54717714 -1.2438504 0.029244203 -0.07224477 -0.9886863 -0.0069559207 0.06782217
0.01194208 -0.052308008 -0.4891606 0.10452851 0.8371036 0.29798004 0.80085367 0.66647696
-0.1312366 0.33254212 0.7200985 -0.016938914 -0.13383262 0.13048978 0.58852357 -0.9169017
0.24863312 -0.12426937 1.1841327 0.07547034 0.19995631 -1.2564157 0.91385657 0.12847418
-1.5248406 -0.013211795 0.16226672 0.39969754 -0.30361325 0.043791976 -0.08393858 0.27363807

model/dense_2/MatMul;model/activation_2/Relu;model/dense_2/BiasAdd f4 [100]
00000000: 04bf 9042 0cde aac2 d9ad cec0 6dee 87c2
00000010: 172a 5ac1 0b00 8641 fe14 e141 9687 0442
00000020: 22df 92c1 5993 9b40 a91f 14c1 91c1 77c1
00000030: f2e2 71c0 eb75 9041 85ee b1bf af4c 9ac2
00000040: bc22 74c2 b85b a541 1d85 ff3f c8c0 a8c0
00000050: b53d 8142 2cd5 d940 cf9a 0242 7617 9b41
00000060: c546 6f3f b09c b841 6f56 83c0 179d 7642
00000070: 9296 9ac1 9683 5341 ffcd b340 5223 7341
00000080: dc3e 1042 ad3b 5bc1 fdb6 c141 f676 78c2
00000090: e722 bb42 25c8 d4c1 2957 cec1 64d1 aec1
000000a0: a055 8dc1 47b7 88c2 2af4 39c0 023f bbc1
000000b0: b03e 42c2 d5bc 2f42 843d f2c1 8cbd a1c1
000000c0: a9b9 17c2 df41 6541 5014 8d42 6c68 9642
000000d0: ab77 a241 0831 8540 67f6 753f 4c1a 9b40
000000e0: 54ed be40 29fc 8242 665b 3242 29f4 0dc2
000000f0: a882 80c1 9da6 17c1 e031 87c1 abe0 0a43
00000100: aab1 bf41 b762 7e41 5fb0 87c2 6422 48c2
00000110: 276d fb40 f62d 3d42 7aee 20c3 259a ed41
00000120: 40a8 6ec1 5d53 9241 f54a 64c2 de1c f1c1
00000130: b995 0c42 5bf2 11c2 94d2 04c2 ce0b 7742
00000140: 6a84 8142 4202 5542 3090 4d42 524c 0d42
00000150: 9f01 39c1 3330 77c2 36a9 7a3f c05d 4342
00000160: 66e2 1b42 50db ff41 59f0 49c2 4473 c741
00000170: c01d d141 f094 9e41 dc47 d4c1 a82a 8d42
00000180: 4348 a142 734b 4b42 6f8d 3741 d272 9cc1
72.37308 -85.433685 -6.4587216 -67.965675 -13.635276 16.750021 28.13525 33.13241
-18.358952 4.861737 -9.25773 -15.484757 -3.7794766 18.057577 -1.3900915 -77.14977
-61.03392 20.669785 1.9962498 -5.273533 64.62052 6.807272 32.65118 19.386456
0.9346736 23.076508 -4.104301 61.653408 -19.32352 13.219625 5.618896 15.196123
36.061386 -13.702069 24.21435 -62.116173 93.56817 -26.597727 -25.792559 -21.852242
-17.66681 -68.35796 -2.9055276 -23.405766 -48.56122 43.934406 -30.280037 -20.217552
-37.93131 14.328582 70.53967 75.20395 20.308432 4.1622353 0.96079105 4.84696
5.9664707 65.4925 44.589256 -35.488438 -16.063797 -9.478177 -16.899353 138.87761
23.96175 15.8991 -67.844475 -50.033585 7.8570743 47.294884 -160.93155 29.700266
-14.916077 18.290705 -57.0732 -30.139095 35.146214 -36.486675 -33.205643 61.761528
64.75862 53.252205 51.39081 35.32453 -11.562896 -61.79707 0.97914445 48.841553
38.971092 31.982086 -50.484715 24.931282 26.139526 19.822723 -26.535088 70.58331
80.641136 50.82368 11.47203 -19.556065

model/batch_normalization_1/batchnorm/mul_1;model/batch_normalization_1/batchnorm/add_1;model/dense_2/MatMul;model/activation_2/Relu;model/dense_2/BiasAdd f4 [100, 100]
00000000: 1c25 1bbd 3569 12bd 6627 9e3e fad3 323d
00000010: 07bd 5cbe 2def 22be 51db fb3d f6d5 57bd
00000020: 242e 5c3e 827b 29bd 1cfd 033e 3922 3b3e
00000030: 4ff3 cc3d b2a2 2cbe a0cb 6abe fc98 a23d
00000040: 2cf2 053a 2df5 5cbe e4ea 163e 89ce 10bb
00000050: c0e0 e3bd 07fd 35bd 04ea 953d 00a3 e83d
00000060: 9d41 efbd 2989 28bd fdc9 a6bc 9486 0a3d
00000070: d2b3 33be 0833 d7bd fe1f 81bc cdde 213b
00000080: 5743 8dbe 2e8c e93c ea14 32bd 66a5 163e
00000090: 54e5 4bbd 5f15 5d3d 1772 5a3d 1458 00be
000000a0: c5cc e8bc 54f6 45be 4048 9cbe 0592 cc3d
000000b0: 3657 493d fb13 adbc 44fc debd e606 bbbd
000000c0: cb87 bfbd 8a97 e63c f89a a83d bee5 623d
000000d0: 654e d2bb 9ab0 55be 83e3 ffbd f158 46bd
000000e0: 5d76 eb3c 085b 2a3d af66 473e 0da8 59bd
000000f0: 89f4 113e c179 d9bd 7049 b53d 8325 81be
00000100: 650c a2bb c210 553d 0fbb 9a3d 0255 06bd
00000110: 685e a9bc 45ab e1bc bd41 6dbe 1450 21be
00000120: 93e4 46b9 5781 5fbd 7f09 84be 8036 8dbd
00000130: b5d9 d03d 9fe0 aebc 5a63 79bd cf5c 9cbe
00000140: 0897 a23d 2e77 c8bd 5311 803d 44af 423d
00000150: 3ac9 21bd 2e82 8abc 161a be3d d118 88bc
00000160: 763f 09be b851 5d3d 6e0c 9c3d dca2 9dbc
00000170: 32ff 9ebd 2a34 33be 5761 9fbe d528 4a3e
00000180: cc24 523e 8350 e6be e915 9d3d 8da5 aabe
00000190: c7b0 3dbd f582 373d 443d 32bc bf7a 6ebd
000001a0: 2d0a dd3c 01d0 803d f7a6 7b3d 6fec 2e3d
000001b0: 3d98 613d 37d5 5d3d 816c f8bc 2cd2 463d
000001c0: 4088 fcbc a85a a5bd b186 b23d 39e3 953d
000001d0: 8765 7bba be87 e3bb 2086 dbbd e38c 933d
000001e0: 8341 0dbe 7083 bf3c 6aec df3d 5a57 b93d
000001f0: 9748 2a3c 2770 f03c c175 e8bd 2228 d3bd
00000200: ea1a 583c 07a1 02bd 3559 643e c068 893e
00000210: e6a1 d83d 8b01 9cbc 277c a43d eb5c dbbc
00000220: 0dd5 04bd 7c93 f83d 5867 37bd ea1e 013d
00000230: 16cb 4cbc f00e 273c 5611 773c 1254 603c
00000240: 107b b13d 0e5b be3d 0370 a43d b70a 583d
00000250: 1568 8d3d fc8b 903d 7566 823d 45c6 ecbd
00000260: b091 693e 83a9 613f 91d4 af3d 8c10 a83d
00000270: b70d 213e 5d36 043d f1ab 803c a9fd 0a3d
00000280: 8220 3f3d e2b9 febd 6041 a93e 6cf5 9c3d
00000290: cc5b 403d 74e2 993d 7192 34be 4f5f d9bc
000002a0: afac 2e3d aa4a 40bd 61e3 bebd 066a 0b3d
000002b0: cde9 cebb 324a 8c3e 20d1 e53c 9e9c 02be
000002c0: 4c58 c83d 7c62 ba3d 4e00 b6bc 6629 f5bd
000002d0: 3832 813d aeae 5a38 5a60 133d 2f46 303e
000002e0: d41e f83c 6927 80bc 9262 59bd 3bff c8ba
000002f0: 02c3 b63c 54ee c43d 6b01 ee3e e36c 583d
00000300: cc7d 54be ba3e 103e 157f 8fbc 5da4 eebd
00000310: cbc0 69be fd3c 24bc 057c 9dbe 3d09 01be
00000320: 835d a33e 2938 433e b6a3 3dbd 5fd5 cd3d
00000330: 1324 543a d9ef a1bb 84e3 8c3d 58b9 0abc
00000340: 0ddc 8fbd c844 413e 4a55 de3c c164 7a3d
00000350: 74b1 15bc c701 c5bd ea10 1bbd 8dba 62be
00000360: 5701 323d 2365 013d b315 83bd c4ce 0e3e
00000370: d522 2c3e 6b32 81bc 57a7 ce3b 39cc ab3b
00000380: 09b7 20bd 1ec8 aabd 093c eabb adaf 2fbd
00000390: 5175 8c3d e7a5 07bc 5bc8 65bc 93d5 f43d
000003a0: 8ae9 e2bd ce2a 443d 0283 0ebe 42de 3dbd
000003b0: 0272 983d cd29 573c c3bf 01bd 898d b83d
000003c0: c2dd 703d 6f0c 133f ec9f 943d 812d 703d
000003d0: 81df 2d3e 08bc 273d 755b 19bd 56d5 b23c
000003e0: 95ee 94bd e7fb 953d b128 e13d cd15 41bc
000003f0: cd48 1abd a4a8 86bc 9b6e a0bd 5366 c3ba
-0.037877187 -0.035744864 0.30889434 0.043659188 -0.21556483 -0.15911551 0.12297691 -0.052694283
0.21501976 -0.04137755 0.12889522 0.18274774 0.10007345 -0.16858938 -0.2292924 0.07939336
0.0005109634 -0.21577902 0.14738041 -0.002209576 -0.11126852 -0.04443076 0.073200256 0.11359215
-0.116824366 -0.04114643 -0.020359987 0.03381975 -0.17549065 -0.1050778 -0.015762325 0.002469945
-0.2759044 0.028509226 -0.043476976 0.14711532 -0.04977925 0.05397546 0.05333146 -0.12533599
-0.028417954 -0.19332248 -0.30523872 0.099887885 0.049155436 -0.021127691 -0.108879596 -0.09132175
-0.09352072 0.028148431 0.08232683 0.05539488 -0.0064180368 -0.2086815 -0.12494566 -0.048424665
0.028742963 0.04159072 0.19472764 -0.05313878 0.14253439 -0.10618926 0.08851898 -0.25223932
-0.004945325 0.052017935 0.0755521 -0.032795914 -0.0206749 -0.027547488 -0.23169608 -0.15753204
-0.00018967902 -0.054566707 -0.25788495 -0.06895161 0.10197774 -0.021347342 -0.060885765 -0.30539557
0.07938963 -0.09788357 0.06253304 0.047530428 -0.039498545 -0.016907778 0.09282319 -0.016613396
-0.13403115 0.05403301 0.07619558 -0.019242696 -0.077635184 -0.17500368 -0.31128952 0.19742139
0.2052185 -0.449833 0.07670195 -0.3332943 -0.046311166 0.044802625 -0.010878865 -0.05822253
0.026982391 0.062896736 0.061438527 0.04270595 0.055076826 0.054158416 -0.030325176 0.04854028
-0.030826688 -0.08073932 0.087170966 0.0731873 -0.0009590019 -0.006943672 -0.10718942 0.072046064
-0.13794522 0.023378104 0.10933764 0.09049864 0.010393283 0.029350353 -0.11350585 -0.10310389
0.013190011 -0.03189185 0.22299655 0.2683773 0.10577755 -0.019043704 0.08031493 -0.026777705
-0.032429744 0.121375054 -0.04477629 0.031523623 -0.012499591 0.0101964325 0.015079817 0.013691919
0.086660504 0.09294711 0.08029177 0.052744593 0.06904618 0.0705795 0.063671984 -0.115612544
0.22809482 0.8814928 0.08585466 0.08206281 0.15727888 0.032278407 0.015706988 0.033933315
0.04666186 -0.12437798 0.3305769 0.07663998 0.046962544 0.07513896 -0.17633988 -0.026534704
0.042645153 -0.046946205 -0.09320713 0.03403666 -0.0063144923 0.27400357 0.02805382 -0.12755057
0.09782466 0.09100816 -0.022216942 -0.11970787 0.063084066 5.2137933e-05 0.03598056 0.17214273
0.030288137 -0.015643792 -0.05307252 -0.0015334854 0.022309784 0.0961577 0.46485457 0.052838217
-0.20751113 0.14086428 -0.017516652 -0.116524436 -0.22827451 -0.010024306 -0.30758682 -0.1260118
0.3190728 0.19064392 -0.046298705 0.10050463 0.00080925337 -0.004941922 0.06879333 -0.008467041
-0.07024393 0.18873894 0.027140278 0.061131243 -0.009136546 -0.096194796 -0.037857927 -0.22141476
0.04345831 0.031590592 -0.06400623 0.13946062 0.16810162 -0.015771111 0.0063065696 0.005242851
-0.039237056 -0.083389506 -0.00714827 -0.042892147 0.06858314 -0.0082793 -0.014024819 0.119547985
-0.110797 0.047892384 -0.13917163 -0.04635454 0.0744362 0.013132525 -0.03167702 0.09011371
0.058805235 0.5744085 0.07257065 0.058637146 0.16979791 0.040950805 -0.037440736 0.021830242
-0.072720684 0.07323437 0.109940894 -0.011784983 -0.037667084 -0.016437836 -0.07833596 -0.0014907814

model/dense_3/MatMul;model/activation_3/Relu;model/dense_3/BiasAdd f4 [100]
00000000: a29f ecc1 14d5 4742 31c5 4441 e360 bfc0
00000010: 772d 7e41 098c 94c1 7022 63c0 47d9 8741
00000020: 2bfc 4042 a7ba ad41 105d 3a42 ef77 4942
00000030: d0eb 4342 4f23 e03e 90fe 7041 5088 1141
00000040: b073 0fc1 d35b 7941 584c 0541 d749 93c0
00000050: dd6b 0342 fcfa 11c1 a6de a9bd 0299 0e42
00000060: ae0f 4c42 9ba6 7342 b47e fa41 703e dcc0
00000070: 0e81 68c1 5286 48c2 37d9 6741 6a86 b641
00000080: 7754 c341 b9a9 e7bf f0ed 6741 4645 8a42
00000090: 6ab3 c1bf f403 e141 9723 0ec2 27cf 2d41
000000a0: 4bdf 2442 74bb 3042 6270 5b42 cb2b e1c1
000000b0: 0283 7040 c284 bc40 7449 b2c1 1a1f 9740
000000c0: b45b d441 8ab3 ae3e 1fae 5341 2909 10c2
000000d0: adea 94c1 dae7 1fc2 90c3 e5c1 79ac 9441
000000e0: 88df abbf 98ab 98c1 fe67 1841 5ef6 b141
000000f0: 76d0 54c0 33fc 8040 2683 d540 85b9 a241
00000100: b287 55c1 68f2 b340 4745 3641 0bd9 9a3e
00000110: 9d0f 9541 cf57 e4c0 d00c cbc0 3dd9 dd40
00000120: 1dc2 acbf 5f78 e8c1 5ce8 1542 1d4f b1bf
00000130: a2e2 b5c1 6482 2b41 a61f fd3f 68b8 1cc2
00000140: 26c0 3ec2 9110 19bd 7ce5 aabf f464 e441
00000150: 0737 1cc0 db59 bdc1 a509 7141 80ec 2140
00000160: b1c8 4cc1 db9a 2f41 7dc2 a9c0 0e3a 1242
00000170: 63f6 c2c0 8ecc a1bf 6652 c041 b6b8 69c2
00000180: 74af 6840 5c43 c041 521e d441 cecd a140
-29.577946 49.958084 12.298142 -5.980577 15.8861 -18.568377 -3.548977 16.981092
48.246258 21.716139 46.59088 50.367123 48.980286 0.43776938 15.062149 9.095779
-8.965744 15.584918 8.331139 -4.6027637 32.855335 -9.1237755 -0.0829442 35.64942
51.015312 60.9127 31.311867 -6.882622 -14.5315075 -50.131172 14.490531 22.815632
24.416243 -1.809867 14.49559 69.1353 -1.5132878 28.12693 -35.534756 10.863074
41.21806 44.18306 54.85975 -28.146383 3.757996 5.891206 -22.285866 4.7225466
26.544777 0.34121352 13.23001 -36.008945 -18.614588 -39.976418 -28.72049 18.584215
-1.3427591 -19.083786 9.525389 22.245296 -3.3252234 4.030786 6.6722593 20.340586
-13.345629 5.6233406 11.391913 0.30243716 18.632624 -7.135719 -6.345314 6.9327683
-1.3496739 -29.058775 37.476913 -1.3852268 -22.73566 10.719334 1.9775283 -39.180084
-47.687645 -0.037369315 -1.3351283 28.549294 -2.4408586 -23.668875 15.064855 2.5300598
-12.798997 10.9753065 -5.3049912 36.556694 -6.0925765 -1.264055 24.040234 -58.43038
3.6357088 24.03289 26.514805 5.0563726

model/batch_normalization_2/batchnorm/mul_1;model/batch_normalization_2/batchnorm/add_1;model/dense_3/MatMul;model/activation_3/Relu;model/dense_3/BiasAdd f4 [100, 100]
00000000: 0724 ac3d 9e60 da3c 213b acbc f600 ca3c
00000010: daa1 3b3d 112c 49bd 882d 883d 2b25 623e
00000020: b6ac ffbd f1b5 2fbd 2974 85be 5ef2 29bd
00000030: 47be eebd b4d4 70bd f26f 343d 8794 713c
00000040: 05bf 8bbc ff6b 003e 6aa4 9d3d 143e 213c
00000050: d5be bcbb 5106 8f3d 05f1 113f 338a 93bd
00000060: 9efa 113d 1f9b b7bc 4799 9b3d d51c 8c3c
00000070: 442d 61be 4995 0dbe 1457 91bd 41b9 b1bd
00000080: c0b6 15bc 0ca9 a7bb ec53 5bbe cf34 3ebe
00000090: 910b db3d 023c 2bbd 6a64 47bd 4fb9 b4bc
000000a0: 42a1 b1bc df5c 3f3c 63fd ea3c c9a6 223e
000000b0: ad40 8dbc 4935 90bc d4bc c73d 39a9 70be
000000c0: 1fbd c23d cd0a 923e e0d2 ae3d 31d5 a23d
000000d0: 1db1 513d 7176 8e3d 3f74 b6bd c1d5 873d
000000e0: 75cd ad3d 534d 6c3e 0a35 e13d d22c 29bd
000000f0: 63a1 05be c153 4bbc 950c 8fbd 085a bebd
00000100: 8295 223e f3e3 213c 663d 86c0 5526 743d
00000110: 4201 a53d 958b 2e3e 230e 9bbc b172 f2bd
00000120: f78d f13c 2259 39bd ee0c 0c3d 7138 973d
00000130: 51c9 edbc 3132 de3d 2610 fdbc fcac ae3d
00000140: 127d 2b3c f422 06be 4f58 1d3d 109e 8ebc
00000150: e18e 9e3c 79d0 adbd 2fda 993d 4cc2 17be
00000160: 5428 943e 4553 e33e 3fb4 c9bd 66ab 01be
00000170: 3fae 9b3b 9945 103e 26da b33d 14ee db3b
00000180: d02a 1b3c df46 92be d0ec 03be aafd 95bc
00000190: f653 93be f694 b2bc 688c e2be 08ab c8bc
000001a0: d622 f3bd af73 4b3d 77e4 833d e0c4 0f3e
000001b0: d171 cabd e4d7 8cbe 39e1 bf3d cb8b 1c3e
000001c0: 70b6 b0bb cd3c 27be c41d 2f3e 643f 043c
000001d0: cea7 2bbc 5811 cdbd e426 e3bd b7f5 09be
000001e0: f98a 70bd 64b0 343d efd9 2fbe 94ae 96bd
000001f0: 27ae 483e c8ed 26be 14d3 d63e 576b 543e
00000200: 179b 003e 6fce ed3d 7141 0ebe d457 a73e
00000210: 72e5 bf3d 491f c93d 60a8 b9bc ad9d fabd
00000220: cc75 f63c 1dd0 883d eead 96bd 3d4f 6f3e
00000230: aea2 00be 21bc 01bd e506 acbb 0167 b9bd
00000240: 3e51 1f3e 1661 5a3d 441f 77bd e6cc e3be
00000250: 524b 6c3d cf72 80be ca60 1a3d 9942 8b3e
00000260: dce7 a5bd 1fa0 85be 124f 27be a3b7 28be
00000270: 4e80 1ebc d747 7cbd c0a2 63be b127 283e
00000280: 5e0d ae3d f5e7 513e 4058 7c3d 889f edbd
00000290: 2247 053b 95e7 0cbd 5263 9a3c 5203 1ebd
000002a0: ae9e 453d 2953 f5bd 07bf 13bc 5aaa e93d
000002b0: 00ce fd3d 9f83 88bc c4b9 b5bc c02e 88bd
000002c0: 2e98 1dbe 3281 bb3b 5992 c0bc 0469 943e
000002d0: ed13 5abd 5975 08be 5fd5 043e 3885 80be
000002e0: d767 89bd b7f6 163d 8ad4 593e 3db4 8bbe
000002f0: 54d5 5ebe f4c9 76bd 3ccc 883d fa4d 113e
00000300: b3bc 093e 3aca 923c 4f47 16be c1bd c8bd
00000310: 5b4c 443d 49b8 3fbe cb8a 7d3d 4d2c 29ba
00000320: 165a c23d 4294 423e 858a 92bd 69bb bdbd
00000330: 0415 8d3d 5137 19bc eec2 833d 6fc2 733d
00000340: b8a7 cb3d 825d 133e 896d f5bd 0d1c 0d3e
00000350: 83ac 0ebd 3905 7fbe 9265 7e3c 0699 143e
00000360: b901 0e3e 628c 683b 60cf f3bd 01cc bc3d
00000370: c58b 83bd f936 9b3d 80bd 003d db00 60bc
00000380: f556 24be 6f58 1c3d 57c2 b0bd a3b4 47bd
00000390: af6d c33d 4653 563d 9147 13be ab29 c2bd
000003a0: 1090 67be 4ff7 99bb d32f e0bc 3d0c 353d
000003b0: 01af 533d 78d2 1e3e 9884 0d3d 3ed1 f2bd
000003c0: fd4d 9c3c 1747 8cbd 7be7 6dbe bcce a73d
000003d0: f935 8f3d 2753 8dbe 7a69 1cbc 764d afbd
000003e0: b956 0abe bd5c 30bd eb81 69be 9234 1b3b
000003f0: e1f0 943d ddc6 05bd 1fd4 59bd c2c8 bdbd
0.08405309 0.026657399 -0.021024289 0.024658661 0.04580865 -0.04911429 0.066493094 0.22084491
-0.12484114 -0.042898122 -0.26065186 -0.041490905 -0.11657386 -0.0587966 0.044052072 0.014744884
-0.017058859 0.12541197 0.07697375 0.009841461 -0.0057600536 0.06983627 0.5700839 -0.07204094
0.035639398 -0.022412835 0.07597595 0.017103592 -0.21989924 -0.13826479 -0.07096687 -0.086779125
-0.009137809 -0.0051165875 -0.21418732 -0.18574832 0.106955655 -0.041805275 -0.048679747 -0.022061018
-0.021683339 0.011679857 0.028685277 0.15883936 -0.017242754 -0.017603533 0.09752813 -0.23502053
0.09508728 0.28523865 0.08536315 0.07950819 0.0511943 0.06956185 -0.08908891 0.06632567
0.084864534 0.23076372 0.109964445 -0.04130251 -0.13049845 -0.012410105 -0.06984822 -0.09294516
0.15877345 0.0098810075 -4.194995 0.05960687 0.080568805 0.17045434 -0.01892764 -0.11838282
0.02948664 -0.04525102 0.03419202 0.07383812 -0.02902666 0.10849417 -0.03089149 0.08529088
0.010466831 -0.13099271 0.038414296 -0.017409354 0.01935524 -0.08487029 0.07512318 -0.14820212
0.28937018 0.44399467 -0.09848832 -0.1266304 0.0047509964 0.1408905 0.08781843 0.0067117307
0.0094706565 -0.28569695 -0.12883306 -0.018309433 -0.28774995 -0.021799546 -0.44247746 -0.024495617
-0.11871879 0.04967087 0.064400606 0.14039946 -0.0988499 -0.2750846 0.0936913 0.15287702
-0.005392842 -0.16331787 0.17101198 0.008071754 -0.0104770195 -0.10013074 -0.11091402 -0.13472639
-0.058726285 0.04411353 -0.17172979 -0.07357517 0.19597684 -0.16301644 0.41957915 0.20744072
0.12559162 0.1161164 -0.13892151 0.32684195 0.09369935 0.0982042 -0.022663295 -0.122371055
0.030085467 0.066803195 -0.07357393 0.23370071 -0.12562057 -0.031673554 -0.0052498453 -0.090528496
0.15558335 0.053315245 -0.06033255 -0.44492263 0.05768902 -0.25087592 0.03768996 0.27199247
-0.08100864 -0.26098725 -0.16338757 -0.16476302 -0.009674145 -0.06159195 -0.22230053 0.16421391
0.08498643 0.20498641 0.0616076 -0.11602694 0.0020336588 -0.03440054 0.018846188 -0.038577385
0.048247032 -0.11978752 -0.009017712 0.11409445 0.12392807 -0.016664324 -0.022183307 -0.06649542
-0.15390083 0.0057221884 -0.023507284 0.2898637 -0.05324166 -0.13326015 0.1297202 -0.25101638
-0.06709259 0.03685638 0.21272483 -0.27285948 -0.21761066 -0.06025119 0.066795796 0.14189902
0.1345089 0.017918695 -0.1467564 -0.09801818 0.04792438 -0.18722643 0.06189994 -0.000645344
0.09489839 0.19001868 -0.07155327 -0.09264261 0.06888774 -0.009351567 0.06433664 0.0595116
0.09944099 0.14391139 -0.11983783 0.13780232 -0.03483249 -0.24904336 0.015527146 0.14511499
0.13867845 0.0035484065 -0.11904788 0.09218598 -0.06423143 0.075788446 0.03143072 -0.013672079
-0.16048796 0.038170274 -0.086308174 -0.048756253 0.09542405 0.05232551 -0.14382769 -0.09480604
-0.22613549 -0.004698671 -0.027366554 0.044201124 0.05168057 0.15509975 0.03455028 -0.11856316
0.019080156 -0.06849497 -0.23232834 0.08193728 0.06992716 -0.27602503 -0.009546632 -0.085596964
-0.13509645 -0.043057192 -0.22803466 0.0023682457 0.072725065 -0.032660354 -0.05318081 -0.09266807

model/dense_4/MatMul;model/activation_4/Relu;model/dense_4/BiasAdd f4 [100]
00000000: f4b1 a83f 85b4 5441 f951 023f 26b3 ff3f
00000010: a5b9 d3c0 9615 ccc0 b6db 1340 0002 4641
00000020: 75ef 2942 c8b0 8141 b5cc ccc0 f6d4 43c1
00000030: 51af 6042 2bca bb41 5ca6 2bc1 3b7e afc1
00000040: 6249 c53e b6cb 3dc1 df99 8c41 4cd0 a140
00000050: 0ab6 62c1 3268 8abf 06bb 0441 05a4 8141
00000060: 1260 2042 7a4a 58c0 1559 de41 4432 2a3d
00000070: c9e1 fe40 05c6 83c0 ce9e 9f41 67d2 81bf
00000080: 003b f741 06ce 1441 d80f be41 9f99 08c1
00000090: 5b4b 90c1 5eee 2141 b127 0442 17c6 3542
000000a0: a2de 2a42 809d cd3e c8f2 6c3f 54fd 31bf
000000b0: 154a 4d42 8fe1 34c1 be41 71c1 4f2b afc1
000000c0: 51cf 08c2 6edc 0b40 b725 3742 78ed b941
000000d0: 4f0b 1cc0 28df 39bf 8c03 0842 3909 3141
000000e0: ffaa be41 bfc2 1541 b978 ab41 f079 b541
000000f0: b151 d9c1 e085 c141 a6dc 8cc1 a7dc 8b41
00000100: 218c 1041 de8b f441 a02d 0dc1 f8b3 9b41
00000110: df0b e241 3b55 4842 6f1b 96c0 f21d 1b42
00000120: a1e5 8540 4c5c 3fc2 2ecb 2d41 d1a3 4942
00000130: 2716 2842 d7f7 5ec1 0cd2 e841 4cdb 96c1
00000140: c46c 0d42 385f e441 13a7 a640 a17d 9fc1
00000150: 83e0 5ec0 212a b4c0 e0b8 aa41 a6b4 1b40
00000160: e13d 2841 b7ac fc40 cd89 88c1 27d1 0242
00000170: 53d3 0842 af1e 8140 9d83 5c42 7016 1d42
00000180: 600a 6640 c943 72c1 5489 2142 7cbf 95c0
1.3179307 13.294072 0.5090633 1.9976547 -6.6164117 -6.377635 2.310285 12.375488
42.483845 16.211319 -6.3999887 -12.239492 56.171207 23.473715 -10.728115 -21.936636
0.3853255 -11.862234 17.575132 5.056677 -14.169443 -1.0813048 8.29566 16.205088
40.09382 -3.3795457 27.793497 0.041551843 7.9650617 -4.1179223 19.952541 -1.0142335
30.903809 9.300299 23.757736 -8.537505 -18.036795 10.120695 33.03876 45.443447
42.717415 0.40159225 0.92557955 -0.69527173 51.322346 -11.305068 -15.07855 -21.896147
-34.202457 2.185329 45.78683 23.240952 -2.4381902 -0.72606134 34.003464 11.064752
23.833494 9.360045 21.433947 22.68454 -27.164888 24.190369 -17.607738 17.48274
9.034211 30.568295 -8.823639 19.462875 28.255796 50.083233 -4.690849 38.779243
4.184281 -47.840134 10.862104 50.409977 42.021633 -13.935508 29.102562 -18.857079
35.356216 28.546494 5.207895 -19.936342 -3.482453 -5.6301427 21.340271 2.432901
10.515107 7.8960834 -17.067286 32.70425 34.20637 4.0349956 55.12853 39.27191
3.5943832 -15.141549 40.38411 -4.6796246

model/batch_normalization_3/batchnorm/mul_1;model/batch_normalization_3/batchnorm/add_1;model/dense_4/MatMul;model/activation_4/Relu;model/dense_4/BiasAdd f4 [100, 100]
00000000: 5518 04be 37c3 3e3c b2d1 a83c 0b5e 43be
00000010: 8c8b 6bbe 5230 f63d b541 8ebd 2210 ea3c
00000020: a41c 4fbe 008e b63d a8ef d8bb 9fa7 ec3d
00000030: a04f 4abd 49d2 453d 0b2a c03d 5c0f 883d
00000040: 0bd6 123c c650 21bd f5a2 17be 362b bdba
00000050: 8fc2 333d 8b4d f93e 7508 163f 067a 2e3e
00000060: 2312 aebd 9546 293d 2f69 1b3e 6f31 863c
00000070: 8256 e9be b52e 1f3b c9ee 2cbc 184e 88be
00000080: aa33 2ebb 178d c9bd 9120 1b3d 175f ad3c
00000090: f988 523e a701 dfbd 1b8d 81bd 587d f43b
000000a0: e2d8 89be 310b 613d ed98 ddbb 1aeb 5a3d
000000b0: 4b55 e73d df89 6a3d ecf6 343e 31d3 85bc
000000c0: 4011 953e f6a3 2a3d 7c9a 4e3d cc22 e13d
000000d0: 2149 733e cc05 243d f7ad 093d 11f2 2b3e
000000e0: e81a 52bd 93db 933d 9b2f 0e3d 3d2e 243e
000000f0: 1b2a a3be 9513 aabc 1b92 843c 1513 f33c
00000100: b87a 48bd 82a4 6bbd d808 053e 413d a63c
00000110: 96fd 4d3d ca06 b93d ed5e 2abd 6ab1 cb3c
00000120: 9ebd 333e eaf4 51bd 74c0 2dbd b760 b8bd
00000130: bf52 40be 9267 bb3c af0b 503b c809 d03c
00000140: 3fc7 ed3d 969a 95bd 0b33 163e 91f3 adbd
00000150: 6d7a 2c3d 5ff4 333d 62d1 d5bd 9cf5 da3d
00000160: 6e09 cebc d1fa 1bbd b77b 6abd 936a bc3d
00000170: cbf4 3f3e e4df 743d 1378 c5be 81a9 843b
00000180: 90a0 053e eafe a53d 8173 bcbc 4e8c a03d
00000190: d8df b33d 3173 183d ecf6 40bc 65a5 fd3d
000001a0: 00c0 b1bd 1bd7 5ebd ea43 063d e992 723e
000001b0: 761d 89be 956f e03c 4646 91bc b1f4 313e
000001c0: b947 56bd 7ccb 70bd 3505 e83d 2785 9a3d
000001d0: 9cfb 613d 0683 ffbc e871 b03d d522 03bf
000001e0: e44b 72bc 5bbd 09be e5a2 4abd 269f 463e
000001f0: 4c03 29be 5956 043d 3c08 37be a9ae 5e3b
00000200: 0af5 903d 5e2c 743e 2099 b03c 77df d3bd
00000210: 8712 b1bc 4cd4 55bd 2a72 4e3e 9f32 bbbc
00000220: 8cb9 8e3d e123 a7bc 98c3 823d ff54 9d3d
00000230: 6172 ac3d faa3 33be eec3 bebc 30fa 18bd
00000240: 9ba0 e33d 27f1 c8bc 009a 1d3e f25a 56bd
00000250: c0a3 cebd 2b69 973d 0504 dabb 56d8 8e3e
00000260: 6826 20be 251f 173e e77c 31bc ee4f cdbc
00000270: 39b6 b1bd cbf9 c7bd 35c1 48bd 6e9f 93be
00000280: d690 ec3d b258 f6bc 239a eebd c283 b03c
00000290: a8ec 2b3e 92a9 97bd a070 88bd 6a2f 5f3d
000002a0: cad4 703e 7621 203e 5581 a8bd e2ae 25bf
000002b0: 5a9a 92be 2708 c83d e0f7 73bd 9a23 14bd
000002c0: 1826 11be 5bcf 593e ed31 1b3d 5aaa a93c
000002d0: ee06 83bd 35dc 113d d56b 84be 2d4b dfbd
000002e0: 96b3 b4bd 296c 2dbe 3e63 313e 3876 84bf
000002f0: ac30 a83b 5129 183d 4366 a23d 4d0d 24be
00000300: 017a 19be c15d 593d 325a b4bc 77f3 c939
00000310: e833 bc3e e0ba a93d 312e aebb 88fe 173e
00000320: 00dd a1bd d22b 863e 397b b93e 336b 3f3e
00000330: 1f0c d53d b30b 99bd c79c b73c d090 4d3d
00000340: 7479 85bd 0a35 64bd 1ef0 4fbe 94ec 4f3e
00000350: a389 233e c0e6 5d3d 084c 52bd 1190 0a3d
00000360: 17f6 7e3d 64ed 6e3e a666 933d 5a2c d53d
00000370: 08ba ad3d 2d00 c33c f1fd 1bbb 69b6 b83c
00000380: 150b 82bd 13bd 79be 90f5 1e3e 9803 a2bd
00000390: 5183 f03b f799 0a3e 2e71 1dbb b520 1f3c
000003a0: 3918 33be 9809 e23d 24cf 51bd 9769 1ebe
000003b0: ab0a 073e 67b9 71bc 7b1b 1dbe 24ad 2bbd
000003c0: 48c2 b5bd 37fb e5bd cc7e 28be f1e4 043d
000003d0: 9008 533b fe6c b3bb 7b8a a4bb 0d4f febc
000003e0: 63fe 1a3e 08bb e7bd e23c 1ebd 3762 19be
000003f0: bce2 343c 7395 213e affa 153d 5a69 8e3d
-0.12899907 0.0116432225 0.020607803 -0.19078843 -0.23002452 0.12020935 -0.06946126 0.028572146
-0.2022577 0.08913803 -0.006620366 0.11555409 -0.049392343 0.048296247 0.09383019 0.066435546
0.008962165 -0.039383672 -0.14808257 -0.0014432434 0.043886717 0.48691973 0.58606654 0.17038736
-0.08499553 0.041327078 0.15176843 0.016380994 -0.45573813 0.0024289314 -0.010554978 -0.2662208
-0.0026581087 -0.09841364 0.037872855 0.021163506 0.20560063 -0.10888987 -0.06325742 0.007461231
-0.2692328 0.054942314 -0.006762615 0.053446867 0.11295565 0.05726039 0.17672318 -0.016336055
0.29114723 0.04166027 0.050440297 0.10992965 0.23758365 0.04004459 0.03361317 0.1679156
-0.05129519 0.07219615 0.03471337 0.16033264 -0.3186806 -0.02076129 0.01618295 0.029672185
-0.04894516 -0.057529934 0.12991655 0.02029288 0.050290667 0.09034498 -0.041594435 0.024864871
0.17552802 -0.05125896 -0.042419866 -0.09002822 -0.18781565 0.022876535 0.0031745245 0.025395289
0.11610269 -0.073048756 0.14667909 -0.08493722 0.04210894 0.043934222 -0.10440327 0.106913775
-0.02515098 -0.038080994 -0.05724689 0.09200015 0.18745725 0.05978383 -0.38568172 0.0040485268
0.13049531 0.081052616 -0.023004295 0.07839261 0.08782929 0.03721923 -0.011777621 0.12385062
-0.08679199 -0.05440436 0.03277961 0.23688854 -0.2678029 0.027396956 -0.017733704 0.17378499
-0.052314494 -0.058787808 0.11329118 0.07544928 0.055171594 -0.031190407 0.08615476 -0.51225024
-0.014788602 -0.1345114 -0.049471755 0.19396648 -0.16505164 0.03230891 -0.17874235 0.0033978617
0.070779875 0.2384505 0.02155739 -0.10345357 -0.02161528 -0.052204415 0.20160738 -0.022851286
0.06968984 -0.02040285 0.06384963 0.07682227 0.084202535 -0.17543021 -0.023286786 -0.037347972
0.111146174 -0.024529053 0.15390778 -0.052332826 -0.100898266 0.07393106 -0.006653311 0.27899426
-0.15639651 0.14757974 -0.010833002 -0.025062528 -0.08677334 -0.09764441 -0.04901238 -0.28832573
0.11551063 -0.03007159 -0.11650493 0.021547202 0.16789496 -0.0740539 -0.066621065 0.054488577
0.23518673 0.15637764 -0.08227793 -0.64719975 -0.28633386 0.0976718 -0.059562564 -0.036166765
-0.14174688 0.21270506 0.03788941 0.020711113 -0.06397806 0.035610396 -0.2586352 -0.109030105
-0.08823316 -0.16935791 0.17323014 -1.0348577 0.0051327553 0.037148777 0.07929661 -0.16020699
-0.14987947 0.053067926 -0.022015665 0.00038519103 0.3675835 0.08287597 -0.005315565 0.1484319
-0.079034805 0.26205307 0.36226824 0.18693237 0.104027025 -0.074729346 0.022413624 0.050186932
-0.06517306 -0.055714644 -0.20306441 0.20305091 0.15970473 0.05417514 -0.05134204 0.0338288
0.06224641 0.23332745 0.07197313 0.1040885 0.08482748 0.023803795 -0.0023802484 0.022547917
-0.0634977 -0.24388532 0.15523362 -0.07910842 0.007339873 0.13535295 -0.002402376 0.009712388
-0.17489709 0.11036986 -0.051222935 -0.15469967 0.13187663 -0.014753676 -0.15342514 -0.041913167
-0.08874947 -0.11229556 -0.16454619 0.032444898 0.0032201149 -0.0054756394 -0.005021391 -0.031043554
0.15136103 -0.1131497 -0.03863228 -0.14978872 0.011040386 0.15779667 0.036616024 0.06953688

model/dense_5/MatMul;model/activation_5/Relu;model/dense_5/BiasAdd f4 [100]
00000000: bfff 0641 11c1 3542 f7ab 2dc1 fdd6 1c40
00000010: 5c49 0642 a636 e9c0 ba33 2642 372c 9141
00000020: 26ee 8840 5879 2e40 0ce6 ff41 22ba d5be
00000030: ae02 1141 e080 0042 48f4 f9c1 0128 e541
00000040: 5be2 76c1 3a16 6941 6156 9341 7153 c3c1
00000050: 57bf 9142 26cc 6fc1 333f b141 3d57 1c42
00000060: ec7c fc41 4603 3241 8413 1fc0 8fb7 333f
00000070: c31e 4541 c98d 5441 a76e 83c1 7f5a ec40
00000080: fdbc 85c1 25f0 e0c1 3e4f 8c40 3699 0d42
00000090: 677d b841 9bff 1642 ae36 fc3f 5370 08c2
000000a0: 5291 e741 e6e0 e9c1 a086 9c41 4d38 9241
000000b0: 6fa5 8241 1520 dec1 7e17 1d41 d0cd 7541
000000c0: 5b9b 26c2 3dc0 0742 dd84 2740 9600 d941
000000d0: 9c5a ecc1 340a a8c0 e45a 4a41 2a07 bf40
000000e0: 077d 0641 6006 7c41 05dc 7c3f 6703 3542
000000f0: ce83 b441 72a3 8f40 cfda 3242 3fd9 f741
00000100: 5b65 b8c0 55dd e941 1ff9 d2c0 bde7 56c1
00000110: 8878 dfc0 001a 1541 435f cec1 4bbe c741
00000120: d06f 1842 4c6a f041 8337 a3c1 89d5 df3f
00000130: eb2a 8941 9098 8ac1 8489 1b40 2e1c 68c2
00000140: ea91 8c42 ee20 e5c1 a1aa cd41 a7ec e241
00000150: e562 e3c0 8ccf ed41 9de6 a8c0 6889 6041
00000160: e724 04c1 c75b 3740 4873 36c1 9d6b ac41
00000170: f84f 023f 98b9 30c1 6fe4 6bc0 1cbd 8840
00000180: e44d e741 ef0e 9640 06fd 2b41 ca5d 4b41
8.437438 45.43854 -10.854484 2.4506218 33.57164 -7.287921 41.550514 18.14659
4.279071 2.7261562 31.987328 -0.4174357 9.063154 32.125854 -31.244278 28.644533
-15.430263 14.567926 18.417177 -24.415743 72.87371 -14.987341 22.155859 39.085194
31.560997 11.125799 -2.4855661 0.70201963 12.32001 13.2846155 -16.42903 7.386047
-16.71728 -28.117258 4.384673 35.39962 23.061232 37.749615 1.9704187 -34.10969
28.945957 -29.234814 19.565735 18.27749 16.330778 -27.765665 9.818235 15.362747
-41.651714 33.937733 2.6174843 27.125286 -29.544243 -5.2512455 12.64719 5.9696245
8.405524 15.751556 0.98773223 45.253323 22.564358 4.488702 44.71368 30.981077
-5.7623725 29.233072 -6.5929103 -13.431577 -6.9834633 9.318848 -25.796515 24.967916
38.10919 30.051903 -20.402105 1.7487041 17.145956 -17.324493 2.4302683 -58.02752
70.28499 -28.641079 25.708315 28.365553 -7.105822 29.726341 -5.278151 14.033546
-8.259009 2.8649766 -11.403145 21.552546 0.5090327 -11.045311 -3.6858175 4.2730846
28.913033 4.689323 10.749273 12.710398

model/batch_normalization_4/batchnorm/mul_1;model/batch_normalization_4/batchnorm/add_1;model/dense_5/MatMul;model/activation_5/Relu;model/dense_5/BiasAdd f4 [100, 100]
00000000: 743b 1a3b c729 a23d aa7c 4fbb 0ec9 a53d
00000010: 7bd8 613d a7c9 f93e a4bc 9c3c f5c7 62be
00000020: 3017 733e 6f16 08be 3fa3 b2bf 1d67 8bbf
00000030: 6287 c13d 6934 7fbd c6ea e0bc f317 543e
00000040: 136b 7cbe 8450 ecbd d17c 1a3e 3a44 46bd
00000050: 3e5c a03d c2c2 d23c 6506 cebd 33cc efbd
00000060: 7858 84bd 246f 673d 5ccf 313d 1779 333d
00000070: 1122 4f3e b49d 7e3d 549c 7b3c 1a50 62bd
00000080: eb23 a2bc 738f a33c 34a5 61be b2f7 0dbe
00000090: f63c 34bc eaba f1bd 9084 8ebd bacb 3d3d
000000a0: 3e09 be3d ef86 d53d 950a 2cbe 3b99 04bd
000000b0: f5ba 8b3c 5b8f d83d 56ca 03be 8989 f13c
000000c0: ac99 8b3c cd62 5cbc a9c5 e03d 2498 333c
000000d0: 1a67 a13e 6d4b 6c3d e341 42bd 4f84 4d3e
000000e0: baef 9bbc d3ce b7be 9c18 6abe 37d6 e13d
000000f0: 0159 ce3d 175c b9ba 3691 463c 93cf 6f3e
00000100: ff52 313d 9c59 3bbd 45c9 d5be b76d 37bc
00000110: c7fb 47bd 19ef b2be 4ca8 85bc 0fdd 94bd
00000120: 9ab0 a3bd 4553 213d 564a 29bb 1cc7 82bd
00000130: ccf4 e8ba c5a2 8c3c defe c73e 010a 1c3e
00000140: 957a e2bd fb68 d0bd e147 68be f8ec bf3e
00000150: 125c 81be a005 b93d a17f 323d 3d39 c0bc
00000160: b823 5cbe eae1 0bbe d366 f4bd a49f 9c3c
00000170: 796f dd3d ac78 623c e851 563e 5b72 0e3d
00000180: 545e f6bd a9f0 17be 7ff0 a13b f27f edbc
00000190: 471b 19bd e778 36bd c0e1 d3bd 61e2 1cbf
000001a0: 2873 aabd e29a 543f 01e7 493c 0c80 acbe
000001b0: 8a25 69bb 99d9 673e 147c d03e 35d6 a13e
000001c0: 17c8 8e3a 8bd4 7a3d 01ed ac3e 059b dabc
000001d0: 2e63 04bf 0f56 2cbf 591b 463e b3b9 3b3d
000001e0: 42cc 40be bfec 12be 4b19 ffbc 02e2 f63c
000001f0: 35d8 f3bc a128 41bc a119 273d fef9 08be
00000200: f624 a7bc 28cf dfbd 50f6 0dbe d61a da3d
00000210: b448 fd3d 7da8 5e3d a04a 8bbd f3db 87be
00000220: 6637 eebe 4ba7 12bc c041 463e 9244 373c
00000230: 95f3 39bc c40e 26be d4d7 013e 5ff7 a53c
00000240: a091 443d dc7f 1cbf 2f74 de3c d76e 97be
00000250: 12ef fdbc 31ae 323e 9a74 3a3d 0db6 193d
00000260: 5704 9cbe 7007 b6bd d737 a4bd 441f 0dbd
00000270: 33c8 b73d a022 19bd d26e b3bd c00a 983d
00000280: 0322 a2bd d3ba ed3c 5f94 9c3d 6c59 e9bd
00000290: dcdb 90bd 2383 fabd f58d d3be 6992 13bd
000002a0: 0257 b7bc 60cc bbbd 94c6 05bf 20b2 c3bd
000002b0: 0c1d 91bd 84e1 32bc 6e87 05be 47d9 b7bb
000002c0: 717f 1bbd 5431 ebbd 50cc 6cbe 3403 b33d
000002d0: 05d5 8e3d b33e f0bc 2b50 7cbd 96c8 3b3d
000002e0: 0839 9ebe 3251 0abe 214d 05ba 6d56 31bd
000002f0: ad2f 573c 1cae c23d 8a2b c3bd d622 4fbe
00000300: bf58 b4ba bc6f 3bbd 4bf6 51bd 4fcc 07be
00000310: cffa edbd 260a f13b bd66 98bd 2c89 e3be
00000320: 2e56 b63d 3f79 b43d 7e44 8d3d d5f2 d93d
00000330: 45c0 d4bc a350 c0bd 206e d5bc 79bf fb3d
00000340: 2ebd e83a ff92 13be 48bc 01be e741 07be
00000350: 728c 933d ace6 9dbe 9fab 7f3d e293 dfbb
00000360: 4e49 bf3c 57f1 a1bd cf14 a5bd e37a 713e
00000370: 23e1 3e3d f74d 993d 848b ea3c 0d04 5a3d
00000380: 7e54 51bd 2253 06bd aa36 2e3d 8674 d6bd
00000390: fac3 4e3e cf5d 2bbd 6a2c 8d3d 709e 9fbd
000003a0: e027 d6bc 86b7 6ebc ea46 553d 2690 0f3d
000003b0: f96d 953d 2f20 cbbd db4d 7a3d b1d0 8b3b
000003c0: a42d 9f3d 8057 073d 851b a1bc a2df a1bd
000003d0: 8c92 85ba 6e45 0bbd 35ee 153d 2a5c 67bd
000003e0: 5109 4dbd b0d0 92bf b5c2 993f 52e5 acbd
000003f0: 225e 07be 30d6 923d 02bf 0bbe 212c 793c
0.0023533972 0.07918125 -0.003166 0.08094989 0.055138092 0.4878666 0.01913292 -0.2214659
0.23739314 -0.13289808 -1.3956069 -1.0890843 0.0944965 -0.06230584 -0.027455699 0.20712261
-0.2465022 -0.11538795 0.15086676 -0.04840491 0.07830094 0.025727633 -0.100598134 -0.1170887
-0.064621866 0.056502476 0.043410644 0.043816652 0.20227839 0.062162116 0.015357096 -0.055252172
-0.019792518 0.019965863 -0.22035676 -0.1386402 -0.011000862 -0.11803229 -0.06958878 0.046336867
0.092791066 0.10426127 -0.16800912 -0.032372694 0.017056921 0.10574218 -0.12870154 0.029484527
0.01704105 -0.01345129 0.10975201 0.010961566 0.31523973 0.05768912 -0.047426116 0.20070003
-0.019035209 -0.35899982 -0.2286095 0.11027186 0.1007557 -0.0014141825 0.012119582 0.23419027
0.043292042 -0.045739755 -0.4175512 -0.011195592 -0.048824098 -0.34948042 -0.016315602 -0.07268726
-0.079926684 0.039386053 -0.0025831661 -0.06385633 -0.001777315 0.017167458 0.39061636 0.15238191
-0.11058537 -0.101762734 -0.2268367 0.3748548 -0.25265557 0.09034276 0.043578748 -0.023464793
-0.21498 -0.13660398 -0.11933675 0.019119091 0.10812277 0.013822716 0.20929682 0.034777027
-0.120297104 -0.14837898 0.0049419994 -0.028991673 -0.03737953 -0.044548895 -0.10345793 -0.61282927
-0.083227456 0.8304883 0.012323142 -0.33691442 -0.0035575354 0.226416 0.40719664 0.3160874
0.0010893372 0.061237853 0.3377457 -0.026685247 -0.51713836 -0.67318815 0.1934637 0.045831393
-0.18827918 -0.14348124 -0.03113999 0.030137066 -0.029766181 -0.011789472 0.040795926 -0.13376614
-0.020403367 -0.10928184 -0.13863492 0.1064965 0.12367383 0.0543599 -0.06801343 -0.26534995
-0.4652664 -0.008951019 0.19361019 0.011185782 -0.011349578 -0.1621657 0.12679988 0.020259557
0.04799044 -0.611326 0.02715501 -0.29576752 -0.030997787 0.17449261 0.045521356 0.037527133
-0.3047206 -0.08888137 -0.08018463 -0.034453645 0.08973732 -0.037386537 -0.08761372 0.074239254
-0.079166435 0.029019749 0.07645487 -0.11394009 -0.07073185 -0.122320436 -0.41319242 -0.0360283
-0.022380356 -0.09169841 -0.5225613 -0.09555459 -0.070856184 -0.010918025 -0.13039944 -0.0056106183
-0.037963334 -0.11484018 -0.23124814 0.08740845 0.06974224 -0.029326772 -0.06159989 0.04584559
-0.30902886 -0.13507536 -0.00050850405 -0.043295313 0.013133925 0.09505865 -0.09529789 -0.20228133
-0.0013759359 -0.045760855 -0.051260274 -0.13261531 -0.116201036 0.007355946 -0.07441471 -0.4444059
0.08903156 0.08812188 0.068978295 0.1064202 -0.025970588 -0.0939038 -0.026053488 0.1229238
0.0017756575 -0.14411543 -0.1266948 -0.13208733 0.07204522 -0.3084005 0.06241953 -0.006823049
0.023350384 -0.0790736 -0.080606095 0.23582034 0.046601426 0.07485574 0.02863098 0.05322652
-0.05110597 -0.032794125 0.0425326 -0.10471444 0.20191947 -0.04183751 0.06893237 -0.077938914
-0.02614206 -0.014570123 0.052069582 0.03504958 0.07296366 -0.09918248 0.061109405 0.0042668213
0.07772377 0.03304243 -0.019666443 -0.07903983 -0.0010190769 -0.03400176 0.036604125 -0.05648438
-0.050057713 -1.1469936 1.2012545 -0.08442177 -0.13219503 0.07169759 -0.13647082 0.015208275

model/dense_6/MatMul;model/activation_6/Relu;model/dense_6/BiasAdd f4 [100]
00000000: 8a4d e3c0 275c 2541 ac11 b540 452f 0ac1
00000010: c7d0 0642 85e7 37c1 36e5 9b40 0692 d741
00000020: 9470 20c1 237d cd41 086e 2442 8050 55bf
00000030: 7b56 9c3e b830 da41 408b 3940 fe2b a1bf
00000040: 1e62 0b42 cbf6 5241 3da6 f241 9866 a741
00000050: 4d9f 6242 a68a 9b41 c21a 05c1 20a3 79c1
00000060: 7d30 f040 5bd2 a941 53cf e7c0 b31b b141
00000070: db71 ca41 d3eb ef3f d61e 8fc0 e3e3 3441
00000080: 353d b540 90c3 8b3f 893e 31bf 835f 4142
00000090: d2b7 7fc1 23e5 5a41 5b3e 1840 8639 8940
000000a0: 79b2 fb41 65fa b140 2fc8 bd41 2df1 81c1
000000b0: 7e6b c541 b7e5 52c0 e253 b9c1 36d4 c040
000000c0: e9a7 5441 6a50 1641 b74e ff40 145f 00c2
000000d0: 7d9a 8c3f 4e17 9041 5365 8941 bba7 1142
000000e0: f611 1142 fb6e efc0 59e9 ba41 1d2e 2e42
000000f0: fb1f 4041 9408 80c1 e1ad 24c0 eb24 4941
00000100: f77b 87bf 6894 8541 d185 4f42 e583 1f40
00000110: 5c84 58c1 6b44 8341 6888 0442 e788 2141
00000120: 02a6 10c1 cbb6 3240 1050 1e41 0a43 13c0
00000130: 65e7 40c1 2d96 b941 cbeb 0cc1 b5eb f8c0
00000140: 85f9 9ac0 112f d640 3127 21c1 38fe df41
00000150: 2f9c 7e41 0fd7 bc41 f091 8b41 f8e3 0841
00000160: e919 98c1 f78d 8f3e 1617 ac41 7c09 b7c0
00000170: 9972 2c41 6cfe 9441 00c6 713d afb2 b340
00000180: d673 2242 d943 82bf decf c0c1 cfab 1fc1
-7.103215 10.334998 5.658407 -8.63654 33.703884 -11.494023 4.87173 26.9463
-10.027485 25.686102 41.107452 -0.8332596 0.3053473 27.273788 2.8991241 -1.259155
34.845818 13.185252 30.331171 20.925095 56.655567 19.4427 -8.319033 -15.602325
7.505919 21.227713 -7.244058 22.138525 25.305593 1.8743843 -4.472514 11.305636
5.6637216 1.0919056 -0.69236046 48.343273 -15.982378 13.680942 2.3788059 4.288272
31.462145 5.5618157 23.722746 -16.242762 24.677486 -3.2952707 -23.165958 6.0259047
13.290994 9.394632 7.9783587 -32.09285 1.0984646 18.01138 17.174475 36.4138
36.26754 -7.4822974 23.36394 43.545033 12.007808 -16.004189 -2.5731127 12.571513
-1.0584706 16.697464 51.88068 2.4924252 -13.532314 16.408407 33.13321 10.095923
-9.040529 2.7924068 9.8945465 -2.3009667 -12.056493 23.198328 -8.807567 -7.778773
-4.842959 6.6932454 -10.072068 27.99913 15.913131 23.60501 17.446259 8.555656
-19.012651 0.28037998 21.511272 -5.7199078 10.777978 18.62423 0.05902672 5.615562
40.61312 -1.0176955 -24.101498 -9.979445
