corintho_ai/python/tflite_models/model_28.tflite (tflite, 521576 bytes, 27 tensors)

model/dense_1/MatMul;model/activation_1/Relu;model/dense_1/BiasAdd f4 [100]
00000000: 7bd5 07c2 5f9a 9542 41d5 1bc2 218f 1dc0
00000010: 70df 3e42 ecaa a041 8399 2b42 6d89 b4c1
00000020: 4962 fbc1 ef05 4541 e124 2b40 2ed5 20c2
00000030: 5079 52c0 486f 7dc1 be41 c140 3c7b 35c2
00000040: c477 e640 082c d540 4ec6 11c1 9c77 adc0
00000050: 3f69 8240 796d 9540 0d1c 2a41 2f97 02c2
00000060: 8c9b 3342 2923 583f 9cc2 23c1 cdf1 a9c0
00000070: 98dc f8c1 8fc9 cf41 1b2b 9dc1 bef9 41c0
00000080: ea40 9441 5de1 e8c1 30b4 3442 1a76 0942
00000090: cddb f33e cd85 a2c1 e18e 80bf aaf6 d541
000000a0: 6d8d 1b42 dd23 a6c0 60ec e7c1 a048 0cc0
000000b0: d8ff 1a41 e5bf 0ec1 b5c0 8840 b9f3 c2c1
000000c0: 9fa7 06c0 4aa0 75c1 77d6 2c41 b66c f2c1
000000d0: cab1 9f40 5ffd ac42 ee7a 51c0 17ae cb41
000000e0: b4d5 4c41 e016 3fc1 59d5 a141 cccb 23c1
000000f0: e7cd 1f41 e58d 2142 1f93 7b3f 4eab 5a41
00000100: 2d8a 0e42 b9e5 1842 2f1c 8542 d9df a141
00000110: 65b1 e9c0 0aeb 08c2 d1af 27c0 3452 27c1
00000120: 24ae 4841 d017 5c42 ae59 20c1 f92d 0142
00000130: e70a fabf b38f ecbe 01a5 64c2 bde7 01c0
00000140: ee0f a240 6fe4 f241 5f20 cd40 12a5 97c1
00000150: 722b cfc1 daf9 2542 fb3f 8941 5194 8ec1
00000160: d36d 3542 1a04 1242 d2f8 4c42 6092 d440
00000170: a824 4542 877e c23f ef05 8abe bb2b cc40
00000180: 23b6 9c42 bf2a 2941 e367 d540 a7d1 5dc2
-33.958477 74.801506 -38.958256 -2.461861 47.7182 20.083458 42.899914 -22.567102
-31.42299 12.313949 2.674126 -40.208183 -3.2886543 -15.839668 6.039275 -45.370346
7.20212 6.661625 -9.110914 -5.4208508 4.0753474 4.6696134 10.631848 -32.64764
44.9019 0.8442865 -10.235012 -5.3107667 -31.107712 25.973417 -19.646048 -3.030868
18.531696 -29.11004 45.175964 34.365334 0.47628632 -20.315332 -1.0043603 26.745441
38.88811 -5.191878 -28.990417 -2.1919327 9.687462 -8.921849 4.273524 -24.369005
-2.1039808 -15.351633 10.80236 -30.303082 4.990453 86.494865 -3.273128 25.460005
12.802174 -11.943085 20.229174 -10.237255 9.987769 40.38857 0.98271364 13.666822
35.634937 38.22434 66.555046 20.2343 -7.3029046 -34.22953 -2.620106 -10.457569
12.542515 55.023254 -10.021894 32.294895 -1.9534577 -0.46203384 -57.161137 -2.0297692
5.0644445 30.36154 6.4102015 -18.9556 -25.896214 41.493996 17.15624 -17.82242
45.35725 36.504005 51.24299 6.642868 49.285797 1.5194863 -0.26957652 6.380338
78.355736 10.572936 6.6689315 -55.45474

model/batch_normalization/batchnorm/mul_1;model/batch_normalization/batchnorm/add_1;model/dense_1/MatMul;model/activation_1/Relu;model/dense_1/BiasAdd f4 [100, 100]
00000000: 6584 433e 269d 01bf 7273 373f 9a66 bd3d
00000010: 340b dd3f ed3d 393f 4b9c 4fbf d08e 5bbf
00000020: 8cc5 8a3d 1884 203f 61f9 f83e 00d6 053f
00000030: fe0f 8c3e 1972 da3b d005 a6be ed55 e33c
00000040: 3733 953e 8bb3 88bf 0842 e13d abd3 adbe
00000050: a778 993d 16dc 8040 062f 29bd b6fd 7abd
00000060: d12a 8fbe 5885 f03d a4bb 603d b1a4 33bf
00000070: 6bcd ae3e bc42 d1be bbf4 b5bc 6ca9 2f3f
00000080: 5fa6 8e3e 55b0 33be c975 92be 1e7b 9bbd
00000090: 1cef 123b c270 60be c3fe d1bd 0098 7c3e
000000a0: 9e94 1c3f 9d1a 763f 72a6 023f 8313 ca3d
000000b0: 77ec 85be 2daf 1cbe 5fd5 983e 15ff 27be
000000c0: dbb1 183f 5e4a 5bbe e4fd 53bd 82f3 b6bf
000000d0: fb21 f23e e779 6040 317f 843e 3c8b 05bd
000000e0: cd39 40bc 6cbb 903e 2ba6 8f3f 2104 f63e
000000f0: 983c cd3e 28f2 81bd 3fb0 aebd 6733 6bbf
00000100: c67e 023f d5fa 29be 57cf 85be dd0a 103e
00000110: 8120 30bc 18bd 343f b5d5 083f 6751 1b3e
00000120: 8911 f6bd d5f2 e03d f474 423f 00b2 c8be
00000130: 9d8f 8fbe 0070 abbe 56c0 14bd 1bd9 0e3f
00000140: 0717 11bf eb56 a93e 5db7 b4be b03a 90be
00000150: 3ceb edbe b909 b63d eb36 3abe 8e3a 09bf
00000160: 1d96 bebd 2034 5cbc 363e 42bf ddb5 533f
00000170: 3068 0f3e 831b 07bf 428c 2abd dbe1 fe3d
00000180: f884 373e b076 22bd 6c54 91be 950e 1dbe
00000190: f822 38bf c706 75bf eb94 8dbe 3ed4 0dbc
000001a0: 54a9 7abf 2a74 e23f 89ef 5e3e 5a70 b93e
000001b0: 7231 f33d 4165 bdbd 80d7 9a3e 08c3 523b
000001c0: 0794 7ebf e0a2 00be ec83 bbbe 7136 45bf
000001d0: e333 123e e468 acbf dfaa 13bf 1961 03be
000001e0: 29e0 03bf 37f1 a9bf 091f c13d 7346 41bd
000001f0: 6b0e e4bd 97e4 0ebc d26c cebe 32bf c2bc
00000200: da59 2abe 82a0 663d dd2b c53d 063f 533e
00000210: 5f02 383e ab6f f3bd 03a6 4bbd b4bc 89bd
00000220: f3fd bfbe 802a d6bf 5950 1cbf 6b20 0bbf
00000230: c488 cc3d 5ce2 18be d2b9 43bf 946d 60be
00000240: 32c9 23be 9e1d 3abf 7bc7 6d3e bc50 d8bd
00000250: d435 8cbe bb1b 75bc ff9d 86bd 3dc4 2440
00000260: 0c29 c93c db95 7f3f 4b7c f13d 4fb0 8abe
00000270: 875f 99be af12 563f 0ae7 c63d 0387 ce3e
00000280: a334 b13e 2a13 643e d820 0b3e 1cb9 4bbf
00000290: 2b32 62bf b25b 2abe d900 fe3d 8aa0 5d3f
000002a0: ce33 20bd ca90 5dbe ae4f a83c 7e1d ba3e
000002b0: 5b53 7cbe 23fd a83d 7843 23be a5fa 25be
000002c0: a4f2 10bf 9816 8cbe ac24 d73e 50d1 b73d
000002d0: f048 58bd 221d 09bf 5159 fa3e 534c 923e
000002e0: 74e0 55bc d8d9 e93d 2387 783c 75a6 fdbd
000002f0: 8773 8d3e ff61 b73c 736b 97bf b070 4f3f
00000300: 787e 28be 709f 12bf ce35 0abf e944 833e
00000310: 16a3 5cbd a0fe 7abf 9ba0 48bf b29b 18bf
00000320: 17c0 473f 2d65 e2be 65ef b43d 6bd2 22be
00000330: ad92 e63e 2af8 573d a5b0 653f 60cc 68bf
00000340: e629 5dbf 53e6 10bf 10b7 8abe 58c3 ae3f
00000350: 0aae 363e 17cb 223e 7c7c 01be 15de c33e
00000360: 75c1 6d3e 283a a9be ba0b 64bf 7472 c2be
00000370: 9f6a 58bd ab5c eebf d03b fabd fd4a 3f3e
00000380: a941 d0bd e062 0e3d da57 61be 867a bb3e
00000390: 1bdd 003f cd55 bf3f 942e 563f c162 193f
000003a0: f475 6f3d 974c e93e c02e 7e3f ea08 393c
000003b0: 1b75 3e3d 2c7d 693e 0f51 c23e 78b5 05bf
000003c0: 6167 d03d 1669 93bd 2373 643f 0440 943e
000003d0: b7a4 1d3e a656 7bbf b6ad 3e3f a6c0 e33c
000003e0: 6904 90bf c0d3 1dbd 7e38 b93d ebc9 923f
000003f0: ccfe 9b3e 7a0d 88bd 028d 053d d2b8 8cbd
0.19093473 -0.50630414 0.7166053 0.09248085 1.7269044 0.72360116 -0.8109786 -0.8576479
0.0677596 0.6270156 0.4862776 0.52279663 0.2735595 0.0066664335 -0.3242631 0.027750934
0.29140636 -1.0679792 0.109989226 -0.33950552 0.07493716 4.026866 -0.04130461 -0.061277114
-0.27962354 0.11744183 0.054866448 -0.70173174 0.34141096 -0.40871227 -0.022211423 0.6861789
0.27861306 -0.17547734 -0.28605488 -0.07591842 0.0022420352 -0.21918014 -0.1025367 0.24667358
0.6116427 0.9613436 0.51035225 0.09867003 -0.2615697 -0.153012 0.2985029 -0.164059
0.59646386 -0.21415088 -0.0517558 -1.4293063 0.4729155 3.5074403 0.2587829 -0.032603487
-0.011732531 0.28267992 1.1222585 0.48050025 0.40085292 -0.06345016 -0.0852971 -0.9187531
0.5097469 -0.16599591 -0.2613475 0.14066644 -0.010749937 0.70601034 0.5345109 0.15167771
-0.12015063 0.109838165 0.75959706 -0.39198303 -0.28039256 -0.33483887 -0.03631624 0.55800027
-0.5667576 0.33074126 -0.35296145 -0.28169775 -0.46468532 0.08888573 -0.18185012 -0.5360497
-0.093059756 -0.013440162 -0.75876176 0.82699376 0.14004588 -0.52776355 -0.041637667 0.12445422
0.17921817 -0.03966397 -0.2838472 -0.15337594 -0.7192836 -0.95713466 -0.27652678 -0.0086565595
-0.97914624 1.76917 0.21771063 0.3621853 0.11874665 -0.09247828 0.30242538 0.0032159705
-0.9944462 -0.12562132 -0.36624086 -0.77036196 0.14277606 -1.346951 -0.57682604 -0.12830009
-0.51513916 -1.3276738 0.094297476 -0.047186326 -0.111355625 -0.008721492 -0.40317398 -0.02377281
-0.16635838 0.056305416 0.09627507 0.2062951 0.17969655 -0.11886533 -0.049718868 -0.067254454
-0.37498435 -1.673172 -0.610601 -0.5434634 0.099870235 -0.14930099 -0.76455414 -0.219168
-0.15994719 -0.7270144 0.23220627 -0.10562274 -0.27384818 -0.014960225 -0.06573104 2.5744774
0.024555705 0.99838036 0.11791285 -0.27087638 -0.29955694 0.8362226 0.09712036 0.4033738
0.3461047 0.22272936 0.13586748 -0.7957933 -0.883578 -0.16636541 0.124025054 0.8657309
-0.039111905 -0.21637264 0.020545807 0.36350626 -0.24641173 0.08251407 -0.15943706 -0.16208895
-0.5662024 -0.27360988 0.42020166 0.0897547 -0.052803934 -0.5356008 0.48896268 0.28573856
-0.013054002 0.114185035 0.015168938 -0.12385265 0.27627203 0.022385595 -1.1829666 0.8103132
-0.16454494 -0.5727453 -0.5398835 0.25638512 -0.05386647 -0.98044777 -0.78370064 -0.5961257
0.7802748 -0.44217816 0.088347234 -0.1590058 0.4503378 0.052726902 0.89722663 -0.9093685
-0.86392057 -0.56601447 -0.2709279 1.3653364 0.17839828 0.15897785 -0.12645143 0.38255373
0.23218329 -0.33052182 -0.89080393 -0.37977946 -0.052836057 -1.862203 -0.122184396 0.1868095
-0.10168774 0.034762263 -0.22006169 0.36616915 0.5033738 1.4948059 0.8366482 0.5991631
0.0584621 0.45566246 0.99290085 0.011293629 0.0464984 0.22801656 0.37952468 -0.52230024
0.10175968 -0.07197778 0.89238185 0.2895509 0.15394865 -0.9817909 0.7448381 0.027801823
-1.1251346 -0.03853202 0.09043978 1.146787 0.30467832 -0.066431955 0.03260518 -0.06871189

model/dense_2/MatMul;model/activation_2/Relu;model/dense_2/BiasAdd f4 [100]
00000000: dacf 1a42 0f5a 0dc2 0f98 1040 5b01 36c2
00000010: 9663 23c1 cdb7 e740 ddc9 e341 215d a141
00000020: 5f8c 36c1 d069 aabe ea09 37c1 00eb 35c1
00000030: 9f31 7bc0 63ed 3741 e970 0a41 5602 25c2
00000040: 1957 ecc1 37bc 5040 8637 65c0 3801 ff3f
00000050: 8fc8 7341 a117 be40 05e1 7241 e945 3041
00000060: de8f 5cbf 6c04 0641 287a d13f 0279 f941
00000070: 886f 40c1 bae7 3d40 bc9d 24c1 a5a0 2641
00000080: 6ecc d041 d701 68c1 9799 b141 5d7c e8c1
00000090: a047 2742 5e34 04c2 9941 aec1 79d6 08c1
000000a0: 5e3b f340 ee5a fbc1 1c8d 3f3c 2cf7 17c1
000000b0: 16a4 87c1 4233 cf41 d8de 38c1 cb04 02c1
000000c0: e333 f4c1 23c7 0641 1258 2d42 6c3b 2742
000000d0: f479 aa40 06b8 2bc1 0105 ce40 8a25 6ec0
000000e0: 088f 7c40 2156 2742 dcf7 bb41 c44f c8c1
000000f0: 4ab9 ffbe 4b5c 0d40 8c12 733f 1ff5 9d42
00000100: 55ea cc41 0be8 1341 1ee2 1ac2 718f 9dc1
00000110: 2ee9 30c1 2843 0642 6478 bdc2 d6fa 2241
00000120: c533 08c2 6567 b941 bfeb 8ac1 a5cd adc1
00000130: 0709 6541 4551 7cc1 7560 f8c1 f485 8841
00000140: da4a fd41 94c0 8141 9057 9041 5fb9 6d41
00000150: 0104 d7c0 d2d3 f3c1 bde8 9fc0 f581 e941
00000160: 4ceb 8e41 4714 9741 0b26 bbc1 fba9 4940
00000170: b4a4 49c0 473d cf3f 5106 62c0 25da 1142
00000180: 5aa3 0342 a722 b941 d87c 0241 0923 58be
38.70298 -35.337948 2.259281 -45.501324 -10.211813 7.2411866 28.473566 20.170473
-11.40927 -0.33283854 -11.43992 -11.369873 -3.9249036 11.495456 8.652566 -41.25228
-29.542528 3.2614877 -3.581514 1.9922247 15.2364645 5.9403844 15.179936 11.017068
-0.86157024 8.37608 1.6365404 31.184086 -12.027229 2.9672685 -10.288509 10.41422
26.09982 -14.500449 22.199995 -29.060724 41.819946 -33.05114 -21.78203 -8.5523615
7.600997 -31.4194 0.011691358 -9.497845 -16.95512 25.900028 -11.554405 -8.12617
-30.525335 8.423617 43.336006 41.80803 5.327387 -10.732428 6.438111 -3.7210412
3.94623 41.83411 23.496025 -25.038948 -0.49946052 2.208758 0.94950175 78.97875
25.61442 9.244151 -38.720818 -19.69504 -11.056929 33.565582 -94.73514 10.186239
-34.050556 23.175486 -17.36511 -21.725412 14.314704 -15.769841 -31.047098 17.065407
31.661549 16.219032 18.042755 14.857757 -6.7192388 -30.478428 -4.9971604 29.188456
17.864891 18.884901 -23.393576 3.1509998 -3.1506777 1.6190575 -3.5316355 36.46303
32.909523 23.14192 8.155479 -0.21107115

model/batch_normalization_1/batchnorm/mul_1;model/batch_normalization_1/batchnorm/add_1;model/dense_2/MatMul;model/activation_2/Relu;model/dense_2/BiasAdd f4 [100, 100]
00000000: 1a0d c5bd 458f 61be a0a3 0a3e ce23 16be
00000010: 5a6f 3ebe 3862 0dbe 9a10 053e a45a ba3d
00000020: 4ac9 5c3e 5a68 a2bc 22a4 db3d e7ed 013e
00000030: 20d9 0d3e e7d4 0ebe cbda 70be 3b03 103d
00000040: 4d45 003d 495a 97be 2632 2f3e 435d 0bbd
00000050: 59ab eebd dae3 a7bd 117c 9e3d 34ac 333e
00000060: 67d4 babd 372e 743a 4e9f 16bd b4cc 703c
00000070: 5f06 973a 9c37 07be cd05 ffbc e279 d8bc
00000080: efed b3be 860b 773a 7d56 d5bc 2e54 6e3e
00000090: 1a03 95bd 50f5 753d a40d cc3d ef0a 3ebd
000000a0: c448 d7bc 96f4 3bbe 0bda 62be 9da9 f23d
000000b0: f344 b9bc 8540 843d c3af 09bd e028 2ebd
000000c0: 6702 83bd 67eb 60bd 3870 983d eddd 893d
000000d0: e48b 353d 64d0 b3bd d12b dfbd f3d9 c2bd
000000e0: 0f22 5d3d 8a3b 7c3d 6c06 8c3e ccca 6fbd
000000f0: d8ce 8a3e 7795 13be 4ba1 cf3c 75c4 80be
00000100: 1df4 b8bc 9a5d 2e3d 3fcb 303d 9295 82bd
00000110: 082a 23bd 4e5e c03d 28f5 67be 175f f6bd
00000120: d873 a0bd 571b 59bd a29e 76be c9b0 2dbe
00000130: f56c 97bc da66 8a3c 9b86 99bd a440 9bbe
00000140: bd97 303d f6e4 243b 37a0 8c3d f6f9 dd3d
00000150: ed60 e3bd 7774 6fbc 4637 c53d b4d8 093d
00000160: c852 21be bfe7 a7bd 4a23 503d d545 89bd
00000170: 3421 05be 5840 1bbe 0514 10bf 6bbf d53e
00000180: 3bf9 543e 0d07 17bf 7c21 f93c bdd7 a0be
00000190: 9948 bb3a 2843 123e 35ca ce3b 82e4 b5bd
000001a0: 37b3 a63d 7109 603d 5e4a 0e3e 52d0 2e3d
000001b0: 9d8e 463d 3cc9 c83c dd12 7abc d460 9d3c
000001c0: 0228 4bbb 3390 66bd 1579 8c3d 700f 1f3e
000001d0: 0fca c0bd 735c bebd 0625 adbd 8593 30bc
000001e0: aebb aebd 0dec dc39 4c10 b8bc bea2 6939
000001f0: 4b77 2e3d 1ffb 073c 9202 32bd a213 f9bd
00000200: 5bef c1bd f7a2 033d 2ea6 463e 2d19 b23e
00000210: 011c 883d a6a6 a93d 6015 f83c 3025 d6bd
00000220: 728f 4b3c edb4 7d3c 49aa 6bbd c7dd 153c
00000230: 6be0 72bd ac9d 913c e9b7 81bd 79e5 07ba
00000240: 5bae cf3d 159a 993d 45c6 9cba 769f 9c3d
00000250: eb66 023e 58ff c13d 2a26 723d 70f6 15be
00000260: dfe0 743e 9b94 2b3f 0cba ea3d 9f34 8238
00000270: d27a 0c3e 24d0 cb3c fd27 53bd 3256 0abc
00000280: 738a 10bd 60da 43be a742 da3e 3d1c c9bd
00000290: d7bf a4bc 650b 6d3d b732 e5bd 15dd 97bd
000002a0: 2818 c73c 6af1 333c 343d 4abe 53e6 b63d
000002b0: ba54 babd f781 5e3e 071e 843b 0368 33be
000002c0: c169 f83c 59be 953d 5ed6 bebc b039 27bd
000002d0: 3dbe 8a3d cfca 34bc 00b2 c93d 815d 4c3d
000002e0: c53c 96bc fde8 efbc 436f 12bd d6e3 cb3d
000002f0: 95c9 093b f06b 2d3c d2f7 ed3e 0d7a 2f3d
00000300: b16c 3abe 5af1 fc3d bfad 2cbd 8423 583d
00000310: 4f73 5cbe 1740 edbc 99fb 17be ea2a 65be
00000320: b839 a83e 16d3 163e f0e1 263c a692 d63d
00000330: 1fc4 53bc f4e4 8ebd 3798 c53d 6966 73bd
00000340: 417d 25bd 98dc 3f3e 934b d43c ad3d 473d
00000350: f86f 2ebd e7bd 5fbd 2148 0b3d 27ba 3cbe
00000360: 56aa 4f3d f743 52bc 90ea d2bd 88b7 e33d
00000370: 8002 463e 11ec 343c efba 6b3d b3dc b53c
00000380: f093 15bd ddbc 9f3c 6510 82bd a18c 97bd
00000390: b90a 4d3d e82a 4d3d a55c 0d3d 5f18 1f3e
000003a0: 0f7f 073d 5482 c4bc 6103 3cbe c469 f2bc
000003b0: a45c 923d 7a72 b3bc f2ab 29bd 511b fc3c
000003c0: 175b 773d a5f0 df3e 6c8f fabc 251d e73d
000003d0: 86fa 373e d9b4 cf3d 0407 6fbd 0cb4 c2bb
000003e0: 3279 16be 28ae 97bd ff44 503c 1c21 86bc
000003f0: fcb7 8ebd 30bd c23d 3852 52be f217 a23c
-0.096216395 -0.22027309 0.1353898 -0.14662096 -0.18597165 -0.13806999 0.12994614 0.090993196
0.2156116 -0.01982515 0.10724665 0.12688409 0.13852358 -0.13948403 -0.23520963 0.03515933
0.03131609 -0.2956107 0.17108974 -0.03402449 -0.11653776 -0.08197756 0.077385075 0.17546159
-0.09122544 0.0009314748 -0.03677302 0.0146972425 0.0011522284 -0.13204807 -0.031130696 -0.026425306
-0.35142466 0.00094240194 -0.026042217 0.232743 -0.07275982 0.0600484 0.09963539 -0.046397146
-0.026279815 -0.18355021 -0.2215349 0.118487574 -0.022615885 0.064576186 -0.033614885 -0.04251945
-0.063969426 -0.054911997 0.07443279 0.06731782 0.044322863 -0.08779982 -0.10897029 -0.09514227
0.05398756 0.06158022 0.2734865 -0.05854301 0.27110934 -0.14412485 0.025345465 -0.25149885
-0.02257734 0.042569734 0.04316258 -0.063761845 -0.039835006 0.09392987 -0.22652113 -0.12029856
-0.078345954 -0.05300459 -0.24083951 -0.1696197 -0.018484572 0.016894747 -0.07496377 -0.30322754
0.04311346 0.0025160885 0.06866496 0.10838692 -0.111024715 -0.01461517 0.09629683 0.03365393
-0.15754235 -0.08198499 0.050814904 -0.067027725 -0.13000947 -0.15161264 -0.5628055 0.41747603
0.20798199 -0.58995134 0.030411474 -0.31414595 0.0014288604 0.1428343 0.006310726 -0.08881475
0.08139651 0.054696504 0.13895556 0.04267914 0.04847585 0.024510019 -0.015263286 0.01921121
-0.0030999188 -0.056289863 0.06859032 0.15533233 -0.094135396 -0.09294977 -0.08454327 -0.010777359
-0.08531891 0.00042137541 -0.022468708 0.00022281238 0.042594235 0.008299618 -0.043459482 -0.12161948
-0.094694816 0.032137837 0.1939933 0.34784833 0.06645966 0.08283739 0.03028363 -0.10456312
0.012424337 0.015485031 -0.057535443 0.009147114 -0.059296053 0.01777538 -0.06333906 -0.00051840354
0.101406775 0.07500092 -0.0011960944 0.07647602 0.12734573 0.09472531 0.059118427 -0.1464479
0.23913907 0.6702363 0.11461267 6.2086845e-05 0.13718727 0.024879523 -0.051551808 -0.008443402
-0.035288285 -0.19126272 0.42628977 -0.09819839 -0.020111008 0.057872195 -0.11191314 -0.07415215
0.02430351 0.010982851 -0.1974991 0.089306496 -0.090981916 0.21729265 0.0040319 -0.17520146
0.030323865 0.073116966 -0.023295578 -0.0408265 0.06774566 -0.011034681 0.09848404 0.04989386
-0.018339524 -0.029285902 -0.03575064 0.09955566 0.0021024693 0.010584816 0.46478134 0.042841006
-0.18205525 0.12350722 -0.042157885 0.052768245 -0.21528362 -0.028961224 -0.1484207 -0.22379652
0.32856536 0.1472896 0.010185704 0.1047719 -0.012925177 -0.06977263 0.09648173 -0.059423838
-0.040402655 0.18736494 0.025914943 0.048642803 -0.04258725 -0.054624464 0.034004334 -0.18430386
0.050699554 -0.012833587 -0.102986455 0.1111899 0.19336891 0.011042611 0.05755132 0.022199964
-0.036518037 0.019499237 -0.06350783 -0.0739987 0.050059054 0.050089747 0.03451218 0.1553664
0.033080157 -0.023987927 -0.18360664 -0.029591449 0.07146576 -0.021905173 -0.041423745 0.030774744
0.060389604 0.43738285 -0.030585967 0.11284856 0.17966661 0.10141916 -0.0583563 -0.0059418734
-0.1469467 -0.074062645 0.012711762 -0.01637321 -0.06968686 0.09508741 -0.20539176 0.019786809

model/dense_3/MatMul;model/activation_3/Relu;model/dense_3/BiasAdd f4 [100]
00000000: 4600 c3c0 f1a9 a541 8b9f 11c1 eeae e0c0
00000010: df2b 0241 20d9 c2c0 fc8e 823f 05f0 5d41
00000020: ec2c 4741 d37b 3240 aadb c341 5624 1042
00000030: b3e7 a141 c0b3 1e40 b1c7 3441 4fa1 6e40
00000040: ef5c 11c1 6980 dd3f 8ab0 a940 7ff2 a140
00000050: b5b6 3a41 1ce7 aebe 5b91 a5c0 2a9a c041
00000060: b2ad 9b41 b0e7 cc41 4076 b741 2591 06c1
00000070: fd54 ebc0 e608 c4c1 a32f 7fc0 94d0 4b41
00000080: b616 2241 278e f3c0 caff 86c0 3f8a 2f42
00000090: e965 2cc1 1dc9 bc41 6ec0 83c1 104c 3b41
000000a0: f777 9f41 d930 8941 d7d1 bf41 2645 40c1
000000b0: 312f 3240 ebfb 9540 f728 3ec1 64d7 f4be
000000c0: 8a9a 8a41 712e 0c40 0c67 08c0 ca10 adc1
000000d0: 8cf9 0ec1 6309 96c1 4636 71c1 f629 6141
000000e0: f804 16c0 5fec 95c0 3dad 4c40 191f 6d41
000000f0: 4f2b 4dbf 3508 d240 42f4 4a3f 9145 7041
00000100: 7bca 18c1 6413 4941 7f15 5d40 5bc4 7d40
00000110: 900d ec40 a2a0 5341 9f77 d93f 0d1c 4440
00000120: 4d4c 7541 3c40 56c1 fabc 2441 de0b af3e
00000130: fe94 42c1 9ff0 6f40 af90 2cc1 87d5 99c1
00000140: 3feb 18c1 e51e fbbf 82c7 7ec0 4654 5d41
00000150: 578e 7dc1 d808 0cc0 d6be 3041 ceee a040
00000160: b674 edc0 e46c 4941 b9ac e8c0 dacb 5c41
00000170: 9f47 623e 8d0a 24c0 74fd 6241 3266 0ec2
00000180: 8afa f9be 4cdd c540 31fc 8f41 225a a4c0
-6.0937834 20.70798 -9.101451 -7.0213537 8.135711 -6.0890045 1.0199885 13.8710985
12.448467 2.7888076 24.482258 36.035484 20.238134 2.479721 11.298753 3.7285955
-9.085189 1.7304813 5.3028 5.0608516 11.669606 -0.34160697 -5.1739936 24.075275
19.459812 25.613129 22.93274 -8.410436 -7.3541245 -24.504345 -3.9872825 12.738422
10.130545 -7.6111026 -4.2187243 43.885006 -10.77488 23.5982 -16.46896 11.70607
19.933577 17.148851 23.97746 -12.016882 2.7841303 4.6870017 -11.885001 -0.4782058
17.325459 2.1903346 -2.1312895 -21.633198 -8.935925 -18.754583 -15.07575 14.072744
-2.3440533 -4.685104 3.1980736 14.820092 -0.8014421 6.563502 0.7927896 15.016984
-9.549434 12.567234 3.454437 3.9651096 7.3766556 13.226717 1.698963 3.064212
15.331128 -13.390682 10.296137 0.3418874 -12.161375 3.7490613 -10.785323 -19.229261
-9.557433 -1.9618803 -3.980927 13.833075 -15.847251 -2.1880398 11.046591 5.029151
-7.420497 12.589085 -7.2710843 13.799768 0.22097634 -2.563144 14.186878 -35.5998
-0.4882396 6.183264 17.99814 -5.1360025

model/batch_normalization_2/batchnorm/mul_1;model/batch_normalization_2/batchnorm/add_1;model/dense_3/MatMul;model/activation_3/Relu;model/dense_3/BiasAdd f4 [100, 100]
00000000: d3cd 2a3e 46fb dbba 08f3 9ebd 0fff 053d
00000010: c38d c1bc 3a6a dabd 8c99 73bc fd7f f23d
00000020: c366 66bd 4984 863e 2adc 2dbe d725 8cba
00000030: 90f2 3bbe e043 c7bd da5e 9b3e b972 78be
00000040: d783 a53b 2c86 a43e d081 e83c 46ed 903d
00000050: 46cb edbd 67f3 babc 5e77 d93e 9edd 02be
00000060: 05be 4ebd fbc9 41bd 5147 c23d 5aa5 a63d
00000070: 0531 92be 56fa f5bd ca49 df3b 5208 16bd
00000080: d745 6c3d fd81 723c 8e56 11be a5bd bcbc
00000090: 8c58 023e c3e3 69bd 199f ff3b 111a cb3c
000000a0: 3ae1 37bd 4315 4ebd c102 793c 69ca aa3d
000000b0: d91a abbc 6a85 6cbd 70bd 10bd 586a 75be
000000c0: 0abe d33d e393 333e 07eb 87bd 1b1c b93c
000000d0: beca fb3d 0e5b 6a3d 485a 1cbe 418a 0bbc
000000e0: 3a97 00bc 9c2c 473e b4b6 233e 0656 08be
000000f0: 6a51 43be a668 ba3e 8352 143e 14ae e4bd
00000100: c5d9 3e3d f8aa 9abd 674c 64c0 1901 43bd
00000110: 2e01 9f3c 4efd 1e3d 8b56 3bbd 88fc 26be
00000120: 4011 a3bd 1cf9 9cbb 96bd af3d b750 773d
00000130: d12f 88bb 9861 7c3c d144 14be f26a b13d
00000140: 9d8e 87bd 0ab7 0bbe bd4e 4dbe 7c69 aa3d
00000150: f286 cb3d 3794 563c 00ed 883d 7a96 1cbe
00000160: dba4 033e 4097 d03e 6289 39bd 8c3c 74be
00000170: 00ed 88bc 1f79 d03d f5b3 463e c26e 8fbd
00000180: 0827 edbb 20e2 afbe 70a6 d4bd 83d5 bebd
00000190: 830d 0dbe dc76 413d bd9a 66be a7c7 dcbd
000001a0: 0782 3ebe 9840 623d 0d75 483d 187d b63d
000001b0: 1219 f3bd 4bd3 6ebe 4199 e13d cd00 a03e
000001c0: ac69 eebb 88c3 2b3d e755 703e cfb2 bf3d
000001d0: 59d5 78bd d024 babc 3568 17be 4835 bfbd
000001e0: db07 fe3d 5ba4 7e3c e889 dabd e3d9 c6bd
000001f0: 52cc 883d 8b2e 17be 6fe1 483e 01dd 113e
00000200: c987 123d b20e 10bc b4c9 00be 2612 693e
00000210: 4cab 063e 58dd 253e 4f57 83bc 16bc fbbd
00000220: eb6f d53d 39a3 d33d 2aba 813d f5f7 453e
00000230: 4803 34be 0629 87bd 1afa fbbd c414 73be
00000240: e585 123e 742d 153e 33c5 ec3d 856f 24bf
00000250: 05b2 043e 230f 92be 8290 953c 39eb 213e
00000260: a57f 08be a329 7fbe d295 02be 7fcb 0e3c
00000270: 70c1 123e 9fcf 053d 06d5 a7be 035f 283e
00000280: 983b 433e fad9 343e 5d3d bebd 7b2d 4fbe
00000290: f27c 1fbe 007a c0bd 6dc5 7a3e c0b7 ebbd
000002a0: 1427 dd3c 4011 10be 45ee cebd af38 2a3e
000002b0: d459 db3c 479f 813d adde 8dbd 68ca 53bd
000002c0: decd 89be 7bc6 f6bd 4db2 483d b9c3 393e
000002d0: 02b5 53bc 20fc a7bd 3913 3c3e 56bd 59be
000002e0: 76dc f9bd f43b 4abb 3037 8f3e 5144 88be
000002f0: 5a9f 2cbe b350 e33c c763 8a3d 9fab 043e
00000300: 8f6b d83d 8f15 25bd 7e8a 23bc f1cf 063d
00000310: 78b9 323d 3e25 85bd e7dd b7bd f2e2 dbbc
00000320: 1144 fb3d 3a8b 563d 53d9 0fbe 0e80 d6bd
00000330: ff7f 4c3c 1cf9 263d 5ffe e33d 6ac6 163e
00000340: 0fbd 653d 7137 bb3d daa7 a7bc 1add 723e
00000350: f7cd 033e 047f 05be 72cb 0e3d e012 643e
00000360: f079 7a3e 5f95 ac3c b927 bdbd cc8e 303e
00000370: c2f8 93bd 3c21 ec3d eaab 863c 85b9 d2bd
00000380: b7e4 90bd 7ef9 5ebc 0666 533b 863e 9f3d
00000390: acc6 20be f084 57be 8d1d 12be 69e2 12be
000003a0: 04d4 18be a5cd fe3d ce29 b0bc 4445 423c
000003b0: d800 bb3d c8e3 be3d af61 403b 09c8 55bd
000003c0: 3890 1d3d f082 8cbd 583a 96bd 0ff6 aa3d
000003d0: a2d0 64bd fef3 86be c148 8ebd 7576 1f3e
000003e0: 6e78 1f3c 170b 4fbd 969e 82be 6a89 0abe
000003f0: b4bd 283e 8520 2c3c ed0b 59bd 5336 26bd
0.16680078 -0.0016783259 -0.07761198 0.032713946 -0.023627168 -0.10664792 -0.014868151 0.11840818
-0.056250345 0.262728 -0.16978517 -0.001069243 -0.18354249 -0.09729743 0.30345803 -0.24262513
0.005051117 0.32133615 0.028382212 0.07076506 -0.11611037 -0.022821141 0.42473882 -0.12779853
-0.050474185 -0.047311764 0.09486259 0.08137007 -0.28553024 -0.120106384 0.0068142163 -0.03662903
0.057683792 0.014801499 -0.14193174 -0.023039648 0.1272909 -0.057101976 0.0078009483 0.024792703
-0.044892527 -0.050313246 0.0151984105 0.08339388 -0.020886825 -0.05774442 -0.03533691 -0.23966348
0.103389814 0.17536883 -0.06636625 0.02259641 0.122945294 0.057215743 -0.15268815 -0.008516849
-0.007848555 0.19450611 0.15987664 -0.13314065 -0.19074026 0.36407965 0.144846 -0.11166015
0.0465944 -0.07552141 -3.5671632 -0.04760847 0.019409742 0.03881579 -0.04573683 -0.1630727
-0.079622746 -0.0047904383 0.085810825 0.06037971 -0.004156091 0.015404128 -0.14479376 0.08662976
-0.06618998 -0.13644043 -0.20049568 0.08320901 0.09937848 0.013096861 0.06685829 -0.15291777
0.12855856 0.40740395 -0.045297034 -0.23851222 -0.016714573 0.10179352 0.19404586 -0.07003547
-0.007237319 -0.34352207 -0.10383308 -0.09318068 -0.13774686 0.047232494 -0.22519965 -0.10780268
-0.18604289 0.055237383 0.048939753 0.089105785 -0.11870016 -0.2332279 0.11015559 0.3125061
-0.0072757807 0.04193452 0.23470269 0.09360277 -0.06075034 -0.022722632 -0.14785846 -0.093363345
0.12403842 0.015542115 -0.10670835 -0.09709527 0.06679596 -0.14763848 0.19617246 0.14244463
0.035774026 -0.008792566 -0.12576944 0.2276083 0.13151282 0.16197717 -0.016032843 -0.12291734
0.10421737 0.103338666 0.06334336 0.1933287 -0.17579377 -0.065996215 -0.123035625 -0.2373839
0.14308889 0.1456812 0.1156105 -0.64232665 0.12958534 -0.28527173 0.018257383 0.15812387
-0.13329943 -0.24918227 -0.12752464 0.008715509 0.14331603 0.032668706 -0.3277971 0.16442494
0.19065702 0.17661276 -0.09289048 -0.20232193 -0.15575007 -0.0939827 0.24489374 -0.11509657
0.026996173 -0.1406908 -0.1010404 0.16623186 0.026776232 0.06329208 -0.06927238 -0.0517067
-0.26914877 -0.12049576 0.048998166 0.18141069 -0.012921574 -0.08202386 0.18366708 -0.21263632
-0.12200253 -0.0030858489 0.27971792 -0.2661462 -0.16857663 0.027748441 0.06757312 0.12956093
0.1056739 -0.040303763 -0.00998175 0.032913152 0.043633908 -0.06501244 -0.089778714 -0.026841614
0.12268842 0.05237887 -0.14047746 -0.10473643 0.0124816885 0.040764913 0.11132502 0.14724126
0.056088503 0.09141434 -0.02046578 0.23717156 0.12871538 -0.13036734 0.03486199 0.22272825
0.24460578 0.02106732 -0.09236092 0.17241973 -0.07225181 0.115297765 0.016439397 -0.10289291
-0.07074874 -0.013609288 0.0032256856 0.07775597 -0.15700787 -0.21046805 -0.14269085 -0.14344181
-0.14924628 0.12441567 -0.021504309 0.0118573345 0.0913102 0.093207896 0.00293551 -0.05219272
0.038467616 -0.06860912 -0.07335347 0.08347713 -0.05586303 -0.26358026 -0.069474705 0.15572532
0.0097333025 -0.050547685 -0.25511616 -0.13528982 0.16478616 0.0105058 -0.05298989 -0.04057915

model/dense_4/MatMul;model/activation_4/Relu;model/dense_4/BiasAdd f4 [100]
00000000: 15b3 1fc1 1c9f 173f f827 18bf a8c6 64be
00000010: d6ec bc3c 4fe5 3fc0 ec8a 1d41 f49b 21bf
00000020: a31c c941 6cac 9140 ffbf 2fc1 7416 83c0
00000030: a0ae bb41 a696 6c41 4e77 fcc0 5fcb 1fc1
00000040: 4493 dac0 2ebc b3bf a76f 6d40 4c16 0041
00000050: 6fb1 2fc1 ff1c 24c1 e8c2 5241 4de6 1ac1
00000060: 9be2 fb41 3db4 3cc0 4684 2b41 c599 6941
00000070: d6d4 d340 a470 d3c0 9e64 f6bf d183 bcc0
00000080: 2a31 a441 ccd4 d940 f4a2 7941 f7d6 2ec1
00000090: bff5 0fc1 c474 f540 8d75 7841 1c07 6d41
000000a0: d1cf 0542 c09d a140 e4b7 0841 064e 38c0
000000b0: 3bcb ef41 2177 03c0 32b2 93c0 ddb4 14c1
000000c0: 48ba 85c1 726c 8b40 4758 b341 1fb2 6341
000000d0: 0016 05c1 faf6 f83f 3234 3641 bde3 3841
000000e0: 0193 1741 b5f3 c840 b0bc 7541 7ea9 5d41
000000f0: c226 85c1 0291 0e41 ace1 41c0 3bd1 1441
00000100: 895d a840 5a82 8b41 0b90 26c1 5d36 7641
00000110: 52c4 9441 6114 9e41 b73e 6b40 399c d441
00000120: 658e 1841 8800 bdc1 31f5 3c41 9f23 d341
00000130: d707 b041 9406 5f40 1e43 4441 de3b cfc1
00000140: 9cb4 7c41 7a0a a541 c146 9a41 130a 85c1
00000150: 9a3c 4140 d3d0 3e3f f4ab 1f41 6823 2d40
00000160: fc9e ce3e 9998 cbc0 dff4 17c1 75d8 5c41
00000170: 4ef3 2d41 1592 98be 0030 c441 a308 b441
00000180: 4563 b2c0 aebb 26c1 f15c 8341 88ca 4ac0
-9.981221 0.59227157 -0.5943599 -0.22341406 0.02306215 -2.998371 9.846416 -0.6312859
25.138983 4.5522976 -10.984374 -4.096491 23.460266 14.786779 -7.8895636 -9.987151
-6.8304768 -1.4041803 3.7099397 8.005444 -10.980819 -10.257079 13.172585 -9.681226
31.485647 -2.9485009 10.719793 14.600041 6.619731 -6.6075 -1.9249456 -5.891091
20.524006 6.807226 15.6022835 -10.927482 -8.997497 7.6705036 15.528699 14.814236
33.452946 5.0505066 8.544895 -2.8797622 29.974234 -2.054146 -4.6155024 -9.294156
-16.715958 4.356988 22.418104 14.230987 -8.317871 1.9450371 11.387743 11.5556
9.47339 6.2797494 15.358566 13.85388 -16.643925 8.910402 -3.029399 9.301082
5.261418 17.438648 -10.410167 15.388272 18.59586 19.75995 3.6757028 26.57628
9.534764 -23.62526 11.809861 26.392393 22.003828 3.4847765 12.266386 -25.904232
15.794094 20.630116 19.284548 -16.62992 3.0193238 0.7453739 9.979481 2.705286
0.4035567 -6.3623776 -9.497283 13.802846 10.871901 -0.29798952 24.523438 22.504217
-5.574618 -10.42082 16.420382 -3.1686115

model/batch_normalization_3/batchnorm/mul_1;model/batch_normalization_3/batchnorm/add_1;model/dense_4/MatMul;model/activation_4/Relu;model/dense_4/BiasAdd f4 [100, 100]
00000000: bec3 8fbd bcd2 b23c 2482 b83b 44d1 25be
00000010: decd 35be 4987 d73d 6b2f 8d3d 9c7c 8ebd
00000020: ff8e efbd 04ba b33c c9b0 17bd fd8a 373e
00000030: 0e98 533d 02a7 5dbb 00f7 2e3e 5921 4a3e
00000040: f081 70bd 7248 16bc decf cd3b 4e7b 1d3d
00000050: 9500 56bd 118f 843e 4d40 8e3e bfd7 1d3e
00000060: 70cb 70bd ac8f ae3c 302a 2f3e c50f 013d
00000070: ac64 07be 1be3 7ebc d82c c5bd 5c59 92be
00000080: 497a 7c3c a1c3 a0bd 41fb 163c 626c 0d3e
00000090: 3eab 3c3e f785 8abd 5032 74be df3d c0bc
000000a0: 7b37 51be 9037 9dbd e184 26bc d6bb 893d
000000b0: 9a12 b33d be9f 2e3e 32b0 85be 4134 fbbb
000000c0: 9839 b73e 5d4d 043c a3d4 003e 5071 4bbc
000000d0: 0fa7 ef3d be79 a43d 2a76 8c3d 0afc 853c
000000e0: 5798 bdbd 4117 d03d f8dc 2f3d 02e8 513e
000000f0: 037c 61be 822d a0bc 7948 fdba 974f 183e
00000100: 9c4b d1bd ea3e a63c 1557 9a3d 3e77 503d
00000110: 01a4 a13d e61a a63d 3578 b5bd 255a a83d
00000120: 6235 1b3e c518 643c f706 9abd a421 cbbe
00000130: eddf 27be 11ff 4dbe 033b c2bc 9545 333c
00000140: db07 843d 2805 723d 59ed 053d fbb3 a3bd
00000150: be6e 903d 630a 9ebd b2ed 96bd 1d73 303e
00000160: 1f9f f3bc 52e3 d73c 100e d9bd bdf6 3f3c
00000170: 618a e93d 075d b8bd 3b66 9ebe cd5a c43d
00000180: edfb db3d e7f2 053e bc2e 143c 3d10 183d
00000190: 3fc8 2e3d 29fd fe3d fb34 a93d 66ff 513d
000001a0: edde a7bd 6b46 a33c 0264 2c3d af7b 373e
000001b0: b51e 39be c11f f13d 356b 1bbc f2e8 393e
000001c0: dc0d 09be 1ac6 413d d8f5 983d 5ca4 4f3d
000001d0: fdfc 043e 1f98 ca3d 9dcc 073e b239 b9be
000001e0: b4f0 b7bc a0b6 0bbe 612f 1cbd fbe6 5c3e
000001f0: 27a4 86bc dbd2 ba3c ed5a cbbd bce3 343d
00000200: 515a ab3b 8281 8d3e aa19 383d 8439 8dbd
00000210: 644b 273c c96d e1bd 356d f03d cd6b 82bd
00000220: cc8f f73d 3193 c3bd 2bf2 2a3e af15 28bd
00000230: 86be 8c3d 0e3f 9fbe ba3e 003d ee69 ccbd
00000240: 5db3 173d 47df 983c 1431 723e 09dd b7bd
00000250: c6c4 ffbd 4e84 213c 3cc8 973c 0f79 1dbd
00000260: 4f37 14be 2600 ca3d 1890 d23c d44b 543c
00000270: 7e1f 033d c685 12be 9b49 cebc 3d10 5fbe
00000280: 1e2e d7bc badf b7bc b2b5 debd 958e 633c
00000290: 7ab2 1b3e 3372 e6bd b09a 9fb9 c1a4 5fbd
000002a0: 6257 243e b83d f63d 9182 57bb 545b a9be
000002b0: 8364 0b3f 6187 8c3e 2456 10bd 403d fbbd
000002c0: c8c0 05be 5e4c 593e 1d06 d43d 9ac7 d1bd
000002d0: b340 8eb9 72b0 f73d bf43 47be eb7d 1abe
000002e0: cac9 c6bd d8d3 33be b0bd 003e 0ca0 73be
000002f0: 4750 f1bd 8293 59bc a25b 9abb 2e11 13be
00000300: 4f2a d8bb ee4d 883d 77bd ad3d f8bd 273e
00000310: 2a0c 023f 0fb3 513e 349a 6839 3e8b 6a3e
00000320: 0385 b4bd 780d 393e af62 b33d b1bd 583e
00000330: 9045 e53d c02a 92bc 2183 043c 061f 2a3e
00000340: 0920 5c3d 076e 90bd 4be4 10be 286f 9e3e
00000350: d3b2 503e 4e53 81bc 7a79 aa3d d42f a03c
00000360: b806 47bd 5a46 083e a127 30be 19bb 1d3d
00000370: ca56 ca3c 6f8f 153d 1622 303c 664e 02bd
00000380: 8128 e23c 0ea6 85be 59dd ba3d de45 f4bb
00000390: bb76 67bd fd33 3c3e c7c6 1b3c ed03 74bd
000003a0: 7a61 0bbe 2e3b 903d e97c bc3d 3718 9bbe
000003b0: 73e2 b33c b697 79bd feb0 a0bd e648 e1bd
000003c0: c117 09bd a106 58be 4005 4dbe f664 cc3c
000003d0: 3101 80bd a7b3 bd3c 88f9 0a3e 59c5 833c
000003e0: d32c 5d3e ec3d f0bd 271d 263e 6f1c 10bf
000003f0: 5c7a 54bd c679 c03d 737f f23d 5a32 af3d
-0.07019757 0.021829002 0.0056307483 -0.1619311 -0.17754313 0.105238505 0.0689381 -0.06957361
-0.11697196 0.021939285 -0.03703383 0.17924114 0.051658683 -0.0033821468 0.1708641 0.19739284
-0.058717668 -0.009172546 0.006280883 0.03844767 -0.05224665 0.258904 0.27783433 0.15414332
-0.058787763 0.021308742 0.17105937 0.03150918 -0.13221997 -0.015557076 -0.09627694 -0.285838
0.015410014 -0.07849813 0.009215177 0.13810876 0.18424699 -0.06763833 -0.23847318 -0.023467002
-0.2043132 -0.07676613 -0.010163517 0.0672528 0.08743782 0.17053124 -0.2611099 -0.0076661413
0.35786128 0.0080750855 0.12581114 -0.0124171525 0.11701786 0.08031033 0.068584755 0.016355533
-0.09257572 0.10160685 0.04293534 0.2049866 -0.22019963 -0.01955295 -0.0019323967 0.14874111
-0.102194995 0.020293672 0.07536141 0.05089497 0.078926094 0.08110599 -0.08860818 0.08220319
0.15157083 0.013921921 -0.0752086 -0.39674103 -0.16394015 -0.20116831 -0.02370978 0.010941883
0.06446811 0.05908695 0.032697055 -0.07993313 0.070523724 -0.07716825 -0.073695555 0.17231412
-0.02973896 0.026353512 -0.10598385 0.011716542 0.11403347 -0.090021186 -0.3093737 0.095876314
0.107414104 0.13080941 0.0090443455 0.03712486 0.04267144 0.1245063 0.08262058 0.051268958
-0.081968166 0.019931039 0.042087562 0.17918275 -0.1807812 0.11773635 -0.009486009 0.18155268
-0.13384193 0.047308065 0.07468766 0.050693855 0.12987132 0.09892296 0.13261648 -0.3617683
-0.022453643 -0.13643885 -0.03813112 0.21572487 -0.016435696 0.022805622 -0.09929452 0.044162497
0.0052292724 0.2763787 0.04494635 -0.06895736 0.010210846 -0.11007268 0.117395796 -0.063682176
0.12087974 -0.09549559 0.16693942 -0.041036304 0.06872277 -0.31102794 0.03130982 -0.09981142
0.03703629 0.018661154 0.23651534 -0.08977706 -0.124887034 0.009858204 0.018528096 -0.03844553
-0.14474224 0.098633096 0.025703475 0.012957532 0.032012455 -0.14308843 -0.025181582 -0.21783538
-0.026267108 -0.022445548 -0.108744994 0.013888975 0.15204802 -0.112522505 -0.00030442094 -0.05460048
0.16048959 0.12023491 -0.003288422 -0.3307749 0.54450244 0.27447036 -0.0352384 -0.12267542
-0.13061821 0.21220538 0.103527285 -0.10243149 -0.00027132555 0.12094201 -0.19459437 -0.15087096
-0.09706457 -0.1756128 0.1257236 -0.23791522 -0.1178289 -0.0132797975 -0.0047106305 -0.14362022
-0.0065968405 0.06655489 0.08483403 0.16381061 0.5079981 0.20478462 0.0002218269 0.22904679
-0.088144325 0.18071544 0.08759057 0.21166112 0.111949086 -0.01784265 0.008087904 0.16613397
0.05374149 -0.07052236 -0.14149587 0.3094418 0.20380716 -0.015786793 0.08323951 0.019554056
-0.048590392 0.13308087 -0.17202617 0.03850851 0.024699587 0.036513742 0.010750314 -0.031813048
0.027607204 -0.26103252 0.0912425 -0.007454618 -0.056509715 0.18379207 0.009507841 -0.059574056
-0.13611403 0.07042538 0.09203512 -0.30291912 0.021958565 -0.0609357 -0.078462586 -0.110002324
-0.03346992 -0.21096279 -0.20021534 0.024950486 -0.06250227 0.023156954 0.13571751 0.016085314
0.2159913 -0.11730561 0.16222058 -0.56293386 -0.051874503 0.093982264 0.11840715 0.08554526

model/dense_5/MatMul;model/activation_5/Relu;model/dense_5/BiasAdd f4 [100]
00000000: 28c6 8fc0 7dca 9741 a9d2 16c1 2837 2bbf
00000010: b6d3 2541 e002 26c1 b405 0542 a5ff 2341
00000020: fa25 27c0 a739 a740 a754 ae41 c343 f1bf
00000030: f53b efbe c546 8b41 6ee1 8ac1 69a9 6341
00000040: 7ef1 8fc0 a0b5 3e40 cda1 b340 a81d 3ac0
00000050: 979e 0d42 194d 84c1 59b2 8f41 a2e0 3841
00000060: 616d ae41 7513 2a40 cf99 bcc0 64cd ad40
00000070: f43e 1141 37d2 c341 061c 39c1 2546 c2bf
00000080: 2d51 56c1 7246 edbe e6d9 dd40 6dbe 3741
00000090: 2215 ba40 a9f0 5741 5546 51c0 06f5 ccc1
000000a0: a696 a941 b079 7ac1 baa1 4c40 aa8e 7141
000000b0: 07a2 4341 5093 81c1 4c5e 0bc0 618d 9a40
000000c0: 366e 93c1 5fe8 9241 9f5d 05c0 ad93 2a41
000000d0: 7c38 7ec1 8fa6 4240 8a3b e840 ffee 04c1
000000e0: efef dfc0 a840 d440 8552 d43d 96c5 8441
000000f0: 006e 1441 5d51 5540 c36f 6541 b6ec 7141
00000100: 9cd3 12c0 2001 7741 7dce 2841 f7fe 6fc0
00000110: 785c c6bf 54ad cd3f f131 b7c1 8942 1b41
00000120: 1292 e041 4854 d540 82ec 8540 6658 773e
00000130: ff4d 423f 70b8 5ac1 3e37 03bf ca8f fac1
00000140: a086 1842 5911 723f 331a dc41 55a4 d341
00000150: e82b f340 3272 9940 4871 6640 b4d8 5941
00000160: 5532 32c1 3afb 543f 8425 18c1 7183 9c41
00000170: 3d3e 4ac0 4a49 aebf b1f6 5840 3ba4 9a3f
00000180: daa9 3841 cb64 9e41 e493 1441 582b c440
-4.492939 18.973871 -9.426431 -0.66881037 10.364187 -10.375702 33.25557 10.249913
-2.611693 5.2257876 21.791334 -1.8848804 -0.4672543 17.409555 -17.360073 14.22886
-4.498229 2.9798355 5.613501 -2.90806 35.404873 -16.537645 17.962084 11.554842
21.803408 2.6574376 -5.8937755 5.431322 9.077869 24.477644 -11.569342 -1.5177656
-13.394818 -0.46342808 6.932849 11.483991 5.8150797 13.496255 -3.2699177 -25.61964
21.198559 -15.654709 3.197371 15.09733 12.227057 -16.19693 -2.1776304 4.829758
-18.428814 18.363462 -2.0838392 10.661054 -15.88879 3.041416 7.257268 -8.308349
-6.998039 6.6328926 0.10367302 16.596478 9.276855 3.333091 14.339786 15.120291
-2.2941656 15.437775 10.550412 -3.7499368 -1.5496969 1.606852 -22.899385 9.703744
28.071323 6.6665382 4.1851206 0.24154815 0.7590026 -13.670029 -0.5125617 -31.32021
38.13147 0.9455772 27.512793 26.45524 7.5991096 4.79519 3.6006641 13.615406
-11.137288 0.8319584 -9.509159 19.56418 -3.1600487 -1.3616116 3.3900568 1.2081369
11.541468 19.799215 9.286106 6.130291

model/batch_normalization_4/batchnorm/mul_1;model/batch_normalization_4/batchnorm/add_1;model/dense_5/MatMul;model/activation_5/Relu;model/dense_5/BiasAdd f4 [100, 100]
00000000: 0835 d33c 6a9e 90bd e222 7fbc dcbd c93d
00000010: 1c43 f63d a370 103f 1e44 0d3e 00f9 cf3e
00000020: 07d0 ec3d 71de 00be 1d2f 26bf 256b 1cbf
00000030: 14fe 00bd 4c92 61bd 7525 69bd abec 693e
00000040: 20e5 d1bd 53b7 bfbd 9960 7e3e 56f6 edbd
00000050: eb8d d03d b59c 183e c4b6 6b3c bdbf ebbd
00000060: 6f6f 093d e2ac e8bb 77f2 c5bd b5b1 233d
00000070: dc24 6e3d 9cb8 f13d 63d8 b4bd f86a 65bd
00000080: f8f1 b9bd fc0f 3fbd 9f87 ddbd c19d 36be
00000090: 573c 1dbd 4340 df3d ab2c ad3d f92e e9bc
000000a0: 18d4 f83d f139 1c3e 8741 23bd 0b1a b9bd
000000b0: 24a5 723d e98d 8c3e 53b5 2abe 4305 10bd
000000c0: 73c7 bcbc afb4 96bf 4099 c83d bda0 aabd
000000d0: df15 4c3e d34c 3b3d 2785 6c3d 611c 4b3e
000000e0: ed12 a13c d422 75be 23ad ecbd 0988 013d
000000f0: 5c2e bf3d fa3b 613c 8406 b53d d9e7 7e3e
00000100: 6417 273e f74e f93c f26c 4b3d adf7 973d
00000110: dbd3 403c 8dfa 5cbe af18 283d 06be e8bd
00000120: 5890 f4bd f61e 1ebe 8a96 81bc 681f 573d
00000130: c52f 193c 402e f13d c658 793e 5daf ac3d
00000140: 6063 1bbe e60c d2bc a6f4 8abd c9a2 e03e
00000150: d6fa 39be 3f97 8abd ed3c 023e eb98 133e
00000160: 3fcc 97be 58b8 c3be a027 c6be e992 b13d
00000170: 833a 8f3d 8daa 7dbd 7534 f93d 7425 24bc
00000180: 0f63 75be 96d0 aebd 29c7 2a3e f923 1cbd
00000190: 60e0 5f3c 1136 cabd 8b0c 3ebe 2221 a3be
000001a0: b192 563d 07c0 ad3e b5c8 113d f1bb 83bd
000001b0: 5442 843d 0e47 333e 5847 473e b8bf 36be
000001c0: fa5b 233d f9d1 473e e91f c33e dac4 2bbe
000001d0: 304d 46be bccd f0be 6afe 2d3d 9501 3b3d
000001e0: e143 57be df95 1dbe b2b4 d63c ac16 ef3c
000001f0: 3c4b 12bd ffcd 64bd 9cd1 203d 9a91 72bd
00000200: 3509 dabc 14fc 2dbe b92d 8ebd 3549 c4be
00000210: 1e63 8d3d b922 993d 9929 273c e55a 06be
00000220: 411e 92bd 7d61 f33d 62d0 073e a5d2 633d
00000230: f283 82bc f470 19be ca15 cdbc de46 c23d
00000240: 5eb1 0c3d 76b1 f1be 1a36 b43c b5d4 a5be
00000250: 5099 42bd 1568 673e 36fd 613e b30c 3a3c
00000260: 74d5 903c 1b88 bf3b f948 22bc d2e6 a7bd
00000270: 6109 c3ba 5e2c 0dbd fd10 07be f5d9 87ba
00000280: 868e aebd 0205 513d eb6d 283d 1821 28be
00000290: fdea 81bd 5c42 0ebe 2d43 863b e6bb aabd
000002a0: 3cf4 4abe 2bbc 49bd c5b3 11bf 95a5 2dbd
000002b0: d62e 80bd 2db1 09bc 5d59 58be 8d4f 51bd
000002c0: d02e 2ebc 06d3 31be 4de6 2abe 127e e23d
000002d0: bda6 c13d afce 2bbd cdd0 ecbc 2e83 a0bd
000002e0: 4fda efbe 6188 ccbc 538b 5b3d 4722 7dbd
000002f0: 3707 883e cbfb 763e 330c cd3c ac31 c6be
00000300: 2999 d7bb 1b88 a4bc 9be3 4e3c aac5 c0bd
00000310: 6e99 8bbd b989 1fbd bb29 18be b015 7abe
00000320: c1f1 2d3e 8ce2 243e 26c1 28bd ded9 32be
00000330: 938a 0cbc d184 88be 7e12 65b8 797c 473e
00000340: 5fe9 38bd 91a1 26be ac7c b1bd 7d91 96be
00000350: 8728 393d c63d cdbd 5e59 243d 77f2 a73c
00000360: 973e 583d 7b3c 2bbe 7fb8 6fbe 67c5 523e
00000370: 9890 f2bc 6bdd f23d 3ba7 a83d 2ec6 b5bc
00000380: b86c 85bd 0fab f3bc ec53 87bd dd2c ac3c
00000390: 7891 8a3e 2bb5 3fbd 7216 21bd b7c6 0a3d
000003a0: 550b 56bd e22a 64bd 3e98 a23a 297c ecbb
000003b0: e146 52bc ec53 95bd d287 833d 8eb0 243e
000003c0: a6a1 ba3d cd31 53bd ec07 783c cc40 6fbe
000003d0: 293d a53c 19b1 103d ec97 d53d 317e 02bd
000003e0: f03f 5b3c 6782 8ebf b480 7b3f 9a3f cabd
000003f0: 4d81 f53c 1945 b83a a0bc 2dbe 5229 dd3c
0.025782123 -0.07061465 -0.015572282 0.09850666 0.12024519 0.5642187 0.13795516 0.4061966
0.115631156 -0.12584855 -0.6491564 -0.6110099 -0.031492308 -0.05507116 -0.056920487 0.22844188
-0.1024878 -0.09361138 0.24841537 -0.116192505 0.10183319 0.14903529 0.014386836 -0.115111805
0.033553537 -0.0071006874 -0.09665387 0.039964397 0.05814062 0.118027896 -0.08830335 -0.056010216
-0.09079355 -0.046646103 -0.10816883 -0.17833616 -0.038387623 0.10900929 0.08455785 -0.028464781
0.12149829 0.15256478 -0.039857414 -0.090381704 0.05923952 0.2745202 -0.16670732 -0.035161268
-0.023044324 -1.177389 0.09794855 -0.0833144 0.19930218 0.045727562 0.05774417 0.19835044
0.019662345 -0.23939067 -0.11556461 0.031623874 0.09335014 0.01374721 0.088391334 0.2489313
0.16317517 0.030433161 0.049664445 0.07420287 0.01176926 -0.21579953 0.041039165 -0.11364369
-0.11941594 -0.15441498 -0.015818853 0.052520186 0.009349768 0.117763996 0.2435027 0.084318854
-0.15174627 -0.025640916 -0.06784944 0.43874195 -0.18162093 -0.06767129 0.12718554 0.14413802
-0.29648015 -0.3822658 -0.38702106 0.08670599 0.06993582 -0.061930228 0.121682085 -0.010018695
-0.23963569 -0.08535878 0.16677536 -0.038120244 0.013664335 -0.098735936 -0.18559472 -0.31861216
0.05238599 0.33935568 0.0355918 -0.06432331 0.064579636 0.17507574 0.19460809 -0.17846572
0.039882638 0.19513692 0.38110283 -0.16774312 -0.19365382 -0.47031963 0.042478956 0.045655806
-0.21021987 -0.15389203 0.02620921 0.029185615 -0.03571628 -0.055860516 0.0392624 -0.059220888
-0.026615718 -0.16990691 -0.06942315 -0.38337103 0.06903671 0.07477326 0.010202789 -0.13120611
-0.07134677 0.11883829 0.13263085 0.05562081 -0.015932057 -0.14984494 -0.025034804 0.09486173
0.034348838 -0.47205704 0.021998454 -0.32388845 -0.04750949 0.22598298 0.22069249 0.011355567
0.017679907 0.0058450825 -0.009905093 -0.08198322 -0.0014880114 -0.03446614 -0.13190074 -0.0010364639
-0.08523278 0.051030166 0.04112045 -0.16418874 -0.063436486 -0.13892502 0.0040973634 -0.0833662
-0.1981973 -0.049251717 -0.5691493 -0.04239424 -0.06258933 -0.008404058 -0.2112784 -0.051101256
-0.010631278 -0.17365655 -0.16689415 0.11059202 0.09455631 -0.041945156 -0.028908158 -0.078375205
-0.46846244 -0.024967374 0.053599667 -0.061800268 0.26568004 0.24119489 0.025030231 -0.38709772
-0.0065795374 -0.020084431 0.012627508 -0.094127014 -0.06816374 -0.038949702 -0.14859669 -0.24422336
0.16986753 0.16102046 -0.041199826 -0.17465922 -0.008577961 -0.2666383 -5.4615077e-05 0.19481076
-0.045144435 -0.1627257 -0.086663574 -0.29407874 0.045204666 -0.10021548 0.04012429 0.020501358
0.052794065 -0.1672229 -0.23410223 0.20583116 -0.029609963 0.118586384 0.08235022 -0.022189226
-0.06514877 -0.029744653 -0.06607804 0.021017486 0.2706411 -0.046803635 -0.039328046 0.033880915
-0.0522569 -0.05570496 0.0012404991 -0.0072169495 -0.012834282 -0.072913975 0.0642239 0.16082975
0.09112863 -0.051561166 0.0151386075 -0.23364562 0.020170765 0.035325143 0.104293674 -0.031858627
0.013381943 -1.1133546 0.9824326 -0.09875412 0.029968882 0.0014058679 -0.16966486 0.026997242

model/dense_6/MatMul;model/activation_6/Relu;model/dense_6/BiasAdd f4 [100]
00000000: 52bf 9ec0 fc59 7840 50e6 6440 7915 9e3f
00000010: 5ec0 bb41 6f54 85bf ba4e df40 0372 6741
00000020: 01ea 67c0 c79a 5841 5061 b541 d89f adbf
00000030: a0dd 233f ed37 9741 bbda 1941 5c85 a5c0
00000040: dfd3 a141 242a e33f 0666 bf41 ec66 4641
00000050: 6ce4 0042 d482 2a41 633a 60c1 c5b9 74c1
00000060: 94ec a940 0c90 fc40 0fb0 ab3f 03b6 4741
00000070: a8d1 7241 4c37 dbbf 8dfd a4c0 e79f 8d40
00000080: 06be 9440 3b9d e5bf 62cd 4e40 e81e d841
00000090: e0d8 c9c1 ff19 3a41 eb49 21c1 a495 f740
000000a0: f1ba 2f41 bbee b240 984f 1d41 d8e1 45c1
000000b0: 124f 8841 1b6c 0041 6f07 3dc1 781a e540
000000c0: b286 0141 8050 5b41 057e 8dc0 db46 53c1
000000d0: f13b e340 49b0 2a41 14fe af3f 9e53 1e41
000000e0: f810 8e41 ec34 e6c0 3020 0241 87a9 bd41
000000f0: 03e4 9c41 6baf 9740 0d63 96bf c6dc 59c0
00000100: 3505 b3c0 43e0 b140 d8d6 9141 d257 2940
00000110: 9ecf 93ba d2bb cf40 1254 cb41 d291 d240
00000120: 316f bcbf 07a1 5f41 546b 1241 2cdc 0440
00000130: 4fbd 6bc1 2891 5541 10bf 68c1 707b 7040
00000140: d202 88c0 ddd7 0cbf 80bd d7c0 dfe2 9341
00000150: 293c 4f41 79b7 fb40 00f9 4241 3b18 f53f
00000160: f9e2 efc0 4bdd 98c0 a66f 5940 092d 4cc1
00000170: 52ea 2d41 bc06 3d40 1dcf 2dc0 3139 e840
00000180: 8a8d b541 afdb 08bf ba33 2fc1 7041 0fc0
-4.9608545 3.8804922 3.5765572 1.2350303 23.46893 -1.0416392 6.97836 14.465335
-3.6236575 13.537787 22.672516 -1.3564405 0.6401005 18.902308 9.615901 -5.172529
20.228453 1.7747235 23.924816 12.400127 32.22307 10.65694 -14.014255 -15.295354
5.310129 7.892584 1.3413104 12.481936 15.176186 -1.712625 -5.155951 4.4257693
4.648196 -1.7938608 3.2312856 27.01509 -25.230896 11.631347 -10.080546 7.7370167
10.98314 5.591642 9.831932 -12.367638 17.038609 8.026393 -11.814315 7.159481
8.095385 13.707153 -4.4216332 -13.204799 7.101067 10.668038 1.3749413 9.895414
17.758286 -7.19396 8.132858 23.707777 19.611334 4.7401633 -1.1748978 -3.4041
-5.5943856 5.5586257 18.229904 2.6459851 -0.0011277085 6.4916773 25.41605 6.5803003
-1.4721433 13.976813 9.151203 2.0759382 -14.733718 13.347939 -14.546646 3.757534
-4.2503443 -0.5501688 -6.7418823 18.485777 12.952188 7.8661466 12.185791 1.914802
-7.4964566 -4.7770133 3.3974395 -12.760995 10.869707 2.953536 -2.7157662 7.2569814
22.69411 -0.5346021 -10.950129 -2.238369
