corintho_ai/python/tflite_models/model_77.tflite (tflite, 521576 bytes, 27 tensors)

model/dense_1/MatMul;model/activation_1/Relu;model/dense_1/BiasAdd f4 [100]
000000 ec 72 a3 c1 04 d5 16 43 f8 38 8a c2 a3 b7 c7 40
       -20.431114 150.83209 -69.11127 6.2411666
000010 01 d5 87 42 d9 79 3c 42 fc b6 aa 42 85 a4 fc c1
       67.91602 47.11899 85.35739 -31.580332
000020 d1 fc 3f c2 87 6b 62 3e 74 d2 a0 c0 ac 96 65 c2
       -47.99689 0.22111331 -5.02569 -57.39714
000030 e9 bd a7 41 08 5c 44 c2 62 2f 0f c1 b4 b6 93 c2
       20.96773 -49.089874 -8.949068 -73.85684
000040 83 b5 1b 42 ec bc 7d 41 03 b8 3d c1 36 2e 8b 40
       38.927258 15.8586235 -11.857425 4.349391
000050 82 2f 61 41 d6 e8 93 3d a5 ed 38 41 6d 2a 82 c2
       14.074099 0.07222144 11.558019 -65.08286
000060 1c fd a7 42 8c 25 29 41 f2 7a cf 3f cf e8 f8 c0
       83.994354 10.571667 1.6209395 -7.778419
000070 bb 71 92 c2 7b 2b 3b 42 62 77 2c c2 d7 7c 11 41
       -73.22213 46.79246 -43.116585 9.0929785
000080 8b 99 1b 42 49 47 1b c2 48 37 a0 42 fb 48 80 42
       38.899944 -38.819614 80.10797 64.14254
000090 ee 31 57 41 c4 8c 05 c2 21 56 bc 41 e4 96 0b 42
       13.44969 -33.387466 23.542055 34.897354
0000a0 6c 7b a0 42 a8 cc d0 c1 01 79 5a c2 2d b6 2a bf
       80.24106 -26.09993 -54.618168 -0.6668423
0000b0 ba a5 65 41 c3 84 fd c1 26 ad c2 3e e2 54 12 c2
       14.352961 -31.689825 0.38022727 -36.582893
0000c0 c0 34 6b c1 46 71 c9 c0 9e f8 e1 41 50 8d 65 c2
       -14.700378 -6.2950773 28.246395 -57.388
0000d0 02 e5 85 41 02 25 16 43 c0 ee a5 c0 9b 6a f1 41
       16.73682 150.14456 -5.1853943 30.177053
0000e0 5f 8a 50 41 5b 37 b3 c1 2f 56 db 41 f9 2c 1a c1
       13.033782 -22.402029 27.417082 -9.63598
0000f0 82 93 cb 41 73 7a 9b 42 34 78 81 c0 d4 78 1c 42
       25.447025 77.73916 -4.045923 39.117996
000100 c9 57 5c 42 de 44 bc 42 47 fd 05 43 3e 0b 28 41
       55.085728 94.13451 133.98936 10.502745
000110 1a a7 de c1 9d 54 cf c2 2b d1 00 c2 e1 7e 0a c2
       -27.831593 -103.66526 -32.204266 -34.623905
000120 a4 6c 49 c1 ae e2 f2 42 95 56 12 c1 ca cf a3 42
       -12.589024 121.44273 -9.146138 81.90584
000130 c8 fd b1 c0 fe 4b 09 41 ba 40 05 c3 c7 a3 bc c0
       -5.562229 8.581053 -133.25284 -5.8949924
000140 f4 f8 c0 41 92 45 32 42 f9 2d 9d 41 6e ee d3 c1
       24.12156 44.56794 19.647448 -26.49142
000150 3f 76 f1 40 81 76 ab 42 94 5e 35 42 a0 53 ba c1
       7.5456843 85.73145 45.34236 -23.290833
000160 a1 e9 b4 42 23 9f 1e 42 35 e0 d4 42 41 59 7e 41
       90.45631 39.655407 106.437904 15.8967905
000170 54 0b 89 42 50 0e 00 41 3c 09 a4 41 9a 1d cf c0
       68.522125 8.003494 20.504509 -6.4723635
000180 9a f4 21 43 97 13 0e 42 d9 e2 89 41 7b 55 b5 c2
       161.95547 35.51913 17.235765 -90.666954

model/batch_normalization/batchnorm/mul_1;model/batch_normalization/batchnorm/add_1;model/dense_1/MatMul;model/activation_1/Relu;model/dense_1/BiasAdd f4 [100, 100]
000000 53 92 22 3e e8 4a 37 bf 81 2f c5 3e e5 5d 18 3e
       0.15876131 -0.7159867 0.38512805 0.14879568
000010 7e 68 c0 3f 9d 55 b2 3e 18 75 82 bf 48 b2 89 bf
       1.5031888 0.34830943 -1.0191984 -1.0757532
000020 13 c1 e2 3d ff a4 1c 3f 6b ca f0 3e 17 a7 04 3e
       0.11071982 0.61189264 0.47029433 0.12954365
000030 7a 93 69 3e 45 bf 6a 3b 01 c8 28 bf 4e da 30 3c
       0.22810164 0.0035819572 -0.6593018 0.010794235
000040 0f 4d 0a 3e 38 b8 ce bf 5d f7 99 3e c6 25 08 bf
       0.13505958 -1.6149969 0.30071536 -0.5318264
000050 b0 35 bb bd 48 fd 77 40 1b a0 9d bd 64 85 9a 3a
       -0.091410995 3.874834 -0.07696553 0.0011789021
000060 29 23 d7 bd e2 40 4f 3e 55 22 cf bd e7 11 8a bf
       -0.10504753 0.20239595 -0.1011397 -1.0786713
000070 29 b1 32 3e 5a fa 9b be b7 25 e7 bc ba 9c 28 3f
       0.17450394 -0.3046444 -0.028216226 0.65864146
000080 49 50 97 3d ba 83 fd be 7d 25 79 3d 98 89 0e be
       0.0738836 -0.49514562 0.060826767 -0.13919675
000090 e2 be 2a be 13 73 4d be 17 fa 39 bd 6e fa 15 3e
       -0.16674379 -0.20063429 -0.04540452 0.14646313
0000a0 e0 24 d9 3e 5c 8a 98 3f 84 ae d6 3e c2 62 61 3e
       0.42410946 1.1917224 0.4193002 0.2201033
0000b0 6e fe 77 be 3c 0d 36 be 67 4a a3 3e 6c e5 c4 bd
       -0.24218151 -0.17778486 0.31892702 -0.09614071
0000c0 17 4a 3d 3f 9f 54 2d 3e c1 dd d7 3c f3 32 aa bf
       0.7394118 0.16926812 0.026350858 -1.3296798
0000d0 c9 ab 3a 3f fb 4c a4 40 77 36 83 3e d8 5c 0f bd
       0.72918373 5.134397 0.2562749 -0.035000652
0000e0 26 00 27 be 3f 99 cd 3e 44 b5 80 3f 9d cc 0a 3f
       -0.1630865 0.4015598 1.0055318 0.54218465
0000f0 d5 19 d3 3e ab 42 07 be 13 5a 08 3e 15 dd 68 bf
       0.41230646 -0.13209026 0.1331561 -0.90962344
000100 68 6f ae 3e bd 85 e9 be 7d 9c 49 be 84 a7 b9 3e
       0.3406937 -0.45609847 -0.19688602 0.36260617
000110 4c bb 61 bd f0 a6 5c 3f 9d 27 f7 3e 08 01 46 be
       -0.05511026 0.86192226 0.4827241 -0.19336331
000120 84 6a d1 bd 80 9f b0 bd 23 41 3a 3f bc 44 44 bf
       -0.10225394 -0.08624172 0.7275564 -0.7666738
000130 df cf f7 be 28 7e 0d bc 62 90 0b 3e d1 49 b6 3e
       -0.4840078 -0.008636035 0.13629296 0.35603192
000140 69 9d 5d bf 6c 86 6b 3e d5 45 3c be 59 f0 ea bd
       -0.86568314 0.23000497 -0.18386014 -0.11471624
000150 48 23 90 be c6 8b 6b be 8b 9f 09 be ff 06 6a bf
       -0.28151917 -0.23002538 -0.13439767 -0.91416925
000160 6f a6 1a be 3a 83 48 be b8 e0 93 bf c0 84 8b 3f
       -0.15102552 -0.19581309 -1.1552954 1.0899887
000170 ba 9c f9 3d 60 0a c9 be fb b2 43 be 12 02 46 3e
       0.12188096 -0.39265728 -0.19111244 0.19336727
000180 49 66 86 3e 91 38 eb bd a1 db c0 be 22 e2 37 be
       0.26249912 -0.114853986 -0.37667564 -0.17957357
000190 95 6c 7e bf 61 26 97 bf 42 9a ac be 46 7d 5c 3d
       -0.99384433 -1.1808587 -0.3371144 0.053830408
0001a0 19 70 9d bf 60 76 03 40 9c 31 31 3f 94 3d 63 3e
       -1.2299834 2.0541 0.6921632 0.22191459
0001b0 f5 a8 1e 3d 33 70 1a bf 8d d3 95 3e a6 67 7c 3d
       0.03873535 -0.6032745 0.29262963 0.061622284
0001c0 61 5a 91 bf 4d 28 20 be 5e fe b8 be d2 4f 46 bf
       -1.1355706 -0.15640374 -0.36131567 -0.77465546
0001d0 0c a8 2e 3d 6b 28 ce bf 43 42 78 bf 14 c2 72 bd
       0.04264073 -1.6106085 -0.9697611 -0.05926712
0001e0 e0 68 f8 be 09 04 65 bd f9 fd fa bd f1 98 f7 bc
       -0.48517513 -0.05591205 -0.12255473 -0.030224295
0001f0 c0 eb 07 3e ef 69 4b bd 79 e8 ca be 51 68 dc bd
       0.13273525 -0.049661573 -0.39630488 -0.10762084
000200 21 3b 69 be 21 5b fb 3d cd c6 95 3a b4 fa 90 3e
       -0.22776462 0.12273241 0.0011427045 0.2831627
000210 50 08 2c 3d f6 2d 50 bc 11 05 0c bf f3 08 16 3d
       0.042000115 -0.01270627 -0.5469523 0.03662963
000220 35 41 dd be b0 21 ed bf 51 1c 3a bf 0b db 58 bf
       -0.43213812 -1.8525906 -0.7269946 -0.84709233
000230 3a fa 64 3e 34 64 c5 be fe 3f 87 bf a0 93 43 be
       0.22361079 -0.3855301 -1.0566404 -0.19099283
000240 81 3e 15 be 6b de 8d bf 0e 50 7e 3d 54 0c 0a 3e
       -0.14574625 -1.1083502 0.062088065 0.13481265
000250 8e e0 35 be 1e 67 94 3e 83 01 de 3d 32 37 c0 3f
       -0.17761442 0.28984922 0.10840132 1.5016844
000260 df f7 a6 be 8f 8a 61 3f 0d c3 c7 3c 6d 3c bf be
       -0.32610986 0.8810205 0.024385 -0.3735079
000270 71 fa 11 bf 7a ab 87 3f b2 06 d9 3f c9 e0 28 3e
       -0.5702277 1.0599205 1.6955168 0.16491999
000280 38 65 41 3e e6 eb 23 3f d7 f3 71 3d f2 45 66 bf
       0.18886268 0.6403183 0.059070434 -0.8995048
000290 8c a7 67 bf 6c e0 e5 be b8 7d 8f 3e 58 c9 5f 3f
       -0.9049003 -0.44897783 0.28025603 0.874166
0002a0 89 28 c3 be dc 5b 10 be a0 f7 15 3c 6f 39 df 3e
       -0.38116863 -0.14097542 0.009153277 0.43598506
0002b0 59 29 87 3e bf 20 2d 3e c7 22 8b be 47 85 fb be
       0.26398733 0.16907023 -0.2717497 -0.4912512
0002c0 eb a7 07 bf ab f8 2e bf 04 0c 29 3f 39 0a f5 3d
       -0.529906 -0.6834819 0.6603396 0.119648404
0002d0 74 bb 6f 3c 58 b5 86 bf 25 38 2e 3f 1b 27 4d 3f
       0.014632095 -1.0524092 0.6805442 0.80137795
0002e0 3c 51 12 be 4c 5d 32 3e 48 df 93 3c 4b 68 c3 3e
       -0.14288801 0.17418402 0.018050805 0.38165507
0002f0 0f 1d 52 3e 0a 8b 0e 3e 7d 60 83 be fa 53 66 3f
       0.20518897 0.13920227 -0.25659552 0.8997189
000300 88 31 fa be 1c 95 04 bf a0 97 25 bf 92 2d 30 be
       -0.48865914 -0.5179002 -0.64684486 -0.17204884
000310 0f d9 95 be 5d 4d 34 bf be 67 4d bf 28 77 2c be
       -0.29267165 -0.70430547 -0.80236423 -0.1684233
000320 a2 36 6e 3f f4 a6 1e bf db 3e 61 3c 71 a9 4e 3e
       0.93052113 -0.619735 0.013747896 0.20181824
000330 b0 e9 86 3f fd f9 a6 bc a3 7b 85 3f 3f 1d b9 bf
       1.0540066 -0.020382876 1.0428356 -1.446205
000340 03 ea 80 bf 5e 18 38 bf a2 fb 9b bd ad 29 08 40
       -1.0071415 -0.7191218 -0.076163545 2.1275437
000350 08 b4 4d bd 92 35 69 3d 8f 76 72 be 25 e1 0a 3f
       -0.05022052 0.056935854 -0.23678039 0.54249793
000360 14 62 ad 3e b6 70 0b bf a2 88 9f bf 27 12 a0 3c
       0.3386389 -0.5446886 -1.2463572 0.019539906
000370 85 7b 85 bd 66 25 87 bf a3 56 85 bb 50 6b 8a 3d
       -0.065177 -1.0558288 -0.004069166 0.067587495
000380 36 ff 4a 3b 1c 0f 31 bd f5 e3 f9 be 10 40 cd 3d
       0.0030974871 -0.0432273 -0.4880673 0.100219846
000390 6b 5b 53 3f fc 21 98 3e 2a ad 50 3f c0 ce 28 3f
       0.8256137 0.29713428 0.8151423 0.65940475
0003a0 fb 69 07 be 98 71 ae 3e e3 7b 39 3f 77 33 b1 bc
       -0.13224022 0.3407104 0.7245466 -0.021630986
0003b0 b3 9c 08 be 4c 5d 0c 3e 4d fc 16 3f eb 4d 6a bf
       -0.13341026 0.13707465 0.5897873 -0.91525143
0003c0 e3 b4 7b 3e 3c 81 06 be 09 44 98 3f 45 47 b1 3d
       0.24580722 -0.13135237 1.1895763 0.08656172
0003d0 ef da 4a 3e 4e b8 a0 bf 35 c9 68 3f 01 9a 08 3e
       0.19810079 -1.2556245 0.9093202 0.13339998
0003e0 78 fa c5 bf 3d e1 23 bc 19 76 27 3e 4d cf e9 3e
       -1.5467062 -0.010002431 0.16353644 0.4566597
0003f0 45 3f bf be aa 51 61 3d e0 f4 98 bd c9 43 91 3e
       -0.37352958 0.05500952 -0.07468581 0.28372028

model/dense_2/MatMul;model/activation_2/Relu;model/dense_2/BiasAdd f4 [100]
000000 2d 8a 91 42 55 6e ae c2 37 7e b8 c0 0d 60 88 c2
       72.769875 -87.21549 -5.765407 -68.1876
000010 31 ca 5f c1 cf b7 82 41 0f 75 e8 41 3c 04 05 42
       -13.986863 16.33975 29.057158 33.254135
000020 31 39 94 c1 eb 35 9a 40 2c 81 1e c1 8d a8 81 c1
       -18.527925 4.819082 -9.906536 -16.2073
000030 28 b1 81 c0 e8 97 96 41 12 45 9a bf ec bd 9d c2
       -4.0528755 18.824173 -1.2052329 -78.87094
000040 26 c9 73 c2 90 d4 a1 41 91 4d 9a 3f 08 1a ad c0
       -60.946434 20.22879 1.2054921 -5.4094276
000050 05 e4 7f 42 9b 06 ca 40 ea 45 06 42 b9 1c 9a 41
       63.972675 6.3133063 33.568275 19.264025
000060 6c 57 ae 3f dd 50 b1 41 87 0d 81 c0 12 b3 79 42
       1.3620429 22.164484 -4.0329013 62.424873
000070 a0 b7 97 c1 c9 92 55 41 69 08 9d 40 27 d0 72 41
       -18.96466 13.348336 4.9072766 15.175818
000080 7a b9 13 42 f6 92 73 c1 91 7f c3 41 ef a6 78 c2
       36.93113 -15.223379 24.437288 -62.16302
000090 3f 2b bc 42 5a 57 c8 c1 0c 43 d4 c1 1e ae ab c1
       94.084465 -25.042652 -26.532738 -21.460018
0000a0 c1 31 8b c1 d7 36 88 c2 e8 3e 3d c0 0d 9c bc c1
       -17.399294 -68.10711 -2.9569645 -23.576197
0000b0 82 72 43 c2 81 c4 31 42 f9 a7 f1 c1 27 fa 9a c1
       -48.861824 44.4419 -30.207018 -19.372145
0000c0 33 1c 1b c2 ac 5d 61 41 88 e3 8d 42 cc dc 96 42
       -38.77754 14.085369 70.9444 75.431244
0000d0 e1 e9 a3 41 a2 da 9b 40 85 b3 b0 3f 2a 88 95 40
       20.489199 4.8704386 1.3804785 4.6728716
0000e0 1f d9 ba 40 e7 5b 83 42 31 6f 31 42 01 0c 12 c2
       5.839004 65.6795 44.358585 -36.511723
0000f0 4f bc 75 c1 6f 39 1b c1 91 9b 89 c1 ce f4 0a 43
       -15.358474 -9.701522 -17.20096 138.95627
000100 da 9c b4 41 78 cd 81 41 69 7f 88 c2 5a 14 47 c2
       22.576588 16.225327 -68.24885 -49.769875
000110 85 a5 ff 40 92 92 3f 42 1d 25 21 c3 dc 72 ee 41
       7.988955 47.893135 -161.14497 29.806084
000120 b6 cf 65 c1 a6 99 98 41 bc 41 65 c2 d3 83 ef c1
       -14.363211 19.075024 -57.314194 -29.939367
000130 fa cd 0d 42 55 db 11 c2 2d a5 02 c2 07 7a 77 42
       35.45115 -36.46419 -32.661304 61.869167
000140 62 16 84 42 4e f4 54 42 11 27 4e 42 62 a1 0e 42
       66.04372 53.23858 51.53815 35.6576
000150 34 39 41 c1 7f cb 78 c2 4d 74 01 3f 5f 2f 45 42
       -12.076466 -62.198727 0.50568086 49.29626
000160 5c 18 1a 42 68 51 01 42 ca 02 4e c2 ed 55 c7 41
       38.52379 32.3295 -51.502724 24.916956
000170 22 49 ca 41 5f a0 a2 41 55 ba c6 c1 ee 1e 8c 42
       25.28571 20.328306 -24.840982 70.06041
000180 1b 7f a3 42 a8 83 49 42 8f 64 39 41 21 23 9f c1
       81.74825 50.37857 11.58705 -19.892153

model/batch_normalization_1/batchnorm/mul_1;model/batch_normalization_1/batchnorm/add_1;model/dense_2/MatMul;model/activation_2/Relu;model/dense_2/BiasAdd f4 [100, 100]
000000 ec d0 03 bd bc 5c 20 bd f4 39 9e 3e 7c e1 45 3d
       -0.032181665 -0.03915094 0.3090359 0.04831074
000010 af 9e 5b be 8c 5c 25 be ab 6f fe 3d f1 93 5d bd
       -0.21447252 -0.16148585 0.12423643 -0.054096166
000020 76 9f 5e 3e f5 93 29 bd 86 1d 05 3e dc 4e 3b 3e
       0.21740517 -0.04140087 0.12999544 0.18291801
000030 fa 20 cb 3d a4 8f 29 be 94 13 6e be 80 77 a4 3d
       0.09918399 -0.16558701 -0.23249656 0.08030605
000040 56 f4 de 39 02 62 65 be 06 25 1a 3e 80 c2 6a bb
       0.00042525184 -0.22400668 0.15053186 -0.0035821497
000050 74 1c e6 bd 46 2c 2f bd 2e 27 92 3d be f2 ea 3d
       -0.11235896 -0.04276683 0.07136379 0.11472081
000060 bf 38 ec bd 9d ef 2b bd 52 5a b7 bc 4e 82 11 3d
       -0.11534261 -0.04197656 -0.022381935 0.03552466
000070 99 d7 37 be b5 ca d0 bd b4 0e 8b bc 78 18 21 3b
       -0.17953338 -0.10194913 -0.016974784 0.0024581235
000080 37 68 8f be 4d 5c fc 3c 6f 2c 36 bd d5 2d 17 3e
       -0.28009197 0.030805731 -0.04447597 0.14763577
000090 76 a2 4d bd cd 23 57 3d 61 fc 5a 3d cc 87 01 be
       -0.050203763 0.052524377 0.053463344 -0.12649459
0000a0 ad 35 e7 bc 57 6f 45 be 75 52 9a be 4a 64 c3 3d
       -0.028223837 -0.19280754 -0.30141035 0.09540613
0000b0 a2 50 49 3d f4 2a a4 bc 6d eb e0 bd 6e 89 ba bd
       0.049149163 -0.020040013 -0.10982404 -0.09108244
0000c0 63 4a bf bd 12 1d e0 3c c9 d5 a6 3d 6e 30 64 3d
       -0.0934036 0.027357612 0.08146245 0.05571025
0000d0 0f c7 05 bc 86 b0 58 be 26 f1 f8 bd ca 01 48 bd
       -0.008165135 -0.21161088 -0.121553704 -0.04882983
0000e0 44 d7 f8 3c 42 31 2a 3d 83 0d 47 3e 6d dd 5b bd
       0.030376084 0.041550882 0.19438748 -0.053677965
0000f0 45 3e 12 3e 72 13 da bd a9 73 bb 3d 47 d2 82 be
       0.14281566 -0.1064824 0.0915292 -0.25551054
000100 80 77 85 bb 9f 91 52 3d c5 b0 98 3d 39 33 0a bd
       -0.0040730834 0.051408406 0.07455591 -0.033740256
000110 61 ba ac bc ca f4 cb bc e4 a9 6d be 05 f5 21 be
       -0.021084966 -0.024896998 -0.2320934 -0.15816124
000120 99 48 13 bb 9a 74 5d bd c8 5f 83 be c2 f1 8f bd
       -0.0022473691 -0.054066278 -0.25659013 -0.070285335
000130 b9 07 dc 3d 48 c5 bf bc ec 2d 7d bd 5c 44 9d be
       0.107436605 -0.0234095 -0.061811373 -0.30716217
000140 4d 7b a2 3d a7 38 c6 bd 0c 4f 82 3d 9e 14 42 3d
       0.07933674 -0.09678774 0.06362733 0.047382943
000150 6d 68 1e bd e0 c6 8f bc d8 1c b7 3d fb 53 84 bc
       -0.038673807 -0.017550886 0.089410484 -0.016153326
000160 99 ce 09 be 41 3c 5a 3d 09 5c 9c 3d 98 e4 a9 bc
       -0.13457717 0.05328012 0.07634742 -0.020738885
000170 91 9c a1 bd 9d ac 31 be 31 18 9e be f4 31 43 3e
       -0.07891191 -0.17351003 -0.30877832 0.19062024
000180 4d 80 51 3e 30 c2 e1 be 23 04 ac 3d 37 b9 af be
       0.20459099 -0.44093466 0.083992265 -0.34320995
000190 2e 8f 2f bd 11 53 43 3d a8 16 e2 bb f2 dd 67 bd
       -0.042861156 0.04768664 -0.0068996735 -0.056608148
0001a0 42 e3 be 3c 93 c3 82 3d 99 9f 76 3d 18 42 24 3d
       0.023301724 0.06384959 0.060210798 0.040102094
0001b0 37 49 65 3d b0 31 72 3d 19 ec e7 bc 2a 5a 3d 3d
       0.055978026 0.059129417 -0.028310822 0.046228565
0001c0 cc 86 02 bd e2 c5 a5 bd 6f d1 b1 3d de 91 95 3d
       -0.031866834 -0.08094384 0.086825244 0.073032126
0001d0 88 5a ea 3a fd a1 05 bc 97 50 da bd 08 79 aa 3d
       0.0017879764 -0.008156297 -0.106599025 0.08323866
0001e0 f2 20 0b be 2b 57 c7 3c df 72 e0 3d 3d 21 be 3d
       -0.13586786 0.024333557 0.1095941 0.092836834
0001f0 64 58 46 3c 8c f8 f7 3c 06 47 e6 bd f4 64 d0 bd
       0.012106035 0.030269884 -0.112440154 -0.10175505
000200 34 83 ae 3c 1d 3e 01 bd 50 94 62 3e cc 7f 8c 3e
       0.021302797 -0.031553376 0.22126889 0.2744125
000210 9e 6a dc 3d ff b1 a1 bc f3 3d 9f 3d 2a d4 c0 bc
       0.10762523 -0.019738195 0.07775488 -0.023538668
000220 9a c7 0f bd 33 95 f4 3d 4c dd 33 bd 36 19 ed 3c
       -0.035102464 0.1194252 -0.043912217 0.028942686
000230 c1 d4 59 bc 48 88 2f 3c 4d 18 89 3c 92 7d 3f 3c
       -0.013295353 0.010713644 0.01673522 0.011687653
000240 26 5e b5 3d b7 e9 c0 3d 7c fb a6 3d 3a 99 4b 3d
       0.08855848 0.094195776 0.081534356 0.049706675
000250 9c b6 98 3d 78 fa 8d 3d 5d 83 81 3d be 44 e8 bd
       0.07456705 0.06932539 0.06323884 -0.113412365
000260 53 1c 69 3e 1f d6 61 3f eb dc b9 3d 8f cd a7 3d
       0.22764711 0.8821735 0.0907534 0.08193504
000270 05 8d 21 3e b8 de 03 3d 6e cd 8a 3c 34 ab 1a 3d
       0.15776451 0.032194823 0.01694366 0.03776093
000280 a8 19 44 3d 4c 1e ff bd f3 31 ac 3e b1 5d a0 3d
       0.04787603 -0.124569505 0.33631858 0.0783037
000290 30 4a 4b 3d 54 6b 99 3d 35 62 37 be b5 ab d3 bc
       0.049631298 0.07491174 -0.17908557 -0.025838712
0002a0 95 9f 30 3d f2 89 3e bd 28 5d b4 bd c6 d1 10 3d
       0.04312094 -0.046518274 -0.08806831 0.035356306
0002b0 ea db 16 bc 69 2d 8d 3e aa 2c dc 3c d7 9a fc bd
       -0.009207705 0.27573708 0.026876766 -0.12334221
0002c0 56 3d cc 3d 68 35 bd 3d e9 c1 b6 bc 53 a0 f9 bd
       0.099726364 0.09238702 -0.02230926 -0.121887825
0002d0 ea f5 80 3d 68 7d 92 3a 2d f4 1d 3d 28 9c 32 3e
       0.062969044 0.001117629 0.038562942 0.17442381
0002e0 fa c2 ff 3c 8b 46 37 bc b4 ef 5f bd e6 a1 51 bb
       0.031220902 -0.011186252 -0.054671958 -0.0031987368
0002f0 c2 b3 a6 3c 2d 70 c4 3d 8b 61 f0 3e d6 26 4d 3d
       0.020349387 0.09591708 0.4694942 0.050085865
000300 0f 11 58 be db af 14 3e 8d b8 53 bc 03 84 e7 bd
       -0.21100257 0.14520209 -0.012922418 -0.11304476
000310 77 22 6a be aa e6 a4 bb 4a d2 a2 be bf 28 f9 bd
       -0.2286471 -0.00503238 -0.31801063 -0.12165975
000320 12 75 9b 3e e7 46 46 3e 10 33 2e bd 16 70 c3 3d
       0.30362755 0.19362985 -0.042529166 0.09542863
000330 c1 74 ac 3a 80 d6 90 bb 45 59 8a 3d 88 7d 20 bc
       0.0013157354 -0.0044201016 0.06755308 -0.009795554
000340 18 12 8e bd d8 02 42 3e 31 85 cb 3c 4e 6e 6e 3d
       -0.06937045 0.18946397 0.024843784 0.058210663
000350 6d 5f 20 bc b7 c8 cb bd db 30 19 bd d9 2f 63 be
       -0.009788376 -0.09950393 -0.037400108 -0.22186221
000360 4a 9e 20 3d a9 94 fd 3c fe c6 85 bd eb ef 16 3e
       0.039213456 0.030954676 -0.065320954 0.14739959
000370 1b 69 2a 3e 8f 5f 59 bc 31 4e 6d ba 58 4a d9 3b
       0.16641657 -0.013267412 -0.0009052484 0.006631177
000380 57 99 24 bd 14 38 ad bd 36 49 b4 bb d0 dd 2c bd
       -0.0401853 -0.08457962 -0.0055018915 -0.042203724
000390 df 6c 8a 3d 96 9b 7d bb da d2 87 bc cc 0d f9 3d
       0.06759047 -0.0038697473 -0.016580034 0.12160835
0003a0 2a 4d eb bd 1d f2 48 3d e6 e4 11 be ea 15 3a bd
       -0.11489327 0.049059022 -0.14247474 -0.045431055
0003b0 7f 62 95 3d 0a 39 7d 3c d4 aa fb bc 5a a6 b7 3d
       0.07294177 0.015455494 -0.030721106 0.08967276
0003c0 a2 34 71 3d 44 f6 15 3f 5a 9b 98 3d b3 60 64 3d
       0.058888085 0.58578897 0.07451506 0.055756282
0003d0 6c 4e 2b 3e 2b e0 2a 3d 0d 13 25 bd 25 af b6 3c
       0.16729134 0.04171769 -0.04030137 0.022300312
0003e0 00 de 92 bd 15 4a 99 3d e7 6f e2 3d 6f 2c 39 bc
       -0.071712494 0.07484833 0.110565 -0.011302098
0003f0 48 bc 1e bd f9 13 20 bc f9 a4 a5 bd 8f ad 00 bb
       -0.038753778 -0.009770387 -0.08088107 -0.00196347

model/dense_3/MatMul;model/activation_3/Relu;model/dense_3/BiasAdd f4 [100]
000000 ba e2 e9 c1 0f 02 4c 42 25 a8 47 41 22 bd d3 c0
       -29.235706 51.00201 12.478551 -6.6168375
000010 ba 5f 71 41 90 94 99 c1 18 2e 86 c0 ba da 8b 41
       15.085871 -19.19754 -4.1931267 17.4818
000020 13 cf 3f 42 f6 d2 b2 41 2d 98 40 42 cd 6a 49 42
       47.95222 22.353008 48.14861 50.354298
000030 bd db 41 42 85 54 e7 bd 77 87 5e 41 bc dc 01 41
       48.46459 -0.11295418 13.908072 8.11639
000040 e7 ee f1 c0 96 b4 75 41 db 3b 0a 41 43 1f 97 c0
       -7.560413 15.356588 8.639613 -4.722566
000050 e6 62 06 42 1b 04 19 c1 fb 61 02 bf 1e c8 0f 42
       33.59658 -9.563502 -0.50930756 35.945427
000060 c0 0b 47 42 e8 b2 73 42 cd 43 fc 41 cf c8 d0 c0
       49.761475 60.924713 31.533106 -6.524513
000070 34 22 73 c1 52 20 4a c2 2b 6c 60 41 2d e4 b5 41
       -15.19585 -50.531563 14.026408 22.736414
000080 1f a2 c5 41 08 0b d1 bf d8 e6 68 41 77 07 8a 42
       24.70416 -1.6331491 14.556358 69.01458
000090 db 14 fb bf a2 26 e0 41 72 79 12 c2 d0 42 17 41
       -1.961574 28.018864 -36.6186 9.453812
0000a0 3e 0f 27 42 4e 78 2f 42 66 5a 5e 42 e8 e1 dc c1
       41.764885 43.867485 55.58828 -27.610306
0000b0 18 31 6e 40 ce ff b6 40 98 b0 b3 c1 89 1f bd 40
       3.7217464 5.718726 -22.461227 5.9100995
0000c0 26 4b d6 41 89 b9 1d 3f 7b 99 5c 41 64 25 0c c2
       26.786694 0.6161123 13.787471 -35.036514
0000d0 f1 0a 95 c1 de 74 1f c2 ca 5b ec c1 9f 71 99 41
       -18.630342 -39.86413 -29.544819 19.18048
0000e0 cd a1 03 bf 91 14 98 c1 3f ea 1a 41 80 c7 ad 41
       -0.51418763 -19.010042 9.682189 21.722412
0000f0 97 b6 61 c0 6b 43 6b 40 87 55 ec 40 3b 66 a9 41
       -3.5267694 3.6759899 7.3854403 21.174917
000100 f4 51 65 c1 26 fc b4 40 12 a5 35 41 3f 87 21 3d
       -14.332508 5.65578 11.3528 0.03943562
000110 70 d5 9b 41 c8 17 ab c0 c0 a2 9d c0 73 c1 04 41
       19.479218 -5.346653 -4.926117 8.297229
000120 9d c9 90 bf ac 77 e5 c1 fa d7 11 42 41 84 a8 bf
       -1.1311527 -28.683434 36.460915 -1.3165361
000130 f6 e1 b5 c1 1b 9a 29 41 1c 0b 3c 40 2f 2c 1c c2
       -22.735332 10.600123 2.938178 -39.043148
000140 0e 37 3d c2 00 80 57 bf 07 3c f3 be f0 4e e9 41
       -47.303764 -0.8417969 -0.47506735 29.163544
000150 e4 bf 3b c0 f8 8d c1 c1 9e 9d 70 41 12 8d 3b 40
       -2.933587 -24.19432 15.038481 2.9304852
000160 19 28 49 c1 46 49 2b 41 00 9b c6 c0 98 83 10 42
       -12.572289 10.705389 -6.206421 36.12851
000170 16 4b b1 c0 2e 43 fd bf 10 26 c4 41 cb 6c 6a c2
       -5.540416 -1.9786127 24.518585 -58.606243
000180 5d 7d 79 40 93 86 c1 41 40 1a cf 41 6c 32 80 40
       3.8982766 24.19071 25.887817 4.006155

model/batch_normalization_2/batchnorm/mul_1;model/batch_normalization_2/batchnorm/add_1;model/dense_3/MatMul;model/activation_3/Relu;model/dense_3/BiasAdd f4 [100, 100]
000000 b2 d2 af 3d ee c3 f7 3c ed d6 ac bc f5 58 cf 3c
       0.08585109 0.030244794 -0.021098578 0.025310973
000010 dc 35 4a 3d 29 50 40 bd 98 9e 87 3d 4d 75 61 3e
       0.04936777 -0.046951447 0.06622046 0.22017403
000020 ed 5a ff bd fc eb 22 bd fa b2 85 be d0 f8 2c bd
       -0.124685146 -0.039775833 -0.2611311 -0.042229474
000030 ad 9a e2 bd e0 d3 7b bd a3 6a 3e 3d a7 c7 a3 3c
       -0.11064658 -0.061481357 0.046488415 0.019992663
000040 0b 75 90 bc c2 a6 fe 3d 0d 04 9e 3d a9 c6 01 3c
       -0.017633935 0.1243415 0.077156164 0.007920899
000050 95 32 a3 bb 6f e4 88 3d 30 ad 12 3f f7 4d 93 bd
       -0.004980395 0.06684195 0.57295513 -0.07192605
000060 cd fe 14 3d 7f 22 d1 bc 63 ed 9e 3d a4 76 9d 3c
       0.03637581 -0.025529144 0.07760122 0.019221611
000070 a7 1d 57 be 7f cc 08 be f7 9c 90 bd 1f bd b2 bd
       -0.21007405 -0.13359259 -0.07061189 -0.08727478
000080 76 43 45 bc 0e 9e b5 bb ef be 5a be 7b ad 3d be
       -0.01204001 -0.005542523 -0.21361898 -0.18523209
000090 6b bd dd 3d c6 ca 27 bd 30 90 43 bd af a7 b6 bc
       0.10827144 -0.040964864 -0.04774493 -0.022296755
0000a0 ac 6a 92 bc b9 fd 30 3c 97 e5 b5 3c ff 4d 25 3e
       -0.01787313 0.01080268 0.022204204 0.16143034
0000b0 b8 e3 98 bc 57 28 97 bc 66 8b c3 3d 3b 42 68 be
       -0.018663272 -0.018451853 0.095480725 -0.22681515
0000c0 b5 3c c5 3d 90 23 91 3e 7a c1 b3 3d 16 d5 a8 3d
       0.096307196 0.28347445 0.08777137 0.08243768
0000d0 9f 04 4a 3d 57 6a 8f 3d 02 7c b3 bd 6f 59 83 3d
       0.049320813 0.070027046 -0.08763887 0.064135425
0000e0 25 fb ae 3d 33 a9 6e 3e b6 7f de 3d 4e c8 38 bd
       0.08543996 0.23306732 0.10864203 -0.0451129
0000f0 84 8d 05 be 6c e4 16 bc f3 78 97 bd 95 79 bc bd
       -0.13042265 -0.009209733 -0.07396116 -0.092028774
000100 16 6b 2a 3e f9 f0 41 3c c5 c1 82 c0 2d c8 76 3d
       0.16642413 0.0118372375 -4.0861535 0.060249496
000110 11 dc a6 3d d1 8f 2b 3e a7 91 54 bc 37 6b ed bd
       0.08147443 0.1675408 -0.012974179 -0.11592715
000120 90 84 08 3d ab e7 3e bd 69 aa 06 3d 07 34 95 3d
       0.033329546 -0.046607655 0.03287736 0.07285314
000130 04 e5 e2 bc f0 d0 ce 3d fa ca f9 bc f0 b4 ab 3d
       -0.027697094 0.100984454 -0.030492295 0.083841205
000140 86 8d 24 3c a3 e6 05 be b7 eb 19 3d a2 82 71 bc
       0.010043507 -0.13076262 0.03757831 -0.014740618
000150 58 ac 9c 3c 98 6b 9c bd 43 a3 99 3d 18 ea 19 be
       0.019125149 -0.076377094 0.07501843 -0.15030706
000160 af 91 92 3e b1 7a dd 3e f0 e4 cc bd 2d 47 04 be
       0.28626773 0.4325767 -0.10004604 -0.12917776
000170 74 ab bb 3b f5 a7 10 3e 38 8e b8 3d 27 dd dc 3b
       0.005727226 0.1412657 0.09011501 0.0067402306
000180 e3 aa 10 3c ac b2 95 be e1 3c 03 be 54 a6 8d bc
       0.008829805 -0.29237878 -0.12816192 -0.017291225
000190 4c 74 90 be ed 90 dc bc e9 90 dc be 00 d2 a3 bc
       -0.28213727 -0.026924575 -0.43079308 -0.019997597
0001a0 b4 58 f1 bd 88 0d 3b 3d 06 44 7b 3d f3 b1 09 3e
       -0.11784497 0.0456672 0.06134417 0.13446788
0001b0 68 6e c1 bd c7 40 90 be a0 93 b9 3d 55 cf 1a 3e
       -0.094448864 -0.2817442 0.0906136 0.15118153
0001c0 f4 6c e3 bb bc 72 25 be 4c 1b 33 3e 1e 57 66 3b
       -0.0069404785 -0.16157049 0.17490882 0.003514714
0001d0 e2 45 28 bc 26 bf ce bd e1 12 e1 bd be b8 0f be
       -0.010270568 -0.100950524 -0.10989929 -0.14035317
0001e0 cb 05 76 bd 34 7b 3f 3d 0e bc 32 be fc ee 97 bd
       -0.06006412 0.046748355 -0.1745455 -0.074186295
0001f0 e8 07 4c 3e f5 d1 29 be e1 28 d8 3e 51 fa 4b 3e
       0.19924891 -0.16583999 0.42218688 0.19919707
000200 03 bf 00 3e 49 6e ee 3d 99 86 16 be c7 b7 a6 3e
       0.12572865 0.11642129 -0.14699782 0.32562086
000210 ee be d1 3d fa 62 d7 3d de c7 a3 bc a3 ad 03 be
       0.10241495 0.10516925 -0.019992765 -0.12859206
000220 6d 12 ce 3c 87 16 88 3d 52 a3 96 bd aa 38 6e 3e
       0.02515527 0.06644922 -0.0735537 0.23263803
000230 ef e7 f8 bd 11 9e 12 bd 4c f9 79 3b 4a 40 b8 bd
       -0.12153613 -0.035795275 0.0038142977 -0.08996637
000240 a8 f0 24 3e c6 e6 45 3d df c8 7e bd 58 9c e2 be
       0.16107428 0.048315786 -0.062203284 -0.44259906
000250 f5 79 7c 3d 9d f9 81 be ed 58 18 3d cd b4 89 3e
       0.061639745 -0.25385752 0.03719418 0.26895753
000260 88 f1 aa bd a7 8f 86 be ae c1 2a be 78 43 22 be
       -0.0834685 -0.26281473 -0.16675445 -0.1584605
000270 0e 7c 57 bc e0 ac 66 bd 25 65 64 be 42 1e 23 3e
       -0.013152136 -0.05631721 -0.22304209 0.15929511
000280 8e e3 ac 3d eb 15 4f 3e bf 3d 67 3d 11 a4 eb bd
       0.0844184 0.20223205 0.05645537 -0.115059026
000290 6a 6e f6 ba be 41 08 bd da e4 f0 bb 27 bf 00 bd
       -0.0018801217 -0.03326582 -0.0073515 -0.031432297
0002a0 9a a4 43 3d ba 5b f8 bd 20 de 20 bc 83 77 ea 3d
       0.0477644 -0.121268705 -0.009818584 0.11448576
0002b0 0c ce 04 3e 4f ca 90 bc 2c c6 a4 bc 9c db 89 bd
       0.12969226 -0.017674593 -0.020114027 -0.0673134
0002c0 2c c4 1e be 17 ad ed 3b f9 5b e1 bc 12 63 96 3e
       -0.15504521 0.0072533 -0.027509676 0.2937246
0002d0 54 42 5f bd 73 c8 0c be 57 2b ff 3d fc a8 80 be
       -0.054506615 -0.1374834 0.12459438 -0.25128925
0002e0 4b 08 87 bd dd 20 14 3d 9b cf 5c 3e 17 36 8f be
       -0.06593379 0.036164153 0.2156357 -0.27970955
0002f0 3e 35 5b be 20 79 80 bd 30 37 8a 3d 51 2e 1c 3e
       -0.21407029 -0.06273103 0.067488074 0.15252043
000300 1e df 0f 3e 85 5c 76 3c bd f9 0f be 48 c2 c3 bd
       0.14049956 0.015036707 -0.14060111 -0.095585406
000310 6d da 3f 3d 59 7a 42 be c5 6f 67 3d d4 e7 4d bb
       0.046839166 -0.18991984 0.056503076 -0.0031418698
000320 bd 3e c2 3d 5a f0 46 3e cc 65 93 bd f9 30 cf bd
       0.09484623 0.19427624 -0.071971506 -0.10116763
000330 38 0a 92 3d bc 81 34 bc f7 a8 8b 3d 1a 98 75 3d
       0.07130855 -0.011017259 0.06819337 0.05995951
000340 99 5d ca 3d ef 90 10 3e f2 db f4 bd 5b e6 08 3e
       0.098811336 0.14117788 -0.11956014 0.13369124
000350 04 82 fa bc f8 10 7e be 80 57 b2 3c b1 f3 13 3e
       -0.030579574 -0.2481116 0.021770239 0.1444843
000360 2a db 0c 3e d8 8c 76 3a af 0e ed bd c4 bd b7 3d
       0.1375548 0.00094051426 -0.11575066 0.08971742
000370 c0 37 89 bd cb 59 a1 3d c9 a8 0c 3d 78 8a 4b bc
       -0.067000866 0.07878455 0.034340654 -0.01242315
000380 18 f5 21 be 56 c9 20 3d 5b b2 ac bd 61 9a 31 bd
       -0.15816152 0.03925451 -0.08432456 -0.043360118
000390 ed aa cd 3d 79 26 64 3d fd 2b 12 be 3f cd c0 bd
       0.10042367 0.055700753 -0.14274593 -0.094141476
0003a0 d8 40 67 be b6 3f 29 bc 83 01 e4 bc 2e d6 31 3d
       -0.2258333 -0.010330131 -0.027832752 0.04341715
0003b0 63 01 5c 3d 6f 57 23 3e 93 ab 06 3d 6c ba f1 bd
       0.05371226 0.15951322 0.03287847 -0.11803135
0003c0 b8 3b 89 3c 5c 65 8d bd c2 9b 75 be 78 9d a9 3d
       0.016752109 -0.069040984 -0.23985198 0.08281988
0003d0 0a 2f 90 3d 88 52 8d be 5b 30 2e bc df 4c ae bd
       0.07040222 -0.2760203 -0.010631646 -0.08510756
0003e0 cd 76 0e be 6b c8 28 bd 98 fc 60 be 29 a6 39 3b
       -0.13912506 -0.04120676 -0.21971357 0.00283278
0003f0 4a f2 90 3d e2 ee 03 bd b2 6a 55 bd f8 19 be bd
       0.07077463 -0.03221024 -0.052103706 -0.09282297

model/dense_4/MatMul;model/activation_4/Relu;model/dense_4/BiasAdd f4 [100]
000000 7b 74 96 3e ec b6 57 41 c2 e4 8c bf 88 04 bd 3f
       0.29385743 13.482159 -1.1007311 1.4767008
000010 98 f9 cb c0 22 35 d8 c0 e5 45 10 40 ed c5 49 41
       -6.374218 -6.756486 2.254266 12.610822
000020 3a 44 28 42 e8 df 86 41 31 3e cf c0 29 7d 46 c1
       42.066628 16.85933 -6.4763417 -12.405557
000030 78 d7 60 42 09 3d be 41 2a bd 30 c1 a6 d7 b1 c1
       56.21042 23.779802 -11.046183 -22.230297
000040 e9 dd 21 3f b1 47 38 c1 f2 21 91 41 6c 88 76 40
       0.63229233 -11.517503 18.141575 3.8520765
000050 51 3f 74 c1 08 05 92 bf 34 bf 06 41 bb be 80 41
       -15.265458 -1.1407785 8.42168 16.09313
000060 05 73 22 42 8c 76 5a c0 a7 31 dd 41 e9 72 26 3f
       40.612324 -3.4134855 27.649244 0.6501909
000070 44 81 0a 41 4e 36 6b c0 96 ed 99 41 36 7a 5b be
       8.656559 -3.6751895 19.241009 -0.21433339
000080 18 a7 f5 41 9a 47 10 41 aa 59 c6 41 55 13 0b c1
       30.706589 9.017481 24.793781 -8.69222
000090 f2 0d 91 c1 cb e8 2d 41 cf 36 08 42 1a 5c 34 42
       -18.13181 10.869334 34.053524 45.089943
0000a0 ce c8 2c 42 30 43 e8 3f 50 8d 18 40 09 11 9d bf
       43.1961 1.8145504 2.383625 -1.2270824
0000b0 21 53 50 42 1d ba 3d c1 80 fe 77 c1 0c 61 b7 c1
       52.08118 -11.857938 -15.499634 -22.922386
0000c0 d5 56 09 c2 16 2c 16 40 36 0d 37 42 db dd ae 41
       -34.334797 2.3464408 45.7629 21.858328
0000d0 f6 8f 25 c0 2f c8 32 bf 7a 4f 0b 42 10 86 3d 41
       -2.5869117 -0.69836706 34.827614 11.84523
0000e0 2c ab c3 41 32 45 26 41 0c 79 a7 41 ef c5 b4 41
       24.45858 10.391893 20.934105 22.596647
0000f0 c8 86 e2 c1 5b f9 c0 41 7b 15 85 c1 d2 df 99 41
       -28.315811 24.121756 -16.635489 19.234287
000100 7b 73 14 41 31 7a f9 41 85 18 1d c1 25 07 9a 41
       9.278193 31.184664 -9.818486 19.253489
000110 bf c6 de 41 59 90 45 42 cb 56 af c0 42 ce 1d 42
       27.847044 49.390965 -5.479345 39.451424
000120 d4 9a 6c 40 8e 95 42 c2 bb c6 24 41 cd 6c 4b 42
       3.69695 -48.64605 10.298518 50.85625
000130 48 2f 29 42 bf c3 68 c1 17 90 e9 41 fd da 95 c1
       42.296173 -14.54779 29.195356 -18.731928
000140 78 a8 0f 42 3c d1 eb 41 86 9a 98 40 39 6d 9b c1
       35.91452 29.477165 4.7688627 -19.428331
000150 1e 17 ab c0 33 9b b5 c0 f6 b5 bd 41 1a ec 4d 40
       -5.346572 -5.675195 23.713848 3.2175355
000160 bb bc 26 41 f2 9c 07 41 3f b5 85 c1 33 88 01 42
       10.421077 8.475817 -16.7135 32.383007
000170 25 ea 08 42 ce f6 a8 40 94 9b 5d 42 da 1e 1b 42
       34.228657 5.2801275 55.40193 38.78013
000180 34 6a 41 40 80 20 65 c1 5f 1f 23 42 a6 0a cd c0
       3.0221071 -14.320435 40.780636 -6.40755

model/batch_normalization_3/batchnorm/mul_1;model/batch_normalization_3/batchnorm/add_1;model/dense_4/MatMul;model/activation_4/Relu;model/dense_4/BiasAdd f4 [100, 100]
000000 9f f8 00 be 61 da 72 3c eb eb a7 3c a1 3b 41 be
       -0.12594841 0.014822573 0.020498237 -0.18870403
000010 e5 0e 65 be ff dd f2 3d 1d 2d 8e bd 74 c1 df 3c
       -0.22368963 0.11858749 -0.069421984 0.027313925
000020 f7 93 4d be a2 60 b6 3d d5 e9 02 bc 34 f6 ee 3d
       -0.20075975 0.0890515 -0.00799032 0.11668053
000030 4f 98 53 bd c9 9e 4c 3d b9 e0 bb 3d b7 fa 87 3d
       -0.051658925 0.049956117 0.09173722 0.06639617
000040 76 a8 55 3c 58 ef 1f bd 7d 0d 15 be 40 d4 8a ba
       0.0130406525 -0.039046615 -0.14555927 -0.001059182
000050 2f c7 34 3d 7d cf 00 3f 22 2a 17 3f 6c 0c 2d 3e
       0.04413527 0.503166 0.59048665 0.1689927
000060 5f 5e a3 bd db 30 25 3d 1b 55 1b 3e fa 53 9d 3c
       -0.07976984 0.040329795 0.15169184 0.019205082
000070 e0 7f e1 be 26 2b bc 3b 60 b7 50 bc ec 27 89 be
       -0.44042873 0.0057424484 -0.0127390325 -0.2678827
000080 e9 9f 2d bb da b2 d3 bd ca 4b 02 3d d1 b1 a3 3c
       -0.002649302 -0.103368476 0.03181056 0.01998225
000090 bb d2 54 3e 64 cc da bd 1f c0 9a bd f7 25 1a 3c
       0.20783512 -0.10683516 -0.075561754 0.009408466
0000a0 99 18 89 be 58 e1 5a 3d d1 f2 da bb aa 39 68 3d
       -0.2677658 0.05343756 -0.006681778 0.056695618
0000b0 34 58 e5 3d e8 1d 72 3d c7 65 3b 3e 37 cb 98 bc
       0.11198464 0.059110552 0.18300544 -0.018651588
0000c0 b9 42 93 3e 8d 8a 25 3d 40 a3 52 3d 75 a3 d4 3d
       0.28761843 0.040415335 0.05142522 0.103827395
0000d0 b6 a7 74 3e 8d 7a 28 3d d6 8b 0b 3d 93 88 29 3e
       0.23892102 0.0411325 0.034068905 0.16556005
0000e0 2d 54 4a bd aa 16 95 3d b4 70 23 3d 13 7d 26 3e
       -0.049396683 0.072797135 0.039902404 0.1625865
0000f0 67 1e a9 be 68 0e 9b bc 96 a5 98 3c 8e 51 f5 3c
       -0.33031008 -0.018927768 0.018633645 0.029946115
000100 48 84 4b bd 53 82 57 bd d0 2f 04 3e 5a 73 a9 3c
       -0.0496867 -0.05261452 0.12908864 0.020684887
000110 94 fa 58 3d 6d 3f b9 3d 01 1b 2d bd 8f 23 ca 3c
       0.052973345 0.09045301 -0.04226208 0.024675159
000120 1d 5e 30 3e c7 ec 3e bd 11 91 2e bd 00 81 c0 bd
       0.17223401 -0.046612527 -0.042618815 -0.09399605
000130 39 f6 41 be 1f 2c 12 3d 66 43 88 3b 3d 02 d9 3c
       -0.18941583 0.03568661 0.004158425 0.026490325
000140 87 a2 e4 3d 0e 31 8f bd c4 89 16 3e e4 44 ac bd
       0.11163812 -0.06991778 0.14700991 -0.08411577
000150 fd a0 2d 3d b1 56 1f 3d 2d 33 db bd 01 5f e4 3d
       0.04238986 0.038901035 -0.107031204 0.11150933
000160 fd 60 bf bc 6a 44 fe bc 54 3e 71 bd f3 13 c0 3d
       -0.023361677 -0.031038482 -0.05889733 0.09378805
000170 bd 44 43 3e 8e a6 7c 3d c0 13 c7 be 0b c2 81 3b
       0.1906919 0.061682276 -0.38882256 0.0039598993
000180 58 86 06 3e 56 db a8 3d 9d 2c bc bc cd 1d a3 3d
       0.13137186 0.0824496 -0.022970492 0.079646684
000190 57 f7 b3 3d 82 76 0d 3d ba ab 68 bc 20 4b 00 3e
       0.08787411 0.034536846 -0.014201099 0.12528658
0001a0 75 53 b1 bd f0 fc 5b bd c3 b4 16 3d 34 8f 71 3e
       -0.08658496 -0.053708017 0.03679348 0.23589784
0001b0 a0 aa 8a be 43 63 db 3c e3 cb 98 bc 8b a4 2d 3e
       -0.27083302 0.02678073 -0.018651908 0.169573
0001c0 05 24 53 bd 6e a8 75 bd 9f e5 e0 3d 39 2e 9d 3d
       -0.051548023 -0.05997508 0.10981297 0.07674832
0001d0 07 ee 68 3d 6d 02 04 bd bf 21 b1 3d dc a7 03 bf
       0.056867626 -0.032228876 0.08649015 -0.5142801
0001e0 23 9a 4d bc d0 18 0c be 1f 5e 56 bd cb c9 44 3e
       -0.012548956 -0.1368134 -0.052335855 0.19217603
0001f0 65 d1 24 be 0b af 02 3d af 2c 36 be 91 79 b3 3b
       -0.16095503 0.031905215 -0.17790483 0.0054771383
000200 60 8f 8b 3d 27 dc 75 3e 2f 87 aa 3c 85 42 d2 bd
       0.06814456 0.24009763 0.020816414 -0.10266594
000210 cb c3 b2 bc 86 50 5b bd 9b 33 4b 3e 3e c0 c6 bc
       -0.021821877 -0.05354359 0.19843905 -0.02426159
000220 9f 39 96 3d 7c a0 9e bc 62 19 87 3d 2e 5f a5 3d
       0.07335209 -0.019363634 0.06596638 0.08074795
000230 98 d4 aa 3d 2e 26 36 be f0 0e a5 bc 84 1c 19 bd
       0.0834133 -0.17788002 -0.020148724 -0.03738071
000240 05 fb de 3d 12 f8 b4 bc 4e 8f 1a 3e 52 63 54 bd
       0.10887722 -0.022090945 0.15093729 -0.05185253
000250 59 43 d1 bd 80 76 9b 3d 41 17 b3 bb 65 ad 93 3e
       -0.10217924 0.075909615 -0.0054654186 0.28843227
000260 2c 3d 14 be 69 d2 17 3e 8d fd 50 bc 9e df bd bc
       -0.1447646 0.14826359 -0.012755764 -0.023177918
000270 7f 87 b7 bd 65 72 cc bd 24 10 3f bd 5b 79 90 be
       -0.08961391 -0.099827565 -0.046646252 -0.28217587
000280 d0 8e f9 3d 62 36 02 bd 90 43 e8 bd 6e 2b b6 3c
       0.121854424 -0.031790145 -0.113410115 0.022237506
000290 df 5d 2a 3e 41 2b 95 bd 29 fd 88 bd cf cc 58 3d
       0.16637371 -0.07283641 -0.066889115 0.052929696
0002a0 5c be 70 3e 5c 5a 20 3e 04 bf af bd 48 34 25 bf
       0.23510116 0.1565947 -0.08581355 -0.645329
0002b0 15 cd 92 be 53 d5 d3 3d eb 9e 6b bd 5c e6 12 bd
       -0.2867209 0.10343423 -0.057524603 -0.03586422
0002c0 46 31 0e be 4f 2d 55 3e 00 d4 20 3d 5e b8 bf 3c
       -0.13885984 0.20818065 0.03926468 0.023403343
0002d0 66 5c 84 bd 9e e9 0d 3d f6 70 82 be 0e 1f e6 bd
       -0.06462936 0.034646623 -0.25476807 -0.11236392
0002e0 71 de bc bd 47 af 32 be b8 d3 33 3e 16 af 85 bf
       -0.09222115 -0.17449676 0.17561233 -1.0444057
0002f0 34 59 ce 3b 6e fd 0d 3d de 67 ad 3d 89 d1 22 be
       0.006297255 0.034665518 0.08467077 -0.15900244
000300 bb 7e 1c be 9f 44 47 3d 88 6e 95 bc b4 07 1d 3b
       -0.15282719 0.048649427 -0.018241182 0.002396089
000310 60 9b bc 3e 41 11 a9 3d c1 20 b1 bb 38 4a 1b 3e
       0.36837292 0.08255244 -0.005405516 0.15165031
000320 51 f5 9c bd a8 7f 8d 3e 40 c8 b8 3e a5 89 3d 3e
       -0.07663978 0.27636456 0.3609028 0.18509538
000330 5f 62 dd 3d 8f 39 99 bd 23 45 ea 3c 17 f7 46 3d
       0.108097784 -0.074816816 0.02859742 0.048575487
000340 5b 27 84 bd 0a d1 5f bd ea e6 4b be 21 ee 52 3e
       -0.06452819 -0.054642715 -0.19912305 0.20598651
000350 f3 2f 19 3e 65 a6 62 3d f8 c3 45 bd 2b 90 09 3d
       0.14959697 0.055334467 -0.048282593 0.033584755
000360 43 0e 8c 3d c8 ae 6b 3e 7a 88 9c 3d bd e4 d6 3d
       0.06838658 0.23015893 0.07643218 0.10492847
000370 59 73 b1 3d a9 69 d9 3c 72 76 20 3a 61 d6 97 3c
       0.08664579 0.02653964 0.00061211654 0.018534841
000380 45 35 83 bd b0 96 79 be 44 8e 20 3e af e8 9a bd
       -0.06406645 -0.24373889 0.1567927 -0.07563912
000390 c4 36 67 3b 39 95 14 3e f4 66 52 bb ac 38 32 3c
       0.0035280446 0.14510049 -0.0032104822 0.010877769
0003a0 64 04 2c be 22 26 e1 3d d7 6a 43 bd 0d 61 21 be
       -0.1679855 0.109936014 -0.047709312 -0.15759678
0003b0 85 3b 06 3e a5 31 68 bc 54 a5 20 be 10 71 22 bd
       0.13108642 -0.014171992 -0.15688068 -0.039658606
0003c0 40 94 b4 bd f3 47 e8 bd ae 6b 27 be 20 aa 10 3d
       -0.08817339 -0.11341848 -0.1634967 0.035318494
0003d0 ed e4 bd 3b 86 3c 7b bb 6f 53 52 bc 6a b1 f7 bc
       0.0057951123 -0.0038335635 -0.012837275 -0.030235965
0003e0 ab ac 1c 3e 2f 2e e6 bd 9b 6e 21 bd a7 c7 20 be
       0.15300243 -0.112392776 -0.039412122 -0.15701161
0003f0 37 29 62 3c d3 d3 1b 3e ca b7 14 3d 73 8a 8e 3d
       0.013803772 0.15217523 0.036308087 0.06960001

model/dense_5/MatMul;model/activation_5/Relu;model/dense_5/BiasAdd f4 [100]
000000 ac 76 07 41 26 f9 39 42 9f c9 27 c1 db e2 01 40
       8.466473 46.49331 -10.486724 2.0294712
000010 38 2c 06 42 e7 c6 c5 c0 c7 29 2a 42 72 fb 8e 41
       33.543182 -6.18053 42.5408 17.872776
000020 89 03 90 40 8b b2 fc 3f 5a de 00 42 08 fb 1a 3d
       4.5004315 1.9741987 32.21714 0.03783706
000030 3d 0a 23 41 23 c2 01 42 80 9a ff c1 af ec db 41
       10.19 32.439587 -31.95044 27.490568
000040 bc ae 7f c1 13 ec 6d 41 53 de 98 41 83 f9 be c1
       -15.98016 14.870135 19.108557 -23.871832
000050 3b b3 90 42 72 07 78 c1 4c 12 b5 41 bc 5e 1b 42
       72.35006 -15.501818 22.633934 38.842514
000060 89 8d fa 41 6f 75 1a 41 32 03 e2 bf 32 fb d2 be
       31.319109 9.65367 -1.7657225 -0.41207272
000070 8f e6 51 41 05 4f 4b 41 d7 0f 8b c1 0b e3 e0 40
       13.118789 12.706792 -17.382734 7.027715
000080 2e 48 89 c1 1c 8d e1 c1 9a 2b 9a 40 46 4e 0a 42
       -17.160244 -28.193901 4.8178225 34.57644
000090 03 d1 b8 41 0a 6a 18 42 5d b7 37 40 dc b8 06 c2
       23.102057 38.103554 2.8705666 -33.680527
0000a0 75 c9 e2 41 47 3d ed c1 e9 de a1 41 34 31 9e 41
       28.348368 -29.65492 20.233843 19.774025
0000b0 b1 ef 80 41 76 92 eb c1 c8 2e 1b 41 bd bc 6c 41
       16.117037 -29.446514 9.698921 14.796079
0000c0 5e 5a 27 c2 53 71 07 42 6d 69 2e 40 68 e0 db 41
       -41.83825 33.86067 2.7251847 27.484573
0000d0 82 8b e1 c1 b8 4d c9 c0 83 ae 32 41 fe e6 a4 40
       -28.19312 -6.290737 11.167605 5.1531973
0000e0 c0 52 0a 41 eb 66 7a 41 cd 24 0f 40 a3 45 36 42
       8.645203 15.650126 2.2366211 45.568005
0000f0 67 58 b2 41 9f d7 a3 40 72 ac 32 42 39 47 fb 41
       22.293165 5.120071 44.668404 31.409777
000100 34 68 b6 c0 3c 8a e6 41 39 aa c8 c0 99 26 57 c1
       -5.70022 28.817497 -6.270779 -13.446923
000110 76 b7 e0 c0 9b 39 16 41 8b 8e d1 c1 4a fa c2 41
       -7.022395 9.389064 -26.194601 24.372211
000120 3a 22 1a 42 e3 a3 e6 41 f2 09 a4 c1 e8 57 ba 3f
       38.533424 28.830023 -20.504856 1.4558077
000130 97 2c 8f 41 13 3e 89 c1 08 bf 33 40 83 fa 6a c2
       17.896772 -17.15531 2.8085346 -58.74464
000140 c1 e7 8c 42 13 83 e0 c1 f8 25 cc 41 8d e1 e5 41
       70.452644 -28.064001 25.51854 28.735132
000150 10 5a d5 c0 f6 95 f0 41 5d 7a a9 c0 47 8f 58 41
       -6.667244 30.073223 -5.296187 13.53498
000160 68 63 0f c1 a8 0e 83 40 9f 91 39 c1 c6 72 a7 41
       -8.961769 4.095539 -11.598052 20.931042
000170 12 60 af 3e 81 0b 51 c1 cc 22 82 c0 46 27 6d 40
       0.34252983 -13.065309 -4.0667477 3.705522
000180 ab 1a e7 41 7c be 9c 40 34 7e 23 41 b2 57 4d 41
       28.888021 4.8982525 10.218311 12.83391

model/batch_normalization_4/batchnorm/mul_1;model/batch_normalization_4/batchnorm/add_1;model/dense_5/MatMul;model/activation_5/Relu;model/dense_5/BiasAdd f4 [100, 100]
000000 b7 58 c7 3a c1 bb bd 3d f3 cd a6 ba 19 a4 99 3d
       0.0015208934 0.09264327 -0.0012726173 0.07502002
000010 08 26 6e 3d f0 02 f8 3e c0 b6 7f 3c 75 37 63 be
       0.05814174 0.4843974 0.015607536 -0.22189124
000020 9f f1 71 3e eb 6b 01 be fd a9 a9 bf bb 52 89 bf
       0.23627327 -0.12638824 -1.3255001 -1.0728372
000030 0e 36 c0 3d a9 49 83 bd a1 24 1c bd fd 26 4e 3e
       0.0938531 -0.06410534 -0.03812087 0.2013206
000040 af 20 81 be cc 35 f1 bd e6 05 0d 3e 65 c5 60 bd
       -0.25220248 -0.11777839 0.13771781 -0.05487575
000050 83 a0 9e 3d c5 39 9a 3c 7d 57 ce bd 89 26 f6 bd
       0.07745459 0.018826375 -0.10075281 -0.12019069
000060 16 70 83 bd 4c df 63 3d df 64 23 3d d7 69 2c 3d
       -0.06417863 0.055632874 0.03989112 0.042093124
000070 d6 f7 46 3e ed 62 7c 3d 75 d4 68 3c f1 85 53 bd
       0.1943048 0.06161778 0.01421081 -0.05164141
000080 4e bf aa bc 8e 71 c3 3c 29 b5 61 be c8 a6 10 be
       -0.020843174 0.023857858 -0.22041763 -0.14126122
000090 1d 5f be bc d8 79 e9 bd fa 3a 8d bd 7d a1 43 3d
       -0.023238713 -0.11400193 -0.068960145 0.04776143
0000a0 96 9a c5 3d 9d 88 d0 3d 76 c5 23 be 0f b3 0a bd
       0.096486256 0.10182307 -0.15993294 -0.03386217
0000b0 e2 e1 b4 3c ba a7 d2 3d ee d5 06 be 32 fd 06 3d
       0.022080366 0.102858976 -0.13167545 0.03295631
0000c0 0f a8 61 3c da 94 02 bd c5 cf df 3d 76 b2 51 3c
       0.013772978 -0.031880237 0.10928301 0.012798896
0000d0 ac 1d 9a 3e 1b a4 76 3d e6 fc 44 bd 2b fb 4d 3e
       0.30100763 0.060215097 -0.048092745 0.20115344
0000e0 b2 d2 85 bc 39 91 bb be 96 a9 6a be e0 37 df 3d
       -0.016335819 -0.36634234 -0.22916254 0.10899329
0000f0 ad d1 da 3d 10 2b 82 3a 3f b3 5b 3c 9b 73 65 3e
       0.10684524 0.0009931047 0.013409435 0.22407381
000100 10 00 36 3d fa 8b 42 bd b9 bd e1 be 66 37 41 bc
       0.044433653 -0.047496773 -0.4409006 -0.011792993
000110 b8 12 3e bd bf 9e af be bf 4d b9 bc b4 de 8d bd
       -0.04640457 -0.343008 -0.02262008 -0.06927243
000120 f5 7b a4 bd 1c 53 38 3d 4a 0c 79 bb b0 7b 8c bd
       -0.080314554 0.045001134 -0.003800171 -0.06859529
000130 13 1c bb b9 0c fc 80 3c 07 8c c4 3e 9d c9 22 3e
       -0.00035688336 0.015745185 0.38388082 0.15897222
000140 6a 02 e7 bd a0 fb dc bd 3e 92 68 be 99 ed c0 3e
       -0.11279757 -0.10790181 -0.22712037 0.37681273
000150 83 02 8f be c1 5a bc 3d 53 05 33 3d bf bf ab bc
       -0.27931604 0.091969974 0.04370625 -0.020965455
000160 e8 34 67 be db 1d 09 be d0 ff f8 bd ee 77 8a 3c
       -0.22578776 -0.13390295 -0.12158167 0.01690289
000170 4f f9 da 3d 1f d1 39 3c f0 67 57 3e cb 34 27 3d
       0.10692083 0.011341362 0.21035743 0.04082183
000180 15 c7 f8 bd 7f a0 2a be d3 d2 f1 39 7a 94 e1 bc
       -0.12147347 -0.16662787 0.00046124178 -0.02753662
000190 93 88 13 bd 15 9c 37 bd a0 c4 c9 bd 15 b2 1c bf
       -0.03601892 -0.044826586 -0.09851956 -0.6120923
0001a0 e0 fd ad bd d7 a0 4d 3f 8d 6b 89 3b 18 7d aa be
       -0.084956884 0.8032355 0.0041937293 -0.33298564
0001b0 2a 30 89 bb f0 f8 65 3e 18 02 c7 3e 09 39 a5 3e
       -0.00418665 0.22458243 0.38868785 0.32270077
0001c0 fa 58 83 b8 76 d6 74 3d 18 72 ab 3e a6 b7 f9 bc
       -6.26314e-05 0.05977484 0.33485484 -0.030483078
0001d0 13 fa 05 bf 41 5d 2e bf 86 80 3c 3e 55 f0 20 3d
       -0.5233471 -0.68111044 0.18408403 0.0392917
0001e0 6a 3c 4a be b1 01 18 be ff 1d 03 bd cc 65 01 3d
       -0.19749609 -0.14844395 -0.03201103 0.03159122
0001f0 51 a9 f0 bc 61 2e 22 bc a5 70 22 3d 1c 89 0c be
       -0.029377611 -0.009898753 0.039658207 -0.13724178
000200 17 39 8a bc a2 6e e0 bd eb 29 08 be 8f 4a c3 3d
       -0.016872926 -0.109586015 -0.1329724 0.09535705
000210 a5 76 f8 3d 3e ba 5c 3d a3 a5 8f bd e7 3f 90 be
       0.12132005 0.053888552 -0.070140146 -0.28173754
000220 37 74 f2 be 7f eb 30 bc 42 ef 46 3e 50 27 42 3c
       -0.4735429 -0.010798334 0.19427207 0.011850193
000230 d7 c4 8c bc 2b 34 24 be 94 dc ef 3d a4 37 b7 3c
       -0.017183704 -0.16035526 0.11711994 0.022365399
000240 10 f7 2a 3d 07 0a 19 bf 00 78 c5 3c 0d 5b 9a be
       0.041739523 -0.59780926 0.024105072 -0.3014759
000250 df 48 f3 bc 91 eb 29 3e d3 a7 3d 3d 66 55 16 3d
       -0.029697834 0.16593768 0.046302628 0.036702536
000260 65 bf 9d be 4c 88 bc bd d8 1c a9 bd 01 28 09 bd
       -0.30810085 -0.09205684 -0.08257455 -0.033485416
000270 c4 ce b7 3d a5 40 2c bd 24 e5 ad bd 9c e9 8f 3d
       0.08974984 -0.042053837 -0.08490971 0.07026979
000280 e6 57 a7 bd 15 24 cc 3c a9 c6 95 3d 58 7b da bd
       -0.08171062 0.024919549 0.07313282 -0.10668057
000290 7f c6 81 bd 4e 22 fd bd c7 d3 e1 be ef 61 0e bd
       -0.06336688 -0.12360059 -0.44106886 -0.034761366
0002a0 44 28 a5 bc b3 14 bb bd 48 44 04 bf 45 78 c4 bd
       -0.020160802 -0.091348074 -0.5166669 -0.09593252
0002b0 93 8f 94 bd 3f 5f 6c bc 68 ce 07 be c9 26 0f bc
       -0.07253947 -0.014427005 -0.13262331 -0.008737274
0002c0 f8 c5 1d bd b7 97 ee bd 74 50 6c be f6 9d c7 3d
       -0.038518876 -0.11650031 -0.23077565 0.097469255
0002d0 7e 60 94 3d 8a 02 f4 bc 03 77 76 bd f7 36 1e 3d
       0.07244967 -0.029786367 -0.060172092 0.038626637
0002e0 fe c4 a6 be 14 16 07 be ba 76 f9 39 7c c3 2f bd
       -0.32572168 -0.13192016 0.0004758144 -0.042911038
0002f0 12 f8 67 3c d9 92 c1 3d ae 99 c6 bd a9 b7 49 be
       0.014158266 0.09451837 -0.09697281 -0.19698967
000300 66 0f df 3a c1 83 40 bd 82 eb 4d bd 2d ad 09 be
       0.0017018139 -0.04700065 -0.050273426 -0.13444968
000310 9a 6c e6 bd a6 36 13 3b 3a 70 91 bd d7 4c e0 be
       -0.11251183 0.0022462993 -0.07101484 -0.43808624
000320 61 28 b4 3d c9 e0 c3 3d aa c2 85 3d 46 60 f6 3d
       0.08796764 0.09564359 0.0653127 0.120300815
000330 7a d5 d2 bc 80 f3 cd bd ab 81 04 bd 99 c7 fd 3d
       -0.02573656 -0.100562096 -0.032350224 0.12391586
000340 51 79 dd 3a 96 72 18 be d3 0b 06 be 26 d0 0f be
       0.0016897117 -0.14887461 -0.13090448 -0.14044246
000350 68 65 90 3d ec ce 9e be 2c e4 77 3d 9a 96 ab bb
       0.07050592 -0.31017244 0.060520336 -0.005236459
000360 95 44 91 3c dc 61 a9 bd f6 02 96 bd ff 3d 6d 3e
       0.017732898 -0.08270618 -0.073247835 0.23168181
000370 26 6a 44 3d f9 10 8a 3d 6e f1 d9 3c 5f 44 57 3d
       0.047952794 0.067415185 0.02660438 0.052555438
000380 81 aa 4d bd ce b0 0a bd d8 3e 3c 3d ae b6 d4 bd
       -0.050211433 -0.03386002 0.04595837 -0.10386406
000390 18 0d 4b 3e 7d 15 39 bd 4c c1 90 3d bb 38 9a bd
       0.19829214 -0.04518651 0.070681185 -0.07530352
0003a0 d7 f1 d5 bc 04 5d 91 bc 55 aa 54 3d 43 30 08 3d
       -0.026116295 -0.017744549 0.051920254 0.03324915
0003b0 9a 83 9c 3d 5a f1 c6 bd 88 bd 89 3d d8 3b a6 3b
       0.076422885 -0.09714003 0.06725603 0.005073052
0003c0 36 ef a1 3d 7e 41 ff 3c f0 06 aa bc dd 8f 9d bd
       0.07906954 0.031159159 -0.020755261 -0.07693455
0003d0 5f 07 4d bb 6d 9d 10 bd fb b4 1a 3d d1 a4 6d bd
       -0.003128491 -0.035306383 0.037770253 -0.05801851
0003e0 3b 0e 3f bd 80 46 8a bf 8e bd 9b 3f 81 43 a7 bd
       -0.04664443 -1.0802765 1.2167222 -0.08167172
0003f0 6b 3f 09 be f5 2d 90 3d dd 54 0f be 01 a8 90 3c
       -0.13403098 0.070400156 -0.13997217 0.017658236
