corintho_ai/python/tflite_models/model_52.tflite (tflite, 521576 bytes, 27 tensors)

model/dense_1/MatMul;model/activation_1/Relu;model/dense_1/BiasAdd f4 [100]
00000000: c58c b3c1 5805 0343 ccdb 50c2 04f3 8a40
00000010: c680 5742 c095 0042 a0d6 8c42 2b12 c7c1
00000020: 175b 32c2 7619 13bf 1f69 f6bf a80c 57c2
00000030: 33a0 5241 6151 1fc2 764e aec0 c82f 83c2
00000040: aa7d ec41 2e0d 0541 a3ac 32c1 0057 1340
00000050: a515 e440 e14b d13e 1cd5 5f41 3264 5bc2
00000060: 9cc2 9342 c3e3 7740 c8f5 93c0 59ba 10c1
00000070: 3e98 55c2 b49a 1f42 808b 0dc2 d26c a8bf
00000080: 0626 f841 4cb9 0ec2 9d22 8b42 17f4 4e42
00000090: ed32 5841 cd35 e4c1 1a5e 8341 6b71 d041
000000a0: 83f4 8342 f1a2 84c1 447b 3ec2 dc88 0b3e
000000b0: f09f 8d41 0443 cec1 72b3 0941 7b84 e8c1
000000c0: 033f e1c0 1534 26c1 1b39 b941 aea3 65c2
000000d0: 460a 7841 d5e0 0d43 2ba7 87c0 a7b2 0442
000000e0: 3be6 4641 c715 6dc1 6b79 f141 e6f7 37c1
000000f0: dd8b 9541 50e0 8842 97a9 7b40 8ec2 0042
00000100: 1d55 4442 9602 a642 ceb3 ee42 6d21 5d41
00000110: 0ca8 92c1 8204 94c2 7745 a8c1 ee9c cfc1
00000120: 2711 513f d731 a742 ad32 c1c0 fd32 8442
00000130: 9070 a3c0 a09c 1441 3469 cac2 4ac2 b8c0
00000140: 2d10 3b41 3e2a 1f42 5591 7741 0f4f ddc1
00000150: 24f2 45c0 8eb3 8c42 2873 af41 3510 b3c1
00000160: c8fa a642 9239 ff41 5781 b642 b010 3141
00000170: 1e8d 7542 18db eb40 794a c040 1977 0440
00000180: 416b 0743 26a4 b341 bcf5 5b41 ca5d a4c2
-22.443735 131.02087 -52.214645 4.342165 53.875755 32.14624 70.41919 -24.883871
-44.588955 -0.57460725 -1.925083 -53.76236 13.164111 -39.82947 -5.4470778 -65.59332
29.56136 8.315718 -11.167148 2.302185 7.127642 0.40878204 13.989529 -54.847847
73.8801 3.8732765 -4.6237526 -9.045495 -53.398674 39.901077 -35.38623 -1.3158209
31.018566 -35.680954 69.567604 51.73837 13.512433 -28.52627 16.420948 26.05538
65.97756 -16.579561 -47.620377 0.13626426 17.703094 -25.782722 8.60631 -29.064688
-7.038942 -10.387715 23.152884 -57.409843 15.502508 141.87825 -4.2391562 33.174465
12.431209 -14.817817 30.184286 -11.498022 18.693293 68.43811 3.932226 32.189995
49.08312 83.00505 119.35118 13.820661 -18.332054 -74.008804 -21.033918 -25.951626
0.816668 83.59734 -6.037436 66.09959 -5.1074905 9.288239 -101.205475 -5.773717
11.691449 39.791252 15.472981 -27.663603 -3.092904 70.35069 21.931229 -22.382914
83.48981 31.90311 91.25262 11.066574 61.38781 7.370495 6.009091 2.0697691
135.41896 22.45515 13.747494 -82.18318

model/batch_normalization/batchnorm/mul_1;model/batch_normalization/batchnorm/add_1;model/dense_1/MatMul;model/activation_1/Relu;model/dense_1/BiasAdd f4 [100, 100]
00000000: 15ce 3f3e 55e7 2abf 0ff7 283e f929 cb3c
00000010: c3e1 9e3f 92db 913e 0ea6 79bf 7827 4dbf
00000020: fa59 f63d d29d 253f d0ee 0b3f 9d7f 833e
00000030: c3c6 fc3d b1aa ee3b 339e 1cbf c5a6 2f3d
00000040: dfe1 523e 3254 babf d4ef 523e b216 a7be
00000050: a141 42bd 4357 9c40 6c03 b83b 73c0 a63b
00000060: 6111 d3bd f328 663b f24a 413d d902 1dbf
00000070: d036 2b3e c127 3ebe 4378 25bd bcd7 053f
00000080: a8a3 603b 0959 cebe 3c43 adbd 4a58 87be
00000090: cdd3 13be 2588 4bbe 866c 0cb9 7cd8 363e
000000a0: fbbd 0c3f bda7 943f f60b c63e 3465 743e
000000b0: 8687 b4be 93eb 3abe 3b8b 273e 8daa 36bc
000000c0: 9e30 363f fb1f a53d 94a6 5f3c f9a9 0bc0
000000d0: fbe3 273f b580 9140 8175 aa3d e351 0fbd
000000e0: 7b6b 90bd 1605 db3e 589d 1240 6e73 ea3e
000000f0: 0f65 cd3e b42f d7bd c9e9 493e 96aa 77bf
00000100: 74c3 b63e 4740 dbbe b500 bdbd 91a1 8d3e
00000110: 5475 2bbe c0aa 3f3f 9660 153f 5402 37be
00000120: 3ca5 0fbd cd93 81bd 0f15 1d3f 86de dfbe
00000130: 8301 eebe 8a15 b53c 6ef1 d83c feba be3e
00000140: dd1e 13bf 715b 553e 50e0 95be 66c7 23be
00000150: b59d 6ebe 61c2 95bc ad1a 74bd 91e5 c7be
00000160: 0feb d0bd ec67 fabd b522 58bf 39c2 8f3f
00000170: 1946 c33d ffc9 e0be 74d3 01be d150 033e
00000180: f264 823e f0f8 f5bd 1ed7 d8be 9d0d f9bd
00000190: bc1f 71bf f17b 91bf 3dae a7be ae4d 783d
000001a0: da30 68bf f69a 0740 ec13 023f 5c70 833e
000001b0: c74e 573d ffb5 f5be 82a2 aa3e 45e8 b43d
000001c0: 4175 88bf a475 a2bd 6991 79be a68c 49bf
000001d0: 4055 cf3d ec99 c9bf e5fb 64bf 6342 683e
000001e0: a69b 99be aea9 a8bf a7ac e7bc 4f94 b8bd
000001f0: f0d7 353e ed48 2bbe 010d e5be a53f 683e
00000200: 81bb 88be 4b44 db3d 2650 11bc 8c79 893e
00000210: 56bf c53d 8de5 a5bd 655c bebe aa07 1a3e
00000220: 1ba1 f7be bfe4 e2bf e8bf 32bf 2fd2 45bf
00000230: 2cef 1a3e 6423 a7be 6074 79bf 9f16 0ebe
00000240: 19c8 3cbe 8a8d 90bf 6e5b 283e 3098 9fbd
00000250: 38af c5be 175b 7a3e f477 8cba 3d3e 2440
00000260: 2ec1 b13b 67ca 373f 9d46 993c 8d98 98be
00000270: 954c 6dbf c221 6b3f 4f0b 933d 8b41 2b3e
00000280: 7a15 4e3e a468 013f 5a70 2bbe 1783 54bf
00000290: 85a6 3cbf 0831 03bf e2e0 383e df7e 793f
000002a0: ac87 90be c1c2 95bd 8ea6 e5bd d99c 983e
000002b0: e489 863c 9ccf ce3d d6ac b5bd 9b9f f53b
000002c0: c0a5 f2be 0dbb 29bf 7756 133f c09d 9d3d
000002d0: fd35 9d3e 84c0 6abf d461 a53e 337b 3c3f
000002e0: ba48 d0bd ada4 e33d 7813 373e 904f 4e3e
000002f0: 754b 363e fc77 66bd e455 43bf e173 523f
00000300: 1972 fbbe 47f0 12bf 9b90 14bf 4a49 afbd
00000310: 631c 32be 2ae0 7dbf 799c 42bf 26bc bcbe
00000320: 025d 6d3f ca39 23bf ad89 2cbe a369 fd3d
00000330: b848 813f 8097 87bd 85ca 7f3f 099d a6bf
00000340: 0d8a 70bf d3a0 32bf 2e86 17be ca82 f43f
00000350: a662 38bd f9ce 883d 9c4a 3bbe 11a4 073f
00000360: 5431 b03e ca46 01bf 076a 9bbf 30b5 f53b
00000370: bd10 23be b0e3 afbf d5b8 91bd 85f3 f93d
00000380: 4476 3ebb a6c1 bb3d b6b3 ffbe e6d6 16bd
00000390: 7b48 613f aa6c be3e 9330 4c3f b36e 2a3f
000003a0: 7d09 37be e348 a43e a53a 473f e136 45bd
000003b0: 9410 cbbd 7b4f 543e c839 013f b283 5ebf
000003c0: 13be 8b3e 3268 71bd 6744 8a3f 8d86 573d
000003d0: 5e87 263e 1fb4 97bf 57e7 583f 2316 d1bd
000003e0: 8ac0 cbbf bb71 2abd 8731 0a3e 5d3d 3a3f
000003f0: eb98 67be 2a7f 75bd ac87 073e 9f23 653e
0.18730958 -0.66759235 0.16500495 0.024800288 1.2412647 0.2848783 -0.97519004 -0.8013835
0.120288804 0.6469394 0.54661274 0.256833 0.12342598 0.0072835316 -0.6117889 0.042883653
0.20593975 -1.4556944 0.205993 -0.32634503 -0.04742587 4.885652 0.0056156423 0.0050888597
-0.10306049 0.0035119622 0.047190614 -0.6133247 0.16720128 -0.18569852 -0.040397894 0.5228231
0.0034277234 -0.40302303 -0.084600896 -0.26434547 -0.14436264 -0.19876154 -0.00013391869 0.1785602
0.5497739 1.161369 0.38681 0.23866731 -0.35259646 -0.18253927 0.16361706 -0.011149061
0.71167934 0.080627404 0.013650555 -2.1822493 0.65582246 4.5469613 0.08323193 -0.034990203
-0.0705175 0.42777318 2.2908535 0.4579119 0.40116164 -0.105071455 0.19718088 -0.9674467
0.35695994 -0.42822477 -0.092286505 0.27662328 -0.16743976 0.7486992 0.58350503 -0.17871982
-0.03506969 -0.06327019 0.6136026 -0.4372446 -0.46485528 0.022104997 0.02648231 0.3725204
-0.5746897 0.20835663 -0.292727 -0.15994033 -0.23302348 -0.018281164 -0.059595753 -0.39042333
-0.10201084 -0.12226853 -0.8442796 1.1231147 0.095348544 -0.4390411 -0.12678319 0.12823798
0.2546764 -0.12010372 -0.4235162 -0.121608 -0.9418905 -1.1365949 -0.3275012 0.060620956
-0.9069954 2.118833 0.5081165 0.2567166 0.052565362 -0.47990415 0.3332711 0.088333644
-1.0660783 -0.079325944 -0.24371876 -0.7873024 0.10123682 -1.5750098 -0.8944686 0.22681575
-0.30001563 -1.3176782 -0.02828057 -0.090126626 0.17758155 -0.16727038 -0.44736484 0.22680528
-0.26705554 0.10706385 -0.0088692065 0.26850545 0.09655635 -0.08100424 -0.37179866 0.15041986
-0.483651 -1.7726058 -0.69824076 -0.7727384 0.151303 -0.32644188 -0.974432 -0.13875817
-0.18435706 -1.1293194 0.16441128 -0.07792699 -0.38610244 0.2444881 -0.0010716901 2.5662987
0.00542464 0.71793216 0.018710429 -0.29803887 -0.9269498 0.91848385 0.07179891 0.16724221
0.2012538 0.50550294 -0.16742077 -0.8301253 -0.7369159 -0.5124669 0.18054536 0.97459215
-0.2822851 -0.07312537 -0.112134084 0.29807165 0.016423173 0.10098192 -0.088708565 0.007495833
-0.47392082 -0.6630104 0.5755381 0.07696104 0.30705252 -0.91700006 0.323012 0.7362549
-0.101701215 0.11115394 0.1787852 0.20147538 0.17802222 -0.05626677 -0.76302934 0.8220807
-0.49110487 -0.57397884 -0.5803315 -0.08558901 -0.17393641 -0.9917017 -0.7602001 -0.36862296
0.92720044 -0.63760054 -0.16849394 0.12373664 1.0100317 -0.06620693 0.99918395 -1.3016673
-0.9396065 -0.6977665 -0.14797279 1.9102414 -0.045015953 0.06680102 -0.1829018 0.5298472
0.34412634 -0.5049864 -1.2141732 0.007498406 -0.15924354 -1.374136 -0.07115332 0.12204651
-0.002906219 0.09167795 -0.49941796 -0.036826037 0.8800122 0.3719228 0.7976162 0.66575164
-0.17874713 0.32086858 0.7782386 -0.04814804 -0.099152714 0.20733444 0.5047879 -0.869197
0.27293453 -0.05893726 1.0802125 0.052618552 0.16262576 -1.1851844 0.84727997 -0.102093
-1.5918133 -0.041612368 0.13495456 0.7274988 -0.22616927 -0.059935726 0.13235348 0.2237687

model/dense_2/MatMul;model/activation_2/Relu;model/dense_2/BiasAdd f4 [100]
00000000: e4f3 7442 333f 7ec2 5dea 96c0 3f46 88c2
00000010: 9f42 01c1 b447 9241 7086 0242 7ae1 0e42
00000020: b724 6bc1 fbc6 0440 8565 69c1 3747 c5c1
00000030: cafc 4240 0aff 5741 f2dd e440 3266 59c2
00000040: 0d3b 42c2 03cb ac41 8d6d a6c0 0b5b be40
00000050: 72fd 0d42 b88a 1e41 aa60 0d42 8a51 6641
00000060: cff2 29c0 9d7f 6641 237a a9c0 47ed 4742
00000070: b2a3 a5c1 2ab1 2141 8a74 8b40 31ae 2841
00000080: 2859 0e42 2025 3cc1 a4e2 0942 d767 3bc2
00000090: 4155 a142 dee7 d4c1 ebc7 27c2 26f0 c0c1
000000a0: 43b5 13c1 0a21 68c2 8b22 cac0 cd86 90c1
000000b0: adcb dbc1 22bd 3042 e5b1 b1c1 d41a 63c1
000000c0: 6a0f 2ac2 5c23 5741 9882 8a42 7d87 8242
000000d0: 8e2d 1541 12c4 e6c0 eea9 0541 4b5c 2c41
000000e0: 15bc 0541 3ae0 4542 6d2c 0442 998b fac1
000000f0: fa4d 8dc1 f35b 65c0 86b5 79c1 0670 f042
00000100: 3376 0e42 a9a8 2f41 bc67 52c2 6877 ffc1
00000110: 0745 dd3e 9ae7 0a42 57f4 0ec3 0870 6841
00000120: 803e 2cc2 4afc c841 d6ee 3bc2 7c75 bdc1
00000130: b41e e941 c1b8 eec1 e41c 1ec2 1d1a 0a42
00000140: a0ea 6942 3f87 0242 eec4 0f42 97ab d441
00000150: fc13 31c1 6287 60c2 75da 25bf a28d 2842
00000160: 3723 1042 c6cd e241 a814 59c2 014e a141
00000170: 5e68 ca40 da8c 0d40 c229 10c2 82d9 4042
00000180: 2162 7842 d69e 0642 7588 1741 9f0c 77c1
61.238174 -63.561718 -4.716109 -68.1372 -8.078765 18.285011 32.631287 35.720192
-14.696464 2.0746448 -14.587285 -24.659773 3.046679 13.499765 7.152093 -54.3498
-48.557667 21.599127 -5.200873 5.9486136 35.497505 9.908867 35.3444 14.394907
-2.6554449 14.406156 -5.2961593 49.981716 -20.70493 10.105753 4.357976 10.542527
35.587067 -11.759064 34.47133 -46.851406 80.66651 -26.613216 -41.945232 -24.11726
-9.231753 -58.032265 -6.3167167 -18.06582 -27.474451 44.1847 -22.211863 -14.19405
-42.515053 13.446133 69.255066 65.264626 9.323622 -7.2114344 8.353987 10.772532
8.358418 49.46897 33.043385 -31.318163 -17.663074 -3.5837371 -15.606817 120.218796
35.61543 10.978677 -52.601303 -31.933304 0.43216726 34.726173 -142.95445 14.527351
-43.061035 25.123188 -46.98324 -23.682365 29.139992 -29.840212 -39.528214 34.5255
58.479126 32.632076 35.942314 26.583784 -11.067379 -56.13221 -0.64786464 42.138313
36.03439 28.350475 -54.270172 20.163088 6.32524 2.211722 -36.04078 48.21241
62.09583 33.655113 9.470815 -15.440581

model/batch_normalization_1/batchnorm/mul_1;model/batch_normalization_1/batchnorm/add_1;model/dense_2/MatMul;model/activation_2/Relu;model/dense_2/BiasAdd f4 [100, 100]
00000000: 5394 3ebe a788 edbd 34e1 893e 5bc5 17bd
00000010: d22a 60be 92af 22be 75db f43d cdb2 323b
00000020: 62f6 613e f7a4 c3bc 21dd 083e a78b 3d3e
00000030: 210e cb3d dcb9 ebbd 723a 72be dbed 6b3d
00000040: 09a1 333b fd40 4ebe 7824 2c3e e4aa 9bbd
00000050: 2a9b 14be 58d7 99bd fbb6 8a3d 77d6 173e
00000060: 0add c6bd 16a8 b5bc 9a96 14bc c7e2 413b
00000070: 77b4 32be 41bf bfbd 7177 22bd 0296 823c
00000080: 5c59 89be 2471 b2bc 1b9f 33bd 6ac1 3a3e
00000090: f179 3fbd c548 3b3d 2001 923d 0a00 dbbd
000000a0: cb72 37bd 64ac 3ebe 13f3 a0be c9be b73d
000000b0: 267f 633d 6c4c 473c 959a edbd 065e 9fbd
000000c0: 8252 e8bd 2faa 9ebc 682f 753d e4af 5b3d
000000d0: 3b07 ae3b 80d8 88bd 967f 22be 15da bbbd
000000e0: 20e2 e53c bb35 b23c 784c 463e 796d bcbc
000000f0: 3987 363e 3221 f9bd 3e8f b83d 5494 82be
00000100: 9a81 9c3b 991d 0a3d f85e 743d 0aa9 52bd
00000110: f9f1 26bc ef5a fb3a b7e1 58be 98c1 0bbe
00000120: 8d2a 08bd b430 79bd 26d4 84be 37b6 86bd
00000130: 4eec 743d 90a8 25bd 44b8 6fbd d4cd a9be
00000140: ae42 4c3d 72eb 97bd d033 7b3d 775f 623d
00000150: 2adc e2bc 2b9d 87bb af0f af3d ae38 59bc
00000160: 59f5 14be 0791 d63c dcd7 b53d 13c5 18bd
00000170: 9679 94bd 3413 45be e477 b7be c1d6 913e
00000180: fd46 4a3e 4a61 fcbe 3a04 0f3e 52e9 50be
00000190: 0e4a 543d c1ee 85bc 81d1 0fbd 911f a5bd
000001a0: f0df f63c 52cb f03c 57e1 a33d 7d9c ce3c
000001b0: 1a5b 283d 5ccb 56bd b06e adbc 8925 dcbb
000001c0: 6764 cfbc 7770 73bd 7f35 a93d 2448 553d
000001d0: b56a cfbc 41a7 a5bc 408b edbd a68d 5e3c
000001e0: c285 b6bd 726e f63b 80bf 993d 1fff 093e
000001f0: 0f4b 5c3d 3387 c0bb bf4c 25be febb 0cbe
00000200: 5671 a8bd e0cc 28bd a5cb 4f3e 4c73 903e
00000210: 86b1 313e 74d9 4c3b 1bed 653d 7dc8 d3bd
00000220: 2eb8 2e3d ca42 e53d 9fce 95bd da13 8a3c
00000230: 9f40 1bbd 5b08 5dbd 6663 45bd 1a53 bdbc
00000240: 8d17 ea3d 8420 b63d 4050 9a3d 5780 5b3d
00000250: 440a 993d 07f5 f93d 68e4 b53d d04e 91bd
00000260: a758 763e 5492 763f 9ae8 973c 95ab 503d
00000270: bd31 123e 1324 aa3c e3ef 39bc cf84 123c
00000280: bc67 023d 3f76 10be d8a9 b53e 8246 8fbc
00000290: 3a0e 0d3d 70c7 0b3e a195 0abe 85ae 75bb
000002a0: eeae b03c 2e47 86bd 82d8 a8bd 6932 9f3a
000002b0: 5fc2 bbbc dfb4 8e3e 1b3c 8a3b 2798 05be
000002c0: 8a64 4c3c 514e bd3d 8a02 84bd 8f19 b5bd
000002d0: 0230 9e3d 61bb 0abc cbd5 8e3c 8d51 f43d
000002e0: 2a60 713b 2a66 e4bc 8129 bfbc 9521 453d
000002f0: e5c5 e4bb 87ea 793d a997 013f 8daf a63c
00000300: 9f25 6fbe f3ca 183e 3906 3b3d 762b 97bd
00000310: 636f 56be 5cd3 083d 5dad d2bd 2fb6 a7bb
00000320: a5f5 db3e 2d49 803e 0bb4 9ebc f824 d33d
00000330: 5b42 adbb 688f 22bd adfe b83d c02e 843c
00000340: a231 f5bc 2d8d 1d3e 3648 0b3d 1b2a e33c
00000350: 3052 1abb a0ee 8abd 77b4 0dbd 3630 4dbe
00000360: 2182 523d a9ac 0b3d 8ef1 68bd 595d 43bd
00000370: c8b3 513e ee4f 9eba 2ef8 233c 6a34 193d
00000380: 5252 3cbd 89c8 8cbd 94be d3bc 22bf 84bd
00000390: 34f3 92bc 1890 fd3c c401 543c c58a 203e
000003a0: f45c a1bd 0640 973d ebae 11be f624 8bbd
000003b0: b5ae b53d 89d1 ea3c 307c cabc c497 883d
000003c0: b584 0e3d f531 f83e ca7b 97bc 4c06 923d
000003d0: b8d8 343e b7e2 953c ff29 b2bc a84f b83a
000003e0: 94c9 d1bd c264 8d3d c419 e83d 99d8 133c
000003f0: 17e0 3abd 06b9 243a 6f1a 86bd ff48 cabb
-0.18611269 -0.1159833 0.2692963 -0.037053447 -0.21891335 -0.15887287 0.119559206 0.0027267218
0.22066644 -0.023882372 0.13365604 0.18510304 0.09914804 -0.11510059 -0.23655108 0.057599884
0.0027409217 -0.20141979 0.16810787 -0.07600954 -0.14512315 -0.07511777 0.06773182 0.14827906
-0.097101286 -0.022174876 -0.009069109 0.0029584633 -0.17451654 -0.09362651 -0.03966469 0.01594067
-0.26825988 -0.021782465 -0.043852907 0.18237844 -0.04674715 0.045723695 0.07129121 -0.10693367
-0.04478721 -0.1862045 -0.3143545 0.08971936 0.05554118 0.0121642165 -0.1160175 -0.077816054
-0.11343862 -0.01936826 0.059859663 0.05363454 0.0053109205 -0.06681919 -0.15868983 -0.09172455
0.028061926 0.021754136 0.19365108 -0.02300142 0.17825021 -0.12164535 0.09011696 -0.2550379
0.004776192 0.033719633 0.05966088 -0.05143074 -0.010189527 0.0019176881 -0.21179853 -0.13648069
-0.033243705 -0.060837463 -0.25943106 -0.065777235 0.05979567 -0.040443957 -0.05852534 -0.33164847
0.04986828 -0.074179545 0.06132871 0.055266824 -0.027692873 -0.004138609 0.08547913 -0.013258142
-0.14546718 0.026192201 0.088790625 -0.03729732 -0.07249753 -0.19245607 -0.35833657 0.28484157
0.19753642 -0.49292976 0.13966456 -0.20401505 0.051828437 -0.016349198 -0.035111908 -0.080626614
0.030136079 0.029393826 0.080019645 0.025221104 0.041102506 -0.052440032 -0.021170944 -0.0067183417
-0.02531643 -0.059433427 0.08262157 0.05207075 -0.025319437 -0.020221354 -0.115988255 0.013583576
-0.08912231 0.0075204903 0.07507229 0.13476227 0.05378252 -0.005875492 -0.16142558 -0.13743588
-0.08224742 -0.04121101 0.20292528 0.28212965 0.17352876 0.0031257542 0.056134325 -0.103409745
0.042656116 0.1119438 -0.073148005 0.01685517 -0.037903424 -0.053963047 -0.048190497 -0.023110915
0.11430273 0.088929206 0.07534838 0.05358919 0.07472661 0.122049384 0.08881456 -0.070951104
0.24057256 0.9631703 0.01854353 0.050944883 0.14276786 0.020769155 -0.011348697 0.008942797
0.03183721 -0.14107607 0.35481143 -0.017489675 0.034437396 0.13650298 -0.13533641 -0.0037488055
0.021567788 -0.06556545 -0.082444206 0.0012145761 -0.022919832 0.2787237 0.004218591 -0.13046323
0.012475142 0.09243453 -0.06445797 -0.088427655 0.077240005 -0.008467526 0.017435929 0.11929617
0.0036831 -0.027880747 -0.02333522 0.04812773 -0.0069815987 0.06101468 0.5062204 0.020347381
-0.23354195 0.14921169 0.04566023 -0.073813364 -0.20940928 0.033404693 -0.10286973 -0.0051181535
0.4296085 0.2505583 -0.01937296 0.103097856 -0.005287451 -0.039687544 0.090329506 0.016135573
-0.029930893 0.15385886 0.034004413 0.027730038 -0.0023547523 -0.06783795 -0.034595933 -0.20037922
0.05139363 0.03410021 -0.05687099 -0.047696445 0.20478737 -0.0012078264 0.010007901 0.0374035
-0.045976944 -0.068741865 -0.02584771 -0.06481768 -0.017938234 0.030952498 0.012939874 0.15677936
-0.078790575 0.073852584 -0.14226882 -0.06794159 0.08871213 0.028664367 -0.02471742 0.06669572
0.034794528 0.48475614 -0.018491644 0.07130107 0.17660797 0.018296583 -0.02174854 0.0014061825
-0.10243526 0.06903984 0.113330394 0.009023809 -0.045623865 0.0006283674 -0.065480106 -0.0061732526

model/dense_3/MatMul;model/activation_3/Relu;model/dense_3/BiasAdd f4 [100]
00000000: e6af d1c1 0db4 1342 c367 b4c0 3796 b2c0
00000010: 0fb5 5041 d4f6 1bc1 bc2b 5140 b96e e440
00000020: e9d9 1e42 ae71 ca41 dec3 0442 d94f 3742
00000030: 385e 1f42 1d38 4641 b2bb 1741 725e ac3f
00000040: ce78 8cc1 9675 4941 c8a0 5b40 9a05 e13e
00000050: 3e4c e541 3027 a6c0 ee63 22be c0a3 cc41
00000060: 7c49 3042 4d3d 4c42 b2f8 bb41 607a a7c0
00000070: c2ec 87c1 32f2 0ec2 a869 0741 5db1 8e41
00000080: 31c3 1041 3587 0cc1 e805 2d41 671d 8042
00000090: 5979 0dc1 6ac9 9c41 f7b7 ecc1 f3c8 1e41
000000a0: dd13 d941 e779 0a42 30dd 3642 a3d5 f6c1
000000b0: a486 db40 72fb 3141 f55e b5c1 4466 4941
000000c0: 8034 a341 cfe5 48be d5fd 9140 15f3 f4c1
000000d0: 699c 79c1 482d e2c1 aa14 e1c1 a0cb 9c41
000000e0: 3d8e c9c0 a4fc 75c1 0024 0741 e343 a541
000000f0: dc25 3940 add9 1141 fe8e 8640 6112 a041
00000100: 9bc8 24c1 206a 8641 085c b940 6dcd 4f3f
00000110: 1273 3941 9f32 8fc0 fba9 8a3f 20f9 5b41
00000120: 1af8 5140 b19b a5c1 5c32 fb41 e04f 29c1
00000130: ab10 f8c1 7f65 3641 05bd 36c1 6a62 1ec2
00000140: 9498 01c2 0153 83c0 be65 97c0 0e36 d241
00000150: 3c9a b0c0 c6b6 93c1 b061 5841 a1cd 9b40
00000160: 2ca1 8ec1 e79c 6441 0689 a2c0 ab50 f941
00000170: 102a a1bf aa72 ecbf 4da6 8641 9829 45c2
00000180: 4ba7 4fc0 ddda 9941 4555 e541 e1b5 2bc0
-26.210888 36.92583 -5.637666 -5.580837 13.044204 -9.747761 3.2682943 7.138516
39.712803 25.305508 33.191277 45.827976 39.84201 12.3887 9.483324 1.3466322
-17.558987 12.5912075 3.4316883 0.43949586 28.662228 -5.1922836 -0.15858433 25.579956
44.071762 51.059864 23.496433 -5.2336884 -16.990604 -35.73652 8.463295 17.836603
9.047654 -8.78301 10.813942 64.05743 -8.842126 19.598347 -29.589827 9.92406
27.134699 34.619045 45.716003 -30.854315 6.8601856 11.123888 -22.671366 12.587467
20.400635 -0.19618915 4.5622354 -30.618692 -15.600686 -28.27211 -28.13509 19.599426
-6.298613 -15.37418 8.446289 20.658148 2.8929358 9.1156435 4.204955 20.008974
-10.298976 16.801819 5.7924843 0.8117283 11.590593 -4.4749293 1.0833124 13.748322
3.280768 -20.701021 31.39959 -10.582001 -31.008139 11.399779 -11.421147 -39.596107
-32.399002 -4.1038823 -4.7311697 26.276394 -5.5188274 -18.464245 13.5238495 4.868851
-17.828697 14.288306 -5.0792265 31.164389 -1.2590961 -1.8472493 16.831202 -49.29062
-3.2445858 19.231867 28.666636 -2.682976

model/batch_normalization_2/batchnorm/mul_1;model/batch_normalization_2/batchnorm/add_1;model/dense_3/MatMul;model/activation_3/Relu;model/dense_3/BiasAdd f4 [100, 100]
00000000: d377 e13d 9cb2 77bd ef29 f13c eb88 2a3d
00000010: a761 403d b5b8 ddbd 24ce 633d 8c2e 393e
00000020: 1ae7 b5bd 13b7 163e d71a 71be a25d edbc
00000030: c8da c4bd a213 8cbd e4c4 173d 4cbf 373d
00000040: 379e 1fbc 1856 233e 8565 653d 1e9d b23c
00000050: bcab 2cbc 117f aabc 5e74 023f 8d2b a8bd
00000060: d230 57bc 8745 37bc d440 013e 3337 473d
00000070: 827f 54be 5e77 e7bd bafe f3bd 58d0 69bd
00000080: 06a4 933b 3205 aebb 18f6 3abe c315 ffbd
00000090: 2b44 e73d 224d 94bd 812d 92bd 77ad b03b
000000a0: 4731 58bd fa7e 80bb cff3 83bc 105f 803e
000000b0: 9c8f 80bc c2ae aebd 8b98 c13d 4539 e8bd
000000c0: efcf f33d 3a9f 803e 37f9 933d d99d aa3d
000000d0: e44a da3d 859d 043e 2e2c 19be 536a 703d
000000e0: 43a8 ae3d 8c30 803e 2282 1b3e 3660 ccbd
000000f0: 8f42 08be 78e6 2e3c 9112 783d 426d e3bd
00000100: 1741 f83a 50a5 a33c 692b 84c0 de20 283d
00000110: 8b6e ca3d 3b43 023e 9320 57bd 63af 58bd
00000120: 5c52 80bd 14dd e2bc ee33 833d 9598 e73d
00000130: 1f68 16bd 145e bd3d bfb5 023c 4ecb a23d
00000140: 5a62 e3bc 5e66 81bd b54c 9ebb 2bf7 8ebc
00000150: bf91 94bc 73c0 693c 0f3c b33d 8607 36be
00000160: 678c 953e 6391 e33e 6b3f 8cbd 8fd3 47be
00000170: af66 d43c e7e4 0f3e 36fe 623d d04f b43b
00000180: 1e36 243b 5ffc a1be dc4a c1bd 3806 f3bc
00000190: 7493 85be 82f4 84bc 4df0 99be dace 9abd
000001a0: 9e77 813d ddec 223d 3332 813d 2cc2 1a3e
000001b0: 09bf 14bd 7b00 88be 0636 823d 8c5d 583e
000001c0: 3b66 52bb 992d 83bd 6a86 6b3e bff2 8bbb
000001d0: 8bc6 063d 853c e0bc c1a9 23be 6da9 03be
000001e0: cca0 603c a95a 5b3d b3aa 0fbe fb12 9ebd
000001f0: d1ef 863d 5755 36be 576b 763e 1240 f23d
00000200: 11c5 4e3e 1e47 193e 4b77 84be d97c 6c3e
00000210: a612 f93d 7787 e43d b138 56bd 7eba dfbd
00000220: f437 583d a6c6 cf3d 3121 f0bc 4ca5 983e
00000230: 3304 2ebe a1e9 e7bc 29da 12bd fe59 16be
00000240: b422 163e 4457 4f3d 80cc ac3c 0eca 0cbf
00000250: eeb6 9cbd 54ee 83be 5a2b 57bc 63de a13e
00000260: 6d28 7abd f322 7abe 204f 1cbe ef2c 8cbd
00000270: c53f 9f3c 27c1 94bc d2c2 83be 1f48 3d3e
00000280: e148 173e daef 7a3e c15b 943d e1d9 03be
00000290: e25d 953d 5dc6 dabd 6591 263e c6a8 56bd
000002a0: 5323 8f3d 75f9 4abd a717 aabd e179 b13d
000002b0: a285 003e 6544 a63c 90c1 a0bd 4d8e 39bd
000002c0: 1514 7bbc efce 6cbd 535e c6bc c8c0 7f3e
000002d0: 1889 aabd f8f1 25be 1bc0 9f3d 94b3 8dbe
000002e0: dbce 48bd 5e13 5e3c f36c 613e bd82 87be
000002f0: cbbb 72be a597 9f3c dec8 e73d 07d9 3c3e
00000300: 8248 223e 8b67 8a3c 1278 c4bd ffb1 87bd
00000310: 903a 4d3d 9c63 10be ccf7 2bbd 5734 a03c
00000320: 88c9 8f3d b005 f63d f595 4fbd 7612 37bd
00000330: 8448 b53d 6d0a c73d 4143 2a3d f43d 893d
00000340: 0fdb 053e 704c 113d f708 bfbd dd96 953d
00000350: eee3 c83c 0fd4 59be 9768 d93d 9d45 e73d
00000360: 0165 663e dc26 73bc 98f3 64bd 1185 123e
00000370: 8e77 d4bd 0387 0f3d 4626 8ebb 9bbf 36bd
00000380: 6016 0ebe 080e 933d 854d 80bd a4fa 933c
00000390: 4837 493d 8633 34bc f8ed ccbd 4938 a4bd
000003a0: 5752 93be c0a9 e33b 6923 52bd 3ce3 9bbd
000003b0: 0e42 fa3d f513 d43d 23e9 0e3c 746c 5dbe
000003c0: c486 1e3d 9354 d8bc 2df6 30be 2f86 eb3d
000003d0: d1c0 b4ba e387 43be 24c3 85bc 94fd e0bd
000003e0: ae5c 14be 0fa7 90bd ed7a 61be 5671 a4bb
000003f0: e7fd e63d 379e e3bb fd26 a5bb 512e 33be
0.11009183 -0.06047307 0.02943894 0.04163448 0.04696813 -0.10826246 0.055616513 0.18084162
-0.0888197 0.14718275 -0.23545395 -0.028975312 -0.09612042 -0.06839682 0.037053004 0.04486017
-0.009742311 0.15950811 0.05600502 0.021803435 -0.010538992 -0.020812543 0.5095881 -0.08211432
-0.013134198 -0.01118601 0.12622386 0.048636626 -0.20751765 -0.11302064 -0.119138196 -0.057083458
0.004505637 -0.005310678 -0.1825794 -0.124553226 0.11292299 -0.072412744 -0.071375854 0.0053917724
-0.05278137 -0.003921387 -0.016107468 0.25072527 -0.015693478 -0.08529426 0.094529234 -0.11339048
0.119048946 0.2512148 0.07225268 0.08330888 0.106588155 0.12950714 -0.1495826 0.05869515
0.08528187 0.25037038 0.1518636 -0.09979288 -0.1330664 0.010675065 0.06056458 -0.11104824
0.0018940297 0.019976288 -4.130299 0.04104697 0.09884366 0.12720959 -0.0525213 -0.052901637
-0.06265709 -0.027693309 0.06406389 0.113083996 -0.03672039 0.092464596 0.007977902 0.079489335
-0.027756859 -0.06318353 -0.0048309215 -0.017451843 -0.018135903 0.014267075 0.0875169 -0.17776307
0.2920868 0.4444686 -0.068480335 -0.19514297 0.02592787 0.14052163 0.055418216 0.0055026785
0.002505667 -0.31637856 -0.094381064 -0.029666051 -0.2608906 -0.016229872 -0.30066147 -0.07558985
0.06321643 0.03977667 0.06308403 0.15113133 -0.036314998 -0.26562867 0.063579604 0.21129435
-0.003210439 -0.064051814 0.23000494 -0.004270881 0.03290419 -0.027372608 -0.15982725 -0.128576
0.013710212 0.053553257 -0.1402996 -0.07718464 0.0658871 -0.17805992 0.24064384 0.11828627
0.20192362 0.14968535 -0.25872263 0.230945 0.1216176 0.1115865 -0.05230016 -0.109242424
0.052787736 0.10145311 -0.029312702 0.29813612 -0.1699379 -0.028309645 -0.035852585 -0.14682767
0.14661676 0.050620332 0.021093607 -0.5499581 -0.076520786 -0.25767767 -0.013132894 0.3161498
-0.06107371 -0.24427395 -0.15264559 -0.06844508 0.019439587 -0.018158508 -0.25734574 0.18484543
0.14773895 0.24505559 0.07244063 -0.12876083 0.07293297 -0.10682366 0.16266401 -0.05240705
0.069891594 -0.049554307 -0.083052926 0.08665825 0.12550977 0.020296285 -0.07849419 -0.045301724
-0.015324612 -0.057814535 -0.0242149 0.24975884 -0.0832693 -0.16205585 0.07800313 -0.2767607
-0.049025398 0.013554422 0.22014217 -0.26466933 -0.2370445 0.01948149 0.11317609 0.18442164
0.15847972 0.016895076 -0.09593214 -0.06625747 0.050104678 -0.14100498 -0.041984364 0.019556208
0.07020861 0.120128036 -0.05068012 -0.04469534 0.08851722 0.097187854 0.041568045 0.0670127
0.13071845 0.035473287 -0.09327882 0.073041655 0.024522748 -0.212723 0.10615652 0.112925746
0.22499467 -0.014840808 -0.05589637 0.14308573 -0.10374366 0.035040867 -0.0043380586 -0.044616323
-0.13875723 0.071804106 -0.06264786 0.01806385 0.049124986 -0.010998612 -0.100063264 -0.08018548
-0.28773758 0.006947726 -0.0513033 -0.07611701 0.1221963 0.10355369 0.008722576 -0.21623403
0.03870274 -0.026407516 -0.17281409 0.11500203 -0.0013790374 -0.19094805 -0.016328402 -0.10985866
-0.1448848 -0.07063114 -0.22019549 -0.0050183935 0.11278897 -0.006946351 -0.005040048 -0.17498137

model/dense_4/MatMul;model/activation_4/Relu;model/dense_4/BiasAdd f4 [100]
00000000: 7c76 64c0 39c0 1941 e7eb 94bf 119a f640
00000010: 9793 3cbf eb84 e5bf 280e 9640 3bbf d740
00000020: 5e31 0b42 8967 1141 8688 dfc0 02af fcc0
00000030: 53cc 1e42 70c0 4141 13de 38c1 8ced a9c1
00000040: f329 adc0 1dd2 b9c0 9da7 2d41 3234 51be
00000050: e9fd e4c0 ca2b 43c1 2543 2d41 16c6 9a40
00000060: 8598 0442 cdc9 2241 cc98 8241 59fb c13e
00000070: 53f6 ca40 862d 7cc1 63e8 ad41 c2e9 8bbf
00000080: b069 d241 42b5 5140 d86f 9b41 e734 2bc1
00000090: ffe6 4fc1 7273 4541 02bc d341 5d7d 1a42
000000a0: 0d9f 2c42 ed63 1d41 76e6 afc0 121f d43f
000000b0: ea1c 4742 ecff 9dc0 c978 7ac1 6257 45c1
000000c0: aff1 ccc1 35eb de3e 1d5f 0d42 959e 8f41
000000d0: 5c10 463e 9b23 6340 1468 8f41 968a 97bf
000000e0: 1c54 be41 960b 9041 742d 7a41 d7c9 8d41
000000f0: 1cec 73c1 9445 6f41 a8aa 19c1 f343 4741
00000100: 9f98 2f41 c1c0 e141 1424 ffc0 4af8 6b41
00000110: 9287 fa41 3740 1142 0941 6640 4002 1942
00000120: 60fb 1b41 f951 30c2 cb90 f940 c784 0b42
00000130: 71d2 0a42 afa2 4b3c 8a0d a041 2e68 47c1
00000140: 43b7 f941 926e bd41 c7ad 9840 e743 81c1
00000150: 805c f6c0 da91 f8c0 efc0 b841 8a92 1741
00000160: 36f6 6141 42c8 b740 b46a 58c1 fb5d f741
00000170: af9d 9841 fce1 bd40 4e9b 1d42 94e1 0942
00000180: dce1 6cc0 7924 b8c1 108e 2542 ee74 4cc0
-3.5697317 9.609429 -1.1634492 7.706307 -0.73662704 -1.7931188 4.689228 6.7420936
34.79821 9.087777 -6.9854155 -7.8963633 39.699535 12.109482 -11.554217 -21.24099
-5.4113708 -5.8068986 10.853421 -0.20430067 -7.155995 -12.198191 10.828893 4.8366804
33.148945 10.174268 16.324608 0.37887076 6.342569 -15.761114 21.73847 -1.0930712
26.301605 3.276688 19.429611 -10.700416 -12.993896 12.340685 26.4668 38.622425
43.155323 9.836896 -5.4968824 1.6571982 49.778236 -4.9374905 -15.654489 -12.333834
-25.61801 0.43538824 35.342884 17.952433 0.19342178 3.5490482 17.92582 -1.1839168
23.791069 18.005657 15.636097 17.723555 -15.245144 14.954487 -9.604164 12.454089
10.974761 28.219118 -7.973154 14.748117 31.316196 36.31271 3.5977194 38.252197
9.748871 -44.08005 7.798925 34.879665 34.70551 0.0124289235 20.00661 -12.4629345
31.214483 23.67899 4.771213 -16.158155 -7.6987915 -7.767804 23.094206 9.473276
14.12261 5.7431955 -13.526051 30.920889 19.076994 5.933836 39.401665 34.47029
-3.7012854 -23.017809 41.388733 -3.1946368

model/batch_normalization_3/batchnorm/mul_1;model/batch_normalization_3/batchnorm/add_1;model/dense_4/MatMul;model/activation_4/Relu;model/dense_4/BiasAdd f4 [100, 100]
00000000: 1bd4 d0bd ac28 0a3b 17b5 9f3c dcb9 42be
00000010: dd84 5cbe fdc0 e63d d446 183b dcca 843a
00000020: 235c 3abe b75b 8e3d 0670 9abc e60e 0e3e
00000030: 235e 87bd 286f 263d 3de3 ac3d a305 bd3d
00000040: 86cf aebd a520 acbd 8ec6 afbd cfbc 20bd
00000050: 1396 b33c 640c c43e 0bd8 0d3f 4c94 2a3e
00000060: 8680 7abd 7283 ca3c d38d 3b3e b702 643c
00000070: 8e44 bdbe aab0 94bd 1159 66bd 9682 9cbe
00000080: d96c ae3a 6f71 aebd 3663 36bb a3f3 853d
00000090: 37c5 643e 5325 bfbd 0db2 17be 1a7c a13c
000000a0: 1601 8fbe d7e5 073d c810 903a 6360 5b3b
000000b0: a89a c03d 2f91 a03d a2ac 1fbd 1551 97bc
000000c0: 0f42 723e f7a8 6cbc fbd2 9e3d ebe4 d73d
000000d0: 7e04 813e 8faf fcbb ad39 013d 3043 843d
000000e0: 347b 0cbd 9b2d b73d c5f0 013d 6c09 3e3e
000000f0: ce39 aabe e139 2fba 1304 a63d edf2 153d
00000100: 9dec cbbc 4514 a4bc 94aa 143e 8417 cf3b
00000110: bd27 6c3d 3a4c 623d 63dd 0d3d 1d1c 1b3d
00000120: c7c6 4c3e e95d b93b 20f1 e9bc a55d 54be
00000130: 92e6 4dbe 37e8 a7bd ae68 7cbb 1f80 3a3d
00000140: bf98 fd3d 0929 aa3a f7a7 b73d c542 97bd
00000150: b2a1 c13d 5041 5b3d 95f9 9bbd 0148 e23c
00000160: 8ba6 90bc f8f1 b5bc 3f24 0bbd 7e5d a03d
00000170: de38 3e3e ad0a 843c d04e c2be 5711 193d
00000180: 35b8 5e3e eb7c cc3d 1403 af3c e4c3 a33d
00000190: 0de0 f23d 021e 033d d636 38bb 87c7 c33d
000001a0: 7a65 54bd 05ab 9abc feaf ea3b 3c2a 8b3e
000001b0: a1af 74be a42b 133d 2316 81bd 484f 3c3e
000001c0: 2850 ffbc 9298 5bbd b532 d93d b184 c93d
000001d0: aaa5 49bb 51c8 453d e952 913d 3eaa eebe
000001e0: 7286 68bd 8fdc b5bd 3ead a5bd ac3f 1f3e
000001f0: a4a9 16be 82ce 233d 9948 d8bd 53fd 9f3d
00000200: bd71 4c3c 4cbe 4f3e af82 b23c c627 02be
00000210: 9ac4 d9bc 1108 7ebd a37d 433e 1ff6 9cbd
00000220: b4b3 e83d a6c3 7a3c 4ca6 85bc 357d 773d
00000230: c9d5 d33d 7f8e 0dbe dd94 dc3c 3c03 093d
00000240: 6d92 da3d 9523 a93c 5c1f 053e 52dd 9fbd
00000250: 61cc 0bbe 2513 0a3d 7c79 993b 92d6 393e
00000260: f62b 33be d1e6 173e c301 a33c 90bb c2ba
00000270: 580f 0bbe 0c21 f9bd cb4e 0ebd 670d 80be
00000280: 6655 343e a3d4 7dbc c7ae 18be be58 693d
00000290: bf55 ba3d 1723 2fbe 0b99 7abc 13da 32bc
000002a0: b6f4 8d3e 8958 183e f297 5cbc dc59 f1be
000002b0: 057b 5fbe 9f46 153e 0f32 2cbd 89f3 83bd
000002c0: 6f34 e5bd 8d20 873e c74b 453d 8caa a0bc
000002d0: b6a9 d9bd 5b3f 813d 446b 8dbe 62f4 01be
000002e0: 0b7c 0fbe 43a5 40be ff09 0e3e d1c6 8abf
000002f0: 6f97 e4bc 6b98 b13c be31 883d cd01 43be
00000300: 812e 2abe 7d5a a6bd 1e17 a0bc 7b1c 873d
00000310: 9b0b ea3e ef1b 033e c64a fe39 200e 193e
00000320: a1d9 09be 26c1 163e 007b c73e cd97 543e
00000330: e5af f83d 6d4f 78bd 5a9e 5f3d acae 173e
00000340: 03ee 72bc e414 48bd af8b 8cbe 254f 963e
00000350: 3f1b a93d 5b77 7f3d 5a86 a0ba 40a5 e53c
00000360: 3899 663e 56ae e83d d84a 71bc 37d5 fc3d
00000370: ffae 1a3d b4b0 46bd 8931 5fbd 17d1 e3bb
00000380: 09e5 04bd 2a84 6fbe 81cd 563e 966f 2fbc
00000390: e5c8 49bd 8fd0 223e e880 a73c 4f5e 213c
000003a0: 50e2 b9bd e15d 6c3d 4f2d 253c b9d0 87be
000003b0: 9963 8b3d c4d8 68bc 0ff9 ecbd 548c cebd
000003c0: 4196 2ebd 889b d5bd 1afd 46be e77f cfbc
000003d0: 87da 37bd 3b9e 0a3b 905b 96bd 9d78 023c
000003e0: af45 0a3e f668 efbd 05e4 1b3c abe6 ecbe
000003f0: 6d2e a13d 703b ed3d e05a f4bc e741 063d
-0.10196706 0.0021081371 0.01949553 -0.19016212 -0.21535058 0.11267278 0.0023235576 0.0010131258
-0.1819921 0.06951087 -0.018852245 0.13872871 -0.06609752 0.04063335 0.0844178 0.09229591
-0.08535676 -0.08404664 -0.08582793 -0.039242562 0.021922147 0.38290703 0.5540778 0.16658133
-0.061157726 0.024720881 0.1831582 0.013916663 -0.36966366 -0.072602585 -0.056237284 -0.3056838
0.0013307586 -0.085177295 -0.002783013 0.06540611 0.22340856 -0.09333291 -0.14814015 0.019712497
-0.27930516 0.033178177 0.0010991329 0.00334742 0.09404498 0.078401916 -0.038982995 -0.01847128
0.23658012 -0.014444581 0.07755085 0.105417095 0.2519874 -0.007711358 0.031549145 0.064581275
-0.034297183 0.089442454 0.031723756 0.18558282 -0.33247226 -0.0006684345 0.08106246 0.036608625
-0.0248931 -0.020029197 0.14518195 0.006319942 0.057655085 0.055248477 0.03463496 0.037868608
0.19997703 0.005656947 -0.02855736 -0.20738848 -0.20107487 -0.08198588 -0.0038514542 0.045532342
0.1238265 0.00129822 0.089675836 -0.07385782 0.09454669 0.053529084 -0.07615963 0.027622225
-0.017657539 -0.022210106 -0.033970114 0.07830332 0.1857638 0.016118372 -0.37950754 0.037370052
0.21749957 0.09984764 0.021363772 0.079963475 0.118591405 0.03201104 -0.0028108857 0.09559541
-0.051854588 -0.018880377 0.007162093 0.2718066 -0.23895122 0.03593029 -0.0630305 0.18389618
-0.031166151 -0.0536123 0.10605375 0.09839762 -0.003076891 0.04828674 0.07095892 -0.4661426
-0.056768842 -0.08879959 -0.08089684 0.15551633 -0.1471315 0.039991863 -0.10560722 0.0781199
0.012478289 0.20287436 0.02179083 -0.12710485 -0.026583005 -0.06201941 0.19090895 -0.076641314
0.11362401 0.015305435 -0.016314648 0.06042214 0.10343511 -0.13823889 0.026926452 0.03345035
0.1067246 0.02064685 0.13000244 -0.078058854 -0.13652183 0.033709664 0.0046836715 0.18148258
-0.17497239 0.14834143 0.019898301 -0.0014856923 -0.13580072 -0.12164506 -0.03474311 -0.25010225
0.17610702 -0.015492591 -0.14910422 0.056969397 0.09098386 -0.1710323 -0.015295277 -0.010916251
0.27725762 0.14877523 -0.013463961 -0.4713887 -0.21824272 0.14577721 -0.042039927 -0.06442935
-0.111916415 0.26392022 0.04816797 -0.019612573 -0.10628073 0.06310912 -0.276209 -0.12690881
-0.14012162 -0.18813042 0.13871 -1.0841924 -0.02790424 0.021679124 0.066501126 -0.19043656
-0.16619302 -0.08122728 -0.019542273 0.06597229 0.4571198 0.12803625 0.00048502366 0.14946795
-0.13461925 0.14722118 0.3896103 0.20761032 0.12142924 -0.06062262 0.054594375 0.14812726
-0.014827254 -0.048848048 -0.2745032 0.29357257 0.0825715 0.062369686 -0.0012247071 0.028032899
0.22519386 0.11361377 -0.014727317 0.12345355 0.037764546 -0.04850836 -0.0544906 -0.0069524157
-0.032444987 -0.2339026 0.20976831 -0.0107077565 -0.049263854 0.15899871 0.02044721 0.009849145
-0.09076369 0.057706717 0.010081603 -0.2652643 0.06806106 -0.014211837 -0.11570942 -0.10085359
-0.042623762 -0.10430056 -0.19432488 -0.025329543 -0.04488614 0.0021151442 -0.07341683 0.007963327
0.13503145 -0.116899416 0.009514813 -0.46269736 0.07870183 0.115836024 -0.029828489 0.032777693

model/dense_5/MatMul;model/activation_5/Relu;model/dense_5/BiasAdd f4 [100]
00000000: 1cc7 4540 c549 1242 304d 5ec1 f3a2 4141
00000010: add0 9841 47fb 47be 4528 2b42 42d4 8641
00000020: a72b 1bc0 290d 7e40 c98d e041 00ce 7dc0
00000030: d6dd 8240 c7e9 fe41 73b4 c5c1 8431 9941
00000040: 4692 79c1 20c2 2541 384f 9141 a3ea 1cc1
00000050: a9a0 7742 b923 cac1 c71a cc41 8735 e241
00000060: 781b e041 8550 8b41 d2da 7ac0 9d8d b940
00000070: e44d 3941 8d9d 9441 99a9 a0c1 b70c 78bf
00000080: fd02 85c1 446b 7ec1 a9c1 c040 188d f441
00000090: 2454 2c41 cdab dc41 c741 dc40 d469 11c2
000000a0: b8b9 d741 2a32 d2c1 4efd 8741 46c7 6041
000000b0: 7f85 9641 3c0d 87c1 d53f 7541 b31b 8a40
000000c0: e5c4 03c2 8cf2 9e41 1e33 56c0 625e 6b41
000000d0: 868f b2c1 09cf 02c1 0b41 7f41 f01c f8bf
000000e0: 5162 15be 56ee 3541 5fd8 6d41 d852 0242
000000f0: a521 a741 58b7 49bf fd06 d741 ee3d fc41
00000100: 717c 56c0 bd55 b641 956e 9ebf b42d 58c1
00000110: dd05 78c1 3c9e f340 a668 eac1 e8fe d041
00000120: 5b69 1642 853e b041 56b8 1bc1 e364 2c3f
00000130: 8328 e040 85ba 3dc1 f7be cebf f75d 58c2
00000140: 7296 6b42 d9ba bbc1 756e fa41 8b07 f841
00000150: d043 e2be 18d8 8441 8fd8 3940 a3dd ab41
00000160: 76e6 64c1 3883 e5c0 3b25 82c1 e90b 6241
00000170: 05cc b0bf 81f6 433f 72e7 b43f 3158 ce40
00000180: 2823 b041 1df2 9641 5414 5641 b60b 9140
3.0902777 36.57204 -13.893845 12.102283 19.101892 -0.19529448 42.789326 16.853642
-2.4245393 3.9695532 28.069231 -3.9656982 4.0895796 31.86415 -24.71311 19.149178
-15.598211 10.359894 18.163681 -9.807284 61.906895 -25.267443 25.513075 28.276136
28.013412 17.414316 -3.9196057 5.798537 11.581516 18.57693 -20.082811 -0.968944
-16.62646 -15.901188 6.02364 30.568893 10.770542 27.583887 6.8830295 -36.353348
26.965683 -26.274494 16.998684 14.048651 18.815184 -16.881462 15.328084 4.3158813
-32.94228 19.868431 -3.34687 14.710543 -22.32008 -8.175546 15.95338 -1.9383831
-0.14588286 11.3706875 14.865325 32.580902 20.891428 -0.78795385 26.878412 31.53024
-3.3513453 22.791864 -1.2377497 -13.511158 -15.501431 7.6130657 -29.301098 26.124466
37.602886 22.030527 -9.732504 0.6734144 7.0049453 -11.858037 -1.6152028 -54.091763
58.89692 -23.466234 31.303934 31.003683 -0.44192362 16.605515 2.9038427 21.483221
-14.306265 -7.172268 -16.268179 14.127908 -1.3812262 0.7654801 1.4133132 6.4482656
22.017166 18.86822 13.379963 4.5326796

model/batch_normalization_4/batchnorm/mul_1;model/batch_normalization_4/batchnorm/add_1;model/dense_5/MatMul;model/activation_5/Relu;model/dense_5/BiasAdd f4 [100, 100]
00000000: 0088 7abd f8c1 0a3d 1801 103c ca39 963d
00000010: d920 9c3c de03 d73e 4305 c03d 888a 2a3d
00000020: 87f8 943e 9c8a 6ebe c568 9abe 4765 adbe
00000030: 40bc 8e3d acfc 75bd 8187 7b3c 2904 853e
00000040: 18e0 42be 6630 85bc 9673 863d 2b3c 0fbe
00000050: 9a8c 323e e9a6 c939 c2e3 95bd f779 f3bd
00000060: 7813 413d 315f 733c b30b ebbc 7d77 f7bc
00000070: 9945 293e 9a2d 9f3d 6cb4 27be 9637 84be
00000080: 2f64 ebbc a84c 5abc 9a4c 4ebe 8d56 cebe
00000090: e190 c0bd 19a4 9ebd 62ab 7bbc 8ecc e23c
000000a0: 6fbf e73d 66ed 023e fde6 b5bd a40e dfbd
000000b0: 61ec f33b 1be5 cc3d e658 08be 8913 703d
000000c0: d5c1 103d edf6 aabe 46e5 d53d 6f23 913c
000000d0: 0a9e 1f3e 65e6 e73c 2d38 abbc 78c4 b93d
000000e0: 37eb 6dbd 2f80 9cbe ff41 55be 8cac a93d
000000f0: f34e 163e 675f f4bc 9db3 b13c ce82 f63d
00000100: 841c ce3d 7fcd 1e3c 4e6d b5be d70b 29bd
00000110: c73b ffbd c674 77be 257b 0a3d c5cc c0bd
00000120: 3b30 d8bc 7203 b9bd 9d53 01bd 0901 adbd
00000130: 3c3f 57ba f799 d33c 1e71 b43e 14f4 0b3e
00000140: 972a 11be 0342 d1bd a7a9 32be 3b14 993e
00000150: f528 64be e9ce d43d 79b3 463b 315c a73d
00000160: 4b99 63be f25d 5fbe 4aea 4bbe 32b9 6c3d
00000170: 0cc9 de3d b1be 3fbc 4ab9 6d3e 754b 983c
00000180: ceb7 84bc 0f7e e5be b4b1 963d 4f3e febd
00000190: 6445 183d de3c 39bd 29af 87bd feef 23bf
000001a0: cbf1 74bc 1612 0a3f 1108 143c ab87 fcbd
000001b0: 061c 18bc c794 5e3e ebaa a13e a908 a33e
000001c0: 3081 49bd ba38 c43d fe34 6d3e eb4e 89bd
000001d0: 9252 cbbe cb4f 2ebf c3ca a93d 1090 dbbc
000001e0: 3a81 56be fcb6 3fbe 0d1d 8bbc 6b33 963d
000001f0: 8238 2ebd 89d3 73bd e619 bf3b 592d e4bc
00000200: 4962 e0bc d388 ecbd 94b9 95bd bf7d 52be
00000210: 624e 9f3d 04d4 bd3d 70f1 74bd 3961 c8be
00000220: a5d8 ddbe 4690 043d bf2a 253e 45ed 91bd
00000230: 71c1 5b3c 7751 20be 3c84 0e3d cfaf bdbc
00000240: bae1 553d 88ec 47bf b4b3 c83d fa2a b4be
00000250: 853c dc3b bef4 b13d 6382 023e 499e 31bb
00000260: c7de 90be 3b3a 0cbd b8c3 80bd 152e bfbc
00000270: f1b4 f73b 3402 4ebd 92d0 edbd a5e8 46bd
00000280: 6ca6 98bd 6b7c c73b 4c0c 153b e731 abbd
00000290: 7298 96bb a517 0ebe 0fdb 80bd 5b86 bebc
000002a0: 5465 faba da3f 89bc e787 12bf dad0 9dbd
000002b0: 305d 2fbd a069 efbd ff63 0dbe 9af2 f93a
000002c0: 9c02 37bd 2e9a d1bd 84f6 3bbe 118f 113e
000002d0: 3567 883d 9933 cbbc 4f2e 86bb 6be0 af3d
000002e0: c7a1 b8be 0174 cc3d 883a 8b3d 0055 53bd
000002f0: 08e8 e93d 048e 2b3e dfe4 80bd 968d 87be
00000300: 38ec eabc ad81 a8bb 4522 eabb cb7d 11be
00000310: 5af3 1dbe 874f 6fbe ed52 26be 6efe 02bf
00000320: 7f3b e73d 1d0c c73d 7543 c93b 5591 d03c
00000330: 699b c1bc 7564 36be 5c12 80bc 8912 203e
00000340: 34e9 7dbc 01f4 fbbd 7c5f 3dbc 3069 53bd
00000350: 1c91 453d 92c7 8ebe 2f39 f33d 913c f23c
00000360: 552f da3c 0ad3 bbbd 9a23 ddbd b645 6e3e
00000370: 2b1a 793b f215 213e 801f f03c 3608 473d
00000380: 4806 94bd a35e 13bd 0c9d e73c 887f 9fbd
00000390: f818 533e d3c9 7bbd 3829 eabc dea2 febc
000003a0: 68bd 1f3c c40d c3bd 7625 7d3d 5aac a13d
000003b0: 0361 e23d 1928 e8bd 50b1 953d 2b1b c43d
000003c0: 8863 db3d 0c6d b9bd 926e cfbb 2ed2 fbbd
000003d0: b55d 033d 1cd7 cb3d a631 f43c 9dff 723d
000003e0: f324 15bd f073 88bf 694f 893f 964d 13be
000003f0: 26cd 3abe da3b b23d 932f 11be 1164 9ab9
-0.061164856 0.03387639 0.008789323 0.07335241 0.019058632 0.41995138 0.093760036 0.04163602
0.2909586 -0.23295063 -0.30158058 -0.3386633 0.069694996 -0.06005542 0.015352131 0.25979736
-0.19030797 -0.01625843 0.06565015 -0.13987796 0.17436448 0.00038462065 -0.07318832 -0.11888497
0.047137707 0.014854238 -0.028692102 -0.030208344 0.16530456 0.0777237 -0.16377419 -0.2582366
-0.028734295 -0.01332394 -0.20146409 -0.40300408 -0.094026335 -0.07746143 -0.015360685 0.02768543
0.1131581 0.12785873 -0.08881948 -0.10891464 0.00744395 0.10004636 -0.13315162 0.05861238
0.035341103 -0.33391514 0.10444121 0.017717091 0.15587631 0.028308103 -0.02090081 0.090706766
-0.058085646 -0.30566546 -0.20825957 0.08284864 0.14678554 -0.029830648 0.021692092 0.12036668
0.10064033 0.009692549 -0.35434955 -0.041271057 -0.124625735 -0.2416564 0.033808846 -0.09414057
-0.026390186 -0.0903386 -0.03157388 -0.08447463 -0.0008211022 0.025830252 0.35242552 0.13667327
-0.14176403 -0.10217669 -0.1744753 0.29898247 -0.22281249 0.103910275 0.0030319376 0.08171881
-0.22226445 -0.21813181 -0.19913593 0.057793804 0.108781904 -0.011703179 0.23215213 0.018590668
-0.016200926 -0.44822738 0.07358113 -0.12414228 0.03717555 -0.045224063 -0.06625206 -0.64038074
-0.014950226 0.53933847 0.009035126 -0.12330564 -0.009284025 0.21736442 0.31575713 0.31842545
-0.04919547 0.09581132 0.23164746 -0.067045055 -0.39711434 -0.68090504 0.08290627 -0.026802093
-0.20947734 -0.18722147 -0.016981626 0.07334026 -0.04253436 -0.059527908 0.0058319448 -0.027853655
-0.027390616 -0.11549535 -0.07310787 -0.20555781 0.07778622 0.092689544 -0.059800565 -0.39136675
-0.4332935 0.032364152 0.16129588 -0.07125334 0.013412819 -0.15656076 0.034794077 -0.023155121
0.052217223 -0.78095293 0.09799901 -0.3518904 0.0067210817 0.08689259 0.12745051 -0.0027102402
-0.28294966 -0.03423522 -0.062873304 -0.023337403 0.0075594117 -0.05029507 -0.11612047 -0.04856171
-0.074536175 0.00608783 0.0022742925 -0.083591275 -0.0045958096 -0.13876207 -0.06291782 -0.023257425
-0.0019103684 -0.01675408 -0.5723862 -0.07705851 -0.04281348 -0.11690068 -0.13807677 0.0019069493
-0.044680223 -0.102344856 -0.18355757 0.14214732 0.0666031 -0.024804877 -0.004094876 0.08587726
-0.36060926 0.099830635 0.06798273 -0.051594734 0.114212096 0.16753393 -0.06293654 -0.2647521
-0.028677091 -0.0051424117 -0.0071451985 -0.14208142 -0.15424863 -0.23370181 -0.16242571 -0.5116948
0.11290645 0.09719107 0.0061420747 0.025459925 -0.023633676 -0.17811759 -0.015633754 0.1563207
-0.0154974945 -0.123023994 -0.01155841 -0.051613986 0.04823409 -0.27886635 0.11876141 0.029569896
0.026633898 -0.09171112 -0.10797806 0.2326878 0.0038009982 0.15731028 0.029311895 0.048591815
-0.072277606 -0.035978924 0.028273128 -0.077879965 0.20614994 -0.06147177 -0.028584108 -0.03108352
0.009749748 -0.0952411 0.061803304 0.078942016 0.1105366 -0.11335773 0.0730921 0.095754944
0.107123435 -0.09054002 -0.0063303197 -0.12295948 0.032071788 0.09953138 0.02980883 0.059325803
-0.03641219 -1.0660381 1.0727359 -0.14385065 -0.1824232 0.08702822 -0.14178304 -0.00029447724

model/dense_6/MatMul;model/activation_6/Relu;model/dense_6/BiasAdd f4 [100]
00000000: 6478 0ec1 93a7 9940 e387 0541 bf23 943f
00000010: a0a9 ec41 e648 06c1 809a eb40 612b 8641
00000020: c0e9 2ec1 c6fc 8641 1e5c fe41 a8dc 1640
00000030: 34a0 9d40 8e25 d941 52c1 d0c0 7d91 f6bf
00000040: 8051 fb41 90ee 0541 8826 0a42 d2cb 8b41
00000050: 4087 5142 22ca 8c41 f862 10c1 517b b9c1
00000060: 7ee0 1841 8bb5 7941 4911 e33f 050b 8941
00000070: 1e77 dd41 fd5c 0dbf 7784 39c1 c6d0 0941
00000080: e733 4241 2eef 6c40 d9b0 cfbf a921 2d42
00000090: 54cb d0c1 dc93 9841 230f 04bd 7b9a 1c41
000000a0: e42d c041 da92 cd3f 1932 9a41 79f1 abc1
000000b0: 83a6 a141 d545 fe40 646f cdc1 e74d d640
000000c0: 8674 4a41 e261 c340 2f4e c4bf 96e9 b2c1
000000d0: 6bee e33e d17e 6941 32e1 4c41 3fe3 da41
000000e0: 4850 bb41 9278 34c1 232a 8941 f95d 0842
000000f0: c700 8b41 34c2 09c1 195b 4c40 511b 4740
00000100: b643 ebc0 0f74 8741 a5e3 3742 de89 6abf
00000110: 90d2 98c1 26f1 4341 955d ad41 d729 9640
00000120: aab0 09c0 2647 3bbe 8930 8b40 9029 1ec0
00000130: 4d43 5bc1 7bb5 a941 7511 91c1 6fe4 71c0
00000140: 5c3a d6c0 3e9e b140 7765 10c1 9300 b241
00000150: 3f10 b641 6d76 8f41 00fc 5141 c5b5 b340
00000160: d5ca 26c1 d131 0dc0 2c0a 8541 2d55 1ac1
00000170: 06d4 f940 4912 6d41 a226 eb3f b62c 7d40
00000180: f104 0942 f124 f1c0 9b8f c7c1 bb9d 0cc1
-8.904392 4.801706 8.345675 1.1573409 29.582825 -8.392797 7.36261 16.771181
-10.932068 16.873425 31.79498 2.3572178 4.925806 27.143337 -6.5235987 -1.926315
31.414795 8.370743 34.53763 17.474522 52.38208 17.598698 -9.024162 -23.185213
9.554808 15.606822 1.773965 17.13038 27.683163 -0.55220014 -11.59484 8.61347
12.137671 3.7020984 -1.6225845 43.28287 -26.099281 19.072197 -0.032240998 9.787715
24.022408 1.606044 19.274462 -21.492907 20.206305 7.9460244 -25.67939 6.6970096
12.653448 6.1056986 -1.533636 -22.364056 0.44517836 14.593461 12.804979 27.36096
23.4142 -11.279436 17.145575 34.09177 17.37538 -8.609913 3.1930602 3.1110423
-7.3520155 16.93167 45.97231 -0.9161662 -19.102814 12.246374 21.670694 4.6926074
-2.1514077 -0.1828886 4.3496747 -2.4712868 -13.703931 21.213614 -18.133524 -3.7795675
-6.694624 5.5505667 -9.024772 22.25028 22.757933 17.932825 13.124023 5.6159387
-10.42452 -2.2061656 16.629967 -9.645795 7.807132 14.816964 1.8371165 3.955854
34.254826 -7.5357594 -24.94512 -8.788508
