corintho_ai/rating/tflite_models/first_run.tflite (tflite, 521576 bytes, 27 tensors)

model/dense_1/MatMul;model/activation_1/Relu;model/dense_1/BiasAdd f4 [100]
000000 c7 85 ce 41 53 c7 02 40 ff 4f 7e bf 58 7c d7 c1
       25.815321 2.0434158 -0.99340814 -26.935715
000010 66 41 95 42 17 5e 6f c0 5b dc bd 41 41 21 d1 3f
       74.62773 -3.7401178 23.732595 1.6338273
000020 0f 0f f6 40 5e e9 ae c1 34 f1 7a c0 81 d4 20 41
       7.689338 -21.863949 -3.9209719 10.051881
000030 06 4c ef 41 a2 cd f1 c1 27 9a fc c1 dd 61 d6 40
       29.91212 -30.225407 -31.57527 6.699446
000040 b2 d7 50 41 fa 0d 66 41 55 b4 9b 40 97 2e 80 c1
       13.05266 14.378412 4.865763 -16.022749
000050 30 06 b2 40 2e 52 0b c1 10 38 15 c0 41 d6 80 40
       5.5632553 -8.707563 -2.3315468 4.026154
000060 53 1b 94 41 ce 08 bc 41 1f 43 99 bf db 29 bc 40
       18.513342 23.5043 -1.1973609 5.8801093
000070 09 aa 6d c2 ef 96 06 41 0d 21 c9 c1 70 45 3f c1
       -59.41605 8.411849 -25.141138 -11.9544525
000080 f9 db 6f 41 55 4b c3 41 61 0e 3e 40 cf 8d b9 41
       14.991204 24.411783 2.9696276 23.194242
000090 b6 53 bf c1 1c d5 d1 c1 af 2c 09 be f3 d9 a0 c1
       -23.915874 -26.229057 -0.13395952 -20.10642
0000a0 a7 0f 5e c1 75 2b 10 41 63 37 e9 c1 de 3f 28 41
       -13.878821 9.01061 -29.152044 10.515593
0000b0 a8 5a f8 c0 c4 3f c2 41 88 f0 4d c0 b2 c3 88 41
       -7.7610664 24.281136 -3.2178059 17.095554
0000c0 b1 68 6f c1 1b e3 e3 be fd 16 8f c0 f1 40 2b c1
       -14.963059 -0.44509205 -4.471556 -10.703355
0000d0 78 b3 bc 41 9c e7 fa c0 5e 85 47 41 05 5c 49 c0
       23.587631 -7.8407726 12.47006 -3.1462414
0000e0 83 b4 8d 40 a3 c5 53 41 76 c4 d8 40 4a 90 ab 40
       4.428285 13.235751 6.773982 5.3613634
0000f0 33 32 62 41 49 a1 8f c1 c4 1f 19 3d 4d 2e 61 41
       14.137256 -17.953753 0.03738381 14.073804
000100 76 e3 1f 40 74 17 c4 c1 9f f4 91 3f a8 d4 40 42
       2.498258 -24.511452 1.1402777 48.207672
000110 82 a6 fa c0 b0 59 04 40 6c 04 fe c0 31 8e 3a 3f
       -7.8328257 2.067974 -7.93804 0.72873217
000120 c5 c5 05 c2 46 99 90 40 ea 9f d3 41 e3 67 90 c1
       -33.443134 4.51871 26.453083 -18.050726
000130 4c 6f 11 c1 0c 69 56 bf fc f1 3f 41 1f 76 05 40
       -9.089672 -0.8375404 11.996578 2.0853345
000140 82 30 37 41 b5 68 0b c1 44 e2 fc 3f 2a 58 c2 41
       11.449343 -8.713063 1.9756551 24.293049
000150 dd 2d a7 41 51 34 ab 41 d2 78 78 41 1f a1 3b c1
       20.897394 21.400545 15.529497 -11.726836
000160 8e 73 eb c1 32 c0 98 41 35 9d ba c1 15 0f db c1
       -29.431423 19.093845 -23.326761 -27.382364
000170 06 10 80 41 44 c7 97 bf ca bc 02 41 c6 35 b0 c0
       16.007824 -1.1857686 8.171091 -5.506564
000180 c4 16 21 40 3a ce cd c0 c8 da c6 41 c1 76 04 41
       2.5170145 -6.431424 24.856827 8.278993

model/batch_normalization/batchnorm/mul_1;model/batch_normalization/batchnorm/add_1;model/dense_1/MatMul;model/activation_1/Relu;model/dense_1/BiasAdd f4 [100, 100]
000000 f3 3f 6b 3c eb 23 bc 3d 4a f7 16 be ef a8 80 be
       0.014358508 0.09186538 -0.14742771 -0.25128886
000010 02 9e 98 be 65 88 06 3e ad d7 92 be d4 ca 47 be
       -0.2980805 0.13137968 -0.28680173 -0.19510967
000020 f7 1a 61 be 33 bb b2 3e 8a 6a 67 bd b4 8d 85 bf
       -0.21982943 0.34908447 -0.056498088 -1.0433869
000030 c4 2c 12 bf 7e 6a 82 3d 7a 40 03 be 2c 70 8e 3e
       -0.57099557 0.06367968 -0.12817565 0.27819955
000040 47 7b ad bd f3 64 7b be 3c 15 5a bd 86 13 3b 3e
       -0.08470779 -0.24550228 -0.053242907 0.18269166
000050 79 91 31 be 5c 30 fd 3c 33 5c 01 bd 2d 0f 0e bf
       -0.1734065 0.030906849 -0.03158207 -0.55491906
000060 87 6a 6e 3e 03 d2 ab 3e 0d 5b d7 3d 3f bd f7 3c
       0.23282824 0.33558664 0.105154134 0.030241607
000070 f5 55 88 bc e6 b4 0b c0 de de 24 be c1 98 8e 3e
       -0.01664255 -2.1829162 -0.16100642 0.27850917
000080 6f bc 2f c0 25 77 b1 bd c7 51 00 3d d1 57 22 3d
       -2.745876 -0.08665303 0.03132799 0.03963453
000090 c5 b0 64 be 37 86 08 bf 59 e0 f4 bd b7 e3 d0 3f
       -0.22333057 -0.53329796 -0.119568534 1.6319493
0000a0 c3 a1 97 be 9d ec 4b bf 5a 7c 36 be 6c a2 c7 bd
       -0.29615602 -0.7965792 -0.17820874 -0.097477764
0000b0 43 eb 53 bf f0 bf 07 bb 6b 01 70 3d 89 d5 e9 3d
       -0.82780856 -0.002071377 0.058595102 0.11417682
0000c0 92 b4 25 be 67 f3 f2 3e ef 0d aa 3e 94 5e eb 3b
       -0.16182163 0.47451326 0.33213755 0.0071829055
0000d0 f2 aa 18 3e af 79 a5 3e 8b 96 31 3c 19 d4 b4 be
       0.1490896 0.323194 0.010839115 -0.35318068
0000e0 ce f1 89 3d 53 2b df 3d 8b 7f 09 3f f2 a7 8e be
       0.06735574 0.10896935 0.5371024 -0.27862507
0000f0 f4 e7 d2 3f 30 86 14 bf ce 51 9d bd 51 8a b7 3e
       1.6477036 -0.58017254 -0.07681619 0.35847715
000100 11 13 8f bd a8 2a 1d 3d 4a 32 c0 3e f6 7b 0e bf
       -0.069860585 0.03837076 0.37538368 -0.556579
000110 ac 26 01 bb 57 3f 21 bf c2 ad b9 3e 63 ab 25 bf
       -0.0019706888 -0.62987274 0.3626538 -0.6471464
000120 73 4f 77 3d ef bf 88 3e 21 5b 2d be c0 3e b8 be
       0.060378503 0.26708934 -0.16929294 -0.35985374
000130 50 82 a5 3f 87 17 05 be 48 88 6f 3e 73 90 83 3e
       1.2930393 -0.12997256 0.23391831 0.25696144
000140 e8 9a 5a bd f7 2d 97 3e cc d1 b7 bd b6 b6 ae 3d
       -0.053370386 0.29527256 -0.089755625 0.08530943
000150 19 d7 31 3f 0b 43 47 bf 0b 09 24 3d 67 74 44 be
       0.6946884 -0.77836674 0.040047687 -0.19185029
000160 c6 48 0e 3e 11 d2 a4 3c dc 07 82 3e 16 d0 40 bf
       0.13894948 0.020119699 0.2539662 -0.75317514
000170 18 71 ce be 6c 64 b1 be f0 39 ce 3e 21 f9 a6 bf
       -0.4032066 -0.34646928 0.40278578 -1.3044778
000180 5f fa a0 bf 11 8d 32 bd 93 59 18 3f 7f 0a bf bd
       -1.2576407 -0.043591563 0.5951168 -0.09328174
000190 a8 ba 8a bf 34 1d c1 3e 8a 4f db 3d b3 05 34 be
       -1.0838213 0.37717593 0.1070853 -0.17580299
0001a0 1a 40 57 3e 9a 65 11 3f 32 94 01 bf 05 1b 9f bc
       0.21020547 0.56795657 -0.50616753 -0.019422064
0001b0 23 62 80 3e 49 bc 87 3e f5 44 8a 3e bc cc c9 bf
       0.25074872 0.26510838 0.27005735 -1.5765605
0001c0 51 c6 5e 3e cb fe dd 3d 51 f1 0a bf ac 13 d0 3c
       0.21755339 0.108396135 -0.5427447 0.025400005
0001d0 89 3e 14 bf f1 cb 02 3d 39 ca ea bc 98 01 e8 bc
       -0.5790792 0.031932775 -0.02866088 -0.028321072
0001e0 2f 64 de 3d a9 27 23 3f fa 84 f3 3d 13 eb be be
       0.10858952 0.6373239 0.11890598 -0.37288722
0001f0 1c 8d fe 3d 69 81 51 3f b2 30 1d bf fb 64 b5 3c
       0.12429258 0.8183809 -0.6140243 0.022142878
000200 52 07 32 40 16 13 02 3e 76 30 21 3e 96 50 95 3e
       2.7816968 0.12702593 0.15741143 0.29163045
000210 5b 7a e7 be a6 ca 36 3f 40 5b db be 6d 91 04 3e
       -0.45210537 0.71402967 -0.42843056 0.129461
000220 9f 2c 05 3f 4f 36 7d bd 5a 82 d8 be 28 b3 5b bf
       0.5202121 -0.06181937 -0.4228695 -0.85820246
000230 2c 0d 0c 3f df 36 89 be 84 46 27 bd 4d eb 27 bd
       0.547076 -0.26799676 -0.040838733 -0.040995885
000240 63 78 b3 3e 05 1f 28 3e 3c 59 a4 3e ec b3 5a be
       0.35052785 0.16418083 0.3209933 -0.21357697
000250 ce 48 8b 3e 90 4e 08 3e 38 20 b6 3e c1 6a f7 3c
       0.27203983 0.13311219 0.35571456 0.030202271
000260 ea fa ea bf 86 53 26 3e e6 88 d8 bf 79 9c c9 3e
       -1.8357823 0.16242799 -1.6916778 0.39377192
000270 16 53 c7 be 19 7f 96 be 6d d6 93 3e aa 84 6f be
       -0.38930577 -0.29393843 0.2887453 -0.23390451
000280 54 72 a2 be c6 50 35 bf 63 94 03 be 11 0e d7 3c
       -0.3172785 -0.70826375 -0.12849574 0.026251825
000290 27 52 f8 bd 3a 66 a7 3e 47 b2 5e 3f 2e ba 1e 3f
       -0.12125044 0.3269518 0.8699078 0.6200284
0002a0 14 07 0f be 04 a9 98 bf d5 8e 29 be 19 09 d7 3e
       -0.13967544 -1.192658 -0.16558392 0.41999128
0002b0 34 59 39 3f 43 6c 5f be e1 1b 99 be 59 55 bf be
       0.7240174 -0.21818642 -0.29904082 -0.37369803
0002c0 8d 5e a6 3e f2 04 45 bf 65 9c 32 3f ed 85 63 be
       0.32494012 -0.7696067 0.6976989 -0.22219057
0002d0 29 77 fa 3c 3b 74 67 bf 6c bb 38 3e 37 6e a8 bd
       0.030574398 -0.9041173 0.18040246 -0.08224147
0002e0 90 81 8e be 7a 03 03 bd ac b8 2a 3f 3c 67 4e 3e
       -0.27833223 -0.031985737 0.66688037 0.20156568
0002f0 6f 04 95 3e 3f dc 84 be fb f0 38 bf ab 8f c9 3c
       0.29104945 -0.25949284 -0.72242707 0.024604639
000300 1d 98 de bc 94 18 49 3d 69 64 00 bf f1 5d c9 3d
       -0.027172143 0.049095705 -0.50153214 0.09832371
000310 fb 73 f7 3e 9f 57 8f 3d f0 fb 08 bf 9c 1c 45 3f
       0.48330674 0.06999134 -0.53509426 0.7699678
000320 95 7d 8a be 7f cc 92 3d 35 a9 13 bf 2f e4 24 be
       -0.27048936 0.07167911 -0.57680064 -0.1610267
000330 8f a9 0e 3e 3d db 0e 3f ac 0d 5b 3e fd 79 f9 3d
       0.13931869 0.5580328 0.21391934 0.121814705
000340 64 04 1f 3d 1f 31 f3 3c 63 74 0b 3f ec 11 df be
       0.038822547 0.029686509 0.5447447 -0.4356836
000350 8a 49 bb 3d 77 b9 f8 3e b5 40 1a 3e 22 f4 b3 bd
       0.09144886 0.48578998 0.15063746 -0.08786799
000360 3a 33 1a 3f e9 bd e9 be ff e7 28 3e 71 38 0b 3f
       0.60234416 -0.45652702 0.1649475 0.54383
000370 c3 33 e0 40 17 92 69 3e e7 5b 14 3d 1c e8 74 3d
       7.0063186 0.22809635 0.036220457 0.05979167
000380 7f ff 13 bf 51 16 00 3f 60 0c 27 bf 8a 21 90 bd
       -0.5781173 0.5003405 -0.6525326 -0.07037647
000390 c1 18 33 3f 8d b3 d0 3f 79 90 8c 3e ba 17 19 3d
       0.69959646 1.6304795 0.27453974 0.037376143
0003a0 86 1f d6 c0 7b 08 d5 3e 2e 41 2a 3e 88 89 60 be
       -6.691348 0.41608033 0.16626427 -0.21927464
0003b0 6d a6 2c 3f b7 5c 4e be 3f be 93 3e d2 6e 14 3f
       0.67441446 -0.20152555 0.28856084 0.579816
0003c0 50 60 3b bf 8a aa 36 3f 54 75 22 3e 73 ee 64 be
       -0.73193836 0.7135397 0.1586507 -0.22356586
0003d0 77 d1 3a bc 5b 51 a3 3e fc 0d 5d 3e 89 41 2a bd
       -0.011402479 0.31898007 0.21587366 -0.041566405
0003e0 95 ee 67 bd 26 97 74 be 4e 46 8b be 50 8e 88 3e
       -0.056624014 -0.23885784 -0.27202076 0.26671076
0003f0 5d 8f 16 41 91 2e f6 3e fe 01 41 3f 4c c7 ad bd
       9.410001 0.48082402 0.75393665 -0.084852785

model/dense_2/MatMul;model/activation_2/Relu;model/dense_2/BiasAdd f4 [100]
000000 3e 4b 17 41 36 60 1c 41 aa f9 45 c1 ce 1e ae 41
       9.45587 9.773489 -12.373453 21.765041
000010 60 65 a9 c0 f9 19 bb c0 4f 69 9c bf 52 a1 ef 3e
       -5.293625 -5.8469205 -1.2219638 0.46802765
000020 71 91 0d c0 49 54 2c 41 7b 7a 9c c0 64 f4 19 41
       -2.212002 10.770577 -4.889951 9.622166
000030 dc 21 ae 41 b1 e1 19 3f 46 f4 9f c0 64 87 59 c0
       21.766533 0.6011 -4.9985685 -3.3988886
000040 e3 1b 4d 41 a1 3a 96 c1 8a f9 e2 c0 9a fb 49 41
       12.819308 -18.778627 -7.0929613 12.623926
000050 4f 34 44 c1 6c 57 bf 41 f8 26 3b c1 e0 97 46 c1
       -12.262771 23.917686 -11.697014 -12.412079
000060 cb cf a0 40 85 77 c4 c0 fe 77 93 41 fa 23 c3 c0
       5.0253654 -6.13959 18.43359 -6.0981417
000070 f1 0b c0 3f 72 2f a1 40 35 a4 d6 40 e6 32 6b 41
       1.5003644 5.0370417 6.707545 14.699926
000080 cc 5a 5b 41 47 7e 6a 41 eb ad 90 bf 18 c2 da c0
       13.709667 14.655829 -1.1303076 -6.836193
000090 70 73 1a 41 1d 67 0b c0 e1 12 cb 40 29 ea 19 c1
       9.653183 -2.1781685 6.3460546 -9.619668
0000a0 f6 da 2b c1 a5 99 3f 3f af f2 f2 40 08 89 57 40
       -10.740957 0.7484382 7.5921245 3.3677387
0000b0 8f 5c a9 c0 51 75 99 c0 a8 dd ca c0 3a 87 df be
       -5.2925487 -4.795571 -6.3395576 -0.43657857
0000c0 67 42 0f 41 a5 e2 b9 41 c5 29 bf c0 4f 3f 23 41
       8.9537115 23.235666 -5.973849 10.202956
0000d0 36 6e 6b 41 e3 d7 b4 bf b0 5c c5 c0 6a ef 82 41
       14.714407 -1.4128383 -6.1675644 16.366901
0000e0 48 a0 93 41 b2 20 cd 41 f8 b2 ba c0 76 a0 17 c0
       18.453262 25.640965 -5.834347 -2.3691688
0000f0 c2 aa 4c c1 56 61 28 41 4c f4 d3 c0 06 20 71 41
       -12.791689 10.523764 -6.6235714 15.070318
000100 0c 6e 4f c1 8b ee 22 c1 33 7c 0f 41 d2 ed 1c c0
       -12.964367 -10.183238 8.967822 -2.4520154
000110 73 28 4e 41 ff f8 3c 40 c5 2a 7c 40 a4 5a e0 c0
       12.884875 2.9526975 3.9401104 -7.0110645
000120 e6 59 27 c1 53 3a 24 c1 68 d4 a2 40 42 4e e4 40
       -10.459448 -10.264239 5.0884285 7.134553
000130 2a 15 43 c1 bf c0 bb 3f dd f2 99 c0 26 8b 98 41
       -12.192667 1.4668196 -4.8108964 19.067944
000140 eb aa 87 41 91 58 a9 c0 f9 6f ad 40 31 54 28 41
       16.958456 -5.2920613 5.4199185 10.520555
000150 87 c8 1a 41 d9 f9 51 c1 08 53 2c 40 0d 31 e8 41
       9.673957 -13.123498 2.6925678 29.02395
000160 7b f5 2b c0 ab 22 9a 40 05 37 a3 40 f3 55 83 c0
       -2.686858 4.816732 5.1004663 -4.104242
000170 70 fe 37 c0 75 99 79 41 f4 42 d8 c1 ed 52 d2 40
       -2.8749046 15.599965 -27.032692 6.572623
000180 21 0e 11 c0 bb 2f 00 c1 b9 f1 ad 41 16 09 c7 40
       -2.2664874 -8.011653 21.743029 6.219859

model/batch_normalization_1/batchnorm/mul_1;model/batch_normalization_1/batchnorm/add_1;model/dense_2/MatMul;model/activation_2/Relu;model/dense_2/BiasAdd f4 [100, 100]
000000 50 31 02 3d d3 51 2f be 51 58 d6 bc 96 a7 95 ba
       0.03178531 -0.17121057 -0.02616516 -0.0011417742
000010 ec f4 1b 3e c8 5b 0d bd b5 ce 3c bf e6 e1 36 bd
       0.15230149 -0.034511358 -0.7375291 -0.044649027
000020 b8 46 83 bd c0 9a 5e 3e b1 ca e1 bf 60 e9 f3 bd
       -0.06409973 0.2173872 -1.7639982 -0.11909747
000030 ea 41 df bd d1 f3 8e bd d6 e3 b3 bd e9 1e ec 3c
       -0.10901244 -0.06980098 -0.08783691 0.028823333
000040 4d 23 06 3e 52 7c 60 bd 4a af 08 bd 65 4e 83 3e
       0.13099404 -0.05480606 -0.033370294 0.25645748
000050 86 5e 2e bd 54 ce 21 3e c7 bc d4 3c 04 c4 84 3d
       -0.042570613 0.15801364 0.025968922 0.064826995
000060 39 fa e3 bd 39 86 b2 bc e9 9a bc bd e3 2b f9 bd
       -0.111317106 -0.021792518 -0.09209234 -0.12166574
000070 75 6a 8d be 2a cf 7c 3d f1 8b 61 be 67 f4 7a bc
       -0.27620283 0.061721005 -0.2202604 -0.015317059
000080 e1 d3 ff 3d 19 91 95 bd 3e af 52 3d a9 7c 77 3d
       0.124915846 -0.07303066 0.051436655 0.06042162
000090 2d 90 40 3d 55 50 53 bd 3c 1c 0c 3e 4a d2 35 bd
       0.047012497 -0.051590282 0.13682646 -0.04439
0000a0 7b e9 23 be 1a dd 27 be bd 86 67 bd 46 f3 6b 3c
       -0.16007034 -0.16392937 -0.05652498 0.014401263
0000b0 13 eb 61 bb f9 32 14 3e 16 52 e4 3d 3a 43 23 bf
       -0.003447239 0.1447257 0.11148469 -0.63774455
0000c0 93 90 19 bd 0e 4d 3d bd 52 61 a5 bb ac 3f 25 bf
       -0.037491392 -0.046216063 -0.005047002 -0.6455028
0000d0 95 81 5d 3e 67 f9 88 3e 54 16 86 3d 95 e3 21 3e
       0.21631463 0.2675278 0.065472275 0.15809472
0000e0 f9 8f c7 bd 27 7e 7e 3e 63 e9 e6 3c 69 3b 81 3d
       -0.097442575 0.24852811 0.02818746 0.0631016
0000f0 7e 9b b8 bd 18 58 6b be 7d 37 b0 bd f5 1d 49 3c
       -0.09014033 -0.22982824 -0.086043335 0.012275209
000100 2f fd ea 3c 19 23 88 be 16 b3 84 bd ee 1f f4 3b
       0.02868518 -0.26589277 -0.064794704 0.0074500954
000110 72 e0 b1 3d 6a f0 e2 bd b0 15 00 be 8d 2c 4e be
       0.08685388 -0.110810116 -0.12508273 -0.20134182
000120 d6 f3 30 be 99 c5 5f bc 65 9b a4 be ca ad 1f be
       -0.17280516 -0.013657951 -0.32149807 -0.15593639
000130 ef 06 c3 3d 60 d7 e1 3b c7 49 ac be 72 a2 25 3e
       0.09522807 0.00689213 -0.33650038 0.16175249
000140 e1 0d b9 3d 57 eb a6 3d 53 ca 7d bd a1 75 fb bd
       0.0903585 0.08150356 -0.06196053 -0.12278295
000150 ec 0e b6 bd 8c 62 a2 be 94 a9 a6 3c 4a 5c 0e bd
       -0.08889565 -0.3171581 0.020344533 -0.034755982
000160 bd 68 7f bd 2d 70 1a bc d4 e5 66 3d f1 24 19 be
       -0.062355746 -0.009426159 0.056371525 -0.14955498
000170 da 74 b9 bd df 8a b7 bd 63 3c f3 3c 4d 5c 33 3c
       -0.09055491 -0.089620344 0.02969188 0.010947299
000180 93 e5 fe bc d1 e3 1e bd 3f f0 c5 3d 2c 6c 03 3e
       -0.031115329 -0.03879148 0.09664964 0.12834233
000190 9b 0e 23 3d 3a 81 d7 bd 66 93 50 3d dd 6c 91 3c
       0.03980885 -0.10522695 0.05092182 0.017752105
0001a0 a3 c5 52 3e 68 9c 0c be 79 6a 99 be 51 4a 9f 3c
       0.20583205 -0.13731539 -0.29964045 0.019444617
0001b0 53 09 e1 bd 29 e9 5d be 23 dc 1f 3f ad 44 53 3e
       -0.109881066 -0.21670975 0.62445277 0.20631666
0001c0 8c 36 95 3e 69 81 a7 3c 3d 1d 0b 3e f1 8b cb 3c
       0.29143178 0.02044745 0.13585372 0.024847003
0001d0 6c a8 84 3d e4 a8 82 bd e7 ef ca 3d c7 10 4d bc
       0.064774364 -0.063798696 0.09909039 -0.012516207
0001e0 7d 6d dd bc 0b 82 ff 3d 50 38 33 3d c2 ce 39 3d
       -0.027029747 0.124759756 0.043754876 0.045363195
0001f0 f6 50 42 be af 13 ae bc cb b2 f8 3d 6c 1f 85 3e
       -0.18976197 -0.02124962 0.12143477 0.26000535
000200 45 83 67 bd 01 74 72 bd 5d 27 46 be 54 65 32 3e
       -0.056521673 -0.05919266 -0.19350953 0.17421466
000210 e5 ea 56 3c a0 ae 96 3e 70 53 16 be 74 c8 56 bd
       0.013117527 0.29430103 -0.14680266 -0.05243726
000220 b6 20 4e bd f4 b5 45 be 37 c0 23 be bf 09 ac 3d
       -0.050324164 -0.19307691 -0.15991293 0.084002964
000230 b2 05 9b 3d 7a 16 53 3e c6 ab f9 3d e8 b6 87 bd
       0.07569446 0.20614043 0.12190966 -0.066266835
000240 b3 7a d1 3e 96 5a 0d be 65 40 7f bd f4 ce a7 bd
       0.40913925 -0.13804087 -0.06231727 -0.0819377
000250 8f 07 d1 3d 18 31 10 3d 6e 64 43 3d 77 bf 09 be
       0.1020652 0.03520307 0.0477032 -0.13451944
000260 38 3d 76 3d 9f 32 91 bc 42 58 a9 3d 30 08 62 be
       0.060116976 -0.017724333 0.08268787 -0.22073436
000270 7a 25 89 3e 6e 10 36 3e 1d d3 56 be 50 f0 4e be
       0.26786405 0.17779705 -0.20978971 -0.2020886
000280 d7 2a 7c 3d 94 71 73 bb 0a d5 e1 3d 95 73 e6 3d
       0.061564293 -0.0037146555 0.11026962 0.11252514
000290 73 84 32 be 2f 26 62 bd 08 8c 99 bc 66 79 92 be
       -0.17433338 -0.055212196 -0.01874353 -0.28608245
0002a0 5f 32 06 3e 7d fe b3 3e 39 8b 7d bd 70 f6 1a be
       0.13105153 0.35155097 -0.06190035 -0.15133071
0002b0 a5 c9 ee 3d 6e 22 5d 3e 4b 2e 26 be b0 b4 ea 3d
       0.116595544 0.21595165 -0.16228597 0.11460245
0002c0 cc ad 58 be e4 d6 c6 3b 8f c1 fd be 41 75 c1 3a
       -0.21160048 0.0060680974 -0.49561736 0.0014759676
0002d0 cc b4 3c bc 21 bb 01 3d c0 50 e6 bd f1 11 38 3b
       -0.011517715 0.0316726 -0.112458706 0.0028086866
0002e0 4c 2e a6 bc f5 39 02 bd 38 0d 85 be 90 a4 c3 3d
       -0.020285748 -0.031793553 -0.25986648 0.09552872
0002f0 24 69 13 3d db 26 24 be d9 f9 fd 3d fa 0f ac 3e
       0.03598894 -0.16030447 0.1240117 0.3360594
000300 a2 a8 1f 3c 53 e3 2b 3e 45 8e 1c 3e ae 9d 3b be
       0.009744795 0.16785936 0.15288647 -0.18321869
000310 3f 6f 83 bd 6b 78 09 3e 8c 7b ca 3d cb be 07 3e
       -0.06417703 0.13424842 0.09886846 0.13256375
000320 37 c7 1f 3d 68 b8 14 3e 98 1e f6 3d 46 ae a6 3d
       0.039008345 0.1452347 0.12017554 0.08138709
000330 c0 8a 0a 3d 08 61 94 3e bc 34 53 3e 65 cf 25 3d
       0.03382373 0.2898028 0.20625585 0.04048099
000340 a1 cd c8 bc 97 53 32 3e af ba b7 be d3 34 31 bc
       -0.024512114 0.174147 -0.35884616 -0.010815817
000350 3b d2 55 be 9d 0c 81 3e 5b 9b 87 bd 92 89 82 be
       -0.20880978 0.25204936 -0.066214286 -0.25495583
000360 4f f2 4e 3d 84 4e 2a bd e4 80 a2 bd f9 b1 c5 3c
       0.050524052 -0.041578785 -0.0793474 0.024132716
000370 ef c9 68 bd 5f b3 e3 bb 9b 2c aa 3c 3e b1 bd 3e
       -0.056833204 -0.006948873 0.020773223 0.37049288
000380 79 e4 18 3e b1 36 ae 3c ae 9a 8c 3d 33 49 1a be
       0.14930905 0.021266313 0.0686544 -0.15066986
000390 e7 3e 9c bd ee 0f 34 3e ca 1e 32 3b 92 9b e6 bc
       -0.07629185 0.17584202 0.0027178996 -0.028150354
0003a0 12 d3 0b 3e 6a 26 a3 bd f6 86 ee bd 5a 1c 89 3e
       0.13654736 -0.07966311 -0.116468355 0.26779443
0003b0 8d c3 32 3e d9 31 00 3e d3 2a 84 3e d6 af c0 3d
       0.17457409 0.12519015 0.25813922 0.09408538
0003c0 bb a6 8a 3d 29 75 ab bd c1 a5 c8 3d 5e 14 9a be
       0.067700826 -0.08371956 0.0979724 -0.30093664
0003d0 96 94 ce bd 70 42 60 3e 8c fd 09 be b0 8f 98 3c
       -0.10086934 0.21900344 -0.13475627 0.018623203
0003e0 a4 fd d1 3d 03 c9 f0 3d db 50 6d 3c 72 d2 ae 3d
       0.10253456 0.1175709 0.0144846095 0.08536233
0003f0 47 7e 75 bd ba e5 ab 3d db ad cd 3d 14 85 8e 3d
       -0.05993488 0.08393426 0.10042926 0.069589764

model/dense_3/MatMul;model/activation_3/Relu;model/dense_3/BiasAdd f4 [100]
000000 c5 85 a9 bf 32 cb 96 41 77 c7 b2 3f 13 02 1e 41
       -1.3243948 18.849216 1.3967122 9.875506
000010 48 a6 b7 c0 8f a4 57 40 9c f3 83 c0 c3 f2 15 41
       -5.739048 3.3694189 -4.1234875 9.371768
000020 81 d6 48 41 59 84 57 c0 bb 7f 42 c0 a9 40 b9 3f
       12.552369 -3.3674529 -3.039046 1.4472858
000030 e7 84 42 41 fd f9 a2 40 eb 73 8e 41 27 03 85 41
       12.157447 5.093016 17.8066 16.62654
000040 92 33 d4 40 49 77 13 41 14 48 4f 41 c2 1e 5e 41
       6.631295 9.216622 12.955097 13.882509
000050 a6 0b 0a 41 72 48 55 c0 ea 01 df c0 b6 f6 ea 40
       8.627844 -3.3325467 -6.9689837 7.342616
000060 55 89 db c0 3b 95 aa 40 94 bc a5 bf 2e dd 64 40
       -6.860514 5.3307166 -1.2948174 3.5759997
000070 2b 3a 37 c1 4e ff e3 3f 71 0e 3b 40 b7 53 5f c1
       -11.451701 1.7812288 2.9227564 -13.957938
000080 ed 6c 1e 41 59 39 07 c1 3d e3 21 41 fc e1 10 3e
       9.901593 -8.451501 10.117978 0.14148706
000090 64 37 2c c1 49 68 84 41 a7 50 a3 40 32 41 bc 40
       -10.763523 16.55092 5.1035953 5.8829584
0000a0 6b a0 06 41 f2 0f fb bf d5 25 f5 be a0 7e 4e 40
       8.414165 -1.9614241 -0.47880426 3.2264786
0000b0 3b 48 e1 be b0 73 90 41 d0 28 df c0 a8 9c 54 41
       -0.4400042 18.056488 -6.973732 13.288246
0000c0 6d 76 17 41 01 68 c8 bd 96 db a0 bf 41 1e 05 3f
       9.466413 -0.09785462 -1.2567012 0.5199929
0000d0 95 5f a6 3f e4 64 e7 c0 70 cd de 3e 96 b4 44 41
       1.2997919 -7.2310658 0.4351611 12.294088
0000e0 f6 dd 25 c0 53 46 0d 41 f2 e6 67 40 2d 6f 22 41
       -2.5916724 8.829669 3.6234708 10.152143
0000f0 27 74 6e 40 8d 9e 8c 40 ab 04 c9 3f 50 9f 9e bf
       3.7258394 4.3943543 1.570455 -1.2392368
000100 12 54 6a c1 2c 17 9a c0 d7 e4 b4 3f 08 ef d3 c0
       -14.645525 -4.8153286 1.4132336 -6.6229286
000110 af 82 5a c0 78 b7 d8 40 aa cc 92 3f 3b ae 6d c0
       -3.4142263 6.772396 1.1468709 -3.7137592
000120 45 02 e6 40 20 d2 7a 41 1a d2 b8 40 19 63 e8 c0
       7.187777 15.6763 5.775647 -7.262097
000130 6f 43 4c 40 21 2a 2f c0 c5 d4 f0 c0 32 5d ac 41
       3.1916158 -2.7369463 -7.525973 21.545506
000140 70 b7 9b c0 ef 75 82 3f eb dc d7 41 c5 4f 98 41
       -4.8661423 1.019224 26.98287 19.03895
000150 7c 06 3c 40 6d b4 98 40 26 8b c2 40 83 29 6a 40
       2.9378958 4.7720246 6.079486 3.6587837
000160 f3 61 b8 41 b6 65 95 c0 c0 b4 b4 bf 6e 59 1f c1
       23.047827 -4.668666 -1.411766 -9.959333
000170 97 68 25 41 39 87 21 41 23 c8 6b c0 94 0b 69 c1
       10.338035 10.095513 -3.6840904 -14.565327
000180 ef 93 61 41 86 a0 6f 41 98 bd 32 41 f5 4f 0c c1
       14.098617 14.97669 11.171288 -8.769521

model/batch_normalization_2/batchnorm/mul_1;model/batch_normalization_2/batchnorm/add_1;model/dense_3/MatMul;model/activation_3/Relu;model/dense_3/BiasAdd f4 [100, 100]
000000 10 35 b3 bc 72 52 12 3e 91 54 10 3e cd 74 a4 bd
       -0.021875888 0.14289263 0.1409476 -0.080300905
000010 bd a8 46 be 82 db 09 3c 01 d7 5a be 2d cc d2 3d
       -0.19400306 0.008414151 -0.2137108 0.1029285
000020 b5 ea b1 bd c4 12 ca bc 41 b9 d5 bf 20 bd ea 3d
       -0.08687345 -0.024667151 -1.669716 0.11461854
000030 77 a9 f3 bd 0d 13 cf bd 99 3b e6 3e f5 58 1a bd
       -0.11897557 -0.101110555 0.44967344 -0.037682492
000040 41 a9 fe 3d 64 86 a0 be 6d 4d 2d 3d ed 8b cf 3b
       0.12434626 -0.31352532 0.042310167 0.006333819
000050 7c 97 6e bd fb af 48 3e f6 b7 03 be 54 13 84 bd
       -0.058249936 0.19598381 -0.12863144 -0.06448999
000060 3a 6e 99 bd 3c 1b 42 3d 0d f1 fb 3d ec f3 48 3e
       -0.07491727 0.047389254 0.12301836 0.19624299
000070 b1 f1 08 3e 85 b4 fe 3c 76 91 a2 3d 73 3c c3 bb
       0.13373448 0.031091938 0.07937901 -0.005958134
000080 70 51 98 be 55 91 07 3e 09 fd 08 bd ad 03 83 bd
       -0.29749632 0.13239034 -0.033444438 -0.063971855
000090 87 04 2c bc e4 ea 94 3d b7 ce e2 3d d9 93 dc bd
       -0.010499126 0.07271364 0.11074584 -0.10770387
0000a0 bc 9d f7 3e 8e 09 07 3d 09 e0 a0 bd 5b d5 13 3e
       0.4836253 0.032968096 -0.07855231 0.14436857
0000b0 31 00 26 3d 24 db 06 be 2f 48 82 3d d8 72 f1 3d
       0.040527526 -0.13169533 0.06361424 0.11789483
0000c0 b1 21 bc bd ee b6 21 3c dd c6 48 3d 03 02 29 3c
       -0.091861136 0.009870274 0.049017776 0.010315421
0000d0 3e ce a5 3c 13 d8 7d 3e f9 71 5f 3c c0 cf 26 bd
       0.020239946 0.24789457 0.013638013 -0.04072547
0000e0 03 89 ee 3c c8 73 ca 3c 16 a9 4e be aa 1d 44 3e
       0.029118067 0.024713412 -0.20181689 0.19151941
0000f0 ff 97 bd bf 67 1f 99 3d c4 ff 56 3e 10 0e dc bd
       -1.481201 0.07476693 0.20996004 -0.1074487
000100 e3 18 25 be d9 ab 3b 3e 7c e9 49 bd 5d b9 37 bd
       -0.16122775 0.18327273 -0.049294934 -0.04485451
000110 7f e0 3e bc 03 ac 84 3d f4 83 d1 bd 86 e2 30 3d
       -0.011650204 0.06478121 -0.10230246 0.04318478
000120 cf 25 1d 3d 6e 43 72 bd 5d 3d c2 3d b5 62 8b 3d
       0.038366135 -0.059146337 0.0948436 0.06805936
000130 cc 3b bd 3d 08 40 b0 3e 07 16 80 3e b8 15 06 be
       0.09239921 0.34423852 0.25016806 -0.13094223
000140 16 7d 24 be 5b 24 b7 3d c3 24 7a 3e 12 fa 08 bf
       -0.16063341 0.08942481 0.24428086 -0.53506577
000150 ca 14 07 3e d2 df 12 bc 7c c4 3a 3d 0a 44 98 3d
       0.13191524 -0.008964496 0.04559754 0.074348524
000160 d7 72 0a 3e 1e 70 79 be 07 ff 2e bc 72 33 c6 bd
       0.1352037 -0.24359176 -0.01068092 -0.09677781
000170 51 6a 58 be fd cf d8 bd b3 66 f6 3f 91 f7 b8 3e
       -0.21134306 -0.105865456 1.9250091 0.36126378
000180 e2 80 f6 3d 12 72 3a be 18 4b 1a 3d a3 9b 83 bd
       0.12036301 -0.18207577 0.03766927 -0.0642617
000190 f5 cd a9 3d c9 c1 07 bc 95 0a 62 3d e2 9a 99 3e
       0.08291236 -0.008285948 0.055185873 0.3000098
0001a0 86 f5 88 3d 8a dc 97 3d 34 3f e2 3d 60 e9 e1 3d
       0.06687455 0.07415111 0.11047211 0.11030841
0001b0 e2 f2 d5 be 43 ec 27 3e d5 f4 af be 81 eb 73 bd
       -0.41786867 0.1639872 -0.3436648 -0.059550766
0001c0 cc 33 dd bc e5 89 34 3e 90 61 1a be dc 69 e0 3d
       -0.027002238 0.17630728 -0.1507628 0.10957691
0001d0 f6 ad 81 3d 89 39 1e bf 68 78 cb ba e7 7e c5 bd
       0.063320085 -0.6180654 -0.0015523555 -0.09643345
0001e0 88 5d 46 3e 34 0e 49 3d bb 3b 8f 3d 68 4c 49 3b
       0.19371617 0.04908581 0.069938146 0.0030715708
0001f0 fc 0f 53 3e 4c 3d 43 3e 6c 8f 8f bd 77 1a 20 be
       0.20611566 0.19066352 -0.070097774 -0.15635096
000200 2e 19 fd bc 29 80 29 3e 01 2a b4 3d ec 9c ed bd
       -0.030895796 0.16552795 0.08797074 -0.11602196
000210 94 c0 fc 3c f6 56 d8 bd 20 21 62 bd a5 e4 41 3c
       0.030853547 -0.105634615 -0.05520737 0.011834298
000220 4a 57 2a bd 1d 36 11 3a 6b b2 b0 be 0a 51 38 3e
       -0.04158715 0.00055393745 -0.34511122 0.17999664
000230 b0 fe 62 3e ce c6 5f 3e a6 a6 b7 bd 91 ee e5 bd
       0.22167468 0.21853182 -0.089673325 -0.112271436
000240 d6 b7 37 3d 07 96 05 bd c2 b5 5b bd a3 0e a0 bc
       0.044853054 -0.03261378 -0.053640135 -0.01953823
000250 cf 70 36 bd 75 0b 13 be fa 07 80 3d 22 97 cb 3d
       -0.044541176 -0.1435984 0.062515214 0.09940936
000260 fd a6 1f 3d 6d 42 90 3d 27 aa 5b 3d b0 1c b7 3d
       0.03897761 0.0704392 0.053629067 0.089410186
000270 a3 c9 e9 bc e2 40 40 bd 59 e3 47 be 74 ce 38 be
       -0.02853853 -0.046936877 -0.1952032 -0.18047506
000280 54 c9 7c bd 15 80 85 be 35 da f5 bd 16 2e c2 bc
       -0.06171544 -0.2607428 -0.1200451 -0.023703616
000290 a7 78 00 be fe af 5f be 68 0d 39 3d 66 b1 af bd
       -0.12546025 -0.2184448 0.0451788 -0.08578758
0002a0 50 f6 7a 3d 46 a3 8c bd 51 03 e9 3c 0f 51 9f bd
       0.06127006 -0.068670794 0.028443964 -0.077791326
0002b0 42 eb b8 be c7 b1 77 3d 02 96 53 3e 45 13 4d 3e
       -0.36116987 0.060472276 0.20662692 0.20026882
0002c0 ec b5 f7 3d 75 b7 b4 3d 97 e8 2a bd 59 47 9e 3d
       0.12095246 0.08824054 -0.04172572 0.07728452
0002d0 c0 49 aa bd 30 ff 39 bd 5a 86 79 be 5b b0 12 bf
       -0.08314848 -0.04540938 -0.24367657 -0.5730035
0002e0 fa 52 4a 3d ce a1 46 3c 8e 46 71 bd 7c ad 64 bd
       0.04939554 0.012123538 -0.058905177 -0.05582951
0002f0 48 b7 c7 3d 82 e1 96 be dc 7b 8d bd 48 6f 5b b9
       0.09751755 -0.29468924 -0.0690839 -0.00020926923
000300 14 15 73 3e 07 99 22 bd ee d2 58 c1 07 9b 8f be
       0.2373851 -0.03969672 -13.5514965 -0.28047964
000310 e6 72 9a 3a 68 50 cf be ef d6 c0 bc 4e 16 46 bc
       0.001178351 -0.40491033 -0.023539988 -0.012090279
000320 34 a0 80 3e 6a 37 84 bd b5 fd 9f bc b1 84 5d bc
       0.25122225 -0.06455882 -0.019530157 -0.013520406
000330 72 30 9e be e2 17 1b be 88 c1 f2 bd 8b 27 a2 3c
       -0.30896336 -0.1514583 -0.118533194 0.019794246
000340 eb 55 d2 bd 6a 64 81 3d ea a9 56 3f f2 a3 35 be
       -0.10270294 0.063179806 0.8385302 -0.17738321
000350 40 cc 11 3d e9 4d dc bd 68 e0 48 be 3f ca cc bb
       0.03559518 -0.10757048 -0.19616854 -0.0062496956
000360 d6 13 48 3e 46 81 da 3e ca e7 36 bc a8 e2 36 3d
       0.19538817 0.42676753 -0.011163661 0.04464975
000370 22 e5 f6 3c 41 dd 3a 3d 1c 05 00 3e 4b cd 12 be
       0.030138556 0.04562116 0.12501949 -0.14336126
000380 45 24 96 be 4c b3 98 3e 4b c9 e9 bb ae 9b 23 be
       -0.29324546 0.29824293 -0.0071345917 -0.15977356
000390 06 72 a1 3d ac cd 4a 3e 0a 64 90 3c 8d 6f 48 3e
       0.07883076 0.1980502 0.017625827 0.19573803
0003a0 b4 1d 17 3e e5 b6 96 bd 6d a1 25 bd a9 a2 a9 bc
       0.14757425 -0.07359103 -0.04043715 -0.020707445
0003b0 78 5e 64 3d 44 98 80 3d 5f 44 dd 3e 9e ec e1 3d
       0.055754155 0.06279042 0.43216226 0.11031459
0003c0 b3 38 eb 3e 22 29 64 bd 56 3e 8f 3d a8 cc 1c be
       0.45941696 -0.05570329 0.069943115 -0.15312445
0003d0 ae 70 8e 3c 77 35 52 3e bd 77 81 3c 57 b2 42 3d
       0.017387714 0.20528208 0.015804166 0.04753336
0003e0 6e 85 9f be 2c 42 17 3e 57 98 85 be b6 66 34 3e
       -0.31156486 0.14771336 -0.2609279 0.17617306
0003f0 53 1e d7 bb 99 b5 04 be cf f5 08 bd 74 26 c2 bd
       -0.006564894 -0.12959899 -0.033437546 -0.094799906

model/dense_4/MatMul;model/activation_4/Relu;model/dense_4/BiasAdd f4 [100]
000000 cb a4 73 40 c6 fc d9 40 4f d6 07 41 75 58 d4 40
       3.8069332 6.812106 8.489821 6.635798
000010 a9 5e 6d c1 b0 da c6 3f 37 76 d0 bf 0e 4d 45 41
       -14.83561 1.5535488 -1.6286076 12.331312
000020 be 0e b9 41 4e c9 c5 41 83 e1 58 c1 9e ed 6f 40
       23.132198 24.723293 -13.555057 3.748878
000030 76 74 27 bf 36 c0 cb 3e 20 81 07 41 ef b1 13 41
       -0.6541208 0.39795083 8.469025 9.230941
000040 a4 e6 3e c0 9c 0f a0 c0 b7 cd 2b 41 d2 50 30 41
       -2.9828272 -5.0019054 10.737723 11.0197315
000050 97 4a a2 3f 36 43 41 41 7b 29 2d 40 97 dd 9f 41
       1.2679013 12.078909 2.7056568 19.983198
000060 23 07 9f 40 9d d3 c1 c0 79 57 53 40 be d6 49 41
       4.969621 -6.0570817 3.302214 12.614927
000070 e7 a1 4c 41 ab f9 1e 40 77 2c 2c 3e b3 3d 87 40
       12.789527 2.4839885 0.16813837 4.2262816
000080 16 d9 85 3f 32 d2 8d 40 38 a3 69 41 53 b5 02 41
       1.0456874 4.4319086 14.602348 8.169269
000090 02 78 df c0 92 cb cb 3f 8d ae b7 40 4d c7 e6 c0
       -6.9833994 1.59215 5.7400575 -7.2118287
0000a0 c0 3b 80 40 8e c8 69 41 0a 60 65 40 0f e1 a7 c0
       4.0072937 14.611464 3.5839868 -5.246223
0000b0 36 0a 15 3f 18 6c 05 3f 20 c7 43 41 5a 9c a3 bf
       0.58218706 0.5211806 12.2361145 -1.278209
0000c0 ea ad b1 40 d3 c3 0d 41 a6 ba 0a 41 24 6f 5f 3f
       5.5524797 8.860309 8.670568 0.8727896
0000d0 15 a9 a6 be cc d6 ed 40 c3 e6 28 41 37 7a a9 c1
       -0.32550874 7.4324703 10.556338 -21.184675
0000e0 f7 fe 09 3f 17 30 b8 3f 68 7a 66 c1 89 8f 1e 41
       0.5390467 1.4389676 -14.404884 9.910043
0000f0 4a 3a 24 40 3e 1a b5 41 0b 9a b6 3f 73 9a da 3f
       2.5660577 22.637814 1.426576 1.7078384
000100 a2 7f 55 41 2a bd b9 bf cd 4e b1 c0 98 27 b6 bf
       13.34366 -1.4510853 -5.540869 -1.4230833
000110 20 5e 70 c0 91 1b 82 40 c5 26 1c c1 82 e4 1f 41
       -3.755745 4.065865 -9.759465 9.993288
000120 33 32 40 41 19 bc e2 3f 8e a6 ef c0 ac 0c b9 40
       12.012256 1.7713653 -7.4890814 5.782797
000130 7b 16 39 c0 c7 a6 cd 40 a1 0f 8e 41 eb 0d 06 c1
       -2.891997 6.4266086 17.757631 -8.378398
000140 50 7a 03 c1 e4 4b 4f c1 3d d1 78 c1 a5 24 71 c1
       -8.217361 -12.956028 -15.551084 -15.071446
000150 0a b0 f1 3e 2a 09 dc 40 d5 26 10 40 19 41 aa 3e
       0.4720462 6.8761187 2.25237 0.3325279
000160 44 e3 04 c1 5c d6 40 c0 0c a2 e8 41 ea 02 a7 41
       -8.305485 -3.0130835 29.079124 20.876423
000170 7e da b4 3f c0 c0 f7 3f 47 e9 a8 c0 da af 89 41
       1.4129179 1.9355698 -5.278476 17.210865
000180 3f 39 e7 40 28 29 f6 3f c1 94 8b c0 ce 98 1a c1
       7.225738 1.923131 -4.3619084 -9.662306

model/batch_normalization_3/batchnorm/mul_1;model/batch_normalization_3/batchnorm/add_1;model/dense_4/MatMul;model/activation_4/Relu;model/dense_4/BiasAdd f4 [100, 100]
000000 89 7b db bd a0 e0 38 3e 6a ac b4 bd e9 42 e0 bd
       -0.10716922 0.18054438 -0.08821948 -0.10950262
000010 da db 51 3c 62 11 c6 bd c4 2b 9c bd 7d fb 8b 3e
       0.012808764 -0.09671284 -0.07625535 0.27340308
000020 52 37 b5 bc bf e1 a2 bc fd 1c b2 3e e7 8d 7e bd
       -0.022121105 -0.019883035 0.3478774 -0.062147047
000030 4b b4 46 bd 49 95 a8 3d a4 e0 9d 3d 40 0e ac 3d
       -0.048511785 0.08231599 0.077088624 0.084011555
000040 7f 4a 00 be b4 64 50 bd 35 54 13 bd c9 52 4b be
       -0.12528418 -0.050877288 -0.035968978 -0.19855799
000050 35 4b 72 3e 0d c7 03 3d bf 19 41 be fc f5 cb 3d
       0.23661502 0.03217225 -0.18857478 0.09959027
000060 88 a9 c4 bd a1 cf 82 3d 1c 98 76 3d c9 f5 1c bd
       -0.09602648 0.06387258 0.060203657 -0.038320336
000070 cd 71 26 3c 68 27 71 3e 15 de e8 3d 12 c8 9a 3c
       0.010158968 0.23550189 0.11370484 0.01889423
000080 1c 35 ed 3d dc 18 70 bd d6 d1 28 bd c6 8c 82 be
       0.115823954 -0.058617458 -0.04121574 -0.25498027
000090 d8 65 d2 3d 39 2b c6 3c f0 6d 17 3e 4d 53 19 be
       0.102733314 0.024190532 0.14788032 -0.14973183
0000a0 02 23 2d 3e e8 9f 4f 3e 38 be c9 3d e2 fd 25 3d
       0.16907886 0.20275843 0.098507345 0.040525325
0000b0 18 39 a3 bd a5 60 0e 3e 1f e4 c8 bd db 72 ba bd
       -0.07969874 0.13904054 -0.09809136 -0.09103938
0000c0 9c 46 23 bd 84 1d 2a 3e 95 c9 12 be b5 33 15 3e
       -0.03986226 0.16612822 -0.1433471 0.14570506
0000d0 63 8a ef bc bd 83 a2 bd 27 82 c2 bb 97 95 01 bd
       -0.029240793 -0.07935283 -0.0059359255 -0.0316368
0000e0 2f 60 ef 3c 38 de 2c be 22 36 d8 3d 8a 59 a7 3d
       0.029220669 -0.16881645 0.105572 0.08171375
0000f0 92 21 ec 3d 0a 9a aa 3c 73 33 05 3c 25 d9 dc 3d
       0.115298405 0.020825405 0.008129942 0.107836045
000100 a6 2b a1 3d f4 28 13 bd 2a 63 1f be d5 b6 b8 bd
       0.078696534 -0.035927728 -0.15565172 -0.090192474
000110 d4 48 c9 3e 0e be 19 be 0d 93 0f 3e a3 27 97 3e
       0.39313376 -0.15013906 0.14020939 0.29522428
000120 4e 8a b2 be d9 19 27 3e b2 72 00 bd b4 5c ba 3d
       -0.34871143 0.16318454 -0.031359382 0.09099713
000130 a2 45 93 bd 2b 8f c3 3d 07 a3 e3 3d d1 4e 8f 3d
       -0.07191016 0.095487915 0.111150794 0.06997455
000140 14 77 55 3d c4 e7 85 3e d7 aa a0 3d 55 61 a2 bc
       0.052115515 0.26153386 0.07845085 -0.019821802
000150 db 8c ef bd 84 25 e0 3d 75 f9 55 be b6 29 97 3c
       -0.11696788 0.109446555 -0.20895942 0.018452507
000160 09 94 4c be ca 5a b3 bd c2 cd 0c 3e d0 38 bc bd
       -0.19978346 -0.08757551 0.13750365 -0.091905236
000170 dc 6b a5 3d 66 c9 97 3d d4 35 8e bd e8 ae ca bd
       0.08077213 0.074114606 -0.06943861 -0.09896642
000180 e0 58 aa bc 90 fb 32 3e 06 76 a4 bd 68 a9 17 be
       -0.020794332 0.17478776 -0.08030324 -0.14810717
000190 a1 06 8c bd a4 39 9d bd f5 f5 f2 3d f6 0b 11 be
       -0.06837202 -0.0767701 0.11863319 -0.14164719
0001a0 e7 7d b9 3d 15 8f 87 be 4c 5f 8f 3d 22 de ef bd
       0.09057217 -0.2647635 0.07000598 -0.1171229
0001b0 a2 c9 7b 3d ef c1 88 bd c2 94 aa bd 9c b9 10 bd
       0.06147159 -0.06677615 -0.083291546 -0.03533326
0001c0 1c 55 e9 3d 56 4f 59 bd 06 90 55 be 7a 07 02 be
       0.113931865 -0.053054176 -0.20855722 -0.12698165
0001d0 2d ee c3 3c 01 b8 e0 3d c6 a1 9c bc f0 0b 1b bd
       0.023917282 0.10972596 -0.019120108 -0.03785318
0001e0 06 4c cb 3c 69 60 9c 3d a1 e3 51 be 79 26 2c 3d
       0.024816524 0.07635576 -0.2049699 0.042028878
0001f0 b5 6d 47 3c 91 b7 14 3e 76 10 af 3e a9 da c4 bd
       0.012172152 0.1452315 0.34192246 -0.096120186
000200 06 ba c1 bb d1 34 4c be 02 0e 27 be 31 4c e9 3d
       -0.0059120683 -0.19942023 -0.16313937 0.113914855
000210 2d 6f 1d 3d 58 f6 b6 be 02 c5 3a 3e 1f d0 83 3e
       0.038436104 -0.3573482 0.18239215 0.2574472
000220 ff 95 80 3d d1 b8 e5 bd cd 74 55 be d2 88 0e 3e
       0.062786095 -0.112168916 -0.20845337 0.1391938
000230 5f 96 14 be 5a e5 e8 bd e2 7a 2c 3d 02 30 35 3e
       -0.14510487 -0.1137187 0.042109378 0.17694095
000240 b6 51 ea bd 52 e7 86 3c 88 c4 41 bc 46 11 d2 bc
       -0.114413664 0.016467724 -0.011826642 -0.025643002
000250 8d 75 84 be 29 d4 cf ba 6e 69 23 be 30 30 e1 3d
       -0.25870934 -0.0015856075 -0.15958187 0.10995519
000260 77 b7 44 bd 7f b7 73 ba 3c c9 2e bd 9c 41 c9 bd
       -0.04802653 -0.00092970574 -0.04267238 -0.09826967
000270 ee 40 80 3d 47 65 76 3e 0e 6a bf bd f6 9f d2 3d
       0.06262384 0.24062072 -0.093464 0.102844164
000280 df 18 b9 bd 1b 71 3f 3d f4 31 7c bd 55 98 d8 bc
       -0.09037947 0.046738725 -0.061571077 -0.026439825
000290 87 09 ab 3c c3 27 8d bc ef ad 50 be 7f d4 87 3d
       0.020878566 -0.017230874 -0.2037885 0.06632327
0002a0 a2 28 c5 bd 76 a6 35 3c c8 3d c3 3c 51 69 e4 3d
       -0.09626891 0.011087051 0.02383317 0.111529
0002b0 13 43 fc 3a ef 17 0e 3e 9a 14 42 3d ce 74 ae 3d
       0.0019246064 0.13876317 0.04738293 0.085183725
0002c0 86 ce 4e 3e 84 7a 34 3d cb 64 a3 3d 88 ee a5 3e
       0.2019597 0.044062153 0.07978209 0.32408547
0002d0 b0 93 b9 3e b0 0e 10 3d cf 19 84 bd 01 4e 0f 3e
       0.3624549 0.035170257 -0.06450235 0.139946
0002e0 5f 8f 97 3c ff 72 cc 3c db 49 38 be b8 14 2b 3d
       0.018500982 0.024957178 -0.17996924 0.041767806
0002f0 c3 55 41 3e fc 4f aa bd c0 5d 9e bd 83 2a 2c 3e
       0.18880372 -0.08316037 -0.07732725 0.16813092
000300 24 a7 c1 3d e3 ea 84 be 2b d2 1b be 0b 4b b2 bd
       0.09455708 -0.25960454 -0.15216891 -0.087057196
000310 c1 4d 14 3d f9 1d 99 bd b9 d7 9a 3c c5 f1 7b 3e
       0.036206964 -0.0747642 0.018901693 0.24603947
000320 cc e4 6c bc 7d 2e 72 3e 09 1a b5 3b 62 f2 82 3c
       -0.014458846 0.23650546 0.0055267853 0.015984718
000330 70 b2 3e be 6b 07 8c bd e2 c3 05 be 93 f4 71 3d
       -0.18622756 -0.06837352 -0.13063005 0.059071135
000340 6b c3 1a be c0 8f 7b 3d 21 06 31 be e1 a3 f1 3c
       -0.15113609 0.061416388 -0.17287494 0.029497089
000350 7a bb 33 be 7a 67 8d ba b5 54 0d be b6 ff 6d be
       -0.17551985 -0.0010788285 -0.13801844 -0.23242077
000360 56 4a c7 3c 50 bf 64 3b 6c 71 d1 bd 44 7e 14 3d
       0.024327438 0.003490407 -0.10226712 0.03625323
000370 57 d8 a5 bd 88 98 c6 3d 92 00 25 3d 66 c1 b5 bd
       -0.08097904 0.09697062 0.040283747 -0.088747784
000380 62 16 5a bc 97 94 7e 3e ab e8 96 bd 1a a5 15 be
       -0.013311001 0.2486137 -0.07368597 -0.14613762
000390 09 51 4f 3c 65 d5 a1 3e 7e 89 4c 3b 9c aa fa bc
       0.012653598 0.3160812 0.0031209881 -0.030598931
0003a0 79 3b 11 3e 97 be 71 be 01 dd da bd 64 6d 96 bc
       0.14182843 -0.2360786 -0.106866844 -0.018362708
0003b0 5a 0c 7d 3d db 1a bc 3d 5d 0e 4f bd 93 a4 3d bd
       0.061779357 0.0918481 -0.050550807 -0.04629953
0003c0 d0 64 cb bb fd b8 b4 3d d3 94 19 3d 53 d0 87 3c
       -0.006207086 0.08824346 0.037495445 0.016578829
0003d0 8d a3 f1 bd b3 26 1c bd a7 1b d0 bd 16 ad 05 bd
       -0.11798773 -0.038122844 -0.10161524 -0.03263577
0003e0 48 79 e1 3d 89 eb b8 3e 9b 52 35 3e 46 03 0b bd
       0.11009461 0.361172 0.17707293 -0.03393867
0003f0 98 6e c7 bb ea 9e c8 3c f0 78 c4 bd 0b 6e bf bd
       -0.006086182 0.024489839 -0.095933795 -0.09347161

model/dense_5/MatMul;model/activation_5/Relu;model/dense_5/BiasAdd f4 [100]
000000 1a ed a4 40 1f 7e 18 40 e7 f3 4a 41 3a 15 4c 41
       5.153943 2.3826978 12.684546 12.755182
000010 da 98 c3 40 e6 07 05 c1 99 a4 22 41 95 14 6e c0
       6.1124086 -8.314428 10.165185 -3.7200062
000020 16 52 44 40 83 a3 e0 3f c8 eb 07 c1 fa 8c ef c0
       3.0675101 1.75499 -8.495064 -7.485959
000030 81 ca 05 c0 0a 42 88 41 c8 f4 c3 c0 be 2d 99 bf
       -2.0904849 17.032246 -6.1236305 -1.1967084
000040 ed ff 2c 3f 00 63 55 41 23 20 f0 3f e8 8c 49 41
       0.6757801 13.33667 1.8759807 12.596901
000050 1b fa 6f 3e 29 5e 16 41 a5 29 82 40 90 23 e1 bf
       0.23435251 9.397988 4.0675836 -1.7588978
000060 19 0d 55 41 fa bf 23 c0 88 8a 07 41 1f 1a c4 40
       13.315698 -2.5585923 8.471321 6.1281886
000070 4d b7 1e c0 e4 b7 e7 3f 8a 96 d2 40 93 74 8b 40
       -2.4799378 1.8102994 6.5808764 4.3579803
000080 cf 07 a2 41 5b 51 b2 c0 cd 8e 70 3f a4 d8 5b 40
       20.253813 -5.572431 0.93967897 3.4350977
000090 21 08 2d 41 32 4b 00 40 fa 74 03 41 08 72 22 41
       10.814485 2.0045896 8.216059 10.15284
0000a0 15 f2 e6 40 d7 c7 00 40 c0 f0 3b 3f e4 62 38 41
       7.217051 2.0121973 0.7341423 11.524143
0000b0 c9 a4 38 c0 ac 59 3a c0 c0 07 95 c0 93 5e ec c0
       -2.8850577 -2.9117231 -4.657196 -7.3865447
0000c0 fb 43 10 c0 92 0b c7 40 05 d8 7a c0 51 f2 90 40
       -2.2541492 6.2201624 -3.9194348 4.5295796
0000d0 83 9d 01 41 7a 49 a2 41 cc 21 ed bf 0c c5 c2 c0
       8.100955 20.285877 -1.8525939 -6.0865536
0000e0 1d 04 a3 c0 33 01 45 41 8b 81 10 41 8b 5e 3e c1
       -5.094252 12.312793 9.031627 -11.898082
0000f0 12 ba 0a c0 a8 a3 9b 40 b2 10 22 c0 2d ce 1c 3d
       -2.1676068 4.8637276 -2.532269 0.038282562
000100 df 3d e7 bf dc de db 3f 8c 69 43 c0 58 b4 09 c0
       -1.8065757 1.7177386 -3.053317 -2.1516323
000110 cb 95 30 c0 81 fe de 40 da 88 b9 40 1f af d0 3d
       -2.7591426 6.9685674 5.7979555 0.10189652
000120 8c c8 bb 40 e2 30 13 41 41 d5 00 42 69 ee e0 40
       5.868231 9.199434 32.208256 7.029103
000130 b3 f6 a3 40 85 45 26 c1 30 d3 3a c1 93 5b 33 c0
       5.1238647 -10.391973 -11.676559 -2.8024642
000140 01 05 20 40 ad 3b 23 40 16 e7 15 41 d2 05 9f c0
       2.5003054 2.5505173 9.368917 -4.9694605
000150 1a b9 26 bf dd d5 aa 3d 83 b8 8e 40 4c d4 1d 41
       -0.6512619 0.083415724 4.4600234 9.86433
000160 b3 2e 76 3f 78 88 3b c0 4e 3b a0 c0 d9 ea 9b 41
       0.9616501 -2.9302044 -5.0072393 19.489672
000170 de 02 8a 3e 53 7b dc c0 cf 3f 06 c1 96 96 28 41
       0.26955312 -6.890054 -8.390578 10.536764
000180 ef 18 c2 bf 7b 13 85 40 5a 3e c3 bf fa ae 57 bf
       -1.5163859 4.158628 -1.5253403 -0.8425137

model/batch_normalization_4/batchnorm/mul_1;model/batch_normalization_4/batchnorm/add_1;model/dense_5/MatMul;model/activation_5/Relu;model/dense_5/BiasAdd f4 [100, 100]
000000 e2 d3 13 be 01 ee 15 be e3 d6 92 3c e3 27 2d 3b
       -0.14436296 -0.14641573 0.017924732 0.002642148
000010 1f c6 9a bc 1c 83 02 3e a2 bb bb bd 34 68 2c be
       -0.0188933 0.12745327 -0.091666475 -0.16836625
000020 fe 85 bb bd 59 58 f8 bd d9 1a 57 bd a6 14 38 3e
       -0.09156416 -0.12126226 -0.05251584 0.17976627
000030 bb 48 9c 3c f4 f7 d8 3d 3d c5 b5 bd 17 c1 e1 3c
       0.01907765 0.10594168 -0.08875511 0.027557893
000040 da 1a cc bd ca 55 08 be 3d c1 ba 3e a4 52 49 3e
       -0.09966059 -0.13313976 0.36475554 0.19660431
000050 43 4e e5 bd cd 7d 93 bd 21 13 26 be b2 f3 f5 bd
       -0.11196568 -0.07201729 -0.16218235 -0.12009372
000060 8c 7a 14 bc f2 c6 81 3d ba 4a 0b 3d 1f 15 2d be
       -0.009062421 0.06336774 0.03400681 -0.16902588
000070 13 0d ed 3d b2 c5 22 3e 43 e0 17 3d 8a ac 96 3d
       0.11574759 0.15895727 0.037079107 0.07357128
000080 eb d7 48 3d 9e 3a bc bd 5a 7e 3f be ec a0 5c 3d
       0.04903404 -0.09190868 -0.18700543 0.053864405
000090 1e 92 78 bd 79 c5 a7 bd 49 f1 af 3b 55 66 c7 3d
       -0.060686223 -0.08191962 0.0053693396 0.09736315
0000a0 55 ab 9d bc 3d 9a 4b bd 82 6a 0b 3e b9 76 1e be
       -0.019246737 -0.04970764 0.13614848 -0.15474977
0000b0 73 ab ce 3c b4 05 81 bc 80 06 ed 3d df f2 f0 3b
       0.025228238 -0.01574979 0.115735054 0.0073531712
0000c0 fd bb a8 3b a0 1a 11 bd eb 1e b5 3d fb 06 e5 bc
       0.005149363 -0.035425782 0.08843788 -0.02795743
0000d0 db da 64 bd c5 a6 ac 3d d9 3c 46 bd ce 9d 01 be
       -0.05587278 0.08430246 -0.048397873 -0.12657854
0000e0 45 58 4c 3c 86 e5 43 3d 56 e8 c8 bc 68 b5 86 bd
       0.012472217 0.047826312 -0.024524849 -0.06577569
0000f0 b2 0e 52 3d 4e cd dd bc 66 3d 30 bc a0 69 70 bc
       0.051283546 -0.027075436 -0.010756826 -0.01467362
000100 01 30 be bc e2 e0 f5 bd 9d 4a 85 3c 6d 1b 7d 3d
       -0.02321625 -0.120057836 0.01627093 0.061793733
000110 22 46 91 bd f8 a2 c7 3d 68 1d 39 3d 61 37 ad bd
       -0.07093455 0.09747881 0.04519406 -0.08457828
000120 60 da 95 3d eb ad 74 3e 1d 88 de 3e 3c 88 a3 3d
       0.07317042 0.2389447 0.4346322 0.07984969
000130 52 8c 0d bd 28 b9 bc bd 88 d3 98 3d 77 47 db bd
       -0.034557648 -0.09215003 0.074622214 -0.1070699
000140 cf b6 e1 3c 2c 97 8d bd 16 e6 98 3d 07 e7 5f bc
       0.02755299 -0.06913599 0.074657604 -0.013665921
000150 5b ea ac 3e 11 ca 6a 3d 05 45 11 3f 41 07 6a be
       0.3377255 0.05732161 0.5674594 -0.2285433
000160 e4 63 46 3e 4a 02 9d 3d eb 39 55 bd 53 c2 38 be
       0.19374043 0.07666452 -0.052057188 -0.18042879
000170 0d 7c 0d be fd d9 ad 3c 47 5b 1f 3d a3 2c 70 3d
       -0.13816853 0.021222109 0.03890541 0.05863632
000180 7f b9 80 3d 99 25 1d bc 2e ad 88 3d fa a1 52 bd
       0.062853806 -0.0095914835 0.066736564 -0.051424004
000190 f8 5a 2c bd 77 08 9e 3e 18 ee 2d bd 4e 41 a1 3d
       -0.042078942 0.30865833 -0.042463392 0.07873784
0001a0 61 63 fc 3d ce 71 08 bd 2c ed 1b 3e fc 39 be bd
       0.123236425 -0.033311658 0.15227193 -0.092884034
0001b0 8e bc 2f 3e aa 16 41 bd cf d3 49 bd f8 cb 21 bd
       0.17161772 -0.047140755 -0.049274262 -0.03950116
0001c0 21 78 6f be 8b 62 c1 3d 6b 08 a6 bc 8d 02 98 bb
       -0.2338567 0.09442624 -0.020267686 -0.004638976
0001d0 5f 66 bf 3d 1a 51 4f bb b5 b5 b0 3e 6b b6 00 3c
       0.093456976 -0.0031634034 0.3451363 0.007855992
0001e0 13 88 a4 3d 8d 20 d8 bd df 17 7d bc f2 d2 d5 bc
       0.080337666 -0.105530836 -0.015447586 -0.026101563
0001f0 af a7 60 bc 1f 51 6c 3d 9a b8 95 bd 61 8b 4b be
       -0.013711854 0.05769455 -0.073106006 -0.19877388
000200 27 35 97 bd 5c 4e b6 3e af a4 d3 3c 40 55 db 3d
       -0.07383185 0.35606658 0.025835363 0.107096195
000210 17 bc c7 bd ff a2 a0 3d 8b 6b 83 bd 23 ad 88 3c
       -0.09752672 0.07843589 -0.064169966 0.01668412
000220 e4 39 03 3e 25 27 90 bd 04 6b 22 be e4 43 d8 3d
       0.12815052 -0.07038716 -0.15861136 0.10559824
000230 73 be 12 bd a1 ae d3 bd 06 69 95 3d c4 6e a9 bd
       -0.035826158 -0.10336042 0.07295422 -0.0827308
000240 f5 f2 2b be 2a 1b 48 be 0e 71 d4 3d 94 40 09 be
       -0.167919 -0.19541612 0.10373126 -0.13403541
000250 0f ed de 3d 64 7f ec 3d f8 af c9 3d 26 2b 2f 3e
       0.10885059 0.11547735 0.098480165 0.17106304
000260 64 e8 0f bd 39 d1 c1 bd 89 30 35 3c b7 e8 80 3b
       -0.035133734 -0.09463734 0.011058935 0.003933992
000270 67 6d c4 3d 4f 1a 55 bd 3a 44 0b 3c d0 ee d8 3b
       0.09591179 -0.052027043 0.008500153 0.0066202655
000280 9d 37 03 3d 6c 11 d0 3b 44 1c 20 be cf 75 5b 3d
       0.03203546 0.006349733 -0.15635782 0.053579148
000290 00 21 07 3d e2 9d bf be b0 c5 01 3e 16 9b dd 3c
       0.032990456 -0.37425143 0.12673068 0.02705149
0002a0 5f 50 95 3d 4c b9 37 be 56 c5 5c bd 37 b8 41 be
       0.0729072 -0.17941779 -0.05389913 -0.18917929
0002b0 79 d4 54 3c ac c0 1c 3f 96 e1 32 be fb aa df 3d
       0.012990111 0.61231494 -0.17468867 0.10921284
0002c0 04 35 47 be 2b d3 86 be 0b f4 1d be 78 21 6b be
       -0.19453818 -0.26332983 -0.15425126 -0.22961986
0002d0 48 5a 4f bb 61 e6 0a bd 72 d8 8d 3e 00 4b cd bd
       -0.0031639505 -0.033911113 0.27704197 -0.10024071
0002e0 86 28 16 be 25 f5 c5 bd 58 ac 03 be 69 f1 42 bc
       -0.14663896 -0.09665898 -0.12858713 -0.011898377
0002f0 39 fa 09 be 27 ea cb bd 77 47 06 be af 08 9a 3d
       -0.13474359 -0.099567704 -0.13113199 0.075211875
000300 59 af a8 bd 05 c3 11 3e f8 da dd ba 48 72 65 bd
       -0.0823657 0.1423455 -0.001692622 -0.05601719
000310 47 76 27 3e e6 a2 0d 3e f0 4e 1c 3e 00 95 65 3e
       0.16353713 0.13831672 0.15264487 0.2242012
000320 32 30 6e 3e 82 55 ac bc 22 8e d6 3c 27 05 65 bb
       0.23260573 -0.021036867 0.026190821 -0.0034945698
000330 39 24 8c 3d ba f3 8a bc 5c 54 b7 bd 3b 6f 46 be
       0.068428464 -0.016961921 -0.08951637 -0.19378369
000340 bc 2f 21 bd b4 cf 9e 3d f9 2d 95 bd 05 db 09 bd
       -0.039352164 0.0775446 -0.07284159 -0.03365614
000350 3f ea 02 bd 56 a2 2a bd ea 46 47 3d e0 1f ab 3d
       -0.031961676 -0.041658722 0.048651613 0.08355689
000360 72 ac 07 3e 8f 48 48 3e 5f 6f 5c be da 14 9c 3b
       0.13249376 0.19558929 -0.2152686 0.004763228
000370 7b 0e 51 ba fb ba 41 3b 0b 7a cd bd 8f ed 95 3b
       -0.0007974875 0.0029560912 -0.100330435 0.0045754383
000380 38 fe 03 be 4b 14 fe 3d e8 76 c9 3b fe dd bc be
       -0.12889946 0.12406214 0.006148208 -0.36888117
000390 33 49 81 3d 05 91 2b be 28 a7 06 bd 8c 73 3f 3d
       0.0631279 -0.1675454 -0.032874256 0.046741053
0003a0 44 1a 0d bd 91 7c 02 3e 7f 03 f6 3c 1d 35 cc bc
       -0.034448877 0.12742831 0.030030964 -0.02492767
0003b0 2a a2 ec 3d d9 af d2 bd d4 21 82 3e f7 96 81 3d
       0.11554368 -0.102874465 0.25416434 0.063276224
0003c0 7d 68 23 3c 00 44 38 3d 67 96 a5 bd fe 0a f4 3c
       0.009973642 0.044986725 -0.080853276 0.029790398
0003d0 30 ac be be d4 cf 1b be 7e 1a 21 3e 6c 4b c5 bd
       -0.37240744 -0.15215999 0.15732762 -0.09633526
0003e0 34 c1 90 bd d6 5c ac bd 8c 5b eb 3c 9b ee 6f bc
       -0.070681006 -0.084161445 0.028730176 -0.01464429
0003f0 45 93 68 3d 38 5f b0 bc ee b8 69 3d be 8c d0 3d
       0.056781072 -0.021529779 0.05706113 0.101830944
