corintho_ai/rating/tflite_models/model_87.tflite (tflite, 521576 bytes, 27 tensors)

model/dense_1/MatMul;model/activation_1/Relu;model/dense_1/BiasAdd f4 [100]
-20.736265 150.0727 -68.157814 5.746572 67.01968 46.3493 85.64911 -30.707224
-48.158386 0.37662432 -4.949177 -56.60699 18.4929 -48.506786 -8.432257 -74.05089
38.73315 16.846605 -11.638547 5.0964093 14.091263 0.17170325 11.675922 -65.28887
83.63914 11.237676 1.6989434 -7.2911487 -71.80736 47.369278 -43.1619 8.875984
39.813576 -35.25136 79.913895 64.79008 13.67973 -32.92541 23.31441 35.337105
80.49529 -26.435863 -53.388515 -1.1329672 14.55527 -32.539005 0.55165976 -37.08133
-14.021338 -6.7984695 28.475405 -56.849213 17.348991 149.43695 -5.271505 30.6037
13.727995 -21.263517 28.191534 -9.670189 25.80954 77.35241 -4.1333284 39.46224
54.637512 95.4935 134.12883 10.202764 -26.99813 -103.86432 -32.177563 -33.99069
-12.594917 120.93038 -9.125813 80.83596 -6.001929 8.077094 -132.47026 -5.175776
24.347437 44.57561 18.532846 -26.009535 7.9441257 85.76268 45.271515 -22.612822
89.86703 39.30594 105.90146 15.592946 68.235855 9.272957 20.746748 -8.351286
161.83995 36.542637 17.144522 -91.435394
00000000: dfe3 a5c1 9c12 1643 cd50 88c2 ebe3 b740
00000010: 130a 8642 af65 3942 584c ab42 65a8 f5c1
00000020: 30a2 40c2 e7d4 c03e a85f 9ec0 8f6d 62c2
00000030: 76f1 9341 f306 42c2 86ea 06c1 0e1a 94c2
00000040: bfee 1a42 d9c5 8641 7d37 3ac1 c915 a340
00000050: d075 6141 fad2 2f3e 94d0 3a41 e793 82c2
00000060: 3d47 a742 85cd 3341 fa76 d93f 1751 e9c0
00000070: 5e9d 8fc2 247a 3d42 c9a5 2cc2 0804 0e41
00000080: 1a41 1f42 6501 0dc2 ead3 9f42 8594 8142
00000090: 2de0 5a41 9fb3 03c2 e983 ba41 3259 0d42
000000a0: 97fd a042 a67c d3c1 d78d 55c2 1205 91bf
000000b0: 63e2 6841 f127 02c2 9339 0d3f 4853 14c2
000000c0: 6757 60c1 108d d9c0 a1cd e341 9865 63c2
000000d0: bcca 8a41 dc6f 1543 2bb0 a8c0 61d4 f441
000000e0: dea5 5b41 af1b aac1 4388 e141 18b9 1ac1
000000f0: f079 ce41 6fb4 9a42 3a44 84c0 55d9 1d42
00000100: d08c 5a42 acfc be42 fb20 0643 853e 2341
00000110: 2cfc d7c1 88ba cfc2 d3b5 00c2 77f6 07c2
00000120: c884 49c1 5bdc f142 5403 12c1 03ac a142
00000130: cd0f c0c0 c73b 0141 6378 04c3 f59f a5c0
00000140: 8dc7 c241 6d4d 3242 4543 9441 8713 d0c1
00000150: 4736 fe40 7e86 ab42 0816 3542 0fe7 b4c1
00000160: ebbb b342 4839 1d42 8ccd d342 b57c 7941
00000170: c278 8842 085e 1441 57f9 a541 de9e 05c1
00000180: 07d7 2143 a92b 1242 fb27 8941 ecde b6c2

model/batch_normalization/batchnorm/mul_1;model/batch_normalization/batchnorm/add_1;model/dense_1/MatMul;model/activation_1/Relu;model/dense_1/BiasAdd f4 [100, 100]
0.14666028 -0.70100003 0.36342534 0.14417468 1.4952341 0.28666794 -1.0302571 -1.0555214
0.101166494 0.6011694 0.48078802 0.14073327 0.265848 0.00522138 -0.65231776 0.028842408
0.12968749 -1.588892 0.29452735 -0.5400689 -0.09982709 4.0141087 -0.07955193 0.00041169662
-0.09351112 0.1899369 -0.07276545 -1.1072369 0.17152497 -0.29773742 -0.0418747 0.6544238
0.08920561 -0.508309 0.06873086 -0.14758478 -0.17507733 -0.18953304 -0.051866855 0.14295773
0.4216482 1.1809094 0.41792417 0.2195422 -0.23926748 -0.16921444 0.30198833 -0.072097234
0.74981564 0.15532088 0.02297285 -1.4478348 0.7305413 5.158228 0.23986773 -0.035857145
-0.10289139 0.39517382 1.186173 0.53263867 0.40286 -0.13900918 0.13286155 -0.9113304
0.33538857 -0.43182337 -0.18911421 0.36814618 -0.068293564 0.84374285 0.4781084 -0.1738168
-0.07722434 -0.08369731 0.71016306 -0.7944421 -0.4967194 -0.0035644546 0.12451584 0.3484762
-0.8821556 0.2271042 -0.1676209 -0.091643155 -0.27207088 -0.2256561 -0.13599761 -0.9445331
-0.15546598 -0.18754792 -1.175651 1.0865797 0.12572213 -0.3766833 -0.19117512 0.20163463
0.2520926 -0.12070792 -0.39749533 -0.17363879 -0.9923013 -1.163157 -0.32379916 0.0578815
-1.2261316 2.0632741 0.68900055 0.21948336 0.039493956 -0.6112451 0.29634443 0.058155123
-1.0810039 -0.15585555 -0.35664293 -0.7738433 0.032266516 -1.617275 -0.9659386 -0.062963046
-0.475878 0.02848873 -0.12502828 -0.034569703 0.14097701 -0.046823528 -0.40687153 -0.11361325
-0.23822328 0.12531526 0.0013971967 0.3045077 0.05233962 -0.012526837 -0.54513705 0.025515
-0.40302792 -1.809629 -0.72389334 -0.84900266 0.22265993 -0.38908845 -1.0566012 -0.18606624
-0.13819653 -1.0941963 0.0578227 0.12390924 -0.20945808 0.27472973 0.114122525 1.4300631
-0.35302377 0.88346314 0.028944582 -0.37554204 -0.5649633 1.0595784 1.8050137 0.14570244
0.16915235 0.6424247 0.04283775 -0.88318646 -0.9139945 -0.4420237 0.2801561 0.8698998
-0.37982336 -0.14679752 0.0033042198 0.42340595 0.24684715 0.16083565 -0.27364305 -0.46614525
-0.52089137 -0.66358745 0.6339202 0.1085872 0.029850185 -1.0529017 0.65976 0.8096081
-0.13572325 0.1897015 0.029905759 0.38075894 0.2093209 0.15837096 -0.255667 0.91763633
-0.49157304 -0.5176075 -0.63435006 -0.17017294 -0.28352657 -0.7118212 -0.79117066 -0.17857069
0.93286216 -0.60640246 0.0062116683 0.196911 1.0325611 -0.0092438795 1.0395509 -1.4347078
-1.0075171 -0.7220482 -0.07124395 2.1239514 -0.0371953 0.052392777 -0.24234894 0.5427867
0.33550474 -0.54858935 -1.2439606 0.04334481 -0.07316556 -0.99690765 -0.008474671 0.066506825
0.0059658643 -0.055078447 -0.49256432 0.09695033 0.8401944 0.306503 0.79469866 0.66973704
-0.13171703 0.33039656 0.72125316 -0.024979437 -0.13073505 0.12873961 0.58710206 -0.927037
0.2519012 -0.124798924 1.1782138 0.074922465 0.19711466 -1.2499579 0.9140461 0.1482412
-1.5289216 -0.017603671 0.16295364 0.4066564 -0.2963234 0.037303958 -0.0857081 0.2748236
00000000: 1d2e 163e bd74 33bf e312 ba3e 87a2 133e
00000010: d563 bf3f 24c6 923e 77df 83bf 531b 87bf
00000020: 6130 cf3d 3de6 193f d929 f63e 621c 103e
00000030: 3b1d 883e 1c18 ab3b 4cfe 26bf ea46 ec3c
00000040: cccc 043e d060 cbbf 4acc 963e f541 0abf
00000050: 2572 ccbd 9473 8040 1fec a2bd fcd8 d739
00000060: c282 bfbd d27e 423e 0d06 95bd f0b9 8dbf
00000070: 3ea4 2f3e 0a71 98be ce84 2bbd 5188 273f
00000080: 6eb1 b63d 8a20 02bf c4c2 8c3d 7720 17be
00000090: 7947 33be f314 42be 5772 54bd 8363 123e
000000a0: 46e2 d73e 0a28 973f 28fa d53e accf 603e
000000b0: 8902 75be 8d46 2dbe 379e 9a3e b7a7 93bd
000000c0: ebf3 3f3f 700c 1f3e 8f31 bc3c a752 b9bf
000000d0: c104 3b3f 3410 a540 e39f 753e f1de 12bd
000000e0: b9b8 d2bd 3954 ca3e 84d4 973f 025b 083f
000000f0: aa43 ce3e 6c58 0ebe dc0c 083e f34c 69bf
00000100: 0db8 ab3e f417 ddbe 28a7 41be a87d bc3e
00000110: 7fdd 8bbd 88ff 573f a0ca f43e 08fd 31be
00000120: cb27 9ebd 7f69 abbd 3fcd 353f 8f60 4bbf
00000130: 0152 febe a099 69bb 2902 ff3d 796b b23e
00000140: f3d4 61bf 018e 683e d0a4 2bbe 68af bbbd
00000150: e04c 8bbe 6512 67be f542 0bbe eccc 71bf
00000160: 7932 1fbe 900c 40be bb7b 96bf 0b15 8b3f
00000170: 4dbd 003e a2dc c0be 69c3 43be 4f79 4e3e
00000180: 4812 813e b735 f7bd 8284 cbbe 5ece 31be
00000190: 7507 7ebf 54e2 94bf 01c9 a5be 2715 6d3d
000001a0: e1f1 9cbf af0c 0440 5762 303f 3fc0 603e
000001b0: 6ac4 213d 8f7a 1cbf 75ba 973e 1134 6e3d
000001c0: 565e 8abf 9998 1fbe e799 b6be 981a 46bf
000001d0: e529 043d de02 cfbf c147 77bf c5f2 80bd
000001e0: 48a6 f3be 3261 e93c 6a07 00be f698 0dbd
000001f0: 475c 103e 07ca 3fbd 7751 d0be 10ae e8bd
00000200: cef0 73be a552 003e 2422 b73a 6fe8 9b3e
00000210: 1262 563d 5d3d 4dbc 1a8e 0bbf d504 d13c
00000220: ad59 cebe eca1 e7bf 1351 39bf 3d58 59bf
00000230: f700 643e 9a36 c7be b53e 87bf 2688 3ebe
00000240: 6483 0dbe a00e 8cbf 7fd7 6c3d 21c4 fd3d
00000250: 2e7c 56be 60a9 8c3e 12b9 e93d 4f0c b73f
00000260: 88bf b4be a42a 623f 301d ed3c 0c47 c0be
00000270: 6fa1 10bf 44a0 873f b00a e73f 0533 153e
00000280: 4636 2d3e f275 243f a376 2f3d 8218 62bf
00000290: 8bfb 69bf ee50 e2be 9f70 8f3e c1b1 5e3f
000002a0: 3578 c2be 1752 16be 9c8b 583b aac8 d83e
000002b0: 80c5 7c3e 1ab2 243e f11a 8cbe 97aa eebe
000002c0: 2359 05bf dee0 29bf 9848 223f f762 de3d
000002d0: 6088 f43c 7cc5 86bf 08e6 283f 7a42 4f3f
000002e0: 09fb 0abe 1c41 423e ecfc f43c d6f2 c23e
000002f0: 3858 563e ff2b 223e c9e6 82be 37ea 6a3f
00000300: 76af fbbe ed81 04bf c464 22bf d141 2ebe
00000310: 652a 91be ea39 36bf 298a 4abf 3cdb 36be
00000320: 0ed0 6e3f 313d 1bbf 408b cb3b 0aa3 493e
00000330: f62a 843f a473 17bc 0110 853f 81a4 b7bf
00000340: 52f6 80bf 27d8 38bf 59e8 91bd d2ee 0740
00000350: 195a 18bd cf99 563d 522a 78be 12f4 0a3f
00000360: 47c7 ab3e 5a70 0cbf 1a3a 9fbf 548a 313d
00000370: d3d7 95bd 5735 7fbf 59d9 0abc bb34 883d
00000380: 4c7d c33b f099 61bd 6431 fcbe e58d c63d
00000390: fb16 573f f6ed 9c3e 5f71 4b3f e373 2b3f
000003a0: d4e0 06be bd29 a93e 0ca4 383f ada1 ccbc
000003b0: 69df 05be 51d4 033e 524c 163f 4c52 6dbf
000003c0: 32f9 803e 9496 ffbd b6cf 963f f370 993d
000003d0: 6dd8 493e 9ffe 9fbf edfe 693f 8bcc 173e
000003e0: b4b3 c3bf 9335 90bc 52dd 263e 4535 d03e
000003f0: b3b7 97be 09cc 183d ba87 afbd aeb5 8c3e

model/dense_2/MatMul;model/activation_2/Relu;model/dense_2/BiasAdd f4 [100]
73.04809 -86.118355 -6.4623632 -67.671776 -13.680691 16.951017 28.606642 33.204086
-17.989277 4.5447164 -8.707737 -15.841425 -3.673493 17.349617 -1.5793769 -78.26075
-61.998363 21.292854 1.7595552 -4.7309537 64.51691 6.5762362 32.210285 19.353813
0.60882425 22.92807 -3.7269478 61.949707 -19.146456 13.306786 6.1208777 15.172843
35.710693 -14.15865 24.56436 -62.62219 93.5083 -26.849558 -25.286293 -22.431341
-16.958384 -68.64849 -2.646027 -24.296228 -48.66739 44.068542 -30.071644 -20.36078
-38.321987 14.238048 71.211464 75.03819 20.522646 4.162929 1.5612782 5.0693483
6.2122064 65.29848 44.890095 -36.12147 -16.301273 -9.142088 -17.683695 139.53691
24.391254 15.184222 -68.004234 -50.126755 7.986593 47.43809 -160.24756 29.836918
-15.378902 16.595097 -57.452103 -30.277653 35.12656 -36.387703 -33.18257 61.665146
64.900764 53.26896 51.077156 35.58228 -11.244236 -61.39067 0.33307236 49.163136
38.790154 32.022556 -50.26629 24.908274 26.031338 19.694523 -26.892508 70.669846
80.5233 50.9759 11.05265 -19.350817
00000000: 9f18 9242 993c acc2 aecb cec0 f357 87c2
00000010: 1ce4 5ac1 af9b 8741 67da e441 fcd0 0442
00000020: 0aea 8fc1 516e 9140 e452 0bc1 7a76 7dc1
00000030: 821a 6bc0 04cc 8a41 0629 cabf 8185 9cc2
00000040: 53fe 77c2 c457 aa41 1b39 e13f f963 97c0
00000050: a808 8142 8770 d240 55d7 0042 9cd4 9a41
00000060: e8db 1b3f b06c b741 5086 6ec0 80cc 7742
00000070: f12b 99c1 98e8 5441 3bde c340 f7c3 7241
00000080: c0d7 0e42 d589 62c1 cf83 c441 1f7d 7ac2
00000090: 4004 bb42 e5cb d6c1 544a cac1 6373 b3c1
000000a0: c5aa 87c1 074c 89c2 8258 29c0 ad5e c2c1
000000b0: 68ab 42c2 3046 3042 ba92 f0c1 e1e2 a2c1
000000c0: b749 19c2 0bcf 6341 456c 8e42 8e13 9642
000000d0: 612e a441 b736 8540 f7d7 c73f 1a38 a240
000000e0: 65ca c640 d298 8242 758f 3342 637c 10c2
000000f0: 0269 82c1 fe45 12c1 3578 8dc1 7389 0b43
00000100: 4a21 c341 93f2 7241 2b02 88c2 cc81 48c2
00000110: 2b92 ff40 9bc0 3d42 603f 20c3 02b2 ee41
00000120: fc0f 76c1 c2c2 8441 f4ce 65c2 a238 f2c1
00000130: 9981 0c42 028d 11c2 f4ba 04c2 1ca9 7642
00000140: 31cd 8142 6a13 5542 024f 4c42 4154 0e42
00000150: 64e8 33c1 0c90 75c2 7688 aa3e 0da7 4442
00000160: 1e29 1b42 1917 0042 ae10 49c2 2544 c741
00000170: 2e40 d041 628e 9d41 db23 d7c1 f656 8d42
00000180: ee0b a142 52e7 4b42 a8d7 3041 79ce 9ac1

model/batch_normalization_1/batchnorm/mul_1;model/batch_normalization_1/batchnorm/add_1;model/dense_2/MatMul;model/activation_2/Relu;model/dense_2/BiasAdd f4 [100, 100]
-0.039037913 -0.037416898 0.31037194 0.042080387 -0.21770035 -0.15804376 0.12366657 -0.052907597
0.21227966 -0.04086648 0.12661955 0.18363349 0.098856606 -0.17156173 -0.22977297 0.07895349
-0.0012547061 -0.21720487 0.14639108 -0.005921423 -0.109829925 -0.046509404 0.07547573 0.112811945
-0.11573585 -0.04200878 -0.02251067 0.03329998 -0.17732617 -0.10653871 -0.015204694 0.0028924732
-0.2741098 0.031730358 -0.04256098 0.14645334 -0.04944422 0.054977927 0.052071474 -0.1249931
-0.028368142 -0.19432494 -0.30757725 0.10184913 0.04974091 -0.022842705 -0.1100487 -0.090431035
-0.0947152 0.028593248 0.084182784 0.055870235 -0.006032957 -0.2110858 -0.12790765 -0.048409775
0.028261423 0.041520823 0.19360428 -0.053433422 0.14185242 -0.10682155 0.08833506 -0.2526811
-0.0043858862 0.05127924 0.07611328 -0.03316101 -0.020765241 -0.02704516 -0.23113836 -0.15805735
-0.0009853367 -0.054881867 -0.25581807 -0.06974067 0.10578206 -0.02033313 -0.060858477 -0.30455247
0.07799534 -0.09887526 0.062368955 0.045433898 -0.039597437 -0.016309299 0.09230677 -0.016530244
-0.13345443 0.053088598 0.076690644 -0.018723538 -0.07814974 -0.1714176 -0.30110636 0.2054978
0.20445357 -0.4438625 0.07629057 -0.3463066 -0.049262427 0.04465614 -0.010997314 -0.057315566
0.028088242 0.06316517 0.062863715 0.044195697 0.05647719 0.053375907 -0.03169128 0.04938636
-0.02898467 -0.07954696 0.08677436 0.07175199 0.00073454453 -0.009009344 -0.10698495 0.06878127
-0.13744827 0.023234576 0.110243216 0.089080244 0.011280325 0.028717043 -0.11378178 -0.101623654
0.012154894 -0.03099051 0.22238155 0.26895955 0.10482391 -0.020914136 0.079507366 -0.026317919
-0.029805535 0.11957738 -0.043735586 0.030140884 -0.0124421 0.009745801 0.01404633 0.016242966
0.086511865 0.093956746 0.08184562 0.052771375 0.065312035 0.06946538 0.06452596 -0.11382154
0.22879255 0.8824949 0.08677707 0.08245528 0.15751429 0.03236292 0.017837074 0.03407825
0.048763294 -0.124316044 0.33042663 0.07911351 0.046243027 0.074466035 -0.1771255 -0.025879584
0.041276723 -0.04938559 -0.09334052 0.030531617 -0.0064033405 0.27534425 0.02819906 -0.12718557
0.0992697 0.09128008 -0.02135591 -0.12016641 0.06498253 -0.0015130867 0.035979625 0.17006527
0.029663261 -0.015948376 -0.049768604 -0.00019487819 0.025482727 0.095109664 0.4685828 0.05412153
-0.20613198 0.13390818 -0.02185573 -0.117656015 -0.22440633 -0.012207023 -0.30601725 -0.12962505
0.32558766 0.19335598 -0.04776217 0.10301395 0.002058749 -0.0048930934 0.069920704 -0.010005871
-0.06971429 0.18880875 0.027736517 0.059692137 -0.00972764 -0.093436144 -0.039543975 -0.22009392
0.044675697 0.03239965 -0.062732 0.14419046 0.16794269 -0.01691764 0.010201692 0.0026118215
-0.039398033 -0.08317193 -0.0070543275 -0.04390242 0.07342968 -0.010805019 -0.013366087 0.12094317
-0.11006087 0.050085057 -0.13802695 -0.04733333 0.07554532 0.013773376 -0.032361314 0.08923829
0.05902849 0.57820547 0.07367702 0.06122847 0.16994955 0.04007346 -0.036619775 0.021464605
-0.07369626 0.069246225 0.108587675 -0.012891771 -0.036883917 -0.019197714 -0.07689515 -0.0006890952
00000000: 38e6 1fbd 7642 19bd 12e9 9e3e 7c5c 2c3d
00000010: d7ec 5ebe 39d6 21be e644 fd3d a3b5 58bd
00000020: d75f 593e 9c63 27bd 8ea8 013e 6b0a 3c3e
00000030: 5575 ca3d e1ad 2fbe 9b49 6bbe 5eb2 a13d
00000040: f374 a4ba f46a 5ebe 8be7 153e 7f08 c2bb
00000050: 83ee e0bd a580 3ebd 0593 9a3d f309 e73d
00000060: eb06 edbd 6611 2cbd 4c68 b8bc 8f65 083d
00000070: fe94 35be f830 dabd 1c1d 79bc a68f 3d3b
00000080: 1f58 8cbe b1f7 013d 6c54 2ebd ddf7 153e
00000090: 0686 4abd 8930 613d e648 553d 62fc ffbd
000000a0: 4e64 e8bc 1efd 46be c47a 9dbe 4796 d03d
000000b0: 20bd 4b3d a020 bbbc 3661 e1bd e833 b9bd
000000c0: 0bfa c1bd 633c ea3c 0668 ac3d 30d8 643d
000000d0: 1db0 c5bb e026 58be 39fa 02be 5449 46bd
000000e0: 8084 e73c bd11 2a3d 3340 463e 01dd 5abd
000000f0: c341 113e 42c5 dabd 03e9 b43d 6b5f 81be
00000100: 7bb7 8fbb 2e0a 523d 48e1 9b3d d7d3 07bd
00000110: de1b aabc d08d ddbc 89af 6cbe c9d9 21be
00000120: 6a26 81ba cfcb 60bd 96fa 82be 32d4 8ebd
00000130: 44a4 d83d aa91 a6bc bd46 79bd 4dee 9bbe
00000140: 05bc 9f3d 1d7f cabd 9776 7f3d e518 3a3d
00000150: ec30 22bd 149b 85bc 550b bd3d 6f6a 87bc
00000160: 47a8 08be 6e73 593d fc0f 9d3d 1b62 99bc
00000170: f90c a0bd 1888 2fbe 9d2a 9abe 046e 523e
00000180: 475c 513e f241 e3be 3b3e 9c3d 194f b1be
00000190: 66c7 49bd 5be9 363d 142e 34bc bac3 6abd
000001a0: 5019 e63c be5c 813d b1be 803d 8c06 353d
000001b0: a054 673d b2a0 5a3d b7ce 01bd 5a49 4a3d
000001c0: 4271 edbc 84e9 a2bd c1b6 b13d b5f2 923d
000001d0: 738e 403a ed9b 13bc ed1a dbbd 32dd 8c3d
000001e0: 3dbf 0cbe 7056 be3c 32c7 e13d b46f b63d
000001f0: 1dd1 383c 0140 eb3c 6c06 e9bd 1020 d0bd
00000200: 5225 473c cfdf fdbc fdb7 633e 11b5 893e
00000210: ebad d63d 1f54 abbc c2d4 a23d ad98 d7bc
00000220: bd2a f4bc fce4 f43d 1624 33bd 04ea f63c
00000230: f3d9 4bbc daac 1f3c 9422 663c f80f 853c
00000240: 222d b13d 656c c03d ad9e a73d cc26 583d
00000250: 51c2 853d dd43 8e3d 3026 843d 441b e9bd
00000260: 9848 6a3e 30eb 613f 2db8 b13d 50de a83d
00000270: 6d4b 213e fb8e 043d 0e1f 923c a395 0b3d
00000280: 05bc 473d 6999 febd ae2d a93e 4406 a23d
00000290: 5469 3d3d a681 983d 6360 35be 6c01 d4bc
000002a0: c811 293d 8b48 4abd 5129 bfbd 711d fa3c
000002b0: 1dd3 d1bb ecf9 8c3e b701 e73c ef3c 02be
000002c0: ea4d cb3d 0df1 ba3d 97f2 aebc cf19 f6bd
000002d0: 9015 853d c452 c6ba 5f5f 133d 9725 2e3e
000002e0: 5e00 f33c 2ba6 82bc 2ada 4bbd 3758 4cb9
000002f0: 27c1 d03c dbc8 c23d 16ea ef3e 8aae 5d3d
00000300: 4314 53be 3a1f 093e ca0a b3bc a3f5 f0bd
00000310: c6ca 65be f7ff 47bc 4bae 9cbe 6ebc 04be
00000320: 6db3 a63e 1cff 453e 44a2 43bd faf8 d23d
00000330: 14ec 063b 3e56 a0bb 9632 8f3d aaef 23bc
00000340: 5ec6 8ebd 1557 413e b137 e33c be7f 743d
00000350: ae60 1fbc 735b bfbd ddf8 21bd 4d60 61be
00000360: ddfd 363d 7fb5 043d a379 80bd aaa6 133e
00000370: 2bf9 2b3e dd96 8abc ff24 273c 182b 2b3b
00000380: d55f 21bd 0b56 aabd fd27 e7bb 06d3 33bd
00000390: 4d62 963d 8907 31bc 6ffd 5abc 0db1 f73d
000003a0: 9867 e1bd fd25 4d3d f056 0dbe 98e0 41bd
000003b0: 81b7 9a3d baa9 613c 4c8d 04bd 91c2 b63d
000003c0: dcc7 713d 4605 143f fae3 963d b4ca 7a3d
000003d0: 4107 2e3e 1224 243d 9efe 15bd 8ad6 af3c
000003e0: 11ee 96bd f7d0 8d3d 3763 de3d 0238 53bc
000003f0: 9713 17bd 8644 9dbc 347b 9dbd 65a4 34ba

model/dense_3/MatMul;model/activation_3/Relu;model/dense_3/BiasAdd f4 [100]
-29.107164 49.8756 11.955779 -5.4492774 16.21149 -17.832542 -3.5291505 16.35743
48.339085 22.24314 45.966606 50.791477 49.67163 0.88406724 15.809562 9.854322
-7.992065 15.723523 8.731252 -4.654566 32.87155 -9.351826 -0.9772327 35.661003
51.5738 61.201454 31.187206 -6.9138618 -13.944509 -49.753742 14.242738 22.798597
24.501698 -2.0482876 13.534006 68.835304 -1.4981431 28.625006 -35.03751 10.61706
41.453083 44.49541 53.71696 -27.881594 3.442453 6.0620728 -22.742796 4.5601487
26.662672 0.11100425 12.780034 -35.47798 -19.114418 -38.86531 -28.983185 18.204985
-1.1260377 -19.504631 10.116306 22.434662 -4.0731225 3.7725873 6.448824 20.884665
-13.388174 5.209216 11.331468 0.50932544 18.328749 -6.7391415 -6.646545 6.9468527
-0.72673637 -29.966171 37.73912 -1.6209136 -22.79898 10.7276745 1.9602123 -39.100613
-48.022594 -0.49918446 -0.75034237 28.937273 -2.6521094 -24.26048 14.760439 2.5142536
-13.517059 11.197329 -5.526727 36.731026 -5.794685 -0.55237067 23.862288 -59.053383
3.637448 23.859688 27.16609 5.5254855
00000000: 79db e8c1 9d80 4742 df4a 3f41 7b60 aec0
00000010: 22b1 8141 0ca9 8ec1 9add 61c0 04dc 8241
00000020: 395b 4142 f3f1 b141 cedd 3742 792a 4b42
00000030: c0af 4642 3b52 623f f7f3 7c41 4eab 1d41
00000040: ffbe ffc0 8d93 7b41 35b3 0b41 34f2 94c0
00000050: 787c 0342 14a1 15c1 ec2b 7abf dea4 0e42
00000060: 924b 4e42 4ace 7442 667f f941 5b3e ddc0
00000070: b51c 5fc1 d503 47c2 41e2 6341 8763 b641
00000080: 7a03 c441 2517 03c0 4a8b 5841 adab 8942
00000090: 27c3 bfbf 0300 e541 6926 0cc2 7adf 2941
000000a0: f5cf 2542 4dfb 3142 2bde 5642 810d dfc1
000000b0: 2651 5c40 80fc c140 3ff1 b5c1 bdec 9140
000000c0: 274d d541 3256 e33d 057b 4c41 74e9 0dc2
000000d0: 54ea 98c1 1476 1bc2 90dd e7c1 cfa3 9141
000000e0: 0122 90bf 7c09 9cc1 64dc 2141 307a b341
000000f0: 0557 82c0 1272 7140 c45c ce40 cb13 a741
00000100: f635 56c1 e6b1 a640 b14d 3541 2763 023f
00000110: 47a1 9241 0ca7 d7c0 7fb0 d4c0 9e4c de40
00000120: 650b 3abf b8ba efc1 dcf4 1642 197a cfbf
00000130: 5064 b6c1 8ea4 2b41 3de8 fa3f 0767 1cc2
00000140: 2317 40c2 1b95 ffbe 7016 40bf 897f e741
00000150: 29bc 29c0 7715 c2c1 c22a 6c41 88e9 2040
00000160: e045 58c1 4228 3341 f3da b0c0 92ec 1242
00000170: 0f6e b9c0 2a68 0dbf f7e5 be41 aa36 6cc2
00000180: f3cb 6840 a4e0 be41 2754 d941 c7d0 b040

model/batch_normalization_2/batchnorm/mul_1;model/batch_normalization_2/batchnorm/add_1;model/dense_3/MatMul;model/activation_3/Relu;model/dense_3/BiasAdd f4 [100, 100]
0.08420552 0.02552192 -0.01801468 0.023659384 0.045104664 -0.048074212 0.06852049 0.22147775
-0.12556906 -0.04167294 -0.25926483 -0.041032262 -0.11463497 -0.056674466 0.04404379 0.018952519
-0.014434815 0.12523882 0.07635055 0.012010142 -0.007945732 0.069486596 0.5692398 -0.071635485
0.03622934 -0.023003068 0.0778646 0.015152304 -0.2177879 -0.13677526 -0.06863262 -0.08957285
-0.0072185313 -0.004932922 -0.2140731 -0.18753517 0.10695759 -0.042830314 -0.046938095 -0.020779636
-0.023752827 0.012868745 0.024895508 0.16243213 -0.0139633175 -0.018180598 0.09743785 -0.2300911
0.09522753 0.2848064 0.08392054 0.07714509 0.049011815 0.06961612 -0.086735286 0.064036235
0.08533806 0.2312028 0.10594028 -0.043226846 -0.13110006 -0.012381709 -0.06815757 -0.093182676
0.15884341 0.013296652 -4.3395877 0.054851253 0.08000847 0.17321229 -0.015061874 -0.118528485
0.029345043 -0.045490365 0.03325092 0.07229755 -0.02902789 0.10482362 -0.0338872 0.086537115
0.010348947 -0.13007268 0.03946838 -0.01658654 0.019768393 -0.0839279 0.07307278 -0.15012507
0.28506395 0.45232877 -0.09950243 -0.1254885 0.003916009 0.14068574 0.08713687 0.0076054386
0.007759185 -0.28421214 -0.12676796 -0.01871478 -0.2846279 -0.021420423 -0.44184917 -0.025603363
-0.1146232 0.04915696 0.06488631 0.13975127 -0.096138574 -0.2788663 0.0918287 0.14831646
-0.009863451 -0.16420779 0.1743826 0.006821889 -0.011902654 -0.1006103 -0.1098414 -0.13051832
-0.05915412 0.04179593 -0.17230266 -0.07227736 0.19810364 -0.16347328 0.41929862 0.20598154
0.12313836 0.11555774 -0.13822733 0.329129 0.09052328 0.09943001 -0.024010098 -0.12055456
0.033665974 0.064291954 -0.07465631 0.2311259 -0.12580091 -0.030270362 -0.004851041 -0.0900226
0.15158086 0.05591707 -0.060388226 -0.44830316 0.060089596 -0.2497878 0.0388576 0.27419874
-0.08241785 -0.26317218 -0.16094357 -0.17177856 -0.010496844 -0.06388927 -0.22015531 0.16623636
0.08443916 0.2080304 0.059910834 -0.11745681 -0.00013318296 -0.0329331 0.008347816 -0.036257457
0.04961455 -0.117418684 -0.008642081 0.11456584 0.12483794 -0.0179971 -0.023046946 -0.065730736
-0.15476964 0.008813094 -0.024094274 0.28975347 -0.05330995 -0.13659035 0.13003662 -0.25444824
-0.06664182 0.037763897 0.21246725 -0.2729616 -0.2137086 -0.061624717 0.06778466 0.1396122
0.13375598 0.019359047 -0.14462912 -0.097709276 0.049189363 -0.18405044 0.05843184 -0.0015958425
0.095805585 0.18392393 -0.06789901 -0.08879618 0.065164566 -0.008030823 0.06140009 0.061347704
0.095217206 0.14624521 -0.12098772 0.13653722 -0.03591788 -0.2511184 0.013259644 0.14365612
0.13906753 0.0032792194 -0.12034235 0.0911946 -0.066488855 0.0741983 0.032895926 -0.012788267
-0.16340925 0.036601577 -0.089478955 -0.046032853 0.09721489 0.058077794 -0.14486323 -0.09284794
-0.22560094 -0.004987241 -0.022825023 0.042162817 0.0485223 0.15610312 0.034389943 -0.116314776
0.019622294 -0.06931184 -0.23785065 0.08069112 0.07677156 -0.27890205 -0.007913115 -0.07732576
-0.13602044 -0.040775955 -0.22631739 0.0046197083 0.07186869 -0.03392597 -0.051446676 -0.090828
00000000: f273 ac3d 5813 d13c 8693 93bc 53d1 c13c
00000010: abbf 383d 77e9 44bd 7854 8c3d 10cb 623e
00000020: 2d95 00be 3fb1 2abd 5cbe 84be 7211 28bd
00000030: bdc5 eabd 7c23 68bd 4367 343d 5042 9b3c
00000040: 0180 6cbc 9b3e 003e ad5d 9c3d 30c6 443c
00000050: d12e 02bc fd4e 8e3d b3b9 113f a0b5 92bd
00000060: 3765 143d ee70 bcbc 7a77 9f3d 5f41 783c
00000070: cb03 5fbe d00e 0cbe 428f 8cbd f871 b7bd
00000080: 6e89 ecbb 59a4 a1bb fb35 5bbe 3809 40be
00000090: 950c db3d d76e 2fbd 2942 40bd 0e3a aabc
000000a0: 4a95 c2bc 6ed7 523c aaf1 cb3c 9c54 263e
000000b0: 66c6 64bc 7aef 94bc 7f8d c73d 009d 6bbe
000000c0: a706 c33d 25d2 913e 88de ab3d 3ffe 9d3d
000000d0: 9dc0 483d e592 8e3d 45a2 b1bd 6e25 833d
000000e0: b9c5 ae3d 6dc0 6c3e 38f7 d83d a20e 31bd
000000f0: 183f 06be a7dc 4abc 3296 8bbd 8fd6 bebd
00000100: d9a7 223e 33da 593c e7dd 8ac0 b5ab 603d
00000110: 7bdb a33d 905e 313e 14c6 76bc 10bf f2bd
00000120: 0465 f03c 1b54 3abd 1e32 083d bd10 943d
00000130: e6cb edbc c4ad d63d 4ecd 0abd 5f3a b13d
00000140: a18e 293c c631 05be 99a9 213d 7fe0 87bc
00000150: 53f1 a13c 64e2 abbd 2fa7 953d 63ba 19be
00000160: e7f3 913e a397 e73e eec7 cbbd 0f80 00be
00000170: dd51 803b ec0f 103e d174 b23d 0b37 f93b
00000180: c340 fe3b 4184 91be 76cf 01be bd4f 99bc
00000190: c0ba 91be e279 afbc 0e3a e2be 25be d1bc
000001a0: 91bf eabd cf58 493d 1de3 843d f51a 0f3e
000001b0: 4de4 c4bd 90c7 8ebe af10 bc3d 45e0 173e
000001c0: 509a 21bc 1626 28be 5a91 323e 278a df3b
000001d0: 5903 43bc c60c cebd 87f4 e0bd 98a6 05be
000001e0: 974b 72bd 3632 2b3d 1c70 30be 2706 94bd
000001f0: aedb 4a3e 8a65 27be 4fae d63e d3ec 523e
00000200: f72f fc3d 89a9 ec3d 778b 0dbe 9983 a83e
00000210: 4564 b93d f6a1 cb3d d3b0 c4bc 4fe5 f6bd
00000220: 55e5 093d 80ab 833d 68e5 98bd 45ac 6c3e
00000230: f4d1 00be 8df9 f7bc 7bf5 9ebb c55d b8bd
00000240: 0338 1b3e 4c09 653d a559 77bd fe87 e5be
00000250: 8220 763d 5fc8 7fbe 2629 1f3d c763 8c3e
00000260: b1ca a8bd 81be 86be 64ce 24be b8e6 2fbe
00000270: f4fa 2bbc 61d8 82bd 6570 61be dd39 2a3e
00000280: 70ee ac3d ec05 553e 1065 753d 328d f0bd
00000290: 07a7 0bb9 dce4 06bd 47c5 083c b382 14bd
000002a0: a038 4b3d 3579 f0bd 8497 0dbc 7fa1 ea3d
000002b0: 09ab ff3d a76e 93bc f3cc bcbc d69d 86bd
000002c0: ef7b 1ebe cc64 103c 5b61 c5bc 915a 943e
000002d0: 895b 5abd 57de 0bbe 5228 053e 0a47 82be
000002e0: 827b 88bd 51ae 1a3d 0491 593e 9fc1 8bbe
000002f0: 6dd6 5abe 336a 7cbd afd2 8a3d 80f6 0e3e
00000300: 54f7 083e dd96 9e3c a819 14be cd1b c8bd
00000310: c97a 493d b877 3cbe 3a56 6f3d 972b d1ba
00000320: b835 c43d 8e56 3c3e a30e 8bbd c6da b5bd
00000330: 0075 853d b793 03bc a97e 7b3d bb47 7b3d
00000340: 3d01 c33d 4ec1 153e 69c8 f7bd 6ad0 0b3e
00000350: a01e 13bd 9792 80be fa3e 593c 971a 133e
00000360: b867 0e3e 2ce8 563b 0d76 f6bd 3cc4 ba3d
00000370: 4f2b 88bd 47f5 973d e1bd 063d e185 51bc
00000380: c154 27be 89eb 153d be40 b7bd f28c 3cbd
00000390: 9a18 c73d fbe2 6d3d 0757 14be 1027 bebd
000003a0: ef03 67be 026c a3bb 8bfb babc ebb2 2c3d
000003b0: 52bf 463d 7fd9 1f3e 78dc 0c3d 7136 eebd
000003c0: efbe a03c 5ef3 8dbd 1f8f 73be 6341 a53d
000003d0: 683a 9d3d 40cc 8ebe 03a6 01bc f85c 9ebd
000003e0: f148 0bbe b004 27bd bfbf 67be ec60 973b
000003f0: e42f 933d f5f5 0abd c0b9 52bd 0804 babd

model/dense_4/MatMul;model/activation_4/Relu;model/dense_4/BiasAdd f4 [100]
0.8740215 14.331344 0.5504334 2.618795 -6.7586684 -6.3648953 2.8717768 11.840343
43.021065 15.825403 -6.2394977 -11.772497 56.26613 23.457026 -10.203892 -21.729164
0.49413553 -12.170168 16.958181 4.8923697 -15.030718 -1.0416945 8.839062 15.980978
39.47588 -3.392606 27.863731 -0.011330659 7.812694 -5.125959 20.332087 -0.7776135
30.860836 10.375666 25.29808 -8.959786 -17.500011 9.735846 33.256702 45.600502
42.311916 -0.60821956 0.69363624 -0.7696125 51.65615 -11.243877 -15.185779 -21.891972
-33.61938 2.8535388 46.295727 23.293745 -2.4336624 -1.3268588 33.69291 10.213502
24.162691 8.31714 21.189238 21.726162 -26.723495 24.145977 -17.959885 17.912294
9.210605 30.871767 -8.550932 18.76235 28.254217 49.892094 -4.381532 39.241413
4.3147388 -47.80696 9.991615 50.3731 42.14387 -14.833023 28.675497 -18.688635
34.48163 27.874601 5.1831594 -19.442017 -3.2591293 -5.736139 21.104366 3.0680954
9.914965 8.280153 -17.334724 32.414642 33.907253 4.1875005 54.886574 38.9205
3.1269567 -15.488091 40.644657 -5.376724
00000000: dfbf 5f3f 2f4d 6541 34e9 0c3f 569a 2740
00000010: 0347 d8c0 39ad cbc0 31cb 3740 0c72 3d41
00000020: 9215 2c42 da34 7d41 f7a9 c7c0 265c 3cc1
00000030: 8410 6142 fda7 bb41 2443 23c1 54d5 adc1
00000040: 55ff fc3e 02b9 42c1 5baa 8741 4b8e 9c40
00000050: d27d 70c1 3f56 85bf cc6c 0d41 16b2 7f41
00000060: 4de7 1d42 7520 59c0 ece8 de41 3aa4 39bc
00000070: 9701 fa40 db07 a4c0 1da8 a241 ae11 47bf
00000080: fee2 f641 ba02 2641 7862 ca41 495b 0fc1
00000090: 0600 8cc1 06c6 1b41 dd06 0542 ea66 3642
000000a0: 673f 2942 47b4 1bbf 2592 313f 5305 45bf
000000b0: e69f 4e42 ece6 33c1 f3f8 72c1 c222 afc1
000000c0: 3f7a 06c2 61a0 3640 d32e 3942 9759 ba41
000000d0: 20c1 1bc0 82d6 a9bf 8ac5 0642 816a 2341
000000e0: 314d c141 0113 0541 8f83 a941 2ecf ad41
000000f0: b8c9 d5c1 f62a c141 d8ad 8fc1 614c 8f41
00000100: a35e 1341 61f9 f641 9ed0 08c1 4b19 9641
00000110: a308 e241 8191 4742 8335 8cc0 35f7 1c42
00000120: 5712 8a40 543a 3fc2 a8dd 1f41 0e7e 4942
00000130: 5393 2842 1054 6dc1 6b67 e541 5382 95c1
00000140: 30ed 0942 2fff de41 71dc a540 4089 9bc1
00000150: 9395 50c0 738e b7c0 bed5 a841 ad5b 4440
00000160: b2a3 1e41 827b 0441 84ad 8ac1 98a8 0142
00000170: 07a1 0742 0100 8640 da8b 5b42 98ae 1b42
00000180: 0f20 4840 39cf 77c1 2194 2242 1f0e acc0

model/batch_normalization_3/batchnorm/mul_1;model/batch_normalization_3/batchnorm/add_1;model/dense_4/MatMul;model/activation_4/Relu;model/dense_4/BiasAdd f4 [100, 100]
-0.13021435 0.011489291 0.02034823 -0.19394438 -0.22745614 0.12096736 -0.067258015 0.031830315
-0.20247412 0.09047677 -0.0066553564 0.11376545 -0.05034893 0.047541216 0.09384832 0.06541223
0.006946631 -0.038634952 -0.14791657 -0.0020604557 0.044905413 0.49811092 0.6061009 0.17203315
-0.08610257 0.0406438 0.15176463 0.015516773 -0.45259294 -0.0028732943 -0.007225847 -0.26452917
-0.003267993 -0.09640778 0.04165125 0.022677924 0.2080024 -0.10790132 -0.05717909 0.009993276
-0.270655 0.054884464 -0.0064833243 0.051878735 0.11422952 0.055661872 0.17361823 -0.014836596
0.29322377 0.042460933 0.04887526 0.1113993 0.23690942 0.04103455 0.034537673 0.1703918
-0.05261485 0.070557415 0.03348551 0.16096498 -0.3274666 -0.021546619 0.016442737 0.029671947
-0.04700758 -0.06344616 0.12919869 0.018857837 0.049449027 0.09007852 -0.042391427 0.024517875
0.17261139 -0.053720012 -0.043225694 -0.09013409 -0.19030142 0.022203892 0.0030473294 0.024269735
0.115475886 -0.071283914 0.14501812 -0.083181605 0.03894744 0.04539597 -0.10227979 0.09627342
-0.025866855 -0.037478928 -0.057505067 0.09103032 0.19026455 0.058652107 -0.38119212 0.005152605
0.12998614 0.08095938 -0.02173458 0.076035984 0.0874006 0.037621565 -0.012769164 0.12533326
-0.08612522 -0.054636557 0.03244232 0.23939024 -0.27240556 0.028549487 -0.019106222 0.17205913
-0.051193066 -0.05930191 0.11056779 0.07504885 0.053957146 -0.031177387 0.08396866 -0.5128843
-0.015568693 -0.137701 -0.05127887 0.19420922 -0.1712601 0.032279797 -0.17821679 0.0032865945
0.068353154 0.23536275 0.021605833 -0.103294626 -0.021487307 -0.05029537 0.20023277 -0.022279581
0.06919959 -0.021536741 0.063553646 0.07534456 0.08428689 -0.17267418 -0.024334107 -0.037961446
0.11155239 -0.02316777 0.16070376 -0.05303952 -0.10159776 0.07353076 -0.0058726245 0.2715388
-0.15747957 0.148597 -0.0065757222 -0.027577996 -0.08641819 -0.10205189 -0.048822977 -0.2912375
0.117763385 -0.03021423 -0.11748362 0.02075318 0.1676152 -0.07678637 -0.065962575 0.052285258
0.23396856 0.15513904 -0.083048984 -0.65824306 -0.27994558 0.10449532 -0.06360337 -0.037636362
-0.14377624 0.21669546 0.037123222 0.017989172 -0.06472131 0.03707455 -0.25456113 -0.10887732
-0.086572625 -0.17017776 0.17016381 -1.0359596 0.0042060814 0.0377939 0.07767019 -0.15900394
-0.15106992 0.05583232 -0.022347782 -0.00069959287 0.3714451 0.083210975 -0.004348189 0.1450367
-0.08033947 0.25748035 0.36547324 0.19298252 0.10036446 -0.07314957 0.020842172 0.049922556
-0.06975432 -0.0566621 -0.2058054 0.20087251 0.16497733 0.05277003 -0.049542554 0.034299195
0.05965651 0.23244882 0.06934714 0.10032917 0.08293961 0.025150008 -0.0029533065 0.021179378
-0.06636084 -0.24324451 0.15334432 -0.082837686 0.0032196215 0.13175245 -0.0031978562 0.008260784
-0.1744868 0.109440304 -0.051804565 -0.15472583 0.13292189 -0.016110701 -0.15118438 -0.04576584
-0.08918808 -0.110433266 -0.1623598 0.031138541 0.0014262936 -0.0048262114 -0.0042649633 -0.028515894
0.15190881 -0.11576668 -0.037836798 -0.15394025 0.012165681 0.15995109 0.0345127 0.07102485
00000000: e956 05be 943d 3c3c 55b1 a63c 5b99 46be
00000010: 43ea 68be bcbd f73d 92be 89bd 8160 023d
00000020: 6055 4fbe e34b b93d 2d15 dabb dcfd e83d
00000030: ae3a 4ebd 94ba 423d 8c33 c03d d9f6 853d
00000040: 90a0 e33b af3f 1ebd 7177 17be b608 07bb
00000050: bdee 373d 6508 ff3e 6e29 1b3f 7529 303e
00000060: 8b56 b0bd 1d7a 263d 3068 1b3e 103a 7e3c
00000070: 43ba e7be e14d 3cbb ccc6 ecbb 5e70 87be
00000080: d32b 56bb 7171 c5bd 809a 2a3d 0ec7 b93c
00000090: 95fe 543e 5efb dcbd 9f34 6abd d6ba 233c
000000a0: 4b93 8abe 88ce 603d 1172 d4bb cc7e 543d
000000b0: 2bf1 e93d b4fd 633d fac8 313e 3215 73bc
000000c0: 6d21 963e 84eb 2d3d 6d31 483d 5125 e43d
000000d0: 6298 723e d813 283d 6077 0d3d 307b 2e3e
000000e0: ab82 57bd 6880 903d 1a28 093d 01d4 243e
000000f0: b4a9 a7be 8982 b0bc ebb2 863c 9512 f33c
00000100: 058b 40bd 0ff0 81bd a94c 043e c07b 9a3c
00000110: 108b 4a3d 167b b83d a2a2 2dbd b6d9 c83c
00000120: 0ac1 303e 8409 5cbd 6d0d 31bd 3998 b8bd
00000130: 60de 42be f0e4 b53c b4b5 473b 53d1 c63c
00000140: 9f7e ec3d 4dfd 91bd a17f 143e 1e5b aabd
00000150: 5a87 1f3d 20f1 393d 1178 d1bd 002b c53d
00000160: bae6 d3bc 8183 19bd 6f8a 6bbd 1b6e ba3d
00000170: b6d4 423e 313d 703d 9d2b c3be 2fd7 a83b
00000180: 161b 053e 08ce a53d b80c b2bc c1b8 9b3d
00000190: 16ff b23d 1219 1a3d c135 51bc 5d57 003e
000001a0: 6b62 b0bd 95ca 5fbd 3de2 043d b722 753e
000001b0: be78 8bbe 9de0 e93c a784 9cbc 4530 303e
000001c0: d2af 51bd 8fe6 72bd 5e71 e23d 36b3 993d
000001d0: 2b02 5d3d b867 ffbc c3f7 ab3d 634c 03bf
000001e0: d513 7fbc 7e01 0dbe cb09 52bd c8de 463e
000001f0: cf5e 2fbe d237 043d 767e 36be e863 573b
00000200: bdfc 8b3d ef02 713e b7fe b03c 228c d3bd
00000210: 2606 b0bc 8502 4ebd d209 4d3e ab83 b6bc
00000220: 84b8 8d3d d26d b0bc 6a28 823d 404e 9a3d
00000230: 9b9e ac3d 80d1 30be 5258 c7bc 767d 1bbd
00000240: 9475 e43d 56ca bdbc 878f 243e f83f 59bd
00000250: 7d12 d0bd 4c97 963d 256f c0bb 2207 8b3e
00000260: 5342 21be d029 183e 2879 d7bb 40eb e1bc
00000270: 05fc b0bd 9500 d1bd 9afa 47bd 151d 95be
00000280: ee2d f13d d583 f7bc 419b f0bd 9302 aa3c
00000290: 52a3 2b3e 2c42 9dbd 6317 87bd 1129 563d
000002a0: 7495 6f3e c5dc 1e3e 9615 aabd 9e82 28bf
000002b0: 0755 8fbe a401 d63d 7c42 82bd 9628 1abd
000002c0: 143a 13be 6ae5 5d3e 850e 183d 075e 933c
000002d0: 9b8c 84bd 7cdb 173d d655 82be 13fb debd
000002e0: fd4c b1bd 1443 2ebe 6c3f 2e3e 539a 84bf
000002f0: 2bd3 893b c7cd 1a3d 8c11 9f3d eed1 22be
00000300: 13b2 1abe 6eb0 643d b212 b7bc e264 37ba
00000310: 0d2e be3e 846a aa3d 417b 8ebb 8084 143e
00000320: 0589 a4bd 77d4 833e 4f1f bb3e 369d 453e
00000330: e28b cd3d 71cf 95bd 34bd aa3c 987b 4c3d
00000340: 5adb 8ebd 8516 68bd a7be 52be 86b1 4d3e
00000350: d1ef 283e 6325 583d 22ed 4abd 507d 0c3d
00000360: 625a 743d 1007 6e3e e005 8e3d 6179 cd3d
00000370: 3edc a93d 6407 ce3c 438c 41bb 6080 ad3c
00000380: 31e8 87bd 1715 79be 4b06 1d3e cea6 a9bd
00000390: 4900 533b 1dea 063e 2093 51bb 3d58 073c
000003a0: abac 32be 3d22 e03d 0631 54bd 7370 1ebe
000003b0: ad1c 083e 97fa 83bc 14d0 1abe f674 3bbd
000003c0: 3da8 b6bd d62a e2bd a641 26be 4116 ff3c
000003d0: 79f2 ba3a 3225 9ebb 1bc1 8bbb 2a9a e9bc
000003e0: fc8d 1b3e 1517 edbd c2fa 1abd 83a2 1dbe
000003f0: 9152 473c 38ca 233e 305d 0d3d 7a75 913d

model/dense_5/MatMul;model/activation_5/Relu;model/dense_5/BiasAdd f4 [100]
8.46817 46.366127 -11.438443 2.925451 33.63262 -7.9829226 41.24212 18.233078
4.2870593 2.83161 31.826462 0.2644486 8.893522 32.31937 -30.818258 28.998518
-15.72875 14.564941 19.309513 -24.843113 72.51774 -15.140598 22.624508 39.27165
32.22343 11.0883 -2.3759696 0.95979553 12.097504 13.269851 -16.402401 7.153417
-16.957716 -28.614618 4.1248164 35.287453 22.738712 37.791107 1.7774693 -33.688892
29.153868 -28.224337 19.342505 18.116867 15.637463 -26.935287 9.185398 15.592502
-41.73481 33.72634 3.5161939 27.429924 -30.266922 -5.0772734 12.903485 5.606791
8.870301 16.27789 0.48090342 44.827835 22.100315 4.2240705 44.587154 30.594168
-5.730413 28.922747 -6.494216 -13.35519 -6.596416 9.691543 -26.260368 25.17838
37.47538 30.288183 -20.77805 1.6399978 17.46774 -17.243229 2.141035 -58.359684
70.259705 -28.18313 26.168 28.030859 -8.338501 30.692734 -4.971359 13.85728
-8.642268 2.8334405 -11.405262 21.270607 0.3379569 -10.930466 -3.4096115 4.691617
28.8177 4.8953695 10.704479 12.5427265
00000000: a07d 0741 ea76 3942 dd03 37c1 973a 3b40
00000010: ce87 0642 1a74 ffc0 eef7 2442 58dd 9141
00000020: 972f 8940 1939 3540 989c fe41 cf65 873e
00000030: de4b 0e41 0947 0142 cb8b f6c1 f7fc e741
00000040: f6a8 7bc1 000a 6941 e279 9a41 b2be c6c1
00000050: 1509 9142 e43f 72c1 fefe b441 2b16 1d42
00000060: cbe4 0042 ad69 3141 e30f 18c0 29b5 753f
00000070: 608f 4141 4f51 5441 1e38 83c1 cbe8 e440
00000080: 67a9 87c1 bdea e4c1 7ffe 8340 5a26 0d42
00000090: e2e8 b541 182a 1742 1d84 e33f 6dc1 06c2
000000a0: 1f3b e941 71cb e1c1 73bd 9a41 58ef 9041
000000b0: 0c33 7a41 787b d7c1 64f7 1241 e37a 7941
000000c0: 72f0 26c2 c6e7 0642 5209 6140 7c70 db41
000000d0: a822 f2c1 0679 a2c0 ad74 4e41 d56a b340
000000e0: c1ec 0d41 1e39 8241 f938 f63e b44f 3342
000000f0: 72cd b041 962b 8740 3f59 3242 dbc0 f441
00000100: 8b5f b7c0 c961 e741 9ed0 cfc0 dcae 55c1
00000110: d715 d3c0 8f10 1b41 3c15 d2c1 526d c941
00000120: cae6 1542 334e f241 7239 a6c1 73eb d13f
00000130: eebd 8b41 22f2 89c1 b806 0940 5170 69c2
00000140: f884 8c42 0d77 e1c1 1058 d141 333f e041
00000150: 806a 05c1 b88a f541 5f15 9fc0 6bb7 5d41
00000160: bb46 0ac1 1757 3540 f47b 36c1 342a aa41
00000170: b008 ad3e 30e3 2ec1 1337 5ac0 ba21 9640
00000180: a68a e641 dea6 9c40 8c45 2b41 02af 4841

model/batch_normalization_4/batchnorm/mul_1;model/batch_normalization_4/batchnorm/add_1;model/dense_5/MatMul;model/activation_5/Relu;model/dense_5/BiasAdd f4 [100, 100]
0.0026526437 0.07426966 -0.006282024 0.08155971 0.052987583 0.50086147 0.02048671 -0.21609725
0.23680797 -0.1366828 -1.4825925 -1.1501383 0.09507015 -0.060250834 -0.023444459 0.20657033
-0.24814168 -0.10950981 0.15003923 -0.044688907 0.07470589 0.027822133 -0.10109763 -0.118131906
-0.06618948 0.05659499 0.043873526 0.0428045 0.20617338 0.063095696 0.013281103 -0.049694624
-0.01966716 0.019372404 -0.21706674 -0.13411802 -0.011040977 -0.12211464 -0.07109888 0.049241714
0.09344795 0.10329694 -0.16650352 -0.032736283 0.015815724 0.110452145 -0.13307935 0.02658817
0.015430294 0.0053643906 0.11255199 0.011366837 0.31010506 0.056143664 -0.047516935 0.20323521
-0.020317389 -0.3567979 -0.23235303 0.10991408 0.100184955 -0.001442632 0.011767879 0.2291048
0.04132718 -0.045218118 -0.4303459 -0.012816926 -0.049193557 -0.35146305 -0.015337131 -0.07390253
-0.07929339 0.038431294 -0.003990675 -0.061133943 -0.0017741602 0.01747294 0.39491406 0.15433209
-0.10815771 -0.10260189 -0.2286814 0.38043678 -0.2516856 0.08882056 0.044044778 -0.021620959
-0.21336097 -0.12951624 -0.12147953 0.018071212 0.1061991 0.016338361 0.20937426 0.031856906
-0.12040869 -0.14676562 0.0048956736 -0.03218555 -0.03919856 -0.045318812 -0.106497765 -0.6203283
-0.08167749 0.8385494 0.012048704 -0.336831 -0.0023637477 0.23175877 0.4427 0.34124392
-0.00147891 0.06027031 0.33808702 -0.026912054 -0.5210907 -0.6627595 0.19167961 0.04748285
-0.1885249 -0.1364391 -0.031618074 0.027364872 -0.031346772 -0.015570663 0.0416754 -0.13551138
-0.02155299 -0.11251324 -0.13605513 0.106901124 0.12025749 0.053094767 -0.07005955 -0.25832745
-0.46675152 -0.009075862 0.1969882 0.012545589 -0.010888255 -0.16009584 0.12418283 0.022098213
0.048151538 -0.61000705 0.027833613 -0.30411187 -0.030220266 0.1618423 0.04495311 0.03640837
-0.30186206 -0.08991698 -0.08044598 -0.033026483 0.0888448 -0.03727001 -0.08968314 0.07331757
-0.08025411 0.02699029 0.0752895 -0.11292441 -0.07447325 -0.123595156 -0.42431137 -0.0379493
-0.025622865 -0.08897682 -0.5198514 -0.095469154 -0.07058673 -0.012383561 -0.12848517 -0.005579024
-0.03813097 -0.11844834 -0.23196149 0.08857618 0.06422558 -0.030753406 -0.061666846 0.043797348
-0.31193545 -0.1276665 0.000760366 -0.04504189 0.013140704 0.093372636 -0.09362633 -0.20790176
-0.0030634766 -0.046532106 -0.052995414 -0.13247128 -0.118457 0.025296452 -0.07436081 -0.45061445
0.08795189 0.090023115 0.072491445 0.10895559 -0.025241137 -0.09075925 -0.024546701 0.12092515
0.0008887782 -0.14424531 -0.1271126 -0.13319005 0.073831946 -0.3081387 0.062458295 -0.007792527
0.02310999 -0.080164015 -0.078825645 0.23990673 0.046454597 0.07450068 0.028822808 0.053920742
-0.0513467 -0.031714 0.041813523 -0.10499212 0.20160995 -0.041637246 0.06660454 -0.07807209
-0.024247974 -0.013737546 0.05299956 0.034605846 0.077407785 -0.10073268 0.059967674 0.003569326
0.079218276 0.03310231 -0.01810399 -0.078012854 -0.0024921047 -0.036262177 0.03830793 -0.05264009
-0.048717666 -1.0656121 1.2023937 -0.083973505 -0.12858611 0.07199745 -0.13600768 0.01264948
00000000: fad7 2d3b b11a 983d 70d9 cdbb c708 a73d
00000010: 8209 593d 7538 003f bfd3 a73c 9948 5dbe
00000020: ca7d 723e 93f6 0bbe 97c5 bdbf bb37 93bf
00000030: 24b4 c23d 94c9 76bd 980e c0bc 2c87 533e
00000040: da18 7ebe ae46 e0bd e2a3 193e b70b 37bd
00000050: 67ff 983d 3eeb e33c 460c cfbd 24ef f1bd
00000060: 5a8e 87bd 26d0 673d bab4 333d c553 2f3d
00000070: 1d1f 533e 5138 813d fc98 593c 978c 4bbd
00000080: 061d a1bc e0b2 9e3c be46 5ebe 3c56 09be
00000090: 37e5 34bc 3e17 fabd 4a9c 91bd aeb1 493d
000000a0: a461 bf3d 598d d33d e67f 2abe 7b16 06bd
000000b0: fa8f 813c bc34 e23d f445 08be 6fcf d93c
000000c0: 58cf 7c3c c5c7 af3b a881 e63d f83b 3a3c
000000d0: 17c6 9e3e e6f6 653d 1ea1 42bd e41c 503e
000000e0: a770 a6bc 37ae b6be f4ed 6dbe a21a e13d
000000f0: c52d cd3d b316 bdba 10ce 403c 739a 6a3e
00000100: b046 293d a236 39bd 4c56 dcbe 16fe 51bc
00000110: 2f7f 49bd f7f2 b3be 9748 7bbc 365a 97bd
00000120: 9364 a2bd 226a 1d3d 35c4 82bb 9667 7abd
00000130: f08a e8ba 6923 8f3c 2d32 ca3e 3b09 1e3e
00000140: ca81 ddbd f120 d2bd 752b 6abe 9cc8 c23e
00000150: efdc 80be 8ee7 b53d 4c68 343d 701e b1bc
00000160: 4c7b 5abe e89f 04be 43ca f8bd 140a 943c
00000170: ea7e d93d 07d8 853c 3566 563e 637c 023d
00000180: d598 f6bd ba49 16be e36b a03b ffd4 03bd
00000190: ab8e 20bd 38a0 39bd 801b dabd d6cd 1ebf
000001a0: 8746 a7bd 2cab 563f ed67 453c 1d75 acbe
000001b0: 1be9 1abb 2c52 6d3e 93a9 e23e 86b7 ae3e
000001c0: fcd7 c1ba 00de 763d be19 ad3e ab76 dcbc
000001d0: 3366 05bf 9baa 29bf a947 443e 607d 423d
000001e0: ac0c 41be b1b6 0bbe f481 01bd 4c2c e03c
000001f0: 7965 00bd 181c 7fbc d3b3 2a3d 7fc3 0abe
00000200: e58f b0bc 576d e6bd 0952 0bbe faee da3d
00000210: 8f49 f63d e679 593d 627b 8fbd 7f43 84be
00000220: 0efa eebe edb2 14bc 46b7 493e 048c 4d3c
00000230: a764 32bc 2af0 23be 9153 fe3d 5007 b53c
00000240: 8c3a 453d 6c29 1cbf 5103 e43c 8db4 9bbe
00000250: 7e90 f7bc fdb9 253e c120 383d f120 153d
00000260: aa8d 9abe 6526 b8bd ddc0 a4bd c746 07bd
00000270: 43f4 b53d 70a8 18bd cbab b7bd 8627 963d
00000280: 445c a4bd be1a dd3c 6231 9a3d ea44 e7bd
00000290: 6e85 98bd 751f fdbd 573f d9be ba70 1bbd
000002a0: 0be7 d1bc 7b39 b6bd fb14 05bf 5585 c3bd
000002b0: c78f 90bd 6be4 4abc 9e91 03be 3fd0 b6bb
000002c0: 382f 1cbd 0b95 f2bd 5087 6dbe 6e67 b53d
000002d0: b388 833d 91ee fbbc 6096 7cbd d964 333d
000002e0: 01b6 9fbe 02bb 02be 4c53 473a d87d 38bd
000002f0: 1b4c 573c 273a bf3d 29bf bfbd 33e4 54be
00000300: 9cc4 48bb 7398 3ebd b811 59bd 8da6 07be
00000310: 9599 f2bd 813a cf3c 7b4a 98bd f0b6 e6be
00000320: 1f20 b43d 0a5e b83d 6576 943d 1c24 df3d
00000330: 80c6 cebc fcdf b9bd 2a16 c9bc 9ba7 f73d
00000340: e5fc 683a 0bb5 13be ce29 02be f962 08be
00000350: 3435 973d 5bc4 9dbe 45d4 7f3d 7458 ffbb
00000360: 2951 bd3c 082d a4bd 576f a1bd 1caa 753e
00000370: 2d47 3e3d d093 983d cf1d ec3c ffdb 5c3d
00000380: eb50 52bd 8ae6 01bd a844 2b3d 1c06 d7bd
00000390: d772 4e3e d18b 2abd f667 883d 43e4 9fbd
000003a0: b0a3 c6bc 7213 61bc 1116 593d dcbe 0d3d
000003b0: f987 9e3d ef4c cebd aaa0 753d 5aeb 693b
000003c0: 313d a23d 4a96 073d d24e 94bc 34c5 9fbd
000003d0: 9452 23bb a687 14bd c7e8 1c3d 239d 57bd
000003e0: 2d8c 47bd fa65 88bf 09e8 993f 4dfa abbd
000003f0: 14ac 03be 6673 933d 9945 0bbe c43f 4f3c

model/dense_6/MatMul;model/activation_6/Relu;model/dense_6/BiasAdd f4 [100]
-7.5922194 10.509985 6.249361 -8.173442 33.964622 -11.37036 4.9799137 27.083769
-9.613473 25.33649 41.378204 -1.0622065 0.19047312 27.192142 3.2718773 -1.4771118
34.239418 13.160584 29.90822 21.162111 56.995728 19.214542 -8.111747 -16.58265
7.3945312 21.162304 -7.6711984 22.572783 25.115282 1.7102522 -4.516681 10.972053
5.6666 1.1890552 -0.7426245 48.246513 -16.482498 13.646606 2.635997 4.4035006
31.633387 5.8845425 23.641329 -16.24274 24.823528 -3.4756517 -23.479858 5.981712
13.547394 9.824287 8.397275 -32.099194 1.4023234 18.200016 17.018484 36.986805
36.29626 -7.6549172 22.803452 43.377426 11.587174 -16.010782 -3.1132944 12.689966
-1.155974 16.975441 51.65249 2.1063673 -13.948406 16.254026 33.019543 9.844504
-8.964906 2.613035 10.502401 -2.7549472 -11.478298 22.992676 -9.001357 -8.042932
-4.4625983 6.2859097 -10.395666 28.347902 15.445505 23.453197 17.31754 8.4764385
-19.49874 0.2543358 22.047827 -6.148058 10.951333 18.367134 0.10348466 5.6836076
40.557793 -1.2673204 -24.290695 -9.889651
00000000: 76f3 f2c0 e628 2841 c4fa c740 6bc6 02c1
00000010: c6db 0742 ffec 35c1 745b 9f40 8fab d841
00000020: c9d0 19c1 22b1 ca41 4883 2542 62f6 87bf
00000030: 630b 433e 8289 d941 7066 5140 0012 bdbf
00000040: 2af5 0842 c191 5241 0944 ef41 014c a941
00000050: a0fb 6342 62b7 9941 b7c9 01c1 44a9 84c1
00000060: 00a0 ec40 664c a941 757a f5c0 0f95 b441
00000070: 19ec c841 8be9 da3f a788 90c0 878d 2f41
00000080: ca54 b540 f632 983f a41c 3ebf 6efc 4042
00000090: 28dc 83c1 8058 5a41 2db4 2840 7ae9 8c40
000000a0: 2d11 fd41 2c4e bc40 7121 bd41 22f1 81c1
000000b0: 9696 c641 1471 5ec0 c0d6 bbc1 2f6a bf40
000000c0: 20c2 5841 4830 1d41 3d5b 0641 9365 00c2
000000d0: 557f b33f a299 9141 db25 8841 7df2 1342
000000e0: 5f2f 1142 15f5 f4c0 786d b641 7c82 2d42
000000f0: 1165 3941 1516 80c1 3740 47c0 1a0a 4b41
00000100: f5f6 93bf b4cd 8741 269c 4e42 b9ce 0640
00000110: ac2c 5fc1 3f08 8241 0314 0442 1783 1d41
00000120: 4170 0fc1 f73b 2740 d609 2841 0e51 30c0
00000130: 1ca7 37c1 00f1 b741 8f05 10c1 d9af 00c1
00000140: 9bcd 8ec0 2c26 c940 a654 26c1 81c8 e241
00000150: ca20 7741 26a0 bb41 528a 8a41 7e9f 0741
00000160: 6bfd 9bc1 4d38 823e f361 b041 e4bc c4c0
00000170: a938 2f41 e4ef 9241 c4ef d33d 1de0 b540
00000180: 2e3b 2242 8e37 a2bf 5853 c2c1 033c 1ec1
