corintho_ai/rating/tflite_models/model_57.tflite (tflite, 521576 bytes, 27 tensors)

model/dense_1/MatMul;model/activation_1/Relu;model/dense_1/BiasAdd f4 [100]
-26.957033 143.10553 -58.809383 6.357801 58.610077 40.183353 73.28672 -28.167524
-45.263504 -6.0244746 -2.47814 -56.514576 7.3783126 -39.621826 -5.673657 -64.0842
32.62619 3.4056203 -17.104609 2.50624 5.5621023 4.894706 13.181727 -58.58981
75.58215 12.696075 -2.2527332 -9.022565 -61.262287 47.50991 -42.575912 -1.3753095
34.868057 -36.230637 73.311455 56.817833 13.098082 -31.006712 18.89774 37.30948
75.19658 -22.016472 -51.03915 1.7394733 20.061602 -24.359085 -0.24723832 -32.253155
-17.174408 -0.5823353 21.20334 -51.031837 20.574148 154.87056 0.5577709 28.859133
13.799867 -18.221632 32.765915 -12.099618 25.894089 73.139915 1.3572661 32.30889
53.378986 89.28188 132.13527 12.65123 -27.502502 -90.29485 -26.52406 -24.43334
-1.6521643 94.39343 -10.729459 72.255005 -2.0583694 3.8049402 -114.08963 -0.33456105
15.431363 46.991005 7.835937 -27.88862 2.8680966 73.35133 26.500328 -22.917122
83.74937 34.118015 95.21231 9.942566 66.75496 8.134556 11.4443245 -10.423192
140.88101 26.325949 13.355104 -87.008545
00000000: 01a8 d7c1 041b 0f43 cf3c 6bc2 1b73 cb40
00000010: b870 6a42 c1bb 2042 cd92 9242 1757 e1c1
00000020: d40d 35c2 7fc8 c0c0 d999 1ec0 ed0e 62c2
00000030: 231b ec40 c07c 1ec2 998e b5c0 1c2b 80c2
00000040: 3881 0242 aff5 5940 3dd6 88c1 3c66 2040
00000050: befc b140 6ea1 9c40 5be8 5241 f75b 6ac2
00000060: 102a 9742 2023 4b41 c82c 10c0 6d5c 10c1
00000070: 950c 75c2 260a 3e42 bc4d 2ac2 240a b0bf
00000080: e478 0b42 2cec 10c2 779f 9242 7645 6342
00000090: be91 5141 bf0d f8c1 922e 9741 e83c 1542
000000a0: a664 9642 bc21 b0c1 1728 4cc2 10a7 de3f
000000b0: 297e a041 68df c2c1 0b2c 7dbe 3b03 01c2
000000c0: 3065 89c1 ed13 15bf 71a0 a941 9a20 4cc2
000000d0: db97 a441 ddde 1a43 13ca 0e3f 81df e641
000000e0: 41cc 5c41 e7c5 91c1 4c10 0342 0998 41c1
000000f0: 1827 cf41 a347 9242 e5ba ad3f 4e3c 0142
00000100: 1584 5542 5390 b242 a122 0443 706b 4a41
00000110: 2005 dcc1 f796 b4c2 4631 d4c1 7b77 c3c1
00000120: 1f7a d3bf 70c9 bc42 ddab 2bc1 9082 9042
00000130: 53bc 03c0 2484 7340 e42d e4c2 964b abbe
00000140: dde6 7641 caf6 3b42 ffbf fa40 e51b dfc1
00000150: e58e 3740 e2b3 9242 ac00 d441 4456 b7c1
00000160: ad7f a742 d978 0842 b46c be42 c014 1f41
00000170: 8a82 8542 2427 0241 f41b 3741 65c5 26c1
00000180: 8ae1 0c43 8b9b d241 82ae 5541 6004 aec2

model/batch_normalization/batchnorm/mul_1;model/batch_normalization/batchnorm/add_1;model/dense_1/MatMul;model/activation_1/Relu;model/dense_1/BiasAdd f4 [100, 100]
0.21669973 -0.6400185 0.21461394 0.06856368 1.2450336 0.13901448 -0.9637557 -1.0122551
0.07871202 0.5916314 0.5729057 0.1973587 0.04419453 0.03296425 -0.65752834 0.0026799592
0.1629001 -1.5126655 0.2567088 -0.42142832 -0.09871685 4.3968587 -0.006441572 -0.035820726
-0.11158087 0.07230173 0.0633552 -0.85292757 0.13915627 -0.1315894 -0.08556646 0.6333869
0.045523223 -0.42122743 -0.004692879 -0.19038023 -0.1486486 -0.19662397 -0.05496473 0.16225499
0.6000276 1.1428252 0.3877531 0.23762983 -0.2873775 -0.12476397 0.23128554 -0.0578893
0.8396722 0.11082755 0.03055932 -1.7656832 0.8894993 4.9955215 0.12651864 -0.047916416
-0.05421956 0.47438774 1.6674161 0.4872964 0.45139495 -0.17242175 0.13875166 -0.87389714
0.3328699 -0.41994166 -0.12763369 0.35472846 -0.14856115 0.6474736 0.59131265 -0.054224964
0.33896986 -0.06668848 0.73557496 -0.6624079 -0.45788968 -0.07073227 -0.04148464 0.38956487
-0.7699325 0.3360863 -0.29051137 -0.119315356 -0.27775016 -0.09779843 -0.07005594 -0.6894006
-0.1620983 -0.10347631 -0.8576701 1.041111 0.10986064 -0.38810754 -0.17974304 0.13967374
0.24645521 -0.06757928 -0.47418466 -0.11452734 -0.9859721 -1.0697318 -0.2517211 0.13001895
-0.9962232 1.8151071 0.563706 0.30497208 0.06336916 -0.5695948 0.39447266 -0.01777694
-1.4337093 -0.12739088 -0.2691162 -0.7270549 0.008910373 -1.5975937 -0.7637428 0.121419124
-0.2901365 1.0509443 -0.074971415 -0.0041657654 0.12134474 -0.08220494 -0.46243057 0.15934375
-0.16058263 0.16524251 -0.011951695 0.32282996 0.11853261 -0.041480914 -0.49762535 0.04030255
-0.5242466 -1.822919 -0.72036576 -0.8536484 0.24172147 -0.29661798 -1.1326542 -0.23583826
-0.21200216 -1.1958694 0.0956473 0.0676678 -0.22517082 0.3293664 0.08212072 0.56386423
0.023573771 0.9834126 0.011133764 -0.32951888 -0.8407283 0.9548983 3.1339571 0.12544079
0.27173567 0.5468327 -0.0027989317 -0.8899933 -0.82265526 -0.5459735 0.13274483 0.8629959
-0.2953262 -0.15350877 -0.03760082 0.41495147 0.09960907 0.17263816 -0.28258905 -0.009725755
-0.5197012 -0.785541 0.4515378 0.013166945 0.3407042 -0.9540841 0.27250364 0.7654256
-0.1647388 0.10887345 -0.020960035 0.4474928 0.28499615 0.11346783 -0.537231 0.8391475
-0.40294594 -0.5621452 -0.6269141 -0.07176721 -0.26145825 -0.7793889 -0.8321411 -0.32667363
0.94694644 -0.6247741 -0.14237866 0.10845037 0.9840371 -0.0797874 0.97536623 -1.3497928
-0.97555083 -0.758586 -0.17628783 2.0561166 0.005673802 0.08480204 -0.16084653 0.49204007
0.3331152 -0.4937161 -1.2091856 -0.04323011 -0.1329424 -1.3327831 -0.036886416 0.058041595
-0.021704378 0.14144716 -0.47145328 0.13457946 0.8831732 0.3679961 0.79734296 0.6954686
-0.15258586 0.30051234 0.7473799 -0.047153037 -0.10239479 0.16654748 0.53294444 -0.8825461
0.2800613 -0.10814582 1.146693 0.058666196 0.19952147 -1.2223201 0.8906998 -0.07706172
-1.5236756 -0.025190221 0.12512337 0.68962896 -0.1625352 -0.09077433 0.1728049 0.26234576
00000000: 89e6 5d3e 41d8 23bf c2c3 5b3e 1d6b 8c3d
00000010: 435d 9f3f d059 0e3e b2b8 76bf 9391 81bf
00000020: c433 a13d 2875 173f f3a9 123f 6618 4a3e
00000030: 5305 353d 8505 073d c753 28bf 41a2 2f3b
00000040: 49cf 263e 069f c1bf 566f 833e 74c5 d7be
00000050: 0f2c cabd 11b3 8c40 d313 d3bb c1b8 12bd
00000060: 8384 e4bd ee12 943d 5fc0 813d 7659 5abf
00000070: fb7e 0e3e 5fbf 06be 783d afbd a525 223f
00000080: 8f76 3a3d 1fab d7be b9c6 99bb 09f3 42be
00000090: 5737 18be cb57 49be b222 61bd 2c26 263e
000000a0: 699b 193f 1948 923f 9387 c63e 3c55 733e
000000b0: 2523 93be 4184 ffbd 1ed6 6c3e 551d 6dbd
000000c0: c2f4 563f 8ef9 e23d 8a57 fa3c e801 e2bf
000000d0: 3ab6 633f 50db 9f40 1a8e 013e 0144 44bd
000000e0: 5415 5ebd f3e2 f23e e46d d53f ea7e f93e
000000f0: 3d1d e73e 548f 30be ea14 0e3e b9b7 5fbf
00000100: ec6d aa3e 9802 d7be 68b2 02be f89e b53e
00000110: 6a20 18be d4c0 253f 4460 173f ff1a 5ebd
00000120: 758d ad3e f893 88bd a44e 3c3f 9093 29bf
00000130: 8470 eabe 15dc 90bd cceb 29bd 0c75 c73e
00000140: 4c1a 45bf 8113 ac3e e8bd 94be 9c5b f4bd
00000150: 4535 8ebe 8b4a c8bd 7d79 8fbd 8f7c 30bf
00000160: 19fd 25be 63eb d3bd 4590 5bbf 2043 853f
00000170: 9dfe e03d 08b6 c6be 8f0e 38be a206 0f3e
00000180: c15e 7c3e 0167 8abd 55c8 f2be 4f8d eabd
00000190: ab68 7cbf f9ec 88bf 97e1 80be b023 053e
000001a0: 7c08 7fbf 6e55 e83f 094f 103f 4d25 9c3e
000001b0: b1c7 813d f7d0 11bf 52f8 c93e f2a0 91bc
000001c0: c983 b7bf c172 02be 99c9 89be 4520 3abf
000001d0: d0fc 113c f37d ccbf a684 43bf 97aa f83d
000001e0: c58c 94be 5885 863f 9d8a 99bd f980 88bb
000001f0: 9783 f83d 105b a8bd b3c3 ecbe 022b 233e
00000200: c66f 24be 5535 293e 0bd1 43bc f849 a53e
00000210: 3ac1 f23d e4e7 29bd c0c8 febe 4914 253d
00000220: 0635 06bf 6955 e9bf e469 38bf b488 5abf
00000230: d585 773e 50de 97be d0fa 90bf 967f 71be
00000240: 1817 59be 4012 99bf bbe2 c33d 6a95 8a3d
00000250: 2e93 66be b6a2 a83e e82e a83d 6859 103f
00000260: c81d c13c eec0 7b3f 646a 363c b3b6 a8be
00000270: f839 57bf 3774 743f c192 4840 8d73 003e
00000280: f020 8b3e 3afd 0b3f 486e 37bb 9ad6 63bf
00000290: 8999 52bf ebc4 0bbf 43ee 073e 4ded 5c3f
000002a0: ff34 97be 6731 1dbe 5103 1abd 8574 d43e
000002b0: d7ff cb3d 0fc8 303e 83af 90be c658 1fbc
000002c0: 230b 05bf 3719 49bf f62f e73e 2cba 573c
000002d0: c870 ae3e db3e 74bf 9985 8b3e eff2 433f
000002e0: 4ab1 28be 0bf9 de3d 61b4 abbc c71d e53e
000002f0: 04eb 913e d261 e83d f987 09bf 5fd2 563f
00000300: ee4e cebe bfe8 0fbf 717d 20bf b0fa 92bd
00000310: dbdd 85be 0886 47bf 3307 55bf c441 a7be
00000320: 156b 723f 32f1 1fbf b6cb 11be 3a1b de3d
00000330: dbe9 7b3f 9467 a3bd 9ab1 793f 03c6 acbf
00000340: b3bd 79bf b132 42bf cc84 34be 6a97 0340
00000350: 4deb b93b b1ac ad3d f4b4 24be adec fb3e
00000360: 138e aa3e 5bc8 fcbe 98c6 9abf 0e12 31bd
00000370: 0d22 08be a398 aabf 3616 17bd 06bd 6d3d
00000380: 61cd b1bc 86d7 103e 5362 f1be 33cf 093e
00000390: a417 623f fc69 bc3e ab1e 4c3f 3b0a 323f
000003a0: 783f 1cbe c1dc 993e 4a54 3f3f 8b23 41bd
000003b0: 5cb4 d1bd 6c8b 2a3e 0c6f 083f 8bee 61bf
000003c0: 3264 8f3e 8e7b ddbd d6c6 923f f74b 703d
000003d0: 5b4f 4c3e fc74 9cbf e704 643f 89d2 9dbd
000003e0: cd07 c3bf b95b cebc 5720 003e 868b 303f
000003f0: a16f 26be e4e7 b9bd c5f3 303e 2f52 863e

model/dense_2/MatMul;model/activation_2/Relu;model/dense_2/BiasAdd f4 [100]
71.287605 -70.37031 -0.28982854 -65.495995 -8.294428 14.411137 27.981083 29.658503
-17.577286 2.6904242 -10.061845 -13.720837 4.9271703 12.473395 7.4801803 -60.494133
-45.962643 31.63551 1.4824885 4.3278356 44.501545 7.5012097 36.925667 18.336658
-6.139364 20.555634 -8.568099 47.35507 -22.582312 7.664174 2.4859126 8.927156
32.97714 -7.2191124 25.337921 -50.456303 88.58806 -31.419083 -46.4108 -17.817862
-7.513466 -62.23463 -2.787444 -20.015644 -37.108883 40.769432 -25.616007 -11.225923
-38.45905 14.271258 67.64329 67.64661 16.016737 6.4088774 9.240964 0.443153
7.7862577 53.392357 33.867706 -33.4681 -11.062927 -8.177422 -13.036187 124.175674
32.967148 14.954522 -56.95053 -34.942066 8.730719 47.602684 -139.13007 17.301493
-34.0977 28.236507 -56.86947 -26.942251 29.081116 -32.608234 -30.750673 53.71532
57.64409 37.808666 37.654797 28.613527 -11.54976 -58.759586 -1.9962103 43.035408
27.700748 29.22054 -51.54125 20.673145 15.049833 8.284571 -32.890095 61.194687
76.45474 38.439934 8.835256 -15.722502
00000000: 4193 8e42 99bd 8cc2 6864 94be f3fd 82c2
00000010: fab5 04c1 0494 6641 42d9 df41 9d44 ed41
00000020: 489e 8cc1 e92f 2c40 51fd 20c1 8c88 5bc1
00000030: 61ab 9d40 0793 4741 a35d ef40 fef9 71c2
00000040: bfd9 37c2 8615 fd41 2fc2 bd3f a17d 8a40
00000050: 9501 3242 e909 f040 e2b3 1342 7ab1 9241
00000060: ab75 c4c0 f071 a441 ef16 09c1 976b 3d42
00000070: 93a8 b4c1 ea40 f540 3119 1f40 a2d5 0e41
00000080: 97e8 0342 f802 e7c0 10b4 ca41 41d3 49c2
00000090: 162d b142 485a fbc1 a9a4 39c2 fb8a 8ec1
000000a0: 506e f0c0 43f0 78c2 7c65 32c0 0a20 a0c1
000000b0: 7f6f 14c2 e613 2342 95ed ccc1 619d 33c1
000000c0: 11d6 19c2 1357 6441 5d49 8742 104b 8742
000000d0: 4722 8041 8615 cd40 fdda 1341 f3e4 e23e
000000e0: 0629 f940 c691 5542 8878 0742 56df 05c2
000000f0: c001 31c1 b8d6 02c1 3994 50c1 f259 f842
00000100: 5cde 0342 b945 6f41 58cd 63c2 adc4 0bc2
00000110: 06b1 0b41 2669 3e42 4c21 0bc3 7569 8a41
00000120: 0b64 08c2 5ee4 e141 567a 63c2 bb89 d7c1
00000130: 20a6 e841 d56e 02c2 6101 f6c1 7ddc 5642
00000140: 8c93 6642 133c 1742 839e 1642 81e8 e441
00000150: d1cb 38c1 d109 6bc2 d283 ffbf 4224 2c42
00000160: 229b dd41 aac3 e941 3d2a 4ec2 9a62 a541
00000170: 1ecc 7041 9a8d 0441 758f 03c2 5cc7 7442
00000180: d4e8 9842 7ec2 1942 355d 0d41 5e8f 7bc1

model/batch_normalization_1/batchnorm/mul_1;model/batch_normalization_1/batchnorm/add_1;model/dense_2/MatMul;model/activation_2/Relu;model/dense_2/BiasAdd f4 [100, 100]
-0.09900376 -0.13400805 0.29733354 -0.0025531382 -0.22808476 -0.15784506 0.11901883 -0.037032545
0.24063265 -0.042152654 0.1254104 0.17668146 0.10584666 -0.1461494 -0.22319043 0.07004352
0.0025595487 -0.21516223 0.1477541 -0.039842725 -0.13090631 -0.018707303 0.07387756 0.14903757
-0.110087484 -0.02704209 -0.022100544 0.006187349 -0.23230076 -0.10271211 -0.023135332 0.01560245
-0.23610978 0.016551256 -0.061421987 0.17588213 -0.06497321 0.0393172 0.08270129 -0.108427174
-0.044448435 -0.21180269 -0.35295627 0.09081467 0.033572458 -0.017252909 -0.09958715 -0.08363237
-0.10939972 -0.006208116 0.06159999 0.05124169 -0.008761308 -0.17559859 -0.17077713 -0.046243247
0.027208675 0.008932889 0.18652678 -0.033842806 0.160426 -0.1204111 0.07948176 -0.2506812
0.0077736015 0.0574232 0.06788379 -0.0288254 -0.014838716 0.0050293924 -0.2220692 -0.15486933
-0.006756918 -0.042470872 -0.25057235 -0.07787964 0.061430708 -0.038834237 -0.05589516 -0.3356712
0.04712664 -0.08992474 0.053944528 0.054545645 -0.045893975 -0.033482384 0.08309279 -0.0073968284
-0.11673825 0.03322201 0.0824146 -0.035034124 -0.08291112 -0.2161992 -0.30484197 0.27118903
0.20255263 -0.43184668 0.12506974 -0.19451576 -0.008372529 0.0006537825 0.0013941266 -0.107419044
0.013936357 0.00019273245 0.09235928 0.01749108 0.06888782 -0.004817265 -0.015804213 0.04161659
-0.019565696 -0.072337136 0.086606495 0.09777632 -0.021235118 -0.018081887 -0.06982099 0.050077602
-0.11154322 0.049413983 0.121254675 0.07452254 0.038447615 -0.024697129 -0.14025506 -0.08084896
0.037919383 -0.036289766 0.22907332 0.27260593 0.0874154 0.052917838 0.07269395 -0.08982407
0.015186892 0.117046304 -0.05098414 -0.011503533 -0.057804566 -0.053582143 0.016974205 0.01509265
0.112185866 0.06666453 0.07013804 0.04984616 0.029493954 0.07888154 0.053547483 -0.11177489
0.18980876 0.9437492 0.05258958 0.048424017 0.13387479 0.025542773 0.006831718 0.02874818
0.051649462 -0.1410493 0.3701964 0.021850238 0.0121937925 0.08633807 -0.16498569 -0.024182865
0.073572084 -0.08670096 -0.12796433 0.0013005486 -0.03943404 0.29861313 -0.0012569838 -0.13520902
0.03990196 0.09109426 -0.06389838 -0.09511868 0.08988366 0.026733287 0.037760876 0.13808924
0.023679335 -0.027823763 -0.030391602 0.07381535 0.006408639 0.021947687 0.47755554 0.019836677
-0.2030305 0.14891703 0.005594802 -0.09880703 -0.18558522 6.557707e-05 -0.2027079 -0.035896435
0.3899464 0.20385927 -0.011355327 0.16210105 0.0011710089 0.0026311888 0.08866577 0.011753945
-0.057647698 0.18803778 0.02292492 0.041020602 -0.011049558 -0.07434178 -0.034333263 -0.19387345
0.050015252 0.022424981 -0.05058782 0.10756635 0.19780833 -0.0034769627 -0.03441199 0.016601816
-0.04699939 -0.06738853 -0.00808322 -0.037620533 0.06770724 -0.00010421681 0.0006264799 0.15467763
-0.11840882 0.08563487 -0.14443117 -0.06556491 0.07894926 -0.00704469 -0.029232463 0.074719705
0.03969782 0.52685297 0.0789871 0.06595877 0.18064936 0.06815162 -0.042859636 0.013117492
-0.0854523 0.067864455 0.091720544 0.00076243834 -0.060327414 0.05567678 -0.10870137 -0.0012686583
00000000: 7cc2 cabd 6839 09be 1a3c 983e 8d52 27bb
00000010: 0d8f 69be 23a2 21be 25c0 f33d 70af 17bd
00000020: 6868 763e 43a8 2cbd 956b 003e fceb 343e
00000030: 22c6 d83d 30a8 15be 088c 64be fa72 8f3d
00000040: 1abe 273b 7d53 5cbe da4c 173e 2032 23bd
00000050: 4e0c 06be 0f40 99bc 1e4d 973d 4e9d 183e
00000060: 8c75 e1bd 6087 ddbc 330c b5bc 3fbf ca3b
00000070: 40e0 6dbe ba5a d2bd 4f86 bdbc 6ba1 7f3c
00000080: c3c6 71be 8096 873c 9f95 7bbd 721a 343e
00000090: ad10 85bd 130b 213d 4b5f a93d 110f debd
000000a0: 900f 36bd cee2 58be afb6 b4be 0bfd b93d
000000b0: 4683 093d f955 8dbc 59f4 cbbd 7347 abbd
000000c0: f60c e0bd 746d cbbb 4550 7c3d cee2 513d
000000d0: 978b 0fbc 1ed0 33be 33e0 2ebe 8f69 3dbd
000000e0: bae4 de3c 415b 123c e000 3f3e c19e 0abd
000000f0: b746 243e 189a f6bd 55c7 a23d 4959 80be
00000100: b2b9 fe3b 9734 6b3d a806 8b3d 3f23 ecbc
00000110: 161e 73bc 9acd a43b 1c66 63be 1196 1ebe
00000120: 2369 ddbb f0f5 2dbd 054b 80be 5c7f 9fbd
00000130: c49e 7b3d a610 1fbd 53f2 64bd 18dd abbe
00000140: dd07 413d 762a b8bd f0f4 5c3d 416b 5f3d
00000150: 52fb 3bbd d324 09bd 8d2c aa3d 1861 f2bb
00000160: 7714 efbd cd13 083d fcc8 a83d f17f 0fbd
00000170: 4ecd a9bd 5363 5dbe 3f14 9cbe 4ad9 8a3e
00000180: f569 4f3e 021b ddbe 4812 003e 242f 47be
00000190: ef2c 09bc 9a62 2b3a 20bb b63a 84fe dbbd
000001a0: 5155 643c 3918 4a39 dd26 bd3d 7449 8f3c
000001b0: 0f15 8d3d 26da 9dbb d677 81bc 2876 2a3d
000001c0: 3d48 a0bc 7e25 94bd bf5e b13d f43e c83d
000001d0: 45f5 adbc 7720 94bc 4ffe 8ebd 2c1e 4d3d
000001e0: c670 e4bd 5166 4a3d 5f54 f83d 469f 983d
000001f0: 3f7b 1d3d a251 cabc 069f 0fbe 2494 a5bd
00000200: 5b51 1b3d 94a4 14bd 3292 6a3e 0193 8b3e
00000210: d806 b33d 60c0 583d 91e0 943d aff5 b7bd
00000220: 71d2 783c f9b5 ef3d bfd4 50bd 5179 3cbc
00000230: 7bc4 6cbd f378 5bbd 7d0d 8b3c 2a47 773c
00000240: b4c1 e53d 6a87 883d 88a4 8f3d 7d2b 4c3d
00000250: 4e9d f13c a58c a13d 9b54 5b3d 3cea e4bd
00000260: 3a5d 423e 8c99 713f 2c68 573d 4358 463d
00000270: 7916 093e 143f d13c 9bdc df3b 4e81 eb3c
00000280: 638e 533d 3a6f 10be 628a bd3e 45ff b23c
00000290: 79c8 473c 04d2 b03d 02f2 28be 251b c6bc
000002a0: f6ac 963d 4690 b1bd 1509 03be 2b77 aa3a
000002b0: 9785 21bd d2e3 983e 61c1 a4ba 3c74 0abe
000002c0: 3d70 233d a18f ba3d 27dd 82bd 95cd c2bd
000002d0: ed14 b83d c4ff da3c 26ab 1a3d 4467 0d3e
000002e0: 2afb c13c a9ee e3bc cff7 f8bc 812c 973d
000002f0: 8fff d13b a3cb b33c 2982 f43e 8780 a23c
00000300: 3ae7 4fbe b57d 183e 9a54 b73b 575b cabd
00000310: 0d0a 3ebe 6c86 8938 a992 4fbe 2408 13bd
00000320: 0ea7 c73e 7cc0 503e b20b 3abc d1fd 253e
00000330: 8a7c 993a 0670 2c3b 6696 b53d 9e93 403c
00000340: fe1f 6cbd fa8c 403e 0bcd bb3c 3805 283d
00000350: 3509 35bc 8140 98bd 09a1 0cbd c386 46be
00000360: cbdc 4c3d 98b4 b73c 2d35 4fbd bf4b dc3d
00000370: 448e 4a3e c1dd 63bb 96f3 0cbd 8800 883c
00000380: 6f82 40bd ff02 8abd 7b6f 04bc fd17 1abd
00000390: 18aa 8a3d f98e dab8 5b3a 243a d063 1e3e
000003a0: 5380 f2bd 5661 af3d c4e5 13be e546 86bd
000003b0: 26b0 a13d 25d7 e6bb eb78 efbc a506 993d
000003c0: 2e9a 223d d6df 063f fdc3 a13d 6415 873d
000003d0: 25fc 383e 1493 8b3d 968d 2fbd c0ea 563c
000003e0: 9e01 afbd 85fc 8a3d fbd7 bb3d 5fde 473a
000003f0: e119 77bd 560d 643d d39e debd 1c49 a6ba

model/dense_3/MatMul;model/activation_3/Relu;model/dense_3/BiasAdd f4 [100]
-32.61101 34.525837 -0.6306725 -5.814635 13.861216 -7.5162897 -0.84660894 17.474148
37.048664 21.464462 51.971596 53.469875 44.39027 12.090118 10.251379 8.319076
-16.55138 26.773226 10.919228 -3.584664 33.454636 -7.9786596 -10.709012 28.10501
46.997757 53.081455 22.839859 -1.6262246 -18.71053 -44.802757 13.431185 23.468128
12.651581 -11.2019825 18.269299 64.13768 -4.571875 23.280033 -29.873657 9.145856
32.194252 39.417255 50.208874 -25.212082 1.6517049 5.165171 -21.17139 14.378569
19.57828 -1.7345034 10.765627 -30.174826 -17.00555 -34.463623 -30.408876 17.501635
-15.6402445 -13.391108 13.123652 20.40554 -1.3230821 7.581596 0.24022323 18.955832
-12.844149 13.508839 7.9972057 -8.147117 15.308034 -1.3911704 -6.1618233 8.312688
-0.9761114 -21.330671 29.224497 -14.701935 -20.482891 14.10112 -7.358661 -43.410587
-39.600296 2.8457572 -6.2813697 28.831451 -6.746319 -18.30205 11.430251 8.286858
-18.574722 11.973093 -6.128419 30.89124 -9.951301 -1.2985369 19.374151 -49.385185
-2.2561612 22.024956 23.601196 1.5433984
00000000: ad71 02c2 751a 0a42 c173 21bf 7d11 bac0
00000010: 8ac7 5d41 7285 f0c0 5dbb 58bf 0ecb 8b41
00000020: d531 1442 38b7 ab41 eae2 4f42 27e1 5542
00000030: a38f 3142 2071 4141 a605 2441 ef1a 0541
00000040: 3a69 84c1 912f d641 28b5 2e41 236b 65c0
00000050: 8cd1 0542 2e51 ffc0 1d58 2bc1 0fd7 e041
00000060: b4fd 3b42 6953 5442 08b8 b641 2128 d0bf
00000070: 2aaf 95c1 0636 33c2 22e6 5641 babe bb41
00000080: e06c 4a41 523b 33c1 8627 9241 7e46 8042
00000090: cd4c 92c0 823d ba41 40fd eec1 6d55 1241
000000a0: eac6 0042 45ab 1d42 e3d5 4842 58b2 c9c1
000000b0: 116b d33f 1549 a540 025f a9c1 9e0e 6641
000000c0: 51a0 9c41 3504 debf 0240 2c41 0b66 f1c1
000000d0: 5e0b 88c1 c0da 09c2 6145 f3c1 5903 8c41
000000e0: 713e 7ac1 fa41 56c1 7bfa 5141 8c3e a341
000000f0: c15a a9bf 6f9c f240 14fd 753e 8ba5 9741
00000100: a281 4dc1 3424 5841 1ce9 ff40 975a 02c1
00000110: b5ed 7441 df11 b2bf a82d c5c0 c500 0541
00000120: 70e2 79bf 37a5 aac1 c5cb e941 203b 6bc1
00000130: f6dc a3c1 309e 6141 277a ebc0 71a4 2dc2
00000140: b466 1ec2 e320 3640 fb00 c9c0 d0a6 e641
00000150: d8e1 d7c0 996a 92c1 4fe2 3641 f896 0441
00000160: 0899 94c1 ca91 3f41 021c c4c0 4221 f741
00000170: 8738 1fc1 7536 a6bf 43fe 9a41 6e8a 45c2
00000180: f264 10c0 1c33 b041 40cf bc41 148e c53f

model/batch_normalization_2/batchnorm/mul_1;model/batch_normalization_2/batchnorm/add_1;model/dense_3/MatMul;model/activation_3/Relu;model/dense_3/BiasAdd f4 [100, 100]
0.104776196 -0.06874909 0.006678931 0.063164204 0.031170111 -0.1023434 0.046644464 0.21122846
-0.091934584 0.019752791 -0.22704819 -0.017453495 -0.13217661 -0.09951377 0.093153045 0.048714936
0.051412307 0.17124298 0.035886705 0.02262142 -0.0134216305 0.020228907 0.5311497 -0.07691442
-0.012500674 -0.0018920552 0.12759255 0.028004192 -0.1551176 -0.17503615 -0.11964041 -0.055677928
0.023676874 -0.0032210913 -0.22579424 -0.1766532 0.12819305 -0.06738793 -0.0707145 0.015544439
0.008271546 0.012451824 0.029428031 0.2344603 -0.028923063 -0.054998126 0.08993942 -0.15953158
0.10795042 0.30539843 0.10278277 0.13104187 0.092055514 0.10650259 -0.12275768 0.106583394
0.08050674 0.2653228 0.098885365 -0.09127686 -0.1498911 0.028685352 0.005763816 -0.09993318
0.09318793 0.022828098 -3.2572353 0.05797463 0.08880642 0.11165961 0.009292151 -0.08167397
0.0049188235 -0.05267149 0.06464827 0.08201024 -0.0028215724 0.11064928 -0.009237845 0.118315585
0.008978643 -0.072537035 -0.026982142 0.04455225 -0.01392709 -0.03446009 0.09441568 -0.21165292
0.27845097 0.43568793 -0.07837323 -0.11277901 0.034384295 0.12560451 0.06549035 -0.00674226
-0.0064112465 -0.26922256 -0.10783745 -0.0028537125 -0.28122458 -0.0037558936 -0.38575235 -0.09399264
-0.015925627 0.07780675 0.079159364 0.15021513 -0.02992963 -0.32127747 0.063904226 0.16346677
-0.04544606 -0.07714763 0.22261131 -0.064615846 -0.049967285 -0.06898124 -0.08726801 -0.1319063
-0.033238657 0.05898525 -0.16290756 -0.12409606 0.20015748 -0.16159442 0.42027566 0.15694635
0.19811797 0.11537895 -0.20687869 0.26850417 0.16797173 0.14157453 -0.079553574 -0.17760874
0.08416024 0.10326455 -0.036931876 0.22836731 -0.13575342 -0.047881033 -0.18023907 -0.11630509
0.10362407 0.046642452 -0.060633257 -0.37813738 -0.037275206 -0.23990825 -0.018699864 0.28087416
-0.05494528 -0.2567715 -0.21894571 -0.025061453 -0.00048573353 0.0056518777 -0.23589513 0.1842166
0.09598416 0.22548182 0.04169404 -0.1358074 -0.03813468 -0.05960323 -0.12535258 -0.14733613
0.06348612 -0.13765065 -0.12987524 0.1556876 0.17509295 0.037329335 -0.005291726 -0.031879805
-0.018718936 -0.14731447 -0.03717071 0.31102732 -0.014634676 -0.12670086 0.086652845 -0.2534435
-0.06363162 0.04262121 0.21876772 -0.24721953 -0.24493891 0.014120584 0.05880044 0.16775273
0.20003071 0.015369957 -0.08194094 -0.0678825 0.056744706 -0.14002596 0.02762894 0.014621835
0.09565977 0.16619802 -0.07075609 -0.08249016 0.05184009 0.06024509 0.09632036 0.04884443
0.08468468 0.15233417 -0.09965324 0.08851784 -0.04660969 -0.26090124 0.050627775 0.11921416
0.25077146 0.036633782 -0.074022375 0.09637653 -0.13104723 0.041549332 -0.007845018 -0.04764151
-0.18366313 0.08398725 0.003267619 0.009950719 0.06735167 0.021130387 -0.1395763 -0.027307976
-0.21753158 -0.011881106 -0.053513277 0.02722767 0.11943895 0.10283687 0.004078293 -0.15325324
0.02838781 -0.057355843 -0.16961198 0.0471612 0.065717444 -0.23943731 -0.090296015 -0.050144117
-0.18691202 -0.07182361 -0.22772455 -0.0204098 0.12140224 -0.012906945 -0.06529743 -0.098950684
00000000: e794 d63d 53cc 8cbd efda da3b 3c5c 813d
00000010: 7658 ff3c 6b99 d1bd 440e 3f3d 464c 583e
00000020: 3348 bcbd 9bd0 a13c 527f 68be a2fa 8ebc
00000030: 4e59 07be e0cd cbbd 06c7 be3d 5089 473d
00000040: b695 523d 525a 2f3e f0fd 123d 8e50 b93c
00000050: 66e6 5bbc 18b7 a53c 6df9 073f 4f85 9dbd
00000060: a1cf 4cbc d6fe f7ba 9fa7 023e 0c69 e53c
00000070: 26d7 1ebe ad3c 33be 0806 f5bd 8a0e 64bd
00000080: 01f6 c13c f218 53bb 9b36 67be 94e4 34be
00000090: 0a45 033e af02 8abd c4d2 90bd 1aae 7e3c
000000a0: 6185 073c bc02 4c3c 0e13 f13c 5c16 703e
000000b0: 0ff0 ecbc b745 61bd 2932 b83d 3f5c 23be
000000c0: 1c15 dd3d 2f5d 9c3e c67f d23d d72f 063e
000000d0: 9a87 bc3d 081e da3d 6168 fbbd 6548 da3d
000000e0: b8e0 a43d 64d8 873e 6984 ca3d 5def babd
000000f0: 0d7d 19be 8bfd ea3c 65de bc3b c4a9 ccbd
00000100: 50d9 be3d fe01 bb3c 8b76 50c0 ce76 6d3d
00000110: 24e0 b53d cbad e43d 1b3e 183c af44 a7bd
00000120: 152e a13b 0fbe 57bd 5066 843d fcf4 a73d
00000130: 21ea 38bb 179c e23d 555a 17bc 714f f23d
00000140: 291b 133c 4c8e 94bd a709 ddbc 6c7c 363d
00000150: 732e 64bc 0626 0dbd 025d c13d 8bbb 58be
00000160: 2091 8e3e 7d12 df3e 2582 a0bd aef8 e6bd
00000170: 8cd6 0c3d 789e 003e ce1f 863d 2dee dcbb
00000180: 6f15 d2bb 8ad7 89be e2d9 dcbd 5a05 3bbb
00000190: abfc 8fbe 7025 76bb 5581 c5be 377f c0bd
000001a0: 7676 82bc 2559 9f3d 4e1e a23d ffd1 193e
000001b0: fc2e f5bc 7b7e a4be 38e0 823d d563 273e
000001c0: a625 3abd 94ff 9dbd 38f4 633e 5055 84bd
000001d0: 7faa 4cbd 0946 8dbd 92b9 b2bd 7212 07be
000001e0: 4225 08bd 849a 713d 3dd1 26be 1326 febd
000001f0: 15f6 4c3e 0279 25be 5f2e d73e 8bb6 203e
00000200: 70df 4a3e cd4b ec3d 02d8 53be 6179 893e
00000210: c800 2c3e eaf8 103e fcec a2bd 11df 35be
00000220: 345c ac3d 5d7c d33d e145 17bd 1fd9 693e
00000230: f202 0bbe e71e 44bd 9790 38be 5d31 eebd
00000240: db38 d43d 280c 3f3d 945a 78bd 399b c1be
00000250: e3ad 18bd 82aa 75be 7530 99bc bdce 8f3e
00000260: 4d0e 61bd 8e77 83be 4e33 60be ad4d cdbc
00000270: 0daa feb9 6333 b93b 7e8e 71be 47a3 3c3e
00000280: 5893 c43d b5e4 663e 5fc7 2a3d 1811 0bbe
00000290: 1c33 1cbd 8422 74bd 6d5c 00be 48df 16be
000002a0: 0305 823d 4bf4 0cbe 04fe 04be 926c 1f3e
000002b0: 914b 333e a5e6 183d 3766 adbb 6694 02bd
000002c0: 7458 99bc 9bd9 16be 5040 18bd f93e 9f3e
000002d0: 48c6 6fbc dfbd 01be 0c77 b13d 59c3 81be
000002e0: 4b51 82bd 9493 2e3d a504 603e 1e27 7dbe
000002f0: 44d1 7abe 065a 673c bbd8 703d 5fc7 2b3e
00000300: dad4 4c3e 46d2 7b3c a7d0 a7bd fb05 8bbd
00000310: 236d 683d f762 0fbe 1656 e23c 6c90 6f3c
00000320: 45e9 c33d d02f 2a3e 92e8 90bd 9af0 a8bd
00000330: 4656 543d 8ec3 763d 9c43 c53d 1911 483d
00000340: 296f ad3d 7dfd 1b3e ff16 ccbd d748 b53d
00000350: cde9 3ebd d994 85be 125f 4f3d 8e26 f43d
00000360: 1e65 803e 4e0d 163d 0b99 97bd 0f61 c53d
00000370: 3f31 06be a22f 2a3d 6488 00bc be23 43bd
00000380: 3012 3cbe 8201 ac3d 8d25 563b 5708 233c
00000390: acef 893d a219 ad3c 17ed 0ebe fab4 dfbc
000003a0: 99c0 5ebe f8a8 42bc bd30 5bbd 900c df3c
000003b0: 699c f43d 239c d23d 34a3 853b 6bee 1cbe
000003c0: 8d8d e83c f6ed 6abd c3ae 2dbe 1a2c 413d
000003d0: de96 863d 0e2f 75be 1eed b8bd eb63 4dbd
000003e0: dd65 3fbe 4218 93bd a030 69be 7432 a7bc
000003f0: bda1 f83d a777 53bc a9ba 85bd a8a6 cabd

model/dense_4/MatMul;model/activation_4/Relu;model/dense_4/BiasAdd f4 [100]
-5.031081 6.3871245 -4.2925754 2.8138914 -3.2031384 0.14134276 7.7551546 12.856005
35.07496 14.802548 -6.128153 -11.543927 45.889793 23.524448 -16.571507 -23.920593
-1.3826164 -7.892182 4.185775 5.473358 -6.8365903 -4.687039 14.043469 7.058525
33.122894 8.908513 26.026966 2.846503 1.2208453 -3.1737232 17.896791 0.49958643
28.699863 2.3900614 23.487059 -5.454373 -15.073648 6.621415 28.899693 43.02396
37.882442 5.9477944 0.7472676 -0.19487233 44.251167 -4.296896 -11.55242 -14.231649
-27.675943 8.043879 39.848755 24.733084 -1.1263086 1.5263498 24.232752 6.347716
10.376135 16.817125 17.739328 8.937271 -23.069954 14.317524 -14.939019 7.993377
7.13708 27.196674 -12.798132 16.927141 25.308044 41.102203 -3.0332859 36.71588
5.392484 -43.728436 5.387146 42.51504 39.121716 -4.674937 22.804369 -11.007602
34.142242 22.593777 6.554844 -14.776653 -9.4349985 -13.946419 28.656551 9.110061
14.087622 12.199865 -19.619282 30.165329 33.67892 8.846153 50.273075 35.515324
-1.3453994 -23.883713 44.682056 -1.0398252
00000000: 9efe a0c0 5363 cc40 c75c 89c0 cc16 3440
00000010: 3800 4dc0 28bc 103e 3a2a f840 32b2 4d41
00000020: c24c 0c42 3dd7 6c41 d419 c4c0 edb3 38c1
00000030: 268f 3742 1232 bc41 7292 84c1 605d bfc1
00000040: 93f9 b0bf c18c fcc0 def1 8540 c025 af40
00000050: 59c5 dac0 39fc 95c0 0db2 6041 70df e140
00000060: d87d 0442 4589 0e41 3a37 d041 1b2d 3640
00000070: a944 9c3f 481e 4bc0 a12c 8f41 cbc9 ff3e
00000080: 5299 e541 c4f6 1840 7fe5 bb41 398a aec0
00000090: aa2d 71c1 a2e2 d340 9232 e741 8918 2c42
000000a0: 9f87 1742 5554 be40 ee4c 3f3f 9d8c 47be
000000b0: 3201 3142 2c80 89c0 b6d6 38c1 d6b4 63c1
000000c0: 5568 ddc1 bab3 0041 2065 1f42 5bdd c541
000000d0: e12a 90bf 6e5f c33f addc c141 7d20 cb40
000000e0: a604 2641 7989 8641 25ea 8d41 10ff 0e41
000000f0: 448f b8c1 9414 6541 3906 6fc1 bfc9 ff40
00000100: f662 e440 ca92 d941 26c5 4cc1 c96a 8741
00000110: e076 ca41 a868 2442 5b21 42c0 10dd 1242
00000120: 3b8f ac40 ebe9 2ec2 8063 ac40 670f 2a42
00000130: a37c 1c42 1599 95c0 596f b641 231f 30c1
00000140: a891 0842 0ec0 b441 48c1 d140 2c6d 6cc1
00000150: c1f5 16c1 8824 5fc1 9e40 e541 cfc2 1141
00000160: e666 6141 a632 4341 4af4 9cc1 9852 f141
00000170: 37b7 0642 d889 0d41 a117 4942 b10f 0e42
00000180: 0c36 acbf d811 bfc1 6dba 3242 fe18 85bf

model/batch_normalization_3/batchnorm/mul_1;model/batch_normalization_3/batchnorm/add_1;model/dense_4/MatMul;model/activation_4/Relu;model/dense_4/BiasAdd f4 [100, 100]
-0.1181324 0.027028471 0.018722475 -0.17833808 -0.19981444 0.11231151 -0.023064375 0.009391672
-0.19307332 0.085665986 -0.017734207 0.13388218 -0.03692322 0.056719173 0.075081535 0.070487544
-0.041823063 -0.069342166 -0.112726256 -0.02721889 0.011081775 0.4434955 0.58214974 0.16104893
-0.07293688 0.034100175 0.16023688 0.020982217 -0.35112002 -0.017863313 0.007844788 -0.26052317
0.015159455 -0.07148158 -0.013396431 0.014836533 0.23185755 -0.11433641 -0.11928991 0.00918015
-0.26794454 0.05279982 0.029026479 0.03169863 0.10220748 0.12161062 0.22688337 -0.044901963
0.29149053 0.017507495 0.06876082 0.05293262 0.22929107 -0.009064269 0.04644051 0.080995984
-0.0647503 0.07643857 0.014828143 0.190034 -0.23397914 -0.03290352 0.045865357 0.038862098
-0.052100196 -0.033202033 0.1229511 -0.0056715948 0.045975726 0.10682033 -0.029449075 0.029857459
0.3530179 -0.05217651 -0.029495945 -0.19943121 -0.18718982 -0.029999904 0.0061154063 0.04542212
0.13095753 0.00461044 0.11849484 -0.09075975 0.06541719 0.09158397 -0.10277453 0.005929855
-0.00806969 -0.025275245 -0.031382967 0.059294943 0.185112 0.05047191 -0.33940533 0.03171436
0.23201485 0.08558797 0.010233841 0.10990475 0.13235423 -0.0038028667 0.020588348 0.11223471
-0.084573686 -0.0100788865 -0.0050769695 0.19421476 -0.23914881 0.043915473 -0.04724197 0.18509908
-0.048470445 -0.05869724 0.09798811 0.06476842 0.064236015 0.023829607 0.117383644 -0.4706293
-0.037284028 -0.08271754 -0.015920011 0.17589289 -0.13286701 0.03289781 -0.09397934 0.008608997
0.06351028 0.1856543 0.07739822 -0.10842906 -0.025689734 -0.10831513 0.16371943 -0.042217683
0.09275969 -0.03587704 -0.075007126 0.051193517 0.11917233 -0.14448215 0.028644983 -0.010951544
0.11316726 0.037199624 0.1595334 -0.07413878 -0.12921877 0.04881271 0.008626935 0.2543076
-0.23975274 0.17987868 0.10446674 -0.0031733802 -0.12635401 -0.062221386 -0.03922739 -0.23714082
0.08012447 -0.019224862 -0.12082103 0.057436254 0.1240634 -0.117245674 -0.055358205 0.035823714
0.23133036 0.13853477 -0.049048487 -0.69239664 -0.17941011 0.16654156 -0.056429107 -0.070050366
-0.1338244 0.24887238 0.060604636 -0.09050138 -0.0958645 0.08049084 -0.27218345 -0.12409357
-0.14794238 -0.15268333 0.17711258 -0.86382234 -0.026048493 0.0656497 0.06365837 -0.17118792
-0.1427225 0.0050610425 -0.058509544 0.055596646 0.36921972 0.15798323 -0.007121156 0.20432049
-0.0942272 0.29288432 0.34008753 0.17114985 0.112292185 -0.07300206 -0.00045171956 0.11867352
-0.038995765 -0.06399595 -0.23263949 0.29292434 0.13128896 0.09838147 -0.032615505 0.008865331
0.1489737 0.14491332 0.008192074 0.14817016 0.070405565 -0.06376112 -0.09514651 0.007673451
-0.03825661 -0.23552963 0.17316571 -0.0049740686 0.10126124 0.11644115 0.027577393 -0.004396876
-0.14549461 0.06292473 -0.03584924 -0.19522402 0.1087353 -0.031170674 -0.1501976 -0.07057047
-0.06819357 -0.10595127 -0.18688495 0.010986694 -0.038932182 -0.009677468 0.0527811 0.027483372
0.1831378 -0.09925479 0.006150783 -0.52116007 0.09183367 0.12911592 0.027472882 0.018646652
00000000: 66ef f1bd d06a dd3c e05f 993c 429e 36be
00000010: 289c 4cbe 9403 e63d 80f1 bcbc 87df 193c
00000020: 03b5 45be a671 af3d 5447 91bc 6918 093e
00000030: cd3c 17bd 5d52 683d 59c4 993d c65b 903d
00000040: a94e 2bbd 4403 8ebd 06dd e6bd 26fa debc
00000050: 5590 353c d811 e33e c407 153f 03ea 243e
00000060: ee5f 95bd a0ac 0b3d 2315 243e e6e2 ab3c
00000070: 01c6 b3be 1556 92bc 6d87 003c 4b63 85be
00000080: 5d5f 783c ef64 92bd b47c 5bbc ee14 733c
00000090: 116c 6d3e 3529 eabd 454e f4bd 5768 163c
000000a0: 0730 89be a044 583d f0c8 ed3c 6cd6 013d
000000b0: 2852 d13d fd0e f93d 1d54 683e 1feb 37bd
000000c0: 3f3e 953e e16b 8f3c 79d2 8c3d e0cf 583d
000000d0: 47cb 6a3e 4d82 14bc 6738 3e3d 39e1 a53d
000000e0: ce9b 84bd d38b 9c3d bdf1 723c 4698 423e
000000f0: 3a98 6fbe d7c5 06bd 50dd 3b3d dd2d 1f3d
00000100: 0467 55bd dbfe 07bd c9cd fb3d c9d8 b9bb
00000110: 0b51 3c3d 9ec4 da3d 303f f1bc a197 f43c
00000120: c3be b43e 09b7 55bd 7ba1 f1bc b237 4cbe
00000130: b0ae 3fbe 5cc2 f5bc bf63 c83b 8b0c 3a3d
00000140: bb19 063e 2d13 973b 6cad f23d 3fe0 b9bd
00000150: 73f9 853d 6090 bb3d 747b d2bd 3b4f c23b
00000160: bc36 04bc 080e cfbc 6d8b 00bd 41df 723d
00000170: 008e 3d3e a2bb 4e3d 89c6 adbe ebe6 013d
00000180: 4d95 6d3e bf48 af3d d7ab 273c be15 e13d
00000190: de87 073e 8439 79bb e5a8 a83c 50db e53d
000001a0: f834 adbd ea21 25bc b55c a6bb 3ce0 463e
000001b0: 6de3 74be b6e0 333d cc80 41bd 9d8a 3d3e
000001c0: f288 46bd 846c 70bd fdad c83d 4ea5 843d
000001d0: 2c8e 833d 4f36 c33c d666 f03d 53f6 f0be
000001e0: 23b7 18bd d067 a9bd af6a 82bc 441d 343e
000001f0: 4a0e 08be dbbf 063d 3d78 c0bd c00c 0d3c
00000200: ad11 823d 291c 3e3e f582 9e3d 0e10 debd
00000210: 4773 d2bc 53d4 ddbd 11a6 273e 73ec 2cbd
00000220: cbf8 bd3d cef3 12bd 569d 99bd 4bb0 513d
00000230: 9f10 f43d 21f3 13be e2a8 ea3c 1b6e 33bc
00000240: 3dc4 e73d a25e 183d b95c 233e 13d6 97bd
00000250: ed51 04be d6ef 473d fd57 0d3c 9b34 823e
00000260: be81 75be 1e32 383e a8f2 d53d 7cf8 4fbb
00000270: f262 01be dadb 7ebd e6ac 20bd 0bd5 72be
00000280: 4c18 a43d 757d 9dbc 0471 f7bd 4742 6b3d
00000290: f414 fe3d 801e f0bd 49bf 62bd e3bb 123d
000002a0: dee1 6c3e 0fdc 0d3e 11e7 48bd e840 31bf
000002b0: 49b7 37be df89 2a3e 3522 67bd 9176 8fbd
000002c0: 4309 09be 67d8 7e3e 913c 783d ca58 b9bd
000002d0: 9b54 c4bd 62d8 a43d a15b 8bbe c524 febd
000002e0: 357e 17be 0559 1cbe 005d 353e 7623 5dbf
000002f0: a663 d5bc 5a73 863d 525f 823d e34b 2fbe
00000300: d925 12be 1ad7 a53b b4a7 6fbd 4fb9 633d
00000310: 5e0a bd3e 5bc6 213e 9658 e9bb 6439 513e
00000320: 31fa c0bd eff4 953e f41f ae3e e841 2f3e
00000330: 72f9 e53d 1b82 95bd c6d4 ecb9 1a0b f33d
00000340: 06ba 1fbd 4f10 83bd 0c39 6ebe 2efa 953e
00000350: 9d70 063e 397c c93d d697 05bd e53f 113c
00000360: 908c 183e 2864 143e 0c38 063c ebb9 173e
00000370: cb30 903d 3195 82bd 2cdc c2bd 9371 fb3b
00000380: f7b2 1cbd ae2e 71be 5a52 313e 83fd a2bb
00000390: 0e62 cf3d b378 ee3d fce9 e13c ab13 90bb
000003a0: 8afc 14be aede 803d a7d6 12bd cee8 47be
000003b0: 9db0 de3d a459 ffbc 66cd 19be 4087 90bd
000003c0: 12a9 8bbd fbfc d8bd c55e 3fbe 8901 343c
000003d0: 5a77 1fbd 3e8e 1ebc ff30 583d cf24 e13c
000003e0: 7a88 3b3e 1846 cbbd 828c c93b bf6a 05bf
000003f0: 4b13 bc3d f736 043e cf0e e13c ddc0 983c

model/dense_5/MatMul;model/activation_5/Relu;model/dense_5/BiasAdd f4 [100]
4.106679 37.710247 -16.04806 12.554378 28.797619 -11.921881 38.305557 29.375647
4.672055 4.161084 30.605112 0.5324266 5.870748 27.500029 -19.736454 19.9828
-14.69236 16.616547 19.42736 -17.018461 69.33824 -23.017159 25.403625 30.240238
27.629 15.687747 -3.5625305 3.0044117 11.116446 19.065193 -18.185265 5.929359
-14.122399 -19.047716 9.798923 33.53162 19.639887 35.003746 6.4320383 -36.8552
28.90014 -23.02041 19.254282 18.222624 16.204073 -20.285202 12.605227 8.690056
-35.200577 15.887015 0.19680648 19.988726 -37.539673 -7.3059397 18.881618 -5.7225122
3.415068 13.686708 2.778531 39.61594 23.335457 0.3802063 27.03487 26.474089
-2.2396555 25.562374 2.3207026 -7.373096 -18.880878 11.285312 -30.564596 27.870573
33.54676 16.528793 -11.592837 1.336866 6.3931894 -7.955253 0.31349558 -58.204838
61.124233 -12.3463545 32.46019 22.92166 -1.1184404 24.652021 4.341149 19.766792
-13.570456 0.16831161 -10.915855 18.744541 4.2189016 -2.8584542 -8.379527 8.536669
23.862518 20.61813 16.191298 4.153809
00000000: ea69 8340 4bd7 1642 6d62 80c1 bbde 4841
00000010: 8661 e641 06c0 3ec1 e438 1942 5301 eb41
00000020: 7981 9540 9a27 8540 45d7 f441 1c4d 083f
00000030: 2bdd bb40 0f00 dc41 42e4 9dc1 c6dc 9f41
00000040: e813 6bc1 b0ee 8441 3c6b 9b41 cf25 88c1
00000050: 2ead 8a42 2423 b8c1 a03a cb41 02ec f141
00000060: 3108 dd41 0301 7b41 8000 64c0 4848 4040
00000070: f6dc 3141 8485 9841 6c7b 91c1 4fbd bd40
00000080: 59f5 61c1 b961 98c1 63c8 1c41 6120 0642
00000090: 7d1e 9d41 d603 0c42 42d3 cd40 ba6b 13c2
000000a0: 7d33 e741 cd29 b8c1 c508 9a41 efc7 9141
000000b0: f1a1 8141 1848 a2c1 03af 4941 780a 0b41
000000c0: 64cd 0cc2 3731 7e41 a387 493e e9e8 9f41
000000d0: a028 16c2 42ca e9c0 8e0d 9741 d21e b7c0
000000e0: 7990 5a40 c2fc 5a41 74d3 3140 b976 1e42
000000f0: 04af ba41 66aa c23e 6a47 d841 efca d341
00000100: 8456 0fc0 be7f cc41 6486 1440 67f0 ebc0
00000110: 0a0c 97c1 a390 3441 4b84 f4c1 eff6 de41
00000120: e22f 0642 f83a 8441 437c 39c1 6d1e ab3f
00000130: 0295 cc40 6f91 fec0 7e82 a03e c1d1 68c2
00000140: 377f 7442 ab8a 45c1 3cd7 0142 8f5f b741
00000150: 0e29 8fbf 5737 c541 b1ea 8a40 6422 9e41
00000160: 9620 59c1 e159 2c3e 58a7 2ec1 d2f4 9541
00000170: 3e01 8740 eaf0 36c0 8b12 06c1 3296 0841
00000180: 70e6 be41 eef1 a441 c787 8141 01ec 8440

model/batch_normalization_4/batchnorm/mul_1;model/batch_normalization_4/batchnorm/add_1;model/dense_5/MatMul;model/activation_5/Relu;model/dense_5/BiasAdd f4 [100, 100]
-0.07449776 0.083833225 -0.013360052 0.014714193 0.02182418 0.36062205 0.05733699 0.02285848
0.23178762 -0.20460598 -0.22093296 -0.08370151 0.102281235 -0.0655585 0.05049994 0.24045709
-0.2563881 -0.05999738 0.1032986 -0.044721503 0.12614295 -0.07835213 -0.09318687 -0.14427857
0.025610857 0.05435862 0.029295037 0.02655994 0.1460996 0.047183927 0.047543768 -0.26380005
-0.04105285 0.0024204492 -0.20593424 -0.20569862 -0.06329595 -0.08363277 -0.015134568 0.09040437
0.10775257 0.12262496 -0.14701939 -0.09760155 -0.037913408 0.10216252 -0.16858554 0.075053245
0.039559655 -0.29074913 0.024988163 0.046668895 0.32728952 0.02181656 -0.04726823 0.11430788
-0.06272453 -0.3149126 -0.16863112 0.13701518 0.06863404 -0.022674993 0.037941996 0.20945191
0.063588105 -0.0040124124 -0.22437473 -0.064808436 -0.06077978 -0.31721097 -0.059639513 -0.07870263
-0.09457092 -0.058069278 -0.03992642 -0.048352566 0.020333689 0.04429832 0.35574016 0.13302
-0.10099557 -0.10075284 -0.24301697 0.34867626 -0.26184002 0.16581601 0.034409583 0.021289386
-0.2972088 -0.18862516 -0.11673389 0.027467914 0.1242069 0.032231785 0.20499597 0.007271349
-0.036788404 -0.39625168 0.07758158 -0.07818716 -0.03202694 0.009182604 -0.083335556 -0.6946703
-0.050639074 0.54872024 -0.0108816065 -0.29934892 0.006093216 0.19465178 0.30364376 0.18689722
-0.008408353 0.07804004 0.28465983 -0.074468724 -0.58993745 -0.71508783 0.1255734 0.004101828
-0.21822883 -0.25938284 -0.027431445 0.039068148 -0.012536949 -0.0382581 0.0770912 -0.07752957
-0.06536396 -0.10855187 -0.12693508 -0.25806507 0.092542626 0.08382083 -0.04309078 -0.27150783
-0.5933078 0.033562902 0.1711589 -0.047082085 0.011672135 -0.14466612 0.06862191 -0.057620697
0.05637334 -0.6240095 0.07131593 -0.25994417 -0.06859204 0.058937136 0.08345014 -0.006398522
-0.12590794 -0.05589255 -0.054763738 -0.05531705 0.012906566 -0.04602499 -0.108095005 -0.045870356
-0.09252019 -0.02705418 0.039066005 -0.08942478 -0.013743552 -0.12050486 -0.100901484 0.02209824
-0.038974937 -0.031244548 -0.5153387 -0.06283516 -0.04870781 -0.12930511 -0.14067268 6.932846e-05
-0.031591456 -0.0935431 -0.20214333 0.108524464 0.07350262 -0.028898744 -0.02493048 0.059433986
-0.21952681 0.02193729 0.03245419 -0.059908085 0.083777286 0.13660452 -0.05940489 -0.2572319
-0.0206823 0.027104013 0.017794253 -0.11478696 -0.13380863 -0.06485081 -0.13720769 -0.36718765
0.11424367 0.018883675 -0.0040433654 0.13241479 -0.031156186 0.13148336 -0.0021569817 0.18635795
0.013541436 -0.17842418 -0.0959669 -0.12422133 0.062168393 -0.31394508 0.08897027 0.057001684
0.0203464 -0.086672455 -0.019174015 0.2006845 -0.024693957 0.15605083 0.029787023 0.07359654
-0.069058105 -0.036961418 0.014889091 -0.10193991 0.2439094 -0.037961878 -0.08326617 -0.10188866
0.018068077 -0.09288423 0.022017373 0.09807933 0.23790503 -0.117321305 0.10490645 0.10173818
0.10284127 -0.0045794686 -0.04294794 -0.07152996 0.024263015 -0.015047445 0.027389996 -0.032375854
-0.041058347 -0.50392324 1.1677256 -0.11969756 -0.07581047 0.06932944 -0.11440283 0.0036502199
00000000: 4892 98bd c1b0 ab3d 1fe4 5abc cc13 713c
00000010: 9fc8 b23c 74a3 b83e 31da 6a3d b541 bb3c
00000020: bc59 6d3e 3b84 51be 403c 62be b36b abbd
00000030: d378 d13d 8943 86bd 06d9 4e3d 623a 763e
00000040: 4d45 83be d0bf 75bd 378e d33d e52d 37bd
00000050: 9e2b 013e 1577 a0bd c2d8 bebd c3bd 13be
00000060: dccd d13c 25a7 5e3d 25fc ef3c 3b94 d93c
00000070: 229b 153e ef43 413d 41bd 423d cd10 87be
00000080: 0927 28bd 66a0 1e3b 6de0 52be a9a2 52be
00000090: 4fa1 81bd a847 abbd fbf6 77bc ed25 b93d
000000a0: 61ad dc3d cc22 fb3d 408c 16be 52e3 c7bd
000000b0: 174b 1bbd 953a d13d b0a1 2cbe 84b5 993d
000000c0: 4e09 223d 12dd 94be fab3 cc3c e227 3f3d
000000d0: 7e92 a73e a4b8 b23c 559c 41bd 401a ea3d
000000e0: b875 80bd 393c a1be a3ad 2cbe b54d 0c3e
000000f0: 0190 8c3d e8c0 b9bc 1169 1b3d 907a 563e
00000100: 7b3a 823d 8e7a 83bb 7dc2 65be 49ba 84bd
00000110: 38f4 78bd 7a69 a2be 9048 74bd d82e a1bd
00000120: 66ae c1bd 0dda 6dbd e389 23bd 570d 46bd
00000130: d692 a63c 2872 353d 9323 b63e 6536 083e
00000140: c4d6 cebd 8157 cebd 71d9 78be b285 b23e
00000150: e50f 86be accb 293e 10f1 0c3d 1467 ae3c
00000160: c02b 98be f426 41be 2d12 efbd 6404 e13c
00000170: 3060 fe3d 7a05 043d 77ea 513e 7f44 ee3b
00000180: 70af 16bd 80e1 cabe 17e3 9e3d 9720 a0bd
00000190: ae2e 03bd a272 163c d5ab aabd ead5 31bf
000001a0: eb6a 4fbd ee78 0c3f c448 32bc 4344 99be
000001b0: 9aa9 c73b cc52 473e 3277 9b3e fc61 3f3e
000001c0: 30c3 09bc 75d3 9f3d efbe 913e 0f83 98bd
000001d0: 2406 17bf ff0f 37bf 5096 003e a168 863b
000001e0: 6177 5fbe d4cd 84be e9b7 e0bc ec05 203d
000001f0: c667 4dbc 87b4 1cbd fee1 9d3d d3c7 9ebd
00000200: 8add 85bd 7150 debd 45fb 01be 1b21 84be
00000210: fd86 bd3d 41aa ab3d f57f 30bd 1303 8bbe
00000220: 05e3 17bf 4179 093d 4744 2f3e 25d9 40bd
00000230: 7c3c 3f3c 5b23 14be a589 8c3d ae03 6cbd
00000240: bbe7 663d 16bf 1fbf 160e 923d 6717 85be
00000250: fc79 8cbd 1168 713d e8e7 aa3d b1aa d1bb
00000260: 03ee 00be 96ef 64bd f14f 60bd 2294 62bd
00000270: 1076 533c b384 3cbd ea60 ddbd 8ee2 3bbd
00000280: 3a7b bdbd baa0 ddbc ad03 203d 5724 b7bd
00000290: a32c 61bc 41cb f6bd 70a5 cebd 5e07 b53c
000002a0: 2fa4 1fbd 91f4 ffbc 3ded 03bf b8af 80bd
000002b0: d781 47bd 8f68 04be 800c 10be 6f64 9138
000002c0: 0b66 01bd 8693 bfbd a9fe 4ebe 1342 de3d
000002d0: 8b88 963d 0fbd ecbc 023b ccbc 0d71 733d
000002e0: a3cb 60be d5b5 b33c afee 043d 2e62 75bd
000002f0: 6d93 ab3d 0ee2 0b3e 8b52 73bd e6b3 83be
00000300: ed6d a9bc 3c09 de3c 41c5 913c 6d15 ebbd
00000310: 2105 09be 80d0 84bd 2c80 0cbe 0500 bcbe
00000320: 96f8 e93d f0b1 9a3c 357e 84bb be97 073e
00000330: 423b ffbc 93a3 063e 265c 0dbb 9ed4 3e3e
00000340: e6dc 5d3c d4b4 36be 4b8a c4bd c167 febd
00000350: 49a4 7e3d 69bd a0be 0b36 b63d 997a 693d
00000360: 7ead a63c 5481 b1bd d312 9dbc 3d80 4d3e
00000370: fb4a cabc cacb 1f3e ea03 f43c c8b9 963d
00000380: 566e 8dbd db64 17bd 60f1 733c dfc5 d0bd
00000390: 63c3 793e ea7d 1bbd 7487 aabd 00ab d0bd
000003a0: 8103 943c 163a bebd c75d b43c d1dd c83d
000003b0: 609d 733e 2746 f0bd 31d9 d63d 1b5c d03d
000003c0: 729e d23d 5e0f 96bb 2eea 2fbd 4d7e 92bd
000003d0: 3bc3 c63c 8f89 76bc fc60 e03c 8b9c 04bd
000003e0: cc2c 28bd 1d01 01bf 0878 953f ff23 f5bd
000003f0: 8542 9bbd 98fc 8d3d 084c eabd 8738 6f3b

model/dense_6/MatMul;model/activation_6/Relu;model/dense_6/BiasAdd f4 [100]
-12.249572 8.712747 7.761843 0.41793224 30.811256 -5.987745 9.141575 22.505836
-15.191537 18.451628 29.91346 3.5822592 4.994449 28.263075 -9.352048 -1.2087113
25.74268 12.159523 31.87917 23.09594 53.625828 24.454592 -13.765784 -24.883804
5.5989075 15.74056 -5.6597595 23.010338 25.744432 -5.7184167 -7.5106397 10.910716
-0.6211184 6.2133894 -0.098911576 45.47394 -29.812563 13.783956 3.6154974 6.370498
29.716227 3.6910987 16.61268 -16.67142 21.393953 5.8598347 -20.228 9.775936
15.342599 5.2948666 12.035707 -19.090338 0.656781 16.431908 15.572939 36.097443
26.462605 -7.166037 24.299126 31.165863 13.812616 -16.817984 0.78796804 7.2390814
-10.1945095 11.55555 49.70673 -0.83100134 -16.981426 8.194861 33.10767 9.204077
-5.187601 5.4440713 9.657163 -4.4893775 -14.5751 22.387768 -18.218616 -2.7112253
-7.5547075 5.5450907 -8.7791395 25.059025 20.025808 19.667816 18.088259 2.5870497
-17.934742 -6.9077077 17.908367 -12.98796 10.577029 8.944119 -4.3829017 14.64767
32.584972 -6.10813 -23.4579 -3.041754
00000000: 3ffe 43c1 6967 0b41 0561 f840 37fb d53e
00000010: 747d f641 9b9b bfc0 e443 1241 f40b b441
00000020: 8910 73c1 ef9c 9341 c44e ef41 bc43 6540
00000030: 87d2 9f40 c71a e241 fda1 15c1 0db7 9abf
00000040: 02f1 cd41 688d 4241 8a08 ff41 7cc4 b841
00000050: d980 5642 01a3 c341 a740 5cc1 0812 c7c1
00000060: 402a b340 55d9 7b41 c01c b5c0 2c15 b841
00000070: 99f4 cd41 45fd b6c0 2957 f0c0 4b92 2e41
00000080: 9e01 1fbf 16d4 c640 2792 cabd 51e5 3542
00000090: 2180 eec1 158b 5c41 4f64 6740 1fdb cb40
000000a0: d5ba ed41 f63a 6c40 c5e6 8441 115f 85c1
000000b0: d126 ab41 c483 bb40 f2d2 a1c1 3c6a 1c41
000000c0: 497b 7541 8c6f a940 4292 4041 03b9 98c1
000000d0: cd22 283f 8c74 8341 c22a 7941 c863 1042
000000e0: 6ab3 d341 2d50 e5c0 9c64 c241 b053 f941
000000f0: 7a00 5d41 3b8b 86c1 46b8 493f 8ea6 e740
00000100: b61c 23c1 88e3 3841 b1d3 4642 81bc 54bf
00000110: f6d9 87c1 271e 0341 416e 0442 e643 1341
00000120: d400 a6c0 d535 ae40 bd83 1a41 fba8 8fc0
00000130: 9c33 69c1 261a b341 babf 91c1 b784 2dc0
00000140: 2ac0 f1c0 6271 b140 5b77 0cc1 e278 c841
00000150: db34 a041 b057 9d41 c1b4 9041 3992 2540
00000160: 5a7a 8fc1 f10b ddc0 5644 8f41 afce 4fc1
00000170: 833b 2941 1d1b 0f41 bb40 8cc0 db5c 6a41
00000180: 0357 0242 cd75 c3c0 c7a9 bbc1 19ac 42c0
