corintho_ai/rating/tflite_models/model_18.tflite (tflite, 521576 bytes, 27 tensors)

model/dense_1/MatMul;model/activation_1/Relu;model/dense_1/BiasAdd f4 [100]
0	0xc1f76e7f	-30.928953
1	0x4256dcd6	53.71566
2	0xc1d29756	-26.323895
3	0xc09547b3	-4.6650023
4	0x42163a5b	37.556988
5	0x4183489d	16.410456
6	0x41c290f5	24.32078
7	0xc1b8b4bd	-23.088251
8	0xc1d1af00	-26.21045
9	0x413c6b2b	11.776164
10	0x40bbbe59	5.866986
11	0xc20262a8	-32.596344
12	0x407891be	3.8838954
13	0xc1411570	-12.067734
14	0x403c5e79	2.9432662
15	0xc1fa6b14	-31.302284
16	0x3f975746	1.1823509
17	0x403642dc	2.8478308
18	0xc12047d8	-10.01754
19	0xc0a38717	-5.1102405
20	0x3fe64905	1.7991034
21	0x403d7f3f	2.9608915
22	0x40be5c71	5.9487844
23	0xc1a256fc	-20.292473
24	0x41e0dc14	28.10746
25	0x40027525	2.0384
26	0xc15b7a42	-13.717348
27	0xc079c92e	-3.902904
28	0xc1947211	-18.555696
29	0x40d21006	6.564456
30	0xc1921a24	-18.262764
31	0xbf295c28	-0.66156244
32	0x414d11f1	12.81688
33	0xc1dbe854	-27.488441
34	0x420938b3	34.30537
35	0x4176bac1	15.420594
36	0xc00e7250	-2.225727
37	0xc15448e7	-13.267798
38	0x4065a2cb	3.588061
39	0x41916493	18.174109
40	0x41e3eba6	28.490063
41	0xc00d81c0	-2.2110443
42	0xc1882d2d	-17.022058
43	0xbf85c016	-1.0449245
44	0x40dc9601	6.893311
45	0xc09c58bf	-4.8858333
46	0x4084ef39	4.154202
47	0xc17ad952	-15.678057
48	0x3de560c2	0.11200096
49	0xc180302b	-16.02352
50	0x40ff372f	7.9754863
51	0xc1bf2a17	-23.895552
52	0x3fc20073	1.5156387
53	0x42881446	68.0396
54	0xc09bba3e	-4.8664846
55	0x41946c9f	18.553038
56	0x410e9175	8.910512
57	0xc093b6ec	-4.6160793
58	0x41b95767	23.167677
59	0xc0ac783d	-5.3896775
60	0x4106df59	8.429528
61	0x41deb19e	27.836727
62	0x403bb1f0	2.9327354
63	0x40e61a79	7.1907315
64	0x41b39dc3	22.452032
65	0x41c3edf5	24.49119
66	0x4245cb58	49.448578
67	0x4185735b	16.681326
68	0xc09c6277	-4.8870196
69	0xc20db6ce	-35.42852
70	0xc03fecf6	-2.998838
71	0xc129f572	-10.622423
72	0x4147f868	12.498146
73	0x42327adf	44.61999
74	0xc0ba3317	-5.8187366
75	0x41a1c6c3	20.222052
76	0xc09227b9	-4.567349
77	0x408451aa	4.1349688
78	0xc2007ced	-32.121998
79	0xbf777218	-0.9665847
80	0x3f8d8d43	1.1058735
81	0x41edb7af	29.71469
82	0x409066f6	4.5125685
83	0xc19901bf	-19.125853
84	0xc19be2a7	-19.48567
85	0x41d79963	26.949896
86	0x4146a493	12.415179
87	0xc13f8e4a	-11.972239
88	0x4221b4bd	40.426502
89	0x41af33cb	21.90029
90	0x41fc74ea	31.557087
91	0x407f206e	3.9863544
92	0x41ff2c7a	31.896717
93	0x40a573ef	5.170402
94	0xc1326cbe	-11.151548
95	0x406b2185	3.6739209
96	0x423ea781	47.663578
97	0x3fbe256e	1.4855173
98	0x3fc3b8f9	1.5290824
99	0xc22b1a5c	-42.77574

model/batch_normalization/batchnorm/mul_1;model/batch_normalization/batchnorm/add_1;model/dense_1/MatMul;model/activation_1/Relu;model/dense_1/BiasAdd f4 [100, 100]
0	0x3db78198	0.08960265
1	0xbed11c73	-0.40842018
2	0x3f2f342c	0.6843898
3	0xbde36578	-0.11103338
4	0x3fef1cdf	1.8680686
5	0x3f4c26e8	0.79746866
6	0xbecbe82a	-0.39825565
7	0xbf55dbee	-0.8353871
8	0x3e55448c	0.2082693
9	0x3f246afa	0.64225733
10	0x3e8cb655	0.27482858
11	0x3f1949aa	0.5987803
12	0xbb7cfe3d	-0.0038603686
13	0x3bf290c5	0.007402512
14	0xbd7057da	-0.05867753
15	0x3d1d7de3	0.038450133
16	0x3ec1b8c5	0.3783628
17	0xbf59cf1c	-0.8508165
18	0xbcba584d	-0.022747183
19	0xbdba7055	-0.09103457
20	0x3e2fc6f0	0.17165732
21	0x3fd9522c	1.6978202
22	0x3c2342e0	0.009964675
23	0xbe218ee6	-0.15777168
24	0xbea57a2d	-0.32319775
25	0x3deba0fe	0.11505316
26	0x3e89724b	0.2684501
27	0xbf26ee39	-0.6520725
28	0x3e942887	0.2893717
29	0xbde3fb29	-0.111318894
30	0xbc200431	-0.009766624
31	0x3f2aa29e	0.66654384
32	0x3ea85b74	0.32882273
33	0x3d96d601	0.07365037
34	0xbe8645b3	-0.2622505
35	0x3d89f7a3	0.06736686
36	0x3e398b6e	0.18119594
37	0xbeefed6c	-0.46860826
38	0xbdb31c94	-0.08745685
39	0x3e333c7d	0.17503543
40	0x3f2be770	0.6715002
41	0x3f63092d	0.88685876
42	0x3ebba84f	0.36651847
43	0x3dbec74f	0.09315359
44	0xbed9db43	-0.42550096
45	0xbee13767	-0.4398758
46	0x3ea3c5a4	0.31986725
47	0xbde484f1	-0.11158169
48	0x3e8bf2fd	0.27333823
49	0xbe3c53e0	-0.18391371
50	0xbd9e2851	-0.077225335
51	0x3f0e740a	0.5564581
52	0x3fc6a354	1.5518594
53	0x401af8a9	2.421427
54	0x3e07a68b	0.13247125
55	0x3dbc3bc2	0.091910854
56	0xbe157fdb	-0.14599554
57	0x3e4d9695	0.20076974
58	0xbff80290	-1.9375782
59	0x3edcf26b	0.431537
60	0x3e9ac78d	0.3023037
61	0xbd604f8f	-0.054763373
62	0xbeaf7228	-0.34266782
63	0xbf3a748b	-0.7283408
64	0x3f207803	0.62683123
65	0xbe8e7dd7	-0.27830383
66	0xbe62dc16	-0.22154269
67	0x3e7a2bdd	0.24430795
68	0x3bb6d0e9	0.0055791033
69	0x3f401c58	0.7504325
70	0x3ea69bb6	0.32540673
71	0x3e8fb182	0.28065115
72	0x3de4488f	0.11146652
73	0xbcc696d3	-0.02424184
74	0x3f4acfae	0.79223144
75	0xbf50adf8	-0.81515455
76	0xbe2e160b	-0.17000596
77	0xbf0d94fc	-0.5530546
78	0x3eb0d9b0	0.34541082
79	0x3f435d46	0.763142
80	0xbec7e69a	-0.39043123
81	0x3e9342f8	0.2876203
82	0xbe897f4c	-0.26854932
83	0xbe0ea552	-0.13930252
84	0xbee340c5	-0.44385353
85	0x3e6583f6	0.2241362
86	0x3caaab2c	0.020833574
87	0xbe87fe55	-0.26561227
88	0x3dc25f52	0.09490837
89	0xbe02278c	-0.12710398
90	0xbf0f24bb	-0.5591542
91	0x3f44a48a	0.76813567
92	0x3e1f938d	0.1558363
93	0xbf2d6bba	-0.677425
94	0xbd9a62c9	-0.07538373
95	0x3d77a9d4	0.060464695
96	0x3d0fc5ab	0.03510062
97	0x3c260765	0.010133599
98	0xbdda23a8	-0.10651332
99	0xbe917bb7	-0.284147
100	0xbf431989	-0.7621084
101	0xbf50a0b5	-0.8149522
102	0xbe94eab4	-0.29085314
103	0xbbcfd076	-0.006341989
104	0xbf867499	-1.0504333
105	0x3f8804e5	1.0626494
106	0x3eba8da1	0.3643618
107	0x3e63b20b	0.22235887
108	0x3e5c30b6	0.21502957
109	0xbe15d840	-0.14633274
110	0x3e83c1e6	0.2573387
111	0x3d4be8a1	0.0497824
112	0xbf29433c	-0.66118217
113	0xbdccf6c5	-0.10008005
114	0xbeb4e1b9	-0.35328463
115	0xbf28c2bc	-0.6592214
116	0x3e4b6529	0.19862808
117	0xbfa87d3f	-1.3163222
118	0xbf0815d9	-0.53158337
119	0xbe84d994	-0.2594725
120	0xbf0bc7f7	-0.54602
121	0x3d774263	0.060366046
122	0x3d94eceb	0.07271751
123	0xbd48aa45	-0.048990507
124	0x3da723d1	0.08161128
125	0x3dde92f3	0.10867872
126	0xbeeba9f3	-0.46028098
127	0xbe956f88	-0.29186654
128	0x3e12abb7	0.14323317
129	0x3cd99212	0.02655891
130	0x3ddb2c8d	0.10701857
131	0x3ed324ed	0.4123911
132	0x3e73baf4	0.23801786
133	0xbe4e2960	-0.20132971
134	0x3e44c7df	0.1921687
135	0xbdb22ec6	-0.087003276
136	0xbeb1dc35	-0.34738317
137	0xbfd1acb1	-1.6380826
138	0xbf2276c3	-0.63462466
139	0xbf0199fe	-0.506256
140	0x3dee10c5	0.11624292
141	0xbe8232e1	-0.25429443
142	0xbf492356	-0.78569543
143	0xbe26798b	-0.16257302
144	0xbdaacca0	-0.0833981
145	0xbf4cc33c	-0.79985404
146	0x3d6daa78	0.0580239
147	0xbe23ea26	-0.1600729
148	0xbe8070d8	-0.25086093
149	0x3ca5ddb5	0.02024732
150	0xbdf219f5	-0.11821357
151	0x3fb5fe60	1.4218254
152	0x3eab52e0	0.33461666
153	0x3f25d7da	0.6478249
154	0x3eb46858	0.35235858
155	0xbe6c682c	-0.23086613
156	0xbd18e2d3	-0.03732569
157	0x3f5987ba	0.8497273
158	0x3ff426e5	1.907437
159	0x3e831a1a	0.2560585
160	0x3edbd565	0.42936245
161	0x3e2bf043	0.16790871
162	0x3e2976b4	0.16549188
163	0xbf1e4fc5	-0.6184047
164	0xbf033883	-0.51258105
165	0xbe9d6bd6	-0.30746335
166	0x3d0d31be	0.034471266
167	0x3f3a7a93	0.72843283
168	0xbe143ebd	-0.14477058
169	0x3b9e0d0f	0.004823334
170	0xbe651522	-0.22371343
171	0x3efeed4f	0.49790427
172	0xbc1ab8c9	-0.00944347
173	0x3def7d5d	0.11693833
174	0xbeb9c4d3	-0.36282977
175	0xbeb94f55	-0.36193338
176	0xbf1404ba	-0.5781971
177	0xbe9527ef	-0.2913203
178	0x3f259109	0.6467443
179	0x3dea3aa1	0.11436964
180	0xbe20fae1	-0.15720703
181	0xbee6c7bb	-0.45074257
182	0x3ebb63da	0.36599618
183	0x3ef64b63	0.4810439
184	0xbca3eb0a	-0.020009536
185	0x3e587d6e	0.21141598
186	0xbd993512	-0.074808255
187	0xbeedb33e	-0.46425813
188	0x3e00824a	0.12549701
189	0xbeb230ad	-0.34802762
190	0xbf5b0e90	-0.85569096
191	0x3f590f9c	0.84789443
192	0xbe20c649	-0.1570064
193	0xbf146084	-0.5795977
194	0xbf00d1a3	-0.5031988
195	0x3da75160	0.08169818
196	0xbd8bd678	-0.06828016
197	0xbf87fc7f	-1.0623931
198	0xbf117543	-0.5681955
199	0xbeb00665	-0.3437988
200	0x3f29a607	0.6626896
201	0xbe43b164	-0.19110638
202	0xbfa6c422	-1.3028605
203	0x3e960a2a	0.2930463
204	0xbd79a1e5	-0.06094541
205	0x3d8e79f1	0.06956852
206	0x3f74e900	0.9566803
207	0xbf1561c7	-0.5835232
208	0xbf2fd1b4	-0.68679357
209	0xbf23827c	-0.6387098
210	0xbe8b06e5	-0.27153698
211	0x3f69c06f	0.91309255
212	0x3d7eb5a5	0.06218495
213	0x3e15685b	0.1459059
214	0xbe124a15	-0.14286073
215	0x3ecc63a4	0.3991977
216	0x3e2e2077	0.17004572
217	0xbea2d916	-0.31806248
218	0xbf1f761a	-0.62289584
219	0xbebbb830	-0.3666396
220	0xbdf3df69	-0.119078465
221	0xc007c85b	-2.1216037
222	0xbe26fc7a	-0.1630725
223	0x3d769189	0.060197387
224	0x3d0fbb0a	0.035090484
225	0xbd9bb2f7	-0.07602494
226	0xbd85c4c2	-0.06531669
227	0x3e21294e	0.15738413
228	0xbe1d8d12	-0.15385845
229	0x3fd0c642	1.6310503
230	0x3f5cf9eb	0.86318845
231	0x3ecb5f44	0.3972112
232	0x3e38150e	0.17976782
233	0x3f15b842	0.5848428
234	0x3f5cb9fe	0.862213
235	0xbe10bac5	-0.14133747
236	0x3d20abcf	0.03922635
237	0x3e85cc8c	0.2613262
238	0x3e844052	0.25830323
239	0xbe92b9c9	-0.28657368
240	0x3e9d8d3d	0.3077182
241	0xbe8a07a6	-0.2695896
242	0x3f074b8e	0.5284966
243	0x3f077a2a	0.5292078
244	0x3e061710	0.13094735
245	0xbf374014	-0.7158215
246	0x3eebd550	0.46061182
247	0xbe3afb4d	-0.18259926
248	0xbf00854b	-0.5020339
249	0xbe7e2c9a	-0.24821702
250	0xbc9e96db	-0.019359043
251	0x3faeb309	1.3648387
252	0x3efe6c0d	0.4969181
253	0xbdade830	-0.08491552
254	0xbe6d0c5e	-0.23149249
255	0xbeb466e7	-0.35234758

model/dense_2/MatMul;model/activation_2/Relu;model/dense_2/BiasAdd f4 [100]
0	0x41cafb54	25.372719
1	0xc21539c2	-37.306404
2	0x4095f8dc	4.6866283
3	0xc1fed7b2	-31.85532
4	0xc18845c6	-17.03407
5	0xc10e4a6c	-8.893169
6	0x415ffc99	13.999169
7	0x416f12ff	14.942138
8	0xc0e03dde	-7.007552
9	0xbf9e21e2	-1.235409
10	0xc10bbe92	-8.734026
11	0xc10b5b1c	-8.7097435
12	0xc0255f69	-2.5839484
13	0x41013e6e	8.077742
14	0x40a4ebcb	5.1537833
15	0xc2103ffe	-36.062492
16	0xc1316e53	-11.089435
17	0x4084fecb	4.1561027
18	0x3e8cdc50	0.27511835
19	0x40adfef0	5.4373703
20	0x40e70065	7.218798
21	0xbfbd0fe8	-1.4770479
22	0x40455e60	3.0838852
23	0x40bae07c	5.839903
24	0xc11daa3c	-9.854061
25	0x40eddcf3	7.4332213
26	0xbfb31264	-1.3989987
27	0x4187c4b1	16.97104
28	0xc10de316	-8.867941
29	0x3f9d075e	1.2267873
30	0xc1011ba8	-8.069252
31	0x40dde78d	6.9345155
32	0x415a00c2	13.625185
33	0xc11c703a	-9.777399
34	0x41832dae	16.397305
35	0xc18b3f34	-17.40586
36	0x41c357a7	24.417799
37	0xc17ec6a3	-15.923495
38	0xc19189ce	-18.192287
39	0xbfd96d1e	-1.6986425
40	0x4037f30b	2.8742092
41	0xc1a589a4	-20.692207
42	0x3f5bdc6a	0.858832
43	0xc02346c1	-2.5511935
44	0xc139ef9f	-11.621001
45	0x4198a8ca	19.082417
46	0xc10c3430	-8.762741
47	0xbf52e931	-0.8238707
48	0xc1d9aff3	-27.210913
49	0x40d7b57a	6.740903
50	0x41d6fbaa	26.872883
51	0x41d304f1	26.377413
52	0x4113e627	9.24369
53	0xbf1e4170	-0.618186
54	0x40a29f5e	5.081954
55	0xc091e47d	-4.5591416
56	0x40234779	2.5512373
57	0x41e4de72	28.608616
58	0x41a1ac7c	20.20922
59	0xc1562df1	-13.386216
60	0xc073b1af	-3.80772
61	0x403a60b5	2.9121525
62	0x40a3a8b4	5.1143436
63	0x42565ead	53.592457
64	0x41c566ca	24.67519
65	0x40c089ea	6.016835
66	0xc1d6bacc	-26.84121
67	0xc190c395	-18.095499
68	0xc109de24	-8.616734
69	0x41b8744c	23.056786
70	0xc294ea97	-74.45818
71	0x3fe48338	1.7852545
72	0xc1ca60e9	-25.29732
73	0x4196c4eb	18.846151
74	0xc183e2ea	-16.485798
75	0xc1c5591b	-24.668509
76	0x40dac467	6.836475
77	0xc0f5dea1	-7.6834264
78	0xc135b73a	-11.357233
79	0x4122d387	10.176642
80	0x417a29d2	15.63521
81	0x41267c5a	10.405359
82	0x41971e85	18.889902
83	0x41425999	12.146874
84	0xc096e378	-4.715267
85	0xc1c562e9	-24.673296
86	0x40132297	2.2989862
87	0x41ae4336	21.782818
88	0x40decb6b	6.9623313
89	0x416466ba	14.27508
90	0xc18bb6a7	-17.464186
91	0x40900c94	4.5015354
92	0xc0968886	-4.7041655
93	0x40483457	3.1281946
94	0x40ae53cb	5.4477286
95	0x4176b02b	15.41801
96	0x418cb21e	17.586971
97	0x416a95c5	14.661565
98	0x411791be	9.473082
99	0x40fbcc2e	7.8686743

model/batch_normalization_1/batchnorm/mul_1;model/batch_normalization_1/batchnorm/add_1;model/dense_2/MatMul;model/activation_2/Relu;model/dense_2/BiasAdd f4 [100, 100]
0	0xbc9bcb20	-0.019017756
1	0xbe8096a5	-0.25114933
2	0x3d9812a7	0.07425433
3	0xbdf3f1e0	-0.11911368
4	0xbe4a5c44	-0.19761759
5	0xbe31848c	-0.17335719
6	0x3db52509	0.088449545
7	0xbc95de2f	-0.018294422
8	0x3e75d7a9	0.24008049
9	0xbd196985	-0.037454147
10	0x3dbdaba3	0.09261253
11	0x3e33502e	0.17511055
12	0x3d643b61	0.05572069
13	0xbd807212	-0.06271757
14	0xbe466b88	-0.19376957
15	0x3d1d00fc	0.038331017
16	0x3d06186d	0.032738138
17	0xbec0a816	-0.3762824
18	0x3e1e45ac	0.15456265
19	0x3dd7608e	0.10516463
20	0xbd9821c1	-0.07428313
21	0xbd367721	-0.044547204
22	0x3df3c879	0.119034715
23	0x3e471cbc	0.19444555
24	0xbdbf970a	-0.0935498
25	0x3c488be0	0.01224038
26	0xbd23f84b	-0.040031713
27	0xbb7f4028	-0.0038948152
28	0x3d8653f5	0.06558982
29	0xbd939c08	-0.07207495
30	0x3c47cead	0.012195271
31	0xbcea8d11	-0.028631719
32	0xbe62b7c3	-0.22140412
33	0x3cd44127	0.025909973
34	0x3d511d5e	0.051053397
35	0x3e7ff03f	0.2499399
36	0xbdb2ce3c	-0.08730742
37	0x3ddffa45	0.10936407
38	0x3dfb3d42	0.122675434
39	0xbcc52072	-0.024063323
40	0xbcfe94d9	-0.031076835
41	0xbe66ff08	-0.22558224
42	0xbdbfeb89	-0.09371097
43	0x3d00f896	0.03148707
44	0xbce6cf82	-0.02817512
45	0x3e0b127d	0.13581271
46	0xbd565792	-0.052329607
47	0xbc722cc8	-0.0147811845
48	0xbdc74b12	-0.097311154
49	0xbd866fc8	-0.06564289
50	0x3dc2e8db	0.0951707
51	0x3d6c4f27	0.057692673
52	0x3cc06556	0.02348582
53	0xbe264d70	-0.16240478
54	0x3c8b6a59	0.017018484
55	0xbd31b44d	-0.04338484
56	0x3d7d64fd	0.061863888
57	0x3dabe89f	0.08393978
58	0x3e77060a	0.24123397
59	0xbdae6f64	-0.0851734
60	0x3e75895d	0.23978181
61	0xbe24905f	-0.16070698
62	0x3c7c2116	0.015388748
63	0xbe3ca568	-0.18422472
64	0x3c68d463	0.014210793
65	0x3cbceb41	0.023061397
66	0x3d18e322	0.037325986
67	0xbd831831	-0.064010985
68	0xbddb51db	-0.10708972
69	0x3da5e225	0.08099774
70	0xbe816d20	-0.25278568
71	0xbe02bc93	-0.12767248
72	0xbdbccf14	-0.092191845
73	0xbd901b7d	-0.07036493
74	0xbe97d5ea	-0.2965539
75	0xbe1aced9	-0.15117969
76	0xbdb3849b	-0.08765527
77	0x3d896307	0.06708341
78	0xbe05bc93	-0.13060217
79	0xbe84206a	-0.2580598
80	0x3dbda9e4	0.0926092
81	0x3dc592d8	0.09647149
82	0x3d42dc2e	0.04757326
83	0x3e0c9136	0.13727269
84	0xbd629e3c	-0.055326685
85	0xbd859eaa	-0.065244034
86	0x3d51fd75	0.051267106
87	0x3d808b00	0.06276512
88	0xbe4d609f	-0.2005639
89	0xbcc73aef	-0.024320094
90	0x3dad57c0	0.084640026
91	0xbd99c434	-0.07508126
92	0xbe1b42bd	-0.15162177
93	0xbe1fb3ab	-0.15595882
94	0xbf1da9ec	-0.61587405
95	0x3ef97836	0.48724526
96	0x3e5a3313	0.21308546
97	0xbf41ef88	-0.7575612
98	0x3c8ff9e0	0.017575204
99	0xbe61dd64	-0.2205711
100	0x3da10cee	0.07863794
101	0x3da5a94f	0.08088934
102	0xbd7239a8	-0.059137017
103	0xbda4e7b6	-0.08052008
104	0x3d1917e2	0.037376292
105	0x3d9800b5	0.0742201
106	0x3e0ac1c3	0.13550477
107	0xbbd02f36	-0.006353284
108	0x3d8f94eb	0.07010826
109	0x3da59ccd	0.08086548
110	0xbd32e0a5	-0.04367127
111	0xbc03c63e	-0.00804287
112	0x3cb042f6	0.021516304
113	0xbd8a9f69	-0.06768686
114	0x3daa048b	0.08301648
115	0x3e240f31	0.1602142
116	0xbda164f3	-0.07880583
117	0xbe1352cc	-0.14387053
118	0xbd511e19	-0.051054094
119	0x3e58438f	0.21119522
120	0x3b075600	0.0020650625
121	0xbd46f57b	-0.048573952
122	0x3e39b270	0.18134475
123	0xbc4fb2b7	-0.012676886
124	0x3d0c64fb	0.03427599
125	0x3c636c8b	0.013880859
126	0xbb956133	-0.004558706
127	0xbd2025be	-0.039098494
128	0x3e1bcbd0	0.15214467
129	0x3c9c63e9	0.01909061
130	0x3e82f6b8	0.25578856
131	0x3ed4c030	0.41552877
132	0x3e19f136	0.15033421
133	0x3cc0b339	0.02352296
134	0xbc2cb526	-0.010541236
135	0xbdc8de86	-0.09808068
136	0x3d020b05	0.03174879
137	0x3d8600e3	0.06543138
138	0x3c7a882a	0.015291253
139	0xbd01df02	-0.031706817
140	0xbd977f50	-0.0739733
141	0xbd366b70	-0.044536054
142	0x3e5f206b	0.2178971
143	0xbd34ed79	-0.044171784
144	0x3e081492	0.13289097
145	0x3dc4f1a0	0.09616399
146	0x3ce323b5	0.027726987
147	0x3db4b7f8	0.08824152
148	0x3dfb4307	0.12268644
149	0x3d81effc	0.063446015
150	0x3d51b23e	0.051195376
151	0xbe214898	-0.15750349
152	0x3e8e8800	0.27838135
153	0x3de47483	0.11155035
154	0x3dd674ce	0.104714975
155	0x3cec6b6c	0.028859816
156	0x3da3a3bb	0.079902135
157	0x3bdf8978	0.0068218075
158	0xbd7099e5	-0.058740515
159	0x3cca0059	0.024658369
160	0xbc24e62f	-0.010064646
161	0xbe2dc94e	-0.16971323
162	0x3ebaf4c1	0.36514857
163	0xbd713864	-0.05889167
164	0x3ce50757	0.027957601
165	0x3e395186	0.18097505
166	0xbdbedf42	-0.09319927
167	0xbd583231	-0.05278224
168	0x3bcc388e	0.006232328
169	0x3dc0633e	0.09393929
170	0xbdf8321c	-0.121189326
171	0x3cc49491	0.023996623
172	0xbce82075	-0.02833579
173	0x3e8cdb9f	0.27511308
174	0xbb8e8d8b	-0.0043503693
175	0xbe520d76	-0.20512947
176	0xbcfa63e5	-0.030565212
177	0x3db4b1dc	0.088229865
178	0x3d91cc0f	0.07118999
179	0xbd638b9c	-0.055553064
180	0x3d9f6304	0.077825576
181	0xbd1ed68a	-0.03877882
182	0x3d94b079	0.07260222
183	0x3db36e1b	0.08761235
184	0xbd17edfb	-0.03709219
185	0xbd84088a	-0.06446941
186	0xbceef099	-0.02916746
187	0x3e1cc992	0.15311268
188	0x3d78d0f8	0.060746163
189	0xbd791bf3	-0.06081767
190	0x3ef868bb	0.48517403
191	0xbd7ad944	-0.061242357
192	0xbe194877	-0.1496905
193	0x3da53064	0.080658704
194	0xbde6143b	-0.112343274
195	0x3d247772	0.040152974
196	0xbe505d8a	-0.20348182
197	0xbd5b48e9	-0.05353633
198	0x3d76c25b	0.060243946
199	0xbd79cee8	-0.060988337
200	0x3e31d46c	0.17366189
201	0x3da15cf1	0.07879055
202	0xbca7b10a	-0.020470161
203	0xbdcaabe3	-0.09896066
204	0x3c50e0d4	0.012748916
205	0xbdd9cc8a	-0.10634716
206	0x3dacb78d	0.08433447
207	0xbd446e0f	-0.047956523
208	0xba27a4e6	-0.0006395116
209	0x3e3a3b8f	0.18186782
210	0x3ca659e1	0.02030653
211	0x3d9fe8a5	0.07808045
212	0xbe2f4e82	-0.17119792
213	0xbd96861b	-0.07349797
214	0x3d91fdfb	0.07128521
215	0xbe685ea0	-0.22692347
216	0x3d58f5f2	0.052968927
217	0xbdee12e2	-0.11624695
218	0xbdecd417	-0.115638904
219	0x3e05e534	0.13075715
220	0x3e20bfc9	0.1569816
221	0xbd17ef4d	-0.03709345
222	0x3e509086	0.20367631
223	0x3c035195	0.008015056
224	0xbd0cd323	-0.034381043
225	0x3d325f42	0.043547876
226	0xbd29d41d	-0.041462053
227	0xbdf438da	-0.11924906
228	0x3d5b76bb	0.053580027
229	0xbd0e1909	-0.034691844
230	0x3c8d2dca	0.017233748
231	0x3e4f3d8e	0.20238325
232	0xbc66fbbb	-0.014098103
233	0xbd79cef7	-0.060988393
234	0xbe3e639d	-0.18592687
235	0xbc883ac2	-0.01662958
236	0x3dc82538	0.09772724
237	0xbc3820f6	-0.011238327
238	0xbc6db0db	-0.014507498
239	0xbd0b1a18	-0.03396043
240	0x3d8aa4ef	0.0676974
241	0x3ec04a3f	0.37556645
242	0x3d8684c3	0.06568291
243	0x3e1c2940	0.1525011
244	0x3d96f4e0	0.07370925
245	0x3e3c095a	0.18362942
246	0xbcb45573	-0.022013402
247	0xbd15b26a	-0.036547102
248	0xbdf44cf1	-0.11928738
249	0xbca5a453	-0.020219957
250	0x3ca90033	0.020629978
251	0xbd629c93	-0.055325102
252	0xbd87bd87	-0.06627946
253	0x3e2d2f8f	0.16912673
254	0xbe849886	-0.25897616
255	0x3d81bf7b	0.0633535

model/dense_3/MatMul;model/activation_3/Relu;model/dense_3/BiasAdd f4 [100]
0	0xc1309a69	-11.037698
1	0x419ab105	19.336435
2	0xc0dac9ac	-6.837118
3	0x401441e5	2.316522
4	0x40df901d	6.986342
5	0xc0aaa92a	-5.33315
6	0xbc050244	-0.008118216
7	0x40ec0b98	7.3764153
8	0x409258e0	4.573349
9	0x41017072	8.089952
10	0x414d0aee	12.815168
11	0x41cf20d2	25.891026
12	0x415427b6	13.259695
13	0x408a5774	4.3231754
14	0x410bc826	8.736364
15	0x4084385d	4.1318803
16	0xc12dcb91	-10.862199
17	0x40a75052	5.2285547
18	0x4143db8c	12.2411
19	0x40b35370	5.6039352
20	0x4109eed7	8.6208105
21	0xc01d5177	-2.4580972
22	0xc1163a9e	-9.389311
23	0x4176910a	15.41041
24	0x4170f82a	15.060587
25	0x419303b4	18.376808
26	0x41980ff4	19.00779
27	0xc1115efb	-9.085689
28	0xc0fca3f5	-7.8950143
29	0xc1831238	-16.383896
30	0xc14894de	-12.536345
31	0x403fc644	2.9964762
32	0x40bc5b37	5.8861346
33	0xc0b2b0b8	-5.584072
34	0x406b0e6e	3.6727557
35	0x41e0ebbe	28.115108
36	0xc0ade172	-5.43377
37	0x411ea30b	9.914805
38	0xc1363fb1	-11.39055
39	0x419b68fb	19.42626
40	0x4153ef7b	13.245967
41	0x4167e372	14.493029
42	0x4198f92e	19.12167
43	0xc037a288	-2.8692951
44	0x4091d073	4.5566955
45	0x3f2aeffd	0.66772443
46	0xc059a150	-3.4004707
47	0x3d5353ae	0.051593475
48	0x41515c72	13.08507
49	0x4107a0c1	8.476747
50	0x3fa06f41	1.2533952
51	0xc133c55c	-11.235683
52	0xc12ebef3	-10.921618
53	0xc1367417	-11.403342
54	0xc0dfdcc3	-6.9956985
55	0x4117c0e1	9.48459
56	0x3fad392e	1.3533075
57	0xbfc803bb	-1.5626138
58	0x406c4a50	3.6920357
59	0x41206d59	10.026696
60	0xbda5d065	-0.08096389
61	0x402e47fd	2.7231438
62	0x41415692	12.083635
63	0x4143f81b	12.248073
64	0xbefc6329	-0.49294403
65	0x40ccb86b	6.397512
66	0x41052541	8.321595
67	0xc03c3a4b	-2.941058
68	0x40b29902	5.5811777
69	0x41774235	15.453664
70	0x411ca760	9.790863
71	0x410a104a	8.628977
72	0x40a0183a	5.0029573
73	0xc104bc95	-8.296041
74	0x40b046c4	5.5086384
75	0x3edc1fd4	0.42993033
76	0xc04225b5	-3.0335515
77	0xc01d5a0f	-2.4586217
78	0xbf7a8871	-0.97864443
79	0xc1344dd9	-11.269006
80	0xc03915ca	-2.891955
81	0x411c95f4	9.78661
82	0xc112a502	-9.165285
83	0x411cc994	9.799213
84	0xc0ad6bc2	-5.419404
85	0xc087665b	-4.2312446
86	0x41120ee4	9.128635
87	0x40ac6f1b	5.3885627
88	0xc00df944	-2.218339
89	0x414149da	12.08053
90	0xbf247904	-0.64247155
91	0x4163c23f	14.234923
92	0x40bd0e3b	5.907987
93	0xbff66618	-1.9249907
94	0x4037b576	2.8704505
95	0xc182b275	-16.337137
96	0x40616324	3.521676
97	0x40e76ef2	7.232293
98	0x404b4c43	3.1765296
99	0xc0b6e99e	-5.7160177

model/batch_normalization_2/batchnorm/mul_1;model/batch_normalization_2/batchnorm/add_1;model/dense_3/MatMul;model/activation_3/Relu;model/dense_3/BiasAdd f4 [100, 100]
0	0x3e6b9fa3	0.23010115
1	0xbde5d340	-0.11221933
2	0xbe2ab3ee	-0.166702
3	0x3d66636b	0.056247156
4	0x3bb4b267	0.0055144313
5	0xbdd39437	-0.10331004
6	0xbc667e47	-0.014068193
7	0x3dac527e	0.08414172
8	0xbd91d1ab	-0.07120069
9	0x3e8488cf	0.25885627
10	0xbe1061fb	-0.14099877
11	0x3dfff5f4	0.12498084
12	0xbe6be9b3	-0.23038368
13	0x3da69257	0.08133381
14	0x3e5fa8a4	0.21841675
15	0xbea858c4	-0.32880223
16	0xbc350547	-0.0110486215
17	0x3e5f0de0	0.21782637
18	0x3d2c78f7	0.04210755
19	0x3d9c66ff	0.076368324
20	0xbdbfc5f3	-0.09363928
21	0xbda8ec28	-0.08248168
22	0x3ea1c769	0.3159745
23	0xbe135c0e	-0.14390585
24	0x3d2ca566	0.042149924
25	0x3d818fc7	0.063262515
26	0x3be37ff4	0.0069427434
27	0xbd2a4d2c	-0.041577503
28	0xbe0b523b	-0.13605587
29	0xbdeb0ed0	-0.11477435
30	0x3d72f1b5	0.05931254
31	0xba6ed6d1	-0.00091109896
32	0xbdc46ac5	-0.09590677
33	0x3dcaa533	0.098947905
34	0xbe2ecfa8	-0.17071402
35	0xbd4bc6aa	-0.049750008
36	0x3e2f0e81	0.17095377
37	0xbcb1dd75	-0.021712044
38	0x3ccbb6fa	0.024867523
39	0x3c7dae86	0.015483504
40	0xbd4740b1	-0.04864568
41	0x3cea525f	0.02860373
42	0x3ac3ba28	0.0014932798
43	0x3e209e4a	0.15685382
44	0xbdc52a67	-0.09627228
45	0xbd4cb1dc	-0.049974307
46	0xbe1b5ae9	-0.15171398
47	0xbe3966bb	-0.18105595
48	0x3dedff3d	0.116209485
49	0x3e2efb7b	0.1708812
50	0xbbc4b8bf	-0.0060034688
51	0x3dace170	0.08441436
52	0x3e156022	0.14587453
53	0x3e2b2545	0.16713436
54	0xbdd10dca	-0.10207708
55	0xbd514b15	-0.051096994
56	0x3da87834	0.08226052
57	0x3e223be7	0.15843163
58	0x3e82ab46	0.25521296
59	0xbdb19dfd	-0.08672712
60	0xbe175d68	-0.14781725
61	0x3ec49dcb	0.38401636
62	0x3e0a8ad0	0.13529515
63	0xbe0b196c	-0.13583916
64	0x3d22f71a	0.039786436
65	0xbce7a404	-0.028276451
66	0xc01eb461	-2.4797595
67	0x3dda4995	0.10658566
68	0x3dc2aee5	0.09506015
69	0x3d39ba34	0.045343593
70	0x3dac3cf0	0.084100604
71	0xbde626ed	-0.11237893
72	0xbd26bc50	-0.040706933
73	0xbc5fa8b0	-0.013651058
74	0x3df7a721	0.12092424
75	0x3d86cc7d	0.06581972
76	0xbc3c04d9	-0.011475765
77	0xbcd05871	-0.025432797
78	0xbd5dbd4d	-0.05413561
79	0x3d30bf77	0.043151345
80	0xbe166007	-0.14685069
81	0xbdeb0d8e	-0.11477195
82	0xbdc3ff75	-0.09570209
83	0x3dd9924d	0.10623608
84	0x3e2ff716	0.171841
85	0x3d4674ee	0.048451357
86	0x3df71ca3	0.12066009
87	0xbd93c644	-0.072155505
88	0x3c9417fa	0.01807784
89	0x3eee5172	0.46546513
90	0xbd2bd748	-0.041953355
91	0xbeba9847	-0.36444303
92	0xbe48f630	-0.19625163
93	0x3db79112	0.08963217
94	0x3e61a295	0.22034676
95	0x3d0e90ab	0.034805935
96	0xbbc84285	-0.0061114454
97	0xbe8c8495	-0.27444902
98	0xbdb1241e	-0.08649467
99	0xbdce15ba	-0.10062738
100	0xbd888f7d	-0.06667993
101	0x3d8fb1ce	0.070163354
102	0xbe9f3bd4	-0.31100333
103	0xbd8bdc82	-0.06829168
104	0xbdba1b81	-0.09087277
105	0x3e801d81	0.2502251
106	0x3cb36ae6	0.02190156
107	0x3d5690eb	0.0523843
108	0xbe38818f	-0.18018173
109	0xbe8256e2	-0.2545691
110	0xbcb15adb	-0.021649769
111	0x3f07639a	0.52886355
112	0xbd060280	-0.032717228
113	0x3b319ec5	0.002710269
114	0x3e9ecabb	0.31014046
115	0x3e0f125d	0.13971849
116	0x3dbd24a8	0.09235507
117	0xbcbf327f	-0.023339508
118	0xbe64f2c7	-0.22358237
119	0xbd8c0c2f	-0.06838261
120	0x3d93ff3e	0.07226418
121	0x3bbd4178	0.0057756267
122	0xbd8c57fe	-0.06852721
123	0xbd97182c	-0.07377657
124	0x3cdafb3e	0.02673113
125	0xbd9d950e	-0.076944456
126	0x3d1415ad	0.036153484
127	0xb950a9b6	-0.00019899648
128	0x3e0d9d0c	0.1382944
129	0xbda85f77	-0.082213335
130	0x3d173a34	0.03692074
131	0x3d2551f5	0.040361363
132	0x3e518301	0.2046013
133	0x3c2e2fe3	0.010631534
134	0xbdea913f	-0.11453485
135	0x3d9dd66a	0.07706912
136	0x3e3fd29d	0.18732686
137	0x3dde3608	0.108501494
138	0x3dfe5a0d	0.124195196
139	0x3d47fcc3	0.048825037
140	0xbe94dbca	-0.29073936
141	0xbdf63649	-0.12022073
142	0x3ea0cc0b	0.31405672
143	0xbdb863e3	-0.09003427
144	0x3d371d58	0.04470572
145	0x3de0c9cf	0.10975992
146	0xbcea7f64	-0.028625198
147	0xbf01c5b8	-0.5069232
148	0x3de637c5	0.11241106
149	0xbe4bf9b1	-0.19919468
150	0xbb59383c	-0.003314509
151	0x3d2a0b6c	0.0415148
152	0xbdaaf50c	-0.0834752
153	0xbdadaf47	-0.08480697
154	0xbc3fdebf	-0.011710822
155	0x3e5c2739	0.21499337
156	0x3c1e9947	0.009680099
157	0x3dd0e69d	0.10200236
158	0xbe86ee37	-0.26353619
159	0x3e5b5d01	0.21422197
160	0x3d843776	0.06455891
161	0x3d2238df	0.039605018
162	0xbe1237c0	-0.1427908
163	0xbe7db649	-0.24776568
164	0xbe2e553f	-0.17024706
165	0xbbdc9b42	-0.0067323754
166	0xbc7f6216	-0.01558735
167	0x3e00e679	0.12587918
168	0x3d5dc74f	0.054145154
169	0xbd20a818	-0.039222807
170	0x3d083afb	0.033259373
171	0x3e3607d5	0.17776425
172	0x3ce3a903	0.027790552
173	0x3d65db6f	0.05611747
174	0x3d279b0c	0.04091935
175	0xbd4fd385	-0.05073883
176	0xbe4f0e55	-0.20220311
177	0x3e15e9d1	0.14639975
178	0x3d805a7b	0.06267258
179	0x3e0ea5c7	0.13930427
180	0xbe47307c	-0.19452089
181	0xbe844a11	-0.25837758
182	0x3eb047f4	0.34429896
183	0xbe0fdcca	-0.14049068
184	0xbe77c6df	-0.24196957
185	0x3b895af0	0.004191749
186	0x3e82c02a	0.25537235
187	0xbe609552	-0.21931961
188	0xbe727d30	-0.23680568
189	0x3dade9ba	0.084918454
190	0x3d92356f	0.07139098
191	0x3e8d0f7d	0.2755088
192	0xbd81c84d	-0.063370325
193	0xbd3a0214	-0.045412138
194	0xba79051c	-0.00094993575
195	0xbca2d5ec	-0.019877397
196	0x3dc3f8c3	0.09568932
197	0x3b501d09	0.0031755588
198	0xbe843286	-0.25819796
199	0xbb55f85c	-0.0032649254
200	0x3dce2e9f	0.10067486
201	0xbd0fa4d1	-0.03506929
202	0xbde6a2d2	-0.11261524
203	0xbe20d326	-0.15705547
204	0xbdbbc31e	-0.09168075
205	0x3c819df2	0.015822385
206	0x3d170b47	0.03687599
207	0x3ec4dfb3	0.3845192
208	0x3df1d8f1	0.118089564
209	0x3e8fc0ac	0.28076684
210	0xbd0535ef	-0.03252214
211	0x3e487c16	0.19578585
212	0x3d016572	0.031590886
213	0xbe7ecbf9	-0.24882497
214	0x3d758fc9	0.059951577
215	0x3e88afcc	0.26696622
216	0x3e0b64ac	0.13612622
217	0x3de45b8f	0.11150276
218	0xbddde7de	-0.10835241
219	0x3dd19296	0.10233037
220	0xbdbf341d	-0.09336112
221	0x3e7b02b3	0.24512748
222	0xbcb93a7b	-0.022610893
223	0xbe354be5	-0.17704733
224	0xbdb9aff0	-0.090667605
225	0xbd0285ca	-0.031865872
226	0xbd6820ff	-0.056672093
227	0x3d6b3f88	0.057433635
228	0xbe08e51f	-0.13368653
229	0xbeb5f5b6	-0.35539025
230	0xbe20ef96	-0.15716395
231	0xbd00a14f	-0.031403836
232	0xbda9d01f	-0.08291649
233	0x3e31395b	0.17307036
234	0x3d4f7e58	0.0506576
235	0xbd138084	-0.036011234
236	0x3cb7e7a9	0.022449331
237	0xbc88cca1	-0.016699137
238	0xbcf121f5	-0.029435137
239	0xbdae119a	-0.08499451
240	0x3d0f4b03	0.034983646
241	0xbc8f97a3	-0.01752836
242	0xbb1c4add	-0.0023848333
243	0x3e213a65	0.15744932
244	0xbdbafa27	-0.09129744
245	0xbe80466f	-0.25053737
246	0x3d3bc2b7	0.04583999
247	0xbb89cc6f	-0.0042052786
248	0x3e0e4998	0.13895261
249	0xbd82dbf1	-0.06389607
250	0xbe76f41f	-0.24116562
251	0xbe161446	-0.14656171
252	0x3cef09d6	0.029179495
253	0xbd5db7d0	-0.054130375
254	0xbd48c996	-0.049020372
255	0xbdf2cc73	-0.11855402

model/dense_4/MatMul;model/activation_4/Relu;model/dense_4/BiasAdd f4 [100]
0	0x3f23f853	0.6405079
1	0x3f140b8d	0.57830125
2	0xc01dacdf	-2.4636762
3	0x3fb2c478	1.3966208
4	0xc0e08552	-7.0162745
5	0xbe888053	-0.26660404
6	0x4063ce10	3.559452
7	0xbf4ac485	-0.79206115
8	0x4182d3d7	16.353437
9	0x41267d5a	10.405603
10	0xc1102707	-9.009528
11	0xc02acb0a	-2.6686425
12	0x41b29b25	22.325754
13	0x41553fb4	13.3280525
14	0xc10a4134	-8.640919
15	0xc0ca350d	-6.318976
16	0xc111d22f	-9.113814
17	0xc0e8f6aa	-7.2801104
18	0x3fce3647	1.6110314
19	0x4127b88b	10.482554
20	0xc0f6c2d7	-7.711284
21	0xc14ac1f0	-12.672348
22	0x41012615	8.071797
23	0xc10596f7	-8.349357
24	0x418d99f7	17.700178
25	0xc082bcd9	-4.0855527
26	0x40bbd23c	5.8694134
27	0x416fd466	14.989355
28	0x411d36bb	9.825862
29	0xbf0e20e9	-0.55518967
30	0xbf9bca95	-1.2171198
31	0xc036d145	-2.8565228
32	0x4199eb50	19.239899
33	0x405d4762	3.4574819
34	0x413a50c4	11.644718
35	0xc096d4e6	-4.7134886
36	0xc12fdcc6	-10.9914
37	0x4092b7cb	4.5849357
38	0x413b539f	11.707915
39	0x41511e93	13.069964
40	0x41b885de	23.065365
41	0x3fc7de97	1.5614804
42	0x40a6b180	5.2091675
43	0xbfd56856	-1.6672466
44	0x41a86180	21.047607
45	0xc013f581	-2.3118594
46	0xbeae975e	-0.3409986
47	0xc07a8db6	-3.9148993
48	0xc1246714	-10.275166
49	0x4006813a	2.1016374
50	0x414c466e	12.767195
51	0x4165c359	14.360192
52	0xc11b56c4	-9.708683
53	0xbf28c7f7	-0.6593012
54	0x4066f9eb	3.6090038
55	0x40666485	3.5998852
56	0x40c04065	6.0078607
57	0x40ecf2dc	7.404646
58	0x4125d5e7	10.364722
59	0xbfbfc686	-1.498246
60	0xc10da546	-8.85285
61	0x403b1251	2.922993
62	0xbfb2051d	-1.390781
63	0x4139de30	11.616745
64	0x3e55e11f	0.20886658
65	0x413ff678	11.997673
66	0xc06db30e	-3.7140536
67	0x4119ff3e	9.624815
68	0x41223a0d	10.139173
69	0x413d653f	11.837218
70	0xc04b4227	-3.1759126
71	0x41b181b5	22.188334
72	0x4107ecf4	8.49535
73	0xc17784ea	-15.46995
74	0x410d5f30	8.835739
75	0x41850f3f	16.632444
76	0x414d2dd4	12.8236885
77	0x402a82c1	2.6642306
78	0x4179171d	15.568143
79	0xc1337058	-11.214928
80	0x4148097e	12.502317
81	0x415393bf	13.223571
82	0x417dd647	15.864814
83	0xc125061d	-10.3139925
84	0x400ad0fb	2.1690052
85	0x3f8e16a8	1.1100664
86	0x40a3b4ed	5.1158357
87	0xbfc57d8c	-1.5428939
88	0x401954aa	2.3957925
89	0xc078614a	-3.880938
90	0xbe3d14fd	-0.18465038
91	0x40e832a3	7.2561812
92	0x409329f7	4.5988727
93	0x4080a92d	4.0206513
94	0x41a41a9e	20.512997
95	0x41991b01	19.138186
96	0x3f870dd0	1.055109
97	0xc0a56f24	-5.169817
98	0x410ba96c	8.728863
99	0x3fea9bc1	1.8328782

model/batch_normalization_3/batchnorm/mul_1;model/batch_normalization_3/batchnorm/add_1;model/dense_4/MatMul;model/activation_4/Relu;model/dense_4/BiasAdd f4 [100, 100]
0	0x3c1bb108	0.009502657
1	0x3d106ad7	0.03525814
2	0x3d70eb29	0.058818016
3	0xbe436575	-0.19081672
4	0xbe870e28	-0.26377988
5	0x3e2bceb4	0.1677807
6	0x3d40d727	0.047080185
7	0xbde95427	-0.11393004
8	0xbe1341e1	-0.143806
9	0x3d1a5bb5	0.037685115
10	0xbc84fe03	-0.016234403
11	0x3e08e7b2	0.13369635
12	0xbd1275f4	-0.03575702
13	0xbdf3ec03	-0.1191025
14	0x3e0aa302	0.13538745
15	0x3e9a00c1	0.300787
16	0x3d0e591f	0.03475296
17	0x3c449e4e	0.012000633
18	0xbc12e6e3	-0.0089661805
19	0xbb1c97f4	-0.0023894282
20	0xbdb87310	-0.090063214
21	0x3e5e0cd0	0.21684575
22	0x3ea9ab50	0.33138514
23	0x3dbf08e9	0.09327871
24	0xbd9eee7b	-0.0776033
25	0xbd028ba6	-0.03187146
26	0x3db0fa50	0.08641493
27	0x3cd9b266	0.026574325
28	0x3d77bc07	0.06048205
29	0xbe3457da	-0.17611638
30	0xbc3dd117	-0.011585495
31	0xbe760d57	-0.24028526
32	0x3d3f88ba	0.046761252
33	0xbda603c5	-0.08106188
34	0x3d8798e3	0.06620958
35	0x3e62054d	0.22072335
36	0x3db3ee80	0.08785725
37	0xbdbcb04b	-0.09213313
38	0xbe1edbb8	-0.15513504
39	0xbd173da9	-0.036924038
40	0xbdfb0f32	-0.12258758
41	0xbe3deee3	-0.1854816
42	0xbb80236f	-0.003910474
43	0x3de13264	0.109959394
44	0x3dc76549	0.097361155
45	0x3e8647cd	0.26226655
46	0xbed93a7b	-0.4242743
47	0xbddd7827	-0.10813933
48	0x3ea98fcf	0.3311753
49	0x3ce1b758	0.027553245
50	0x3ca4f158	0.020134613
51	0xbd8ee5b3	-0.069774054
52	0x3e1384ff	0.14406203
53	0x3d8a7611	0.06760801
54	0xbdb4f2d7	-0.088353805
55	0x3e0ecc61	0.13945152
56	0xbda52565	-0.08063773
57	0x3dbdd942	0.09269954
58	0x3dc4ab5e	0.09602998
59	0x3e5e1a83	0.21689801
60	0xbe6e3208	-0.23261273
61	0x3b97c64f	0.0046317945
62	0xbd2ddb38	-0.04244539
63	0x3d6568a1	0.056007985
64	0xbd3ccbd1	-0.046092812
65	0x3d188811	0.037239138
66	0x3d49c200	0.04925728
67	0xbd75c0ba	-0.05999825
68	0x3d127590	0.035756648
69	0x3c60c2a3	0.01371828
70	0xbdd94894	-0.10609546
71	0x3dd46f00	0.10372734
72	0xbe3037e3	-0.17208819
73	0x3d0e9400	0.034809113
74	0xbdd3308d	-0.10311995
75	0xbe8f0453	-0.27932987
76	0xbdf8dc14	-0.121513516
77	0xbc256096	-0.010093829
78	0xbcc13371	-0.0235841
79	0x3d5a9ff9	0.053375218
80	0x39f78bdb	0.00047215712
81	0x3ca05702	0.019572739
82	0x3dd74587	0.10511308
83	0xbde08d38	-0.10964435
84	0x3cb4fe9b	0.022094062
85	0xbd62d4ed	-0.055378843
86	0xbd1ad4ed	-0.037800718
87	0xbb829a8e	-0.0039857095
88	0xbd5bc9f9	-0.053659413
89	0xbc07f88d	-0.008299005
90	0xbda6a86d	-0.081375934
91	0x3c16cc53	0.009203988
92	0x3cc08b5d	0.023503954
93	0x3d1e4bb5	0.03864642
94	0xbec3a4dc	-0.38211715
95	0x3e4fd197	0.20294796
96	0x3d681cbb	0.056668025
97	0x3e58b987	0.21164523
98	0xbd17accb	-0.037030023
99	0xbc9e8166	-0.019348811
100	0x3b232bfb	0.002489804
101	0x3d5e005f	0.054199573
102	0x3dd794e1	0.10526443
103	0x3d1b9070	0.037979543
104	0xbd86889f	-0.06569027
105	0x3d448767	0.047980692
106	0x3d728760	0.059211135
107	0x3e486ace	0.19571993
108	0xbe1b6fc8	-0.1517936
109	0x3d818957	0.063250236
110	0xbc5094c0	-0.012730777
111	0x3e000ba3	0.12504439
112	0xbcc5a8dc	-0.02412837
113	0x3d0d4812	0.03449256
114	0x3d3087c2	0.04309822
115	0x3c4551e0	0.012043446
116	0x3dc7de22	0.09759165
117	0x3d7ecd47	0.062207486
118	0x3dcfd0fc	0.101472825
119	0xbe8ce82b	-0.2752088
120	0xbe05a3e1	-0.13050796
121	0xbe3e92e7	-0.18610726
122	0xbdc99457	-0.09842747
123	0x3e8b5470	0.27212858
124	0x3dcb810a	0.099367216
125	0x3c939bd8	0.018018648
126	0xbe031f6c	-0.12804955
127	0x3d8e0313	0.0693418
128	0x3e20224f	0.15638088
129	0x3e487226	0.19574794
130	0xbb978fe0	-0.0046253055
131	0xbdc507d4	-0.09620634
132	0x3d988785	0.07447723
133	0xbe80bcf2	-0.25144154
134	0x3e192515	0.14955552
135	0xbde241e4	-0.11047724
136	0x3df4c722	0.11952044
137	0xbe1434ad	-0.14473219
138	0x3d8d80be	0.06909321
139	0xbd3c89ef	-0.04602998
140	0x3e09168d	0.13387509
141	0xbe5f244a	-0.21791187
142	0xbbebe91a	-0.0071994187
143	0xbd15c183	-0.0365615
144	0xbbc4c89f	-0.006005361
145	0x3d0bf3ff	0.03416824
146	0x3d8236f6	0.06358139
147	0xbe11e30d	-0.14246769
148	0xbdba1e50	-0.09087813
149	0x3d14c1ea	0.036317743
150	0xb9d18ad3	-0.00039967019
151	0x3e2c4c2d	0.16825934
152	0xbcea4713	-0.028598344
153	0x3d815691	0.06315339
154	0x3cdcdeed	0.026961768
155	0x3df210a9	0.11819584
156	0xbc15c904	-0.009142164
157	0xbdb1ac67	-0.08675461
158	0xbd807d3c	-0.062738866
159	0xbe704ad3	-0.23466043
160	0x3e953409	0.29141262
161	0xbd3219b7	-0.043481555
162	0xbd893962	-0.06700398
163	0x3c8e32d6	0.017358225
164	0x3d774d28	0.060376316
165	0xbe46cccb	-0.1941406
166	0xbc938cda	-0.0180115
167	0xbda6146c	-0.08109364
168	0x3e82ebfc	0.25570667
169	0x3d5f15be	0.054464094
170	0x3d191ea5	0.03738274
171	0xbe9b9b9a	-0.30392152
172	0x3f50e085	0.8159259
173	0x3debc5e5	0.11512355
174	0x3ceceeb9	0.028922426
175	0xbd624fb0	-0.055251777
176	0xbdce1a3d	-0.10063598
177	0x3c14ac59	0.009074294
178	0x3da701b7	0.08154624
179	0xbe9ad97d	-0.30244055
180	0xbd03685e	-0.032081954
181	0x3e09b492	0.13447788
182	0xbe2a45ad	-0.16628142
183	0xbdb671cc	-0.08908424
184	0x3cca6494	0.024706163
185	0xbe22f0e1	-0.159122
186	0x3daaa0cc	0.08331451
187	0x3c1450a7	0.009052432
188	0xbdd51a9c	-0.10405466
189	0xbd6b8645	-0.057501096
190	0x3d063914	0.032769278
191	0xbe0da99b	-0.1383423
192	0x3c19aef9	0.009380096
193	0x3d81f564	0.06345633
194	0x3d562859	0.052284572
195	0x3e51accb	0.20476072
196	0x3e8f6fd9	0.2801502
197	0x3db6df39	0.08929295
198	0xbb1d1b28	-0.0023972485
199	0x3e1a7d65	0.15086897
200	0xbc8e5c55	-0.017378012
201	0x3e490490	0.19630647
202	0x3c7870c7	0.015163607
203	0x3e3713ec	0.17878693
204	0x3df5f163	0.120089315
205	0xbbdd9b9f	-0.0067629362
206	0xbdb6d714	-0.08927742
207	0x3e05d2e6	0.13068733
208	0xbd52af7b	-0.051436882
209	0xbd8bd304	-0.068273574
210	0xbddb2e73	-0.10702219
211	0x3eb713a7	0.3575718
212	0x3dbd7cd5	0.092523254
213	0xbc7f1e7e	-0.015571235
214	0x3d8e032b	0.06934198
215	0x3d1d8e44	0.038465753
216	0x3e081f4b	0.13293187
217	0x3d8b532b	0.068029724
218	0xbdeae437	-0.1146931
219	0x3d8b85e3	0.06812646
220	0x3d1e5f42	0.038665064
221	0x3dc197d6	0.094527885
222	0x3cb682f8	0.022279248
223	0xbc67248b	-0.014107834
224	0x3c7f80a1	0.015594632
225	0xbe8e1f7c	-0.27758396
226	0x3c0963b0	0.008385584
227	0x3d6a4e5e	0.057203643
228	0x3dfc9a31	0.12334097
229	0x3dfcdce4	0.12346819
230	0x3d59c48f	0.05316597
231	0xbcfc3c0a	-0.030790348
232	0xbd4cae2f	-0.049970802
233	0x3d9a4f89	0.075347014
234	0x3c3aad4d	0.011393857
235	0xbecb7fb9	-0.39745882
236	0x3d00ac5c	0.031414375
237	0xbbdeedea	-0.006803264
238	0xbda2ea07	-0.079547934
239	0xbe30dedc	-0.17272514
240	0x3b8ac3b5	0.004234756
241	0xbe334f11	-0.1751063
242	0xbe0aa25e	-0.135385
243	0xbd86b314	-0.06577125
244	0xbdb69a30	-0.08916128
245	0xbd1e932b	-0.03871457
246	0xba825ea5	-0.0009946419
247	0xbd1af85e	-0.037834518
248	0x3e6aadf8	0.22917926
249	0xbd95522c	-0.07291064
250	0x3d1ec7b9	0.03876469
251	0xbe31d5a1	-0.17366649
252	0x3d19c376	0.03753992
253	0x3e57f392	0.21089008
254	0x3d44a1d0	0.04800588
255	0x3d88e440	0.0668416

model/dense_5/MatMul;model/activation_5/Relu;model/dense_5/BiasAdd f4 [100]
0	0x41058007	8.343757
1	0x41560cc4	13.378117
2	0xc0c79f7c	-6.2382183
3	0xbfff56c6	-1.9948356
4	0x401b37de	2.4252849
5	0xc027919b	-2.618262
6	0x419bbcb0	19.467133
7	0x406809df	3.6256025
8	0xc009d7ba	-2.153792
9	0x3f5f7a1e	0.8729571
10	0x41566ddc	13.401821
11	0x3f7c1306	0.9846653
12	0x3fe4bbf7	1.7869862
13	0x412e4d9b	10.893947
14	0xc1414f08	-12.081795
15	0x4143ab58	12.229332
16	0xc04a4b9e	-3.1608653
17	0x408b42c0	4.351898
18	0x40f30398	7.5941887
19	0x408eb758	4.459881
20	0x41d515c8	26.635635
21	0xc11dd47a	-9.864374
22	0x4147de9a	12.491846
23	0x41166627	9.39994
24	0x40a2abb4	5.08346
25	0x406f2640	3.7367096
26	0xc0ea4105	-7.320437
27	0x411fcd2b	9.98759
28	0x411990e5	9.597875
29	0x417b51fa	15.707514
30	0xc0ec9949	-7.3937116
31	0x40150dfb	2.3289783
32	0xc0561e3c	-3.3455954
33	0x40f7b37e	7.7406607
34	0x40d333ff	6.600097
35	0x40b45783	5.6356826
36	0x40fd8761	7.9227757
37	0x4103f128	8.246376
38	0xc0582466	-3.3772216
39	0xc19be0b5	-19.48472
40	0x417e02f8	15.875725
41	0xc10fc733	-8.986133
42	0x4110030a	9.000742
43	0x408af11f	4.3419337
44	0x4154dd86	13.304083
45	0xc11e8751	-9.908036
46	0xbf3112a4	-0.6916907
47	0x40af3db8	5.476284
48	0xbfc0e744	-1.5070577
49	0x41809957	16.074873
50	0xc0b0129e	-5.5022726
51	0x41442636	12.259329
52	0xc16f5db7	-14.96038
53	0x4097c3db	4.742658
54	0xc0991d97	-4.784862
55	0xc00fad57	-2.2449548
56	0xc09aff84	-4.843691
57	0x41225050	10.144608
58	0xc0ed9199	-7.424023
59	0x41500cad	13.003095
60	0x4120dba0	10.053619
61	0x406e361a	3.722052
62	0x40fbd4c1	7.869721
63	0x414917da	12.568323
64	0xc101695a	-8.088221
65	0x41325266	11.145117
66	0x411df930	9.873337
67	0x40853fb2	4.1640253
68	0xbfd9f2b2	-1.702719
69	0xbda5e6dd	-0.08100674
70	0xc18758fd	-16.918451
71	0x409ed416	4.9633894
72	0x4193aaf3	18.458471
73	0x40d9a5c3	6.8014846
74	0x404b67cc	3.1782103
75	0x3ec6d115	0.38831392
76	0xbf9ead46	-1.2396629
77	0xc13a943d	-11.661191
78	0xc0167a3b	-2.3512104
79	0xc1d0564e	-26.042141
80	0x41e5809e	28.687801
81	0x404d4d16	3.20783
82	0x419ad7af	19.355314
83	0x41b57460	22.681824
84	0x408f80b7	4.4844623
85	0xc00c5fd8	-2.1933498
86	0xbfcc91d7	-1.5982007
87	0x3fbb3312	1.462496
88	0xc0183b86	-2.378633
89	0x3f31e548	0.6949048
90	0xbf4833c7	-0.78204006
91	0x40ef8f68	7.4862556
92	0xc0200bed	-2.500728
93	0xc116d7fe	-9.427732
94	0x4096e495	4.715403
95	0x3fdd07bd	1.7267987
96	0x416bd684	14.739872
97	0x4186e50b	16.861837
98	0x41158294	9.344379
99	0x4083d000	4.1191406

model/batch_normalization_4/batchnorm/mul_1;model/batch_normalization_4/batchnorm/add_1;model/dense_5/MatMul;model/activation_5/Relu;model/dense_5/BiasAdd f4 [100, 100]
0	0x3d52cee2	0.05146683
1	0xbdb80e5f	-0.08987116
2	0xbc0bd326	-0.008534228
3	0x3e3298d0	0.17441106
4	0x3e57aced	0.2106206
5	0x3cd4a871	0.025959225
6	0x3e2084fa	0.15675727
7	0x3ee3be31	0.44481042
8	0x3db3f15e	0.087862715
9	0xbe9d86b2	-0.30766827
10	0xbecdd2fa	-0.40200025
11	0xbeaa2374	-0.33230174
12	0x3d206bb9	0.039165232
13	0xbd490070	-0.049072683
14	0x3c5a8d1c	0.013339307
15	0x3e57fb26	0.210919
16	0xbdbf18b0	-0.09330881
17	0xbc160bc8	-0.009158082
18	0x3e649cef	0.2232549
19	0xbe889d7d	-0.26682654
20	0xbcb49ea0	-0.022048295
21	0x3dae5592	0.08512415
22	0xbd01dcb6	-0.031704627
23	0xbe1d9c85	-0.15391739
24	0x3be3c4a4	0.0069509316
25	0xbd335238	-0.04377958
26	0xbd9ad65a	-0.075604156
27	0x3dc8020c	0.097660154
28	0x3dca874f	0.09889089
29	0x3a8a815d	0.0010567118
30	0xbe0cd421	-0.13752796
31	0xbea13d63	-0.31492147
32	0xbc668ffe	-0.014072416
33	0xbe88ffc6	-0.2675764
34	0xbd0cb4fc	-0.034352288
35	0xbd78028e	-0.06054931
36	0xbe689227	-0.22712003
37	0x3dfeddd3	0.12444653
38	0xbd9ad6a3	-0.0756047
39	0x3d6de7ce	0.058082394
40	0x3dd6a904	0.10481456
41	0x3dbf8ce5	0.093530454
42	0xbda22afe	-0.07918356
43	0xbdf58813	-0.11988845
44	0xbc19f933	-0.009397793
45	0x3e38dc78	0.18052852
46	0xbdd3363e	-0.1031308
47	0xbdb7caaf	-0.08974206
48	0x3ba1d002	0.0049381265
49	0xbeeb4357	-0.45949814
50	0x3e1041f6	0.14087662
51	0x3c84f44c	0.016229771
52	0x3e7275ea	0.23677793
53	0x3d8a5e31	0.06756247
54	0xbcc37a94	-0.02386216
55	0x3e3cb26f	0.18427442
56	0xbd01bd5e	-0.031674735
57	0xbe49c230	-0.19702983
58	0xbdd12f54	-0.10214105
59	0x3dda5079	0.1065988
60	0x3dc05866	0.09391861
61	0xbd760b63	-0.060069453
62	0x3d91ed58	0.07125348
63	0x3e1e4083	0.15454297
64	0x3dea5fad	0.1144403
65	0x3dc73623	0.09727123
66	0x3e259cc7	0.16173087
67	0x3c6a485c	0.014299478
68	0x3c948278	0.018128619
69	0xbe55d7ae	-0.20883057
70	0x3c3bdb66	0.011465883
71	0xbe095c87	-0.13414203
72	0xbd02332b	-0.03178708
73	0x3c2784e8	0.010224558
74	0x3b94a3fe	0.004536151
75	0x38e9a07a	0.00011140197
76	0xbcaf730e	-0.021417167
77	0x3a3212bf	0.00067929545
78	0x3e1b5f8b	0.15173166
79	0xbd431398	-0.047626108
80	0xbe67f111	-0.22650553
81	0x3a63df6d	0.0008692656
82	0xbddb5c1e	-0.10710929
83	0x3eae55e3	0.340499
84	0xbdf4e831	-0.119583495
85	0xbdf7fa23	-0.12108257
86	0xbd00bfdf	-0.031432983
87	0x3d39f740	0.04540181
88	0xbe4a43db	-0.19752447
89	0xbe3fd841	-0.18734838
90	0xbebe32d8	-0.37148166
91	0x3e0e4502	0.13893512
92	0x3c894073	0.016754365
93	0xbdbd07ba	-0.09229989
94	0x3d83650f	0.0641576
95	0xbd299d3a	-0.04140971
96	0xbe5d5d59	-0.2161764
97	0x3d3745d9	0.044744346
98	0x3e542e4c	0.20720786
99	0x3d1a3f60	0.037658095
100	0x3bd78e7c	0.0065782648
101	0xbe32507c	-0.17413515
102	0xbdecc422	-0.11560847
103	0xbe8b929a	-0.27260286
104	0x3d6627da	0.05619035
105	0x3ef937e0	0.48675442
106	0x3d8b0de2	0.06789757
107	0xbe03ece5	-0.12883337
108	0xbc6fa5c3	-0.014626923
109	0x3e0a6690	0.13515687
110	0x3ebe0fe1	0.3712149
111	0x3e342397	0.17591701
112	0xbafcdb8f	-0.0019291508
113	0x3e2ad06e	0.16681072
114	0x3e5d2c9a	0.21599045
115	0xbe036fa8	-0.12835562
116	0xbdf97f18	-0.12182444
117	0xbed7d05c	-0.42151153
118	0x3e5b052a	0.21388689
119	0x3db9f6f5	0.090803064
120	0xbe031216	-0.12799868
121	0xbd626d4c	-0.055280015
122	0x3d29363f	0.0413115
123	0x3d84a668	0.06477052
124	0xbdfffe64	-0.12499693
125	0xbd8ea0ce	-0.06964265
126	0x3c953ba9	0.018216925
127	0x3b884e1b	0.0041597015
128	0x3d40c077	0.04705855
129	0xbe4c8bba	-0.19975176
130	0x3d28d44f	0.0412181
131	0xbed44fde	-0.41467184
132	0x3d80773c	0.06272742
133	0x3e4de68f	0.20107482
134	0x3cba7311	0.022759946
135	0x3d43ae53	0.04777367
136	0xbf09ec14	-0.5387585
137	0x3da30d1a	0.07961483
138	0x3d450fd5	0.0481108
139	0xbca54821	-0.020175995
140	0x3df094df	0.11747145
141	0xbe4b3d87	-0.1984769
142	0xbdd2f27d	-0.10300157
143	0xb9b7f64c	-0.00035087985
144	0xbd1d5229	-0.038408432
145	0xbf438512	-0.76374924
146	0x3daa5de4	0.083186895
147	0xbd9a0eb2	-0.07522334
148	0xbd9cbbe0	-0.07653022
149	0x3e12d6a4	0.14339691
150	0x3deeef11	0.11666692
151	0x3b5debd3	0.0033862486
152	0xbe1bd99f	-0.15219735
153	0x3b3142ee	0.002704795
154	0x3d4d492a	0.050118603
155	0xbe302fe1	-0.17205764
156	0xbdb464f6	-0.08808319
157	0xbd6add46	-0.05733993
158	0xbde7ef86	-0.11324982
159	0x3d4ab40c	0.049488112
160	0xbdc1ca57	-0.094624214
161	0xbc356a19	-0.011072659
162	0x3d809d09	0.06279952
163	0xbe31a558	-0.1734823
164	0xbd1e3eed	-0.03863423
165	0xbe69aa18	-0.22818792
166	0xbca40fc2	-0.020027045
167	0xbe23145a	-0.15925732
168	0xbe05bec0	-0.13061047
169	0xbdbb4eae	-0.09145866
170	0xbec40d7a	-0.38291532
171	0x3d6375b9	0.05553219
172	0xbdd0b942	-0.10191585
173	0xbc853da3	-0.016264742
174	0xbe0425e5	-0.1290508
175	0xbd9be8ac	-0.07612738
176	0xbc974eae	-0.018470135
177	0xbe138e7d	-0.14409824
178	0xbe174de4	-0.14775807
179	0x3d2a2f05	0.041548748
180	0x3d8c8f0c	0.068632215
181	0xbc797d33	-0.015227604
182	0xbd90021d	-0.07031653
183	0x3d394ae3	0.045237433
184	0xbe9b8ec6	-0.30382365
185	0xbd92e4d0	-0.07172549
186	0xbb93d842	-0.004511864
187	0xbdeaa88a	-0.114579275
188	0x3eb4650f	0.35233352
189	0x3d81bb49	0.0633455
190	0x3d524478	0.05133483
191	0xbe97c672	-0.2964359
192	0xbdb01932	-0.085985556
193	0xbd12379d	-0.03569757
194	0xbd85900e	-0.06521617
195	0x3c797788	0.015226252
196	0x3e0c9c3c	0.13731474
197	0xbcf5abd5	-0.029989162
198	0xbdc8b11a	-0.097994044
199	0xbe7d1e4f	-0.24718593
200	0x3e6721a0	0.2257142
201	0x3d08330a	0.0332518
202	0xbab6efd5	-0.0013956974
203	0xbe137b0b	-0.14402406
204	0x3cf92ff0	0.030418366
205	0xbd4407b1	-0.047858898
206	0xbd67e92b	-0.05661885
207	0x3e9e7d21	0.3095484
208	0xbdf3cd0a	-0.119043425
209	0x3d12dee9	0.035857115
210	0xbe8d205d	-0.27563754
211	0xbe766809	-0.24063124
212	0x3d0cd79f	0.03438532
213	0xbdd5892d	-0.10426555
214	0xbca30075	-0.019897679
215	0x3d8bb1e8	0.06821042
216	0x3dd3a568	0.10334283
217	0xbe42c35d	-0.19019838
218	0xbe555cd4	-0.20836192
219	0x3e539b49	0.20664705
220	0xbdea2fa3	-0.11434867
221	0x3ceb87e6	0.028751325
222	0x3e07c09a	0.13257065
223	0x3a8609b2	0.0010226278
224	0xbd3390d3	-0.043839287
225	0xbcff5f26	-0.0311733
226	0xbe0f1b87	-0.13975345
227	0x3da91519	0.08255977
228	0x3e971ebb	0.29515633
229	0xbc1f5c72	-0.0097266305
230	0x3dbbc724	0.091688424
231	0xbd2caa94	-0.042154863
232	0xbd972cd3	-0.073815964
233	0xbda36ae3	-0.079793714
234	0x3b40178e	0.0029310915
235	0xbd38bfbc	-0.045104727
236	0xbaaa5be2	-0.0012997354
237	0xbce9a1d7	-0.028519554
238	0xbd306acd	-0.043070603
239	0x3e2c0281	0.1679783
240	0x3d168142	0.036744364
241	0xbcdf40f1	-0.027252646
242	0x3cb5d647	0.022196902
243	0xbe73210a	-0.23743072
244	0xbdb5fc66	-0.08886032
245	0xbb562f4d	-0.0032682002
246	0x3d7aead4	0.061259106
247	0x3bd1ad86	0.0063988594
248	0x3cb2c6fa	0.021823395
249	0xbf5c0647	-0.8594708
250	0x3f36a7c5	0.71349746
251	0xbe2138ca	-0.1574432
252	0x3e1d5db3	0.15367775
253	0x3d468ced	0.04847424
254	0xbe31c409	-0.17359938
255	0x3ddda333	0.108221434

model/dense_6/MatMul;model/activation_6/Relu;model/dense_6/BiasAdd f4 [100]
0	0xc081b4d8	-4.0533257
1	0x4083e5b3	4.1217895
2	0x40bc3d97	5.8825183
3	0x404ef3e8	3.2336369
4	0x41a03995	20.028116
5	0x40fc9d10	7.8941727
6	0x412e27d1	10.884721
7	0x4122fc68	10.186623
8	0xc01e85ee	-2.4769244
9	0x414508fc	12.314693
10	0x415f048c	13.93861
11	0x3ffc7c7b	1.9725488
12	0x3f82c179	1.0215293
13	0x417040d3	15.015826
14	0x40edbea7	7.429523
15	0x406caa0b	3.6978786
16	0x41304bcc	11.018505
17	0xbfa4070b	-1.2814649
18	0x418c7821	17.558657
19	0x414e1012	12.878923
20	0x41cc8aae	25.567715
21	0x3ff22ac9	1.8919307
22	0xc10f5ddd	-8.960416
23	0xc134fa4b	-11.311107
24	0x40a6c15a	5.2111025
25	0x40bf55a5	5.9792047
26	0x407f6ad1	3.9908946
27	0x41229ba5	10.162999
28	0x4180fbe8	16.123001
29	0x40318630	2.7738152
30	0xc09d033c	-4.906645
31	0x40539894	3.3061876
32	0xc02b9cd1	-2.6814463
33	0xc0013355	-2.018758
34	0x40b973d4	5.795389
35	0x41a717c6	20.886608
36	0xc1900fe4	-18.00776
37	0x40e59657	7.174602
38	0xc12a7605	-10.653813
39	0x40b9dba9	5.808064
40	0x40fe641f	7.949722
41	0x4111b635	9.106984
42	0x40fe8a5b	7.954389
43	0xc1130183	-9.187869
44	0x413c6558	11.774742
45	0x40be9d86	5.956729
46	0xc0c96d11	-6.294564
47	0x40a7f904	5.2491474
48	0x40807295	4.013987
49	0x40de8f9f	6.955032
50	0xc063fb3b	-3.562209
51	0xc0d6e2d7	-6.7151904
52	0x408c089b	4.3760505
53	0x41342646	11.259344
54	0xbfb33039	-1.3999091
55	0x40e68a64	7.2043934
56	0x41894ab0	17.161469
57	0xc0713ec5	-3.7694561
58	0x410540ce	8.328321
59	0x416e48c2	14.892763
60	0x4108c200	8.547363
61	0x401298a4	2.2905664
62	0x3f118ea2	0.56858265
63	0x40160281	2.3439028
64	0xc001ff1c	-2.0311956
65	0x3faf26e4	1.3683743
66	0x40f80ab0	7.7513046
67	0xbea9521d	-0.3307046
68	0xc02a8190	-2.6641579
69	0x40e9355a	7.2877626
70	0x41886062	17.047062
71	0x40f396d8	7.6121635
72	0xbefcf6ae	-0.49406952
73	0x4151eb1f	13.119903
74	0x4089c8e1	4.3057714
75	0x3e0e4fdb	0.1389765
76	0xc184d3ed	-16.60348
77	0x405d89dd	3.4615395
78	0xc1797b80	-15.592651
79	0x40a3d917	5.12025
80	0x40947915	4.6397805
81	0x3fb5684e	1.4172456
82	0xc02ae06c	-2.6699476
83	0x41973fb6	18.906109
84	0x40cc1462	6.377488
85	0x40c0fe7d	6.0310655
86	0x40c8dd9a	6.277051
87	0x3fcba5c9	1.5909969
88	0xc100306c	-8.011822
89	0xbead4f37	-0.338495
90	0x40976584	4.731142
91	0xc0960349	-4.687901
92	0x40fb27d0	7.84861
93	0x40cf7aff	6.483764
94	0xc11be448	-9.743233
95	0x3f8586b0	1.0431728
96	0x418c5025	17.539133
97	0xbfe88d1f	-1.8168067
98	0xc108a6fc	-8.540768
99	0xc02828f1	-2.6274989
