corintho_ai/rating/tflite_models/model_73.tflite (tflite, 521576 bytes, 27 tensors)

model/dense_1/MatMul;model/activation_1/Relu;model/dense_1/BiasAdd f4 [100]
000000 29 59 aa c1 82 c1 16 43 ce a6 88 c2 e1 89 ab 40
       -21.293535 150.75589 -68.32579 5.360581
000010 ef 86 89 42 43 35 37 42 9e cd a9 42 9e e6 f9 c1
       68.76354 45.802013 84.901596 -31.237606
000020 d1 d3 40 c2 66 de 34 3d 58 64 b8 c0 bb 74 64 c2
       -48.206852 0.04415741 -5.762249 -57.113995
000030 cd 6f b0 41 89 39 45 c2 51 4a 03 c1 3a 98 92 c2
       22.05459 -49.306187 -8.205644 -73.29732
000040 f4 d5 1b 42 eb 45 78 41 6c 81 4b c1 ee 76 9f 40
       38.95894 15.51707 -12.719097 4.983268
000050 5d 3a 63 41 10 30 d2 bd 61 64 3a 41 db 72 81 c2
       14.201749 -0.102630734 11.649507 -64.72433
000060 6b 0b a8 42 0c 23 24 41 7a b2 ed 3f 41 3c 0b c1
       84.0223 10.258556 1.8570092 -8.70221
000070 5a 58 90 c2 a2 00 3a 42 eb 36 2d c2 ea bd 0a 41
       -72.17256 46.500618 -43.30363 8.671366
000080 42 29 18 42 78 da 1b c2 c7 30 9f 42 ef 4a 7f 42
       38.04029 -38.96335 79.59527 63.823177
000090 46 0e 5e 41 e0 90 07 c2 ab b4 bb 41 30 ed 0d 42
       13.878485 -33.89148 23.463217 35.48163
0000a0 d4 0e a0 42 7b 7d ce c1 5f 82 54 c2 83 eb 39 bf
       80.02896 -25.81127 -53.127316 -0.7262499
0000b0 73 19 58 41 ab fe f7 c1 bd 91 22 3f ac 24 12 c2
       13.506213 -30.99935 0.6350363 -36.535812
0000c0 55 ea 64 c1 fa 98 d3 c0 58 a3 e2 41 7d 2b 61 c2
       -14.30721 -6.612424 28.329758 -56.29247
0000d0 38 97 85 41 94 c0 15 43 26 a2 bb c0 0f 34 e9 41
       16.698837 149.75226 -5.8635435 29.15042
0000e0 f2 ff 45 41 1b 7b b3 c1 85 b9 d1 41 76 f5 24 c1
       12.374987 -22.43511 26.215586 -10.309927
0000f0 4d ad cc 41 41 5b 9d 42 a1 f7 90 c0 26 2f 1b 42
       25.58462 78.67823 -4.530228 38.796043
000100 ee 79 5b 42 1b f9 bc 42 5e 64 05 43 8c ac 2a 41
       54.869072 94.486534 133.39206 10.667126
000110 0b 10 e2 c1 cd 2e ce c2 4e 93 00 c2 4a 37 09 c2
       -28.257833 -103.09141 -32.143852 -34.303993
000120 c1 41 51 c1 48 40 f0 42 ab f4 1b c1 95 da a3 42
       -13.078553 120.12555 -9.747233 81.92692
000130 d8 ed 91 c0 d3 d9 04 41 18 36 04 c3 dd a0 a4 c0
       -4.5602837 8.30318 -132.2113 -5.1446366
000140 f2 e6 c0 41 91 ee 2e 42 a6 b1 a2 41 a2 e3 d3 c1
       24.112766 43.732975 20.336742 -26.486149
000150 bc 5e f7 40 ae f5 a9 42 96 05 31 42 be 2d b8 c1
       7.7303143 84.97984 44.255455 -23.022335
000160 d0 96 b2 42 cc bd 1d 42 46 42 d5 42 80 58 7c 41
       89.294556 39.43535 106.62944 15.771606
000170 4f eb 88 42 e3 db f7 40 aa 91 a6 41 16 66 a5 c0
       68.45959 7.7455916 20.821125 -5.1687117
000180 72 8c 21 43 b3 b6 12 42 0c e2 89 41 71 01 b5 c2
       161.54861 36.678417 17.235374 -90.502815

model/batch_normalization/batchnorm/mul_1;model/batch_normalization/batchnorm/add_1;model/dense_1/MatMul;model/activation_1/Relu;model/dense_1/BiasAdd f4 [100, 100]
000000 8f d5 25 3e b1 51 36 bf 43 03 ca 3e 0d 1f 19 3e
       0.16194747 -0.712184 0.39455613 0.14953251
000010 5d c7 bd 3f f7 38 b2 3e 29 38 83 bf d6 af 86 bf
       1.4826466 0.34809086 -1.0251514 -1.0522411
000020 bf 12 e4 3d 24 99 1c 3f ed 03 f6 3e 26 25 02 3e
       0.11136388 0.61171174 0.4804987 0.12709484
000030 99 d8 64 3e 9f b6 d6 3a e5 e6 27 bf c9 3f d8 3b
       0.2234825 0.001638133 -0.6558669 0.0065994007
000040 4d bc 0a 3e e6 8b cd bf 28 e6 96 3e 94 1a 0b bf
       0.13548394 -1.6058319 0.2947247 -0.5433743
000050 04 34 b0 bd 8f 52 85 40 6f 6e b0 bd b2 4e b7 3a
       -0.08603671 4.166328 -0.086148135 0.0013985245
000060 e6 94 cb bd fe 5e 62 3e ef 9f cc bd e7 46 8b bf
       -0.099405095 0.22106549 -0.099914424 -1.0881013
000070 dd 47 34 3e 19 2d 98 be cc 63 cc bc 60 e0 26 3f
       0.17605539 -0.29721907 -0.02494993 0.6518612
000080 c3 eb 91 3d e1 9f fd be be 1b 7b 3d 52 83 09 be
       0.07125046 -0.4953604 0.061305754 -0.13429001
000090 c0 3f 2e be 4e 0c 4a be 3a ab 33 bd ff 32 14 3e
       -0.17016506 -0.19731256 -0.043864466 0.14472578
0000a0 1d ca d4 3e 47 00 9a 3f f1 4f d8 3e c8 c0 60 3e
       0.4156045 1.2031335 0.4224849 0.2194854
0000b0 7d c7 72 be 84 25 40 be 42 25 a2 3e 5e d4 cc bd
       -0.23708911 -0.18764311 0.3166905 -0.10001443
0000c0 c1 a5 3e 3f 5b c5 33 3e f0 82 eb 3c 03 da c9 bf
       0.7447167 0.17555754 0.02874896 -1.5769657
0000d0 0b 68 39 3f be fb a4 40 bb 53 87 3e a3 88 8b bc
       0.7242438 5.1557302 0.2643107 -0.017032927
0000e0 1a d6 0b be 32 91 c8 3e a2 1b b1 3f 26 f0 0a 3f
       -0.13655892 0.39173275 1.3836558 0.5427269
0000f0 b2 b6 cb 3e c2 92 05 be 43 4e fd 3d f6 8e 65 bf
       0.39787823 -0.13044265 0.12368443 -0.89671266
000100 8c 73 a8 3e 50 1c e9 be d2 c8 47 be 99 77 be 3e
       0.32900655 -0.45529413 -0.195102 0.3720062
000110 ce 91 56 bd 43 d7 60 3f 93 79 fb 3e 8a 36 52 be
       -0.052385144 0.87828463 0.4911619 -0.20528618
000120 71 1d f0 bd da b7 c9 bd 67 56 3c 3f 5b 03 4b bf
       -0.117243655 -0.0984952 0.7356934 -0.79301995
000130 1c 23 fd be 4f 89 b7 bb 4a b4 29 3e 86 8d b3 3e
       -0.4944085 -0.0056010853 0.16572681 0.3506891
000140 7f 04 61 bf c6 63 61 3e 0a 82 2f be ef 0a 00 be
       -0.87897485 0.22010717 -0.1713945 -0.12504171
000150 d0 73 8b be b9 70 69 be b1 cf 09 be 6e 1a 67 bf
       -0.27236795 -0.22796907 -0.13458134 -0.90274704
000160 c6 59 09 be 50 c0 41 be 4f 81 92 bf ff a2 8a 3f
       -0.13413152 -0.18921018 -1.1445712 1.0830992
000170 3a 60 f9 3d 52 47 c7 be a6 45 38 be 19 80 46 3e
       0.12176557 -0.389216 -0.17995319 0.19384803
000180 6d 27 85 3e d4 33 04 be dc df bc be 26 8c 36 be
       0.26006642 -0.12910396 -0.3688954 -0.178269
000190 4f a1 7b bf 7c ec 97 bf 1f 72 af be 65 38 36 3d
       -0.9829301 -1.1869044 -0.34266755 0.044487376
0001a0 bc 88 99 bf 14 63 04 40 ca 0d 31 3f 1c 8d 56 3e
       -1.1994853 2.0685472 0.69161665 0.20952266
0001b0 c7 75 d7 3c ff 25 14 bf a1 d6 94 3e f5 d6 37 3d
       0.026301278 -0.5787048 0.2907 0.044882733
0001c0 9a f8 8f bf ac f1 1c be 1b 12 b6 be 7b e9 48 bf
       -1.1247742 -0.15326566 -0.35560688 -0.7848126
0001d0 ee 10 3c 3d 04 81 ce bf 41 14 7a bf 27 ec 76 bd
       0.045914583 -1.6133122 -0.97687155 -0.060283806
0001e0 46 5b f8 be 1d 95 98 bc 00 a2 05 be 30 73 d9 bc
       -0.48507136 -0.01862579 -0.1305008 -0.026544183
0001f0 c0 47 0c 3e b8 58 86 bd 12 7b d6 be 2f 0b ef bd
       0.13699245 -0.065598905 -0.4189077 -0.11672055
000200 ea e2 63 be fc ae d6 3d d7 3d 00 3b df e8 8b 3e
       -0.2225453 0.10482594 0.001956811 0.27326104
000210 22 22 37 3d 06 03 f3 bb b7 1e 0a bf 05 ae 18 3d
       0.044710286 -0.007416132 -0.5395312 0.037275333
000220 b3 ff d8 be 90 94 ec bf d8 d8 38 bf b6 7e 55 bf
       -0.42382583 -1.8482838 -0.7220588 -0.8339647
000230 f7 63 5f 3e 84 07 c5 be 87 fb 85 bf 20 76 37 be
       0.21815477 -0.38482296 -1.0467385 -0.17916155
000240 b9 b5 1b be 77 39 89 bf 49 a5 5a 3d 94 f8 0d 3e
       -0.1520604 -1.0720662 0.053380284 0.13864356
000250 e3 38 3e be fd b0 9b 3e 54 2a d0 3d 5e 2a bc 3f
       -0.18576388 0.3040847 0.101643234 1.470043
000260 62 09 bc be b0 2e 64 3f 24 be 87 3c 9c 50 b5 be
       -0.3672591 0.8913374 0.016570158 -0.35413063
000270 2f ef 0f bf f2 29 87 3f 57 37 df 3f 7d de 23 3e
       -0.5622434 1.0559676 1.7438763 0.16002841
000280 f9 d7 39 3e c5 15 23 3f fb aa 86 3d f9 1e 65 bf
       0.18148793 0.6370509 0.06575581 -0.89500386
000290 0f 25 66 bf 26 81 e4 be c4 ad 8a 3e 2a 9e 5e 3f
       -0.89900297 -0.44629782 0.27085698 0.8696009
0002a0 14 02 c0 be 8f 20 23 be c6 55 da 3c d2 92 df 3e
       -0.37501585 -0.15930389 0.026652228 0.43666703
0002b0 91 f1 79 3e a7 3c 25 3e 73 df 8e be 82 98 02 bf
       0.24408557 0.16136418 -0.27904853 -0.5101396
0002c0 f3 32 08 bf 04 5e 2d bf 11 53 2c 3f 91 20 e2 3d
       -0.5320274 -0.6772158 0.6731425 0.11041368
0002d0 c5 19 03 3c 94 16 87 bf ca b1 30 3f d4 a4 4c 3f
       0.008001749 -1.0553765 0.69021285 0.7993901
0002e0 fe 5f 1b be a2 c6 19 3e 69 c6 85 3c 2b 3c c6 3e
       -0.15173337 0.15017179 0.01632996 0.3871778
0002f0 dd 06 6a 3e 9c 56 16 3e 7f cd 91 be 7d 93 63 3f
       0.2285418 0.14681476 -0.28477094 0.88896924
000300 be e0 fb be 52 ec 05 bf 80 40 27 bf c8 2a 2f be
       -0.49194902 -0.5231372 -0.65332794 -0.17106164
000310 45 89 91 be 87 73 36 bf 33 bd 4d bf e2 98 2a be
       -0.2842504 -0.7127003 -0.8036682 -0.16659883
000320 3f ee 6c 3f e2 2f 21 bf 86 7e 06 3d 22 9a 4c 3e
       0.92551035 -0.6296369 0.032835506 0.19980672
000330 a4 cd 84 3f ca 60 6e bb e1 22 87 3f 43 ff b6 bf
       1.0375257 -0.0036373609 1.0557519 -1.429665
000340 62 67 80 bf 4d 50 38 bf 4d 9d a9 bd 47 51 07 40
       -1.003155 -0.7199753 -0.08281956 2.1143358
000350 4c 84 3b bd e5 62 57 3d b4 20 71 be 88 2c 0b 3f
       -0.045780465 0.052584548 -0.23547632 0.54364824
000360 eb 37 a9 3e 0c ac 07 bf 24 58 a0 bf 99 60 d5 3c
       0.33050475 -0.529969 -1.2526898 0.026047038
000370 82 f3 93 bd 9b 53 86 bf 89 89 e6 bb a3 8c 8d 3d
       -0.0722418 -1.0494264 -0.0070354384 0.0691159
000380 ef 4a da bb d3 be 6c bd b7 0e fc be 71 99 b1 3d
       -0.006661765 -0.05779917 -0.49229977 0.08671845
000390 2f da 53 3f 84 8a 97 3e 83 65 4f 3f 59 45 28 3f
       0.82754797 0.29597867 0.8101427 0.65730816
0003a0 fa df 0d be 2e 50 b0 3e ab 80 39 3f 63 bd 86 bc
       -0.13854972 0.34436172 0.72461957 -0.016447728
0003b0 c3 6f 10 be 4e cd 0e 3e 65 32 16 3f ff df 6b bf
       -0.14105134 0.13945505 0.58670646 -0.92138666
0003c0 16 19 80 3e d6 59 06 be 73 be 96 3f af 47 ac 3d
       0.2501914 -0.13120207 1.177687 0.0841211
0003d0 9c ea 47 3e f0 ff 9e bf e7 93 68 3f 8c 44 09 3e
       0.1952309 -1.2421856 0.9085068 0.13405055
0003e0 8b 11 c5 bf 38 50 36 bc 3d 82 26 3e 9e 07 e7 3e
       -1.5395979 -0.011127524 0.1626062 0.45123
0003f0 7a ea c3 be 9d dd 3d 3d 29 7d 9e bd 81 08 95 3e
       -0.3826483 0.046353925 -0.07738716 0.2910805

model/dense_2/MatMul;model/activation_2/Relu;model/dense_2/BiasAdd f4 [100]
000000 7d 4e 92 42 78 a8 ac c2 9a ac 8c c0 18 e9 84 c2
       73.1533 -86.32904 -4.3960695 -66.45526
000010 a7 fe 6e c1 72 3f 84 41 34 45 e4 41 eb da 02 42
       -14.937171 16.53098 28.53379 32.713787
000020 b0 04 98 c1 34 6c 98 40 2b df 1f c1 0e a8 83 c1
       -19.002289 4.7632084 -9.991984 -16.457058
000030 66 5b 4b c0 cc 65 9a 41 96 37 d3 bf 4a 74 9f c2
       -3.1774535 19.299706 -1.6501338 -79.72713
000040 95 39 71 c2 0f f1 a0 41 82 c0 dc 3f 68 6d a0 c0
       -60.306232 20.117704 1.7246249 -5.0133553
000050 6d 97 7f 42 e3 f0 da 40 eb e2 06 42 dc d5 9c 41
       63.897877 6.841905 33.7216 19.604424
000060 fc 05 ca 3f b6 69 ab 41 04 61 59 c0 2f 83 78 42
       1.5783076 21.426617 -3.3965464 62.12811
000070 6d ff 91 c1 3b b3 60 41 37 ae 95 40 1c 44 7a 41
       -18.24972 14.043757 4.6775165 15.641628
000080 fa 14 11 42 4b eb 5b c1 1b c1 c6 41 04 c2 7a c2
       36.270485 -13.744945 24.84429 -62.68947
000090 d7 65 bb 42 d8 40 cc c1 45 d2 d6 c1 e2 c6 ad c1
       93.698906 -25.531662 -26.85267 -21.72211
0000a0 b7 30 88 c1 2d 6f 86 c2 49 f2 3d c0 7d 28 bd c1
       -17.023787 -67.21714 -2.967913 -23.64477
0000b0 f0 99 40 c2 07 82 30 42 a4 c6 e7 c1 5c 6a 96 c1
       -48.15033 44.12698 -28.971992 -18.801933
0000c0 dd b2 1d c2 02 54 61 41 17 40 8d 42 3d da 95 42
       -39.42467 14.08301 70.625175 74.92625
0000d0 71 90 a5 41 6e ef 8f 40 d0 3f f7 3f dc e0 6f 40
       20.695528 4.4979773 1.9316349 3.7480993
0000e0 59 25 b3 40 66 7a 83 42 2e 89 2f 42 a4 44 11 c2
       5.598309 65.73906 43.883965 -36.31703
0000f0 03 0a 69 c1 6c 28 20 c1 d9 23 85 c1 e1 40 0a 43
       -14.564944 -10.009869 -16.642504 138.25343
000100 e0 39 aa 41 34 54 86 41 23 62 88 c2 d0 9c 45 c2
       21.27826 16.791115 -68.19167 -49.403137
000110 32 84 ff 40 fb 3d 3b 42 21 9f 20 c3 d3 33 ee 41
       7.984887 46.810528 -160.6216 29.775305
000120 37 99 5d c1 18 ca a2 41 44 4f 61 c2 24 46 ee c1
       -13.849906 20.348679 -56.327408 -29.784248
000130 80 e7 0d 42 0b 50 13 c2 e2 1e 06 c2 84 91 79 42
       35.476074 -36.828167 -33.53016 62.392105
000140 c5 af 82 42 e1 f9 54 42 dc 28 4a 42 fc fa 0e 42
       65.3433 53.244022 50.5399 35.745102
000150 f5 35 43 c1 11 58 79 c2 e9 1b 63 3f d2 2b 46 42
       -12.200673 -62.336002 0.8871446 49.542793
000160 03 4a 1a 42 18 ef 01 42 88 e8 53 c2 ee fc c7 41
       38.572277 32.48349 -52.97708 24.9985
000170 eb d4 ca 41 4a 2d a7 41 bf 01 c1 c1 44 9a 8b 42
       25.353964 20.897114 -24.125853 69.8013
000180 48 75 a2 42 0c 17 49 42 26 d3 39 41 d6 18 a2 c1
       81.229065 50.272507 11.61405 -20.262127

model/batch_normalization_1/batchnorm/mul_1;model/batch_normalization_1/batchnorm/add_1;model/dense_2/MatMul;model/activation_2/Relu;model/dense_2/BiasAdd f4 [100, 100]
000000 0b 02 11 bd 9d 0c 20 bd ea 20 9e 3e de cb 53 3d
       -0.03540234 -0.03907453 0.30884486 0.051708095
000010 32 15 5d be fa f5 1e be 15 88 fc 3d a4 b8 4e bd
       -0.21590117 -0.1552352 0.12330643 -0.050469056
000020 ba d1 5c 3e 5d c8 2b bd 06 46 04 3e 16 ae 3d 3e
       0.2156438 -0.04193913 0.12917337 0.1852344
000030 88 c1 cc 3d 74 6e 27 be 0b 18 70 be 27 e5 a8 3d
       0.09997851 -0.16350728 -0.23446672 0.08246832
000040 e6 68 52 3a 53 9a 62 be e7 92 1c 3e e6 08 49 bc
       0.00080264953 -0.22129183 0.15290414 -0.012270188
000050 c3 6e e5 bd cc 49 2d bd fe 41 8f 3d cb 52 ec 3d
       -0.11202767 -0.042306706 0.06995009 0.11539229
000060 6f 6f e7 bd 04 d4 31 bd 2d 62 ba bc cd 5b 0c 3d
       -0.11300551 -0.043415084 -0.022751892 0.034267236
000070 2d 7e 39 be 05 1e cd bd 7f d9 86 bc ff 71 81 39
       -0.18114538 -0.100154914 -0.016461132 0.0002468973
000080 16 a7 8f be 6e 0b 03 3d 6b c8 35 bd c4 6d 15 3e
       -0.28057164 0.031993322 -0.044380587 0.14592654
000090 5d ca 58 bd 9d 86 54 3d 04 62 6a 3d b7 b7 01 be
       -0.052927364 0.05188619 0.05722238 -0.12667738
0000a0 46 c6 ec bc 84 4b 43 be 5b 2d 9f be b9 bd c4 3d
       -0.028903138 -0.19071776 -0.3108929 0.09606499
0000b0 64 70 50 3d 2f d3 ba bc 4f 2a e1 bd c4 9a bb bd
       0.050888434 -0.022805778 -0.10994398 -0.091603786
0000c0 30 d8 be bd 35 de da 3c 73 07 a5 3d 8a 3c 62 3d
       -0.09318578 0.026717285 0.080580615 0.055233516
0000d0 ea 78 0a bc fc c6 55 be a0 22 f1 bd a5 9d 41 bd
       -0.00845168 -0.20876688 -0.11774182 -0.047269482
0000e0 9d ac e3 3c ab d8 25 3d cb 11 4a 3e 52 a7 59 bd
       0.02779227 0.040489834 0.1973335 -0.053138085
0000f0 79 8a 14 3e b8 da da bd 4e 71 b8 3d e6 5e 80 be
       0.14505948 -0.106862485 0.09005986 -0.25072402
000100 e3 32 38 bb d8 cd 4f 3d 74 06 96 3d 19 0e 0d bd
       -0.0028106503 0.050733417 0.073254496 -0.034437273
000110 a1 cc b5 bc 87 81 ca bc d7 40 6d be 54 a1 22 be
       -0.022192301 -0.024719967 -0.23169266 -0.15881854
000120 e1 cf 90 bb 68 50 5e bd 78 7a 84 be cf 79 93 bd
       -0.0044193123 -0.0542759 -0.25874686 -0.072009675
000130 c7 63 db 3d 77 21 b6 bc 34 18 7a bd 82 b4 9c be
       0.107123904 -0.022232754 -0.06105824 -0.30606467
000140 f2 56 a0 3d 3e 13 c7 bd 99 98 85 3d db 4c 40 3d
       0.078290835 -0.09720467 0.06523246 0.046948295
000150 b1 73 1a bd 9a 23 96 bc 53 26 b4 3d 36 81 60 bc
       -0.03770799 -0.018327523 0.08796372 -0.013702681
000160 f4 56 0c be fd d5 56 3d 0e 81 99 3d 0c f6 ba bc
       -0.13705045 0.05245017 0.07495318 -0.022822402
000170 a2 80 a4 bd 3c 06 2e be 33 be 96 be 80 e6 48 3e
       -0.08032347 -0.16994566 -0.29441985 0.19619179
000180 dd cd 52 3e 2c 3e e1 be 15 f7 b8 3d 25 cc ab be
       0.20586343 -0.43992746 0.09031502 -0.33554187
000190 ad 64 33 bd c3 ed 41 3d 56 27 02 bc ca 75 50 bd
       -0.043797184 0.047345888 -0.007943949 -0.050893582
0001a0 7e eb b5 3c 94 db 76 3d 03 6a 74 3d 6c 80 18 3d
       0.022207018 0.060268 0.059671413 0.037231848
0001b0 0f 24 75 3d 78 54 7a 3d 14 bf e7 bc 30 14 41 3d
       0.05984884 0.061115712 -0.028289355 0.047138393
0001c0 9a 58 08 bd 02 81 a0 bd d6 52 b5 3d 65 50 9a 3d
       -0.033287622 -0.07837106 0.0885369 0.07534865
0001d0 b2 aa 19 3b 4a ca 26 bc 3e ff d6 bd 0d 0f ad 3d
       0.002344769 -0.010180065 -0.10497902 0.08450136
0001e0 9b 98 0a be 4a 38 d0 3c 46 2e d7 3d 90 01 b9 3d
       -0.13534777 0.025417466 0.10506873 0.09033501
0001f0 9e 3c 50 3c ed 8c f5 3c d4 1a e5 bd 58 af d5 bd
       0.012709765 0.029974425 -0.11186758 -0.10433835
000200 a2 7d e2 3c 40 2c 09 bd e9 9b 64 3e 17 3a 8d 3e
       0.027647797 -0.033489466 0.223251 0.27583382
000210 ea 10 e7 3d da 5b 8b bc 76 d2 9e 3d a6 d0 bc bc
       0.11282523 -0.017011572 0.07754986 -0.02304871
000220 0b f2 17 bd de 4a f4 3d a3 88 2a bd a0 d1 ea 3c
       -0.037096065 0.11928342 -0.041634213 0.02866441
000230 e6 6f 40 bc 05 71 fc 3b a0 79 99 3c f8 97 0c 3c
       -0.011745429 0.0077039027 0.018734753 0.008581154
000240 e0 74 b8 3d 02 80 c0 3d 1e 7f a7 3d cf 3b 4a 3d
       0.09006667 0.093994156 0.081785426 0.049373444
000250 9b 18 9d 3d 5e f1 8b 3d fc ef 81 3d dc e8 e6 bd
       0.07670709 0.068331465 0.063446015 -0.11274883
000260 2b f8 68 3e 83 1e 60 3f 6d bc c2 3d ad 27 a6 3d
       0.22750919 0.8754656 0.095085956 0.08113036
000270 03 84 24 3e 60 19 01 3d 5c a3 87 3c 97 40 15 3d
       0.16065983 0.03151834 0.016557388 0.03643855
000280 7e 95 3e 3d 6e 11 02 be 7f 85 ae 3e 2e b0 96 3d
       0.046529286 -0.12701961 0.34086224 0.07357822
000290 01 a1 53 3d 56 b4 98 3d e7 a3 36 be a5 3c dc bc
       0.051667217 0.07456271 -0.17835961 -0.026884386
0002a0 cc 7e 30 3d ea 7f 35 bd 3b 05 b7 bd 97 82 15 3d
       0.043089673 -0.04431144 -0.089365445 0.036501493
0002b0 bb 4a 41 bc 79 43 8a 3e f1 c8 ca 3c a8 47 fc bd
       -0.011797602 0.27004603 0.02475402 -0.12318355
0002c0 05 60 c9 3d fd d9 bf 3d a6 02 b3 bc f9 0b fc bd
       0.098327674 0.0936775 -0.021851849 -0.12306971
0002d0 5c e2 82 3d d1 fe 64 3a b4 40 1a 3d 66 2d 2e 3e
       0.06390831 0.00087354804 0.037659362 0.17009506
0002e0 5b 8b 01 3d 13 3c 37 bc 6f 9a 66 bd 57 ca b8 39
       0.03162704 -0.011183756 -0.056299623 0.0003524597
0002f0 94 21 a3 3c 13 ab c1 3d 84 35 ed 3e 59 4c 4d 3d
       0.019913472 0.09456458 0.46329892 0.05012164
000300 d2 e8 5b be ae 4e 13 3e 6c 9c 05 bc 05 54 e8 bd
       -0.21475533 0.14385483 -0.00815497 -0.113441505
000310 4b a2 6b be e3 e8 d0 ba 92 0b a1 be ce 50 ee bd
       -0.23011129 -0.0015938546 -0.3145414 -0.11636506
000320 a6 21 a4 3e 1c e8 40 3e b1 bd 1e bd 1d 83 b7 3d
       0.32056922 0.18838543 -0.038755123 0.08960555
000330 0b 0a ff 3b 81 1d 37 bb 35 c4 87 3d 11 ac 34 bc
       0.0077831796 -0.002794117 0.066292204 -0.011027352
000340 a2 72 8a bd ab 07 40 3e 19 e9 d0 3c 51 1b 72 3d
       -0.06760146 0.18752925 0.025501775 0.059108082
000350 f8 97 1c bc 81 ae c1 bd fa 86 20 bd 10 ea 61 be
       -0.009557717 -0.09457112 -0.039191224 -0.22061944
000360 b8 7d 13 3d 13 51 dd 3c 32 4d 8b bd 02 62 0a 3e
       0.036008567 0.027016198 -0.06801833 0.1351395
000370 6b 32 28 3e 68 73 1e bc a3 c9 bf ba ce 3b 3d 3c
       0.16425483 -0.00967107 -0.0014632236 0.011549903
000380 53 21 1f bd 7c de af bd 25 ed f0 bb a5 c7 25 bd
       -0.03885014 -0.085873574 -0.0073524886 -0.0404736
000390 3d a9 79 3d ca 14 ba bb 84 9a a4 bc ab bf f8 3d
       0.060952414 -0.005678748 -0.02009321 0.12145933
0003a0 5e 5c e9 bd ac 45 52 3d d5 91 14 be c5 c4 35 bd
       -0.11394571 0.051335976 -0.14508756 -0.044377107
0003b0 ff 06 95 3d 08 9a 24 3c d6 01 ee bc e2 59 b5 3d
       0.07276725 0.01004649 -0.02905361 0.088550344
0003c0 cb ad 6d 3d ad 59 16 3f 20 9b 92 3d 8a 42 65 3d
       0.05802707 0.58730584 0.07158494 0.05597166
0003d0 b4 20 2a 3e 28 ec 3c 3d 35 d0 2f bd 9e 12 b8 3c
       0.16614038 0.046123654 -0.04292317 0.022469815
0003e0 67 9d 90 bd 44 47 97 3d b8 d1 df 3d 01 e1 17 bc
       -0.07061272 0.0738664 0.109286726 -0.009269954
0003f0 d4 bc 1a bd 5f b9 4e bc 7b fa 94 bd 03 8f 89 bb
       -0.037777737 -0.012617438 -0.07274338 -0.0041979565

model/dense_3/MatMul;model/activation_3/Relu;model/dense_3/BiasAdd f4 [100]
000000 e6 ba e8 c1 30 38 4a 42 e7 67 56 41 3c 0e ca c0
       -29.091259 50.55487 13.400367 -6.3142376
000010 63 b0 75 41 9e 02 99 c1 0d b4 b2 c0 ed f1 8e 41
       15.355563 -19.126278 -5.584479 17.868128
000020 b1 09 3f 42 7a 49 b9 41 11 46 3c 42 06 36 4f 42
       47.759464 23.160877 47.068424 51.802757
000030 8f 8c 43 42 7d fb d9 3e 2e c5 54 41 fa 9f 0b 41
       48.887264 0.42574683 13.29814 8.726557
000040 29 61 18 c1 87 27 89 41 1d e7 17 41 1b d9 a5 c0
       -9.523721 17.1443 9.493924 -5.182752
000050 5a b1 02 42 9a 61 09 c1 fa 6d 57 bf 3d 43 0d 42
       32.673195 -8.5863285 -0.84152186 35.315662
000060 fc 94 44 42 00 e6 72 42 83 d5 f3 41 f8 d9 cb c0
       49.145493 60.72461 30.479254 -6.3703575
000070 b2 b0 6a c1 53 8b 46 c2 4f e0 6d 41 ca 00 af 41
       -14.6681385 -49.63606 14.867263 21.875385
000080 a8 87 c3 41 e3 4f b6 bf 0f e0 54 41 2f aa 8a 42
       24.441238 -1.424313 13.304702 69.33239
000090 8e f0 09 c0 8f bf da 41 92 fe 12 c2 eb c2 2b 41
       -2.1553073 27.343534 -36.748604 10.735087
0000a0 81 6a 29 42 3e 62 2b 42 50 c8 5c 42 cb 27 ef c1
       42.354008 42.84594 55.195618 -29.89443
0000b0 ba 7b 57 40 09 87 d1 40 ce ee b5 c1 e1 0f d4 40
       3.3669267 6.547734 -22.741604 6.6269383
0000c0 45 bd dc 41 55 e5 46 3f 7f a2 5e 41 e7 a1 0b c2
       27.592417 0.7769368 13.914672 -34.908108
0000d0 03 05 8c c1 bb 71 1d c2 b2 36 eb c1 3a 00 95 41
       -17.502447 -39.361065 -29.401707 18.62511
0000e0 42 27 cd 3e fa dd 91 c1 44 69 24 41 ab 4c ab 41
       0.40069014 -18.233387 10.2757 21.412436
0000f0 de d2 86 c0 2e b2 73 40 43 14 0a 41 e5 19 ab 41
       -4.2132406 3.8077502 8.629947 21.387644
000100 06 c4 72 c1 22 48 ab 40 c1 1f 2b 41 2a 4a 60 bf
       -15.172857 5.3525553 10.695252 -0.87613165
000110 d9 a6 9a 41 6f 11 aa c0 7c c3 99 c0 ca 9c 12 41
       19.331469 -5.314628 -4.805113 9.163279
000120 93 70 fe be f4 5c e5 c1 07 f1 0c 42 a6 04 d7 bf
       -0.49695262 -28.670387 35.23538 -1.6798294
000130 58 44 c0 c1 72 2d 2e 41 21 d4 20 40 64 61 19 c2
       -24.033371 10.886095 2.5129473 -38.345108
000140 5f ac 3b c2 3b 45 0f 3f f8 9f e7 3e 20 92 f2 41
       -46.91833 0.5596501 0.45239234 30.32135
000150 86 f8 2f c0 31 fd c1 c1 47 ec 70 41 ec b1 2e 40
       -2.7495437 -24.248629 15.057685 2.7296095
000160 3f 3c 56 c1 16 7c 2c 41 76 91 a8 c0 75 e1 13 42
       -13.3897085 10.780294 -5.2677565 36.970173
000170 a3 7a a0 c0 f6 2f 19 c0 3d 77 cd 41 ad bc 6c c2
       -5.0149703 -2.3935523 25.683222 -59.184254
000180 f6 47 58 40 df 53 c8 41 70 ff c9 41 6c 93 7f 40
       3.3793921 25.040953 25.249725 3.993373

model/batch_normalization_2/batchnorm/mul_1;model/batch_normalization_2/batchnorm/add_1;model/dense_3/MatMul;model/activation_3/Relu;model/dense_3/BiasAdd f4 [100, 100]
000000 f1 b1 af 3d 02 b8 dc 3c c5 be a0 bc 90 80 e9 3c
       0.085788615 0.02694321 -0.019622216 0.028503686
000010 81 57 51 3d 13 7b 3f bd 88 9c 88 3d dd ad 5c 3e
       0.05110884 -0.046748232 0.06670481 0.21550699
000020 eb 1b fd bd 0b 7a 1f bd 85 0b 88 be 32 b8 28 bd
       -0.123588406 -0.03893475 -0.2657129 -0.041191287
000030 9b 64 e8 bd d4 6a 76 bd da fb 42 3d 2e 59 b2 3c
       -0.11347314 -0.060160473 0.047603466 0.02177104
000040 4e e9 a7 bc d1 ae fd 3d 1f ce 9d 3d 9b e8 d7 3b
       -0.02049699 0.12386859 0.0770533 0.006589008
000050 3c f0 82 bb a3 d2 8d 3d 9b 32 10 3f 85 5c 95 bd
       -0.0039959233 0.069249414 0.5632722 -0.07293037
000060 f3 ff 15 3d c3 bf e0 bc c5 19 90 3d 0d 9e 8f 3c
       0.036621045 -0.02743519 0.07036165 0.01753142
000070 e8 aa 4d be 64 ed f7 bd ed e2 95 bd 95 0a b4 bd
       -0.20084727 -0.121058255 -0.07318673 -0.08791081
000080 92 4e 88 bc 0f f9 9c bb ba e8 59 be a6 7c 3f be
       -0.016639028 -0.0047904323 -0.21280184 -0.18699893
000090 59 b4 df 3d 01 5d 28 bd 58 b7 4a bd b8 91 b8 bc
       0.109230705 -0.04110432 -0.049491256 -0.022530422
0000a0 2e 6a 9d bc 81 18 70 3c b3 d7 a4 3c 14 a1 25 3e
       -0.01921567 0.01465428 0.020122385 0.16174728
0000b0 e8 59 8c bc 10 91 97 bc 77 2f c9 3d 7c b2 7e be
       -0.017132714 -0.018501788 0.09823506 -0.24872774
0000c0 48 51 cc 3d ab 9d 8f 3e 04 da b5 3d 8b cb a6 3d
       0.09976441 0.2804998 0.08879474 0.081442915
0000d0 16 81 48 3d ba 11 8f 3d fb bc ab bd 98 d4 90 3d
       0.04895123 0.06985803 -0.083856545 0.07071799
0000e0 8f 1e aa 3d 16 94 72 3e 88 8a da 3d 0b 14 41 bd
       0.0830661 0.23689303 0.10670954 -0.047138255
0000f0 c9 69 03 be 2e b2 e3 bb 72 7a 9e bd 43 a7 ba bd
       -0.12833323 -0.006948731 -0.07738198 -0.09113934
000100 6b 04 32 3e a5 5c 34 3c 98 db 88 c0 6d ce 7f 3d
       0.17384498 0.011008416 -4.276806 0.062452722
000110 92 d4 a8 3d 34 14 28 3e 80 b1 95 bc 54 2b eb bd
       0.082436696 0.16413957 -0.018273115 -0.114828736
000120 ba ad fe 3c 70 40 40 bd 57 f2 0e 3d f3 00 91 3d
       0.031088699 -0.046936452 0.034899082 0.07080259
000130 8b 06 e5 bc 15 e9 ca 3d c7 a5 03 bd c2 1b ad 3d
       -0.027957221 0.09907738 -0.03214052 0.0845256
000140 71 fd 49 3c e2 81 04 be 06 cd 0f 3d ea 43 87 bc
       0.012328492 -0.12940171 0.035107635 -0.016511876
000150 1e 00 95 3c 1f ac 8e bd 3a 7a 9a 3d 61 45 1a be
       0.018188532 -0.06966423 0.07542844 -0.15065528
000160 28 1c 94 3e fb b8 e0 3e 43 2d d1 bd c7 33 fe bd
       0.28927732 0.4389113 -0.10213711 -0.124122195
000170 80 6b bd 3a b2 31 11 3e f7 80 bd 3d ef f5 ea 3b
       0.0014451593 0.14179114 0.09253114 0.007170431
000180 ed 46 23 3c 42 64 93 be 6e 46 09 be 87 8b 95 bc
       0.0099656405 -0.28787428 -0.13405773 -0.018255008
000190 92 b5 8e be c3 8c ea bc 2d 5e d8 be 4a b2 9e bc
       -0.27872902 -0.028631574 -0.4225935 -0.019372124
0001a0 1e 1c e3 bd 14 d5 35 3d 48 6c 5e 3d 08 0b 08 3e
       -0.11089347 0.04439266 0.054302484 0.13285458
0001b0 18 77 bc bd 65 cc 90 be 6e 4e b8 3d a0 9e 1a 3e
       -0.09202403 -0.2828094 0.08999334 0.15099573
0001c0 22 f7 c9 bb 0c a8 28 be 06 d5 31 3e 77 e8 ac 3b
       -0.0061634937 -0.16470355 0.17366418 0.0052767354
0001d0 4f c2 41 bc 74 05 ce bd e1 ef e5 bd 78 6a 0a be
       -0.011826112 -0.10059634 -0.11227394 -0.13517177
0001e0 11 86 7f bd 07 e9 4f 3d 22 41 2e be 97 ef 97 bd
       -0.062383715 0.05075934 -0.17017034 -0.07418745
0001f0 69 7f 49 3e cd f0 27 be ab 6d e1 3e f3 be 4a 3e
       0.1967751 -0.16400452 0.44028983 0.19799404
000200 c0 d5 f5 3d a3 7b db 3d 42 8a 18 be bc 7b a5 3e
       0.1200366 0.10716941 -0.14896491 0.32320964
000210 de d8 cf 3d 12 4e cf 3d f7 55 5c bc bb 3e fc bd
       0.10148786 0.101223126 -0.01344823 -0.123166524
000220 40 a9 b5 3c b4 ee 87 3d ea 19 9f bd 4c 85 70 3e
       0.022175431 0.06637326 -0.077686146 0.23488349
000230 0b ce f7 bd fa b2 1f bd 0e 97 fc 39 9f 87 a9 bd
       -0.120998465 -0.038989045 0.0004817773 -0.08277821
000240 4c 56 1d 3e c9 7d 3c 3d ff 73 88 bd 5d f4 eb be
       0.15364951 0.046018396 -0.066627495 -0.46084872
000250 3e 90 8e 3d 04 3a 80 be 4a 13 21 3d 1c ae 8b 3e
       0.06961106 -0.25044262 0.039325036 0.27281272
000260 35 79 b0 bd 04 95 8a be 4c 64 2a be 70 cd 24 be
       -0.086168684 -0.27066815 -0.16639823 -0.16093993
000270 a6 fe a8 bb 41 7f 65 bd 76 b8 62 be c0 09 24 3e
       -0.0051573096 -0.056029562 -0.22140679 0.16019344
000280 fd 33 a7 3d ef 39 4b 3e e2 84 63 3d d8 2a ea bd
       0.08164213 0.19846319 0.05554665 -0.11433953
000290 96 05 7a 3a c8 c9 05 bd e2 6e e1 bb f5 31 fb bc
       0.00095375755 -0.032663137 -0.0068796733 -0.03066347
0002a0 a2 d8 53 3d 60 00 ea bd 93 28 bc bb 30 61 f0 3d
       0.05172027 -0.11425853 -0.0057421415 0.11737287
0002b0 37 27 01 3e bb 01 8f bc ea 6f a5 bc 0d 93 7e bd
       0.12612616 -0.01745688 -0.020194966 -0.062151957
0002c0 06 27 19 be 24 61 0b 3c 1b 1b cf bc d8 2a 9b 3e
       -0.14956293 0.008507047 -0.02528148 0.30306125
0002d0 95 77 61 bd 9b 02 0f be 5c 33 05 3e 86 ce 7d be
       -0.055045683 -0.13965838 0.13007873 -0.24785814
0002e0 0a b2 7f bd cc 7d 04 3d 51 79 5e 3e 1e d8 8f be
       -0.06242565 0.03234653 0.21725966 -0.28094572
0002f0 de ee 5a be 73 a3 89 bd ae a5 90 3d ca 46 19 3e
       -0.21380183 -0.067206286 0.07062851 0.1496841
000300 b7 5a 0f 3e c3 96 59 3c 24 7f 0f be b7 f7 c8 bd
       0.13999449 0.013280573 -0.14013344 -0.09812873
000310 88 3c 53 3d 12 a3 3d be 44 cc 7f 3d 1a 8a 50 bb
       0.0515714 -0.18519238 0.062450662 -0.0031820596
000320 b5 26 c4 3d 3f e8 4a 3e 12 b2 88 bd 06 bc d3 bd
       0.09577695 0.19815157 -0.06674589 -0.10338597
000330 be b1 7e 3d 60 fd 5c bc 24 9d 89 3d 5d 1b 69 3d
       0.062181227 -0.013488144 0.06719425 0.05691086
000340 fd c4 c9 3d ed d5 10 3e a0 c5 f2 bd e2 9d 0b 3e
       0.09852026 0.14144106 -0.118541 0.13634446
000350 d9 50 01 bd ed a1 7a be 11 5e c4 3c 74 ea 0a 3e
       -0.031571243 -0.24475832 0.023970636 0.13566
000360 13 05 08 3e a6 19 9e 3b 6d bf f0 bd 5c 21 ae 3d
       0.13283186 0.004824835 -0.117552616 0.085024565
000370 96 06 85 bd 6e c2 9a 3d 23 1f f3 3c cf a0 22 bc
       -0.06495397 0.07556616 0.029677933 -0.009926035
000380 b3 a2 1d be ce 5e 17 3d c2 ee b4 bd f2 5a 26 bd
       -0.15394096 0.036955647 -0.08834602 -0.040614076
000390 55 b3 c6 3d 05 37 64 3d a5 9a 13 be 5c 4e be bd
       0.097021736 0.055716533 -0.14414461 -0.092922896
0003a0 b0 87 65 be 8a e7 2a bc d2 aa 00 bd 5e 2b 27 3d
       -0.22415042 -0.01043118 -0.031412907 0.040812843
0003b0 95 46 53 3d 4d b8 22 3e 91 e8 0c 3d f6 7a f6 bd
       0.051580984 0.15890618 0.03440148 -0.12035172
0003c0 9b 07 5f 3c 99 d3 89 bd 49 b9 6c be 5e 7a ac 3d
       0.013612653 -0.06729812 -0.23117556 0.08421777
0003d0 e0 b0 87 3d c3 48 8c be b8 53 18 bc 53 4d b3 bd
       0.06625533 -0.27399263 -0.009297304 -0.08754983
0003e0 7f 40 13 be 64 4a 24 bd ef 89 60 be 5b 59 c3 3a
       -0.14380072 -0.040110007 -0.21927617 0.0014903949
0003f0 6d 17 9b 3d bd 4f f0 bc ea c4 58 bd 26 ae ba bd
       0.075728275 -0.029334897 -0.052922167 -0.091152474

model/dense_4/MatMul;model/activation_4/Relu;model/dense_4/BiasAdd f4 [100]
000000 8c 7d ac bf 94 7f 49 41 a5 18 09 c0 cd e3 23 40
       -1.3475814 12.593647 -2.1421292 2.5607789
000010 27 6c cc c0 5d d8 c9 c0 ab 0a 15 40 32 52 4e 41
       -6.388202 -6.3076615 2.3287761 12.895067
000020 9e e7 29 42 9f 2a 83 41 9a 5c d0 c0 3a 0d 44 c1
       42.47619 16.395811 -6.511304 -12.253229
000030 df 84 60 42 a4 93 bb 41 f4 c5 36 c1 5b 9f ae c1
       56.129757 23.44709 -11.423328 -21.82781
000040 4a d9 7d 3d 22 98 32 c1 36 25 96 41 ea 96 7d 40
       0.0619748 -11.162142 18.76817 3.962336
000050 5d 62 72 c1 60 7a 8f bf 5e 82 07 41 74 d8 83 41
       -15.149014 -1.1209221 8.469328 16.48069
000060 a6 17 28 42 7c f9 19 c0 12 12 d2 41 0a cf 1a 3f
       42.023094 -2.4058523 26.258823 0.60472167
000070 f1 a0 18 41 3b 02 a5 c0 c4 d8 a2 41 df 94 15 be
       9.539292 -5.1565223 20.355843 -0.14607571
000080 4c eb f4 41 0e e0 01 41 a1 8b c4 41 5d a5 04 c1
       30.614891 8.117201 24.568178 -8.290372
000090 53 3a 9b c1 02 bb 39 41 5b 9b 09 42 ab d4 30 42
       -19.403479 11.608156 34.401714 44.207684
0000a0 6e df 2c 42 28 87 5d 3f 0f 87 57 40 4a 01 89 bf
       43.218193 0.8653436 3.3676183 -1.0703518
0000b0 16 dd 49 42 c6 46 53 c1 c3 27 81 c1 e7 d8 b8 c1
       50.465904 -13.204779 -16.144415 -23.10591
0000c0 f2 59 05 c2 c0 9a 59 40 29 69 38 42 7b e7 b1 41
       -33.337837 3.4000702 46.102695 22.238028
0000d0 64 26 3a c0 89 b6 48 bf f6 d6 09 42 a3 95 3c 41
       -2.9085932 -0.78403527 34.459923 11.786532
0000e0 42 ca c0 41 7a e7 21 41 c2 cc a5 41 fb cc b9 41
       24.098759 10.119013 20.72498 23.225088
0000f0 4d 24 e4 c1 79 7c c7 41 81 d5 80 c1 13 d5 93 41
       -28.517725 24.935778 -16.10425 18.47904
000100 4e 75 12 41 1b 6d fb 41 4d 71 1b c1 5b f5 9c 41
       9.153639 31.428274 -9.715161 19.619802
000110 20 03 df 41 35 78 42 42 0d 30 c9 c0 ea 95 1d 42
       27.876526 48.61739 -6.2871156 39.3964
000120 d3 91 74 40 85 c1 44 c2 a1 e6 1e 41 d3 99 4b 42
       3.8214004 -49.188984 9.931306 50.90022
000130 2f af 28 42 a0 4a 6f c1 54 a6 e8 41 fe 02 89 c1
       42.171078 -14.955719 29.081215 -17.126461
000140 99 7f 0d 42 cd 35 ea 41 a4 7f 98 40 d8 65 90 c1
       35.374607 29.27627 4.765581 -18.049728
000150 4b a1 b7 c0 8d 72 b9 c0 8a 52 c0 41 bb 35 44 40
       -5.738439 -5.7952332 24.040302 3.0657794
000160 20 9b 15 41 89 13 0c 41 42 78 82 c1 16 aa 01 42
       9.350372 8.754769 -16.30872 32.4161
000170 d0 5f 06 42 27 d3 85 40 36 6d 5c 42 01 6c 19 42
       33.593567 4.1820254 55.10665 38.355473
000180 de 7f 04 40 24 0d 4a c1 53 fc 21 42 f1 a0 c8 c0
       2.0703044 -12.628208 40.49641 -6.269646

model/batch_normalization_3/batchnorm/mul_1;model/batch_normalization_3/batchnorm/add_1;model/dense_4/MatMul;model/activation_4/Relu;model/dense_4/BiasAdd f4 [100, 100]
000000 a4 79 fe bd 64 a2 5d 3c a2 f7 a5 3c dd 2c 3c be
       -0.12425545 0.0135274865 0.020259682 -0.18376489
000010 1c 1b 64 be 03 04 f4 3d ce 03 96 bd f4 15 d9 3c
       -0.22275966 0.11914828 -0.073249444 0.026499726
000020 7f 0b 4a be d1 27 b8 3d a8 0f dc bb a1 49 ef 3d
       -0.19730948 0.089919694 -0.0067157336 0.116839655
000030 c3 bd 52 bd 3b d8 4a 3d ee 01 b9 3d 21 bd 86 3d
       -0.051450502 0.04952262 0.09033571 0.06579042
000040 30 c6 6d 3c e5 22 29 bd 2f 05 13 be 6e c0 9b bb
       0.014512584 -0.041293044 -0.14357446 -0.004753164
000050 56 21 42 3d c2 92 fc 3e e3 bb 16 3f 10 c0 2f 3e
       0.047395073 0.49330717 0.5888044 0.1716311
000060 2c f7 9b bd d2 8e 2b 3d a0 ce 19 3e a8 e3 ba 3c
       -0.07615504 0.04188425 0.15020227 0.022813633
000070 f5 df dd be 7b 67 9d 3b 47 d8 52 bc 0c f4 88 be
       -0.43334928 0.0048035956 -0.012868947 -0.26748693
000080 95 28 bd ba a8 9d cb bd e7 3d ed 3c 26 54 a1 3c
       -0.001443165 -0.0994218 0.028960181 0.019693445
000090 f1 45 5a 3e aa 3c de bd c1 fa 9e bd be 99 2f 3c
       0.21315743 -0.108514145 -0.07762671 0.010717807
0000a0 cf 4b 8a be 4e 7b 61 3d 2e 5e e5 bb 04 be 72 3d
       -0.27010962 0.055049233 -0.0069997525 0.059263244
0000b0 b4 0b e1 3d bb ac 72 3d 4a fb 37 3e 52 56 a5 bc
       0.1098856 0.05924676 0.17966953 -0.020182762
0000c0 e5 fa 92 3e 2b bf 28 3d 59 30 51 3d 95 6b f3 3d
       0.28707042 0.041197937 0.0510715 0.11885754
0000d0 bb 3e 77 3e 27 b5 25 3d 8d bf 1a 3d a1 a0 21 3e
       0.24145024 0.040455963 0.037780333 0.15783931
0000e0 66 8d 34 bd 7d fa a3 3d 96 08 25 3d 65 b8 29 3e
       -0.04408016 0.08006761 0.04029139 0.16574247
0000f0 02 33 a7 be 7b cf 9d bc 8d fa ac 3c be 5c f8 3c
       -0.32656103 -0.019263973 0.021115566 0.03031766
000100 5e 94 4e bd 4f 20 4d bd fd 83 08 3e be ec a6 3c
       -0.050434463 -0.05007964 0.133316 0.02037656
000110 f4 b6 6c 3d 90 46 be 3d 59 92 2b bd 92 0f d5 3c
       0.057791665 0.092908025 -0.041887615 0.026008401
000120 d4 64 2c 3e e7 be 4e bd 6d fd 23 bd 78 6e c0 bd
       0.16835338 -0.050475027 -0.040036608 -0.0939607
000130 7f ab 4f be e4 95 2c 3d 30 f9 ac 3b f7 df c0 3c
       -0.20280264 0.042135134 0.005278729 0.023544295
000140 c6 89 e4 3d 04 21 84 bd 9f 6b 16 3e 7d f4 ad bd
       0.11159091 -0.0645161 0.14689492 -0.08493898
000150 ce 6d 26 3d c4 4c 2a 3d f4 80 d7 bd 0f 83 de 3d
       0.04063206 0.041577116 -0.10522643 0.10864841
000160 c9 b6 b2 bc ca 22 e4 bc b1 8d 76 bd 5c 03 be 3d
       -0.021815674 -0.02784862 -0.06019372 0.092779845
000170 ea 7c 42 3e 9e ce 81 3d 66 aa c6 be e1 92 c5 3b
       0.18992963 0.06338237 -0.3880188 0.006029472
000180 43 f5 0d 3e d7 f1 a6 3d bb 27 c3 bc 34 f0 a0 3d
       0.13863091 0.08151596 -0.023822656 0.07858315
000190 47 c1 bf 3d 38 96 d8 3c 50 51 76 bc a7 28 02 3e
       0.093630366 0.026438817 -0.015034035 0.1271082
0001a0 25 a8 af bd 7d 83 56 bd fc f7 17 3d 02 41 72 3e
       -0.08576993 -0.05237149 0.03710173 0.23657611
0001b0 e1 89 88 be 75 89 eb 3c c3 f4 a9 bc 60 70 2f 3e
       -0.26667693 0.028752068 -0.020746594 0.17132711
0001c0 d4 48 4e bd aa c8 79 bd 92 74 e0 3d 01 19 a0 3d
       -0.050362423 -0.060982384 0.10959734 0.07817269
0001d0 c6 2b 6f 3d 9e 31 08 bd a4 d7 b3 3d e9 76 05 bf
       0.058391355 -0.033250444 0.087813646 -0.5213457
0001e0 be 50 58 bc c6 5c 0b be 8e cd 53 bd bc 85 45 3e
       -0.013202844 -0.13609609 -0.051709704 0.19289297
0001f0 e7 8b 24 be 71 94 06 3d 48 b4 36 be e3 10 9e 3b
       -0.16068994 0.03285641 -0.1784221 0.0048237904
000200 0d cd 7e 3d 63 72 80 3e 7d e4 b9 3c 38 10 d3 bd
       0.06220727 0.2508727 0.02269196 -0.10305828
000210 5f 6c bd bc 8b af 4f bd ad 98 4a 3e 64 db bb bc
       -0.023122964 -0.05070452 0.19784804 -0.022931762
000220 59 ce 94 3d fb 0b bc bc b8 b0 86 3d e9 5a ac 3d
       0.0726592 -0.022954931 0.06576675 0.08415777
000230 dd de a8 3d 79 87 33 be 2f 58 9d bc a2 da 25 bd
       0.08245633 -0.17532147 -0.019207088 -0.040491708
000240 5d 3a de 3d 15 b4 a1 bc 2d 38 0d 3e fb ba 4c bd
       0.10850976 -0.01973919 0.1379096 -0.049983006
000250 7b e0 d4 bd 01 68 9e 3d 74 9f 85 bb 09 23 a3 3e
       -0.10394379 0.07734681 -0.004077846 0.31862667
000260 d2 db 0d be 0d 24 17 3e 95 77 6c bc 00 62 a0 bc
       -0.13853386 0.14759846 -0.014432807 -0.01957798
000270 e0 42 ac bd 96 5f d1 bd b6 96 36 bd dd 01 8f be
       -0.08411193 -0.1022331 -0.044577323 -0.2793111
000280 3a 96 fb 3d 69 1b f4 bc 26 4d e9 bd be 73 b0 3c
       0.12284513 -0.029798226 -0.11391668 0.021539565
000290 3a 27 28 3e fc 68 8e bd 3b 32 90 bd 1d 9a 53 3d
       0.16421214 -0.06953618 -0.07040831 0.051660646
0002a0 65 0e 72 3e 61 d6 21 3e fb e5 b2 bd 7e 03 2b bf
       0.23638304 0.15804435 -0.087352715 -0.66802204
0002b0 7d 07 90 be 5f b1 ea 3d 9d 9a 64 bd bf ee 0a bd
       -0.28130713 0.11459612 -0.055811513 -0.033919092
0002c0 0f d9 15 be 6c 16 56 3e 84 85 22 3d eb f7 d3 3c
       -0.14633583 0.20906991 0.03967811 0.025875052
0002d0 43 4a 83 bd ce c2 01 3d 9d bd 80 be 18 65 e4 bd
       -0.06410649 0.03167992 -0.25144663 -0.111520946
0002e0 97 49 c2 bd 44 0c 37 be 9e a1 36 3e c8 a3 87 bf
       -0.094866924 -0.17875773 0.1783509 -1.0596857
0002f0 c2 c7 9b 3b 3b ba 00 3d 7b 7b b0 3d 08 d2 24 be
       0.0047540376 0.031427603 0.08617302 -0.16095746
000300 5d 2b 19 be 2b b3 3b 3d d4 f0 a4 bc 49 43 96 3b
       -0.14957948 0.045825165 -0.020134367 0.0045856577
000310 6e 7b bc 3e fb a0 b2 3d cc 50 c3 bb cc fd 18 3e
       0.3681292 0.08722111 -0.0059605595 0.14940566
000320 57 42 aa bd ca 18 87 3e 9b cb b8 3e ef ca 35 3e
       -0.083134346 0.263861 0.3609284 0.17753194
000330 bb 00 da 3d b9 f1 97 bd 74 08 0a 3d 7f 4d 52 3d
       0.106446706 -0.07419152 0.033699468 0.051343437
000340 4b 6b 81 bd e1 ad 55 bd 7b 49 50 be 6b cd 52 3e
       -0.06319293 -0.052167777 -0.2034053 0.20586173
000350 6d 91 18 3e 5f e6 6b 3d bb c9 46 bd ef 78 0b 3d
       0.14899226 0.057592746 -0.04853223 0.034050878
000360 32 ec 98 3d 0e 7d 6d 3e 53 2f 9e 3d 7a e0 e6 3d
       0.07466926 0.23192236 0.0772387 0.11273284
000370 6d b5 af 3d df f7 de 3c 82 d3 0f 3b 59 1f b2 3c
       0.08579526 0.027217804 0.0021946137 0.021743463
000380 7d ba 78 bd c3 2c 76 be aa e3 22 3e e5 1d 97 bd
       -0.060724724 -0.24040513 0.1590716 -0.07378749
000390 de 08 0b bb 88 0d 16 3e da 93 09 bc 2d fa 48 3c
       -0.0021215002 0.146536 -0.008397067 0.012266678
0003a0 c6 2d 2d be 43 00 df 3d 60 31 4c bd 4f 26 1f be
       -0.16911992 0.10888722 -0.049851775 -0.15541957
0003b0 0f d2 08 3e a6 08 83 bc e2 7a 1f be e9 a0 2f bd
       0.13361381 -0.015995335 -0.1557422 -0.042878065
0003c0 97 e3 b0 bd 3e 73 e0 bd b5 02 2b be 88 90 19 3d
       -0.08637159 -0.10959481 -0.16700251 0.03749135
0003d0 aa 53 76 3b a9 f4 b4 bb 35 70 c3 bb ac a3 d6 bc
       0.0037586489 -0.00552233 -0.005964304 -0.026201092
0003e0 bd f8 1b 3e b5 98 e3 bd 5e 80 21 bd ad 84 24 be
       0.15231605 -0.11113111 -0.03942906 -0.16066237
0003f0 03 04 6b 3c d2 20 1a 3e 1d 86 28 3d 6c 88 80 3d
       0.014344218 0.15051582 0.041143525 0.062760204

model/dense_5/MatMul;model/activation_5/Relu;model/dense_5/BiasAdd f4 [100]
000000 c9 bb 09 41 e0 4e 3f 42 b3 e6 3f c1 53 14 d2 3f
       8.608346 47.827026 -11.993823 1.6412452
000010 21 3f 07 42 03 46 cd c0 9b ea 28 42 ac 26 8c 41
       33.81165 -6.4147964 42.229107 17.518883
000020 0e 33 8b 40 30 0e 2c 40 6a 1d fd 41 40 23 d9 bc
       4.3499823 2.688366 31.639362 -0.026506066
000030 01 5e 12 41 06 c2 01 42 9b 13 02 c2 79 33 d9 41
       9.14795 32.439476 -32.519146 27.150133
000040 47 74 82 c1 9c 63 61 41 45 d4 93 41 6c 35 be c1
       -16.306776 14.086819 18.478647 -23.776085
000050 3f 0d 91 42 9e d7 84 c1 57 87 b3 41 9c 52 1d 42
       72.52587 -16.605282 22.441084 39.330673
000060 96 d9 f3 41 d8 9f 23 41 f3 a1 3f c0 49 4d 32 bf
       30.481243 10.226524 -2.9942596 -0.6964918
000070 40 57 4d 41 d8 fd 3c 41 6d 42 89 c1 e1 de da 40
       12.833801 11.811974 -17.157434 6.839707
000080 3b 8f 84 c1 c1 0a e7 c1 99 57 8d 40 07 19 0c 42
       -16.569937 -28.88025 4.416943 35.02444
000090 1e bb bf 41 52 d7 1e 42 b8 16 1b 40 a2 59 04 c2
       23.966366 39.710274 2.4232616 -33.087532
0000a0 53 bb e6 41 fa c6 f1 c1 48 ec a1 41 cb 11 9b 41
       28.841467 -30.222157 20.240372 19.383688
0000b0 4d e1 83 41 8e 81 e9 c1 77 57 18 41 57 78 67 41
       16.48501 -29.18826 9.521354 14.46688
0000c0 24 e5 25 c2 64 d3 04 42 4a 61 57 40 1c 82 e6 41
       -41.47377 33.206436 3.365313 28.81353
0000d0 a3 91 df c1 d4 4c dc c0 2d 6d 35 41 00 cf 97 40
       -27.946112 -6.8843784 11.339154 4.7440186
0000e0 a4 ec 11 41 2e 49 7e 41 c0 a2 63 40 8e 29 3a 42
       9.120274 15.892866 3.5568085 46.54058
0000f0 d3 c7 b1 41 27 ce 96 40 10 89 30 42 b8 56 02 42
       22.22257 4.712665 44.13385 32.584686
000100 92 eb e1 c0 65 b9 e5 41 76 64 d9 c0 0e 38 57 c1
       -7.060006 28.715525 -6.7935133 -13.451185
000110 7f 60 ef c0 d9 46 11 41 65 2f d5 c1 ab 6c b9 41
       -7.4805293 9.079797 -26.648142 23.17806
000120 c5 33 19 42 6a 5b e6 41 99 dc a3 c1 46 63 df 3f
       38.300556 28.794636 -20.482714 1.7452171
000130 62 70 94 41 c9 c4 8d c1 74 0c 68 40 ec 4a 6c c2
       18.554874 -17.721087 3.62576 -59.073166
000140 c0 fd 8c 42 16 7e e4 c1 e4 57 d0 41 9b df e6 41
       70.495605 -28.561565 26.042915 28.859182
000150 ab 00 f6 c0 fa 65 f1 41 96 ba a9 c0 d5 81 5a 41
       -7.6875815 30.174793 -5.3040266 13.656697
000160 92 dc 18 c1 f6 84 6a 40 41 50 3f c1 b7 5d ae 41
       -9.55385 3.6643653 -11.957093 21.79576
000170 ee cc a4 3e 1e a3 58 c1 c0 3d a1 c0 2f 1c 5b 40
       0.321876 -13.539824 -5.038788 3.4235952
000180 4e 31 e6 41 3c e5 bc 40 b4 f0 28 41 e9 9b 4c 41
       28.774075 5.9029827 10.558765 12.788064

model/batch_normalization_4/batchnorm/mul_1;model/batch_normalization_4/batchnorm/add_1;model/dense_5/MatMul;model/activation_5/Relu;model/dense_5/BiasAdd f4 [100, 100]
000000 6c aa b6 ba 80 06 aa 3d 2a 28 6d ba 1f 87 8a 3d
       -0.0013936288 0.08302021 -0.00090468174 0.067640536
000010 1d c3 67 3d a3 92 f5 3e ef f1 38 3c 21 47 58 be
       0.05658256 0.47963437 0.01128815 -0.21120884
000020 08 4c 7a 3e 7b 8a 0a be bb dc a3 bf 51 59 80 bf
       0.24443066 -0.13529389 -1.2801737 -1.0027257
000030 98 88 bb 3d 2b 72 7e bd 5d 0b 20 bd 61 20 4d 3e
       0.091569126 -0.062120598 -0.039073337 0.20031883
000040 63 03 82 be c3 79 f6 bd a2 57 0f 3e 72 1b 61 bd
       -0.2539321 -0.12034943 0.13998273 -0.054957815
000050 41 26 95 3d 7d a5 95 3c 21 ce cd bd 5c fe f0 bd
       0.07282687 0.018267388 -0.100490816 -0.11767265
000060 3c 13 8b bd 1b 88 6a 3d 74 60 31 3d d2 68 2b 3d
       -0.06790778 0.057258707 0.043304875 0.04184801
000070 df e7 46 3e 41 83 72 3d ae 42 2c 3c ed b0 68 bd
       0.1942439 0.059207205 0.010513945 -0.056809355
000080 e7 6e c9 bc ca 2f d6 3c e6 e4 62 be b1 81 0b be
       -0.024589015 0.026145834 -0.2215763 -0.13623692
000090 b1 6d c5 bc d6 15 ee bd 5f f3 7f bd e3 fa 5e 3d
       -0.024100157 -0.116252586 -0.062487956 0.054438483
0000a0 db a2 bb 3d ea 19 cd 3d 61 2a 25 be 05 99 11 bd
       0.091619216 0.10014708 -0.16129448 -0.03554632
0000b0 81 4a b6 3c ba 40 d7 3d 40 5f 07 be 3d 70 0d 3d
       0.022252323 0.105103925 -0.13219929 0.034530867
0000c0 4d b8 23 3c 8a 72 2d bc f3 54 d5 3d 24 5c 8b 3c
       0.009992671 -0.01058639 0.104165934 0.01701171
0000d0 71 83 91 3e 04 fc 6a 3d 2f 93 4b bd 0a a0 54 3e
       0.28420594 0.057369247 -0.049700912 0.20764175
0000e0 6f e1 99 bc 4a 46 b8 be 58 f3 6b be a4 85 d5 3d
       -0.018784253 -0.35991126 -0.23042047 0.104258806
0000f0 11 d5 d1 3d ae 33 3b 3b 5c 80 4d 3c 70 a6 63 3e
       0.10245717 0.002856474 0.01254281 0.2223146
000100 41 13 34 3d d0 f0 3b bd 3a 37 e0 be ac be 73 bc
       0.043963674 -0.045883954 -0.43792135 -0.014877003
000110 c8 38 3e bd 59 b6 b3 be 28 e1 cf bc 16 42 90 bd
       -0.04644087 -0.35100058 -0.025375918 -0.07043855
000120 dd e1 a4 bd 49 f9 3b 3d d3 20 2e bb 9a 60 91 bd
       -0.080508925 0.045892034 -0.0026569858 -0.070985034
000130 e6 5e 13 ba 19 34 79 3c 09 65 c4 3e 35 df 14 3e
       -0.0005621746 0.015210175 0.38358334 0.14538272
000140 57 3e e8 bd fe 75 d6 bd 6e dd 6a be 34 8c bd 3e
       -0.113400154 -0.10471724 -0.22936031 0.3702103
000150 6e ee 87 be 5b 22 b6 3d 9c 99 32 3d 7f b9 b6 bc
       -0.26549095 0.088932715 0.043603525 -0.022305248
000160 35 40 69 be 96 2b 0c be 1b 83 00 be 68 b4 9d 3c
       -0.227784 -0.13688502 -0.12550013 0.019251063
000170 0f af dd 3d 66 1b 2a 3c 67 00 5e 3e 7f b5 2c 3d
       0.108244054 0.010382509 0.21679841 0.042165276
000180 7b b4 f7 bd d4 26 32 be 8d 26 81 bb 58 56 b7 bc
       -0.12094971 -0.17397624 -0.003941363 -0.02238004
000190 e2 2f 1f bd be aa 56 bd 43 2a c2 bd 0d a7 1a bf
       -0.038864024 -0.052408926 -0.09480717 -0.6041115
0001a0 87 aa ac bd 91 83 47 3f 44 c7 02 3b 00 fa a8 be
       -0.08430963 0.7793513 0.0019955197 -0.33003235
0001b0 05 ab 03 bb 86 d1 65 3e c2 62 bb 3e a2 3f a8 3e
       -0.002009095 0.22443208 0.36598784 0.32861048
0001c0 c5 8e 07 ba 7c 14 6d 3d e0 d6 b6 3e 0e 52 09 bd
       -0.00051711156 0.057880864 0.35710812 -0.03352552
0001d0 b0 fc 08 bf c1 2a 2e bf 46 b2 3d 3e 0d 69 0f 3d
       -0.5351057 -0.6803399 0.18525037 0.035012294
0001e0 b7 e2 45 be 74 63 17 be bf c0 06 bd 06 87 0d 3d
       -0.19324766 -0.14784032 -0.03289866 0.034552597
0001f0 02 59 fd bc db b4 21 bc f5 e8 1e 3d 41 ec 0a be
       -0.030926231 -0.009869779 0.038796384 -0.13566686
000200 b5 7e 73 bc e3 56 d7 bd 26 7f 03 be 7d 55 db 3d
       -0.014861752 -0.10514619 -0.12841472 0.10709665
000210 7d 19 ff 3d 32 a3 5e 3d cb b7 91 bd 10 e0 8e be
       0.124560334 0.054354854 -0.07115134 -0.2790532
000220 46 8a ef be f3 b3 46 bc dc 9f 47 3e 1f 7b 03 3c
       -0.46785182 -0.012127864 0.19494575 0.00802496
000230 85 33 a8 bc a0 d5 22 be ce 86 e9 3d 99 82 b0 3c
       -0.020532379 -0.15901804 0.11402665 0.021546649
000240 61 b9 24 3d eb 1d 1d bf 9e 95 a9 3c a8 c4 a4 be
       0.040215854 -0.61373776 0.020701226 -0.32181287
000250 33 e3 fc bc 19 8c 2d 3e f9 50 42 3d 9b b6 0d 3d
       -0.030870056 0.16947974 0.047440503 0.034597974
000260 06 ab 9f be 1d e9 b4 bd 51 ac aa bd b3 38 0b bd
       -0.31185168 -0.08833525 -0.08333648 -0.03398962
000270 46 7b b8 3d 1f ae 2b bd 03 40 ae bd 60 3e 8c 3d
       0.090078875 -0.0419141 -0.08508303 0.068478346
000280 10 f0 ac bd b9 b0 a5 3c 18 8b 92 3d 05 87 dd bd
       -0.08444226 0.02022587 0.07155436 -0.108167686
000290 8e b9 85 bd 55 85 ff bd f0 d6 dc be 70 aa 1b bd
       -0.065295324 -0.12476603 -0.43132734 -0.03800434
0002a0 74 07 bb bc 69 71 bc bd b5 35 05 bf ee cc c0 bd
       -0.022830702 -0.09201319 -0.52035075 -0.09414087
0002b0 69 9e 95 bd 42 02 a3 bc bb 60 08 be 29 73 10 bc
       -0.07305605 -0.019898538 -0.1331815 -0.008816519
0002c0 d1 3a 22 bd 2e 5d fb bd 37 0c 70 be f6 ec be 3d
       -0.039606873 -0.12273632 -0.2344216 0.093225405
0002d0 1f 7b 94 3d 82 99 01 bd 70 74 6f bd 5f 79 14 3d
       0.07250046 -0.031640537 -0.058460653 0.03624856
0002e0 41 c5 9b be 3c 8c 01 be 28 f3 1c ba 07 91 3a bd
       -0.3042393 -0.12651151 -0.0005987161 -0.045548465
0002f0 16 a0 80 3c dd 20 c4 3d 82 ba cb bd 6e fc 46 be
       0.015701335 0.09576581 -0.09947683 -0.19432232
000300 fa 10 bc 3b 80 95 4f bd e2 7c 62 bd a2 c1 0e be
       0.0057393285 -0.050679684 -0.05529488 -0.13941053
000310 4a c9 e2 bd fa 34 0e ba 80 94 92 bd 8a c1 e0 be
       -0.11073549 -0.0005424764 -0.071572304 -0.4389766
000320 7d 07 af 3d 53 26 c4 3d 4f 6a 78 3d 3e 2b fb 3d
       0.0854635 0.09577622 0.06064826 0.12264107
000330 c2 ba d5 bc f6 c5 df bd a5 88 07 bd 8c e1 f5 3d
       -0.02609003 -0.1092643 -0.0330893 0.1200591
000340 d4 b7 05 3a c6 d5 1e be e1 07 fa bd cd ce 09 be
       0.000510094 -0.15511236 -0.12208534 -0.13457794
000350 03 cb 87 3d d8 6e 9f be 9e 54 80 3d 46 f5 e1 bb
       0.06630518 -0.31139255 0.062661394 -0.006895694
000360 f8 56 b5 3c c1 23 ac bd f5 09 91 bd 8f 63 76 3e
       0.022136196 -0.08405257 -0.07081977 0.24061416
000370 79 3e 3d 3d 6f 74 8d 3d a4 39 d1 3c 83 83 54 3d
       0.046202157 0.069069736 0.02554018 0.05188323
000380 0f 30 38 bd cd 91 09 bd e8 d2 46 3d 70 c1 ce bd
       -0.044967707 -0.033586312 0.04854098 -0.10095489
000390 01 cb 4e 3e 5b da 2f bd fc a9 85 3d 8a ad 8d bd
       0.20194627 -0.04293285 0.065265626 -0.069178656
0003a0 8f fa cc bc 21 ad 89 bc 6c 69 53 3d 7f 79 0f 3d
       -0.02502182 -0.016806187 0.05161421 0.035027977
0003b0 b1 ab 96 3d 6a c2 cb bd d4 a6 8c 3d 64 37 03 3c
       0.07356966 -0.09949191 0.068677574 0.008008812
0003c0 fb 1f a2 3d 4d 0e 01 3d 83 4c a5 bc df 47 9b bd
       0.07916256 0.03150778 -0.020178085 -0.07582068
0003d0 e6 86 3a bb 1f c0 1d bd 1a f6 0e 3d fe c0 72 bd
       -0.0028461753 -0.0385133 0.03490267 -0.059266083
0003e0 95 a9 34 bd 50 c9 88 bf 54 75 97 3f e8 a5 98 bd
       -0.04410704 -1.0686436 1.1832681 -0.07453519
0003f0 2c 78 0c be c1 6e 91 3d 86 6b 12 be 46 34 cb 3c
       -0.13717717 0.07101203 -0.1429883 0.0248052
