corintho_ai/rating/tflite_models/model_79.tflite (tflite, 521576 bytes, 27 tensors)

model/dense_1/MatMul;model/activation_1/Relu;model/dense_1/BiasAdd f4 [100]
000000 c0 5b a5 c1 59 d3 15 43 8b f9 88 c2 a9 b1 ca 40
       -20.6698 149.82558 -68.48739 6.334187
000010 a1 26 87 42 93 fd 38 42 64 90 aa 42 ff 0e fb c1
       67.57545 46.24763 85.28201 -31.382322
000020 bf f2 40 c2 11 c7 94 bd bc 74 97 c0 d9 fa 65 c2
       -48.237057 -0.072645314 -4.733 -57.49497
000030 9a e1 9d 41 f2 91 41 c2 88 11 01 c1 42 ae 92 c2
       19.735157 -48.392525 -8.06678 -73.34035
000040 31 b0 1b 42 5a 77 78 41 c8 7e 36 c1 3f 4f 8d 40
       38.922062 15.529139 -11.405952 4.4159236
000050 49 0c 58 41 67 34 a4 be 1e cd 3a 41 a2 6c 82 c2
       13.502999 -0.3207123 11.675077 -65.21217
000060 e5 7c a7 42 2c b6 28 41 d6 4e e6 3f 02 52 e7 c0
       83.743935 10.544476 1.7992809 -7.2287607
000070 1a f6 91 c2 de c2 39 42 64 76 2c c2 2d fc 12 41
       -72.98067 46.4403 -43.115616 9.186566
000080 0e 97 1b 42 54 e1 18 c2 6a cb 9f 42 ba 34 80 42
       38.897514 -38.220047 79.89729 64.10298
000090 1f 2c 69 41 e3 bc 04 c2 93 8f bb 41 79 85 0c 42
       14.573272 -33.18446 23.445105 35.130344
0000a0 9c 67 9f 42 b9 4e cf c1 e5 e3 57 c2 fc 9b 81 be
       79.70236 -25.913439 -53.972553 -0.2531432
0000b0 63 99 68 41 fc 71 fe c1 27 50 b6 3e de c9 13 c2
       14.537448 -31.805656 0.35608026 -36.947136
0000c0 8f 67 65 c1 03 de c2 c0 63 73 de 41 d1 bc 5f c2
       -14.337783 -6.089601 27.806341 -55.93439
0000d0 73 0b 88 41 a6 8b 15 43 46 a5 95 c0 7f fd ee 41
       17.00559 149.5455 -4.676425 29.873777
0000e0 4f 0c 52 41 18 1b ac c1 55 f4 e0 41 a2 9b 17 c1
       13.128005 -21.51323 28.119303 -9.475496
0000f0 7e f1 d1 41 56 af 9a 42 01 83 6c c0 8e b9 1b 42
       26.242916 77.34245 -3.6954958 38.931206
000100 2d e2 5b 42 a2 3e bc 42 03 e6 04 43 3d 59 34 41
       54.970875 94.12233 132.89848 11.271787
000110 d0 2a db c1 5d 2b cf c2 b6 5f fe c1 4a 62 07 c2
       -27.395905 -103.584694 -31.796734 -33.845985
000120 47 70 49 c1 10 16 f0 42 5b b1 10 c1 a6 14 a3 42
       -12.589911 120.04309 -9.0433 81.54033
000130 1e 60 b0 c0 3b 5b 06 41 4b e0 04 c3 ac df a7 c0
       -5.511733 8.397273 -132.87614 -5.2460537
000140 7b 30 c1 41 33 d1 31 42 be ab 96 41 1b 73 d0 c1
       24.148672 44.454296 18.833858 -26.056204
000150 de 2f fc 40 2f b1 ab 42 ce c8 33 42 dd c0 b6 c1
       7.880843 85.84606 44.9461 -22.844172
000160 37 73 b3 42 72 8b 1e 42 bb 10 d2 42 30 e2 77 41
       89.72503 39.636177 105.03268 15.492722
000170 ae 31 88 42 96 34 f9 40 32 a1 a1 41 dd 27 da c0
       68.09703 7.787669 20.203709 -6.817366
000180 b1 28 21 43 36 18 0f 42 99 2e 88 41 b8 62 b5 c2
       161.15895 35.773643 17.022753 -90.69281

model/batch_normalization/batchnorm/mul_1;model/batch_normalization/batchnorm/add_1;model/dense_1/MatMul;model/activation_1/Relu;model/dense_1/BiasAdd f4 [100, 100]
000000 76 44 14 3e 1b 26 34 bf da 61 c4 3e b7 f0 17 3e
       0.14479241 -0.70370644 0.38355905 0.14837919
000010 dd 0d bd 3f 85 10 a9 3e d3 7c 82 bf b7 e1 87 bf
       1.4769856 0.33020416 -1.0194343 -1.0615758
000020 4d 4e de 3d 37 bf 1c 3f 61 ef ee 3e 1a 47 09 3e
       0.108547784 0.6122927 0.46667007 0.1340603
000030 a5 fa 6f 3e 93 8d 68 3b f7 32 29 bf 12 55 90 3c
       0.23435457 0.0035484775 -0.6609339 0.01761869
000040 95 ef 09 3e 00 62 cb bf 39 d5 98 3e 71 ac 07 bf
       0.134703 -1.5889282 0.29850176 -0.529975
000050 76 a8 b5 bd a4 b7 78 40 f2 54 97 bd 42 ff 63 3b
       -0.08870022 3.8862085 -0.07389249 0.0034789597
000060 7c 52 c9 bd c2 c3 4b 3e d8 71 bd bd 86 71 8b bf
       -0.09830186 0.19898894 -0.092502296 -1.089402
000070 19 78 32 3e 9c 6d 9c be 16 c9 d3 bc 4d 8d 27 3f
       0.17428626 -0.30552375 -0.025852721 0.6544998
000080 2d a5 9c 3d 32 c7 fd be 20 20 75 3d 6a 3e 16 be
       0.07648692 -0.49566036 0.05984509 -0.14672247
000090 35 ac 2b be 62 b2 50 be 49 96 3b bd 1f 21 18 3e
       -0.1676491 -0.20380548 -0.04579762 0.14856385
0000a0 e8 8c d8 3e 0b 1d 97 3f ad fa d3 3e db 6a 5f 3e
       0.42295003 1.1805738 0.41402188 0.21818106
0000b0 d9 63 77 be 3d 4e 3b be e3 28 a0 3e 39 52 b6 bd
       -0.24159183 -0.18291564 0.31281194 -0.089024015
0000c0 2c 30 3c 3f 68 f3 28 3e 53 23 c9 3c a8 6e ab bf
       0.73511004 0.16499102 0.024552977 -1.3393145
0000d0 07 79 32 3f 29 6e a3 40 1b fc 81 3e 1b 16 fa bc
       0.69715923 5.1071973 0.25387654 -0.030528119
0000e0 20 8a 17 be 49 a8 ca 3e 05 98 82 3f 18 0c 0b 3f
       -0.14798784 0.39581516 1.0202643 0.5431533
0000f0 e9 b3 d1 3e 1d af 0a be d1 73 09 3e 0c 2a 66 bf
       0.40957573 -0.13543363 0.13423087 -0.8990791
000100 06 6e ac 3e 16 ef e5 be 3a d0 45 be e3 04 b9 3e
       0.3367769 -0.4490897 -0.19317713 0.3613654
000110 9b dd 77 bd a4 96 5b 3f 88 a0 f4 3e 2c 72 3f be
       -0.060514074 0.85776734 0.47778726 -0.18695897
000120 a7 b4 c5 bd 0f 2d a8 bd ec 51 39 3f 16 b1 44 bf
       -0.09653597 -0.08211719 0.7239063 -0.7683271
000130 dc e1 f7 be cb e7 cc bb 69 92 05 3e d8 40 b6 3e
       -0.48414505 -0.006253218 0.13044132 0.35596347
000140 4e 8a 5d bf 48 b8 68 3e d2 0a 38 be 69 88 d5 bd
       -0.8653916 0.22726548 -0.17972878 -0.10426409
000150 2f 23 8d be 3d 73 67 be 35 75 08 be 11 25 6a bf
       -0.27565905 -0.22602554 -0.13325961 -0.9146281
000160 cb 01 1b be 3e dc 48 be cf de 93 bf d5 6c 8b 3f
       -0.15137403 -0.19615266 -1.1552371 1.0892588
000170 4d 77 fd 3d 9d 70 c6 be 7c 3d 44 be 9f 8e 47 3e
       0.123762704 -0.38757792 -0.1916408 0.19488
000180 ed 24 85 3e e9 2a f0 bd 83 e6 c0 be 63 5f 31 be
       0.26004735 -0.117269345 -0.37675866 -0.17321543
000190 63 43 7c bf 29 f6 94 bf 3b 57 ac be c4 7a 6e 3d
       -0.98540324 -1.1637622 -0.33660302 0.058222547
0001a0 e4 bc 99 bf f0 63 05 40 d5 a7 30 3f 2a 76 5f 3e
       -1.201077 2.0842247 0.6900609 0.2182242
0001b0 f1 ed 1c 3d e6 0d 1c bf 11 82 98 3e 3e 4b 87 3d
       0.038312856 -0.6095871 0.29786733 0.06606148
0001c0 84 0e 8e bf 42 b3 21 be b7 7c b6 be f4 6e 44 bf
       -1.109818 -0.15791038 -0.35642025 -0.767318
0001d0 d6 75 36 3d f3 6a cb bf 82 3a 78 bf 0f 45 86 bd
       0.04454597 -1.5892013 -0.96964276 -0.06556141
0001e0 1c 87 f9 be f1 da 32 bd cf 83 f5 bd 10 ce 03 bd
       -0.48735893 -0.04366583 -0.11988031 -0.03217894
0001f0 e3 5c 06 3e 24 f6 36 bd 3e 23 c4 be a4 de eb bd
       0.13121371 -0.04466833 -0.38308138 -0.11517075
000200 9e 49 6a be cb 3c 02 3e 2e cf a8 ba c4 24 91 3e
       -0.22879645 0.12718503 -0.0012879127 0.28348362
000210 91 2a 39 3d 67 8e 8d bc bf 4e 0a bf 0d 37 eb 3c
       0.04520661 -0.017279817 -0.54026407 0.028712774
000220 86 15 da be 54 3d eb bf 46 ff 38 bf 80 fc 58 bf
       -0.42594546 -1.8378091 -0.72264516 -0.84760284
000230 8c bb 65 3e fa 22 c4 be ae 88 86 bf a0 ff 3f be
       0.22434825 -0.38307935 -1.0510461 -0.18749857
000240 53 04 12 be ce 99 8d bf a7 7b 6f 3d 51 30 10 3e
       -0.14259462 -1.1062562 0.058467533 0.14080931
000250 f0 ee 3d be dc 02 93 3e 62 3a de 3d 22 e2 be 3f
       -0.18548179 0.2871312 0.108509794 1.491276
000260 d6 3b 9c be 68 0c 5f 3f 70 04 e9 3c fc 80 be be
       -0.305144 0.87128305 0.028444499 -0.37207782
000270 c0 23 0e bf 6a 48 87 3f 6d 0f db 3f e1 8c 27 3e
       -0.555233 1.0568974 1.7114083 0.16362335
000280 e3 38 37 3e 2b d3 23 3f 1b 2b 69 3d 9c 45 64 bf
       0.17892794 0.6399409 0.056925874 -0.89168715
000290 9c 89 65 bf 1d b2 e4 be f3 cc 90 3e 5d 8e 5d 3f
       -0.896631 -0.4466714 0.28281364 0.86545354
0002a0 63 c4 c4 be 05 65 15 be 7e 05 0e 3c 20 e7 dd 3e
       -0.3843108 -0.14589317 0.008668302 0.43340397
0002b0 49 4c 82 3e bd 21 2d 3e f1 c4 8a be 8a 43 fc be
       0.25448826 0.16907401 -0.2710338 -0.49270278
0002c0 52 4b 07 bf 64 e0 2a bf 31 a3 27 3f 9e 5a f0 3d
       -0.52849305 -0.6674864 0.65483385 0.11736034
0002d0 3f 08 6b 3c fa 08 86 bf 1b 75 2c 3f f1 10 51 3f
       0.014345228 -1.047149 0.6736619 0.81666476
0002e0 ca a6 0c be a2 11 37 3e ff 3a bd 3c b2 97 c1 3e
       -0.137355 0.1787782 0.02309942 0.37811047
0002f0 ce 50 54 3e 50 1d 0d 3e 7a 22 82 be 3c ee 67 3f
       0.2073395 0.13780713 -0.2541693 0.9059789
000300 e9 9e f9 be 44 98 03 bf 24 da 24 bf 7f b5 2d be
       -0.4875405 -0.51404214 -0.64395356 -0.16963767
000310 a2 3d 96 be 92 36 35 bf db 80 4e bf 6e 16 2c be
       -0.29343897 -0.7078639 -0.8066537 -0.16805431
000320 ab 03 6c 3f 03 bf 1c bf 4b e7 7f 3c a3 d1 4f 3e
       0.92193097 -0.6122896 0.015619109 0.20294814
000330 26 f1 83 3f 38 39 70 bc be 86 85 3f c2 c9 b5 bf
       1.0307968 -0.0146620795 1.0431745 -1.4202197
000340 28 3b 80 bf 8b 41 39 bf 89 41 93 bd 3e f5 06 40
       -1.0018053 -0.72365636 -0.07190234 2.1087184
000350 5d 51 47 bd 2c 8e 63 3d 9d 92 77 be e4 a9 0a 3f
       -0.04866158 0.055555508 -0.24177022 0.5416548
000360 d4 a1 ac 3e 28 e8 09 bf dd 6b 9f bf 5f 98 dd 3c
       0.33717215 -0.5386987 -1.2454792 0.027050195
000370 f0 c3 8a bd a1 95 82 bf 7d 26 bf bb 9f 21 87 3d
       -0.06775653 -1.0201913 -0.0058334456 0.065982096
000380 1e ad c7 3b db b4 3a bd 81 a0 f6 be 74 56 d5 3d
       0.006093635 -0.045582633 -0.4816933 0.1041688
000390 6a eb 53 3f 14 d1 99 3e e1 f3 4d 3f ad fe 27 3f
       0.8278109 0.30042326 0.80450255 0.6562298
0003a0 35 2b 08 be 4f 12 ae 3e ad 6d 37 3f 71 d9 9f bc
       -0.13297732 0.33998343 0.71651727 -0.019512864
0003b0 c1 1b 0a be 1f 57 0a 3e eb e0 15 3f e9 8e 6a bf
       -0.1348715 0.13509797 0.5854632 -0.91624314
0003c0 ff 42 7d 3e fa a6 03 be bc 30 97 3f 3b bf a6 3d
       0.24732588 -0.12856665 1.1811748 0.08141943
0003d0 23 17 4b 3e 00 b7 a0 bf b5 2c 66 3f 30 f8 09 3e
       0.19833045 -1.2555847 0.8991197 0.13473582
0003e0 0d 61 c4 bf 5c 68 55 bc f3 fe 26 3e d6 55 da 3e
       -1.5342118 -0.0130253695 0.16308193 0.42643613
0003f0 e5 f5 b0 be 9a ff 49 3d 83 08 a7 bd 3c 4e 90 3e
       -0.34562603 0.049316026 -0.0815592 0.28184688

model/dense_2/MatMul;model/activation_2/Relu;model/dense_2/BiasAdd f4 [100]
000000 60 49 90 42 b8 3d ac c2 23 2f bd c0 4a 55 88 c2
       72.14331 -86.120544 -5.912004 -68.16658
000010 ae 53 55 c1 6d 2d 81 41 dd b8 e5 41 0a ad 04 42
       -13.33293 16.14718 28.715265 33.168983
000020 17 20 95 c1 31 ec 8b 40 be 2e 17 c1 d7 27 7c c1
       -18.640669 4.372582 -9.448912 -15.759727
000030 8e 5d 6d c0 84 d6 91 41 23 45 b7 bf ab 8b 9c c2
       -3.7088351 18.229744 -1.4317974 -78.27279
000040 e6 9f 73 c2 60 2a a3 41 a2 57 e9 3f f4 09 9e c0
       -60.90615 20.39569 1.8229868 -4.938715
000050 4c 45 81 42 fa 6b d6 40 70 75 05 42 12 4a 97 41
       64.635345 6.7006807 33.364685 18.911167
000060 24 0b 93 3f 12 6d b3 41 2e b2 5f c0 0d 17 78 42
       1.1487775 22.428257 -3.4952502 62.02251
000070 0a 37 9b c1 44 ca 55 41 0e ea a8 40 3d f4 76 41
       -19.401875 13.361881 5.278571 15.4346285
000080 ef 45 11 42 c0 2d 6d c1 0e 69 c1 41 6c 11 78 c2
       36.318295 -14.823669 24.176296 -62.017014
000090 03 8e bb 42 b7 66 cc c1 3c fe d5 c1 c5 f5 ac c1
       93.77737 -25.550154 -26.749138 -21.620005
0000a0 f0 3d 88 c1 79 17 88 c2 e6 0d 58 c0 ce a0 bb c1
       -17.030243 -68.045845 -3.3758483 -23.453518
0000b0 fc 7e 42 c2 04 82 31 42 5f 93 f3 c1 61 37 9c c1
       -48.62401 44.37697 -30.446959 -19.52704
0000c0 a4 82 1b c2 c5 8f 65 41 22 a9 8e 42 a2 70 96 42
       -38.87758 14.3476 71.33034 75.219986
0000d0 40 f4 a5 41 99 82 91 40 7c 8a b1 3f 12 43 8e 40
       20.744263 4.547192 1.3870387 4.4456873
0000e0 d5 d6 b6 40 99 bb 82 42 14 d9 31 42 da ca 0f c2
       5.7137246 65.3664 44.46199 -35.948097
0000f0 19 08 75 c1 b5 8d 1b c1 39 7c 88 c1 e7 32 0a 43
       -15.314477 -9.722096 -17.060656 138.19884
000100 06 d2 b9 41 26 70 7e 41 30 ab 87 c2 3c 19 48 c2
       23.22755 15.90238 -67.83435 -50.024643
000110 63 64 f5 40 5d eb 3e 42 31 be 1f c3 3d 5b ea 41
       7.668504 47.729847 -159.74294 29.29455
000120 57 a1 68 c1 b7 98 9c 41 7f dd 63 c2 c3 5f ed c1
       -14.53939 19.574568 -56.966305 -29.671759
000130 fb f9 0c 42 c2 c8 12 c2 71 05 03 c2 b4 2c 77 42
       35.24412 -36.696053 -32.755314 61.793655
000140 86 55 81 42 10 2d 54 42 a1 7e 4a 42 76 47 0e 42
       64.66704 53.044006 50.62366 35.569786
000150 2a f2 3d c1 11 c9 74 c2 88 4d 5f 3f 12 77 44 42
       -11.871622 -61.196354 0.8722768 49.11628
000160 b3 9b 1a 42 c3 f1 ff 41 eb 02 4d c2 1a 0d c5 41
       38.65205 31.993048 -51.25285 24.631397
000170 35 de ca 41 11 52 a4 41 46 b2 c7 c1 58 6d 8c 42
       25.3585 20.540071 -24.962048 70.21356
000180 49 7e a2 42 0e e5 48 42 89 e9 34 41 16 12 9c c1
       81.24665 50.223686 11.307015 -19.508831

model/batch_normalization_1/batchnorm/mul_1;model/batch_normalization_1/batchnorm/add_1;model/dense_2/MatMul;model/activation_2/Relu;model/dense_2/BiasAdd f4 [100, 100]
000000 05 7b 10 bd 64 b8 1a bd 19 1b 9e 3e a2 e9 3b 3d
       -0.03527357 -0.037773505 0.3088005 0.045877106
000010 8d be 5c be 33 2d 23 be 4c d9 fd 3d 8e 7e 5d bd
       -0.21557064 -0.15935211 0.12394962 -0.05407577
000020 3d 4b 5e 3e 8b fa 26 bd 58 f1 03 3e 8d 63 3b 3e
       0.21708389 -0.04076628 0.12885034 0.18299694
000030 5b 36 cc 3d 7f f5 29 be 75 c0 6d be ad 6c a4 3d
       0.09971305 -0.16597556 -0.23217948 0.08028541
000040 67 13 75 3a 56 5d 67 be 62 f8 18 3e fb 42 0a bc
       0.00093488995 -0.22594199 0.149385 -0.008438821
000050 2c ae e5 bd 84 58 34 bd 6f 62 93 3d 93 5a ea 3d
       -0.11214861 -0.044029728 0.07196509 0.11443057
000060 49 ce ed bd 0e 5a 2a bd ab a0 ab bc bf 9a 11 3d
       -0.116116114 -0.04158979 -0.020950636 0.035547968
000070 4d a8 35 be d8 0b d3 bd 30 98 86 bc d4 4b 3d 3b
       -0.17739983 -0.103049934 -0.01642999 0.0028884308
000080 bd 5e 8e be c1 cb f9 3c e3 4d 36 bd e9 de 18 3e
       -0.27806655 0.030492665 -0.044507872 0.14928783
000090 62 65 4d bd 70 16 5b 3d 12 32 55 3d 89 96 01 be
       -0.050145514 0.053488195 0.052049704 -0.12655081
0000a0 64 fd e4 bc c8 9f 44 be 9a 32 9b be 23 96 c5 3d
       -0.027952857 -0.19201577 -0.30312043 0.09647777
0000b0 c8 5f 4d 3d e0 f2 ac bc f9 d9 e1 bd 00 a5 b9 bd
       0.050140172 -0.021111906 -0.11027903 -0.090646744
0000c0 6e 56 bf bd ab a8 e5 3c 35 af a6 3d 2d 41 61 3d
       -0.09342657 0.028034529 0.08138887 0.054993797
0000d0 0c 2e 05 bc 5e ad 55 be f9 e5 f9 bd 87 b8 46 bd
       -0.008128654 -0.20866916 -0.12202067 -0.048515823
0000e0 d4 70 f2 3c ff a5 2b 3d 04 bc 45 3e 27 33 5a bd
       0.029594816 0.041906353 0.19310004 -0.05327144
0000f0 97 49 11 3e 8e 76 d8 bd 43 c1 b6 3d df 97 82 be
       0.14188229 -0.105694875 0.089235805 -0.25506493
000100 18 8c 74 bb f2 cb 54 3d da 91 97 3d 01 bb 08 bd
       -0.0037314948 0.05195231 0.07400866 -0.033381466
000110 50 50 af bc a9 f0 cd bc 96 ec 6a be 84 fb 20 be
       -0.0214006 -0.02513917 -0.22941813 -0.15720946
000120 17 35 87 ba a2 1e 5b bd 0c d0 81 be dd d6 8e bd
       -0.0010315505 -0.05349601 -0.2535404 -0.06974576
000130 a9 1f d6 3d 5a 2a b9 bc ee 31 7b bd 29 3a 9c be
       0.104552574 -0.022603203 -0.061326914 -0.30513123
000140 1c 07 a3 3d ce 5d c8 bd 59 be 82 3d 19 a2 41 3d
       0.079603404 -0.09783517 0.06383962 0.04727373
000150 84 e7 20 bd b5 74 88 bc 7b 11 b6 3d e4 74 85 bc
       -0.03928329 -0.016657213 0.08890053 -0.01629109
000160 af 4a 09 be 83 71 5c 3d 7f 13 9a 3d e5 f3 a6 bc
       -0.13407396 0.05381919 0.0752325 -0.02037997
000170 ad f8 9f bd ac 58 30 be cd e3 9f be e3 a2 43 3e
       -0.07811103 -0.17221326 -0.31228486 0.19105105
000180 f2 09 51 3e 96 84 e8 be 92 bc a5 3d 7f 08 a8 be
       0.2041395 -0.45413655 0.080926076 -0.32818982
000190 22 40 2f bd f2 ce 43 3d f2 23 ea bb 4d df 6c bd
       -0.04278577 0.04780478 -0.0071453983 -0.057830144
0001a0 c5 15 c2 3c 83 d7 80 3d 84 d0 77 3d 54 9a 2c 3d
       0.023692021 0.062911056 0.06050159 0.042139366
0001b0 a3 be 62 3d b8 dd 68 3d d9 d5 df bc 2d 7f 3d 3d
       0.055357587 0.056852072 -0.02732365 0.046263862
0001c0 ed ef 03 bd 8e 35 aa bd 5d 82 b2 3d cb 13 94 3d
       -0.032211233 -0.08310996 0.08716271 0.07230338
0001d0 63 54 09 3a 15 63 ef bb 38 44 da bd d3 0e a6 3d
       0.000523871 -0.0073055127 -0.10657543 0.08108296
0001e0 fa d1 0b be 75 d7 ca 3c 35 b5 de 3d fc 20 bd 3d
       -0.13654318 0.024760941 0.10874406 0.09234807
0001f0 ad 53 2b 3c 78 6e f6 3c f2 0f e3 bd a8 cd d0 bd
       0.010456962 0.030081972 -0.11087026 -0.10195476
000200 30 43 9c 3c 87 41 00 bd f0 1a 62 3e 0a 40 8b 3e
       0.019075006 -0.03131249 0.22080588 0.27197295
000210 3e 71 db 3d f8 0e 9f bc 25 33 a1 3d 4f 4d d7 bc
       0.107149586 -0.019416317 0.07871083 -0.02628198
000220 55 a2 0c bd 6b 7b f7 3d e3 37 33 bd 67 66 f8 3c
       -0.0343345 0.12084087 -0.04375447 0.030322267
000230 b2 7e 57 bc f4 d8 1d 3c 67 b1 84 3c 77 84 3d 3c
       -0.013152765 0.009634245 0.016197873 0.011567227
000240 86 60 b0 3d 8d fd bf 3d eb 61 a7 3d b0 4c 4d 3d
       0.086121604 0.09374533 0.08172973 0.050121963
000250 8f f8 95 3d cc 09 8d 3d e7 76 82 3d fb 00 e7 bd
       0.073227994 0.06886634 0.06370335 -0.11279484
000260 ff fe 67 3e f2 42 61 3f 17 b8 ad 3d 92 4a a9 3d
       0.22655867 0.87992775 0.08482378 0.08266176
000270 e1 89 21 3e 5c 08 08 3d 96 61 81 3c 23 9b 17 3d
       0.15775253 0.033211097 0.015793603 0.037013184
000280 5e e5 3f 3d ff e5 ff bd 5f 2a ab 3e 9b 2c a0 3d
       0.0468496 -0.1249504 0.33430764 0.07821008
000290 e9 a1 4a 3d fd a3 98 3d 5d 9a 35 be f0 e2 ce bc
       0.049470816 0.07453153 -0.17734666 -0.025254697
0002a0 35 e8 34 3d f9 f8 3b bd 96 b3 b6 bd 09 7c 12 3d
       0.044166762 -0.045891736 -0.08920972 0.03576282
0002b0 f9 22 05 bc 55 0d 8b 3e 70 47 d9 3c 0d 15 fe bd
       -0.008126014 0.2715861 0.026523322 -0.12406359
0002c0 1b 2f c6 3d 33 90 bc 3d ef 6e b6 bc dd 2c f7 bd
       0.096769534 0.09207191 -0.022269694 -0.12069104
0002d0 66 77 80 3d f6 60 9b 3a 17 b3 1a 3d 31 e1 31 3e
       0.062727734 0.0011854458 0.03776845 0.1737106
0002e0 a9 a9 fc 3c cf 5f 4d bc 0d 82 5c bd d3 d2 2b bb
       0.030842619 -0.01253505 -0.053834964 -0.002621819
0002f0 d5 6b a3 3c dd 36 c2 3d 0d 83 ed 3e f3 96 51 3d
       0.01994888 0.094831206 0.46389046 0.051169347
000300 6c 00 58 be 2d 47 14 3e 89 0c 80 bc b9 9f e6 bd
       -0.21093911 0.14480276 -0.015630977 -0.112609334
000310 50 e1 69 be aa 02 e9 bb 3e 7f a0 be ee d0 f2 bd
       -0.22839856 -0.0071109133 -0.31347078 -0.118562564
000320 a3 87 a0 3e b7 3c 45 3e cd b5 31 bd 3e 4e c8 3d
       0.31353483 0.19261442 -0.04338627 0.097805485
000330 48 a5 f8 3a 32 36 a0 bb f5 68 8b 3d 5a 6b 21 bc
       0.0018970156 -0.004889273 0.06807128 -0.009852255
000340 16 77 8d bd f8 a6 3f 3e 78 d5 cf 3c 1e 90 75 3d
       -0.069074795 0.18716037 0.025370345 0.059951894
000350 2d b2 15 bc bb ef c9 bd f2 6a 1f bd e6 e5 60 be
       -0.009136719 -0.09860178 -0.03892035 -0.219627
000360 b5 ec 24 3d c4 b2 ff 3c 47 79 83 bd da 51 14 3e
       0.040264804 0.031213172 -0.06419616 0.14484349
000370 bf df 2a 3e 04 af 72 bc 99 ea a0 3a 39 06 c5 3b
       0.16686915 -0.014812235 0.0012276947 0.0060127047
000380 ce 5e 1f bd d0 76 ae bd 2f c6 d4 bb 1b fc 2e bd
       -0.038908772 -0.085187554 -0.006493352 -0.042720895
000390 28 dc 86 3d 62 da b0 bb f9 90 7a bc cb d8 f8 3d
       0.0658496 -0.005397127 -0.015293353 0.12150725
0003a0 75 22 e5 bd 30 d6 44 3d a2 fc 11 be 81 3a 38 bd
       -0.11188213 0.048055828 -0.14256528 -0.04497767
0003b0 38 6a 97 3d 61 22 68 3c 94 7f fa bc 3b 95 b9 3d
       0.073933065 0.014168353 -0.030578412 0.090616666
0003c0 f4 ba 70 3d 9d 91 13 3f 58 b4 94 3d b3 cc 63 3d
       0.058772042 0.57644063 0.0726096 0.05561514
0003d0 4a 0f 2c 3e 09 20 25 3d 90 c3 22 bd 81 65 b6 3c
       0.16802707 0.040313754 -0.039737284 0.022265198
0003e0 aa bf 94 bd aa 0c 97 3d a1 6f e1 3d 29 ee 33 bc
       -0.072631195 0.07375462 0.1100762 -0.010982075
0003f0 89 c4 1a bd 34 f9 55 bc 87 e3 a2 bd 3c 74 06 bb
       -0.037785087 -0.013059903 -0.07953554 -0.0020516058

model/dense_3/MatMul;model/activation_3/Relu;model/dense_3/BiasAdd f4 [100]
000000 7e e9 ed c1 90 20 49 42 6d aa 40 41 db 2a ca c0
       -29.73901 50.2818 12.041608 -6.3177314
000010 44 82 79 41 dd 86 97 c1 87 70 5f c0 9b e7 8a 41
       15.594303 -18.940851 -3.4912431 17.363089
000020 cf 13 41 42 43 a4 b2 41 7a ea 3a 42 34 14 49 42
       48.269344 22.330206 46.72898 50.26973
000030 f0 24 43 42 12 0b bd be d8 f5 69 41 94 06 0b 41
       48.78607 -0.36922508 14.62252 8.689106
000040 05 04 fc c0 17 4e 72 41 dc 84 08 41 ce 64 a3 c0
       -7.8754907 15.144065 8.532436 -5.1060553
000050 a3 ea 04 42 fc 3d 14 c1 e5 7c 51 be 1f 96 0c 42
       33.229137 -9.265133 -0.204578 35.146603
000060 5f fd 46 42 b0 0b 73 42 e6 b5 f8 41 dc 5e ce c0
       49.747433 60.761414 31.088818 -6.4490795
000070 9d a4 6d c1 02 9f 49 c2 91 48 63 41 79 cc b5 41
       -14.852689 -50.40528 14.205216 22.72484
000080 a9 ba c1 41 3e 6e 10 c0 24 f7 69 41 7f 25 8a 42
       24.216143 -2.2567286 14.622837 69.073235
000090 e3 d4 13 c0 81 fc de 41 10 41 10 c2 87 f6 20 41
       -2.3098686 27.873293 -36.063538 10.060187
0000a0 75 fd 25 42 70 b0 31 42 9e cc 5b 42 3d 8a dd c1
       41.497517 44.422302 54.94982 -27.6925
0000b0 d8 e4 87 40 5e d1 b4 40 05 77 b1 c1 67 21 a5 40
       4.246685 5.6505575 -22.183115 5.1603274
0000c0 ce f9 d7 41 76 11 64 3e b4 65 5f 41 ba d8 0d c2
       26.996975 0.22272286 13.96233 -35.461647
0000d0 0e 5d 93 c1 ae e5 1e c2 5d be e3 c1 1d 0a 96 41
       -18.420437 -39.724297 -28.46795 18.754938
0000e0 b5 96 34 bf de 41 96 c1 7a 2f 1b 41 cb de ae 41
       -0.7054246 -18.782162 9.699091 21.858786
0000f0 70 76 3e c0 2d af 5c 40 6f c4 d6 40 16 4e a9 41
       -2.9759789 3.448192 6.7114787 21.163128
000100 6d 7d 5d c1 03 9c ac 40 1d b8 37 41 2f 09 a9 3e
       -13.843122 5.3940444 11.48245 0.3301482
000110 ab 36 95 41 a9 2a c4 c0 39 bc c7 c0 0a 25 ff 40
       18.651693 -6.1302075 -6.2417264 7.9732714
000120 1d 6d aa bf ad e9 e4 c1 34 89 12 42 70 5d 84 bf
       -1.3314549 -28.6141 36.633987 -1.0341015
000130 ed 9a b2 c1 98 aa 25 41 b5 9a 3b 40 d7 b9 1b c2
       -22.325647 10.354149 2.9313176 -38.931484
000140 44 cc 3d c2 0f 2c 03 bf 4f d7 84 bf 2c 4a e6 41
       -47.44948 -0.51239103 -1.0378207 28.786217
000150 22 0f 29 c0 15 ce bd c1 06 18 6c 41 3e 2e 19 40
       -2.6415486 -23.725626 14.755865 2.3934474
000160 27 33 4c c1 a6 d6 30 41 d2 a6 b1 c0 f5 cc 11 42
       -12.762488 11.052404 -5.551614 36.450153
000170 50 09 a9 c0 94 a1 fb bf c2 9c c3 41 80 2a 69 c2
       -5.282387 -1.9658685 24.451542 -58.291504
000180 f1 ab 6d 40 c4 a0 be 41 9e 46 d2 41 41 03 95 40
       3.7136195 23.828499 26.284481 4.656647

model/batch_normalization_2/batchnorm/mul_1;model/batch_normalization_2/batchnorm/add_1;model/dense_3/MatMul;model/activation_3/Relu;model/dense_3/BiasAdd f4 [100, 100]
000000 53 9b b0 3d 70 2a f4 3c 69 f7 b3 bc b8 38 cb 3c
       0.08623376 0.029805392 -0.02196856 0.024807319
000010 31 42 43 3d 11 31 41 bd f4 3e 8d 3d cd f3 61 3e
       0.047670547 -0.047165934 0.06896773 0.22065659
000020 9f 2f ff bd fb db 2a bd 09 d2 85 be a0 e5 25 bd
       -0.12460255 -0.041713696 -0.26136807 -0.04050219
000030 c3 72 e8 bd 5a d2 81 bd 82 c8 3c 3d c6 c2 8a 3c
       -0.11350014 -0.063389495 0.046089657 0.016938578
000040 4c d7 90 bc a2 9a 01 3e bf cc 9d 3d 54 ef f0 3b
       -0.017680787 0.12656644 0.07705068 0.007352749
000050 4c 9d a6 bb fc fc 8a 3d 97 72 12 3f 8d bb 8f bd
       -0.005084669 0.06786534 0.572061 -0.07018194
000060 8b 84 0f 3d a5 97 c5 bc 35 f5 9a 3d 24 56 9d 3c
       0.035038512 -0.024120161 0.07566301 0.019206114
000070 78 2c 5e be fc 46 0b be 37 50 90 bd eb d0 ae bd
       -0.21696651 -0.13601297 -0.0704655 -0.08535942
000080 f4 b6 1a bc 4d 34 95 bb 28 e9 5b be 23 90 3a be
       -0.0094430335 -0.004553354 -0.21475661 -0.18219046
000090 6a c2 de 3d 0c 68 25 bd 26 58 47 bd 50 60 b4 bc
       0.10876925 -0.04038243 -0.04866805 -0.022018582
0000a0 29 ab 8f bc bd e8 2c 3c ee 50 d0 3c 11 42 26 3e
       -0.01753767 0.010553536 0.025429215 0.1623614
0000b0 4a dd 95 bc bb b2 8f bc aa 49 ca 3d 38 48 65 be
       -0.018293995 -0.01754128 0.098773316 -0.2239083
0000c0 91 2b c7 3d 18 61 92 3e 08 44 b5 3d f4 9e a4 3d
       0.097251065 0.28589702 0.088508666 0.080381304
0000d0 04 d1 4c 3d 66 bc 8d 3d 66 ed b6 bd e2 01 84 3d
       0.05000402 0.069207 -0.08931999 0.064456716
0000e0 d0 06 af 3d 94 81 6e 3e c3 8f dd 3d 76 21 36 bd
       0.08546221 0.23291618 0.10818436 -0.044465505
0000f0 55 4a 05 be 34 83 2a bc a9 d5 93 bd 7f 43 bc bd
       -0.13016637 -0.010407258 -0.07218487 -0.09192561
000100 4f f4 28 3e cb 20 2b 3c e2 98 82 c0 bc a0 76 3d
       0.16499446 0.01044483 -4.0811625 0.060211882
000110 dc 65 a7 3d ea b1 2b 3e 48 48 79 bc cb 44 f0 bd
       0.08173725 0.16767088 -0.015214987 -0.11731871
000120 09 6e 00 3d 53 0e 38 bd 2e 74 0c 3d 19 73 94 3d
       0.031354938 -0.044935536 0.034290485 0.07248516
000130 3a 5d d8 bc 70 fe d6 3d 28 6c fc bc 70 be ab 3d
       -0.026411641 0.10497749 -0.030813292 0.083859324
000140 32 20 26 3c ec 70 03 be 0a 15 1b 3d c6 0a 60 bc
       0.010139512 -0.12836045 0.03786186 -0.013674444
000150 bd 53 a3 3c 98 a0 a0 bd e0 30 9b 3d 32 a2 17 be
       0.01993739 -0.07843131 0.075776815 -0.14807966
000160 34 81 93 3e d3 90 e0 3e 4c 75 cb bd 5b e1 06 be
       0.28809512 0.43860492 -0.09934482 -0.13171904
000170 b4 21 98 3b 0d 7f 0e 3e 8e d4 b7 3d 6c 21 f4 3b
       0.0046426896 0.13915654 0.089760885 0.0074502733
000180 2f b8 21 3c 8c 31 95 be de dc 04 be f0 a8 8d bc
       0.009870573 -0.29139364 -0.12974879 -0.01729247
000190 2b 65 92 be d8 e7 d5 bc 61 49 de be 84 e3 a7 bc
       -0.2859281 -0.026111528 -0.4341536 -0.02049423
0001a0 41 27 ef bd cb dd 3a 3d 35 6c 81 3d f2 d9 0c 3e
       -0.11677409 0.045621675 0.06319467 0.13755015
0001b0 39 c2 c1 bd 6a a9 8d be b4 9f be 3d 76 c8 1e 3e
       -0.09460873 -0.27668315 0.09307805 0.15506157
0001c0 79 ec f0 bb b4 6b 28 be 82 34 32 3e 81 ba 7a 3b
       -0.0073524085 -0.16447335 0.17402843 0.0038258138
0001d0 e2 ca 32 bc 83 4c cd bd 50 94 e1 bd bb 1f 0e be
       -0.010912629 -0.10024359 -0.110146165 -0.13879292
0001e0 a4 70 71 bd b8 42 3a 3d a7 70 32 be 72 c3 96 bd
       -0.058945313 0.045473784 -0.17425786 -0.07361497
0001f0 bc b0 4b 3e 9d 62 29 be 6f 0a d6 3e 92 b6 50 3e
       0.19891638 -0.16541524 0.41804835 0.20382145
000200 ab bb 02 3e d0 f2 e9 3d a3 8c 15 be f8 51 a7 3e
       0.12766902 0.11423266 -0.1460443 0.32679725
000210 45 e4 cb 3d 80 1f d3 3d 47 67 a9 bc de fd 00 be
       0.09955648 0.103087425 -0.02067913 -0.12596843
000220 ea cf e3 3c 9b 7e 86 3d ef 5f 99 bd 7e 45 6d 3e
       0.027809102 0.06567117 -0.07489001 0.2317104
000230 38 57 f7 bd 6e 7a 11 bd 21 c6 13 3b fd f0 b9 bd
       -0.120771825 -0.03551715 0.0022548514 -0.09079168
000240 6e 3d 22 3e 5a 70 51 3d 4e 92 80 bd c2 d9 e0 be
       0.15843746 0.051132537 -0.062779054 -0.43916136
000250 bc db 81 3d e3 e8 82 be 1d 82 1b 3d e4 fb 89 3e
       0.06340739 -0.25568303 0.037965883 0.2694999
000260 64 4c a7 bd 7f ed 85 be c2 e4 2a be e4 e0 21 be
       -0.08168867 -0.26157758 -0.16688827 -0.15808445
000270 fa 26 59 bc 38 07 6e bd a1 bf 62 be 0d ef 22 3e
       -0.013253922 -0.058112353 -0.22143413 0.15911503
000280 8c 1b b0 3d 0b 85 51 3e 67 04 78 3d 3d c3 e9 bd
       0.08599004 0.20460908 0.060551073 -0.11414192
000290 d4 53 0a bb 42 cc 0a bd 33 a5 46 bb 83 a3 0b bd
       -0.0021107094 -0.0338862 -0.0030310869 -0.034091484
0002a0 4f a4 3d 3d bf a8 f8 bd 40 7c 33 bc cb e7 eb 3d
       0.046299275 -0.12141561 -0.0109549165 0.115188204
0002b0 22 eb 03 3e 20 4e 85 bc 4d 65 ad bc ab 7b 89 bd
       0.12882665 -0.016272604 -0.021166468 -0.06713041
0002c0 c4 7b 20 be 7b d2 e5 3b 6e f5 d7 bc 21 02 95 3e
       -0.15672213 0.0070136166 -0.026362147 0.29103187
0002d0 0c e3 5c bd 7a f1 08 be b4 f1 02 3e 71 a8 80 be
       -0.053927466 -0.13373366 0.12787515 -0.2512851
0002e0 e3 6e 85 bd 60 f2 07 3d 5c ff 5e 3e ab f4 8b be
       -0.065152906 0.03319013 0.217771 -0.27335104
0002f0 e6 0b 5d be 9c e2 81 bd e6 99 89 3d d3 7a 1b 3e
       -0.2158657 -0.063420504 0.06718807 0.15183572
000300 bf e0 0c 3e bf ed 80 3c c7 08 13 be 46 0d c3 bd
       0.13757609 0.015738366 -0.14358817 -0.09524016
000310 f8 de 3f 3d 5d 59 42 be 4c 9d 68 3d 04 78 b2 ba
       0.0468435 -0.18979402 0.056790635 -0.001361609
000320 27 17 c3 3d 10 f0 48 3e 57 e7 94 bd 31 74 ca bd
       0.095259 0.19622827 -0.07270687 -0.09885443
000330 ba 0c 89 3d 00 4b 2e bc b0 a0 8d 3d cd 03 78 3d
       0.066918805 -0.010637999 0.06915414 0.0605505
000340 ea bc ca 3d 97 d7 11 3e 66 f8 f2 bd f0 24 0a 3e
       0.09899314 0.14242397 -0.118637845 0.13490653
000350 61 17 05 bd 96 de 80 be e5 ae a1 3c 59 b7 15 3e
       -0.032493 -0.2516982 0.019736717 0.14620723
000360 1a df 0b 3e 5a 65 d3 3a e0 0f f1 bd 59 0f b6 3d
       0.13659325 0.0016128228 -0.11770606 0.08889646
000370 3c ec 83 bd 65 94 9c 3d 14 97 0a 3d 98 fb 42 bc
       -0.064415425 0.076454915 0.033835486 -0.011900805
000380 90 79 20 be 97 b9 21 3d b4 71 a8 bd 55 17 38 bd
       -0.15671372 0.039483633 -0.08224812 -0.044944126
000390 1d c8 d0 3d e6 28 64 3d e6 78 12 be d7 f7 c2 bd
       0.101944186 0.055703066 -0.14303932 -0.09519928
0003a0 e3 98 67 be 78 09 0e bc 88 ad ed bc c6 14 35 3d
       -0.22616915 -0.00866925 -0.02901341 0.044209264
0003b0 55 ca 5e 3d 56 6e 21 3e a7 ea 08 3d f1 d0 f8 bd
       0.054392178 0.15764746 0.033426907 -0.121492274
0003c0 c6 6b 93 3c d6 e5 8e bd 1f de 75 be b8 59 a8 3d
       0.017995726 -0.069774315 -0.24010514 0.082202375
0003d0 3b 66 91 3d fa 76 8e be 37 47 24 bc c9 c0 a8 bd
       0.07099577 -0.27825147 -0.010026745 -0.08239896
0003e0 70 b4 14 be 4f 27 29 bd 97 b8 63 be 76 ee 78 3a
       -0.14521956 -0.041297253 -0.22238384 0.00094959827
0003f0 bb f9 95 3d d4 6d f8 bc 15 15 58 bd f1 43 bd bd
       0.07323023 -0.030325808 -0.05275448 -0.092414744

model/dense_4/MatMul;model/activation_4/Relu;model/dense_4/BiasAdd f4 [100]
000000 66 0f e3 3e c5 49 4f 41 b0 c4 d4 be 27 cc dc 3f
       0.44347686 12.95551 -0.4155631 1.7249802
000010 2a cd d3 c0 b1 70 c8 c0 1f 77 12 40 87 d7 4e 41
       -6.6187944 -6.2637563 2.2885206 12.927619
000020 3b e9 29 42 d9 3a 87 41 0e 15 cc c0 0e 53 43 c1
       42.477764 16.903734 -6.37757 -12.207777
000030 74 6e 60 42 4d 80 c0 41 b7 51 28 c1 fb bc b0 c1
       56.107864 24.062647 -10.51995 -22.092276
000040 a6 a3 de 3e 89 6a 3a c1 e0 69 91 41 00 5b 86 40
       0.4348423 -11.65101 18.176697 4.1986084
000050 73 e4 6a c1 1d 6b 83 bf 40 ea 07 41 f5 fd 80 41
       -14.680774 -1.0267063 8.49469 16.124002
000060 07 4e 22 42 91 9a 33 c0 cc 72 de 41 04 a7 cb 3e
       40.5762 -2.806309 27.806053 0.3977586
000070 46 3d fe 40 eb ea 77 c0 47 c8 9b 41 35 54 5d bf
       7.9449797 -3.8737133 19.472792 -0.86456615
000080 b7 15 f3 41 7a f4 11 41 de 57 c5 41 08 c4 08 c1
       30.385603 9.122187 24.667904 -8.547859
000090 6f 06 91 c1 88 c8 2f 41 df b7 07 42 16 9e 34 42
       -18.128141 10.986458 33.92956 45.15438
0000a0 7a 99 2c 42 76 13 af 3f 34 b5 de 3f 1f 9a 8a bf
       43.14988 1.3677814 1.7399049 -1.0828284
0000b0 c4 70 4e 42 7f a5 39 c1 dd 2c 76 c1 04 d6 b5 c1
       51.610123 -11.602904 -15.385953 -22.7295
0000c0 9a 3c 07 c2 c9 da f6 3f 86 66 37 42 d5 07 b2 41
       -33.80918 1.9285518 45.85012 22.253824
0000d0 7d fa 1c c0 58 45 a1 bf dc 55 0b 42 db 6c 31 41
       -2.4527886 -1.2599287 34.833847 11.089076
0000e0 64 66 bf 41 60 8d 21 41 6c b5 a2 41 43 66 b4 41
       23.924995 10.097015 20.338585 22.549932
0000f0 42 50 e2 c1 26 30 c2 41 5c 7d 88 c1 19 46 96 41
       -28.289188 24.27351 -17.06121 18.784227
000100 cf 03 17 41 8c b7 f7 41 63 43 18 c1 8c 83 9c 41
       9.43843 30.964622 -9.516452 19.564232
000110 f4 2f e0 41 23 f0 45 42 f5 3a ae c0 80 52 1c 42
       28.023415 49.48451 -5.444697 39.080566
000120 44 58 60 40 86 eb 40 c2 fe 0b 29 41 b9 ad 4a 42
       3.5053873 -48.230003 10.565428 50.66965
000130 5c b7 28 42 05 f7 64 c1 2e 80 e6 41 d5 fb 95 c1
       42.17906 -14.3103075 28.812588 -18.747965
000140 60 ce 0e 42 df 7f e8 41 0a 3e 9c 40 86 7a a0 c1
       35.701538 29.062437 4.882573 -20.059826
000150 5b e0 9b c0 2a c3 b3 c0 5a da b2 41 31 9c 29 40
       -4.871137 -5.6175737 22.356617 2.6501582
000160 71 fd 26 41 6e 9a 00 41 d9 fe 87 c1 9a 4d 04 42
       10.436875 8.037703 -16.999437 33.075783
000170 82 5c 07 42 65 5a 93 40 db 4a 5c 42 e4 82 1b 42
       33.84034 4.6047845 55.0731 38.877823
000180 fc f0 52 40 1a 7b 6a c1 77 e3 20 42 68 12 a6 c0
       3.2959585 -14.655054 40.222134 -5.189747

model/batch_normalization_3/batchnorm/mul_1;model/batch_normalization_3/batchnorm/add_1;model/dense_4/MatMul;model/activation_4/Relu;model/dense_4/BiasAdd f4 [100, 100]
000000 09 cd 01 be 41 40 5c 3c 2c 7d aa 3c bb 43 41 be
       -0.12675871 0.013443054 0.02081164 -0.18873493
000010 e3 04 68 be e8 32 f4 3d 93 be 8c bd c6 40 de 3c
       -0.22658114 0.11923772 -0.06872287 0.027130496
000020 bc c7 4c be 44 a9 b5 3d 2d 6d f4 bb 42 90 f1 3d
       -0.19998068 0.088701755 -0.007459304 0.11795093
000030 db 9f 4e bd c5 46 49 3d 7b 64 bd 3d 07 b7 88 3d
       -0.05044542 0.049139757 0.09247681 0.06675535
000040 81 c6 43 3c 7e d9 1f bd 8b d6 15 be 72 4c 03 bb
       0.0119491825 -0.039025776 -0.14632623 -0.0020034579
000050 f8 15 35 3d 39 3f ff 3e 7a a8 17 3f e9 c8 2d 3e
       0.044210404 0.49852923 0.5924145 0.16971172
000060 91 41 aa bd 12 35 28 3d 39 33 1b 3e fa f4 92 3c
       -0.08313287 0.041066237 0.15156259 0.01793908
000070 6d bf e2 be 62 15 54 3b 00 48 3f bc 8b c9 88 be
       -0.4428667 0.0032361378 -0.011674881 -0.26716265
000080 7d a4 22 bb b6 f7 d1 bd 7e b7 0a 3d 4c 20 a7 3c
       -0.002481728 -0.10252325 0.033866398 0.020401143
000090 6a d4 53 3e c4 1a dd bd f1 1d 93 bd 94 15 0b 3c
       0.20686498 -0.10796121 -0.07183445 0.008489031
0000a0 9e 80 8b be 73 68 5a 3d 73 df e1 bb 39 ca 63 3d
       -0.27246565 0.053322267 -0.0068930923 0.055612776
0000b0 a1 19 e5 3d af 1d 6e 3d 24 82 37 3e 3c 47 92 bc
       0.11186529 0.058133777 0.17920738 -0.017856233
0000c0 ed 6e 95 3e 0a 03 27 3d 88 28 53 3d 3c be ce 3d
       0.29186192 0.040774383 0.051552325 0.10094878
0000d0 ba 14 73 3e 68 9d 21 3d c0 0b 05 3d 2c 40 2a 3e
       0.23738375 0.039456755 0.03248191 0.16626042
0000e0 83 63 4f bd c3 95 95 3d e4 b6 1a 3d ef 8d 24 3e
       -0.05063201 0.073039554 0.037772074 0.16069768
0000f0 39 7b a6 be a5 e2 9e bc 3f 98 91 3c 23 09 ee 3c
       -0.32515886 -0.019395182 0.017772792 0.029057091
000100 20 12 4f bd 48 a0 5a bd ff b7 05 3e 94 84 a3 3c
       -0.050554395 -0.053375512 0.1305847 0.01996068
000110 3d 07 5d 3d cc b0 b9 3d 95 2b 30 bd 80 05 c4 3c
       0.05396198 0.090669245 -0.043010313 0.023928404
000120 f6 f3 30 3e ca 4e 45 bd 51 44 2f bd 13 c0 bd bd
       0.17280564 -0.048170842 -0.04278976 -0.09265151
000130 5d 66 41 be 1d a7 09 3d 2a fd 55 3b 6c b7 d2 3c
       -0.18886705 0.033606637 0.0032652118 0.025722228
000140 3b 07 e5 3d 49 23 8d bd 94 f1 14 3e f0 de ab bd
       0.1118302 -0.06891496 0.1454528 -0.08392131
000150 c2 c3 34 3d 9e 4f 27 3d 90 aa d9 bd 6d 34 db 3d
       0.044132 0.040847413 -0.10628235 0.10703359
000160 83 bc c7 bc 8d 68 09 bd 40 30 71 bd 24 f0 c0 3d
       -0.024381882 -0.033546973 -0.058883905 0.09420803
000170 e5 8f 43 3e b0 ec 78 3d 66 bd c4 be c1 10 5d 3b
       0.1909786 0.060772598 -0.3842575 0.003373191
000180 ef 81 06 3e b2 aa a5 3d 22 74 bf bc 89 44 a2 3d
       0.13135503 0.08089198 -0.023370806 0.07923228
000190 4e 2b b3 3d 00 6e 17 3d f7 b4 51 bc 6b b7 ff 3d
       0.08748494 0.03697014 -0.012799493 0.12486156
0001a0 af b4 b3 bd 34 57 5b bd 4e f5 11 3d 59 b4 6f 3e
       -0.08774697 -0.05354996 0.03563433 0.23408641
0001b0 d6 c1 88 be 06 e3 d6 3c 1f a1 94 bc 87 da 31 3e
       -0.26710385 0.0262313 -0.018143235 0.17368518
0001c0 79 c2 51 bd 61 4e 70 bd 92 53 e3 3d 27 81 9c 3d
       -0.051210854 -0.058668498 0.11099924 0.07641821
0001d0 1f 4b 65 3d 9c 28 02 bd b0 e0 af 3d 0b 9a 03 bf
       0.055979844 -0.03177701 0.085877776 -0.51406926
0001e0 e9 57 4f bc 3f cf 09 be ba 7a 50 bd 32 b7 44 3e
       -0.012655237 -0.13457964 -0.05089829 0.19210508
0001f0 92 d7 26 be ac e6 02 3d f9 89 36 be 94 2d c5 3b
       -0.16293171 0.031958267 -0.1782607 0.006017396
000200 d8 51 88 3d 18 bf 6f 3e d9 9a ad 3c a0 9b d4 bd
       0.066562355 0.2341274 0.021192001 -0.103812456
000210 36 59 ab bc 34 14 5c bd bb 3c 4e 3e e8 19 c2 bc
       -0.020916563 -0.053730205 0.20140354 -0.023693994
000220 41 ac 95 3d c4 65 a3 bc 30 a0 79 3d 96 fb a5 3d
       0.073082455 -0.019945987 0.060943782 0.08104627
000230 01 03 ae 3d 75 08 37 be 12 a5 b0 bc 7d b8 19 bd
       0.08496667 -0.1787432 -0.021563087 -0.037529457
000240 71 44 df 3d 48 cb b8 bc 83 34 1d 3e 15 2f 53 bd
       0.10901726 -0.02255787 0.15352063 -0.051558573
000250 03 ef d1 bd 44 26 98 3d b9 7a b9 bb 07 57 8b 3e
       -0.10250666 0.074291736 -0.0056603816 0.27214834
000260 25 fe 16 be a2 e4 15 3e 4b 43 48 bc 55 5a c0 bc
       -0.14745386 0.14637998 -0.012223075 -0.023480574
000270 78 7c b7 bd 51 48 c5 bd c5 a1 43 bd 4e 57 91 be
       -0.089592874 -0.09632934 -0.047761697 -0.2838692
000280 78 ae fb 3d b4 d9 f6 bc ec bf ea bd 69 1b b6 3c
       0.12289137 -0.030133106 -0.114623874 0.022229867
000290 59 84 2c 3e 25 91 96 bd 59 b1 87 bd 80 f1 63 3d
       0.16847362 -0.07351903 -0.06625623 0.055650234
0002a0 1c b8 76 3e c7 59 1f 3e bc 2d b2 bd 4c a0 25 bf
       0.2409367 0.15561591 -0.087001294 -0.6469772
0002b0 83 40 91 be cb 63 d5 3d 2c 7f 68 bd 61 d9 11 bd
       -0.2836953 0.104194246 -0.056761906 -0.0356077
0002c0 26 f2 0e be 53 48 55 3e 41 ee 1c 3d 43 b6 b6 3c
       -0.1395956 0.20828371 0.038313154 0.022303706
0002d0 f7 d4 83 bd cf 62 0e 3d 40 b5 82 be 23 c5 e1 bd
       -0.06437104 0.0347622 -0.25528908 -0.11023929
0002e0 ee 91 bd bd 8d d6 2d be 6e d9 32 3e ec 5f 85 bf
       -0.092563495 -0.16976376 0.17465755 -1.0419898
0002f0 d7 0c d8 3b c3 e6 11 3d 51 94 ab 3d 3c 55 24 be
       0.0065933275 0.035620462 0.083778985 -0.1604814
000300 df 78 1d be 6f 56 4f 3d d5 2a 9d bc 42 c9 76 3a
       -0.1537814 0.05061954 -0.019185463 0.0009414145
000310 2e 49 bd 3e 11 f9 a8 3d 5f cc b6 bb 2d 73 1b 3e
       0.36969894 0.08250631 -0.005578562 0.15180655
000320 25 77 9e bd a9 0e 90 3e a6 5e bb 3e 15 72 3c 3e
       -0.07737569 0.28136185 0.3659565 0.18402894
000330 b5 fe dc 3d 63 5c 9a bd 7e 80 e0 3c 9f 34 45 3d
       0.10790769 -0.075371526 0.02740502 0.048145887
000340 bc 10 7f bd 44 9d 60 bd 69 f1 4a be 1c f6 56 3e
       -0.06227182 -0.05483748 -0.19818653 0.20992321
000350 36 5f 1d 3e 93 6d 60 3d e9 16 46 bd be 7f 06 3d
       0.15368351 0.054791998 -0.048361693 0.03283667
000360 a7 5a 88 3d 40 5c 6b 3e 77 3d 99 3d db 18 d6 3d
       0.066579156 0.2298441 0.074824266 0.104539596
000370 a6 7a b0 3d 74 d1 c8 3c 8a 9d 8c ba 30 90 a0 3c
       0.08617143 0.024513938 -0.0010728103 0.019600004
000380 4e 25 84 bd ab 11 78 be 0e 55 1f 3e 5c e9 9b bd
       -0.06452428 -0.2422549 0.1555979 -0.07612869
000390 65 c8 bf 3b a1 72 10 3e 3b e9 08 bb b1 dd 29 3c
       0.0058527463 0.14106227 -0.002089097 0.010367797
0003a0 7c 25 2e be 0f d3 e1 3d 94 6d 4f bd f3 46 20 be
       -0.17006487 0.11026584 -0.05064161 -0.15652065
0003b0 9f 43 07 3e e6 9e 5d bc c2 cb 1a be c8 55 22 bd
       0.13209389 -0.013526654 -0.1511679 -0.03963259
0003c0 36 6f b7 bd 55 6b e9 bd bc fd 28 be 67 fe 0a 3d
       -0.08956759 -0.11397425 -0.16503042 0.033934023
0003d0 73 fb 96 3b a5 45 ab bb 6d 9d 51 bc d9 60 fd bc
       0.004607612 -0.005226808 -0.012793881 -0.03092997
0003e0 89 fd 1e 3e 6c 2d e5 bd 33 37 22 bd f7 6e 1a be
       0.15526403 -0.11190304 -0.039603423 -0.15081392
0003f0 61 dd 3d 3c 4a c1 1b 3e c3 c6 10 3d f7 0b 8f 3d
       0.011588425 0.15210453 0.035345804 0.06984704

model/dense_5/MatMul;model/activation_5/Relu;model/dense_5/BiasAdd f4 [100]
000000 11 3e ff 40 bd 03 39 42 e5 38 28 c1 cb e1 16 40
       7.9763265 46.25365 -10.51389 2.3575313
000010 6e 72 06 42 06 2f c9 c0 b4 26 28 42 d3 50 90 41
       33.611748 -6.28699 42.037796 18.039465
000020 b7 b3 8b 40 45 53 11 40 98 b6 ff 41 35 aa 12 bf
       4.365688 2.2707074 31.964157 -0.57290965
000030 d5 3e 1b 41 ed ff 00 42 e0 48 fb c1 3f 43 dc 41
       9.70284 32.249928 -31.410583 27.532835
000040 a3 e0 7b c1 cc ac 71 41 37 9e 96 41 b7 30 bf c1
       -15.742343 15.104687 18.827253 -23.898787
000050 08 10 92 42 73 4a 73 c1 1f 52 b5 41 f8 c6 1a 42
       73.03131 -15.205676 22.665098 38.694305
000060 04 22 f9 41 9a 26 2b 41 50 b5 08 c0 0b 58 2c 3e
       31.14161 10.696924 -2.1360664 0.1683046
000070 cd 41 4b 41 3a b1 54 41 1a c9 88 c1 5b f6 e3 40
       12.703565 13.293268 -17.098194 7.1238227
000080 8f 01 87 c1 45 3c dc c1 08 ad 96 40 64 de 0b 42
       -16.875761 -27.529428 4.708622 34.96718
000090 b3 c8 b8 41 83 3d 18 42 f3 c1 14 40 62 eb 06 c2
       23.097998 38.06007 2.3243377 -33.729866
0000a0 80 9d e5 41 17 4c ec c1 c8 56 9c 41 64 b7 9b 41
       28.701904 -29.537153 19.542374 19.464546
0000b0 88 ff 81 41 af 8a e2 c1 4d fe 17 41 ba cb 68 41
       16.249771 -28.317717 9.499585 14.549738
0000c0 70 d3 27 c2 68 2a 06 42 68 eb e0 3f ea 79 da 41
       -41.956482 33.541412 1.757184 27.309528
0000d0 e0 1e e8 c1 54 0c c0 c0 70 81 3e 41 b1 e1 a2 40
       -29.015076 -6.001505 11.906601 5.09005
0000e0 7e 92 0d 41 82 10 7e 41 61 73 0d 40 78 94 36 42
       8.848265 15.87903 2.2101672 45.64499
0000f0 63 a7 b1 41 42 36 9b 40 4b d0 31 42 a4 e8 f6 41
       22.206732 4.8503733 44.45341 30.863594
000100 d5 8d a9 c0 a2 73 e2 41 83 3d be c0 28 20 5b c1
       -5.2985635 28.306461 -5.9450088 -13.695351
000110 78 01 e3 c0 64 df 0e 41 92 82 cf c1 5f 28 c3 41
       -7.0939293 8.929539 -25.938755 24.394712
000120 e0 33 19 42 c6 bc ea 41 2d 62 a6 c1 3f 31 cb 3f
       38.30066 29.342175 -20.797937 1.5874404
000130 7b 3e 8c 41 a5 97 8a c1 39 00 36 40 98 07 69 c2
       17.530508 -17.324045 2.8437636 -58.257416
000140 0a 53 8c 42 4e 73 de c1 dc 4d cc 41 31 59 e6 41
       70.162186 -27.806301 25.538017 28.79355
000150 c0 4d d2 c0 2e 36 ef 41 7f 5a 9e c0 75 71 5c 41
       -6.571991 29.901455 -4.948547 13.777699
000160 48 5d 03 c1 02 a8 52 40 a4 3e 33 c1 67 1f a7 41
       -8.210274 3.2915044 -11.202793 20.890333
000170 e4 d8 8c be d2 99 4b c1 a2 71 8a c0 2f c7 7c 40
       -0.27509224 -12.725054 -4.326371 3.9496572
000180 76 5c e7 41 3a c9 a7 40 c2 9c 29 41 44 23 4f 41
       28.920147 5.243314 10.600771 12.94611

model/batch_normalization_4/batchnorm/mul_1;model/batch_normalization_4/batchnorm/add_1;model/dense_5/MatMul;model/activation_5/Relu;model/dense_5/BiasAdd f4 [100, 100]
000000 6b 2b eb 3a fc e5 b6 3d db 53 40 bb ce a9 9b 3d
       0.0017942017 0.08930585 -0.0029346857 0.07600747
000010 fc 05 6b 3d 45 25 f0 3e 3a 80 8e 3c 39 c9 61 be
       0.057378754 0.46903434 0.017395128 -0.22049417
000020 ad c8 73 3e 26 3e 05 be 8b 69 b3 bf 31 69 8d bf
       0.2380702 -0.13011989 -1.4016584 -1.1047727
000030 5d fe c0 3d d2 3e 83 bd 18 ff 04 bd f1 c4 51 3e
       0.09423516 -0.064084664 -0.03246984 0.20485283
000040 0b 4a 81 be 84 61 ed bd ab 25 17 3e 93 a9 58 bd
       -0.25251803 -0.11590865 0.14760463 -0.052896094
000050 29 b1 9e 3d e3 74 a3 3c ce a2 ce bd 70 bc f1 bd
       0.07748634 0.019953197 -0.10089646 -0.1180352
000060 3b 98 83 bd 45 eb 5e 3d 02 d9 27 3d a1 1b 31 3d
       -0.0642552 0.05442359 0.04097844 0.04323924
000070 70 fb 4c 3e 57 8a 7a 3d 2a c8 80 3c c4 56 4a bd
       0.20017791 0.061167087 0.015720446 -0.049399152
000080 84 21 a6 bc ce c5 b9 3c 36 4d 61 be fe 1f 0c be
       -0.020279653 0.022677328 -0.2200211 -0.13684079
000090 47 16 94 bc 56 2e ea bd d8 40 8f bd 3b bf 49 3d
       -0.018077029 -0.11434619 -0.0699479 0.049254637
0000a0 6a 57 c1 3d 2c 92 d3 3d 72 5e 26 be 27 c2 0c bd
       0.09440501 0.103306144 -0.16246966 -0.034364846
0000b0 c7 41 ab 3c e0 24 d0 3d cd 75 06 be 52 a9 0b 3d
       0.020905389 0.10163283 -0.13130875 0.034097023
0000c0 a6 24 79 3c 31 b1 c1 bc 3f af de 3d d3 14 4b 3c
       0.015206492 -0.023644062 0.10873269 0.012395102
0000d0 f0 d9 99 3e c4 f7 6f 3d c0 60 48 bd 92 6e 4e 3e
       0.30049086 0.058585897 -0.048920393 0.20159367
0000e0 82 aa 8d bc 92 04 bc be 0d 16 6b be 98 7e dc 3d
       -0.017293219 -0.36722237 -0.2295763 0.10766333
0000f0 87 2e d2 3d 61 16 84 ba e6 25 5d 3c 1e 6c 67 3e
       0.10262781 -0.001007747 0.013497805 0.22599837
000100 c4 27 36 3d 45 67 40 bd f4 06 dd be 51 b9 44 bc
       0.044471517 -0.046973485 -0.43169367 -0.0120070735
000110 30 73 41 bd a8 bf af be b3 a5 a3 bc 13 86 8d bd
       -0.047228992 -0.3432591 -0.019976472 -0.06910338
000120 d4 6b a3 bd 5b 6d 2d 3d e1 a3 81 bb 05 09 88 bd
       -0.07979551 0.042340618 -0.0039563035 -0.06642345
000130 f6 ff 23 b9 1b 31 8d 3c 5a 42 c5 3e ef 7d 21 3e
       -0.00015640244 0.01723533 0.38527185 0.15770696
000140 f7 33 e6 bd 1d fd d4 bd 73 c1 68 be c3 ff be 3e
       -0.1124038 -0.1039984 -0.22730045 0.37304506
000150 f7 e6 8a be 6b 1b b9 3d 34 44 32 3d 58 03 af bc
       -0.27129337 0.09038433 0.043522075 -0.0213639
000160 60 0d 66 be 95 1c 0b be 8a 61 f4 bd 57 3e 8e 3c
       -0.2246604 -0.13585122 -0.119326666 0.01736371
000170 32 10 dc 3d ff 1e 46 3c 49 58 58 3e e1 75 23 3d
       0.107452765 0.012092351 0.21127428 0.03990734
000180 73 33 f6 bd ec e4 1e be 62 9e 36 3b 9a 59 da bc
       -0.12021532 -0.15517014 0.00278654 -0.026654053
000190 64 dd 17 bd 8b da 33 bd 09 0e d5 bd a8 f9 18 bf
       -0.03707637 -0.04390959 -0.104030676 -0.59755945
0001a0 32 5b ab bd e8 b4 48 3f 00 f1 f7 3b d6 7e a9 be
       -0.083670035 0.7840104 0.0075665712 -0.3310458
0001b0 05 a4 69 bb 32 2e 69 3e cb e6 d1 3e 78 e2 a6 3e
       -0.0035650742 0.22771528 0.40996394 0.32594657
0001c0 cc 9e 91 b7 99 8e 78 3d 3a 83 ac 3e 2e 21 f9 bc
       -1.7359293e-05 0.060682867 0.33693868 -0.03041133
0001d0 ba f9 05 bf de 9f 2d bf 4f 11 48 3e 86 3a 26 3d
       -0.5233418 -0.6782206 0.19537853 0.040583156
0001e0 15 fc 43 be e3 a2 14 be c1 77 01 bd 8a 83 fc 3c
       -0.1913913 -0.14515261 -0.031608347 0.030824441
0001f0 c0 84 fa bc ab bf 30 bc f2 f7 1f 3d ea b5 0c be
       -0.030580878 -0.010787885 0.03905482 -0.1374127
000200 c1 e3 99 bc 32 e3 e2 bd 61 d9 08 be c8 9f c8 3d
       -0.01878536 -0.1107849 -0.13364173 0.09796101
000210 7a 81 f8 3d 49 98 5d 3d 4a 40 8e bd c6 b8 89 be
       0.12134071 0.05410031 -0.06945856 -0.26898783
000220 7c 1c f2 be 0a 6c 23 bc d5 18 47 3e 65 75 46 3c
       -0.47287357 -0.009974489 0.19443066 0.01211295
000230 d9 d7 68 bc 34 e3 25 be e9 07 fa 3d 13 de b4 3c
       -0.014211618 -0.16199952 0.1220854 0.02207855
000240 83 cd 34 3d 2f 42 17 bf 7a 80 cb 3c c1 1d 9e be
       0.044141304 -0.59085363 0.024841536 -0.30882075
000250 f5 8e fa bc ed f1 39 3e 00 f1 34 3d 49 ff 17 3d
       -0.030585745 0.18158694 0.044175148 0.037108693
000260 3e 04 9a be d1 a8 bb bd de 8a a9 bd fe 78 05 bd
       -0.30081362 -0.091630585 -0.0827844 -0.03258609
000270 5d 96 b6 3d cb 22 24 bd 56 86 af bd f2 7e 94 3d
       0.08915398 -0.040072244 -0.085705444 0.072507754
000280 0d 36 a4 bd eb 7c d9 3c b1 01 99 3d 35 5b df bd
       -0.08018122 0.026548823 0.07471026 -0.10906068
000290 0f c0 8a bd 05 2c fb bd a2 d2 da be c5 48 0a bd
       -0.067749135 -0.122642554 -0.42738825 -0.033760805
0002a0 98 13 ae bc e9 5a bd bd 43 c2 04 bf db e4 c3 bd
       -0.021249577 -0.09245855 -0.5185892 -0.09565135
0002b0 b0 2b 97 bd d6 d1 77 bc cd 72 08 be a4 0d e2 bb
       -0.073813796 -0.015125712 -0.13325043 -0.0068985987
0002c0 ee 21 1c bd 65 65 ef bd fa 16 69 be 65 3f c1 3d
       -0.038118295 -0.11689261 -0.22762671 0.0943592
0002d0 10 09 92 3d 98 af ee bc 4a 3a 7a bd fd 08 29 3d
       0.07130635 -0.029136464 -0.061090745 0.041268338
0002e0 57 80 a4 be bf a3 05 be 79 b0 a8 b9 10 2b 35 bd
       -0.32129166 -0.13050745 -0.0003217494 -0.04423052
0002f0 eb 15 61 3c 4f 7e c6 3d d4 5b c4 bd e4 9c 4b be
       0.013738136 0.0969206 -0.09587827 -0.19884068
000300 8d 66 c5 39 7d 58 40 bd 3e 1c 4e bd a1 3f 09 be
       0.00037651174 -0.04695939 -0.050319903 -0.13403179
000310 23 9f ea bd 81 db ce 3b 31 63 92 bd b1 8b d7 be
       -0.11456134 0.006312788 -0.071478255 -0.42098764
000320 5c 30 b8 3d 6d b8 be 3d 91 5a 8c 3d 40 29 e3 3d
       0.08993599 0.0931252 0.06853212 0.11091852
000330 02 92 d4 bc c1 92 c6 bd 0b 56 f4 bc 93 f5 f7 3d
       -0.025948528 -0.0969596 -0.029826185 0.121073864
000340 4c a9 16 3b 65 ad 18 be 5c f0 10 be 70 b5 1b be
       0.0022989092 -0.14909895 -0.1415419 -0.15205932
000350 26 94 92 3d 9e f9 9e be 25 7c 7c 3d 7a 1b b2 bb
       0.07157163 -0.31049818 0.06164183 -0.0054354044
000360 1c 17 9f 3c 21 31 a5 bd 69 e5 9d bd 22 5f 6e 3e
       0.0194202 -0.08066011 -0.07709772 0.23278478
000370 df 29 44 3d dd aa 8e 3d 6a 2c e1 3c 66 85 5a 3d
       0.047891494 0.06966183 0.027486999 0.053349875
000380 7d 17 4b bd bb a3 06 bd 10 06 39 3d 86 96 d6 bd
       -0.049582947 -0.03287099 0.045171797 -0.10477929
000390 88 69 4e 3e db 50 33 bd b3 24 8e 3d 9e bf 95 bd
       0.20157444 -0.04377828 0.069405936 -0.07311939
0003a0 97 ce d2 bc 0a c1 89 bc f2 ee 53 3d 0d 83 0a 3d
       -0.025733275 -0.016815681 0.051741548 0.033816386
0003b0 dd 8a 97 3d d8 a9 c8 bd e2 ef 84 3d b4 81 94 3b
       0.07399533 -0.0979802 0.064910665 0.0045320634
0003c0 5d c4 9b 3d 71 02 04 3d 55 e4 a1 bc 65 c0 9e bd
       0.07605813 0.03222889 -0.019762198 -0.0775154
0003d0 86 06 12 bb 6f 55 0b bd 3c c3 17 3d 3b 18 75 bd
       -0.002228172 -0.034017023 0.037051424 -0.05983756
0003e0 01 2d 44 bd 6a 6e 91 bf 7d 0e 98 3f 90 23 aa bd
       -0.04789448 -1.1361821 1.1879421 -0.08307564
0003f0 65 f5 07 be 69 29 90 3d 9d 7b 0e be 73 3a 86 3c
       -0.13277204 0.07039148 -0.13914342 0.016385293
