corintho_ai/rating/tflite_models/model_64.tflite (tflite, 521576 bytes, 27 tensors)

model/dense_1/MatMul;model/activation_1/Relu;model/dense_1/BiasAdd f4 [100]
0	0xc1b78c67	-22.943556
1	0x4314bc3e	148.73532
2	0xc2857464	-66.727325
3	0x409e66a0	4.9500275
4	0x428978d4	68.73599
5	0x42374b43	45.823498
6	0x42a86dcc	84.21445
7	0xc1f049a3	-30.035955
8	0xc23ff3c4	-47.988052
9	0x40343718	2.8158627
10	0xc0cbaf13	-6.3651214
11	0xc262caeb	-56.698162
12	0x41b7f3e3	22.994085
13	0xc2444e15	-49.076252
14	0xc0f46206	-7.6369658
15	0xc293437b	-73.6318
16	0x42171b65	37.776752
17	0x415732c9	13.449899
18	0xc140fc34	-12.061573
19	0x4048e79a	3.1391358
20	0x416bf5f7	14.74755
21	0xbebb14a4	-0.36539185
22	0x41255cbc	10.33514
23	0xc27a034a	-62.503212
24	0x42a63112	83.09584
25	0x412cf860	10.810638
26	0xbd846486	-0.06464486
27	0xc0fd2a7b	-7.9114356
28	0xc2917822	-72.734634
29	0x4238911f	46.14172
30	0xc229c7f2	-42.44526
31	0x41352cbc	11.3234215
32	0x42169008	37.640656
33	0xc227f51b	-41.98936
34	0x429aef65	77.46757
35	0x427941d6	62.314293
36	0x415fd5dc	13.989712
37	0xc2072066	-33.78164
38	0x41ae2c6b	21.771688
39	0x420cf3cf	35.238094
40	0x429ca6e1	78.325935
41	0xc1c9c15e	-25.219418
42	0xc2545df9	-53.09177
43	0xc010bee7	-2.2616518
44	0x416239c8	14.139107
45	0xc1f6813c	-30.813103
46	0x3ffa7e8b	1.9569868
47	0xc20d5325	-35.331196
48	0xc1853e73	-16.655493
49	0xc10a0cf3	-8.628161
50	0x41d9abfa	27.208973
51	0xc271a6ce	-60.412895
52	0x4154cfb2	13.300707
53	0x4315e6d3	149.90166
54	0xc0c28352	-6.0785303
55	0x41e7a790	28.956818
56	0x41504542	13.016909
57	0xc1b54d6c	-22.662804
58	0x41db8fdf	27.44525
59	0xc137406e	-11.45323
60	0x41bf0a01	23.879885
61	0x429b8baa	77.77278
62	0xc09aa334	-4.8324223
63	0x421822a1	38.033817
64	0x425b0892	54.75837
65	0x42b6c3c3	91.38235
66	0x430480ab	132.50261
67	0x41400665	12.001561
68	0xc1d28a44	-26.317513
69	0xc2cc6fc9	-102.21833
70	0xc20067d6	-32.101402
71	0xc20c0926	-35.008934
72	0xc12e84bc	-10.907406
73	0x42f65d39	123.182076
74	0xc125bdf7	-10.358878
75	0x42a1cb05	80.89652
76	0xc0b10019	-5.531262
77	0x41178ae8	9.471413
78	0xc302b6cd	-130.71407
79	0xc102498e	-8.142958
80	0x41c2f2f1	24.368624
81	0x4235a235	45.408405
82	0x419f1a62	19.887882
83	0xc1ece62b	-29.612387
84	0x40eede17	7.4646106
85	0x42a4ace6	82.33769
86	0x42271d28	41.778473
87	0xc1cbe7d8	-25.488205
88	0x42b5c102	90.87697
89	0x421fe1cf	39.970516
90	0x42d49200	106.28516
91	0x4179f194	15.621479
92	0x428ae3be	69.44481
93	0x4107c5c2	8.485781
94	0x41a01ccb	20.01406
95	0xc0a9d3c3	-5.3071
96	0x431d4f0e	157.3088
97	0x420dc743	35.44459
98	0x41834164	16.406929
99	0xc2b04018	-88.12518

model/batch_normalization/batchnorm/mul_1;model/batch_normalization/batchnorm/add_1;model/dense_1/MatMul;model/activation_1/Relu;model/dense_1/BiasAdd f4 [100, 100]
0	0x3e33c680	0.1755619
1	0xbf30d9e8	-0.690825
2	0x3ec0969b	0.37614903
3	0x3dd3b689	0.1033755
4	0x3fbe77d3	1.4880317
5	0x3e856787	0.26055548
6	0xbf81ae3e	-1.01313
7	0xbf8182c8	-1.0118036
8	0x3e0e0d33	0.13872223
9	0x3f209338	0.6272464
10	0x3f0153c2	0.5051843
11	0x3de181e6	0.11011104
12	0x3e885a74	0.2663151
13	0x3c005b1e	0.007834224
14	0xbf264c04	-0.6495974
15	0x38a51093	7.8709e-05
16	0x3dd60ab4	0.1045126
17	0xbfc9166a	-1.5709965
18	0x3e97e8dd	0.29669848
19	0xbeee2433	-0.46511993
20	0xbe23e075	-0.16003592
21	0x4088af6c	4.271414
22	0xbd92bce1	-0.07164932
23	0xbc334530	-0.010941789
24	0xbdf4486e	-0.11927877
25	0x3e415fa6	0.18884143
26	0xbda60196	-0.08105771
27	0xbf8b1c6a	-1.0868046
28	0x3e1ae991	0.15128161
29	0xbe90e819	-0.28302076
30	0xbcf12071	-0.029434415
31	0x3f27e98b	0.65590733
32	0x3d93c7e0	0.072158575
33	0xbf0a243f	-0.5396156
34	0x3d420ab9	0.047373507
35	0xbdb1fa1e	-0.08690284
36	0xbe375eff	-0.17907332
37	0xbe3bab2a	-0.18327013
38	0xbd101132	-0.03517265
39	0x3e27e5f1	0.1639631
40	0x3ed5979e	0.41717237
41	0x3f9967dc	1.198482
42	0x3ed6bcb4	0.41940844
43	0x3e62ab74	0.22135717
44	0xbe8136c0	-0.25237083
45	0xbe16a6f0	-0.14712119
46	0x3e9fc5c8	0.31205583
47	0xbd355c4d	-0.044277478
48	0x3f33eb43	0.70280856
49	0x3e2cbb6b	0.1686837
50	0x3c63dd23	0.013907704
51	0xbfd55291	-1.6665822
52	0x3f45f7a1	0.77330977
53	0x40a6a282	5.2073374
54	0x3e67793b	0.2260484
55	0xbd3a5646	-0.045492433
56	0xbd9fbbb4	-0.077994734
57	0x3ec9d004	0.39416516
58	0x3fc27abf	1.5193709
59	0x3f0d6547	0.5523266
60	0x3ecd3fef	0.4008784
61	0xbdf73a22	-0.12071635
62	0x3e0a3245	0.13495739
63	0xbf65335d	-0.895315
64	0x3eaacf02	0.3336106
65	0xbee2ea6d	-0.44319478
66	0xbe1a8955	-0.1509145
67	0x3ec1c99e	0.37849134
68	0xbd5e961f	-0.054342385
69	0x3f5a8330	0.85356426
70	0x3f01bc8a	0.5067831
71	0xbe54a9b3	-0.2076786
72	0xbe215f22	-0.15758947
73	0xbd96b6df	-0.07359099
74	0x3f3b1f73	0.7309486
75	0xbf3a7fc2	-0.7285119
76	0xbf00ae35	-0.5026582
77	0x3cb7efba	0.022453178
78	0x3e1ea693	0.1549323
79	0x3eab3030	0.33435202
80	0xbf50bb27	-0.8153557
81	0x3e72d460	0.23713827
82	0xbe427ea6	-0.18993625
83	0xbd574aad	-0.05256145
84	0xbe90be7c	-0.28270328
85	0xbe80bcf6	-0.25144166
86	0xbe05a9ab	-0.13053004
87	0xbf7a94c2	-0.97883236
88	0xbddb7803	-0.1071625
89	0xbe455a78	-0.19272792
90	0xbf8db7ac	-1.1071677
91	0x3f896854	1.0734963
92	0x3e054818	0.13015783
93	0xbecec5b6	-0.40385216
94	0xbe1c2339	-0.15247811
95	0x3e57f3ac	0.21089047
96	0x3e836f9b	0.25671086
97	0xbe05c73a	-0.1306428
98	0xbec5e19c	-0.3864869
99	0xbe37a889	-0.17935385
100	0xbf7efb5d	-0.996023
101	0xbf91b456	-1.1383159
102	0xbec8e469	-0.39236763
103	0x3d9daf4e	0.07699452
104	0xbf9a6b0c	-1.2063918
105	0x4005cf9a	2.090796
106	0x3f2f136a	0.68389
107	0x3e64c9eb	0.2234265
108	0x3cdd1474	0.026987292
109	0xbf195017	-0.5988783
110	0x3e83fd07	0.25778982
111	0x3c796e89	0.015224108
112	0xbf99da6c	-1.2019782
113	0xbe1ef0bf	-0.15521525
114	0xbead478d	-0.3384365
115	0xbf4d56aa	-0.80210364
116	0x3dd8460b	0.10560235
117	0xbfd10885	-1.6330725
118	0xbf764047	-0.9619183
119	0x3b4e4b76	0.0031478084
120	0xbef6ba8c	-0.481892
121	0x3e9ec1f0	0.31007338
122	0xbdc1f93d	-0.094713666
123	0xbcb4a666	-0.022052001
124	0x3e15daa0	0.1463418
125	0xbd9e5740	-0.07731485
126	0xbeb6ad39	-0.35679033
127	0xbdeea721	-0.11652971
128	0xbe6f89bc	-0.23392385
129	0x3da3be2a	0.07995255
130	0x3d63db7a	0.05562923
131	0x3e8e221f	0.27760407
132	0x3d5ad50e	0.05342584
133	0xbbdeacf4	-0.00679552
134	0xbf080225	-0.5312827
135	0x3da0acb1	0.07845438
136	0xbecb2ec9	-0.39684132
137	0xbfedebc0	-1.858757
138	0xbf3c604e	-0.7358445
139	0xbf573f7a	-0.8408123
140	0x3e63c0d5	0.22241528
141	0xbedd40c1	-0.43213466
142	0xbf8071d4	-1.0034738
143	0xbe144289	-0.14478506
144	0xbe11ecb2	-0.14250448
145	0xbf8d595e	-1.1042898
146	0x3d882564	0.06647757
147	0x3dd79817	0.10527056
148	0xbe7eb4f6	-0.24873719
149	0x3ea9eae3	0.33187017
150	0x3dcc292b	0.0996879
151	0x3f987a34	1.1912293
152	0xbea4fd3a	-0.32224447
153	0x3f5be017	0.8588881
154	0x3c4f65f8	0.012658589
155	0xbea28e86	-0.31749362
156	0xbf1866e0	-0.59531975
157	0x3f8448d4	1.0334725
158	0x400ae448	2.1701832
159	0x3e1d63f1	0.15370156
160	0x3e2cecd5	0.16887219
161	0x3f15f91d	0.5858324
162	0x3d828322	0.06372668
163	0xbf618089	-0.88086754
164	0xbf66e8bd	-0.9019888
165	0xbeea04f9	-0.4570692
166	0x3e8e0672	0.27739292
167	0x3f635624	0.88803315
168	0xbeba8e49	-0.3643668
169	0xbe101787	-0.14071475
170	0xbbcc01f1	-0.0062258174
171	0x3ed2adf7	0.4114835
172	0x3e77a0c6	0.24182424
173	0x3e446866	0.1918045
174	0xbe789572	-0.24275759
175	0xbeed2325	-0.46315876
176	0xbf07d88d	-0.53064805
177	0xbf269f8a	-0.6508719
178	0x3f27bd91	0.6552363
179	0x3dbf0f8d	0.09329138
180	0x3daab6a4	0.08335617
181	0xbf86f227	-1.0542649
182	0x3f2c471a	0.6729599
183	0x3f50dec1	0.81589895
184	0xbe1e3f55	-0.15453847
185	0x3e5529aa	0.20816675
186	0x3ba585c6	0.0050513474
187	0x3e95377c	0.29143894
188	0x3e646867	0.22305451
189	0x3defb5da	0.11704607
190	0xbe904558	-0.28177905
191	0x3f627def	0.8847341
192	0xbefa3dab	-0.48875174
193	0xbf0bb7cc	-0.54577327
194	0xbf2cfaef	-0.67570394
195	0xbe1eee94	-0.15520698
196	0xbe852332	-0.26003414
197	0xbf3a13fc	-0.72686744
198	0xbf54495a	-0.82924426
199	0xbe293396	-0.16523585
200	0x3f6bdcb2	0.9213363
201	0xbf2317eb	-0.6370837
202	0xbb24da94	-0.0025154697
203	0x3e3c4c35	0.18388446
204	0x3f8459ee	1.0339944
205	0x3c725c5b	0.014792527
206	0x3f85a568	1.0441103
207	0xbfb503b2	-1.4141753
208	0xbf83f236	-1.0308292
209	0xbf33cb7f	-0.70232385
210	0xbdb837d9	-0.08995027
211	0x4006aa8b	2.104159
212	0xbd0f1ff3	-0.03494258
213	0x3d5a588e	0.05330711
214	0xbe7f4cbb	-0.24931614
215	0x3f0f9a25	0.5609458
216	0x3ea1405e	0.3149442
217	0xbf094e40	-0.53635025
218	0xbfa311a6	-1.2739761
219	0xbd06ecc9	-0.03294066
220	0xbdda6e28	-0.10665542
221	0xbf86f650	-1.0543919
222	0xbceca331	-0.02888641
223	0x3d8ac377	0.06775563
224	0x3c97dcb2	0.018537853
225	0xbd6d9f0e	-0.058013014
226	0xbf005804	-0.501343
227	0x3db77149	0.08957154
228	0x3f4d76eb	0.8025958
229	0x3ea37120	0.31922245
230	0x3f4f8b19	0.8107162
231	0x3f26f5bd	0.65218717
232	0xbdf5d5fc	-0.12003705
233	0x3eb924ea	0.36160976
234	0x3f386e8a	0.7204367
235	0x3abacd0e	0.0014251785
236	0xbe13c275	-0.14429648
237	0x3e05a042	0.13049415
238	0x3f14343f	0.5789222
239	0xbf69ad5f	-0.9128017
240	0x3e83295e	0.25617498
241	0xbdff1c10	-0.12456524
242	0x3f987418	1.1910429
243	0x3dc33e26	0.09533338
244	0x3e3d91bd	0.18512626
245	0xbfa049a4	-1.2522473
246	0x3f6ce432	0.925357
247	0x3dc365d9	0.0954091
248	0xbfc4199d	-1.5320317
249	0x3c594c2d	0.013262791
250	0x3e1e901c	0.15484661
251	0x3ee9540e	0.4557194
252	0xbef5497b	-0.47907624
253	0x3d29db95	0.041469175
254	0xbd8fd589	-0.070231505
255	0x3e9cdfea	0.30639583

model/dense_2/MatMul;model/activation_2/Relu;model/dense_2/BiasAdd f4 [100]
0	0x429302d4	73.50552
1	0xc2b401f9	-90.00385
2	0xc0a614b9	-5.1900296
3	0xc2853bb6	-66.61662
4	0xc14ffe2c	-12.999554
5	0x4190e02f	18.109465
6	0x41e0143c	28.00988
7	0x4209edcf	34.482235
8	0xc1901c91	-18.013948
9	0x40cd0a5d	6.407515
10	0xc115aa1b	-9.35403
11	0xc1652086	-14.32044
12	0xbf9db387	-1.2320412
13	0x41a4f2fa	20.61864
14	0xbfe1db54	-1.7645059
15	0xc29a185e	-77.04759
16	0xc2700622	-60.00599
17	0x418ac7b6	17.347515
18	0x40960760	4.6884003
19	0xc06d2062	-3.7051015
20	0x4280009e	64.001205
21	0x40c433e4	6.1313343
22	0x4203e0fc	32.96971
23	0x419a66ff	19.300291
24	0x3fbf06c1	1.4923936
25	0x41ac2ed2	21.522861
26	0xc047b788	-3.1205769
27	0x426b0bb8	58.761444
28	0xc1931376	-18.384502
29	0x415aa551	13.66536
30	0x40c8aa75	6.2708077
31	0x4180fbb7	16.122908
32	0x420af4d6	34.739098
33	0xc1872131	-16.891207
34	0x41cae7a9	25.363115
35	0xc270e2a2	-60.22132
36	0x42b7b4cf	91.85314
37	0xc1eca66c	-29.58126
38	0xc1dd14d1	-27.635164
39	0xc1b90dac	-23.131676
40	0xc1947742	-18.558231
41	0xc286c858	-67.3913
42	0xc0943a89	-4.6321454
43	0xc1ba1d77	-23.264387
44	0xc2330855	-44.758137
45	0x4230ec51	44.230778
46	0xc2017670	-32.36566
47	0xc18d4c33	-17.662207
48	0xc2168690	-37.63141
49	0x414ef689	12.935189
50	0x428cbc3f	70.36767
51	0x4292e893	73.45425
52	0x41a35434	20.416115
53	0x4078a6a7	3.8851717
54	0x40840ea4	4.126787
55	0x3fca655c	1.5812182
56	0x40cf42c7	6.4769015
57	0x427c01e8	63.00186
58	0x422f19f7	43.775356
59	0xc20a29f0	-34.540955
60	0xc1790e40	-15.565979
61	0xc11afb5d	-9.686368
62	0xc174999a	-15.2875
63	0x430a1923	138.09819
64	0x41c3d383	24.478277
65	0x4176f06c	15.433697
66	0xc286150a	-67.04109
67	0xc2450656	-49.256187
68	0x406b8d17	3.6804864
69	0x423b4484	46.81691
70	0xc321379d	-161.21724
71	0x41e5650b	28.674337
72	0xc17e5f04	-15.898197
73	0x418c80bc	17.562859
74	0xc261167f	-56.27197
75	0xc1ea149d	-29.260065
76	0x420fa2c7	35.908962
77	0xc20edfac	-35.71843
78	0xc1fc70ef	-31.555143
79	0x427009ee	60.009697
80	0x427bd031	62.953312
81	0x4258e882	54.22706
82	0x4257003a	53.75022
83	0x42011e77	32.27975
84	0xc14fa2c1	-12.977235
85	0xc2758e8d	-61.38921
86	0x3f3064ca	0.6890379
87	0x4241f7bf	48.49194
88	0x42102efc	36.045883
89	0x4201dff8	32.46872
90	0xc250669d	-52.10021
91	0x41ce8818	25.816452
92	0x41e3c76a	28.47237
93	0x41a8aa20	21.083069
94	0xc1c222c3	-24.266973
95	0x4287d09f	67.90746
96	0x42a0f113	80.47085
97	0x42440e62	49.014046
98	0x4125982f	10.349654
99	0xc1a17d83	-20.186285

model/batch_normalization_1/batchnorm/mul_1;model/batch_normalization_1/batchnorm/add_1;model/dense_2/MatMul;model/activation_2/Relu;model/dense_2/BiasAdd f4 [100, 100]
0	0xbd20fe9e	-0.039305322
1	0xbd5c191e	-0.05373489
2	0x3e9fc939	0.31208208
3	0x3d1fdc6d	0.039028574
4	0xbe5a197b	-0.21298783
5	0xbe1e7ade	-0.15476558
6	0x3e011f98	0.12609708
7	0xbd51a1ed	-0.051179815
8	0x3e563e75	0.20922263
9	0xbd324532	-0.04352302
10	0x3e051435	0.1299599
11	0x3e3cebed	0.18449374
12	0x3dcb1eef	0.099180095
13	0xbe241d9d	-0.16026922
14	0xbe6c30a6	-0.23065433
15	0x3da9cd10	0.08291066
16	0x3ba49120	0.005022183
17	0xbe683bad	-0.22679015
18	0x3e1c14e0	0.15242338
19	0x3ba6a26a	0.0050852792
20	0xbdec9c03	-0.115531944
21	0xbd3b872a	-0.0457832
22	0x3d5146b8	0.051092833
23	0x3deb47e7	0.11488324
24	0xbdeccf03	-0.11562922
25	0xbd3d0aed	-0.046152998
26	0xbcab1882	-0.02088571
27	0x3d09d7ee	0.033653192
28	0xbe19e951	-0.1503041
29	0xbdd24fbe	-0.10269116
30	0xbc8ea307	-0.017411722
31	0xbb928d12	-0.0044723833
32	0xbe87876b	-0.26470503
33	0x3d4610de	0.04835593
34	0xbd342ce5	-0.043988127
35	0x3e19c63b	0.15017025
36	0xbd5d8a94	-0.054087237
37	0x3d5b4129	0.05352894
38	0x3d642397	0.055698004
39	0xbdfe48b2	-0.12416209
40	0xbcf25d42	-0.029585484
41	0xbe3e444a	-0.18580738
42	0xbe9d0aa0	-0.3067217
43	0x3dc100e4	0.09423998
44	0x3d44b357	0.048022594
45	0xbcd6187d	-0.026134724
46	0xbde6face	-0.11278306
47	0xbdb3e76a	-0.08784373
48	0xbdc254a6	-0.09488802
49	0x3cc459b2	0.023968551
50	0x3da4274e	0.08015309
51	0x3d55213e	0.052033655
52	0xbb30df57	-0.002698859
53	0xbe6c6803	-0.23086552
54	0xbe0bb2d4	-0.13642436
55	0xbd3ccb8f	-0.046092566
56	0x3d11b66c	0.03557436
57	0x3d1d3f6c	0.038390562
58	0x3e4a48fd	0.19754405
59	0xbd65c6f0	-0.056097925
60	0x3e143441	0.14473058
61	0xbdd475c8	-0.103740275
62	0x3dc8610e	0.09784137
63	0xbe7cbba9	-0.24680962
64	0xbade5df6	-0.0016965258
65	0x3d5f8b96	0.05457648
66	0x3d96057a	0.07325263
67	0xbd075542	-0.033040293
68	0xbcb8cd4d	-0.022558833
69	0xbcd872ec	-0.026421987
70	0xbe7157cb	-0.23568647
71	0xbe227f66	-0.15868911
72	0xbbdb75db	-0.006697399
73	0xbd5eb3a9	-0.054370556
74	0xbe81e9ee	-0.25373787
75	0xbd9621e3	-0.07330682
76	0x3ddd1443	0.1079488
77	0xbca9475d	-0.020663911
78	0xbd810b20	-0.0630095
79	0xbe9d4230	-0.3071456
80	0x3da1ca65	0.07899932
81	0xbdc8261f	-0.09772896
82	0x3d8661cd	0.06561623
83	0x3d29668b	0.04135756
84	0xbd13638d	-0.03598361
85	0xbca7c9a9	-0.020481901
86	0x3db4b16b	0.08822902
87	0xbc2c4599	-0.01051464
88	0xbe0cdb78	-0.13755596
89	0x3d31a369	0.04336873
90	0x3d9b244e	0.07575284
91	0xbc96e46c	-0.018419467
92	0xbda4c009	-0.0804444
93	0xbe1f574c	-0.15560645
94	0xbe9e6aeb	-0.30940947
95	0x3e634c02	0.22196963
96	0x3e58bafa	0.21165076
97	0xbee7172d	-0.4513487
98	0x3daa70ab	0.08322271
99	0xbe8c8d0a	-0.27451354
100	0xbd986a36	-0.07442133
101	0x3d5f327c	0.054491505
102	0x3b338934	0.0027395012
103	0xbd7e0857	-0.062019672
104	0x3c293eae	0.010329885
105	0x3d6e9c67	0.058254626
106	0x3d8829b5	0.0664858
107	0x3c8d9d63	0.017286962
108	0x3d6ef9d7	0.058343735
109	0x3d70985b	0.058739047
110	0xbcecbaab	-0.028897604
111	0x3d41a918	0.0472804
112	0xbd0ab739	-0.03386614
113	0xbdb654b6	-0.08902876
114	0x3db27ec8	0.08715588
115	0x3d9ca00a	0.076477125
116	0xbb189903	-0.0023284561
117	0xbc6b9489	-0.014378675
118	0xbde1b3d3	-0.11020627
119	0x3d8c09b3	0.068377875
120	0xbe084f84	-0.13311583
121	0x3caf2391	0.021379264
122	0x3db2e1bb	0.08734461
123	0x3dc95376	0.09830372
124	0x3cc5c5ef	0.024142234
125	0x3cfb8fd3	0.03070823
126	0xbde62fbf	-0.112395756
127	0xbdc27550	-0.09495032
128	0x3d04283d	0.032264937
129	0xbd0a336c	-0.033740446
130	0x3e65c8c4	0.22439867
131	0x3e8e195b	0.2775372
132	0x3d9f24d0	0.07770693
133	0xbc52e8e8	-0.012872912
134	0x3da8e8c9	0.08247525
135	0xbbdedb3d	-0.0068010376
136	0xbc8b1f9d	-0.016982848
137	0x3dfdf365	0.123999394
138	0xbd4a37bc	-0.04936956
139	0x3cf4c8f6	0.029880982
140	0xbc597607	-0.013272769
141	0xbbe0ca71	-0.0068600704
142	0x3d0b7dc6	0.034055494
143	0xbbcbfbc5	-0.0062250816
144	0x3dd1b825	0.10240201
145	0x3d8d9043	0.06912281
146	0x3db3c947	0.08778625
147	0x3d463824	0.048393384
148	0x3da74c49	0.08168847
149	0x3d8e84be	0.06958912
150	0x3d8f6df0	0.07003391
151	0xbde5766c	-0.11204228
152	0x3e75e442	0.24012855
153	0x3f650d5b	0.89473504
154	0x3dac5f3a	0.084166005
155	0x3d971b90	0.07378304
156	0x3e1d16d6	0.15340742
157	0x3d07ac22	0.033123143
158	0x3c93cc06	0.018041622
159	0x3d12ae70	0.035810888
160	0x3d638bdf	0.055553313
161	0xbe05dac3	-0.13071732
162	0x3ea65a26	0.32490653
163	0x3d600363	0.05469073
164	0x3d4f8bbe	0.050670378
165	0x3daac069	0.083374806
166	0xbe2de585	-0.16982086
167	0xbcbda375	-0.023149231
168	0x3d1ba440	0.037998438
169	0xbd0112c9	-0.031512056
170	0xbdc076d4	-0.09397665
171	0x3cf6578a	0.030071039
172	0xbb8dc3cb	-0.004326319
173	0x3e90c2b5	0.2827355
174	0x3cce155e	0.025156673
175	0xbe082915	-0.13296922
176	0x3dbe8951	0.09303535
177	0x3dc2c7ac	0.09510741
178	0xbca066b2	-0.019580219
179	0xbe03cd97	-0.12871395
180	0x3d6518eb	0.055931967
181	0xbbb6edde	-0.005582555
182	0x3d0b48d3	0.034004997
183	0x3e2973fe	0.16548154
184	0x3c8cda2e	0.01719388
185	0xbc061d6f	-0.008185728
186	0xbd484a49	-0.04889897
187	0x3c2a7d35	0.010405828
188	0x3c8c8550	0.017153412
189	0x3dba1ac1	0.09087134
190	0x3eeb4c67	0.45956728
191	0x3d0fef95	0.035140593
192	0xbe529eb6	-0.20568356
193	0x3e10dd6a	0.14146963
194	0xb9b9639e	-0.0003536017
195	0xbdf0da61	-0.117604025
196	0xbe5c525a	-0.2151579
197	0xbcb4271c	-0.021991305
198	0xbe96f5dc	-0.2948445
199	0xbdf8cfeb	-0.12149032
200	0x3eabfc71	0.33591035
201	0x3e4480da	0.19189778
202	0xbd15814f	-0.03650027
203	0x3db22dd7	0.087001495
204	0x3bd8508e	0.0066013997
205	0x3c122a53	0.008921224
206	0x3d8837c8	0.066512644
207	0xbbffcfc8	-0.007806752
208	0xbd8c2117	-0.06842249
209	0x3e3d8cf7	0.18510805
210	0x3cbd152a	0.02308138
211	0x3d754417	0.05987939
212	0xbb8198b5	-0.0039549717
213	0xbdb9b45b	-0.09067603
214	0xbd14e9d3	-0.036355805
215	0xbe6657c7	-0.22494422
216	0x3d1af819	0.03783426
217	0x3d0c3502	0.03423024
218	0xbd90da72	-0.07072915
219	0x3dfd9761	0.12382389
220	0x3e2bd836	0.16781697
221	0xbb899ff3	-0.0041999756
222	0x3c9079d4	0.017636217
223	0x3bccef38	0.006254103
224	0xbd21e64a	-0.03952626
225	0xbdab9920	-0.08378816
226	0xbc1872a9	-0.009304681
227	0xbd28d451	-0.041218106
228	0x3d27c3bc	0.04095815
229	0xbb52aee2	-0.0032147695
230	0xbc9512c6	-0.018197428
231	0x3e047851	0.12936522
232	0xbdf2d59d	-0.1185715
233	0x3d61a52d	0.055089165
234	0xbe1727dc	-0.14761299
235	0xbd3899a2	-0.04506839
236	0x3d98d25c	0.07461998
237	0x3c100a54	0.008791525
238	0xbd051745	-0.032492895
239	0x3db67466	0.0890892
240	0x3d5aca62	0.053415664
241	0x3f145a37	0.57950157
242	0x3d6ebb66	0.058284186
243	0x3d5b224c	0.053499505
244	0x3e2b62e4	0.16736943
245	0x3d29c4df	0.041447517
246	0xbd194b9c	-0.037425622
247	0x3c8e89cc	0.017399691
248	0xbd96d6d8	-0.07365197
249	0x3d905ef2	0.070493594
250	0x3de02e22	0.10946299
251	0xbc4bab88	-0.012431033
252	0xbd0ed4bb	-0.034870844
253	0xbc54e27d	-0.012993452
254	0xbd82d010	-0.06387341
255	0xbc0f8654	-0.008760054

model/dense_3/MatMul;model/activation_3/Relu;model/dense_3/BiasAdd f4 [100]
0	0xc1ea36f5	-29.276834
1	0x424da5a5	51.411762
2	0x412d3a9f	10.826812
3	0xc0f34b06	-7.602908
4	0x415fbc31	13.983445
5	0xc18744bc	-16.908562
6	0xc08430ed	-4.1309724
7	0x418af9e1	17.372011
8	0x4243d9a1	48.96253
9	0x41b688c9	22.81679
10	0x42463443	49.551037
11	0x424de410	51.472717
12	0x4244492a	49.07145
13	0x40199224	2.3995447
14	0x4135d9cd	11.365674
15	0x40dbd691	6.869942
16	0xc114a7b2	-9.290941
17	0x41890e03	17.131842
18	0x4117d64f	9.489821
19	0xc0343dd6	-2.8162742
20	0x42009da4	32.153946
21	0xc105f309	-8.371835
22	0xbfef89f4	-1.8713975
23	0x42095c76	34.340294
24	0x42410819	48.257908
25	0x4274dfa8	61.218414
26	0x41ef6a6c	29.926964
27	0xc0e544c6	-7.164645
28	0xc13dbfa0	-11.859283
29	0xc2448b2e	-49.135918
30	0x41510de6	13.065893
31	0x41b25814	22.293007
32	0x41be1ce5	23.764109
33	0xc02ca072	-2.6972928
34	0x415281d6	13.156698
35	0x429185bc	72.7612
36	0xbf7586d5	-0.9590886
37	0x41c6320b	24.774435
38	0xc2241826	-41.023582
39	0x4135b7d2	11.357378
40	0x4218518a	38.079628
41	0x4225fa80	41.49463
42	0x424f1339	51.768772
43	0xc1e05cff	-28.045408
44	0x401850d2	2.3799329
45	0x40de33f8	6.943844
46	0xc1b74f33	-22.913671
47	0x409fb165	4.9904046
48	0x41d0555e	26.041683
49	0xbee3c16f	-0.44483516
50	0x4141b64c	12.107006
51	0xc20dfebf	-35.498775
52	0xc182606d	-16.297083
53	0xc209c00e	-34.437553
54	0xc1eac592	-29.34647
55	0x418084c0	16.06482
56	0xbfc2d4dd	-1.5221211
57	0xc18a294b	-17.270163
58	0x413f15e1	11.942842
59	0x41b06ec0	22.054077
60	0xc0a56677	-5.168758
61	0x40bb5901	5.8546147
62	0x4111f0eb	9.121318
63	0x41a1e63e	20.237423
64	0xc172fd76	-15.18688
65	0x40da3d11	6.8199544
66	0x4104401a	8.26565
67	0x3f8e8b02	1.1136172
68	0x41867a38	16.809677
69	0xc0426c1c	-3.0378485
70	0xc0651f74	-3.5800447
71	0x40f166c8	7.5437965
72	0xc01f8ef1	-2.4930995
73	0xc1f8a4d2	-31.080479
74	0x4210b64b	36.17802
75	0xc08494a7	-4.143146
76	0xc1b16516	-22.174358
77	0x414d24ef	12.821517
78	0x3ec40c02	0.3829041
79	0xc2276b91	-41.855045
80	0xc24433d5	-49.050617
81	0xbe2a41e7	-0.16626702
82	0xbf912c98	-1.1341734
83	0x41ed83eb	29.689413
84	0xc0a9fadd	-5.311873
85	0xc1a3421f	-20.407286
86	0x4165bcf5	14.358632
87	0x40205376	2.505094
88	0xc15c1800	-13.755859
89	0x4122c1fb	10.1723585
90	0xc0ef5ce1	-7.4800878
91	0x420f807b	35.87547
92	0xc01250d3	-2.286183
93	0xc058d116	-3.3877616
94	0x41c51e95	24.639933
95	0xc273b975	-60.93111
96	0x3ff5a47c	1.9190822
97	0x41bcd45c	23.603691
98	0x41ded429	27.853594
99	0x4027de94	2.62296

model/batch_normalization_2/batchnorm/mul_1;model/batch_normalization_2/batchnorm/add_1;model/dense_3/MatMul;model/activation_3/Relu;model/dense_3/BiasAdd f4 [100, 100]
0	0x3db21925	0.08696202
1	0x3cf9d00b	0.03049471
2	0xbd1a3d2d	-0.037655998
3	0x3d0972d1	0.033556763
4	0x3d79829f	0.060915586
5	0xbd252f26	-0.040328167
6	0x3d9d65f4	0.07685462
7	0x3e708c85	0.23491104
8	0xbde7ca24	-0.11317852
9	0xbd2728a0	-0.040810227
10	0xbe845756	-0.25847882
11	0xbd8921d1	-0.06695903
12	0xbdf99fd2	-0.121886864
13	0xbd7c0113	-0.061524462
14	0x3d4a4b00	0.04938793
15	0x3d2696cc	0.040671155
16	0xbc699f27	-0.014259136
17	0x3e01c306	0.12672052
18	0x3d994542	0.07483913
19	0x3a955e5e	0.0011395921
20	0xbc10ac73	-0.008830178
21	0x3d81f663	0.06345823
22	0x3f0f5eca	0.5600401
23	0xbd95bd1c	-0.073114604
24	0x3c5cb2d2	0.013470368
25	0xbcea7a8c	-0.028622888
26	0x3dc147ad	0.09437499
27	0x3c2cf45b	0.010556306
28	0xbe3fe1ee	-0.18738529
29	0xbdc95b74	-0.098318964
30	0xbdac39f1	-0.08409489
31	0xbd9abcf8	-0.07555574
32	0xbc5d4c9c	-0.013507035
33	0xbab2ca41	-0.0013640599
34	0xbe64e500	-0.22352982
35	0xbe42e7f5	-0.19033797
36	0x3de63729	0.1124099
37	0xbcdcee73	-0.02696917
38	0xbd43d531	-0.047810737
39	0xbc75f2f4	-0.015011538
40	0xbc1f7998	-0.00973358
41	0xba9a55c1	-0.0011774824
42	0x3d14969a	0.036276437
43	0x3e293601	0.16524507
44	0xbcb0224f	-0.021500735
45	0xbc958db4	-0.018256046
46	0x3dca59c7	0.09880405
47	0xbe60b01c	-0.2194218
48	0x3ddeff34	0.1088852
49	0x3e89ba4d	0.2689995
50	0x3d971b27	0.07378226
51	0x3dae8f10	0.08523381
52	0x3d5bc4b2	0.05365438
53	0x3db474a0	0.08811307
54	0xbdaebddb	-0.08532306
55	0x3d8f88b0	0.07008493
56	0x3dada4fe	0.084787354
57	0x3e76ea02	0.24112704
58	0x3dc2bbd0	0.09508479
59	0xbd473cff	-0.048642155
60	0xbe082a88	-0.13297474
61	0xbc16f4ec	-0.009213667
62	0xbd8a6f9a	-0.067595676
63	0xbdbbdb77	-0.09172719
64	0x3e34085c	0.17581314
65	0xbb1b0030	-0.0023651235
66	0xc079683c	-3.896987
67	0x3d800e4a	0.062527254
68	0x3dac96e0	0.084272146
69	0x3e219b51	0.15781905
70	0xbd44f6c9	-0.048086915
71	0xbddcf90e	-0.10789691
72	0x3cfcb11c	0.030846171
73	0xbd43156a	-0.047627844
74	0x3d249491	0.040180746
75	0x3d8988bb	0.067155324
76	0xbcb1c1ec	-0.021698914
77	0x3de3067e	0.11085223
78	0xbd25381a	-0.040336706
79	0x3dacd212	0.08438505
80	0x3c203c3c	0.009779986
81	0xbe021483	-0.12703137
82	0x3d1a5da6	0.037686966
83	0xbc6b6e0d	-0.0143695
84	0x3b716bfb	0.0036838043
85	0xbda79d5d	-0.081843115
86	0x3da145c4	0.07874635
87	0xbe0e9791	-0.13925005
88	0x3e98699f	0.29768082
89	0x3ee1fc54	0.44137824
90	0xbdea1640	-0.11430025
91	0xbdf99537	-0.121866636
92	0x3c941f74	0.018081404
93	0x3e0ce2f8	0.13758457
94	0x3db6cd25	0.08925847
95	0x3c7f2f40	0.01557523
96	0x3a8e66a4	0.001086433
97	0xbe94357d	-0.28947058
98	0xbe08ceab	-0.13360088
99	0xbcd34539	-0.025789844
100	0xbe8bbe77	-0.2729375
101	0xbd1be586	-0.038060687
102	0xbed9efea	-0.42565852
103	0xbc2f997e	-0.010717748
104	0xbde1a95e	-0.11018632
105	0x3d2d0932	0.042245097
106	0x3d8efff3	0.06982412
107	0x3e09f3bc	0.13471884
108	0xbddd0649	-0.107922144
109	0xbe7ed4f9	-0.2488593
110	0x3d879b80	0.06621456
111	0x3dfa019e	0.1220734
112	0xbbedd92e	-0.007258556
113	0xbe31984b	-0.17343251
114	0x3e3e7b34	0.18601686
115	0xbc1fa8ff	-0.009744882
116	0x3bb24fa4	0.005441623
117	0xbde45152	-0.11148323
118	0xbdb44577	-0.08802312
119	0xbe0b857f	-0.13625143
120	0xbd6dfbe7	-0.05810156
121	0x3d41a38d	0.047275115
122	0xbe30265e	-0.17202136
123	0xbd9ce255	-0.07660357
124	0x3e373a40	0.17893314
125	0xbe26983f	-0.16269015
126	0x3eddacb4	0.43295825
127	0x3e3dbd1f	0.18529175
128	0x3de349db	0.11098071
129	0x3dc47b22	0.09593798
130	0xbe3fccc5	-0.18730457
131	0x3ea5197e	0.32246011
132	0x3d9f588f	0.07780563
133	0x3de7a490	0.11310685
134	0xbcd0939d	-0.025461012
135	0xbdac769a	-0.08421059
136	0x3c58ff81	0.013244511
137	0x3d65ec87	0.056133773
138	0xbd98a0fe	-0.07452582
139	0x3e7453e2	0.23860124
140	0xbdf439b7	-0.11925071
141	0xbd32776c	-0.04357092
142	0xbbbd4361	-0.0057758545
143	0xbdc0ceba	-0.0941443
144	0x3e095d0e	0.13414404
145	0x3d3e1a6b	0.046411913
146	0xbdaa7644	-0.08323339
147	0xbecd56e7	-0.40105364
148	0x3dbcbc00	0.09215546
149	0xbe82ce9a	-0.2554825
150	0x3d42e1e4	0.047578707
151	0x3e85a697	0.2610366
152	0xbdbb7f84	-0.09155181
153	0xbe90c8f3	-0.28278312
154	0xbe1d3a7a	-0.15354338
155	0xbe23d6ba	-0.1599988
156	0x3c50efdc	0.012752499
157	0xbd5b0e9c	-0.05348073
158	0xbe625be6	-0.22105369
159	0x3e0ec56e	0.13942501
160	0x3dab0c0a	0.08351906
161	0x3e5b87f2	0.21438578
162	0x3d3d4bc6	0.04621484
163	0xbde42483	-0.111397766
164	0x3cd76dec	0.026297532
165	0xbcfcfd57	-0.03088252
166	0xbe1f8831	-0.15579297
167	0xbd10d0a3	-0.03535522
168	0x3d6891da	0.05677972
169	0xbde3dcec	-0.11126122
170	0xbcd268e5	-0.025684783
171	0x3df102a8	0.11768085
172	0x3dfa3368	0.12216836
173	0xbc525cc9	-0.0128395045
174	0xbcad77cf	-0.021175293
175	0xbd4e921b	-0.050432306
176	0xbe19394f	-0.14963268
177	0xbbc2887e	-0.0059366813
178	0xb9566c67	-0.00020449013
179	0x3ea03729	0.31292084
180	0xbd82cd4a	-0.06386812
181	0xbe1308a4	-0.14358765
182	0x3e0653cb	0.13117902
183	0xbe7ef7e3	-0.24899249
184	0xbd52ece4	-0.051495448
185	0x3cea5de8	0.028609231
186	0x3e651557	0.22371422
187	0xbe8c46b6	-0.27397698
188	0xbe590732	-0.21194151
189	0xbd6b100b	-0.057388347
190	0x3d80800e	0.062744245
191	0x3e106f6e	0.14105007
192	0x3e1c3a51	0.15256621
193	0x3c1fdd09	0.009757289
194	0xbe05ae8c	-0.13054866
195	0xbdd11e98	-0.102109134
196	0x3d1c44e4	0.038151637
197	0xbe4de184	-0.20105559
198	0x3db94c14	0.09047714
199	0xbb3fe2f8	-0.002927957
200	0x3dc0d2cc	0.09415206
201	0x3e68e813	0.2274478
202	0xbd7cb935	-0.061700065
203	0xbdb370ba	-0.08761735
204	0x3d662602	0.05618859
205	0xbca18edb	-0.01972144
206	0x3d8af65f	0.06785273
207	0x3d7a5ad0	0.06112176
208	0x3dab8016	0.0837404
209	0x3e1aacee	0.1510503
210	0xbde69679	-0.11259169
211	0x3e04d2fb	0.12971108
212	0xbc055f6e	-0.008140428
213	0xbe6ff7db	-0.23434393
214	0x3cbfd969	0.023419099
215	0x3e26c5aa	0.1628634
216	0x3e193d08	0.14964688
217	0x3c3b281a	0.011423135
218	0xbe03fc2a	-0.12889162
219	0x3dc8e92b	0.09810098
220	0xbd71230d	-0.058871318
221	0x3d8eac26	0.069664285
222	0x3c836121	0.016037526
223	0xbc43e849	-0.011957237
224	0xbe1a0762	-0.15041879
225	0x3d2d7b46	0.04235389
226	0xbd8a0d34	-0.067407995
227	0xbcc9ecdb	-0.024649074
228	0x3db20fe0	0.08694434
229	0x3d85f56d	0.06540952
230	0xbe29119c	-0.16510624
231	0xbd9fa3d5	-0.0779492
232	0xbe6ffa11	-0.23435237
233	0xbcace851	-0.02110687
234	0xbcfa3786	-0.030544054
235	0x3d6d7571	0.05797333
236	0x3d285ee1	0.04110611
237	0x3e1bca1c	0.15213817
238	0x3d4ce793	0.050025534
239	0xbe0802c0	-0.13282299
240	0x3cc312db	0.023812702
241	0xbd9ea275	-0.0774583
242	0xbe75821b	-0.23975413
243	0x3db0950a	0.08622177
244	0x3d5b4cc3	0.053540003
245	0xbe8ae2d5	-0.27126184
246	0xbb5dbb73	-0.0033833652
247	0xbd88a342	-0.06671764
248	0xbe08a1bf	-0.13342951
249	0xbd374822	-0.044746526
250	0xbe6db6dd	-0.23214288
251	0x3b99b0dd	0.004690273
252	0x3daddddb	0.08489581
253	0xbd0e2ec9	-0.034712587
254	0xbd6e2442	-0.058140047
255	0xbdc2159e	-0.094767794

model/dense_4/MatMul;model/activation_4/Relu;model/dense_4/BiasAdd f4 [100]
0	0xc001f9c4	-2.0308695
1	0x415a4db6	13.643972
2	0xbfd28f0e	-1.6449907
3	0x3fdbb206	1.7163703
4	0xc0a28bb6	-5.0795546
5	0xc0f80ff6	-7.7519484
6	0x3fd71323	1.6802715
7	0x41574f49	13.456857
8	0x421ddd53	39.466137
9	0x418415fa	16.51073
10	0xc0d04f15	-6.5096536
11	0xc14759f0	-12.459457
12	0x425d1606	55.271507
13	0x41af37ca	21.90224
14	0xc12e10e7	-10.879127
15	0xc1acc43e	-21.595821
16	0xc05dd94b	-3.4663875
17	0xc1146f48	-9.277168
18	0x418a550a	17.291523
19	0x4037c556	2.8714194
20	0xc1916e42	-18.178837
21	0xc08c218d	-4.3790956
22	0x4122ff22	10.187288
23	0x415a86f8	13.657951
24	0x4227ff17	41.99911
25	0xbf113fd3	-0.56738013
26	0x41d07654	26.057777
27	0x3fd4a79c	1.661365
28	0x410ddfc4	8.86713
29	0xc047a6ba	-3.1195512
30	0x419dd0e2	19.726994
31	0xbf9e0b6a	-1.2347233
32	0x41fd9627	31.698317
33	0x41340cc2	11.253115
34	0x41c4e6ed	24.612757
35	0xc0f28d4a	-7.579747
36	0xc17fa016	-15.9765835
37	0x4137c7da	11.486292
38	0x420cedc7	35.232204
39	0x42243c57	41.058926
40	0x422e282e	43.539238
41	0x3f9404e0	1.1563988
42	0x404eee12	3.2332807
43	0xc07a2794	-3.9086657
44	0x4247a980	49.915527
45	0xc158c50a	-13.548105
46	0xc1710f50	-15.066238
47	0xc1ae908d	-21.820581
48	0xc20363ba	-32.84739
49	0x409917ac	4.7841396
50	0x42359e76	45.404747
51	0x41b66756	22.800457
52	0x403ab0eb	2.9170482
53	0xbf95e37b	-1.1710047
54	0x420e68ee	35.60247
55	0x41515c0a	13.08497
56	0x41ca978f	25.324003
57	0x41335446	11.208075
58	0x41b0512d	22.039637
59	0x4199d76e	19.23019
60	0xc1fb6870	-31.425995
61	0x41d02752	26.0192
62	0xc17fe337	-15.992972
63	0x41a1d9d6	20.231365
64	0x411b09be	9.689878
65	0x41e860b6	29.047222
66	0xc110fad7	-9.06124
67	0x418a96bc	17.3236
68	0x41f17781	30.183352
69	0x423fd612	47.959053
70	0xc08ef963	-4.4679427
71	0x4216167c	37.521957
72	0x40749aad	3.8219407
73	0xc23f83aa	-47.87858
74	0x412362d8	10.211632
75	0x42437cb8	48.871796
76	0x422a1be1	42.527225
77	0xc1774a14	-15.4555855
78	0x41e53997	28.65312
79	0xc18501ff	-16.625975
80	0x42024efe	32.57714
81	0x41e55f67	28.671583
82	0x408025b0	4.0046005
83	0xc1923a1c	-18.278374
84	0xc0b8f157	-5.7794604
85	0xc0a0b8d7	-5.0225635
86	0x41b5e612	22.737339
87	0x401d8fa4	2.4618921
88	0x40ed42bb	7.414396
89	0x4144ab4f	12.291823
90	0xc1500d53	-13.003253
91	0x41fb3252	31.39957
92	0x4210eac1	36.22925
93	0x40af5c96	5.480052
94	0x4263663b	56.849834
95	0x42170881	37.758305
96	0x3f286801	0.657837
97	0xc1806950	-16.051422
98	0x42213aec	40.30754
99	0xc0d6e30e	-6.7152166

model/batch_normalization_3/batchnorm/mul_1;model/batch_normalization_3/batchnorm/add_1;model/dense_4/MatMul;model/activation_4/Relu;model/dense_4/BiasAdd f4 [100, 100]
0	0xbe01ca9c	-0.12674946
1	0x3ca71830	0.020397276
2	0x3cc65f4e	0.024215367
3	0xbe3d61d5	-0.18494351
4	0xbe5b9783	-0.21444516
5	0x3df22f9e	0.118254885
6	0xbd7ab1b0	-0.061204612
7	0x3cacdc75	0.021101216
8	0xbe4a47fa	-0.1975402
9	0x3dc5a66b	0.09650882
10	0xbb5ee0df	-0.0034008545
11	0x3e07c3a2	0.13258222
12	0xbd1ab047	-0.037765767
13	0x3d5d3e5a	0.05401454
14	0x3db6d464	0.08927229
15	0x3d841959	0.06450147
16	0x3c9c0438	0.01904498
17	0xbd15560d	-0.036459018
18	0xbe142405	-0.14466865
19	0xbc71d0c5	-0.014759247
20	0x3d27946a	0.040913023
21	0x3f028574	0.50984883
22	0x3f14cbdc	0.58123565
23	0x3e29e40f	0.16590904
24	0xbda112ed	-0.07864938
25	0x3d3e7145	0.04649474
26	0x3e1aeb70	0.15128875
27	0x3c8f6c9c	0.017507844
28	0xbee748b0	-0.45172644
29	0x3b90663f	0.00440672
30	0xbc1156a4	-0.008870754
31	0xbe8a17f1	-0.2697139
32	0x38970617	7.2013754e-05
33	0xbdd71a4e	-0.10503064
34	0x3d25c2af	0.040468868
35	0x3c938d5c	0.018011741
36	0x3e528c93	0.20561437
37	0xbde78369	-0.113043614
38	0xbdc7181f	-0.097213976
39	0x3c43f268	0.01195965
40	0xbe850f9e	-0.25988477
41	0x3d7661a2	0.060151704
42	0xbc06f4cd	-0.008237076
43	0x3d5cc09f	0.053894635
44	0x3de3a7ee	0.111160144
45	0x3d8b8f89	0.068144865
46	0x3dcbd4f9	0.09952731
47	0xbcd1e060	-0.025619686
48	0x3e920268	0.2851746
49	0x3d4707fe	0.048591606
50	0x3d58f6b9	0.052969668
51	0x3db52e6d	0.08846746
52	0x3e6e93cf	0.23298572
53	0x3cf808d8	0.030277655
54	0x3d25a741	0.04044271
55	0x3e0e3660	0.1388793
56	0xbd807676	-0.06272595
57	0x3d6ebdbd	0.058286417
58	0x3d0949a5	0.0335175
59	0x3e238bbb	0.15971272
60	0xbe9f4045	-0.3110372
61	0xbca4ff91	-0.020141395
62	0x3cd4eb04	0.02599097
63	0x3d03be20	0.03216374
64	0xbd493aae	-0.049128227
65	0xbd48da5c	-0.04903637
66	0x3dfa8d70	0.12234008
67	0x3cdf8e6c	0.027289592
68	0x3d4d5e0b	0.050138514
69	0x3db88770	0.09010208
70	0xbd10c5d8	-0.03534493
71	0x3c86a2a9	0.016434984
72	0x3e34aac5	0.17643268
73	0xbd36d3aa	-0.044635452
74	0xbd188d5e	-0.037244193
75	0xbdbfa38a	-0.093573645
76	0xbe55c8d5	-0.20877393
77	0x3cd2e850	0.02574554
78	0x3b951501	0.004549623
79	0x3c431128	0.011905946
80	0x3df89a87	0.12138849
81	0xbd8961f4	-0.06708136
82	0x3e07ab42	0.13248923
83	0xbdaeeabc	-0.08540866
84	0x3ce563c2	0.02800167
85	0x3d5b9444	0.053608194
86	0xbde0e34f	-0.10980856
87	0x3dfb5fb7	0.122741155
88	0xbca53b51	-0.020169886
89	0xbca1e091	-0.019760402
90	0xbd7d2c41	-0.061809782
91	0x3dbba00a	0.091613844
92	0x3e4a51cf	0.1975777
93	0x3d8ef032	0.06979407
94	0xbec5eee9	-0.38658836
95	0x3be8a063	0.0070991977
96	0x3e04c15c	0.12964386
97	0x3da0f4f8	0.07859224
98	0xbcda02ef	-0.026612727
99	0x3da9e43a	0.08295484
100	0x3de61c4a	0.112358645
101	0x3d2ad070	0.041702688
102	0xbc7d6082	-0.015464904
103	0x3dffe51f	0.12494873
104	0xbdaeddda	-0.085384086
105	0xbd65ffab	-0.056152027
106	0x3d0f4758	0.034980148
107	0x3e5ca8a3	0.21548705
108	0xbe851278	-0.25990653
109	0x3d13802b	0.036010902
110	0xbc69cba6	-0.014269745
111	0x3e2f9c33	0.17149429
112	0xbd95cc07	-0.07314306
113	0xbd8f6be3	-0.07003
114	0x3de1d3a3	0.110266946
115	0x3da130f1	0.07870663
116	0x3d50c97f	0.05097341
117	0xbcef7e4b	-0.029235026
118	0x3db83dbd	0.08996151
119	0xbf00e3be	-0.50347507
120	0xbcfb46ed	-0.030673468
121	0xbdefc3ba	-0.11707254
122	0xbd1f2b04	-0.038859382
123	0x3e397a67	0.18113099
124	0xbe2fdea9	-0.17174782
125	0x3d123305	0.035693187
126	0xbe39f282	-0.18158916
127	0x3c3def3c	0.011592682
128	0x3d17056b	0.0368704
129	0x3e67c270	0.22632766
130	0x3d0ac3c3	0.0338781
131	0xbde594ba	-0.11210008
132	0xbcd48abb	-0.025945058
133	0xbd4ddacd	-0.050257493
134	0x3e440946	0.19144163
135	0xbd0c6002	-0.034271248
136	0x3d813901	0.06309701
137	0xbcccc8d4	-0.024998106
138	0x3dad36c5	0.08457712
139	0x3da00c42	0.07814838
140	0x3db3f953	0.08787789
141	0xbe29cf3e	-0.16582963
142	0xbc81b4ca	-0.015833277
143	0xbd5e09f2	-0.054208703
144	0x3ddc1234	0.107456595
145	0xb9db2629	-0.00041799367
146	0x3e0581a3	0.13037734
147	0xbd4a35af	-0.049367603
148	0xbdcd668b	-0.10029324
149	0x3da8870b	0.082288824
150	0xbbad86cd	-0.0052956105
151	0x3ebd7b4c	0.3700813
152	0xbe0afc88	-0.13572896
153	0x3e21974b	0.1578037
154	0x3b8f2f5e	0.0043696603
155	0xbc9abf4e	-0.01889005
156	0xbddef198	-0.10885924
157	0xbd5d69bc	-0.054055914
158	0xbd233e05	-0.03985407
159	0xbe91775e	-0.28411382
160	0x3dc1f587	0.09470659
161	0xbd31306a	-0.043259062
162	0xbdea6096	-0.114442036
163	0x3d009724	0.03139414
164	0x3e1586b5	0.14602168
165	0xbd90ae1d	-0.070644595
166	0xbd91d0d0	-0.07119906
167	0x3d711d3a	0.058865763
168	0x3e796c3a	0.24357691
169	0x3e200fcc	0.15631026
170	0xbd9bfb71	-0.07616318
171	0xbf26e948	-0.6519971
172	0xbe9847bd	-0.29742232
173	0x3dc445f0	0.09583652
174	0xbd7e1558	-0.062032074
175	0xbd049039	-0.032364104
176	0xbe1b7f4b	-0.15185277
177	0x3e6df823	0.23239188
178	0x3d125f0d	0.03573518
179	0xba23ebbd	-0.0006253084
180	0xbd6f6923	-0.058449876
181	0x3ce7aed5	0.028281609
182	0xbe718b36	-0.23588261
183	0xbde51d2f	-0.11187207
184	0xbdd3eed8	-0.1034829
185	0xbe2eb60c	-0.17061633
186	0x3e33b41e	0.17549178
187	0xbf88894d	-1.0666901
188	0xbb4051d1	-0.0029345641
189	0x3d0bac76	0.03410002
190	0x3db52816	0.088455364
191	0xbe2de3df	-0.16981457
192	0xbe1787c1	-0.1479788
193	0x3ccc993f	0.024975417
194	0xbcb31b3a	-0.021863569
195	0x3ccfe2e6	0.025376748
196	0x3eb7b9e9	0.35884026
197	0x3de590a2	0.11209227
198	0x3baf6866	0.0053530214
199	0x3e19ae9a	0.15008011
200	0xbddced50	-0.10787451
201	0x3e9228a2	0.28546625
202	0x3ebf69f3	0.3738552
203	0x3e34b5a9	0.17647423
204	0x3db9a027	0.0906375
205	0xbd904049	-0.070435114
206	0x3ccbab1b	0.024861863
207	0x3d40bf2d	0.04705732
208	0xbd4a771a	-0.04942999
209	0xbd51cb55	-0.051219303
210	0xbe5348a8	-0.20633185
211	0x3e4d9133	0.2007492
212	0x3e2fd749	0.17171969
213	0x3d81a267	0.06329804
214	0xbd390d44	-0.045178667
215	0x3ce902b4	0.028443672
216	0x3d5499ec	0.051904604
217	0x3e6ae569	0.22939076
218	0x3daa3d74	0.083125025
219	0x3df82a5a	0.12117453
220	0x3da9b078	0.08285612
221	0x3cf15573	0.02945969
222	0xbb1a2202	-0.0023518805
223	0x3c86ea52	0.016469155
224	0xbd61f548	-0.05516556
225	0xbe7dc174	-0.24780828
226	0x3e330e12	0.17485836
227	0xbd4bffc7	-0.049804475
228	0x3ce03481	0.027368786
229	0x3e098b5d	0.13432069
230	0xbc805c3e	-0.015668985
231	0x3b340ed5	0.002747466
232	0xbe25a62d	-0.16176672
233	0x3dcd600f	0.10028087
234	0xbd4f5d6b	-0.0506262
235	0xbe2a55e9	-0.16634335
236	0x3e035e94	0.12829047
237	0xbbfc2b1d	-0.007695569
238	0xbe1a45ba	-0.15065661
239	0xbd1a06a6	-0.037603997
240	0xbdaf9b6f	-0.085745685
241	0xbdd143f8	-0.10218042
242	0xbe25d4f4	-0.16194516
243	0x3d052ef2	0.032515474
244	0x3b650eea	0.0034951516
245	0xbc1cbd40	-0.009566605
246	0xbd504a11	-0.050851885
247	0xbcf3c8b9	-0.029758798
248	0x3e1f4e6e	0.15557262
249	0xbe03980b	-0.12850969
250	0xbd2ac71f	-0.041693803
251	0xbe6c19bc	-0.23056692
252	0xbc6b547f	-0.014363407
253	0x3e1e2148	0.15442383
254	0x3d1cd3eb	0.03828804
255	0x3d800835	0.06251565

model/dense_5/MatMul;model/activation_5/Relu;model/dense_5/BiasAdd f4 [100]
0	0x40d21b72	6.5658503
1	0x42372d4a	45.794228
2	0xc157313f	-13.449523
3	0xbf7d8bac	-0.9904125
4	0x42025fb4	32.59346
5	0xc0deb33a	-6.9593782
6	0x42286bf7	42.105434
7	0x418f2c20	17.896545
8	0x40225c25	2.536874
9	0x3e9e25e3	0.3088828
10	0x41fd2607	31.643568
11	0xbf70ea95	-0.94107944
12	0x410d0ab3	8.815112
13	0x41fd5c40	31.670044
14	0xc2018688	-32.38138
15	0x41e47125	28.555246
16	0xc187ab28	-16.958572
17	0x413e3d05	11.889897
18	0x4172d07f	15.175902
19	0xc1b6cc2d	-22.849695
20	0x428e0e4f	71.02795
21	0xc187705a	-16.92986
22	0x41ba89fd	23.317377
23	0x421b9320	38.893677
24	0x41fa20ab	31.265951
25	0x40b04b13	5.5091643
26	0x3fa1c8d3	1.2639412
27	0x3e251966	0.1612297
28	0x4164f092	14.308733
29	0x4118b1c6	9.543402
30	0xc185fcab	-16.748373
31	0x40d82deb	6.755605
32	0xc185fbf0	-16.748016
33	0xc1e73292	-28.899693
34	0x4022411a	2.5352235
35	0x420c6221	35.09583
36	0x41b167f3	22.175756
37	0x42193db9	38.310276
38	0x3dc6ae15	0.09701172
39	0xc205bc04	-33.43361
40	0x41df058f	27.877714
41	0xc2004b32	-32.073433
42	0x41acabf3	21.58396
43	0x418a32a3	17.274725
44	0x418a2182	17.266361
45	0xc200e2cf	-32.221493
46	0x41020eaf	8.128585
47	0x41622a66	14.135351
48	0xc21f7b14	-39.870193
49	0x41fe3150	31.774078
50	0x3fc0ade0	1.5053062
51	0x41ee2f26	29.773022
52	0xc1f30b04	-30.380379
53	0xc1013571	-8.075547
54	0x4129e17c	10.61755
55	0x40005892	2.005406
56	0x4102cc44	8.17487
57	0x41958642	18.690556
58	0x40aa4810	5.3212967
59	0x423ccb27	47.19839
60	0x41b5f186	22.742931
61	0x4086b0e7	4.2090945
62	0x422c415d	43.06383
63	0x41eed4c3	29.853888
64	0xc118f91e	-9.56082
65	0x41d03feb	26.03121
66	0xc096ea51	-4.716103
67	0xc1471dfa	-12.4448185
68	0xc089b461	-4.303269
69	0x41256356	10.336752
70	0xc1d9fb53	-27.247717
71	0x41b20cf7	22.25633
72	0x422c3351	43.050114
73	0x41e0f3f7	28.119123
74	0xc19b6e4d	-19.428858
75	0x3ff27b09	1.8943797
76	0x418e1939	17.762316
77	0xc18f32b6	-17.899761
78	0x40133054	2.2998247
79	0xc267b0a1	-57.92249
80	0x428cddc3	70.43313
81	0xc1e701c6	-28.875866
82	0x41dcc006	27.593761
83	0x41d8b7d3	27.089758
84	0xc100e1ab	-8.055095
85	0x41fdcca7	31.724928
86	0xc0b15238	-5.5412865
87	0x416973ac	14.59074
88	0xc10f6fac	-8.964764
89	0x3fb6b0f8	1.4272757
90	0xc14b3cbc	-12.702328
91	0x4197dcff	18.982908
92	0x3ee057a4	0.43816864
93	0xc0e496ed	-7.1434236
94	0xc06952a2	-3.6456685
95	0x3f4a8815	0.79113895
96	0x41dce297	27.61064
97	0x41032f18	8.1989975
98	0x4121daac	10.115887
99	0x415761f4	13.461414

model/batch_normalization_4/batchnorm/mul_1;model/batch_normalization_4/batchnorm/add_1;model/dense_5/MatMul;model/activation_5/Relu;model/dense_5/BiasAdd f4 [100, 100]
0	0x3b8bb633	0.004263663
1	0x3db83088	0.089936316
2	0xbc439cc0	-0.011939228
3	0x3d59f6a4	0.05321373
4	0x3d64180b	0.05568699
5	0x3eeec0b7	0.46631405
6	0x3ceba667	0.02876587
7	0xbe33d413	-0.17561369
8	0x3e803554	0.25040686
9	0xbdf2b1b5	-0.11850301
10	0xbfb62f9f	-1.4233283
11	0xbf89985a	-1.0749619
12	0x3dc539d9	0.09630174
13	0xbd809161	-0.06277729
14	0xbc01eb3f	-0.007929622
15	0x3e497712	0.19674328
16	0xbe850033	-0.25976714
17	0xbdf86d60	-0.121302366
18	0x3e22218d	0.15833111
19	0xbd26585c	-0.04061161
20	0x3db6a486	0.08918099
21	0x3c8ad73b	0.016948333
22	0xbdba4b8d	-0.090964414
23	0xbe085ff6	-0.13317856
24	0xbd56866f	-0.0523743
25	0x3d6c6996	0.057717882
26	0x3d4227ae	0.047401123
27	0x3d170861	0.036873225
28	0x3e47d2d0	0.19514012
29	0x3d47bf08	0.048766166
30	0xbc1f7541	-0.009732545
31	0xbd56a878	-0.052406758
32	0xbd066b93	-0.032817435
33	0x3c04b4e3	0.008099767
34	0xbe61c454	-0.2204755
35	0xbe17f3cf	-0.148391
36	0x3bb93f5c	0.005653305
37	0xbde37736	-0.11106722
38	0xbd942ef8	-0.07235521
39	0x3d5aa3e0	0.05337894
40	0x3dd787d9	0.10523958
41	0x3dd39712	0.10331549
42	0xbe191b6e	-0.1495187
43	0xbd32e9ed	-0.04368012
44	0x3cca17dc	0.02466958
45	0x3df4369f	0.11924481
46	0xbe0298dc	-0.12753624
47	0x3d8a2c24	0.067467004
48	0x3bef3b52	0.0073007727
49	0x3e2747c2	0.16335967
50	0x3da70d4e	0.081568345
51	0x3ca4e425	0.020128319
52	0x3e88ea71	0.26741365
53	0x3d5db6b6	0.054129325
54	0xbd38e7c6	-0.04514291
55	0x3e5dae29	0.21648468
56	0xbc43f5f3	-0.011960494
57	0xbeaf9c3c	-0.34298885
58	0xbe63b5f1	-0.22237374
59	0x3de19db2	0.11016406
60	0x3de2f4a3	0.11081817
61	0x3a0a27a8	0.00052701915
62	0x3c478e91	0.012179987
63	0x3e6d5f7c	0.23180956
64	0x3d01f229	0.031725083
65	0xbce86d8b	-0.028372547
66	0xbedf9229	-0.436662
67	0xbbdc74a4	-0.006727772
68	0xbd5bdb67	-0.053676035
69	0xbeb7d252	-0.3590265
70	0xbca892ad	-0.020577753
71	0xbdbb31e1	-0.09140373
72	0xbd9460c2	-0.072450176
73	0x3ca73a68	0.020413592
74	0x3b81f63e	0.003966122
75	0xbd933c65	-0.07189254
76	0xbacfd883	-0.0015857372
77	0x3cf48c70	0.029852122
78	0x3ec5eb26	0.38655967
79	0x3e1a7007	0.15081798
80	0xbdfabe68	-0.12243348
81	0xbdee9124	-0.11648777
82	0xbe5763ca	-0.2103416
83	0x3ebc52f7	0.36782047
84	0xbe732cf7	-0.23747621
85	0x3dbb359b	0.09141084
86	0x3d360ff5	0.04444881
87	0xbcc2be1e	-0.023772296
88	0xbe639007	-0.22222911
89	0xbe1af4c0	-0.15132427
90	0xbe02a250	-0.1275723
91	0x3c9d89eb	0.019230803
92	0x3dedf370	0.11618698
93	0x3c9a1161	0.018807115
94	0x3e5d890f	0.21634315
95	0x3d093393	0.03349645
96	0xbdedc065	-0.11608962
97	0xbe342e52	-0.17595795
98	0xbc3151f1	-0.010822759
99	0xbc1510ec	-0.009098273
100	0xbd2b99a6	-0.041894577
101	0xbc977203	-0.018486982
102	0xbdc80607	-0.097667746
103	0xbf154a03	-0.5831606
104	0xbda030f0	-0.07821834
105	0x3f40c446	0.7529949
106	0xbbfff35a	-0.007810992
107	0xbea6f139	-0.32605913
108	0xbb1d06f3	-0.002396044
109	0x3e7cb22c	0.24677342
110	0x3eb711f8	0.35755897
111	0x3e83602e	0.25659317
112	0xbba057ef	-0.004893295
113	0x3d65c5f9	0.056097005
114	0x3ec47ffe	0.383789
115	0xbcefdb1d	-0.029279286
116	0xbf1208b3	-0.57044524
117	0xbf2ce457	-0.6753592
118	0x3e3cf564	0.18452984
119	0x3d469c24	0.04848875
120	0xbe3c9453	-0.18415956
121	0xbe1d69df	-0.15372418
122	0xbcf7e830	-0.030262083
123	0x3cedb226	0.029015612
124	0xbd26f63f	-0.040762182
125	0xbb6797d9	-0.003533831
126	0x3d04769a	0.03233967
127	0xbe19eff8	-0.15032947
128	0xbca53180	-0.020165205
129	0xbdd88cde	-0.10573743
130	0xbe3979b8	-0.18112838
131	0x3e0b6b34	0.13615113
132	0x3de86ca6	0.11348848
133	0x3d6bf6d4	0.05760844
134	0xbda75c66	-0.081719205
135	0xbe909eb3	-0.28246078
136	0xbf05816d	-0.52150613
137	0xbbcb380f	-0.006201751
138	0x3e4558b7	0.19272123
139	0x3bc63c6f	0.0060496847
140	0xbc8e0afc	-0.017339222
141	0xbe1901ba	-0.14942065
142	0x3de47436	0.11154978
143	0x3ca71dc2	0.020399932
144	0x3d3f9173	0.04676957
145	0xbf35cadd	-0.7101267
146	0x3cc22b43	0.02370227
147	0xbea7173b	-0.3263491
148	0xbd124098	-0.035706133
149	0x3e6e210e	0.23254797
150	0x3d7f764b	0.062368672
151	0x3cc264d4	0.02372972
152	0xbe94e5c7	-0.29081556
153	0xbdb7c1c2	-0.08972503
154	0xbd9f8de1	-0.07790733
155	0xbd227a7c	-0.03966759
156	0x3da11f23	0.07867267
157	0xbd2f6ef6	-0.04283043
158	0xbd9c888f	-0.07643234
159	0x3d9b2fa7	0.07577448
160	0xbd7e3b1d	-0.062068094
161	0x3acaf19b	0.0015483381
162	0x3d99ea02	0.075153366
163	0xbdec1dd8	-0.1152913
164	0xbd837e96	-0.06420629
165	0xbe00f3b5	-0.12592967
166	0xbef0c44e	-0.4702477
167	0xbd0242bd	-0.031801928
168	0xbcde9cdf	-0.027174411
169	0xbda25346	-0.079260394
170	0xbf04808f	-0.51758665
171	0xbda48ae0	-0.08034301
172	0xbd9abd8b	-0.07555684
173	0xbd0842f3	-0.033266973
174	0xbdfd2ba1	-0.12361837
175	0x3bcb6d13	0.006208071
176	0xbd113de7	-0.035459425
177	0xbe06058c	-0.13088053
178	0xbe720b94	-0.23637229
179	0x3ddfe03b	0.109314404
180	0x3d9e9cf7	0.077447824
181	0xbd082a3b	-0.0332434
182	0xbd3e1f4a	-0.04641656
183	0x3ce5ecae	0.02806696
184	0xbe8b1b64	-0.27169335
185	0xbdf6c6e1	-0.12049652
186	0x3ae6e726	0.0017616495
187	0xbd5daf37	-0.054122176
188	0x3cb6b99f	0.022305308
189	0x3db58605	0.08863453
190	0xbdb5055a	-0.08838911
191	0xbe411d04	-0.18858725
192	0x3bca64db	0.0061765737
193	0xbd4514f2	-0.048115678
194	0xbd8e771a	-0.069563106
195	0xbe04bf69	-0.12963642
196	0xbdcd1fdf	-0.100158446
197	0xbbe48b7c	-0.0069746356
198	0xbd9e2c1d	-0.07723258
199	0xbee68ad9	-0.45027807
200	0x3dc62af8	0.096761644
201	0x3db4cabb	0.0882773
202	0x3d7212fe	0.059100144
203	0x3dd17352	0.10227074
204	0xbc8d2eab	-0.017234167
205	0xbe168079	-0.14697446
206	0xbd0f8d7a	-0.035047032
207	0x3e134c7d	0.14384647
208	0xbb3b5b9c	-0.002858854
209	0xbe1f675e	-0.15566775
210	0xbdd2db98	-0.102957904
211	0xbde3eec9	-0.11129529
212	0x3d7c65be	0.061620466
213	0xbea68532	-0.32523495
214	0x3d684b1e	0.056712262
215	0x3be703b6	0.007050003
216	0x3cc9693a	0.024586309
217	0xbd9a36c2	-0.075299755
218	0xbd2b9af9	-0.04189584
219	0x3e730dff	0.23735808
220	0x3d16a62c	0.036779568
221	0x3d9b208d	0.07574568
222	0x3cc41ef9	0.02394055
223	0x3d81f80d	0.0634614
224	0xbd3d3f89	-0.04620317
225	0xbcf73bb9	-0.030179845
226	0x3d4141a7	0.04718175
227	0xbdd2bf8e	-0.102904424
228	0x3e443329	0.19160141
229	0xbd2e099e	-0.04248964
230	0x3d96bc11	0.073600896
231	0xbde6585d	-0.11247323
232	0xbcccf224	-0.025017805
233	0xbcf7aab4	-0.030232765
234	0x3d34af44	0.04411246
235	0x3ccc1791	0.024913581
236	0x3db1d1cf	0.08682596
237	0xbde3f6ba	-0.11131044
238	0x3d92a0f5	0.07159606
239	0x3b158334	0.00228138
240	0x3d842b18	0.06453532
241	0x3cce4c95	0.025183002
242	0xbcf6a270	-0.030106753
243	0xbdbc18a2	-0.09184386
244	0xbb300b6a	-0.0026862272
245	0xbd3620e5	-0.044464964
246	0x3d1b7b80	0.037959576
247	0xbc0349e2	-0.0080132205
248	0xbd2c8cdb	-0.042126518
249	0xbf85f373	-1.046492
250	0x3f98bc72	1.1932509
251	0xbd9f2ae2	-0.07771851
252	0xbe23d528	-0.15999281
253	0x3d77f0e5	0.06053247
254	0xbe0a0098	-0.13476789
255	0x3c1787ee	0.009248717

model/dense_6/MatMul;model/activation_6/Relu;model/dense_6/BiasAdd f4 [100]
0	0xc10437a1	-8.263581
1	0x4105eb81	8.369996
2	0x40a43e20	5.1325836
3	0xc12dddd1	-10.866654
4	0x42033743	32.803967
5	0xc1251da9	-10.319741
6	0x40a61607	5.190189
7	0x41db54ae	27.416348
8	0xc149c6b0	-12.611008
9	0x41d1b0f3	26.211401
10	0x42227560	40.614624
11	0xbfba1dba	-1.4540322
12	0xc030f27f	-2.7648008
13	0x41d95a0c	27.168968
14	0x4004651b	2.068671
15	0xc083574e	-4.1044073
16	0x420c40df	35.06335
17	0x414721d5	12.44576
18	0x41fc660e	31.549831
19	0x41b1d03e	22.22668
20	0x425c084e	55.00811
21	0x418ff177	17.992903
22	0xc1172d75	-9.448598
23	0xc1711240	-15.066956
24	0x411b7455	9.715901
25	0x41a58ccd	20.69375
26	0xc1249b09	-10.28785
27	0x41b2093d	22.25451
28	0x41ce670b	25.800314
29	0xbf97f946	-1.1872947
30	0xc053f2f6	-3.3117042
31	0x412e4c2a	10.893595
32	0x3f832097	1.0244321
33	0x4029a37d	2.6506035
34	0xbfc323de	-1.5245321
35	0x4240a905	48.16506
36	0xc1756c38	-15.338921
37	0x414c651a	12.774683
38	0x409d2ced	4.911734
39	0x4056e6f4	3.3578463
40	0x4204deb6	33.21749
41	0x41003788	8.013557
42	0x41b29be1	22.326113
43	0xc18280c9	-16.312883
44	0x41cd9507	25.697767
45	0xc03ffdf7	-2.9998758
46	0xc1bc92b3	-23.57163
47	0x410d665f	8.837493
48	0x416668d0	14.400589
49	0x41231e09	10.194833
50	0x4116f457	9.434653
51	0xc209a6aa	-34.412758
52	0xbf2aef63	-0.66771525
53	0x419a1394	19.25956
54	0x419d7d4e	19.686184
55	0x420f5b13	35.83894
56	0x42062849	33.53934
57	0xc0eff79f	-7.498977
58	0x41b08794	22.0662
59	0x42285ca8	42.090485
60	0x414202d2	12.125689
61	0xc186150d	-16.760279
62	0xbfe2fd39	-1.7733527
63	0x41298ed6	10.597372
64	0xc01cc148	-2.449297
65	0x4175e088	15.367317
66	0x424dc5b2	51.44306
67	0x401c6dfa	2.4442124
68	0xc17bf966	-15.748388
69	0x416edb66	14.928564
70	0x42016f2d	32.35857
71	0x413c4d93	11.768939
72	0xc11d610a	-9.836191
73	0x4091ca6f	4.555961
74	0x40df37a9	6.9755445
75	0xc01806d8	-2.3754177
76	0xc1241f2f	-10.257613
77	0x41c09c73	24.076391
78	0xc130a5d6	-11.040487
79	0xc0fbe6e7	-7.8719363
80	0xc0a340a2	-5.1016397
81	0x41034569	8.204446
82	0xc1281546	-10.505194
83	0x41d2849f	26.314756
84	0x417c2c9c	15.760891
85	0x41b21831	22.261812
86	0x418aa724	17.331612
87	0x41348dc4	11.284611
88	0xc1981a5d	-19.012873
89	0xbfba64a1	-1.456196
90	0x41a49106	20.570812
91	0xc088ef96	-4.2792463
92	0x412aaba0	10.666901
93	0x418db4df	17.713316
94	0xbf84a58e	-1.0363023
95	0x40e43542	7.131501
96	0x42265c62	41.590218
97	0x3ffca697	1.9738339
98	0xc1baf4ee	-23.369595
99	0xc10ce357	-8.805503
