corintho_ai/rating/tflite_models/model_45.tflite (tflite, 521576 bytes, 27 tensors)

model/dense_1/MatMul;model/activation_1/Relu;model/dense_1/BiasAdd f4 [100]
0	0xc1c764b2	-24.924168
1	0x42d1d957	104.92449
2	0xc2387707	-46.116238
3	0x407f54dd	3.9895546
4	0x424dade5	51.41982
5	0x420c214c	35.032516
6	0x4283f55b	65.97921
7	0xc1bf3023	-23.898504
8	0xc2142900	-37.04004
9	0x40697c58	3.6482143
10	0x4023e2b1	2.5607111
11	0xc210950c	-36.145554
12	0x41412b7e	12.073118
13	0xc2156d84	-37.35695
14	0x3f88d337	1.0689458
15	0xc26c962f	-59.146664
16	0x415820d5	13.508016
17	0xbebeeef8	-0.37291694
18	0xc1117d63	-9.093112
19	0x3eedd068	0.46448064
20	0x40ddb4ba	6.9283113
21	0x405c5b69	3.4430792
22	0x413c61aa	11.773844
23	0xc24a3513	-50.55183
24	0x4280b90d	64.36143
25	0x4049dc42	3.1540685
26	0xc174469e	-15.267241
27	0xc052a8ce	-3.291553
28	0xc228d163	-42.20448
29	0x420734cc	33.80156
30	0xc1fa383f	-31.277464
31	0x3fecce31	1.8500425
32	0x41f7999b	30.950003
33	0xc1d4d259	-26.602709
34	0x4272b62c	60.677902
35	0x4237ee7f	45.982906
36	0x417b7823	15.71683
37	0xc1ec4740	-29.53479
38	0x41305f90	11.023331
39	0x41d18970	26.192108
40	0x4265b1f7	57.423794
41	0xc1136847	-9.212958
42	0xc2272bc0	-41.792725
43	0xbeddd049	-0.4332297
44	0x41728592	15.15761
45	0xc189855c	-17.190117
46	0x40eb831e	7.3597555
47	0xc1d7984f	-26.94937
48	0xc0c392a2	-6.1116495
49	0xc1105933	-9.021777
50	0x419721e1	18.891542
51	0xc253a605	-52.91213
52	0x40d402f2	6.6253595
53	0x42fa4cf5	125.15031
54	0x3fdbd65e	1.7174795
55	0x41e4d037	28.601667
56	0x412511f6	10.316885
57	0xc162f1aa	-14.184
58	0x41d7364c	26.901512
59	0xc173cd35	-15.237599
60	0x418a12fc	17.25927
61	0x426a3093	58.547436
62	0xc0a933eb	-5.2875876
63	0x41c8891b	25.066946
64	0x424a1b15	50.526447
65	0x4283c2ba	65.880325
66	0x42cc931c	102.28732
67	0x415246a9	13.142251
68	0xc19e6024	-19.796944
69	0xc26adf45	-58.718037
70	0xc1747ee3	-15.280978
71	0xc1c72deb	-24.89742
72	0x409ffdba	4.9997225
73	0x429ae70e	77.45128
74	0xc04dc706	-3.2152724
75	0x4265ec2f	57.480648
76	0xc11f9207	-9.973151
77	0x40f68306	7.703494
78	0xc2ba8660	-93.26245
79	0x40b32466	5.598193
80	0x4115314f	9.324538
81	0x41ea48a0	29.285461
82	0x416afedf	14.687224
83	0xc1a86b2e	-21.052334
84	0xc16577f7	-14.341788
85	0x4273d68b	60.959515
86	0x41a03435	20.025492
87	0xc18c76d8	-17.55803
88	0x42889e36	68.309006
89	0x4214427e	37.064934
90	0x429849ea	76.14436
91	0x40ef2e49	7.4744
92	0x425b654d	54.848927
93	0x40ac3b81	5.3822637
94	0x40d54443	6.6645827
95	0x3fc52d96	1.5404537
96	0x42f814ee	124.04088
97	0x41e006b4	28.003273
98	0x412fad36	10.979788
99	0xc294a71f	-74.32641

model/batch_normalization/batchnorm/mul_1;model/batch_normalization/batchnorm/add_1;model/dense_1/MatMul;model/activation_1/Relu;model/dense_1/BiasAdd f4 [100, 100]
0	0x3e49a032	0.19690016
1	0xbf3036fa	-0.6883389
2	0x3e2b8baa	0.16752496
3	0xbbd0132e	-0.0063499426
4	0x3fb15017	1.3852566
5	0x3f0492a0	0.5178623
6	0xbf6f349c	-0.9343965
7	0xbf411042	-0.7541543
8	0x3db261e8	0.087100804
9	0x3f1bbe6b	0.6083743
10	0x3ef38d13	0.4756857
11	0x3e1a55ba	0.15071765
12	0x3c817a7a	0.015805472
13	0x3d1b466d	0.03790896
14	0xbf20cf70	-0.62816525
15	0x3cf482c0	0.029847503
16	0x3e21bf8e	0.15795729
17	0xbfba488f	-1.4553393
18	0x3e9118a1	0.28339103
19	0xbf03e631	-0.5152312
20	0xbd983f69	-0.074339695
21	0x4095de3f	4.6833797
22	0x3d8dcf6f	0.069243304
23	0xbcebcb29	-0.028783398
24	0xbda62a4d	-0.08113537
25	0xbd18db0b	-0.03731827
26	0x3d3900f7	0.045166936
27	0xbf450548	-0.76961184
28	0x3e25ce11	0.1619189
29	0xbe2aa2fb	-0.16663735
30	0xbdce8b58	-0.100851715
31	0x3f1db148	0.61598635
32	0x3c86a28e	0.016434934
33	0xbebd1314	-0.36928618
34	0xbddbffbc	-0.10742137
35	0xbe4ce2f7	-0.20008455
36	0xbd9c569b	-0.07633706
37	0xbe1edba3	-0.15513472
38	0x3d66ac7e	0.056316845
39	0x3dfcc90c	0.12343034
40	0x3f1996b2	0.5999557
41	0x3f79b529	0.97542053
42	0x3ec93381	0.39297107
43	0x3e06faa1	0.13181545
44	0xbe93c27e	-0.28859323
45	0xbd42d5e8	-0.04756728
46	0x3e564964	0.20926434
47	0x3dfc0ff5	0.12307731
48	0x3f49b0b7	0.7878527
49	0x3d97860c	0.07398614
50	0xbd2a6ccd	-0.041607667
51	0xc0000f4f	-2.0009344
52	0x3f086843	0.5328409
53	0x408ba949	4.3644147
54	0x3dbcf714	0.09226814
55	0xbde682d9	-0.11255426
56	0x3bf9db6a	0.007625033
57	0x3ed3b1b9	0.4134653
58	0x400082e7	2.0079896
59	0x3f0b0277	0.54300636
60	0x3eb11a3f	0.34590337
61	0xbe18f6c8	-0.1493789
62	0x3e1ada7f	0.15122412
63	0xbf6cd59d	-0.9251345
64	0x3ea86e4b	0.32896647
65	0xbea835e9	-0.3285363
66	0xbdfeca78	-0.124409616
67	0x3e4b4556	0.19850668
68	0xbd8750cf	-0.0660721
69	0x3f2947a8	0.66124964
70	0x3f01c3ef	0.50689596
71	0xbdbb811f	-0.09155487
72	0x3dd4e5c4	0.10395387
73	0xbcd4fcab	-0.025999388
74	0x3f0dc4ce	0.55378425
75	0xbf0fb09e	-0.5612887
76	0xbea2b7fc	-0.31780994
77	0x3cfd05a3	0.030886477
78	0xbd3097db	-0.04311357
79	0x3eaf4f35	0.34240118
80	0xbf1a6704	-0.6031344
81	0x3e7da7b5	0.24771006
82	0xbf120363	-0.5703642
83	0xbe040586	-0.12892732
84	0xbee86d5d	-0.45395938
85	0xbdd14274	-0.10217753
86	0xbe291e40	-0.16515446
87	0xbea818d7	-0.3283145
88	0xbe3eba5d	-0.1862578
89	0xbdbe08d1	-0.09279025
90	0xbf605139	-0.87623936
91	0x3f85be58	1.0448713
92	0x3e1d75e0	0.15376997
93	0xbecb8ba7	-0.39754984
94	0xbe08d73a	-0.13363352
95	0x3dd9d2d7	0.10635918
96	0x3eaadda5	0.33372226
97	0xbc3be16c	-0.011467319
98	0xbee59be9	-0.44845513
99	0x3b0d21dc	0.0021535074
100	0xbf7d113b	-0.98854417
101	0xbf84f4f1	-1.038725
102	0xbe8c56fd	-0.27410117
103	0xbc417385	-0.011807327
104	0xbf773dbf	-0.9657859
105	0x3ff85b71	1.9402906
106	0x3ee06a0e	0.43830913
107	0x3e91389e	0.28363508
108	0x3dcc34fe	0.09971045
109	0xbee4f491	-0.4471784
110	0x3ec8304e	0.39099354
111	0x3df84de6	0.12124233
112	0xbf8c3baf	-1.0955714
113	0xbe0578f0	-0.13034415
114	0xbe765275	-0.24054892
115	0xbf2affe4	-0.6679671
116	0x3d973823	0.07383754
117	0xbfb7e973	-1.4368118
118	0xbf46788c	-0.7752769
119	0x3c913185	0.017723808
120	0xbec4ee56	-0.38463086
121	0xbd31dfc3	-0.043426286
122	0xbb7c7c51	-0.0038526247
123	0x3b4b7dc7	0.003105031
124	0x3cad0a37	0.021123035
125	0xbda140f8	-0.0787372
126	0xbea1f978	-0.31635642
127	0xbd346f08	-0.0440512
128	0xbeaa8038	-0.33300948
129	0x3e42f864	0.19040066
130	0x3ccd5a75	0.025067547
131	0x3ee3734e	0.44423908
132	0x3dbefbca	0.09325369
133	0xbd561bb6	-0.05227252
134	0xbeb52550	-0.3538003
135	0x3ed24431	0.4106765
136	0xbee31e66	-0.4435913
137	0xbfe64384	-1.7989354
138	0xbf2fee82	-0.6872331
139	0xbf25d490	-0.6477747
140	0x3dfb849e	0.12281154
141	0xbea2c4fa	-0.31790906
142	0xbf8a94a4	-1.0826612
143	0xbe2660ee	-0.16247913
144	0xbe2edf25	-0.1707731
145	0xbf84f020	-1.038578
146	0x3e3dcd7b	0.18535416
147	0xbc14c6da	-0.009080613
148	0xbeb83061	-0.3597441
149	0x3ed46997	0.4148681
150	0xbce4c5e7	-0.027926398
151	0x3fbd1fab	1.4775289
152	0xbeebd87c	-0.46063602
153	0x3f286b1f	0.65788454
154	0x3d001115	0.03126629
155	0xbe778901	-0.24173357
156	0xbf38bb9e	-0.7216128
157	0x3f66d7f9	0.901733
158	0x3fde6f07	1.7377633
159	0x3e4de46f	0.20106672
160	0x3e68012a	0.22656694
161	0x3ee4fa6b	0.44722304
162	0xbe6e4411	-0.23268153
163	0xbf543ffe	-0.82910144
164	0xbf452bec	-0.77020144
165	0xbf03c030	-0.5146513
166	0x3e060d1a	0.13090935
167	0x3f756ec0	0.95872116
168	0xbe4ec9fb	-0.20194237
169	0xbcbae0ad	-0.022812212
170	0xbdcc40b7	-0.09973281
171	0x3edb57d6	0.4284045
172	0x3cef5402	0.029214863
173	0x3e2837ec	0.16427583
174	0xbe450929	-0.19241776
175	0xbec2be61	-0.38035873
176	0xbed33c98	-0.41257167
177	0xbf1e69ea	-0.6188036
178	0x3f16ab4f	0.58855146
179	0x3d03ed4e	0.032208733
180	0x3b5072cc	0.0031806706
181	0xbf639150	-0.88893604
182	0x3ea10316	0.31447667
183	0x3f0c2332	0.54741204
184	0xbd9e4d90	-0.077296376
185	0x3e8ea36a	0.2785905
186	0x3abcc126	0.0014400824
187	0xbd86b05a	-0.06576605
188	0x3e8eda52	0.2790094
189	0x3d44864a	0.04797963
190	0xbf271292	-0.6526271
191	0x3f55d9c9	0.8353544
192	0xbe993726	-0.29924887
193	0xbf0d7adb	-0.5526559
194	0xbf067a18	-0.5253005
195	0xbd2e56bd	-0.04256319
196	0xbe3d47f1	-0.18484475
197	0xbf83895a	-1.0276291
198	0xbf50d1ab	-0.8156993
199	0xbeb35df3	-0.35032615
200	0x3f5f314a	0.87184584
201	0xbf20e3e5	-0.6284774
202	0xbd8368ae	-0.064164504
203	0x3da45c3b	0.08025404
204	0x3f6d5ec7	0.92722744
205	0xbdd70454	-0.104988724
206	0x3f5e5abd	0.86857206
207	0xbfa0e897	-1.2570981
208	0xbf6193a8	-0.8811593
209	0xbf1e2879	-0.61780506
210	0xbe31e6f8	-0.17373264
211	0x3fe0eb6f	1.7571849
212	0xbd8d8551	-0.06910194
213	0x3de9411d	0.113893725
214	0xbe09b568	-0.13448107
215	0x3f05aa8c	0.5221336
216	0x3e986753	0.2976633
217	0xbed3a069	-0.4133332
218	0xbf922006	-1.1416023
219	0xbe3fe70e	-0.18740484
220	0xbe3e08d3	-0.18558054
221	0xbfca1306	-1.5787055
222	0xbd4589cb	-0.048227113
223	0x3dfc7c9e	0.12328456
224	0xbc8ea8c1	-0.017414453
225	0x3dfecc90	0.12441361
226	0xbee26d6a	-0.442241
227	0x3e59e89a	0.21280137
228	0x3f4b42fd	0.7939909
229	0x3f14dabf	0.5814628
230	0x3f4818be	0.78162754
231	0x3f3f0c80	0.7462845
232	0xbe2327d5	-0.15933163
233	0x3eac9bc3	0.33712587
234	0x3f576e70	0.8415289
235	0xbd27d726	-0.040976666
236	0xbd95f08e	-0.07321273
237	0x3e473dcf	0.19457172
238	0x3efb1fc5	0.49047676
239	0xbf552e0e	-0.832734
240	0x3e896ca5	0.26840702
241	0x3c11470f	0.008867039
242	0x3f82dd60	1.0223808
243	0x3d91adb3	0.071132086
244	0x3e30a4b5	0.17250331
245	0xbf932c31	-1.1497861
246	0x3f536008	0.8256841
247	0xbd924070	-0.07141197
248	0xbfbcbc44	-1.4744954
249	0xb8d55257	-0.000101719685
250	0x3dd1acd0	0.102380395
251	0x3f65a7bb	0.8970906
252	0x3e1108ba	0.14163485
253	0xbc47bcd5	-0.012191017
254	0x3e029431	0.12751843
255	0x3e2616a8	0.1621958

model/dense_2/MatMul;model/activation_2/Relu;model/dense_2/BiasAdd f4 [100]
0	0x4265c577	57.442837
1	0xc27255c0	-60.58374
2	0xbfd885c3	-1.6915821
3	0xc2854a5c	-66.64523
4	0xc1494f3c	-12.581844
5	0x418df8e6	17.746532
6	0x41f40ab0	30.505219
7	0x42090607	34.255886
8	0xc165f032	-14.371141
9	0xbf8aa130	-1.083044
10	0xc13f4d22	-11.956331
11	0xc19013e8	-18.00972
12	0xc05e2bac	-3.4714155
13	0x41152957	9.322593
14	0x40c4c0d3	6.148538
15	0xc246144c	-49.51982
16	0xc1efba99	-29.966112
17	0x4121e08e	10.117323
18	0xbf48f7f1	-0.7850333
19	0x40e306a0	7.0945587
20	0x41f13695	30.151651
21	0x40d67db5	6.702845
22	0x41f75317	30.915571
23	0x41955384	18.66578
24	0xc0295f8e	-2.6464572
25	0x41790747	15.564277
26	0xc1029ded	-8.163556
27	0x423210ae	44.51629
28	0xc1a6f8ff	-20.87158
29	0x408209c8	4.063694
30	0x402bb506	2.6829238
31	0x4129c5a3	10.610751
32	0x41fe17b8	31.761581
33	0x40e083b4	7.016077
34	0x41ed9428	29.697342
35	0xc218a02a	-38.15641
36	0x4290b85e	72.36009
37	0xc1b67dbf	-22.8114
38	0xc20c8800	-35.132812
39	0xc1b93e84	-23.155525
40	0xc08c2a16	-4.3801374
41	0xc22b01a4	-42.751602
42	0xbf3c85d9	-0.73641735
43	0xc191b25d	-18.212091
44	0xc1cb5f15	-25.421427
45	0x42150ef9	37.26462
46	0xc197379e	-18.902157
47	0xc14f62b6	-12.961599
48	0xc21067a2	-36.101204
49	0x4155cd70	13.362656
50	0x42622633	56.537304
51	0x426136ed	56.30364
52	0x4064e51e	3.5764842
53	0xc0c4f4e1	-6.1548924
54	0x409eb6ef	4.9598308
55	0x3e7a1aea	0.2442433
56	0x40fb46f2	7.8524103
57	0x423d48b8	47.321014
58	0x41cdc4d3	25.721106
59	0xc1bf3830	-23.902435
60	0xc14a6b2d	-12.651166
61	0xbf5a4df6	-0.8527521
62	0xc134bd0f	-11.296157
63	0x42cc3637	102.10589
64	0x420bcf73	34.952587
65	0x4111aac6	9.104193
66	0xc2465f58	-49.59311
67	0xc1a5c49e	-20.721004
68	0xc09a7246	-4.8264494
69	0x4203ad65	32.91933
70	0xc3098b8c	-137.5451
71	0x41b18dc9	22.194231
72	0xc22578fe	-41.368156
73	0x41cf3301	25.899904
74	0xc1f6e875	-30.863504
75	0xc1be5c2f	-23.795012
76	0x41b97eb4	23.186867
77	0xc195e158	-18.735031
78	0xc20aaf83	-34.6714
79	0x41ec7939	29.55919
80	0x424c21b6	51.03292
81	0x41b67c54	22.810707
82	0x42109c8f	36.15289
83	0x41698a0d	14.596204
84	0xc120d14f	-10.051101
85	0xc2419e5f	-48.40466
86	0xbfc44f3c	-1.533668
87	0x4215eea2	37.48304
88	0x4202d25b	32.705425
89	0x41de76ee	27.808071
90	0xc2121d91	-36.528873
91	0x40bc5943	5.885896
92	0x40ea450f	7.32093
93	0xc0858392	-4.172311
94	0xc1bbf3a4	-23.493965
95	0x4259ea7d	54.478992
96	0x42474467	49.8168
97	0x41d89e30	27.07724
98	0x4102b6f4	8.169666
99	0xc15a975d	-13.661954

model/batch_normalization_1/batchnorm/mul_1;model/batch_normalization_1/batchnorm/add_1;model/dense_2/MatMul;model/activation_2/Relu;model/dense_2/BiasAdd f4 [100, 100]
0	0xbdfd8cfd	-0.12380407
1	0xbd4306bf	-0.047613855
2	0x3e77988e	0.24179289
3	0xbd61bedc	-0.05511366
4	0xbe54e060	-0.20788717
5	0xbe203852	-0.15646484
6	0x3e009d5e	0.12560031
7	0x3c9f225f	0.01942557
8	0x3e77792d	0.24167319
9	0xbd2b1d3c	-0.041775927
10	0x3e0826cf	0.13296054
11	0x3e22468b	0.15847223
12	0x3dec38af	0.11534249
13	0xbe0f8236	-0.14014515
14	0xbe814a8a	-0.2525218
15	0x3d866f13	0.065641545
16	0x3be263f8	0.00690889
17	0xbe9c26e2	-0.30498415
18	0x3e13c179	0.14429273
19	0x3c9f46eb	0.019442996
20	0xbe0638b8	-0.13107574
21	0xbdad52bd	-0.08463047
22	0x3e094702	0.13405994
23	0x3e285b25	0.16441019
24	0xbdbb4e5b	-0.091458045
25	0x3bad28f2	0.005284422
26	0xbc9e1b90	-0.019300252
27	0x3cbab484	0.022791155
28	0xbdc1f524	-0.09470585
29	0xbe08c4c4	-0.1335631
30	0xbd0920df	-0.033478614
31	0x3b86c9dd	0.0041134194
32	0xbe89c92f	-0.26911303
33	0x3c43b8a2	0.011945875
34	0xbcba8b0e	-0.022771385
35	0x3e520f3d	0.20513625
36	0xbd8594ad	-0.06522498
37	0x3d1a3342	0.03764654
38	0x3dcb7187	0.09933763
39	0xbdda2efc	-0.10653493
40	0xbd2716b1	-0.040793125
41	0xbe3d4ff7	-0.18487535
42	0xbe837407	-0.2567446
43	0x3d86f9b4	0.06590596
44	0x3b97a46b	0.0046277544
45	0x3c369d24	0.011145864
46	0xbd9482ec	-0.07251534
47	0xbd89ca2a	-0.06728013
48	0xbdbf10f1	-0.09329403
49	0xbcbe4ee1	-0.023230972
50	0x3db7343d	0.089455105
51	0x3d4a3f01	0.04937649
52	0x3cbcba39	0.023038017
53	0xbd921e31	-0.07134665
54	0xbe37f7d9	-0.1796564
55	0xbd678486	-0.05652287
56	0x3d467773	0.04845376
57	0x3c97dd1f	0.018538056
58	0x3e67fb2f	0.22654413
59	0xbd0ee512	-0.034886427
60	0x3e3706fa	0.17873755
61	0xbe0e27de	-0.13882396
62	0x3d6a2ea3	0.057173382
63	0xbe83303e	-0.25622743
64	0x3bf23045	0.007391008
65	0x3d50f058	0.05101046
66	0x3d17bfd2	0.03704817
67	0xbd914d81	-0.07094861
68	0xbd38aef9	-0.045088742
69	0x3bce5699	0.0062969443
70	0xbe78eb94	-0.24308616
71	0xbe0cd7b6	-0.13754162
72	0xbd363eb6	-0.0444934
73	0xbd509e24	-0.050932065
74	0xbe87bacc	-0.26509702
75	0xbdb44913	-0.08803
76	0x3ccd4a9b	0.025059989
77	0xbca30860	-0.019901454
78	0xbd7436a6	-0.05962243
79	0xbeac4dab	-0.33653006
80	0x3d1cc36d	0.03827231
81	0xbd6314dc	-0.055439815
82	0x3d6a3574	0.057179883
83	0x3d99ce9b	0.0751011
84	0xbd2a1aec	-0.04152958
85	0xbcc5c5bc	-0.024142139
86	0x3db6c7e5	0.089248456
87	0xbc4b66d2	-0.012414651
88	0xbe03fe57	-0.12889992
89	0x3c2d236a	0.010567525
90	0x3db77757	0.08958309
91	0xbc6d0273	-0.014465916
92	0xbda5a754	-0.08088556
93	0xbe5c373c	-0.21505445
94	0xbebd421d	-0.36964503
95	0x3eaac908	0.333565
96	0x3e4847f9	0.19558705
97	0xbed9fe2c	-0.4257673
98	0x3e00dcb4	0.12584192
99	0xbe8825a2	-0.26591212
100	0x3c9d06b6	0.01916824
101	0x3d1c1e76	0.038114987
102	0xbba96fff	-0.0051708217
103	0xbd9001e1	-0.070316084
104	0x3d6bc9eb	0.05756561
105	0x3cce05a3	0.025149172
106	0x3dba9e61	0.0911224
107	0xbbbd58b4	-0.0057783965
108	0xbca167f6	-0.019702893
109	0x3d274289	0.040834937
110	0x3a98eea3	0.0011667799
111	0x3c713352	0.014721708
112	0xbd5da370	-0.054110944
113	0x3c21e0f0	0.009880289
114	0x3db51092	0.08841051
115	0x3da9e6e3	0.08295991
116	0x3c0c32bf	0.008557021
117	0xbca7c6aa	-0.020480473
118	0xbdc123b6	-0.094306394
119	0x3cb1b2ba	0.021691669
120	0xbdce1e04	-0.10064319
121	0x3c9d951e	0.019236144
122	0x3d79cc83	0.060986053
123	0x3dc70b3d	0.097189404
124	0x3d512e0a	0.051069297
125	0x3c65ec9f	0.014033466
126	0xbe052c32	-0.1300514
127	0xbdf74d31	-0.1207527
128	0x3d89a3aa	0.067206696
129	0xbcf2e194	-0.02964858
130	0x3e428678	0.18996608
131	0x3ea7fab1	0.3280845
132	0x3e483882	0.19552806
133	0x3ae2ba5c	0.0017297971
134	0x3cdd4cfe	0.027014252
135	0xbdfa5e1e	-0.12224983
136	0x3c37843c	0.011200961
137	0x3decc4f6	0.11561005
138	0xbdd8f99c	-0.10594484
139	0x3ccab1b9	0.024742948
140	0xbd0f22c5	-0.03494527
141	0xbd6cdfc6	-0.057830594
142	0x3dadeeb0	0.08492792
143	0x3c0bc756	0.008531412
144	0x3e0682ee	0.13135883
145	0x3dd63503	0.1045933
146	0x3d4a2828	0.049354702
147	0x3d512f8c	0.051070735
148	0x3d71cdd9	0.059034202
149	0x3ddba1b2	0.107242
150	0x3da1006e	0.0786141
151	0xbda2ba02	-0.079456344
152	0x3e6fb0fc	0.23407358
153	0x3f643507	0.89143413
154	0x3df23f52	0.11828484
155	0x3c364e30	0.01112704
156	0x3e529033	0.2056282
157	0x3c83725d	0.016045744
158	0xbd0c8f46	-0.034316324
159	0x3cc34841	0.023838164
160	0x3cb13c8c	0.021635316
161	0xbe1c9d18	-0.15294302
162	0x3ec20639	0.37895373
163	0xbcb145f4	-0.021639802
164	0x3c67fa0e	0.014158739
165	0x3df92941	0.12166072
166	0xbe061513	-0.13093977
167	0x3bbfe525	0.0058561736
168	0x3cf68df4	0.030096985
169	0xbdba691a	-0.09102078
170	0xbd9fd41e	-0.0780413
171	0xbcccbc72	-0.024992201
172	0xbd3acb41	-0.045603994
173	0x3e83a35e	0.25710577
174	0x3d403700	0.046927452
175	0xbded2e97	-0.11581152
176	0x3cc9b757	0.024623556
177	0x3dbc8cae	0.0920652
178	0xbd4d2cde	-0.050091617
179	0xbd7a3e58	-0.061094612
180	0x3d676d27	0.05650058
181	0x3cfbfbd4	0.03075973
182	0x3d0fc4bd	0.035099734
183	0x3dd89e9a	0.10577126
184	0x3c808846	0.01568998
185	0xbd364315	-0.04449757
186	0xbd464065	-0.048401255
187	0x3d4f1161	0.050553683
188	0x3cceef85	0.025260696
189	0x3d1a6358	0.037692398
190	0x3ef8320a	0.48475677
191	0xbd0278fe	-0.03185367
192	0xbe4c2028	-0.19934142
193	0x3e2bc790	0.16775346
194	0xbcbd22e6	-0.02308793
195	0xbdccf50f	-0.10007679
196	0xbe5d3ffe	-0.21606442
197	0xbcdadbc0	-0.026716113
198	0xbddca068	-0.107727826
199	0xbe6c59d9	-0.23081149
200	0x3ecb1cc6	0.3967039
201	0x3e668909	0.22513212
202	0xbd284e28	-0.04109016
203	0x3d3ddde2	0.046354182
204	0xbaba3014	-0.0014205002
205	0xbbef1f92	-0.0072974646
206	0x3dd02e1a	0.10165043
207	0x3c571be0	0.0131292045
208	0xbd6037fc	-0.05474089
209	0x3e0e4ba3	0.1389604
210	0x3d204d73	0.03913636
211	0x3d603cda	0.054745533
212	0xbbe7b1c7	-0.0070707533
213	0xbd808d96	-0.062770054
214	0xbc1dcf39	-0.009631925
215	0xbe4a04f0	-0.19728446
216	0x3d82297e	0.0635557
217	0x3d18c745	0.037299413
218	0xbdd2961a	-0.10282536
219	0x3c06e7aa	0.008233944
220	0x3e519c57	0.20469795
221	0x3b6b4308	0.0035898108
222	0x3c348410	0.011017814
223	0x3d20c64e	0.039251618
224	0xbd0c469c	-0.034247026
225	0xbd14e1ce	-0.036348157
226	0xbd7c3516	-0.061574064
227	0xbd89e7fe	-0.06733702
228	0x3c6ee519	0.014580988
229	0x3d4ee7fb	0.050514203
230	0x3d125a62	0.035730727
231	0x3e1dc66c	0.15407723
232	0xbd919a51	-0.07109512
233	0x3cd211bb	0.02564322
234	0xbde65e2c	-0.112484306
235	0xbd4e05ec	-0.050298616
236	0x3dadbc13	0.08483138
237	0x3d2e1ba5	0.042506833
238	0xbc866974	-0.016407706
239	0x3d41ccb3	0.047314357
240	0x3d3af465	0.04564323
241	0x3ef743d1	0.48293927
242	0xbcd79a79	-0.026318775
243	0x3c9f0857	0.019413156
244	0x3e298e19	0.16558112
245	0x3d63ede4	0.055646792
246	0xbc8987ab	-0.016788324
247	0xbc97ed90	-0.018545896
248	0xbdd8688c	-0.10566816
249	0x3c5dde7c	0.013541814
250	0x3da8e7ea	0.08247359
251	0xbc39568d	-0.011312139
252	0xbd40f718	-0.047110647
253	0xbd26f3be	-0.040759794
254	0xbdf1c18d	-0.11804495
255	0x3ad788cc	0.0016443967

model/dense_3/MatMul;model/activation_3/Relu;model/dense_3/BiasAdd f4 [100]
0	0xc1c3ffd6	-24.49992
1	0x41ddb6e4	27.714302
2	0xc0e02d75	-7.005549
3	0xc12c46b5	-10.767262
4	0x41a1b662	20.214054
5	0xc12e99bc	-10.912533
6	0x3ffbda38	1.967597
7	0x40eb11cc	7.3459225
8	0x41e68d2e	28.818935
9	0x41637d59	14.218102
10	0x41f8dab2	31.106785
11	0x4228e257	42.221035
12	0x4203aefc	32.920883
13	0x4180f78b	16.12087
14	0x41074cf9	8.456292
15	0x408b4f30	4.3534164
16	0xc150ba9e	-13.045561
17	0x41531288	13.192024
18	0x41011d9f	8.069732
19	0x409db9ff	4.9289546
20	0x41c837da	25.027271
21	0xc0504be4	-3.254632
22	0xc0f88d02	-7.767213
23	0x41dea461	27.830263
24	0x4210a5ed	36.162037
25	0x422ebe94	43.68611
26	0x41f0a367	30.079786
27	0xc1164d8b	-9.393931
28	0xc19134e3	-18.150824
29	0xc2002099	-32.031834
30	0x408eb6da	4.4598207
31	0x41940610	18.50296
32	0x41996894	19.176064
33	0xc0e132b6	-7.0374403
34	0x41020e2b	8.128459
35	0x4261c51a	56.442482
36	0xc0bee82b	-5.965841
37	0x418a5779	17.292711
38	0xc1e4f293	-28.618444
39	0x4113ffb7	9.24993
40	0x41c6d0e1	24.851992
41	0x41e41c8c	28.513939
42	0x421be313	38.971752
43	0xc1e441bd	-28.532099
44	0x40e0525e	7.0100546
45	0xbea518c3	-0.32245454
46	0xc1a6c934	-20.848244
47	0x4117a15b	9.476893
48	0x41bec167	23.844435
49	0xc0c7417a	-6.2267427
50	0x41003c6a	8.01475
51	0xc1e9407d	-29.156488
52	0xc16df1e9	-14.87156
53	0xc211cd23	-36.45033
54	0xc1be063f	-23.75305
55	0x41985708	19.042496
56	0x3ed44d10	0.41465044
57	0xc1352f0d	-11.323987
58	0x406742e8	3.6134586
59	0x41938bc8	18.443253
60	0x3fc2460c	1.5177627
61	0xbe689c7d	-0.22715946
62	0x40ba1092	5.8145227
63	0x418e6487	17.799086
64	0xc188acea	-17.08443
65	0x411aeedd	9.683316
66	0x3f1bfc81	0.60932165
67	0xc0ce9e48	-6.4568214
68	0x4182d830	16.35556
69	0x40b9bf3b	5.8045936
70	0x4039af28	2.9013157
71	0x415b09cc	13.689892
72	0x40fa7b3f	7.8275447
73	0xc175acdf	-15.354705
74	0x41bbfff4	23.499977
75	0xc0ef97dd	-7.487288
76	0xc1a3d872	-20.480686
77	0x410c8f20	8.784943
78	0xc13bcd30	-11.737595
79	0xc2044b43	-33.073498
80	0xc1ae04c0	-21.75232
81	0xbfe430ed	-1.7827431
82	0xc0ddaf9d	-6.927687
83	0x41895fce	17.17178
84	0xc0c274fe	-6.0767813
85	0xc1907062	-18.054874
86	0x4155750e	13.341078
87	0x3fb8826d	1.4414803
88	0xc186edbb	-16.86608
89	0x410987d6	8.595663
90	0xc14379bf	-12.217223
91	0x41da8fe0	27.320251
92	0xbefbe06f	-0.49194667
93	0xc1175654	-9.458576
94	0x41b9cbca	23.224506
95	0xc2348cde	-45.137566
96	0xc0163638	-2.3470592
97	0x417ec4dc	15.923061
98	0x41ddf399	27.743944
99	0xc0341e25	-2.8143399

model/batch_normalization_2/batchnorm/mul_1;model/batch_normalization_2/batchnorm/add_1;model/dense_3/MatMul;model/activation_3/Relu;model/dense_3/BiasAdd f4 [100, 100]
0	0x3deaf748	0.114729464
1	0xbd671cab	-0.056423824
2	0xbcc92ac8	-0.024556533
3	0x3e085cd8	0.13316667
4	0x3cd4e263	0.025986856
5	0xbe17b615	-0.14815553
6	0x3dc48b23	0.09596851
7	0x3e685f78	0.22692668
8	0xbd8e5132	-0.069490805
9	0x3e3d67db	0.18496649
10	0xbe5dc678	-0.21657741
11	0x3c795b5c	0.015219536
12	0xbdd4d2ff	-0.10391807
13	0xbd83abd0	-0.06429255
14	0x3e002ade	0.12516353
15	0x3d977460	0.07395244
16	0xbcb9df0f	-0.02268937
17	0x3e3cce37	0.1843804
18	0x3dcd28f4	0.10017577
19	0x3c8694ab	0.016428312
20	0xbd5fa24c	-0.054598138
21	0xbc30ed29	-0.010798731
22	0x3efe4408	0.4966128
23	0xbd8031f8	-0.06259531
24	0xbcd75fff	-0.026290892
25	0xbceabd1b	-0.028654626
26	0x3e5305b8	0.2060765
27	0x3d38882d	0.045051742
28	0xbe0e8eb7	-0.13921629
29	0xbd936da9	-0.071986504
30	0xbda8a158	-0.08233899
31	0xbd077f59	-0.033080433
32	0xbd83bcfd	-0.06432531
33	0xbd50ac54	-0.050945595
34	0xbe2e44ef	-0.17018484
35	0xbdb0a273	-0.08624735
36	0x3dd5eeda	0.10445948
37	0xbe170555	-0.14748128
38	0xbd4cd2f2	-0.05000586
39	0xbcf7142f	-0.030160991
40	0xbd35c30d	-0.044375468
41	0xbd3e68c3	-0.046486627
42	0x3d043150	0.03227359
43	0x3dde35aa	0.10850079
44	0xbc410a5c	-0.011782255
45	0xbd8e5158	-0.06949109
46	0x3d3c1b69	0.045924578
47	0xbe4049c4	-0.1877814
48	0x3e24cd80	0.16094017
49	0x3e809ca9	0.25119522
50	0x3d9da4dc	0.0769746
51	0x3d952002	0.07281496
52	0x3e32474c	0.1741001
53	0x3dd10117	0.10205286
54	0xbe1fb948	-0.15598023
55	0x3d6a7c03	0.057247173
56	0x3cd1a2f5	0.0255904
57	0x3e493a66	0.19651183
58	0x3e070636	0.13185963
59	0xbe228c79	-0.15873899
60	0xbe584423	-0.21119742
61	0x3e10c988	0.14139378
62	0x3e30f9f7	0.17282854
63	0xbe0a7bbe	-0.13523766
64	0x3d9e3fdf	0.07727026
65	0xbcd08512	-0.025454078
66	0xc0750ede	-3.8290324
67	0xbbfa2cb7	-0.007634725
68	0x3d275aef	0.040858205
69	0x3d6b0d80	0.05738592
70	0x3cc70d30	0.02429828
71	0xbd6c4e5c	-0.057691917
72	0xbd90a553	-0.07062783
73	0xbd47de09	-0.048795734
74	0x3bcd8900	0.006272435
75	0x3dc5da29	0.096607514
76	0xbd3deb20	-0.04636681
77	0x3d5ab63f	0.05339646
78	0xbc78e84c	-0.015192103
79	0x3e0a2303	0.13489918
80	0x3bea7419	0.007154953
81	0xbded99d4	-0.11601606
82	0xbd3f5868	-0.04671517
83	0x3d171022	0.03688062
84	0x3c9ea665	0.019366452
85	0x3bbdcf18	0.0057925098
86	0x3d9716d1	0.07377399
87	0xbe2a6ff4	-0.16644269
88	0x3e82f0d9	0.25574377
89	0x3ec79e79	0.38988093
90	0xbdad1134	-0.08450547
91	0xbe202462	-0.15638879
92	0x3c05e297	0.008171699
93	0x3de782a9	0.11304218
94	0x3e044836	0.12918171
95	0xbc6cc849	-0.014452049
96	0x3cd56639	0.02604972
97	0xbea40aa3	-0.32039365
98	0xbdcc427e	-0.0997362
99	0xbd3b448f	-0.04571968
100	0xbe808404	-0.2510072
101	0x3c8689e1	0.016423168
102	0xbe82e0d3	-0.25562152
103	0xbcf607c5	-0.030033002
104	0xbd0f2656	-0.03494867
105	0x3d7cb562	0.061696418
106	0x3dcd130d	0.10013399
107	0x3e339754	0.17538196
108	0xbdf5915d	-0.119906165
109	0xbe90489d	-0.281804
110	0x3d2ebd84	0.042661205
111	0x3e5352d8	0.20637071
112	0xbc3c5f6b	-0.011497359
113	0xbd462c63	-0.048382174
114	0x3e44b6e5	0.19210394
115	0x3def1a29	0.116749115
116	0x3d5d20c6	0.053986333
117	0xbc43681f	-0.01192668
118	0xbe14da9c	-0.14536518
119	0xbdab0d62	-0.08352162
120	0xbc8e6a21	-0.01738459
121	0x3cdc50dc	0.026894026
122	0xbe0df5db	-0.13863318
123	0xbd7b32d8	-0.061327785
124	0x3d9e4d56	0.077295944
125	0xbe350b83	-0.17680173
126	0x3e8c42cc	0.27394712
127	0x3dea055d	0.11426804
128	0x3df38f12	0.11892523
129	0x3d79018a	0.060792483
130	0xbe500282	-0.20313457
131	0x3e98829a	0.2978714
132	0x3cc72198	0.024308011
133	0x3e2ca7d5	0.16860898
134	0xbe007c3c	-0.12547392
135	0xbb3b334d	-0.0028564513
136	0x3d8fbd91	0.07018579
137	0x3d7b5a55	0.061365444
138	0xbca093fc	-0.019601814
139	0x3e9b3299	0.3031204
140	0xbe210bad	-0.1572711
141	0x3baa794b	0.0052024475
142	0xbcf23e8b	-0.029570838
143	0xbe32f295	-0.1747535
144	0x3df04913	0.11732688
145	0x3da17d39	0.078852125
146	0x3dd2a415	0.102852024
147	0xbeb1034f	-0.34572837
148	0xbe55de70	-0.20885634
149	0xbe97912e	-0.2960295
150	0xbd59f9d6	-0.053216778
151	0x3e83c94f	0.25739524
152	0xbd4ce939	-0.050027106
153	0xbe4d9d86	-0.20079622
154	0xbe65dc24	-0.22447258
155	0xbd662359	-0.056186054
156	0x3d964fb2	0.073394194
157	0xbc34569a	-0.011006976
158	0xbe6007d0	-0.2187798
159	0x3e3b90a9	0.18316902
160	0x3e169994	0.14707023
161	0x3e4bb0d2	0.1989167
162	0x3c74ddaf	0.014945432
163	0xbe1bacac	-0.15202588
164	0xbd9ecc69	-0.07753832
165	0xbe037daf	-0.12840913
166	0x3db7fc21	0.08983637
167	0xbd14b8b3	-0.036308955
168	0x3d907eb2	0.07055415
169	0xbce10aab	-0.027470907
170	0xbe11da9d	-0.1424355
171	0x3dc040ce	0.093873605
172	0x3dbf8d75	0.09353153
173	0x3d0dd114	0.03462322
174	0xbdaac498	-0.083382785
175	0xbc8fbec9	-0.017547028
176	0xbd9f981b	-0.07792684
177	0xbca83060	-0.02053088
178	0xbddafe78	-0.10693067
179	0x3e6ae183	0.22937588
180	0xbd0411e6	-0.03224363
181	0xbdf0fa96	-0.117665455
182	0x3e0d01f1	0.13770272
183	0xbe81389d	-0.25238505
184	0xbd1ebd18	-0.038754553
185	0x3d1a3dd1	0.03765661
186	0x3e7cc78f	0.246855
187	0xbe83055b	-0.25590023
188	0xbe7b05f3	-0.24513988
189	0x3d10f258	0.035387367
190	0x3e09413b	0.1340379
191	0x3e39ff5a	0.18163815
192	0x3dd947d5	0.10609404
193	0xbcfe408a	-0.031036634
194	0xbddf9c7d	-0.1091852
195	0xbd944e56	-0.07241504
196	0x3dbd36bc	0.092389554
197	0xbdd56fef	-0.1042174
198	0x3ba24c6c	0.004952958
199	0x3c88415b	0.016632726
200	0x3d8e50c7	0.06949001
201	0x3e783d82	0.24242213
202	0xbd74a54f	-0.059727963
203	0xbd6b3296	-0.05742129
204	0x3dc819b9	0.09770531
205	0x3df14c12	0.117820874
206	0x3d4dae4d	0.050215054
207	0x3db90990	0.09035027
208	0x3d8aa298	0.067692935
209	0x3dcb5bc1	0.0992961
210	0xbdaeafe7	-0.085296445
211	0x3e12eb9b	0.14347689
212	0x3cdce82f	0.026966183
213	0xbe46a52f	-0.1939895
214	0x3d7a7151	0.061143223
215	0x3e247077	0.16058527
216	0x3ea99638	0.3312242
217	0x3c737379	0.014859074
218	0xbe1f60ee	-0.1556432
219	0x3db3d5c7	0.08781009
220	0xbdfdf429	-0.124000855
221	0x3d25c352	0.040469475
222	0x3cc5afec	0.024131738
223	0xbdb6da5f	-0.0892837
224	0xbd0ba851	-0.034096066
225	0x3dc26bd2	0.09493221
226	0x3c189fef	0.009315475
227	0x3ce1d49a	0.027567197
228	0x3c9fa21d	0.019486481
229	0xbda79402	-0.08182527
230	0xbd3f0a9a	-0.04664097
231	0xbd79365d	-0.06084286
232	0xbe7b5a0c	-0.24546069
233	0x3db3c835	0.08778421
234	0xbcbc3b65	-0.02297754
235	0xbd30b5ee	-0.04314225
236	0x3de58e03	0.11208727
237	0x3e0b6adb	0.13614981
238	0x3d0eaf5b	0.0348352
239	0xbe2e2db1	-0.17009617
240	0xbbf4cc7e	-0.0074706664
241	0xbc710257	-0.0147100305
242	0xbce39a86	-0.027783643
243	0x3dd85d38	0.10564655
244	0x3cb8a850	0.022541195
245	0xbe4cb94c	-0.1999256
246	0x3bd02ed5	0.006353239
247	0x3c0ffbcb	0.008788059
248	0xbdaea0de	-0.08526777
249	0xbd6b0226	-0.057375096
250	0xbe85132a	-0.25991184
251	0xbdee56bf	-0.11637639
252	0x3d8663dd	0.06562016
253	0xbcc2c9ac	-0.023777805
254	0xbbf7844e	-0.0075536137
255	0xbe2db10f	-0.16962074

model/dense_4/MatMul;model/activation_4/Relu;model/dense_4/BiasAdd f4 [100]
0	0xc0864a3f	-4.1965632
1	0x40bcf8c6	5.905368
2	0xc06b7fee	-3.6796832
3	0xbfb6bc2e	-1.4276178
4	0xbef9c39e	-0.48782057
5	0xbffb17a4	-1.961659
6	0x40d22ffe	6.5683584
7	0x409b78ab	4.85848
8	0x41dafb2c	27.372643
9	0x4109661a	8.587427
10	0xc0d7fa57	-6.749309
11	0xc0a64b13	-5.1966643
12	0x4216ec09	37.730503
13	0x4159f4fa	13.622309
14	0xc14c5065	-12.769628
15	0xc18a53ec	-17.290977
16	0xc1468ae4	-12.408909
17	0xc108d822	-8.552767
18	0x4092f010	4.5918045
19	0x40e2cd50	7.0875626
20	0xc116806f	-9.406356
21	0xc181b745	-16.214487
22	0x41372814	11.447285
23	0xbfb25509	-1.3932201
24	0x41f8e7dd	31.113214
25	0xbfcdb0cc	-1.6069579
26	0x416ee535	14.930959
27	0x41064294	8.391254
28	0x40bf1802	5.9716806
29	0xc09c8967	-4.8917727
30	0x411dba9c	9.858059
31	0x40308511	2.7581217
32	0x41e671f2	28.805637
33	0x3f9f3520	1.2438087
34	0x41350142	11.312807
35	0xc145af01	-12.355226
36	0xc10676fe	-8.404051
37	0x416d468a	14.829721
38	0x41c1157b	24.135489
39	0x4211a64e	36.412407
40	0x421645d7	37.568203
41	0x4082e3d6	4.090312
42	0x4021f939	2.5308363
43	0xc01e1903	-2.4702766
44	0x42329cfc	44.653305
45	0xc0de1518	-6.940075
46	0xc196a85d	-18.832209
47	0xc0c90187	-6.2814364
48	0xc1faf94d	-31.371729
49	0x40d682e2	6.703477
50	0x4201dda2	32.46644
51	0x416f4f40	14.956848
52	0xc0da9140	-6.8302307
53	0x409d5751	4.9169087
54	0x41a7b365	20.962595
55	0x40abadfa	5.3649874
56	0x41d37f5c	26.437187
57	0x41ab9edb	21.452566
58	0x41b2b9ce	22.340725
59	0x41ced156	25.852215
60	0xc1b356e6	-22.41743
61	0x41869656	16.823406
62	0xc109f2e3	-8.6217985
63	0x415cdadc	13.803432
64	0x41184fcf	9.5194845
65	0x4206132e	33.51873
66	0x3da8bf78	0.08239645
67	0x418b0b69	17.380571
68	0x41cae046	25.359509
69	0x41dba882	27.45728
70	0xc0057de7	-2.0858095
71	0x4210dbd3	36.214672
72	0x406b49d7	3.6763818
73	0xc20149f3	-32.322216
74	0x410d90ab	8.847819
75	0x4214fdf6	37.24801
76	0x42094018	34.31259
77	0x3f89b32d	1.0757805
78	0x41a2d098	20.351852
79	0xc1638887	-14.220832
80	0x41b24d9e	22.287899
81	0x41c1419c	24.157036
82	0x40aae030	5.3398666
83	0xc16b82a1	-14.719392
84	0xc039994a	-2.899981
85	0xc1153dd4	-9.327595
86	0x41a4ed13	20.615759
87	0xc00b89b6	-2.1802802
88	0x401846b7	2.379316
89	0x4075af1a	3.8388124
90	0xc1a7a1a5	-20.953928
91	0x41d08607	26.065443
92	0x413e7d41	11.90558
93	0x4110f050	9.05867
94	0x420ed739	35.71018
95	0x42042105	33.032246
96	0x3f3fb50e	0.7488564
97	0xc16de8aa	-14.869303
98	0x41ed3c90	29.654572
99	0xbf2e80f1	-0.681655

model/batch_normalization_3/batchnorm/mul_1;model/batch_normalization_3/batchnorm/add_1;model/dense_4/MatMul;model/activation_4/Relu;model/dense_4/BiasAdd f4 [100, 100]
0	0xbe0b788f	-0.13620208
1	0x3d09eed7	0.03367504
2	0x3c135662	0.008992763
3	0xbe2f27b6	-0.17104992
4	0xbe1ad82c	-0.15121526
5	0x3dccd5a3	0.100016855
6	0x3d11fac3	0.035639536
7	0x3c973108	0.018455997
8	0xbe6e9382	-0.23298457
9	0x3d7866b0	0.060644805
10	0xbc97433a	-0.018464673
11	0x3dd16a21	0.102253206
12	0xbd776d00	-0.060406685
13	0x3d5d9ed9	0.054106567
14	0x3df258a5	0.11833314
15	0x3de80e38	0.11330837
16	0xbd9c34b2	-0.07627238
17	0xbda00950	-0.07814276
18	0xbd0b44fd	-0.03400134
19	0x3c5d213d	0.013496694
20	0x3c904c40	0.017614484
21	0x3f19ef9c	0.6013124
22	0x3f10a3c1	0.5649987
23	0x3e1ef2f1	0.15522362
24	0xbdb57d76	-0.088618204
25	0x3c67923c	0.014133986
26	0x3e1baa46	0.15201673
27	0x3c83457f	0.01602435
28	0xbe841be1	-0.2580252
29	0xbd514797	-0.051093664
30	0xbd8c30a0	-0.06845212
31	0xbe99170e	-0.29900402
32	0xbcc4cc8b	-0.024023315
33	0xbd713c08	-0.05889514
34	0xbc1a4787	-0.0094164675
35	0x3db4ed58	0.08834332
36	0x3e617d6c	0.22020501
37	0xbd1e9bb9	-0.038722727
38	0xbe0635d2	-0.13106468
39	0x3c4eef76	0.012630334
40	0xbe8079c6	-0.25092906
41	0xbb484483	-0.0030558414
42	0x3d0ed08e	0.034866862
43	0x3d0af397	0.03392371
44	0x3df83f5b	0.12121459
45	0x3e021e6e	0.1270692
46	0xbd10ae76	-0.03532263
47	0x3c95bb74	0.018277861
48	0x3e993d8d	0.29929772
49	0xbca4c04e	-0.02011123
50	0x3dff5c34	0.12468758
51	0xbdccc4d5	-0.0999848
52	0x3e893643	0.2679921
53	0x3d02e614	0.0319577
54	0x3d5093d0	0.050922215
55	0x3ca68001	0.020324709
56	0xbdcf63fd	-0.10126493
57	0x3d38b7de	0.045097224
58	0x3cdbefd1	0.026847752
59	0x3e57645b	0.21034376
60	0xbe82657e	-0.25468057
61	0xbc2b1c07	-0.010443694
62	0x3d9c73ac	0.0763925
63	0x3d52c833	0.051460456
64	0xbdaa369a	-0.08311196
65	0xbd74c32d	-0.059756447
66	0x3de24616	0.11048524
67	0x3c9f2ae3	0.01942963
68	0x3cf647f3	0.030063605
69	0x3cfb9c8c	0.030714296
70	0xbc9401f5	-0.01806734
71	0x3cac31cd	0.02101984
72	0x3e1ca229	0.15296234
73	0x3c3d4b1e	0.011553554
74	0xbd641d3f	-0.055691954
75	0xbe65ea52	-0.22452667
76	0xbe273fb8	-0.163329
77	0xbe0c21b7	-0.13684736
78	0xbca527c8	-0.02016057
79	0xbd574267	-0.05255356
80	0x3dfcb6fb	0.12339588
81	0x3cc57a47	0.024106158
82	0x3d8b20cb	0.06793364
83	0xbd9f6b09	-0.07784087
84	0x3dd8a33f	0.10578012
85	0xbb3108cb	-0.0027013298
86	0xbdb66e20	-0.089077234
87	0x3d82bb1a	0.06383343
88	0xbc71b074	-0.014751542
89	0xbc922f31	-0.017844768
90	0xbd111170	-0.03541702
91	0x3d34b111	0.044114176
92	0x3e2ba7b7	0.16763197
93	0x3c830da0	0.015997708
94	0xbeb4c971	-0.35309938
95	0x3d310f89	0.043227706
96	0x3e287cff	0.16453932
97	0x3df9ffe0	0.122070074
98	0x3cb2572d	0.021770084
99	0x3d6c5980	0.05770254
100	0x3dfda5ab	0.12385114
101	0x3d651f69	0.05593816
102	0x3c8b980c	0.017040275
103	0x3de727b2	0.11286868
104	0xbd733f32	-0.05938644
105	0x3bb018a2	0.00537403
106	0x3ca2b2cf	0.019860653
107	0x3e7c56d0	0.24642491
108	0xbe8c5f93	-0.27416667
109	0x3c6aad2b	0.014323513
110	0xbd81827d	-0.06323717
111	0x3e434e91	0.1907294
112	0xbd614019	-0.05499277
113	0xbd1bb523	-0.038014542
114	0x3da801a2	0.082034364
115	0x3da5137d	0.08060358
116	0x3cbd71dd	0.023125583
117	0x3db6eab8	0.08931488
118	0x3db235df	0.08701681
119	0xbefaf9d7	-0.49018738
120	0xbd59766e	-0.05309146
121	0xbe1b9be7	-0.15196191
122	0xbc75bdf2	-0.0149989
123	0x3e282adf	0.16422604
124	0xbe02d442	-0.12776282
125	0x3d94dfe6	0.07269268
126	0xbe073081	-0.13202097
127	0x3caedc17	0.021345181
128	0x3d26ac2f	0.04069155
129	0x3e5def31	0.21673276
130	0xbb5f35ff	-0.0034059284
131	0xbdd13b6a	-0.102164105
132	0x3c1df074	0.009639848
133	0xbd3689d5	-0.04456504
134	0x3e3cf6b4	0.18453485
135	0xb994d909	-0.00028390464
136	0x3dfbcac8	0.12294537
137	0xbce128f9	-0.027485358
138	0xbc9d5c0b	-0.019208929
139	0x3c88bbad	0.016691053
140	0x3dcdb323	0.10043933
141	0xbe1509e9	-0.14554562
142	0x3d5519f1	0.052026693
143	0xbd9ca34b	-0.07648333
144	0x3dea9f99	0.11456222
145	0x3bedfda7	0.0072629037
146	0x3d78dab1	0.060755435
147	0xbd951142	-0.07278682
148	0xbe08419b	-0.13306277
149	0x3af3f82f	0.0018613393
150	0xbccd2da7	-0.025046183
151	0x3c9f0e33	0.01941595
152	0xbe2df2f7	-0.16987215
153	0x3e0f8483	0.14015393
154	0x3da9e03e	0.08294724
155	0x3d3293f3	0.043598127
156	0xbdc37d30	-0.09545362
157	0xbb6eeaa1	-0.0036455768
158	0xbcb48b33	-0.022039032
159	0xbe8334cd	-0.2562622
160	0x3d3c2019	0.04592905
161	0xbd2284b0	-0.039677322
162	0xbe27fe2f	-0.16405557
163	0x3dc04bc5	0.09389452
164	0x3df25b4f	0.11833822
165	0xbdb80b34	-0.08986512
166	0xbc820248	-0.015870228
167	0xbce6e2b5	-0.028184274
168	0x3e4cacce	0.19987795
169	0x3e43a673	0.19106464
170	0xbb9245e0	-0.004463896
171	0xbf0c6948	-0.54848146
172	0xbe05cf7b	-0.13067429
173	0x3e43c969	0.191198
174	0xbd301521	-0.0429889
175	0xbd4a59b9	-0.049401972
176	0xbd9b2f60	-0.075773954
177	0x3e67e3b3	0.22645454
178	0x3daa7551	0.083231576
179	0xbd322df9	-0.043500874
180	0xbdb4c99a	-0.08827515
181	0xbc4856a0	-0.012227684
182	0xbe8c4f10	-0.2740407
183	0xbe2b13b3	-0.16706733
184	0xbe5161f1	-0.20447518
185	0xbe0a61b3	-0.13513832
186	0x3e0a09c1	0.13480283
187	0xbf18f120	-0.5974293
188	0xbd939f92	-0.0720817
189	0x3c69f3c2	0.014279308
190	0x3d4d1946	0.05007293
191	0xbe115572	-0.14192751
192	0xbde6d0d9	-0.11270303
193	0xbd5071e6	-0.050889872
194	0x3c530235	0.012878944
195	0x3d9e1b61	0.07720066
196	0x3ed19d95	0.40940538
197	0x3e11dd7d	0.14244647
198	0xb802c0ea	-3.117408e-05
199	0x3e063dc9	0.13109507
200	0xbdd1dfea	-0.10247786
201	0x3e6a6e94	0.22893745
202	0x3ea75f0a	0.32689697
203	0x3e511a87	0.20420276
204	0x3df59ff6	0.11993401
205	0xbd9c373f	-0.07627725
206	0xbcbc907f	-0.02301812
207	0x3dce7f6a	0.10082896
208	0xbd0e9002	-0.034805305
209	0xbd730cdd	-0.05933844
210	0xbe672f2b	-0.22576587
211	0x3ea77d6d	0.3271288
212	0x3d7f6303	0.062350284
213	0x3cba00e2	0.0227055
214	0xbacb4efd	-0.0015511211
215	0xbb65efc3	-0.0035085536
216	0x3e24fbef	0.1611173
217	0x3e269a7f	0.16269873
218	0xbd910154	-0.070803314
219	0x3d6d18a5	0.05788483
220	0x3c76b597	0.015057943
221	0xbd72a8eb	-0.059243124
222	0xbdb46a64	-0.08809355
223	0xbc3d504c	-0.011554789
224	0xbd8e57b8	-0.06950325
225	0xbe69cebc	-0.22832769
226	0x3e60b118	0.21942556
227	0xbd909fa2	-0.070616975
228	0xbc4e8d9b	-0.012607004
229	0x3e14045a	0.14454785
230	0x3d412182	0.047151096
231	0x3c6e3396	0.014538666
232	0xbe102836	-0.1407784
233	0x3d55a695	0.052160818
234	0x3b691204	0.0035563717
235	0xbe334950	-0.17508435
236	0x3d256f7a	0.040389515
237	0xbd419641	-0.047262434
238	0xbdd1f14e	-0.10251103
239	0xbdd1e068	-0.1024788
240	0xbd045b12	-0.032313414
241	0xbe0826e8	-0.13296092
242	0xbe35aca9	-0.17741646
243	0xbb85495a	-0.004067582
244	0xbdaceb0d	-0.0844327
245	0x3d3ab80b	0.045585673
246	0x3dae6485	0.08515266
247	0x3c58962b	0.013219397
248	0x3e394efd	0.18096538
249	0xbddc10b9	-0.10745377
250	0x3cdafe3c	0.026732557
251	0xbefe16f4	-0.49626887
252	0x3dcbba96	0.09947698
253	0x3dbe1837	0.09281962
254	0x3ab8d5c5	0.0014101794
255	0x3d56475f	0.05231416

model/dense_5/MatMul;model/activation_5/Relu;model/dense_5/BiasAdd f4 [100]
0	0x400fd093	2.2471054
1	0x421a297d	38.540516
2	0xc1a2fc66	-20.373241
3	0x40b104f0	5.5318527
4	0x41b48db2	22.569187
5	0xc12cafc5	-10.7929125
6	0x4214b670	37.17816
7	0x414363be	12.211851
8	0x4054934d	3.3214905
9	0x3fc345b8	1.5255651
10	0x41dc7530	27.55722
11	0xbf1a3a32	-0.6024505
12	0x3e91f007	0.2850344
13	0x420d70b7	35.360073
14	0xc1d86740	-27.050415
15	0x419ffee0	19.99945
16	0xc1829933	-16.324804
17	0x40868e79	4.2048917
18	0x413d3c69	11.827249
19	0x3ef4fe07	0.47850057
20	0x423a6640	46.599854
21	0xc19daa03	-19.708014
22	0x41ac5a4a	21.544086
23	0x41fe6321	31.798403
24	0x41da6f77	27.304426
25	0x412c44fb	10.766841
26	0xbd6020ff	-0.054718968
27	0x40e67d48	7.202793
28	0x410e0645	8.876531
29	0x413ee28b	11.930308
30	0xc153a199	-13.226953
31	0x4077b3cd	3.8703492
32	0xc18113f0	-16.134735
33	0xc183dac8	-16.481827
34	0x4018e395	2.3888905
35	0x419db29d	19.712214
36	0x40927d91	4.577828
37	0x419904d2	19.127354
38	0x408c3f17	4.3827014
39	0xc1f57d7d	-30.686274
40	0x41d3bad6	26.466228
41	0xc1ca912d	-25.320887
42	0x4103227d	8.19592
43	0x416f7cb6	14.967947
44	0x41465b8d	12.397351
45	0xc1859c19	-16.70122
46	0x41457b5f	12.34262
47	0x410647fc	8.392574
48	0xc1f63c5f	-30.779478
49	0x415d10f2	13.816637
50	0xbfb4311e	-1.4077489
51	0x4183aebf	16.460325
52	0xc1c8787e	-25.058834
53	0xc04047f0	-3.0043907
54	0x411f71b2	9.965258
55	0xc0331404	-2.7980967
56	0xc03e37f9	-2.9721663
57	0x4174c08c	15.2970085
58	0x4137e0b2	11.492357
59	0x41eaf9bd	29.371943
60	0x41aa16f1	21.261202
61	0x3f632ca6	0.88740003
62	0x41cd585f	25.66815
63	0x41ad027f	21.626219
64	0xc16dc559	-14.860681
65	0x419a04a3	19.252264
66	0x411942d6	9.578817
67	0xc1116bea	-9.088846
68	0xbf6e3405	-0.93048126
69	0x410eedca	8.933054
70	0xc1b16578	-22.174545
71	0x41197e49	9.593331
72	0x420ba77d	34.913563
73	0x411e9f73	9.913928
74	0xc1359e8d	-11.351209
75	0x40bf4f08	5.9783974
76	0x4104ae44	8.292545
77	0xc0d6e697	-6.715648
78	0xc0b0cdf3	-5.5251403
79	0xc23f65cf	-47.849422
80	0x42568673	53.631298
81	0xc14a2ea1	-12.636384
82	0x41dd8f96	27.69511
83	0x41bceeee	23.616665
84	0x4030cba6	2.7624297
85	0x4182f316	16.368694
86	0xc0deb835	-6.959986
87	0x418772a3	16.930975
88	0xc1419e2e	-12.101118
89	0xc0b65957	-5.6984057
90	0xc1217f95	-10.093648
91	0x418cbf73	17.593481
92	0xc09068ef	-4.5128093
93	0xc1203014	-10.011738
94	0x40cb067f	6.344543
95	0x40f7c595	7.742869
96	0x41abf782	21.495853
97	0x418037d9	16.02727
98	0x41a57ffc	20.687492
99	0x3fa4ca81	1.2874299

model/batch_normalization_4/batchnorm/mul_1;model/batch_normalization_4/batchnorm/add_1;model/dense_5/MatMul;model/activation_5/Relu;model/dense_5/BiasAdd f4 [100, 100]
0	0x3b0ac76f	0.0021176
1	0xbd755da7	-0.059903767
2	0x3c9a9a6c	0.018872462
3	0x3e16e99d	0.14737554
4	0x3d5715db	0.052511077
5	0x3f18323c	0.5945165
6	0x3df43a65	0.119252004
7	0x3dd42470	0.103585124
8	0x3e3b3f4e	0.18285868
9	0xbe47421b	-0.19458811
10	0xbf5448d6	-0.8292364
11	0xbf36ca59	-0.7140251
12	0x3dc66deb	0.09688934
13	0xbdb0882a	-0.08619721
14	0xbbc5987d	-0.006030141
15	0x3e56679f	0.20937966
16	0xbe78a8ef	-0.24283193
17	0xbd74d77e	-0.059775822
18	0x3dc276c8	0.09495312
19	0xbe4551f9	-0.19269551
20	0x3e6c77c3	0.2309256
21	0xbc70a631	-0.014688061
22	0xbda1edd3	-0.079066895
23	0xbd8c6097	-0.068543606
24	0x3c57568d	0.013143194
25	0x3cba6d11	0.022757085
26	0xbcb3013d	-0.021851176
27	0xbb8777d5	-0.004134158
28	0x3e5a0e9e	0.21294639
29	0x3dde2f7d	0.108489014
30	0xbdd4bc09	-0.10387427
31	0xbe645fc6	-0.2230216
32	0xbd6c1c74	-0.057644323
33	0x3bcad811	0.006190308
34	0xbe5a2840	-0.21304417
35	0xbece9114	-0.4034506
36	0xbd9ee598	-0.07758635
37	0xbd1b0605	-0.037847538
38	0xbaac3830	-0.0013139304
39	0x3c46ced4	0.012134273
40	0x3e03b3af	0.12861513
41	0x3e195512	0.14973858
42	0x3c1e33bd	0.00965589
43	0xbd2ab9c4	-0.041681066
44	0xbd146aac	-0.036234543
45	0x3d376abd	0.044779528
46	0xbdf2fb4a	-0.11864336
47	0x3e0d0e84	0.13775069
48	0x3c45f0a0	0.012081295
49	0xbd01535a	-0.03157363
50	0x3d54aea3	0.05192436
51	0x3bdc23e7	0.006718147
52	0x3e3d8cbe	0.1851072
53	0x3d1c2fe0	0.038131595
54	0xbbd36258	-0.0064509325
55	0x3e5fc977	0.21854196
56	0xbdac4db3	-0.084132574
57	0xbe908fdf	-0.28234765
58	0xbe6c0edf	-0.23052548
59	0x3d6d7e08	0.05798152
60	0x3a2c963b	0.00065836654
61	0xbc821fc8	-0.015884295
62	0x3c98b4fb	0.018640986
63	0x3dbb4015	0.09143082
64	0x3e2e654f	0.17030834
65	0x3cfd8934	0.030949213
66	0xbe521f37	-0.2051972
67	0x3d904b2e	0.070455894
68	0xbdd23602	-0.102642074
69	0xbe69e9ce	-0.22843096
70	0x3d2bff36	0.041991435
71	0xbde9a4ee	-0.11408411
72	0xbd752e10	-0.05985838
73	0xbde757b4	-0.11296025
74	0x3c9314b8	0.017954215
75	0xbd9d1934	-0.07670823
76	0x3c5dae77	0.013530365
77	0x3de9f33c	0.114233464
78	0x3eb10a4d	0.3457817
79	0x3dfbab69	0.12288553
80	0xbe17309e	-0.1476464
81	0xbdcc3061	-0.09970165
82	0xbe33e332	-0.17567137
83	0x3ec3048d	0.3808941
84	0xbd6a13c1	-0.057147745
85	0x3d7ac804	0.061225906
86	0x3d417dc5	0.047239084
87	0x3de13a90	0.10997498
88	0xbe4157e4	-0.18881184
89	0xbe83ba8d	-0.25728264
90	0xbe9edebd	-0.3102931
91	0x3d5a588b	0.053307097
92	0x3db32509	0.08747298
93	0xbcb59954	-0.02216784
94	0x3e3fb5e2	0.18721727
95	0x3ce8a8c8	0.028400794
96	0xbd754fe2	-0.059890635
97	0xbe0c41b9	-0.13696946
98	0x3dba5ed0	0.09100115
99	0xbe18dbd4	-0.14927608
100	0xbbfafb4d	-0.007659352
101	0xbc52b6a1	-0.012860925
102	0xbd3eaf50	-0.04655391
103	0xbf1b8a87	-0.6075825
104	0xbc37d130	-0.011219308
105	0x3c8057c3	0.015666848
106	0x3c50fae1	0.012755127
107	0xbc7f6541	-0.015588106
108	0x3ce6fb41	0.02819598
109	0x3e80bfeb	0.25146422
110	0xbf0977b9	-0.5369831
111	0xbf46e6d4	-0.77695966
112	0xbcba74b7	-0.022760732
113	0x3dfe6b20	0.12422776
114	0x3e5e63a7	0.21717702
115	0xbe0f40fa	-0.1398963
116	0xbea32e00	-0.31871033
117	0xbf1bfed1	-0.60935694
118	0x3e0d872e	0.13821098
119	0xbcc9bb47	-0.024625434
120	0xbe5ea690	-0.21743226
121	0xbe572c9f	-0.21013115
122	0xbcec8695	-0.028872767
123	0x3d51d646	0.051229738
124	0xbd4d6f1a	-0.050154783
125	0xbd856a4b	-0.065144144
126	0x3d82c0fa	0.063844636
127	0xbccab8f7	-0.024746401
128	0xbd36fb50	-0.044673264
129	0xbd9a8148	-0.0754419
130	0xbe14fd9f	-0.14549874
131	0xbe4636b8	-0.19356811
132	0x3de40943	0.11134579
133	0x3d38b187	0.04509118
134	0xbd6662ef	-0.056246694
135	0xbec45951	-0.38349393
136	0xbe48e942	-0.19620231
137	0x3dd204ba	0.10254808
138	0x3e2c2819	0.16812171
139	0xbd824d65	-0.06362418
140	0x3ceefed4	0.029174246
141	0xbdedb5bd	-0.116069295
142	0xbcd7b586	-0.026331674
143	0x3d213798	0.03935966
144	0x3c54e268	0.012993433
145	0xbf2e1bc1	-0.680111
146	0x3df4ad25	0.11947087
147	0xbe520188	-0.20508397
148	0xbca3ce49	-0.019995825
149	0x3e1c4e92	0.15264347
150	0x3dc41ded	0.095760204
151	0xbceba185	-0.028763542
152	0x3ce895c5	0.028391728
153	0xbdbe5555	-0.092936195
154	0xbd49ebc2	-0.0492971
155	0xbd1e3134	-0.038621143
156	0x3d0fe135	0.035126884
157	0xbd44a9f5	-0.048013646
158	0xbe3e3e7d	-0.18578525
159	0x3c795f62	0.015220495
160	0xbd2279a8	-0.0396668
161	0x3cb81c05	0.022474298
162	0xbc27ca8f	-0.010241165
163	0xbe0a16f4	-0.13485318
164	0xbd1cbc7a	-0.038265683
165	0xbdf1bce7	-0.118036084
166	0xbe347b5d	-0.17625184
167	0xbd7c806c	-0.06164591
168	0xbd93f07f	-0.07223605
169	0x3ce8abec	0.028402291
170	0xbf16d9ef	-0.5892629
171	0xbd9b7897	-0.0759136
172	0xbda85824	-0.082199365
173	0xbc46be19	-0.012130284
174	0xbe32ce81	-0.17461587
175	0x3c978eec	0.018500768
176	0xbd416244	-0.047212854
177	0xbe471a33	-0.19443588
178	0xbe33d983	-0.17563443
179	0x3d6059fd	0.05477332
180	0x3dc445af	0.095836036
181	0xbd54c601	-0.051946644
182	0x3aa495bc	0.0012556831
183	0x3d19dbaf	0.037563022
184	0xbf1860cb	-0.59522694
185	0xbcd406fe	-0.02588224
186	0x3dd74555	0.10511271
187	0x3c376c63	0.011195275
188	0x3de3fc85	0.11132149
189	0x3e244077	0.16040216
190	0x3b990429	0.0046696854
191	0xbe94fdf0	-0.2909999
192	0xbda34bd7	-0.0797345
193	0xbd960940	-0.07325983
194	0xbd91c392	-0.0711738
195	0xbe5b2679	-0.21401395
196	0xbe1ad993	-0.1512206
197	0xbc7d3223	-0.015453848
198	0xbe01fcf5	-0.12694152
199	0xbecaab31	-0.39583734
200	0x3e050ba1	0.12992717
201	0x3dd74115	0.1051046
202	0x3d42d645	0.047567625
203	0xbc7fd992	-0.015615838
204	0xbcf2303a	-0.029564012
205	0xbe32ff62	-0.17480233
206	0xbd584813	-0.05280311
207	0x3e3e5a48	0.18589127
208	0x3d01f1d6	0.031724773
209	0xbd89bede	-0.06725858
210	0x3cab84f1	0.020937415
211	0xbe0ab0cd	-0.13544007
212	0x3d8762fb	0.06610676
213	0xbe8363be	-0.25662035
214	0x3dddcc11	0.10829938
215	0x3d3b905e	0.045791976
216	0x3d4a8b78	0.049449414
217	0xbe5fcceb	-0.21855514
218	0xbdee2929	-0.116289444
219	0x3e603859	0.21896495
220	0xbc323665	-0.0108772265
221	0x3db6f9a2	0.089343324
222	0x3d84c3b1	0.06482638
223	0x3d6b3500	0.05742359
224	0xbd7fa08a	-0.06240896
225	0xbd94d64e	-0.07267438
226	0xbcb02439	-0.021501647
227	0xbd2b7e4a	-0.041868486
228	0x3e6a1f7a	0.2286357
229	0xbd4497a0	-0.047996163
230	0xbcec61f9	-0.02885531
231	0xbdbdc8eb	-0.09266838
232	0xbce3dc3e	-0.02781498
233	0xbd0d0aad	-0.03443401
234	0x3d50cdba	0.050977446
235	0x3dc016b3	0.093793295
236	0xbd0c8013	-0.03430183
237	0xbe01df87	-0.12682925
238	0x3da6c850	0.08143675
239	0x3c922188	0.017838255
240	0x3ddaaf5b	0.10677978
241	0xbd2d18f8	-0.04226014
242	0xbbdbeeb2	-0.0067118043
243	0xbdf79c75	-0.12090389
244	0x3ce1763c	0.027522199
245	0x3dc01119	0.09378261
246	0xbd1feb46	-0.039042734
247	0xbdc57e8a	-0.09643276
248	0xbcf5c652	-0.030001793
249	0xbce77ae4	-0.028256841
250	0x3f8abbeb	1.0838598
251	0xbdaa1193	-0.08304133
252	0xbe36e8bf	-0.17862223
253	0x3de47324	0.11154774
254	0xbdd62640	-0.10456514
255	0xbc7bb32d	-0.015362543

model/dense_6/MatMul;model/activation_6/Relu;model/dense_6/BiasAdd f4 [100]
0	0xc13b2a6f	-11.69786
1	0x40a625da	5.1921206
2	0x40e2874d	7.079016
3	0xc0ce4bed	-6.4467683
4	0x4205a798	33.413666
5	0xc08ac281	-4.336243
6	0x413bb030	11.730515
7	0x418f5026	17.914135
8	0xc14217c5	-12.130803
9	0x415b4aa5	13.705724
10	0x41e5068e	28.6282
11	0x3f8a4832	1.0803282
12	0x40650f7d	3.5790703
13	0x41d465d3	26.549719
14	0x40f7c609	7.742924
15	0x3f2bcf36	0.67113054
16	0x41af824f	21.938627
17	0x40d44c9d	6.634352
18	0x41dd982d	27.699305
19	0x4154252b	13.259074
20	0x424df03f	51.484615
21	0x4187d23b	16.977652
22	0xc0ddbdbd	-6.9294114
23	0xc1b50b78	-22.6306
24	0x40978b7f	4.7357783
25	0x41475147	12.457343
26	0xbee086e2	-0.43852907
27	0x41b451e7	22.539991
28	0x41db2f91	27.398226
29	0xc11559c2	-9.334414
30	0xbfbc3231	-1.4702817
31	0x3fc1905b	1.5122179
32	0x410898d9	8.537316
33	0xc033e075	-2.8105748
34	0xc0316e71	-2.7723658
35	0x42309ddf	44.15417
36	0xc1d9dcff	-27.232908
37	0x41864cef	16.787565
38	0xc085c892	-4.1807337
39	0x41175adc	9.459682
40	0x414c0206	12.750494
41	0x400e75e6	2.225946
42	0x41b951cd	23.164942
43	0xc149effc	-12.62109
44	0x4192ab3c	18.33361
45	0x40b489e1	5.641831
46	0xc1c1fa75	-24.247293
47	0x4108486b	8.51768
48	0x41224df9	10.144036
49	0x3fbbc633	1.4669861
50	0xc02b7b1e	-2.6793895
51	0xc1b0e904	-22.113777
52	0xbfd0e294	-1.6319146
53	0x4116ebed	9.432599
54	0x40ab6aa6	5.3567686
55	0x41e70dc0	28.881714
56	0x41e9953f	29.197874
57	0xc0e1ac78	-7.0523033
58	0x4140b8a0	12.045074
59	0x41e5581a	28.668018
60	0x4151cc87	13.112433
61	0xc1130df9	-9.190911
62	0xbfeb1f06	-1.8368843
63	0x40dfc360	6.9925995
64	0xc10aa9b0	-8.666428
65	0x4177fc51	15.499101
66	0x420438e3	33.055553
67	0x3ff602c5	1.9219595
68	0xc0a85f75	-5.2616525
69	0x4116b401	9.418946
70	0x41d804ab	27.00228
71	0x4093cf13	4.6190276
72	0xc100abc2	-8.041933
73	0x41553f5e	13.3279705
74	0x40ee583b	7.4482703
75	0xbf79653f	-0.97420114
76	0xc16bdc08	-14.741219
77	0x41a78f23	20.944891
78	0xc168a3a9	-14.539956
79	0x409a0f3a	4.8143587
80	0xbf67a8cd	-0.90491945
81	0x4042790d	3.0386384
82	0xc0cd0e19	-6.407971
83	0x4191999a	18.2
84	0x41a952c6	21.165417
85	0x4140ef2d	12.058393
86	0x4194ee7d	18.61645
87	0x3ff8ea6d	1.9446541
88	0xc0d25d45	-6.5738854
89	0xbfd1ff53	-1.6406044
90	0x41af037a	21.876698
91	0xc1900d42	-18.006474
92	0x4164177c	14.2557335
93	0x412887d8	10.533165
94	0x406ca81c	3.6977606
95	0x41234e0d	10.206555
96	0x41ea4626	29.284252
97	0xbfbeb415	-1.4898707
98	0xc1c90a35	-25.129984
99	0xc0941f90	-4.628853
