corintho_ai/rating/tflite_models/model_60.tflite (tflite, 521576 bytes, 27 tensors)

model/dense_1/MatMul;model/activation_1/Relu;model/dense_1/BiasAdd f4 [100]
-21.263313 144.22281 -58.569206 2.119315 62.11083 45.48869 79.17844 -30.93187
-48.84892 1.0768055 -2.2149098 -59.169598 13.041333 -44.03621 -8.203891 -67.507576
31.964743 17.032896 -17.604506 1.7549007 14.342744 -0.40493277 11.995867 -62.438522
80.08955 9.441971 -0.87149453 -8.765985 -67.923454 42.866665 -45.21748 3.0645814
39.487835 -43.24349 76.107414 59.84395 14.009833 -33.703526 21.287893 35.28361
77.5073 -23.74558 -54.067066 1.1581584 13.987617 -31.340935 0.112775125 -33.609745
-13.064578 -4.8803387 25.943607 -56.65156 19.511084 158.46957 -4.23874 27.636066
9.020108 -19.049532 31.24438 -6.1352487 19.428375 78.211044 -2.855835 33.6289
55.5965 86.2418 132.73878 5.5736294 -23.858206 -92.190735 -25.14879 -31.146887
-3.007266 113.45143 -14.674118 77.767746 -4.1104846 10.033979 -121.92597 1.6431096
20.441774 44.977596 21.042826 -28.223606 4.0389905 75.975174 32.40043 -22.317675
85.867424 33.403152 105.488144 12.624581 67.07911 6.56041 13.990592 -4.3166523
147.79495 31.259583 12.551388 -90.36561
00000000: 441b aac1 0a39 1043 de46 6ac2 dba2 0740
00000010: 7d71 7842 6bf4 3542 5c5b 9e42 7874 f7c1
00000020: 4b65 43c2 c3d4 893f 15c1 0dc0 abad 6cc2
00000030: 4da9 5041 1425 30c2 2343 03c1 e103 87c2
00000040: cbb7 ff41 5f43 8841 07d6 8cc1 96a0 e03f
00000050: e17b 6541 5953 cfbe 12ef 3f41 0cc1 79c2
00000060: d92d a042 5012 1741 441a 5fbf 7941 0cc1
00000070: cfd8 87c2 7777 2b42 b3de 34c2 1a22 4440
00000080: 8bf3 1d42 55f9 2cc2 ff36 9842 3460 6f42
00000090: 4728 6041 69d0 06c2 9b4d aa41 6b22 0d42
000000a0: bd03 9b42 f3f6 bdc1 ad44 58c2 893e 943f
000000b0: 47cd 5f41 3cba fac1 a5f6 e63d 6170 06c2
000000c0: 8308 51c1 bc2b 9cc0 828c cf41 339b 62c2
000000d0: b316 9c41 3678 1e43 c2a3 87c0 aa16 dd41
000000e0: 5d52 1041 7165 98c1 7ef4 f941 f553 c4c0
000000f0: 506d 9b41 0e6c 9c42 00c6 36c0 fe83 0642
00000100: d162 5e42 cd7b ac42 21bd 0443 2c5b b240
00000110: 9bdd bec1 a861 b8c2 b930 c9c1 d32c f9c1
00000120: 0c77 40c0 22e7 e242 30c9 6ac1 1689 9b42
00000130: 1789 83c0 2e8b 2041 19da f3c2 6a51 d23f
00000140: c188 a341 0fe9 3342 b557 a841 f2c9 e1c1
00000150: 693f 8140 4af3 9742 0a9a 0142 998a b2c1
00000160: 1fbc ab42 d49c 0542 eef9 d242 49fe 4941
00000170: 8128 8642 e1ee d140 77d9 5f41 0422 8ac0
00000180: 82cb 1343 a013 fa41 7cd2 4841 31bb b4c2

model/batch_normalization/batchnorm/mul_1;model/batch_normalization/batchnorm/add_1;model/dense_1/MatMul;model/activation_1/Relu;model/dense_1/BiasAdd f4 [100, 100]
0.1114158 -0.76241595 0.28471276 0.084404945 1.5151472 0.16351265 -1.0927407 -1.0310141
0.06769596 0.59040594 0.5108039 0.2259247 0.3097284 0.008249532 -0.6855324 0.044243965
0.0711362 -1.4577106 0.2941601 -0.45990002 -0.07118218 3.4093163 0.013411965 0.08384256
-0.017218743 0.13505782 -0.05939044 -0.9469034 0.04705867 -0.16569744 -0.09771301 0.662168
0.013317998 -0.5535836 -0.014375095 -0.15499294 -0.17617701 -0.24956472 -0.07060717 0.23776188
0.5009212 1.2304132 0.40418783 0.21877196 -0.23954192 -0.14391395 0.34134942 -0.050666947
0.6954924 0.11629202 0.030947078 -0.9299207 0.8888754 5.0967517 0.10689541 -0.11088683
-0.23062734 0.4148551 0.39386666 0.4817079 0.39303893 -0.13451432 0.16815387 -0.91752017
0.36759198 -0.3718418 -0.088626094 0.29121807 -0.066920005 0.78213 0.53993535 -0.034054723
0.12713419 -0.12948933 0.63986886 -0.75728464 -0.48453388 0.11618892 0.02289597 0.31964132
-0.86158067 0.24875616 -0.1705982 -0.06639611 -0.24715441 -0.20144196 -0.15478806 -0.9157159
-0.09683855 -0.12706044 -1.0235391 1.0867784 0.08838549 -0.32235992 -0.16867338 0.15354134
0.21739003 -0.12566054 -0.4968708 -0.121829644 -0.96723235 -1.1267178 -0.3494173 0.0060125077
-1.0675421 2.0720177 0.57991993 0.18403378 -0.023763394 -0.6106698 0.27105165 0.07761733
-1.2663164 -0.17718112 -0.3229855 -0.8335126 0.09924484 -1.636377 -0.8594778 0.071907476
-0.3635887 1.4372097 -0.11524503 -0.11056275 0.1187816 -0.15188058 -0.3987224 -0.03058105
-0.27530593 0.21741378 0.033214506 0.3022421 0.10944837 0.06113589 -0.49244425 0.00017212842
-0.45521966 -1.8176894 -0.7407427 -0.7886044 0.21730621 -0.34818855 -1.0476083 -0.10505805
-0.13311096 -0.975248 0.07604996 0.080836885 -0.23025914 0.4129373 0.05016142 0.23568729
-0.17788777 0.9395005 0.028619047 -0.31648526 -0.5377458 0.98069316 3.631517 0.080287665
0.22632113 0.5326493 -0.045221858 -0.83989227 -0.88070315 -0.4822611 0.24258468 0.8683935
-0.23065045 -0.17783754 -0.13096379 0.3325556 0.21837808 0.16603254 -0.12115943 -0.21118908
-0.55219215 -0.6455509 0.7418148 0.079268694 0.27420437 -1.0140885 0.5187581 0.81604695
-0.18957649 0.15165919 0.089958064 0.52447224 0.30715755 0.046738107 -0.7145851 0.9195632
-0.42217663 -0.66613185 -0.66198325 -0.11997923 -0.31887877 -0.66307306 -0.77181935 -0.27647126
0.96047944 -0.6067507 0.08552259 0.14668874 1.020306 -0.03496177 1.0446478 -1.3225015
-1.0161587 -0.69442207 -0.15554695 2.180541 0.019686736 0.068485804 -0.23088968 0.51595205
0.35401616 -0.48477083 -1.2047474 0.081173524 -0.07883806 -1.1944418 -0.09219669 0.016540773
-0.042619266 0.10022805 -0.5352875 0.14946991 0.86513215 0.29616153 0.7937925 0.6658608
-0.17886448 0.33970013 0.7084278 -0.05764128 -0.11513789 0.12706062 0.5701296 -0.9300886
0.2853031 -0.21609156 1.1433511 0.05685158 0.17115761 -1.2082896 0.9266863 -0.07220991
-1.5999966 0.003693524 0.12978144 0.56975204 0.04215189 0.025808323 0.0596054 0.26452067
00000000: f82d e43d b12d 43bf dfc5 913e 80dc ac3d
00000010: 58f0 c13f dc6f 273e edde 8bbf 45f8 83bf
00000020: 2ea4 8a3d d824 173f 0bc4 023f ce58 673e
00000030: b994 9e3e 0c29 073c 0d7f 2fbf 2939 353d
00000040: dbaf 913d 4396 babf 279c 963e 0478 ebbe
00000050: f6c7 91bd 3d32 5a40 dcbd 5b3c a6b5 ab3d
00000060: 520e 8dbc 994c 0a3e 6443 73bd 4368 72bf
00000070: 98c0 403d 97ac 29be c21d c8bd d883 293f
00000080: bb33 5a3c a8b7 0dbf 8585 6bbc 78b6 1ebe
00000090: bf67 34be e58d 7fbe 7e9a 90bd da77 733e
000000a0: 5f3c 003f 2e7e 9d3f b5f1 ce3e c205 603e
000000b0: 7a4a 75be 2e5e 13be 5ac5 ae3e 2588 4fbd
000000c0: ca0b 323f 832a ee3d ba84 fd3c 480f 6ebf
000000d0: 578d 633f 9718 a340 fbeb da3d a218 e3bd
000000e0: 9329 6cbe e367 d43e e4a8 c93e 6ba2 f63e
000000f0: 663c c93e 1fbe 09be 8730 2c3e 9ae2 6abf
00000100: 0435 bc3e 0c62 bebe 9981 b5bd 891a 953e
00000110: 5b0d 89bd ac39 483f 3439 0a3f f77c 0bbd
00000120: 772f 023e da98 04be 72ce 233f 68dd 41bf
00000130: d314 f8be 75f4 ed3d 5490 bb3c 07a8 a33e
00000140: 8d90 5cbf efb9 7e3e 4bb1 2ebe affa 87bd
00000150: 0c16 7dbe cd46 4ebe c380 1ebe 5b6c 6abf
00000160: 4a53 c6bd 221c 02be 5403 83bf 8e1b 8b3f
00000170: 7403 b53d 5c0c a5be b7b8 2cbe f139 1d3e
00000180: 7e9b 5e3e 28ad 00be d965 febe d281 f9bd
00000190: 8a9c 77bf 4a38 90bf d3e6 b2be 9204 c53b
000001a0: 38a5 88bf f09b 0440 a275 143f 5a73 3c3e
000001b0: 73ab c2bc db54 1cbf 48c7 8a3e d6f5 9e3d
000001c0: a816 a2bf f86e 35be 5b5e a5be 1561 55bf
000001d0: e140 cb3d cd74 d1bf bd06 5cbf 3a44 933d
000001e0: 4c28 babe 7df6 b73f 9605 ecbd b96e e2bd
000001f0: c443 f33d 9586 1bbe 5825 ccbe 1c85 fabc
00000200: e6f4 8cbe b8a1 5e3e ef0b 083d 7abf 9a3e
00000210: 7826 e03d a169 7a3d a721 fcbe 5f7d 3439
00000220: 8d12 e9be 0caa e8bf 50a1 3dbf fae1 49bf
00000230: 8585 5e3e c545 b2be 0718 86bf ad28 d7bd
00000240: 3d4e 08be daa9 79bf 15c0 9b3d cf8d a53d
00000250: 0dc9 6bbe 856c d33e 1076 4d3d 0258 713e
00000260: 3628 36be 1b83 703f 7e72 ea3c 5b0a a2be
00000270: b5a9 09bf b50e 7b3f c66a 6840 dc6d a43d
00000280: bac0 673e b45b 083f 8e3a 39bd 2e03 57bf
00000290: c375 61bf edea f6be 1e68 783e 094f 5e3f
000002a0: a22f 6cbe 0b1b 36be 5f1b 06be ba44 aa3e
000002b0: 819e 5f3e 6f04 2a3e 6f22 f8bd f341 58be
000002c0: 775c 0dbf d342 25bf 93e7 3d3f a057 a23d
000002d0: 8464 8c3e a7cd 81bf 55cd 043f 74e8 503f
000002e0: 5720 42be 8c4c 1b3e ef3b b83d d043 063f
000002f0: c143 9d3e 7570 3f3d 0def 36bf 7e68 6b3f
00000300: 8927 d8be 9e87 2abf bc77 29bf acb7 f5bd
00000310: 1444 a3be 28bf 29bf f495 45bf a48d 8dbe
00000320: fbe1 753f 0454 1bbf 7826 af3d 9335 163e
00000330: 6399 823f 1334 0fbd 05b7 853f bb47 a9bf
00000340: 7d11 82bf a5c5 31bf b347 1fbe fc8d 0b40
00000350: 1446 a13c 4942 8c3d 586e 6cbe 6f15 043f
00000360: 9b41 b53e e233 f8be 2a35 9abf 4e3e a63d
00000370: d975 a1bd 78e3 98bf 9ed1 bcbd 8480 873c
00000380: 8a91 2ebd 5d44 cd3d 9a08 09bf a40e 193e
00000390: 4d79 5d3f 7ca2 973e fc35 4b3f da75 2a3f
000003a0: 4028 37be 2ded ad3e 865b 353f 4319 6cbd
000003b0: 6acd ebbd 2e1c 023e 03f4 113f 491a 6ebf
000003c0: 3f13 923e 1b47 5dbe 5459 923f 34dd 683d
000003d0: f143 2f3e 3ca9 9abf 503b 6d3f cae2 93bd
000003e0: b0cc ccbf 0d0f 723b 6de5 043e 45db 113f
000003f0: 76a7 2c3d fa6b d33c cb24 743d 416f 873e

model/dense_2/MatMul;model/activation_2/Relu;model/dense_2/BiasAdd f4 [100]
68.86044 -75.401855 -7.8769 -67.550095 -14.989891 18.801111 28.074253 33.60912
-18.940397 3.4775558 -9.746448 -16.273478 2.25542 10.702435 -1.7542362 -58.30991
-60.27463 27.857227 -1.0048547 1.5078415 72.76927 7.775063 30.416206 15.725842
-1.9507349 23.194954 2.3009248 51.74735 -18.157715 12.555883 4.3897133 10.349247
31.398647 -9.143841 27.862059 -62.200134 89.53605 -35.01457 -33.55633 -19.29873
-11.455943 -62.5402 0.4430557 -26.20652 -37.29642 41.48341 -28.693712 -16.574184
-39.10019 9.8440895 69.14905 73.97053 14.711496 -4.4279623 11.536896 2.143746
6.6554275 62.157974 39.228546 -31.393082 -12.824646 -16.214949 -13.377985 127.781975
30.715824 13.035235 -63.026062 -39.210224 5.2451673 47.375824 -163.30705 23.216545
-22.99956 21.064547 -56.201103 -33.380375 32.58846 -31.878382 -35.965458 59.150074
59.385216 44.558617 41.881706 28.383043 -14.847063 -57.47447 -2.9337494 49.231857
30.95029 28.93884 -50.197884 22.593779 26.366426 20.985851 -27.277765 66.965256
74.02793 46.50607 14.188174 -20.59297
00000000: 8cb8 8942 c0cd 96c2 910f fcc0 a619 87c2
00000010: 98d6 6fc1 ad68 9641 1298 e041 bd6f 0642
00000020: ef85 97c1 4690 5e40 73f1 1bc1 1530 82c1
00000030: cd58 1040 2c3d 2b41 d08a e0bf 593d 69c2
00000040: 3919 71c2 9adb de41 149f 80bf f300 c13f
00000050: de89 9142 51cd f840 6454 f341 0d9d 7b41
00000060: aeb1 f9bf 448f b941 5a42 1340 49fd 4e42
00000070: 0043 91c1 e6e4 4841 8878 8c40 8496 2541
00000080: 6e30 fb41 2c4d 12c1 7fe5 de41 f0cc 78c2
00000090: 7512 b342 eb0e 0cc2 af39 06c2 cd63 9ac1
000000a0: 8b4b 37c1 2a29 7ac2 32d8 e23e f4a6 d1c1
000000b0: 892f 15c2 03ef 2542 b98c e5c1 ee97 84c1
000000c0: 9866 1cc2 6481 1d41 504c 8a42 e9f0 9342
000000d0: 4a62 6b41 deb1 8dc0 2097 3841 2233 0940
000000e0: 43f9 d440 c4a1 7842 08ea 1c42 0825 fbc1
000000f0: c031 4dc1 37b8 81c1 3a0c 56c1 5f90 ff42
00000100: 02ba f541 5390 5041 b01a 7cc2 45d7 1cc2
00000110: 69d8 a740 d880 3d42 9b4e 23c3 7cbb b941
00000120: 19ff b7c1 3184 a841 eecd 60c2 8185 05c2
00000130: 955a 0242 ed06 ffc1 a1dc 0fc2 ad99 6c42
00000140: 768a 6d42 063c 3242 de86 2742 7910 e341
00000150: 928d 6dc1 dbe5 65c2 8dc2 3bc0 6ced 4442
00000160: 329a f741 bf82 e741 a2ca 48c2 0fc0 b441
00000170: 71ee d241 06e3 a741 dd38 dac1 36ee 8542
00000180: 4d0e 9442 3706 3a42 c302 6341 67be a4c1

model/batch_normalization_1/batchnorm/mul_1;model/batch_normalization_1/batchnorm/add_1;model/dense_2/MatMul;model/activation_2/Relu;model/dense_2/BiasAdd f4 [100, 100]
-0.06106201 -0.08236707 0.31095073 0.014449794 -0.20109256 -0.1540714 0.118654765 -0.06149372
0.21448435 -0.037117787 0.13913089 0.17793614 0.101700254 -0.12858967 -0.21594949 0.07680917
0.009040947 -0.21046562 0.14736947 -0.0832678 -0.11644376 -0.06580282 0.06040053 0.15720262
-0.11618605 -0.03965983 -0.0125780655 0.03004564 -0.18826433 -0.109942846 -0.04076875 0.0023499096
-0.2840547 0.0077022947 -0.037027232 0.19138673 -0.045357324 0.035670698 0.08764019 -0.13057645
-0.023779677 -0.19080381 -0.31115377 0.0809109 0.027450908 -0.034813773 -0.10020905 -0.09768655
-0.09499857 0.0045267423 0.06066294 0.04909513 -0.00016857768 -0.20720787 -0.16565146 -0.057738915
0.053262074 0.029696623 0.19413814 -0.041051958 0.15673919 -0.11435969 0.07577833 -0.24520065
-0.0070410008 0.04129286 0.06159767 -0.021032212 0.016486797 -0.031206623 -0.23108898 -0.1503202
-0.008165334 -0.058921598 -0.24812469 -0.07503688 0.07164317 -0.019969732 -0.06426452 -0.32118633
0.039065823 -0.090038195 0.05198924 0.058233444 -0.048794266 -0.020873306 0.07360859 0.001769333
-0.14468513 0.032804534 0.07227147 -0.021047061 -0.060789965 -0.18438786 -0.2891264 0.2008247
0.22594154 -0.40290242 0.11131317 -0.2610375 -0.024811806 0.004241407 0.007072386 -0.11834665
0.026415417 0.060083628 0.07674969 0.022342443 0.060885567 0.03841147 -0.0039295987 0.028533483
-0.036436096 -0.06347737 0.055555623 0.07690026 -0.0005757941 -0.030492024 -0.10192417 0.055449937
-0.12863474 0.064789675 0.080222234 0.08847096 0.041525114 0.004928341 -0.11708698 -0.09381681
0.022030732 -0.05066524 0.2151924 0.26000327 0.110527284 0.025823666 0.04998724 -0.07471259
-0.016442014 0.12050044 -0.084760025 0.010622995 -0.015788278 -0.0717321 -0.011327879 0.01690322
0.096107595 0.057032403 0.1102192 0.047799505 0.067997836 0.06972911 0.06211797 -0.118670315
0.22040418 0.92876303 0.085133046 0.024264809 0.1407471 0.032314356 0.003782419 0.051445145
0.040360883 -0.13253489 0.33314437 0.04656871 0.008982935 0.091387175 -0.17841206 -0.03657115
0.07331269 -0.03727601 -0.1075043 0.022245318 -0.029457156 0.27922472 0.01037148 -0.13669628
0.026672654 0.09171106 -0.049213015 -0.12649944 0.081648916 0.021892358 0.058984637 0.13656148
0.047841735 -0.04528499 -0.07475977 0.005314871 -0.0075692674 0.06477582 0.4823495 0.029426064
-0.2095387 0.18309644 0.037877005 -0.146865 -0.2203284 0.0049894787 -0.16250722 -0.03400863
0.31643537 0.22266406 -0.03922411 0.10280689 0.0039456068 -0.01017495 0.07529465 0.014946071
-0.07892812 0.20326824 0.02418491 0.047284067 -0.0128374165 -0.052873176 -0.04028377 -0.21473871
0.06242686 0.05197643 -0.043375056 0.02020844 0.18548374 -0.03202001 -0.02770588 0.0061823498
-0.035225507 -0.085347645 -0.019003069 -0.0461302 -0.013782248 0.0030190914 -0.011108558 0.1560339
-0.07725367 0.08636516 -0.16060986 -0.0656 0.10030629 0.005827404 -0.045871194 0.06251648
0.029230436 0.5195152 0.012143703 0.017741453 0.16409335 0.03976799 -0.029036209 0.013940525
-0.0690659 0.09109261 0.1112704 -0.02444745 -0.051644895 0.03796707 -0.08000453 0.0006843717
00000000: 281c 7abd 11b0 a8bd ef34 9f3e d4be 6c3c
00000010: 35eb 4dbe e5c4 1dbe 4501 f33d d7e0 7bbd
00000020: c9a1 5b3e d208 18bd 5478 0e3e e434 363e
00000030: 3948 d03d 03ad 03be dd21 5dbe 204e 9d3d
00000040: 7b20 143c 4d84 57be 06e8 163e 4f88 aabd
00000050: 117a eebd a1c3 86bd 8c66 773d b9f9 203e
00000060: f4f2 edbd 5972 22bd 3b14 4ebc 4622 f63c
00000070: 5dc8 40be b729 e1bd 22fd 26bd f100 1a3b
00000080: 9e6f 91be 8863 fc3b dea9 17bd e2fa 433e
00000090: 9ac8 39bd 701b 123d b37c b33d d5b5 05be
000000a0: 99cd c2bc 1362 43be 8c4f 9fbe 9db4 a53d
000000b0: bae0 e03c e398 0ebd 673a cdbd e30f c8bd
000000c0: 9c8e c2bd 1155 943b b479 783d fa17 493d
000000d0: 3ac4 30b9 4d2e 54be 89a0 29be a47f 6cbd
000000e0: 5529 5a3d 5546 f33c 26cc 463e 1926 28bd
000000f0: 3d80 203e 6a35 eabd ab31 9b3d e115 7bbe
00000100: 32b8 e6bb b422 293d d74d 7c3d bf4b acbc
00000110: 520f 873c 08a5 ffbc 97a2 6cbe 8aed 19be
00000120: e5c7 05bc c657 71bd 6614 7ebe f0ac 99bd
00000130: a8b9 923d 9097 a3bc 1e9d 83bd 8972 a4be
00000140: 7c03 203d f265 b8bd abf2 543d 3186 6e3d
00000150: 7fdc 47bd 7ffe aabc 1ac0 963d f7e8 e73a
00000160: 5728 14be 0c5e 063d 1103 943d e36a acbc
00000170: e6fe 78bd 2cd0 3cbe 6008 94be fda4 4d3e
00000180: 385d 673e 3a49 cebe 29f8 e33d b5a6 85be
00000190: 2142 cbbc 80fb 8a3b 79bf e73b ba5f f2bd
000001a0: 2565 d83c 401a 763d f12e 9d3d 8007 b73c
000001b0: 2563 793d 5855 1d3d ddc3 80bb 0dbf e93c
000001c0: 043e 15bd 6c00 82bd 4b8e 633d e27d 9d3d
000001d0: e3f0 16ba 69ca f9bc 9fbd d0bd 791f 633d
000001e0: d3b8 03be 73b0 843d 8e4b a43d 4330 b53d
000001f0: 3d16 2a3d ec7d a13b 4ccb efbd 0723 c0bd
00000200: cb79 b43c 5b86 4fbd 665b 5c3e 261f 853e
00000210: 215c e23d 278c d33c 6cbf 4c3d ea02 99bd
00000220: 67b1 86bc efc8 f63d aa96 adbd 120c 2e3c
00000230: 6b56 81bc 47e8 92bd 9198 39bc 9f78 8a3c
00000240: 0fd4 c43d cf9a 693d 9bba e13d 6ac9 433d
00000250: 7342 8b3d 23ce 8e3d 6a6f 7e3d 6c09 f3bd
00000260: a2b1 613e 6ac3 6d3f 3c5a ae3d fec6 c63c
00000270: 0220 103e 0f5c 043d 76e2 773b 25b8 523d
00000280: 7451 253d 3ab7 07be e691 aa3e d5be 3e3d
00000290: 292d 133c 3329 bb3d a7b1 36be a1cb 15bd
000002a0: f724 963d bbae 18bd 372b dcbd d03b b63c
000002b0: 2250 f1bc 8bf6 8e3e 24ed 293c 1cfa 0bbe
000002c0: 9c80 da3c 02d3 bb3d 9693 49bd 1289 01be
000002d0: 8c37 a73d 9a57 b33c e099 713d c6d6 0b3e
000002e0: b2f5 433d c17c 39bd a61b 99bd 5f28 ae3b
000002f0: 9e07 f8bb 2fa9 843d 83f6 f63e ee0e f13c
00000300: 5091 56be a27d 3b3e eb24 1b3d c763 16be
00000310: c59d 61be c87e a33b 4b68 26be a24c 0bbd
00000320: d103 a23e 0c02 643e 76a9 20bd 6b8c d23d
00000330: 264a 813b d5b4 26bc 1534 9a3d 5ee0 743c
00000340: 11a5 a1bd 8d25 503e 6f1f c63c f0ac 413d
00000350: 0754 52bc 8b91 58bd 9800 25bd 77e4 5bbe
00000360: 4fb3 7f3d 3de5 543d 0baa 31bd 2c8c a53c
00000370: 73ef 3d3e 6a27 03bd 71f7 e2bc 4f95 ca3b
00000380: 9f48 10bd bfca aebd 53ac 9bbc 05f3 3cbd
00000390: f0ce 61bc f3db 453b ab00 36bc 5ac7 1f3e
000003a0: 2c37 9ebd 38e0 b03d e976 24be 4b59 86bd
000003b0: 626d cd3d cff3 be3b 6fe3 3bbd a408 803d
000003c0: ab74 ef3c f3fe 043f 62f6 463c 8656 913c
000003d0: 1608 283e c3e3 223d 58dd edbc cd66 643c
000003e0: 6c72 8dbd c38e ba3d bce1 e33d 0546 c8bc
000003f0: 9989 53bd 5c83 1b3d 6ad9 a3bd 6867 333a

model/dense_3/MatMul;model/activation_3/Relu;model/dense_3/BiasAdd f4 [100]
-20.805931 53.746 0.13340375 -5.3128667 11.429429 -15.335558 0.14706574 20.727055
47.687347 21.921919 52.51829 50.058895 43.51817 11.66951 11.703786 5.716432
-6.5155196 22.052979 11.969421 0.724453 35.766064 -6.1518564 -4.1153684 31.087034
48.099163 57.70923 30.69292 0.43006387 -11.597978 -46.72273 15.418576 21.21732
24.983402 -6.7290864 12.109524 70.92476 -5.470021 24.29324 -37.38402 13.532924
36.237396 44.46701 51.986565 -23.305054 -0.08214357 4.798703 -20.273594 12.631937
22.788797 -1.9973643 13.36716 -31.799911 -15.743414 -27.651102 -32.228504 14.787832
-7.5554876 -20.978304 8.957604 25.733973 -2.2175941 4.2664537 4.5297213 18.081232
-18.588697 4.030738 14.116099 -3.8011396 19.010138 -1.2439338 -0.88031316 0.0984333
4.5095406 -29.61813 38.62639 -12.537763 -16.38867 13.375353 -1.5094901 -39.313732
-44.538174 -3.6607313 -0.7245933 29.29701 -14.483783 -20.47239 10.623692 4.655887
-11.849087 11.987141 -10.439865 31.677677 -5.1075754 -0.5025773 19.031467 -52.929962
-2.318188 21.155727 22.618711 -2.9622521
00000000: 8c72 a6c1 e7fb 5642 fe9a 083e 0103 aac0
00000010: f1de 3641 725e 75c1 6798 163e 02d1 a541
00000020: d8bf 3e42 1760 af41 bb12 5242 4f3c 4842
00000030: 9b12 2e42 50b6 3a41 b542 3b41 03ed b640
00000040: 237f d0c0 806c b041 c082 3f41 c075 393f
00000050: 7310 0f42 02dc c4c0 19b1 83c0 3fb2 f841
00000060: 8b65 4042 40d6 6642 1a8b f541 5531 dc3e
00000070: 5191 39c1 13e4 3ac2 7db2 7641 12bd a941
00000080: 02de c741 ad54 d7c0 9cc0 4141 7ad9 8d42
00000090: 690a afc0 8e58 c241 3d89 15c2 db86 5841
000000a0: 18f3 1042 38de 3142 3ef2 4f42 c070 bac1
000000b0: e33a a8bd fa8e 9940 5230 a2c1 6a1c 4a41
000000c0: 754f b641 a2a9 ffbf e3df 5541 3866 fec1
000000d0: 06e5 7bc1 7535 ddc1 fde9 00c2 f69a 6c41
000000e0: 8ec6 f1c0 91d3 a7c1 5952 0f41 2ddf cd41
000000f0: 10ed 0dc0 ca86 8840 7af3 9040 5da6 9041
00000100: a7b5 94c1 cefb 8040 8bdb 6141 df45 73c0
00000110: c314 9841 3939 9fbf 345c 61bf 6697 c93d
00000120: 284e 9040 eef1 ecc1 6c81 1a42 ad9a 48c1
00000130: ff1b 83c1 7201 5641 f936 c1bf 4341 1dc2
00000140: 1727 32c2 6c49 6ac0 f27e 39bf 4760 ea41
00000150: 93bd 67c1 74c7 a3c1 a4fa 2941 07fd 9440
00000160: dc95 3dc1 54cb 3f41 b009 27c1 e26b fd41
00000170: 4271 a3c0 e8a8 00bf 7240 9841 48b8 53c2
00000180: 315d 14c0 ee3e a941 1ff3 b441 8a95 3dc0

model/batch_normalization_2/batchnorm/mul_1;model/batch_normalization_2/batchnorm/add_1;model/dense_3/MatMul;model/activation_3/Relu;model/dense_3/BiasAdd f4 [100, 100]
0.079688996 -0.021664256 0.0327144 0.047804166 -0.007935255 -0.12478749 0.08244036 0.21357009
-0.12219457 -0.021539113 -0.25057313 -0.027330173 -0.121678635 -0.1034469 0.039481465 0.038041625
0.0014900385 0.1585156 0.05913075 0.0012687875 -0.018562302 0.016317014 0.51322156 -0.08838439
-0.02038694 -0.01988136 0.11984008 0.012291097 -0.24894054 -0.16782238 -0.10437549 -0.055946223
0.010044044 -0.007517589 -0.20971894 -0.1522121 0.13273072 -0.07186328 -0.03843284 -0.03807004
-0.04144585 0.019658173 -0.0047407625 0.20712543 -0.043359134 -0.05356554 0.09729303 -0.18226042
0.09769349 0.28156394 0.08508945 0.10383498 0.066741735 0.090315595 -0.11114607 0.10499653
0.08262489 0.2515718 0.06785368 -0.056697644 -0.10564513 -0.026999947 -0.048077688 -0.102596916
0.1644827 0.0037694525 -3.9805307 0.031112965 0.074119665 0.1413414 0.01160584 -0.09025511
0.024793204 -0.05353873 0.024914565 0.05035484 0.016080057 0.052975602 -0.029266493 0.101047836
-0.013622816 -0.12049798 0.037797917 0.009283463 -0.01930687 -0.05385723 0.07573312 -0.15145758
0.2572245 0.41157818 -0.101224385 -0.20731974 0.015873449 0.13249986 0.059406243 -0.0062138224
-0.020142412 -0.3088445 -0.12521726 -0.016110081 -0.2609789 0.0056859953 -0.43476516 -0.037132066
-0.10751468 0.025183689 0.10377308 0.15542395 -0.09377679 -0.19956344 0.048427925 0.14464769
-0.029051486 -0.12641652 0.2251233 0.022935977 -0.032744292 -0.11691531 -0.09932767 -0.12949455
-0.029638305 0.051367357 -0.14434934 -0.112888955 0.10362365 -0.2068889 0.36223662 0.103822924
0.11247196 0.049115736 -0.18899101 0.2434091 0.121386945 0.098546326 -0.094887644 -0.09556424
0.016914666 0.10906785 -0.04371443 0.2491189 -0.17482792 -0.079695895 -0.010718107 -0.08275515
0.11141194 0.03698816 -0.065301634 -0.2502632 0.027449414 -0.2886608 -0.06184802 0.28321788
-0.08654416 -0.23276517 -0.20270212 -0.048410725 0.052007876 -0.03709628 -0.21040869 0.16946688
0.037347846 0.23411421 0.081552885 -0.14950083 -0.079273306 0.017702037 0.013180187 0.00037157044
0.036552105 -0.08376061 -0.068551995 0.12178868 0.07202009 0.03005228 -0.037035443 -0.08285009
-0.042965923 -0.00030136685 0.017364599 0.30449164 -0.06270374 -0.17530861 0.08737174 -0.2801915
-0.09554622 -0.0039958693 0.25640023 -0.27473664 -0.26018044 0.013074735 0.060295004 0.095115565
0.1300762 0.0247664 -0.11724292 -0.045330804 0.060212784 -0.18091482 0.0734983 0.016014174
0.08581341 0.23414242 -0.075986184 -0.120190226 0.08365722 0.036144666 0.08302302 0.028252373
0.09398089 0.0752613 -0.10723547 0.17135665 -0.012237231 -0.2638612 0.069312654 0.19093171
0.22728503 0.04468035 -0.09177136 0.09978335 -0.079206854 0.0487691 0.0034520365 -0.055402275
-0.12463049 0.04280172 0.0012295491 0.008435601 0.22238792 0.17821579 -0.10848809 -0.027285187
-0.1603828 -0.032805417 -0.0041914945 -0.03783904 0.07532127 0.10503518 0.028686117 -0.13695647
0.025626028 -0.08980786 -0.14518161 0.062893696 0.17804348 -0.23663515 -0.04653832 -0.084122255
-0.1357148 -0.08457677 -0.23981735 -0.003637421 0.11433923 -0.010462387 -0.017200116 -0.0814511
00000000: fc33 a33d 3d79 b1bc 89ff 053d 4dce 433d
00000010: df02 02bc 9590 ffbd 7ed6 a83d 1eb2 5a3e
00000020: 2641 fabd cb72 b0bc 1f4b 80be 87e3 dfbc
00000030: a632 f9bd f8db d3bd 51b7 213d 89d1 1b3d
00000040: 654d c33a ea51 223e 1633 723d 724d a63a
00000050: f80f 98bc 42ab 853c 7d62 033f e002 b5bd
00000060: 8302 a7bc 3cde a2bc b76e f53d 9960 493c
00000070: 45ea 7ebe a1d9 2bbe d1c2 d5bd de27 65bd
00000080: c68f 243c 1b56 f6bb 90c0 56be 7ddd 1bbe
00000090: 90ea 073e 0e2d 93bd c16b 1dbd 55ef 1bbd
000000a0: 20c3 29bd 2d0a a13c 6658 9bbb b018 543e
000000b0: 5999 31bd 8a67 5bbd 9141 c73d 7aa2 3abe
000000c0: 8613 c83d 2629 903e 6143 ae3d 6fa7 d43d
000000d0: e4af 883d 62f7 b83d 8da0 e3bd 6c08 d73d
000000e0: 3d37 a93d 05ce 803e dff6 8a3d ca3b 68bd
000000f0: 795c d8bd fe2e ddbc 1ced 44bd 551e d2bd
00000100: 276e 283e eb08 773b 04c1 7ec0 9ee0 fe3c
00000110: 0dcc 973d cdbb 103e 6c26 3e3c acd7 b8bd
00000120: 1e1b cb3c 6d4b 5bbd a119 cc3c e040 4e3d
00000130: 53ba 833c f2fc 583d 49c0 efbc 2bf2 ce3d
00000140: 3b32 5fbc a5c7 f6bd fdd1 1a3d aa19 183c
00000150: 7129 9ebc 6699 5cbd f719 9b3d b217 1bbe
00000160: eeb2 833e 60ba d23e bb4e cfbd a04b 54be
00000170: 0909 823c 0bae 073e f653 733d 529d cbbb
00000180: b301 a5bc de20 9ebe f438 00be 4af9 83bc
00000190: 079f 85be 9651 ba3b 8a99 debe cb17 18bd
000001a0: a830 dcbd 064e ce3c fb86 d43d 7527 1f3e
000001b0: 0c0e c0bd 5c5a 4cbe 5c5c 463d 861e 143e
000001c0: 62fd edbc 5573 01be b986 663e 3be4 bb3c
000001d0: e11e 06bd 4b71 efbd 4e6c cbbd 389a 04be
000001e0: 08cc f2bc 9466 523d 50d0 13be 5332 e7bd
000001f0: a338 d43d afda 53be 1477 b93e 1da1 d43d
00000200: b357 e63d 952d 493d dc86 41be 3c40 793e
00000210: b899 f83d a8d2 c93d 7454 c2bd 2fb7 c3bd
00000220: a090 8a3c f75e df3d e70d 33bd 0619 7f3e
00000230: 1706 33be 9a37 a3bd 009b 2fbc 887b a9bd
00000240: f12b e43d e680 173d ddbc 85bd 8022 80be
00000250: 98dd e03c 59cb 93be 5954 7dbd ef01 913e
00000260: 113e b1bd fe59 6ebe 2591 4fbe 534a 46bd
00000270: 3606 553d 45f2 17bd 6075 57be ba88 2d3e
00000280: 0efa 183d a3bb 6f3e 3305 a73d bf16 19be
00000290: 0b5a a2bd dd03 913c b6f1 573c 57cf c239
000002a0: a9b7 153d af8a abbd fd64 8cbd 586c f93d
000002b0: 457f 933d 3330 f63c 7ab2 17bd 4fad a9bd
000002c0: 09fd 2fbd c600 9eb9 3440 8e3c 54e6 9b3e
000002d0: d26a 80bd 1a84 33be f4ef b23d 4375 8fbe
000002e0: bdad c3bd c8ef 82bb e446 833e 48aa 8cbe
000002f0: 5f36 85be 6a37 563c e5f7 763d f3cb c23d
00000300: b232 053e e8e2 ca3c 0e1d f0bd cbac 39bd
00000310: aea1 763d bc41 39be 4786 963d 2830 833c
00000320: f1be af3d 08c3 6f3e a59e 9bbd 4b26 f6bd
00000330: 7a54 ab3d 6e0c 143d f907 aa3d 8571 e73c
00000340: 0e79 c03d 9922 9a3d 459e dbbd 1e78 2f3e
00000350: ab7e 48bc d118 87be cbf3 8d3d 9a83 433e
00000360: 68bd 683e be02 373d 9ff2 bbbd 375b cc3d
00000370: 3437 a2bd 1cc2 473d 903b 623b 7fed 62bd
00000380: 453e ffbd db50 2f3d d228 a13a 7a35 0a3c
00000390: a9b9 633e 337e 363e 012f debd 2f85 dfbc
000003a0: 643b 24be f95e 06bd ce58 89bb 1cfd 1abd
000003b0: 0a42 9a3d af1c d73d 26ff ea3c 513e 0cbe
000003c0: aded d13c 2fed b7bd 7daa 14be 69ce 803d
000003d0: 0851 363e 7c50 72be f79e 3ebd 4a48 acbd
000003e0: d2f8 0abe 9636 adbd ae92 75be cc61 6ebb
000003f0: b02a ea3d 6f6a 2bbc 42e7 8cbc d6cf a6bd

model/dense_4/MatMul;model/activation_4/Relu;model/dense_4/BiasAdd f4 [100]
0.5693944 9.219934 1.4632459 1.9153092 -2.7997587 -1.3803123 3.7759967 6.6970963
39.707558 11.612827 -9.842801 -13.131765 53.935364 19.2525 -13.702668 -19.102598
-0.45676216 -11.208622 14.670277 4.485642 -12.176451 -5.291825 12.185318 13.844333
39.879436 2.5557115 20.460173 3.000762 -1.9088106 -3.934185 19.053896 -2.5048635
28.33735 -1.7449433 19.220423 -2.7921178 -21.165243 12.666103 29.94118 37.244614
40.986687 4.9353104 -4.792392 -0.92765313 46.929398 -8.28776 -7.254926 -22.093075
-27.485582 2.4479096 45.971222 22.301598 -8.131268 1.4402457 26.470629 16.155514
28.14649 7.626299 14.902435 18.793055 -20.647116 16.352089 -20.35459 17.577963
6.526327 37.38223 -7.644357 8.448726 31.463982 40.743153 -4.221084 38.928036
-0.8668501 -49.062626 11.886584 44.822323 39.60819 -4.928066 30.006153 -19.01493
26.467888 30.275942 2.2483687 -14.009257 -9.909553 -6.6473036 33.527042 6.742321
10.262542 11.694545 -15.313158 28.91299 30.82536 4.5494356 50.77768 35.326714
14.00129 -21.489708 43.184624 -4.9884567
00000000: d5c3 113f da84 1341 a44b bb3f da28 f53f
00000010: 3f2f 33c0 13ae b0bf eea9 7140 9d4e d640
00000020: 8ad4 1e42 24ce 3941 1d7c 1dc1 b61b 52c1
00000030: d0bd 5742 1f05 9a41 213e 5bc1 1fd2 98c1
00000040: bbdc e9be 8456 33c1 74b9 6a41 618a 8f40
00000050: bed2 42c1 a156 a9c0 10f7 4241 6382 5d41
00000060: 8b84 1f42 c790 2340 6fae a341 7c0c 4040
00000070: e853 f4bf b0c9 7bc0 616e 9841 af4f 20c0
00000080: e5b2 e241 4d5a dfbf 6dc3 9941 0fb2 32c0
00000090: 6b52 a9c1 5ca8 4a41 8987 ef41 7cfa 1442
000000a0: 5ef2 2342 10ee 9d40 465b 99c0 ad7a 6dbf
000000b0: b4b7 3b42 aa9a 04c1 5b28 e8c0 9ebe b0c1
000000c0: 79e2 dbc1 8daa 1c40 88e2 3742 ac69 b241
000000d0: ac19 02c1 f959 b83f d9c3 d341 7e3e 8141
000000e0: 032c e141 a40a f440 6070 6e41 2d58 9641
000000f0: 4b2d a5c1 14d1 8241 33d6 a2c1 ab9f 8c41
00000100: acd7 d040 6787 1542 939e f4c0 fb2d 0741
00000110: 3cb6 fb41 fdf8 2242 1f13 87c0 4fb6 1b42
00000120: e3e9 5dbf 2140 44c2 732f 3e41 0f4a 3342
00000130: c96e 1e42 b7b2 9dc0 9a0c f041 941e 98c1
00000140: 3cbe d341 2135 f241 46e5 0f40 eb25 60c1
00000150: 878d 1ec1 b6b6 d4c0 b11b 0642 18c1 d740
00000160: 5f33 2441 db1c 3b41 b202 75c1 ce4d e741
00000170: 569a f641 fa94 9140 581c 4b42 8e4e 0d42
00000180: 4905 6041 ecea abc1 0ebd 2c42 70a1 9fc0

model/batch_normalization_3/batchnorm/mul_1;model/batch_normalization_3/batchnorm/add_1;model/dense_4/MatMul;model/activation_4/Relu;model/dense_4/BiasAdd f4 [100, 100]
-0.1386759 0.018920388 0.022954438 -0.18688913 -0.21026614 0.101070635 -0.04050868 0.009441177
-0.21665335 0.09355849 -0.009406044 0.13822472 -0.03313856 0.04826332 0.086841464 0.046219308
0.009702035 -0.019258803 -0.13427192 -0.030975448 0.016273629 0.49163178 0.53721786 0.16908732
-0.0834271 0.03285043 0.17190138 -0.008552621 -0.41978094 0.0038844733 0.0032206592 -0.25912413
0.0035265852 -0.092703484 0.025788378 0.034987755 0.20922121 -0.13631879 -0.19924659 -0.0045348443
-0.2733154 0.037105616 -0.00054522866 0.029702947 0.12428599 0.06389757 0.1894605 -0.014159811
0.24984276 0.012927203 0.049612287 -0.085718624 0.24532934 -0.007561321 0.06483714 0.09423679
-0.06296111 0.019238017 0.026850803 0.17941903 -0.29029068 -0.011433056 0.040337075 0.0501377
-0.04224491 -0.043897264 0.14164959 0.05429537 0.05653187 0.10408579 0.0018300886 0.02701151
0.22136332 -0.017706793 -0.056502838 -0.14740437 -0.19853394 -0.16902977 0.023856686 0.009300534
0.12070169 -0.076545134 0.13145202 -0.076665305 0.04382111 0.054182652 -0.10989771 0.13358177
-0.025499914 -0.027444955 -0.05155301 0.06238529 0.18303545 0.056491032 -0.37031838 0.011074638
0.11806377 0.08367743 -0.0069590984 0.11228445 0.1319514 0.052231714 -0.016696917 0.13358474
-0.07580615 -0.03969165 0.012780803 0.2148547 -0.27349237 0.045152567 -0.04021419 0.15928337
-0.04732637 -0.04550119 0.11733223 0.07891728 0.0463085 0.026841708 0.09096614 -0.4310041
-0.07062805 -0.058195442 -0.039038815 0.18960643 -0.1557634 0.029486557 -0.173738 0.024004735
-0.019796016 0.2306068 0.07942436 -0.09387481 0.0069497717 -0.089061685 0.17042348 -0.013005083
0.075018294 -0.0064269514 0.0722926 0.063543074 0.09034104 -0.13658032 0.009094221 -0.022905203
0.12639517 0.0044772015 0.1984725 -0.04169435 -0.12346532 0.047542248 0.015025085 0.13822852
-0.18288466 0.15453014 0.08726647 -0.027814964 -0.10613513 -0.075274944 -0.058887076 -0.28331098
0.19741423 -0.048305266 -0.11172606 0.033229336 0.117488876 -0.08285428 -0.021343987 0.051200192
0.2653529 0.14227903 -0.054912042 -0.66486996 -0.2604796 -0.021658717 -0.070214406 -0.03809534
-0.1446174 0.35192835 0.05423311 0.002998262 -0.07572994 0.07941822 -0.25760168 -0.11207645
-0.19456716 -0.12837034 0.18006544 -0.88140386 -0.018833227 0.062293924 0.09788112 -0.17352657
-0.14453073 -0.00028454297 -0.041178286 0.05532035 0.36297235 0.112718485 -0.004263053 0.17374681
-0.08656874 0.24399099 0.3865992 0.1739326 0.104225546 -0.0832064 -0.0012049761 0.104595646
-0.05739885 -0.04533673 -0.23287441 0.25991142 0.13478325 0.02711444 -0.028693825 0.039888535
0.0070231166 0.16093178 0.05010165 0.1787309 0.07430787 -0.077341095 -0.08098859 0.0066127973
-0.07344394 -0.22729659 0.21008778 0.0028238778 0.10217173 0.0374748 0.0116382735 -0.002756022
-0.13899837 0.09102129 -0.07141644 -0.16688283 0.14018281 0.015581054 -0.13254088 -0.035907242
-0.100787975 -0.091189906 -0.16938403 -0.0072067184 -0.012004719 -0.014164999 0.17379268 -0.01762239
0.15000689 -0.12202363 -0.010575899 -0.22940591 0.054346714 0.13510245 0.04594679 0.074942015
00000000: 0e01 0ebe eefe 9a3c f20a bc3c dd5f 3fbe
00000010: 0250 57be 1ffe ce3d 6eec 25bd 2baf 1a3c
00000020: 60da 5dbe 989b bf3d cf1b 1abc c88a 0d3e
00000030: 4cbc 07bd c2af 453d f0d9 b13d 7550 3d3d
00000040: 49f5 1e3c a3c4 9dbc 947e 09be 39c0 fdbc
00000050: 4650 853c 29b7 fb3e 1c87 093f 3a25 2d3e
00000060: d4db aabd 2c8e 063d ea06 303e 4b20 0cbc
00000070: 87ed d6be a692 7e3b b211 533b ebab 84be
00000080: 481e 673b 53db bdbd 2642 d33c 524f 0f3d
00000090: 163e 563e 2797 0bbe 4c07 4cbe 0899 94bb
000000a0: ffef 8bbe 0ffc 173d aded 0eba 9853 f33c
000000b0: a789 fe3d bbdc 823d ef01 423e 8dfe 67bc
000000c0: c8d6 7f3e 9fcc 533c 4136 4b3d 3f8d afbd
000000d0: 9d37 7b3e f5c4 f7bb 56c9 843d 38ff c03d
000000e0: c1f1 80bd 0c99 9d3c 37f6 db3c 9fb9 373e
000000f0: fba0 94be b651 3bbc 7d38 253d 305d 4d3d
00000100: 0009 2dbd 9ecd 33bd 970c 113e d264 5e3d
00000110: f68d 673d ee2a d53d 95df ef3a 3e47 dd3c
00000120: 11ad 623e d60d 91bc 856f 67bd 2cf1 16be
00000130: 7b4c 4bbe 2416 2dbe 196f c33c 4461 183c
00000140: 7332 f73d b2c3 9cbd 5c9b 063e b302 9dbd
00000150: c47d 333d a1ee 5d3d 0d12 e1bd a9c9 083e
00000160: 32e5 d0bc 3ed4 e0bc 4029 53bd b887 7f3d
00000170: a56d 3b3e 2463 673d 5f9a bdbe 6672 353c
00000180: 6bcb f13d 135f ab3d 2609 e4bb 64f5 e53d
00000190: 451e 073e ecf0 553d f9c7 88bc 70ca 083e
000001a0: 4140 9bbd b693 22bd 9366 513c df02 5c3e
000001b0: 3107 8cbe e6f1 383d a2b7 24bd 2e1b 233e
000001c0: 4cd9 41bd 755f 3abd e14b f03d 629f a13d
000001d0: fbad 3d3d 24e3 db3c 754c ba3d 92ac dcbe
000001e0: 70a5 90bd 585e 6ebd 2ae7 1fbd 3028 423e
000001f0: 7180 1fbe cb8d f13c 60e8 31be 94a5 c43c
00000200: 412b a2bc 3024 6c3e 3da9 a23d 7041 c0bd
00000210: e9ba e33b f965 b6bd 7e83 2e3e 4613 55bc
00000220: 31a3 993d 2d99 d2bb 250e 943d df22 823d
00000230: b904 b93d b6db 0bbe edff 143c b1a3 bbbc
00000240: bc6d 013e 7db5 923b 603c 4b3e b2c7 2abd
00000250: 63db fcbd a9bb 423d c62b 763c c78b 0d3e
00000260: 1e46 3bbe 263d 1e3e c3b8 b23d 35dc e3bc
00000270: 605d d9bd c029 9abd 9333 71bd 230e 91be
00000280: f526 4a3e bedb 45bd a2d0 e4bd 7c1b 083d
00000290: 029e f03d 81af a9bd 96d9 aebc 4bb7 513d
000002a0: 56dc 873e 98b1 113e 73eb 60bd eb34 2abf
000002b0: 955d 85be 9f6d b1bc 92cc 8fbd dc09 1cbd
000002c0: 9516 14be f42f b43e 8a23 5e3d 7d7e 443b
000002d0: 4c18 9bbd 05a6 a23d 5ee4 83be 5688 e5bd
000002e0: 9d3c 47be 8473 03be 1363 383e afa3 61bf
000002f0: 2448 9abc ea27 7f3d e675 c83d f3b0 31be
00000300: ddff 13be b62e 95b9 90aa 28bd 9797 623d
00000310: 83d7 b93e f3d8 e63d 15b1 8bbb afea 313e
00000320: f44a b1bd c6d8 793e 55f0 c53e 631b 323e
00000330: 3474 d53d 1e68 aabd 4af0 9dba 3e36 d63d
00000340: 0e1b 6bbd 02b3 39bd a176 6ebe 1c13 853e
00000350: 9f04 0a3e 1a1f de3c 500f ebbc 2962 233d
00000360: 2c22 e63b 4dcb 243e 6337 4d3d 3c05 373e
00000370: b92e 983d 0265 9ebd 59dd a5bd 2ab0 d83b
00000380: c769 96bd 70c0 68be 4021 573e cf10 393b
00000390: 693f d13d 2d7f 193d 75ae 3e3c 609e 34bb
000003a0: 9755 0ebe 5f69 ba3d c842 92bd 55e3 2abe
000003b0: 158c 0f3e ad47 7f3c ccb8 07be 7913 13bd
000003c0: ed69 cebd c6c1 babd 0273 2dbe 5626 ecbb
000003d0: 71af 44bc 5014 68bc b5f6 313e d55c 90bc
000003e0: 689b 193e 86e7 f9bd 8946 2dbc 62e9 6abe
000003f0: a99a 5e3d 4c58 0a3e b432 3c3d 337b 993d

model/dense_5/MatMul;model/activation_5/Relu;model/dense_5/BiasAdd f4 [100]
3.7892709 39.48715 -19.556389 4.837341 30.446486 -5.5516124 40.713432 18.673717
1.6417052 1.0530176 34.013042 -7.5545096 1.6074299 33.22157 -22.62547 20.014978
-20.109024 13.732966 13.431862 -17.727135 66.60886 -24.420948 26.096558 36.94505
30.892868 11.463327 -1.580828 -3.2964625 11.747306 16.541834 -13.437916 6.266884
-16.697676 -23.219934 6.12662 38.227398 23.836914 33.12056 3.920009 -37.147957
28.893055 -27.46084 22.791672 21.99422 18.07493 -31.456516 11.199922 9.432525
-39.247578 26.19305 -3.3970542 29.59315 -33.51739 -8.495946 14.314078 -4.7578373
9.444282 14.125918 11.371055 43.715244 28.738153 -0.11379529 36.586582 25.161476
-3.7186081 28.47675 -9.245662 -9.747009 -13.045559 9.668558 -31.278421 30.961899
36.32101 24.051895 -12.82865 0.3501909 13.543094 -12.308368 -3.1792157 -57.54197
68.33603 -21.240944 28.57162 25.717266 -2.502902 38.869728 -3.3181162 16.91708
-11.472587 6.3799667 -9.105973 21.752245 1.5213927 -5.8720703 -9.6767235 11.595279
23.855955 12.3770485 15.894504 9.084748
00000000: 6a83 7240 d7f2 1d42 7c73 9cc1 7fcb 9a40
00000010: 6792 f341 cfa6 b1c0 8eda 2242 c663 9541
00000020: 6523 d23f 48c9 863f 5b0d 0842 8bbe f1c0
00000030: 43c0 cd3f e3e2 0442 f600 b5c1 ad1e a041
00000040: 48df a0c1 3bba 5b41 e8e8 5641 2cd1 8dc1
00000050: bc37 8542 1a5e c3c1 c0c5 d041 bbc7 1342
00000060: 9824 f741 ca69 3741 9258 cabf 3ef9 52c0
00000070: f7f4 3b41 ad55 8441 b401 57c1 508a c840
00000080: d794 85c1 6dc2 b9c1 450d c440 dbe8 1842
00000090: 00b2 be41 747b 0442 6de1 7a40 8297 14c2
000000a0: fa24 e741 cdaf dbc1 5855 b641 2af4 af41
000000b0: 7599 9041 f2a6 fbc1 e132 3341 9feb 1641
000000c0: 85fd 1cc2 5e8b d141 5669 59c0 c5be ec41
000000d0: cf11 06c2 65ef 07c1 7706 6541 3440 98c0
000000e0: c71b 1741 c303 6241 d7ef 3541 69dc 2e42
000000f0: bde7 e541 810d e9bd a958 1242 b44a c941
00000100: adfd 6dc0 62d0 e341 3bee 13c1 c0f3 1bc1
00000110: 9cba 50c1 6ab2 1a41 353a fac1 f8b1 f741
00000120: b748 1142 486a c041 2742 4dc1 394c b33e
00000130: 83b0 5841 13ef 44c1 4578 4bc0 fa2a 66c2
00000140: 0cac 8842 74ed a9c1 ae92 e441 f6bc cd41
00000150: 8c2f 20c0 9a7a 1b42 045c 54c0 2e56 8741
00000160: b78f 37c1 b028 cc40 11b2 11c1 9904 ae41
00000170: ffbc c23f 00e8 bbc0 dcd3 1ac1 4386 3941
00000180: ffd8 be41 6408 4641 e34f 7e41 215b 1141

model/batch_normalization_4/batchnorm/mul_1;model/batch_normalization_4/batchnorm/add_1;model/dense_5/MatMul;model/activation_5/Relu;model/dense_5/BiasAdd f4 [100, 100]
-0.051556647 0.10164745 -0.009466825 0.008997466 0.033450525 0.38210228 0.077648744 -0.08178694
0.23761845 -0.12734206 -0.43857926 -0.22156869 0.08688693 -0.065419056 -0.023430064 0.23339784
-0.26220497 -0.12603396 0.18552236 -0.08214524 0.11176267 -0.0123370355 -0.10758663 -0.15230538
-0.009370712 0.05603043 0.017979132 0.06443865 0.13411883 0.03710183 0.06486911 -0.17528957
-0.02186118 -0.0037190756 -0.23403682 -0.1576394 0.086909704 -0.0959757 -0.05876395 0.1581761
0.12595871 0.10316794 -0.1807995 -0.003821556 -0.009545193 0.14749151 -0.12642469 -0.021644903
0.037190244 -0.21253787 0.063161366 0.028594779 0.22726333 0.038283776 -0.033305734 0.1555113
-0.03413859 -0.3408501 -0.21088086 0.11124324 0.07025345 -0.026215803 0.03528019 0.20437928
0.021261992 -0.028667822 -0.2629185 -0.060652606 -0.089149974 -0.330218 -0.01758818 -0.089604765
-0.10105533 -0.0030182097 0.0065275514 -0.04289221 -0.0009611334 0.020959502 0.40309876 0.21104215
-0.1131227 -0.071898095 -0.20633481 0.33917266 -0.3049432 0.17117462 0.021221057 -0.017915703
-0.18751703 -0.23209211 -0.05383139 0.0143280225 0.11827585 0.050209675 0.24392428 0.038591344
-0.04246549 -0.14241743 0.018400095 0.0010776118 -0.057207305 -0.016282225 -0.05994374 -0.70913875
-0.078174725 0.7169719 -0.02181672 -0.30938625 -0.0045979572 0.28257924 0.32981342 0.107512645
0.017044848 0.026769942 0.36570993 -0.042256504 -0.57407206 -0.6130551 0.090403736 0.05176375
-0.19747792 -0.14867495 -0.026971351 0.034129903 -0.017865438 -0.05797603 0.0035051228 -0.07612916
-0.036464926 -0.1117194 -0.1836855 -0.19934724 0.11161164 0.07462994 -0.067135826 -0.31104994
-0.8774379 0.04947481 0.17907731 -0.004886316 -0.01780227 -0.139809 0.111540094 -0.032585092
0.041843086 -0.6519614 0.038932264 -0.3425826 -0.052718334 0.35839295 0.088538945 0.019832464
-0.24795543 -0.07177433 -0.07440054 -0.07198949 0.045666426 -0.046240844 -0.084537186 0.010151748
-0.030644255 0.024637807 0.087366395 -0.12811035 -0.0734719 -0.13216044 -0.11743065 0.012161284
-0.055616926 -0.039706223 -0.5232514 -0.055461664 -0.082853206 -0.092526354 -0.11546402 -0.012130404
-0.041264527 -0.07227549 -0.24336901 0.06689916 0.09882727 0.020011988 -0.014786196 0.04382831
-0.22728285 -0.06554003 0.027374424 -0.06577523 0.051287305 0.17444488 -0.04789264 -0.19165036
-0.031492606 -0.016375376 -0.0053381086 -0.11244449 -0.08272735 0.02280688 -0.12923987 -0.48146024
0.0589033 0.018320644 0.052089125 0.07310803 -0.042268626 -0.04563937 -0.02263707 0.1481074
-0.0053347955 -0.17231208 -0.06793025 -0.12845609 0.048767753 -0.29460606 0.013040196 0.022722747
0.06515878 -0.056513865 -0.08211859 0.2577036 0.009857468 0.12560439 0.0057443846 0.079741895
-0.06686997 -0.031546474 0.051506694 -0.09664676 0.22781071 -0.01960595 -0.008129435 -0.1257877
0.023304593 -0.05069582 0.044248022 0.10210395 0.15407181 -0.11865816 0.06734195 0.015274274
0.10514624 0.020314531 -0.051906846 -0.0827608 -0.0034507879 -0.00046857705 0.0017124326 0.044681534
-0.074658595 -0.5456033 1.1800177 -0.11882764 -0.07662123 0.053551286 -0.13614896 0.13167663
00000000: 102d 53bd 8a2c d03d be1a 1bbc 1c6a 133c
00000010: 6b03 093d e9a2 c33e 4e06 9f3d e97f a7bd
00000020: 4052 733e f565 02be 768d e0be e7e2 62be
00000030: c6f1 b13d 6dfa 85bd 68f0 bfbc d8ff 6e3e
00000040: bb3f 86be 0c0f 01be 93f9 3d3e c33b a8bd
00000050: d4e3 e43d 4721 4abc 6156 dcbd f1f5 1bbe
00000060: 9d87 19bc 2a80 653d f948 933c 69f8 833d
00000070: 7256 093e 17f8 173d 19da 843d 1c7f 33be
00000080: 3816 b3bc bcbb 73bb 59a7 6fbe 396c 21be
00000090: b7fd b13d e88e c4bd 78b2 70bd eaf8 213e
000000a0: 52fb 003e b749 d33d 8123 39be 1273 7abb
000000b0: 7163 1cbc 0408 173e 7975 01be a750 b1bc
000000c0: cc54 183d 87a3 59be bf5a 813d 993f ea3c
000000d0: b8b7 683e 73cf 1c3d 986b 08bd 5b3e 1f3e
000000e0: e8d4 0bbd e883 aebe 27f1 57be 7fd3 e33d
000000f0: 0ae1 8f3d 86c2 d6bc f681 103d cd48 513e
00000100: a12d ae3c c8d8 eabc 419d 86be de6e 78bd
00000110: 4394 b6bd 5512 a9be 1615 90bc b482 b7bd
00000120: 19f6 cebd 28cd 45bb 12e5 d53b beaf 2fbd
00000130: 92f4 7bba 43b3 ab3c f662 ce3e 6f1b 583e
00000140: e0ac e7bd 4f3f 93bd 6f49 53be 0aa8 ad3e
00000150: 8421 9cbe 6648 2f3e c8d7 ad3c f4c3 92bc
00000160: 7704 40be 8ea9 6dbe 4e7e 5cbd 15c0 6a3c
00000170: 9c3a f23d a9a8 4d3d 49c7 793e f511 1e3d
00000180: 4bf0 2dbd e0d5 11be ccbb 963c a73e 8d3a
00000190: 3552 6abd 4d62 85bc 9187 75bd 1e8a 35bf
000001a0: 121a a0bd 788b 373f fab8 b2bc e067 9ebe
000001b0: 76aa 96bb 3aae 903e 4edd a83e 972f dc3d
000001c0: a3a1 8b3c a34c db3c 553e bb3e 2815 2dbd
000001d0: 63f6 12bf 2ef1 1cbf 9825 b93d 3a06 543d
000001e0: a737 4abe 3f3e 18be 06f3 dcbc cccb 0b3d
000001f0: 8a5a 92bc 4678 6dbd 34b6 653b 9be9 9bbd
00000200: 3f5c 15bd 24cd e4bd 0d18 3cbe af21 4cbe
00000210: a594 e43d 95d7 983d 827e 89bd f041 9fbe
00000220: c59f 60bf 19a6 4a3d 0b60 373e 641d a0bb
00000230: 11d6 91bc 172a 0fbe 226f e43d f277 05bd
00000240: a863 2b3d f1e6 26bf 7077 1f3d fd66 afbe
00000250: 2eef 57bd 487f b73e e853 b53d b177 a23c
00000260: 07e8 7dbe 6cfe 92bd 4f5f 98bd 3a6f 93bd
00000270: b80c 3b3d 0a67 3dbd d521 adbd 8453 263c
00000280: a909 fbbc 3ad5 c93c 27ed b23d 5c2f 03be
00000290: 6f78 96bd 1155 07be 7b7f f0bd 1f40 473c
000002a0: 93ce 63bd fea2 22bd cef3 05bf c52b 63bd
000002b0: f1ae a9bd 757e bdbd 6678 ecbd 9abe 46bc
000002c0: fe04 29bd 2c05 94bd ba35 79be 6d02 893d
000002d0: f465 ca3d 2ef0 a33c cd41 72bc 5085 333d
000002e0: d6bc 68be da39 86bd 5440 e03c 2ab5 86bd
000002f0: a312 523d aea1 323e 132b 44bd fe3f 44be
00000300: 64fe 00bd a725 86bc 4deb aebb 4c49 e6bd
00000310: f56c a9bd 7ed5 ba3c 7557 04be f581 f6be
00000320: 9644 713d 2d15 963c 685b 553d aab9 953d
00000330: de21 2dbd 59f0 3abd 6071 b9bc 77a9 173e
00000340: 82cf aebb 9472 30be 041f 8bbd fe89 03be
00000350: b2c0 473d 9bd6 96be 8ca6 553c 0e25 ba3c
00000360: f771 853d 157b 67bd cb2d a8bd baf1 833e
00000370: 3881 213c 709e 003e 643b bc3b b84f a33d
00000380: 1ff3 88bd e036 01bd aff8 523d bdee c5bd
00000390: 3647 693e a89c a0bc 5231 05bc 7ece 00be
000003a0: 46e9 be3c 6ca6 4fbd 6a3d 353d e01b d13d
000003b0: 00c5 1d3e 0d03 f3bd 94ea 893d f340 7a3c
000003c0: e956 d73d a96a a63c 469c 54bd 7f7e a9bd
000003d0: 9d26 62bb 59ab f5b9 b473 e03a fc03 373d
000003e0: 9be6 98bd a8ac 0bbf d20a 973f e85b f3bd
000003f0: 97eb 9cbd 9858 5b3d a26a 0bbe 3dd6 063e

model/dense_6/MatMul;model/activation_6/Relu;model/dense_6/BiasAdd f4 [100]
-11.020067 10.025601 5.3345876 -8.250944 36.725613 -12.787303 5.8869967 20.38027
-12.999067 24.014696 39.50381 -4.35308 -3.7712936 28.082525 -3.817273 -0.0127905095
27.651426 12.667479 30.287064 20.820791 53.72938 21.559292 -11.341685 -18.664928
5.5409904 11.995606 1.4767525 25.390503 23.625582 -3.9355626 -0.05425128 9.13483
3.7580945 2.8468878 2.6815054 46.82202 -23.082178 14.4719715 -0.4914319 6.6163154
26.401724 8.830148 20.127014 -22.212597 19.211397 2.5374641 -17.646421 2.7342777
18.183079 10.103694 9.545341 -29.116571 1.2127268 13.9897585 15.439088 34.90577
28.263592 -6.6728044 24.884726 39.903625 15.512318 -20.615408 5.9484587 8.620254
-9.243554 9.662394 51.49944 0.7527648 -19.514307 15.249727 32.38037 9.3777685
-6.2119665 8.908578 8.805859 -0.36722574 -12.052582 28.085648 -20.225111 -2.4799109
-1.9941974 4.0008073 -7.936864 24.51742 19.634037 21.077091 13.601579 5.5573835
-22.826801 -4.772581 19.773537 -16.631607 10.307197 18.225288 -1.6609333 11.568637
35.125854 -0.5162143 -26.28985 -9.295228
00000000: 3252 30c1 dd68 2041 f1b4 aa40 de03 04c1
00000010: 07e7 1242 cb98 4cc1 4762 bc40 cb0a a341
00000020: 2efc 4fc1 191e c041 e703 1e42 6e4c 8bc0
00000030: e05c 71c0 03a9 e041 334e 74c0 498f 51bc
00000040: 1f36 dd41 fead 4a41 e84b f241 fb90 a641
00000050: e3ea 5642 6e79 ac41 8b77 35c1 c651 95c1
00000060: cb4f b140 01ee 3f41 3a06 bd3f c01f cb41
00000070: 3101 bd41 42e0 7bc0 9736 5ebd 4428 1241
00000080: 9f84 7040 6933 3640 c99d 2b40 c049 3b42
00000090: 4da8 b8c1 328d 6741 f69c fbbe dbb8 d340
000000a0: bb36 d341 4948 0d41 2004 a141 66b3 b1c1
000000b0: f1b0 9941 d065 2240 df2b 8dc1 68fe 2e40
000000c0: f276 9141 bba8 2141 b7b9 1841 bdee e8c1
000000d0: a23a 9b3f 0dd6 5f41 8106 7741 829f 0b42
000000e0: d61b e241 9d87 d5c0 eb13 c741 509d 1f42
000000f0: 7432 7841 5bec a4c1 c659 be40 8fec 0941
00000100: 99e5 13c1 2a99 1a41 6dff 4d42 32b5 403f
00000110: 4d1d 9cc1 e2fe 7341 8085 0142 570b 1641
00000120: 6ec8 c6c0 8989 0e41 cce4 0c41 0305 bcbe
00000130: 60d7 40c1 68af e041 07cd a1c1 dcb6 1ec0
00000140: dc41 ffbf 9d06 8040 cafa fdc0 ad23 c441
00000150: 8212 9d41 e29d a841 11a0 5941 16d6 b140
00000160: 4a9d b6c1 fcb8 98c0 3430 9e41 880d 85c1
00000170: 47ea 2441 64cd 9141 7699 d4bf 2319 3941
00000180: e080 0c42 9f26 04bf 9d51 d2c1 41b9 14c1
