corintho_ai/rating/tflite_models/model_17.tflite (tflite, 521576 bytes, 27 tensors)

model/dense_1/MatMul;model/activation_1/Relu;model/dense_1/BiasAdd f4 [100]
000000 fb 9e ec c1 f4 1b 53 42 15 c0 c9 c1 d7 88 c2 c0
       -29.577627 52.777298 -25.21879 -6.079204
000010 7e 1a 0c 42 3f 47 89 41 10 e7 c3 41 c4 95 b9 c1
       35.02587 17.159788 24.487823 -23.198128
000020 32 81 d8 c1 af d3 28 41 42 18 eb 40 0b af ef c1
       -27.063084 10.551681 7.346711 -29.96047
000030 44 28 9b 40 3e fc 39 c1 9e ea 29 40 4d 8e fa c1
       4.848665 -11.624083 2.654945 -31.319483
000040 db ee 14 40 e7 c6 0e 40 d4 79 19 c1 13 d4 d6 c0
       2.3270786 2.23089 -9.592243 -6.713388
000050 61 f8 e9 3d 5d 7f 3b 3e ef 6b ad 40 e5 77 a2 c1
       0.11424328 0.18310304 5.4194255 -20.308542
000060 5b da d7 41 53 6a bb 3f 17 2d 47 c1 8e fb 17 c0
       26.981619 1.4641823 -12.448508 -2.3747287
000070 17 30 96 c1 e5 02 91 40 2e a6 8f c1 8e 94 83 3f
       -18.773481 4.5316033 -17.956142 1.027971
000080 71 3a 21 41 d5 10 ce c1 bc c1 04 42 ce 2e 64 41
       10.076768 -25.758219 33.189194 14.261427
000090 6e 7d ed bf b5 86 39 c1 ae 6a 11 3f bb 6f 9e 41
       -1.8553903 -11.595387 0.56803405 19.804556
0000a0 96 c6 d4 41 cc 12 16 c0 c0 1f 73 c1 ca fc 1c be
       26.596966 -2.3448973 -15.195251 -0.15330806
0000b0 82 f3 12 41 a9 1b 94 c0 1d 17 8e 40 e3 c5 85 c1
       9.18445 -4.6283765 4.4403214 -16.721624
0000c0 e4 11 11 bf 25 03 6d c1 54 43 dc 40 6d 4c d2 c1
       -0.56667924 -14.813268 6.883219 -26.287317
0000d0 ee 4c 82 3f 7a de 7f 42 a3 ca c2 c0 a6 10 88 41
       1.0179727 63.967262 -6.087236 17.00813
0000e0 4c 94 18 41 d2 85 ae c0 ab 23 b3 41 92 43 9c c0
       9.536205 -5.4538355 22.392416 -4.8832483
0000f0 7a d0 c9 40 8e b4 d3 41 20 b9 29 3f fa f1 fc 40
       6.306699 26.463161 0.66298103 7.904538
000100 a9 63 ac 41 07 5f cc 41 a3 3e 40 42 55 c8 75 41
       21.548662 25.5464 48.06117 15.361409
000110 ae 8e 82 c0 e9 4e ef c1 04 bb 9d be 09 a9 16 c1
       -4.079917 -29.91353 -0.30806744 -9.416268
000120 c7 87 4f 41 d0 8f 2c 42 99 ed ab c0 cd 4a a7 41
       12.970649 43.14044 -5.3727536 20.911524
000130 70 9c cc c0 2b 85 1d 40 a5 df f8 c1 1d 79 0c bf
       -6.3940964 2.461253 -31.109201 -0.54872304
000140 10 15 04 bf af c3 e1 41 cb 0a b9 40 19 13 9e c1
       -0.5159464 28.220549 5.7825675 -19.759325
000150 4b 5e a1 c1 04 79 d5 41 52 f6 43 41 cd 34 4c c1
       -20.171041 26.68409 12.247637 -12.762891
000160 1d 30 15 42 78 c6 af 41 d8 4a f3 41 5d b1 c0 40
       37.296986 21.971909 30.411545 6.021651
000170 95 cb f0 41 62 03 b3 40 c9 06 18 c1 98 5f a1 40
       30.099405 5.594163 -9.501657 5.042919
000180 79 9a 2e 42 be 09 e3 3f c5 2d 36 3f 0d 9c 22 c2
       43.650852 1.7737348 0.7116359 -40.652393

model/batch_normalization/batchnorm/mul_1;model/batch_normalization/batchnorm/add_1;model/dense_1/MatMul;model/activation_1/Relu;model/dense_1/BiasAdd f4 [100, 100]
000000 01 e2 8a 3d 77 82 ec be b1 38 fe 3e 61 51 cd bd
       0.06781388 -0.46193287 0.49652627 -0.100252874
000010 6c 85 da 3f 47 05 4c 3f 94 0d dc be 82 a1 56 bf
       1.7071967 0.7969555 -0.4297911 -0.8384019
000020 4d 75 32 3e 00 e9 26 3f 8b 94 66 3e 96 96 0a 3f
       0.17427559 0.6519928 0.22517602 0.54136026
000030 61 4f 01 bd 2d c9 bd bc 49 eb 2a bc ff 33 fc 3c
       -0.031569842 -0.023167217 -0.010432073 0.030786512
000040 6a 99 c5 3e 43 6f 73 bf 12 61 40 3d 9c 21 0f be
       0.38593608 -0.95091647 0.046967573 -0.13977665
000050 b8 e9 9d 3e 48 88 21 40 c1 21 5b 3c 5a 4e eb bd
       0.30842376 2.523943 0.013374747 -0.11489554
000060 64 40 62 be eb 6b 4d 3d d6 39 87 3e ab ac 4a bf
       -0.22094876 0.050151747 0.26411313 -0.7916972
000070 35 56 b3 3e 19 54 29 be 42 db 82 3d 11 dc 39 3f
       0.35026708 -0.16535987 0.06389476 0.7260142
000080 92 21 a6 3e 8c b4 01 3e 34 75 94 be d4 1e 51 3d
       0.32447487 0.1266653 -0.2899567 0.05105479
000090 47 3d 39 3e ff 4d 09 bf 24 c9 c4 bd 0a 57 03 3e
       0.18089782 -0.5363464 -0.09608677 0.12826172
0000a0 0b a0 35 3f 13 52 5c 3f c3 c5 b7 3e b6 b8 1e 3e
       0.7094733 0.86062735 0.35893068 0.15500149
0000b0 03 2b ae be 44 51 bf be 8f 90 81 3e d2 fa 58 3d
       -0.3401719 -0.37366688 0.25305602 0.052973576
0000c0 1d 64 83 3e ed b1 39 be de cd dc bd 5b 09 12 be
       0.25662318 -0.1813428 -0.107814535 -0.14261381
0000d0 05 ba c7 3f 5e 7c 14 40 e2 58 c4 3d cf df 50 3e
       1.5603644 2.3200908 0.095872656 0.20397876
0000e0 4c bf c7 be 12 64 4f 3e de 28 5e bf 55 31 f4 3e
       -0.39013135 0.20253018 -0.8678111 0.47693887
0000f0 44 9b a7 3e 62 1f df bd cf 70 95 be 03 13 3f bf
       0.32735646 -0.10894658 -0.2918763 -0.74638385
000100 f2 39 05 3f 65 2a d7 be 5b 03 84 be da 43 80 3e
       0.5204154 -0.42024532 -0.2578381 0.25051767
000110 9c bc c1 3d d8 86 44 3f 27 6c b2 3e d0 57 7a 3e
       0.094598025 0.76768255 0.3484814 0.2444756
000120 e3 52 db 3d 74 18 21 3c 6c bd 36 3f 6e dd 57 bf
       0.10709169 0.00983249 0.71382785 -0.8432225
000130 2c 2e fb bd 0a 03 ee be 86 80 b9 3e 57 63 36 3f
       -0.12264666 -0.46486694 0.36230868 0.7124533
000140 2f 9f b5 be 36 e0 8e 3e d4 10 96 be be 51 38 be
       -0.3547301 0.27905434 -0.29309714 -0.17999932
000150 2d 82 f0 be 52 1f 87 3e 53 5c 57 bd 6f 11 fa bd
       -0.46974316 0.26391083 -0.05257828 -0.122103564
000160 49 25 39 3e 2a f8 e2 bd ce 37 1f bf 41 99 51 3f
       0.1808063 -0.1108249 -0.62194526 0.8187447
000170 6d 01 14 3e 23 41 2d bf bd 36 c4 bd e3 ae 36 3d
       0.14453669 -0.67677516 -0.09580753 0.04460038
000180 4c 83 82 3d 36 7d c9 bc a4 cf ee bc d0 f6 a1 be
       0.06372699 -0.024595838 -0.029151745 -0.31633615
000190 7e 36 4f bf 21 d3 4f bf 3e f4 57 be 9e 1d c2 bc
       -0.80942523 -0.8118153 -0.21089265 -0.023695763
0001a0 d6 b1 82 bf 44 d9 59 3f a0 68 bf 3e 74 1e 99 3e
       -1.0210521 0.85097146 0.3738451 0.29906046
0001b0 ab c8 3a 3e e6 45 14 be 86 79 95 3e 72 32 c0 3d
       0.18240611 -0.14479789 0.29194278 0.09384622
0001c0 0b 21 21 bf 9b ee 8c bd 95 5a db be 95 02 1d bf
       -0.62941045 -0.06881448 -0.42842546 -0.61332065
0001d0 e3 d8 14 3e d1 f0 ac bf a9 f7 f8 be 3b a8 1f be
       0.1453586 -1.3510991 -0.4862645 -0.15591519
0001e0 0b 33 e3 be 1a 5a e6 3e c5 ce 2c 3e 0c 5e 6c bd
       -0.4437488 0.44990617 0.16875751 -0.057706878
0001f0 b2 0c ac 3d 75 03 ab 3d d5 08 f7 be 02 f4 fe bd
       0.08400859 0.08350269 -0.48248926 -0.124488845
000200 13 c7 38 3e 33 2f c5 3d 35 83 87 3d 45 0a e7 3e
       0.18044691 0.09628143 0.06616823 0.45125023
000210 b1 00 5f 3e 23 bf 78 be 5d 95 51 3e ef ec d7 bd
       0.21777608 -0.24291663 0.20467134 -0.10543238
000220 1d 71 aa be 65 dc cd bf d2 68 1b bf 4d 45 08 bf
       -0.33289424 -1.6082884 -0.6070682 -0.53230745
000230 8f 8a 13 3e 45 ee 77 be a9 e8 46 bf 9e d9 6f be
       0.14408325 -0.24211986 -0.7769876 -0.23422858
000240 2b 91 83 bc d3 ff 53 bf db 86 5f 3d d1 83 6a be
       -0.016060432 -0.8281223 0.054571968 -0.22901846
000250 82 77 93 be 72 0c 16 bc a5 56 c6 bd 73 d7 8b 3f
       -0.28802115 -0.009158241 -0.09684495 1.0925125
000260 46 9e 29 be 6d ec 34 3f 4a 1f a5 3e cb 3d 93 be
       -0.16564283 0.7067326 0.32250434 -0.28758082
000270 93 f4 f9 bd ac 58 57 3f f7 68 1a 40 77 86 7b 3e
       -0.12204852 0.8411968 2.4126565 0.24563013
000280 2a b5 c9 3e 30 44 2e 3e 5b 3b d5 3c 8c ac 26 bf
       0.3939603 0.17018199 0.02602928 -0.65107036
000290 9c df f3 be 9a c5 6c be 58 f9 7c 3c 1a 37 40 3f
       -0.47631538 -0.23122254 0.015440308 0.7508408
0002a0 7c 92 f8 bd d7 b7 9b bc 26 01 58 be ff 68 07 3f
       -0.12137315 -0.01900856 -0.21094188 0.52894586
0002b0 e9 ab 0a 3d 8a 27 59 3d cf 5b cc be 53 48 72 be
       0.033855353 0.053016223 -0.39913794 -0.23660402
0002c0 2e e1 11 bf e6 1d 90 be 3a f6 2e 3f d4 f7 10 3e
       -0.5698422 -0.2814781 0.6834446 0.14157039
0002d0 2c 91 c8 bd cd b3 da be bb 5b 9f 3e 99 70 95 3e
       -0.09793314 -0.42715302 0.31124672 0.29187468
0002e0 80 90 72 bc 76 07 45 3e 7c 41 cd bd 84 ca da be
       -0.014804959 0.19241127 -0.10022256 -0.42732632
0002f0 d5 30 f2 3d 46 97 c1 be 09 33 50 bf 64 3c 58 3f
       0.1182572 -0.37810725 -0.81327873 0.8446715
000300 fd aa 17 be 4a d1 0c bf 13 bd 05 bf ae 04 24 3d
       -0.1481132 -0.5500685 -0.5224163 0.040043525
000310 f6 bc b3 bd 1b a9 8b bf eb 70 07 bf 30 2c a1 be
       -0.08776276 -1.0910982 -0.52906674 -0.31479025
000320 5e 7a 21 3f 64 f4 42 be e0 37 88 bf c7 46 b1 3e
       0.6307734 -0.1903854 -1.0642052 0.3462431
000330 d8 33 46 bd 42 1f 27 3d 66 a9 74 3f 44 2c 03 bf
       -0.048389286 0.040801294 0.9557098 -0.5123942
000340 b5 21 32 bf f9 0d 25 bf 6f b2 96 be a4 2b 64 3f
       -0.6958268 -0.64474446 -0.2943301 0.8912909
000350 0d 66 d6 3d 6c 1b 34 3e 75 a4 09 be d0 bc c1 3e
       0.104686834 0.17588586 -0.13441642 0.37839365
000360 c5 5d 1b 3e dc 4d b5 be 31 a6 24 bf 21 aa b7 be
       0.15172489 -0.35410964 -0.6431609 -0.35871986
000370 10 b7 a4 bd ab f1 21 c0 65 b7 ec bd 92 b5 3f 3d
       -0.08042729 -2.5303752 -0.11558417 0.04680402
000380 3e 41 8a 3c f2 91 3e be 63 36 c4 bb b1 95 7a 3e
       0.016876813 -0.18610361 -0.0059879287 0.24471165
000390 e7 46 35 be f7 60 dc 3f 93 d3 5a 3f e7 91 b5 3e
       -0.17702828 1.7217091 0.85479087 0.35462877
0003a0 ea d6 35 3e 49 87 1f 3f 59 d1 4c 3f a3 c0 0c be
       0.17757764 0.62315804 0.8000694 -0.1374536
0003b0 82 d7 4e 3d 20 15 74 3e fc af 84 3e 2f 19 87 be
       0.050498493 0.23836184 0.25915515 -0.263864
0003c0 0d b1 a8 3e a8 1a b1 be e3 90 09 3f e5 00 0c 3f
       0.3294758 -0.3459065 0.53736705 0.54688865
0003d0 5c ce ff 3d bc 8b 2f bf 63 86 e7 3e 9b fd 60 be
       0.12490532 -0.6857259 0.45219716 -0.21971743
0003e0 a6 11 e0 be 1b e2 71 be e2 82 fd ba a6 4a db 3f
       -0.43763465 -0.23621409 -0.0019341374 1.7132156
0003f0 dc 84 2a 3f 2e 75 b1 bd 0e 49 55 be f6 1e ac be
       0.6660898 -0.086649284 -0.2082865 -0.3361737

model/dense_2/MatMul;model/activation_2/Relu;model/dense_2/BiasAdd f4 [100]
000000 6a f4 cb 41 7e 08 1a c2 2b 38 79 40 d6 e4 e3 c1
       25.494343 -38.508293 3.8940532 -28.486736
000010 3a 14 7b c1 b6 2a 02 c1 ba 81 85 41 0f 74 7a 41
       -15.692438 -8.135427 16.688343 15.653335
000020 33 4c c0 c0 b8 c6 02 3f 99 b3 25 c1 c8 6c e4 c0
       -6.0093017 0.5108447 -10.356347 -7.138279
000030 d1 6f 40 c0 d5 34 0c 41 2c 8d a2 40 81 04 08 c2
       -3.0068247 8.762898 5.079733 -34.0044
000040 d7 17 0b c1 94 6a 34 40 92 ab ed 3f 97 b9 88 40
       -8.69332 2.819005 1.8567984 4.272655
000050 70 8b 12 41 d2 f3 28 bf 32 a1 24 40 c2 d0 b2 40
       9.159042 -0.6599704 2.5723386 5.587983
000060 d4 33 00 c1 43 48 b9 40 19 49 fb bf e3 37 5e 41
       -8.012653 5.790071 -1.9631683 13.888644
000070 5f 61 da c0 7d 16 9d 3f bc d0 b8 c0 e9 1f d3 40
       -6.824386 1.2272488 -5.7754803 6.5976453
000080 ec 3c 66 41 44 d9 12 c1 2c 92 62 41 b7 bc 6c c1
       14.3898735 -9.178043 14.1606865 -14.796073
000090 59 15 c6 41 3e a2 6a c1 e6 2e 82 c1 49 9a ee be
       24.760424 -14.66461 -16.2729 -0.46602085
0000a0 c1 9d 53 40 5e d5 9c c1 5e 99 ef 3f d5 a1 b8 bf
       3.3065035 -19.604183 1.8718679 -1.4424387
0000b0 fb 26 07 c1 cb 5d 96 41 92 ba 8f c0 79 81 b1 bf
       -8.447017 18.795797 -4.4915247 -1.3867637
0000c0 74 25 d4 c1 28 2d e2 40 e5 0a ea 41 78 c4 d2 41
       -26.518288 7.068012 29.25532 26.345932
0000d0 c4 7c 27 41 c5 d4 96 3f 0f c2 47 40 86 e5 aa c0
       10.46796 1.1783682 3.1212194 -5.340518
0000e0 d4 62 50 40 c5 e1 d9 41 0b 1d 90 41 0e 64 35 c1
       3.256032 27.235239 18.014181 -11.336927
0000f0 e3 35 54 c0 b9 f9 14 40 36 73 92 40 20 dd 4c 42
       -3.315789 2.3277419 4.576564 51.215942
000100 8b 0e c5 41 80 52 80 40 48 a8 d8 c1 3a 2d 86 c1
       24.632101 4.010071 -27.082169 -16.772083
000110 1c a1 15 c1 98 0e ba 41 17 42 8e c2 db 62 8a 40
       -9.351833 23.257126 -71.12908 4.3245673
000120 a1 93 af c1 36 60 a2 41 24 c1 58 c1 88 fb c0 c1
       -21.947084 20.296978 -13.547153 -24.122818
000130 a5 5f 03 41 d1 b1 c0 c0 61 0b 27 c1 80 3e 1d 41
       8.210851 -6.021706 -10.440278 9.827759
000140 77 60 78 41 1a 96 30 41 16 fe 91 41 d6 99 35 41
       15.523551 11.036646 18.249065 11.350058
000150 1a f1 d4 c0 26 a3 bb c1 6c 8a 33 40 fb af ac 41
       -6.6544313 -23.454662 2.8053236 21.585928
000160 c3 cf 0f 41 13 b8 6e 41 1a f9 8e c1 ae fe 99 40
       8.988223 14.91994 -17.871632 4.812339
000170 ce e5 cd c0 49 64 45 40 b9 f8 c2 40 fd 86 86 41
       -6.4343023 3.084246 6.0928617 16.815912
000180 d1 bf 92 41 b0 54 47 41 ae e6 21 41 56 eb 0c 41
       18.34366 12.458176 10.118818 8.807455

model/batch_normalization_1/batchnorm/mul_1;model/batch_normalization_1/batchnorm/add_1;model/dense_2/MatMul;model/activation_2/Relu;model/dense_2/BiasAdd f4 [100, 100]
000000 fc a0 a7 bc 92 16 56 be 5b f7 97 3d 90 48 0e be
       -0.020462506 -0.20907047 0.07420226 -0.13894868
000010 48 3f 50 be 2f 78 4e be 20 b1 b1 3d 66 33 1a bd
       -0.2033664 -0.20163034 0.08676362 -0.037646674
000020 d4 28 6d 3e b1 be 37 bd c5 49 aa 3d 20 33 3d 3e
       0.23160106 -0.044859592 0.08314852 0.18476534
000030 74 a1 27 3d b7 5f 6d bd 82 32 42 be 2d 40 1e 3d
       0.040925458 -0.05795261 -0.1896458 0.03863542
000040 ab 85 45 3d 5e 4f ab be 2f ca 17 3e 4e 55 de 3d
       0.04822318 -0.3345899 0.1482322 0.10856114
000050 67 0a 99 bd d6 6d 8c bd e4 9a 13 3e 3f f0 38 3e
       -0.07472687 -0.06856887 0.14414555 0.18060397
000060 ae 4e cc bd 60 36 91 bb db b8 2d bd b9 86 b2 ba
       -0.099759445 -0.004431531 -0.04241262 -0.0013620473
000070 19 c8 54 3d ec 21 24 bd 26 2c 87 3c cc 7e 0c bd
       0.05194864 -0.040071413 0.016500544 -0.03430061
000080 c5 e1 69 be 25 d6 52 ba aa 6c 00 3d 15 e9 7c 3e
       -0.2284003 -0.0008042774 0.03135363 0.24698289
000090 c0 83 c7 bd b0 29 cb 3d c2 39 07 3e 28 56 01 bd
       -0.09741926 0.09920061 0.13205627 -0.031576306
0000a0 ef 2a dc bc a1 69 6b be fc ce b2 bd a4 bb 1f 3d
       -0.026875941 -0.22989513 -0.087308854 0.038997307
0000b0 ad ae c2 bc 52 98 02 3e ac 4b 2c bd fd a8 45 bc
       -0.023764933 0.12753418 -0.042064354 -0.012064216
0000c0 b8 d2 a5 bd 8e a8 84 bd 88 52 be 3d f1 e7 7d 3d
       -0.08096832 -0.06477462 0.09293085 0.061988775
0000d0 f2 4b ab 3c 90 0d 25 be d2 20 90 bc 5d a8 25 bd
       0.020910237 -0.16118455 -0.017593775 -0.040443767
0000e0 8c ba 5d 3d 29 27 a2 3d 3d 51 8e 3e 4b 34 a7 bd
       0.054132983 0.079176255 0.27796355 -0.08164271
0000f0 c8 f7 7d 3e a3 19 2a be f0 55 7b 3c 67 a1 20 be
       0.24801552 -0.16611342 0.015340313 -0.1568657
000100 f2 e7 9a 3b 98 72 37 3c 49 4d 13 3d 49 fc 77 bd
       0.004727357 0.011196755 0.035962377 -0.060543332
000110 57 6d ec bd 75 1e b2 3d 66 9f 87 be da bb fc bd
       -0.115442924 0.086972155 -0.264888 -0.12340517
000120 db cd bd bd 30 88 a1 bd 65 dc 9e be 06 30 0c be
       -0.092677794 -0.07887304 -0.31027523 -0.13690194
000130 d1 ce ec bd 9c b8 9a 3d e2 f1 0f be 47 7c 82 be
       -0.115628846 0.07554743 -0.14057115 -0.2548544
000140 31 2c c2 3d 37 ed c7 3d 2e fe 39 3d 47 39 f2 3d
       0.09481085 0.09762042 0.04540842 0.11827331
000150 4b 65 8e bd 42 42 89 bd 3f cf 44 3d 11 e6 71 3d
       -0.06952914 -0.06702091 0.048049208 0.0590573
000160 d9 fc 62 be 35 29 3b bd a1 e3 ba 3d bb 63 98 bd
       -0.22166766 -0.045693595 0.09125448 -0.07440897
000170 79 34 1d be 63 fb 21 be e2 69 15 bf 56 a4 e0 3e
       -0.15352048 -0.15818553 -0.5836469 0.43875378
000180 d0 fa 57 3e e3 cd 40 bf 99 15 ea 3c 2c 5f 3a be
       0.21091771 -0.7531416 0.028574752 -0.18200368
000190 ac 57 d3 3d 06 63 99 3d f0 d5 68 bd aa 09 86 bd
       0.103194565 0.0748959 -0.05684465 -0.06544812
0001a0 68 e8 c5 3c 34 bd e4 3d 94 a0 0e 3e 27 13 f1 3c
       0.024158671 0.111689 0.13928443 0.029428078
0001b0 95 68 cb 3d fc d9 97 3d a2 9d 4e bd 21 af 54 bc
       0.09932057 0.07414624 -0.0504433 -0.012981207
0001c0 be 38 d2 3c 14 e2 9d bd 78 f3 ae 3d 1d c5 12 3e
       0.025661822 -0.077091366 0.08542532 0.14333005
0001d0 80 d2 c4 bd 85 da 38 be 35 3e 28 bd 2b 49 48 3e
       -0.09610462 -0.18052109 -0.04107495 0.19559161
0001e0 5f cf e7 3b 6d 04 b3 3a b4 84 6f 3e 76 b8 1a bd
       0.007074281 0.0013657935 0.23390466 -0.037773572
0001f0 2f e4 1e 3d 06 25 12 3c b4 d0 fb 3b 39 ed 2e bc
       0.03879183 0.00891996 0.0076847915 -0.0106766755
000200 72 a4 1e 3e b8 07 17 3d 60 23 81 3e 8d 4f d0 3e
       0.15492418 0.036872596 0.252223 0.40685692
000210 3b fb 0c 3e 60 27 03 3d ba b1 69 3c 89 aa b2 bd
       0.13767712 0.032019973 0.014263565 -0.08723933
000220 f4 ea 14 3d e4 c5 54 3d 47 f6 8f 3c a1 49 19 bd
       0.03635688 0.051946536 0.017573489 -0.037423734
000230 04 3a 96 bd 35 f7 6b bd 4d b8 71 3e 88 1b 5d bd
       -0.07335284 -0.057608802 0.23605461 -0.053981334
000240 3e 16 e7 3d c4 8f 0a 3e e9 d8 5e 3c d5 a7 b8 3d
       0.11283539 0.13531405 0.01360152 0.090163864
000250 f6 8f f3 3d 84 52 be 3d 4b 25 20 3d 70 6c 27 be
       0.11892693 0.09293082 0.039098065 -0.1634996
000260 81 d1 8e 3e 49 94 c7 3d 86 97 f5 3d 6a 26 98 3c
       0.27894214 0.0974508 0.119917914 0.018573005
000270 cb 81 95 3d ce e1 b2 3c f2 bb 47 bd 5e 03 4b 3d
       0.07300147 0.021836188 -0.048763223 0.049563758
000280 48 ad eb ba 45 10 1b be e2 f3 bf 3e 65 f6 8b bd
       -0.0017980719 -0.15142925 0.37490755 -0.068341054
000290 15 19 77 3c a3 b3 47 3e c8 6f a9 bd 4d 3e 1b bd
       0.015081664 0.1950212 -0.08273274 -0.03790121
0002a0 ce 54 33 3d 3e ab a9 3d f2 d1 dd bd 11 39 34 3c
       0.043782048 0.08284615 -0.108310595 0.010999934
0002b0 7e af e2 bc 76 a7 8c 3e e0 fb 45 3a e8 86 5e be
       -0.027671572 0.27471513 0.0007552486 -0.2173115
0002c0 76 37 77 bd c3 42 96 3d c3 d0 6a 3d 21 ec 52 bd
       -0.060355626 0.073369525 0.057327997 -0.05149472
0002d0 5a 94 c3 3d 6b c0 04 bd ff d6 a1 3d 4d 15 a5 3d
       0.0954978 -0.032410067 0.079023354 0.080607034
0002e0 4e 50 83 bc 45 12 12 bd 43 3b 2b bc 36 59 1c 3e
       -0.016029503 -0.035661954 -0.010451141 0.15268406
0002f0 22 84 98 3d 5f 24 a9 bd 88 9d 01 3f 26 91 21 bd
       0.07447077 -0.0825889 0.50631 -0.039445065
000300 07 57 03 be a3 eb 9f 3d fd 16 ea bd 59 3b 5f 3b
       -0.12826167 0.07808616 -0.11430166 0.0034062474
000310 e9 dd 2d be 04 ec d8 bc a6 c9 fc 3d bd 95 0b be
       -0.16979183 -0.026479729 0.12343149 -0.1363134
000320 8e c8 4b 3e 26 15 a7 3d 5a df ff bc a7 6a ed bd
       0.19900724 0.081583306 -0.031234432 -0.11592608
000330 d7 8b 8c 3c 78 37 c6 bd 71 fd b4 3d a3 2a 49 bd
       0.017156525 -0.096785486 0.088374026 -0.049112927
000340 53 ad a6 3b 40 ec 44 3e 2a e0 69 3c 35 cc 93 3d
       0.00508658 0.19230747 0.014274636 0.07216684
000350 89 01 4a be 45 60 b9 bd 28 ac 91 3d 39 44 6a be
       -0.19727148 -0.09051565 0.07112914 -0.22877587
000360 cc 6f 67 3d d6 06 d7 bd 93 2a 00 be fd e1 7d 3d
       0.056503102 -0.10499351 -0.12516241 0.061983097
000370 2a a6 17 3e 04 08 a4 bc f2 35 67 3e f0 68 0b 3c
       0.1480948 -0.020023353 0.22579172 0.008508906
000380 19 00 75 bd 7a 7d 23 3d e7 2b 1a bd 24 7e fa bd
       -0.059814546 0.039914586 -0.037639525 -0.12231091
000390 00 d6 bf bc 78 3c 70 bd 76 51 8e 3c c2 76 49 3e
       -0.023417473 -0.058651417 0.017372828 0.19674209
0003a0 2d 0e 49 bd ed f0 e3 bd 2b 6b 3a be e2 85 0b bd
       -0.049085785 -0.11129937 -0.18204944 -0.034063227
0003b0 1a 75 c6 3d b8 30 ff bc 46 99 39 bc 8f 26 07 bd
       0.09690304 -0.03115116 -0.011328047 -0.032995757
0003c0 00 25 8d 3d af 2d b9 3e 3d dd 73 bb 69 d7 1f 3e
       0.06891823 0.36167666 -0.0037210726 0.15609516
0003d0 ea 7c 9d 3d 68 3e 63 3e 0f 34 c1 bc 6a 48 12 bd
       0.07689841 0.22191775 -0.023584394 -0.03571359
0003e0 5c 73 04 be a9 e1 30 bd 57 10 b6 3b db fb 55 bd
       -0.12934631 -0.043183956 0.005556147 -0.05224214
0003f0 69 ed 4e bd af 92 1f 3e 43 84 6b be b5 54 68 3d
       -0.05051938 0.15583299 -0.22999673 0.056721408

model/dense_3/MatMul;model/activation_3/Relu;model/dense_3/BiasAdd f4 [100]
000000 6c 7f 34 c1 48 be 7a 41 c6 37 ab c0 12 ba 1f 40
       -11.281109 15.671455 -5.3505583 2.4957318
000010 d3 4b eb 40 8e 00 03 c1 dc 0c f9 be fb 0a e2 40
       7.353006 -8.187635 -0.48642623 7.0638404
000020 60 df 2a 40 1d af d3 40 fd 9e 40 41 28 4f cf 41
       2.6698837 6.615126 12.0388155 25.91365
000030 d7 62 37 41 f1 ee b0 40 c4 d7 f6 40 5a b7 2e 40
       11.461631 5.5291677 7.7138386 2.729941
000040 48 d3 04 c1 17 03 23 40 ad 9d 24 41 71 ef 99 40
       -8.301582 2.5470636 10.288495 4.8104787
000050 2a 06 38 41 81 91 e8 bf 2a 8e ff c0 9b d3 63 41
       11.501505 -1.8169404 -7.986104 14.2391615
000060 f2 66 47 41 8e 43 a1 41 02 49 98 41 71 e3 16 c1
       12.462633 20.157986 19.035648 -9.430528
000070 0d 2d d5 c0 fc b0 76 c1 7b 05 54 c1 a0 9d f0 3f
       -6.6617494 -15.418209 -13.251338 1.8798103
000080 5a 00 87 40 30 db 7e c0 a4 12 df 3f dc 88 e3 41
       4.218793 -3.9821281 1.7427564 28.441826
000090 90 00 e5 c0 03 c8 24 41 5c 36 39 c1 f2 3f 9b 41
       -7.1563187 10.298831 -11.575771 19.406223
0000a0 72 3e 39 41 3a f3 44 41 a4 06 81 41 c2 d6 d0 bf
       11.577745 12.3093815 16.128242 -1.6315539
0000b0 60 13 96 40 55 2c ff be cf 07 b2 bf 83 e6 bc 3e
       4.689865 -0.4983851 -1.3908633 0.36894616
0000c0 d7 76 3f 41 2e cb c4 40 30 7a 39 40 b6 83 54 c1
       11.966514 6.149802 2.8980827 -13.282156
0000d0 1e 3b 2a c1 98 00 27 c1 9a ca ba c0 92 99 1d 41
       -10.639433 -10.437645 -5.8372316 9.849993
0000e0 b4 c3 2d be 34 d5 12 bf 00 51 7e 40 b5 67 2a 41
       -0.16969186 -0.5735657 3.9736938 10.650319
0000f0 4e 35 42 3e 71 3c f6 3f 23 71 2d 41 0f 90 48 41
       0.18965647 1.9237195 10.840121 12.535171
000100 14 a2 80 bf 38 18 98 40 d9 4d 1b 41 3c 71 7a bf
       -1.0049462 4.7529564 9.706506 -0.9782903
000110 83 e5 bd 40 3a 54 57 41 15 a2 08 41 2e 80 c1 40
       5.9342666 13.458063 8.539571 6.046897
000120 c5 49 a8 40 13 a6 f9 c0 15 00 2c 40 72 56 41 bf
       5.259005 -7.8015227 2.687505 -0.7552253
000130 12 c6 8b c0 f0 6f 8a c0 d4 c2 12 c0 b2 52 09 c1
       -4.3679285 -4.3261642 -2.2931414 -8.582689
000140 2c 8d 87 c0 fa 94 1b 41 12 d9 ef c0 61 e9 20 41
       -4.235983 9.723871 -7.495248 10.056977
000150 36 80 00 c1 e0 f0 04 c0 67 90 08 41 7f e6 d4 40
       -8.0313015 -2.0772018 8.5352545 6.6531367
000160 a2 a5 95 c0 a1 e9 56 41 e6 b2 11 3f 76 13 5f 41
       -4.676469 13.432038 0.569136 13.942251
000170 6d 71 a3 40 e2 cd 9e bf 45 53 70 40 1a d7 7e c1
       5.107596 -1.240658 3.7550824 -15.927515
000180 fe a3 8f 40 13 81 9c 40 99 50 8c 40 1b 63 8d c0
       4.4887686 4.890756 4.3848386 -4.418348

model/batch_normalization_2/batchnorm/mul_1;model/batch_normalization_2/batchnorm/add_1;model/dense_3/MatMul;model/activation_3/Relu;model/dense_3/BiasAdd f4 [100, 100]
000000 82 09 7c 3e 81 8c f5 bd 20 1b 34 be d9 12 bc 3c
       0.24613002 -0.119896896 -0.17588472 0.022958206
000010 38 4d 2d 3d 39 a3 b4 bd 02 93 04 bd a9 70 b7 3d
       0.04230997 -0.08820195 -0.03236676 0.08957035
000020 6e 1d b5 bd a4 9b 86 3e 05 f8 09 be 3e 46 20 3e
       -0.08843504 0.2629062 -0.13473518 0.15651795
000030 c0 cb 63 be c4 71 d6 3d f0 d5 71 3e d4 ec 99 be
       -0.22245693 0.10470918 0.23616767 -0.30063498
000040 fc 71 bc bc bd d9 47 3e 8c fa 57 3d 49 67 85 3d
       -0.02300357 0.19516654 0.052729174 0.06513841
000050 b6 b8 c6 bd 8a 8c a3 bd 21 ff 9f 3e 20 00 0e be
       -0.097031996 -0.0798579 0.31249335 -0.13867235
000060 1e ef 8f 3c 97 6e 53 3d 58 49 94 bc 4c 5a 25 bd
       0.017570075 0.05161914 -0.01810138 -0.040369317
000070 c0 ce bf bd 10 7d 23 bd 07 84 47 3d f3 88 89 bc
       -0.09365606 -0.03991419 0.048709895 -0.016788935
000080 bb e1 bf bd 4f 1b b4 3d c6 d0 16 be e9 d3 94 bd
       -0.093692265 0.08794271 -0.14728078 -0.07266981
000090 62 88 32 3e e5 37 23 bc da 2b 47 3c 35 ff 47 bc
       0.17434838 -0.009962057 0.012156451 -0.012206842
0000a0 c0 78 06 be 16 5b 01 3d ad 2d 14 bd 7a 10 23 3e
       -0.13132 0.031581007 -0.036176372 0.15924254
0000b0 a5 d8 dd bd b8 47 6e bd d9 4d 2b be c5 a9 6f be
       -0.10832337 -0.058173865 -0.16728915 -0.23404606
0000c0 3d d5 82 3d cd 24 31 3e 67 c0 35 3b 0c c7 e1 3d
       0.06388328 0.17299195 0.002773309 0.11024293
0000d0 fd 1b 22 3e d3 0a 27 3e 0f 9f b8 bd df 97 9e bd
       0.15830989 0.16312723 -0.09014713 -0.07743811
0000e0 34 34 a4 3d 21 9b 0b 3e f7 56 7e 3e d6 44 b8 bd
       0.080177695 0.13633396 0.24837862 -0.089975044
0000f0 68 88 f1 bd aa 62 da 3e d6 b2 c5 3d da 7d 06 be
       -0.117935956 0.426534 0.09653251 -0.13133946
000100 06 87 f6 3c 82 64 20 bd c2 db 1e c0 1b 95 ce 3d
       0.030093681 -0.03915835 -2.482163 0.10087033
000110 64 c0 90 3d d9 f2 86 3d 3d 52 c1 3d 08 ab d8 bd
       0.070679456 0.06589288 0.09439514 -0.105794966
000120 34 c4 41 bd fd a4 c9 bc 62 e9 08 3e ce 5d b7 3d
       -0.047306255 -0.024614805 0.13370278 0.08953439
000130 bc 8e 95 bc 5f 4d 9d bd f8 2a 60 bd a0 6c 7a 3d
       -0.018256538 -0.07680773 -0.05472848 0.06113875
000140 54 4c 1c be 39 ce e5 bd d7 0c c4 bd 9b cd aa 3d
       -0.15263492 -0.112209745 -0.095727615 0.083399974
000150 8f fc 1f 3e b8 68 17 3c c5 69 12 3e d0 1e 3a bd
       0.15623687 0.0092412755 0.1429816 -0.04543954
000160 f4 b7 cc 3c ac 34 e7 3e 07 d0 f3 bc fa 80 bf be
       0.02499006 0.45157373 -0.029762281 -0.3740309
000170 22 b8 4d be 07 ce b2 3d fb 1b 70 3e 32 fd 84 3c
       -0.20089772 0.08730703 0.23448174 0.016234014
000180 6a 8a 0b bc fa 84 8d be f9 77 2d bd a2 aa dd bd
       -0.008516887 -0.27640516 -0.042350743 -0.10823561
000190 f1 1a af bd 7c ab 9a 3d 59 bd 98 be 3f 23 46 bd
       -0.085500605 0.07552239 -0.2983196 -0.048373457
0001a0 35 e6 a7 bd cc 42 85 3e b6 ca 29 3c d0 d4 e0 3c
       -0.081982054 0.26027524 0.010363271 0.027445227
0001b0 75 37 1e be 82 f3 9d be db ac 43 bd 28 b0 03 3f
       -0.15450843 -0.30849844 -0.04777227 0.5144067
0001c0 7c 31 26 bc e5 5f 2f 3a 13 6e a6 3e 0d c3 2f 3e
       -0.010143634 0.00066900096 0.32505855 0.1716425
0001d0 aa 08 b7 3d 3e 6f b3 bc db 72 5d be 77 bc 20 bd
       0.089371994 -0.02190363 -0.21625845 -0.039242234
0001e0 ff c8 5d 3d e3 a1 27 3d 7d e1 b0 bd 6a 73 95 bd
       0.054146763 0.04092587 -0.086367585 -0.07297404
0001f0 e0 c0 1c bb 65 71 bc bd f0 24 50 3c 91 e3 87 bb
       -0.0023918673 -0.09201316 0.012704119 -0.004147001
000200 45 b2 8e 3d 89 47 25 bd 11 f9 bf 3c 58 ab 93 3d
       0.06967596 -0.040351424 0.023434194 0.072104156
000210 91 b1 15 3e 1e bb ed 3c 56 d3 d5 bd b1 c9 ce 3d
       0.14618517 0.029019888 -0.104407 0.10097063
000220 dc 9b 4d 3e 8e 61 d3 3d 9b ac 0a 3e 84 ba 5c 3d
       0.20078987 0.103213415 0.13542406 0.053888813
000230 cd 0e 90 be 88 a1 79 bd 9d e5 92 3e 0a e0 c2 bd
       -0.28136292 -0.060945064 0.28690806 -0.09515388
000240 e6 25 ed 3c 12 a1 df 3d 20 1e 1b bc 89 ed 10 bf
       0.028948735 0.109193936 -0.009467632 -0.5661245
000250 90 87 7c 3d d4 97 48 be 5e 87 fe 3c a1 89 e8 3c
       0.06165272 -0.19589168 0.031070407 0.02838594
000260 aa 63 57 bd d6 80 82 bd 34 12 f8 3b 5a 92 62 3e
       -0.05258528 -0.0637223 0.0075705294 0.22126141
000270 a9 66 b9 bc e9 2d f5 3d f2 43 70 be c4 67 61 3e
       -0.02263196 0.11971647 -0.23463419 0.2201224
000280 3d c3 b7 3d ca b8 54 3d 3c 8e 11 be 6e d6 7c be
       0.089727856 0.05193404 -0.14214414 -0.24691173
000290 fc a1 52 be e4 22 89 3c ca 99 42 3e 61 f4 a6 3d
       -0.20569605 0.01674027 0.19003978 0.0815208
0002a0 e1 d3 37 3d 22 1b 26 bd 6f c4 4b 3d ee 19 30 3e
       0.044879798 -0.04055322 0.04974788 0.17197391
0002b0 f0 ec b5 3c 91 84 8b 3d e2 7e 0c 3d 9d e1 6b bd
       0.022207707 0.068123944 0.034300692 -0.05758821
0002c0 fb ce 64 be d4 f5 0e 3e c6 86 91 3d c2 33 3e 3e
       -0.22344582 0.13960963 0.07105784 0.18574432
0002d0 a6 43 89 be ba 9a 84 be a6 04 9a 3e c4 8d 34 be
       -0.26809424 -0.25899297 0.3008167 -0.17632204
0002e0 97 2e 4e be 0b 26 89 bb d2 79 66 3e 76 a3 30 be
       -0.2013496 -0.0041854433 0.22507408 -0.17249855
0002f0 d8 c5 8b be ff bf ce 3d f4 fe 9e 3d b8 63 68 3e
       -0.2729938 0.10095214 0.07763472 0.2269429
000300 a0 9f c8 bd 42 39 76 bd a4 6d 81 3a 1a 0d 74 3b
       -0.09796071 -0.0601132 0.0009874594 0.0037239254
000310 d9 38 d0 3d 9b 8e 52 3d be ea 85 be 3e 3b 8d bc
       0.10167093 0.05140553 -0.26155657 -0.017240163
000320 d8 c4 cc 3d 83 8b 1a bd 10 d9 0f be 83 84 13 be
       0.099984825 -0.037730705 -0.14047647 -0.14406018
000330 15 78 08 be 35 8b 44 3b 9a 59 97 bc 32 48 c6 3e
       -0.13327058 0.00299902 -0.018475343 0.38726956
000340 03 b8 a1 3d 4a 78 60 3e 02 00 0e bd c8 ee 4b 3e
       0.078964256 0.21920887 -0.034667976 0.19915307
000350 38 f7 78 3d f4 1e 25 be a7 0a 1b 3d 7e 7f 97 3e
       0.06078264 -0.16125089 0.037851956 0.29589456
000360 3a 19 bf 3d 8b 55 7d 3d b7 eb b2 bd ed ab 97 3d
       0.093309835 0.06184916 -0.08736365 0.07405839
000370 8e 74 a6 bd 1f 07 83 3e 31 3d 75 bd bf 20 33 be
       -0.081277 0.2559137 -0.05987281 -0.1749296
000380 ad 15 c8 bd 1f bf 81 bd ad db 80 bd 4b 88 94 3d
       -0.09769759 -0.063352816 -0.062919 0.07252558
000390 8d ce 00 be ae 9c 8f be b8 78 47 be e4 90 f6 bc
       -0.12578793 -0.28049225 -0.19479644 -0.030098386
0003a0 97 05 5d bd e9 0c 28 3e 04 70 d0 3c 65 7e 9f bd
       -0.05396041 0.16411175 0.025444038 -0.0778778
0003b0 88 46 0e 3c 9f 0a 84 bc fd c8 cf bc c2 6b 0b be
       0.008683808 -0.016118346 -0.025364393 -0.13615325
0003c0 de d0 d5 3c 79 24 b5 ba 5b b7 58 bd b2 69 06 3e
       0.026100572 -0.0013820074 -0.052909236 0.13126257
0003d0 c8 38 d7 bd f0 5a 60 be ad 9c db 3b 4e ca 38 bd
       -0.10508877 -0.2190969 0.006702027 -0.045114808
0003e0 84 cf 1f 3e 05 84 86 bd ab 91 82 be 7b 57 44 be
       0.15606505 -0.065681495 -0.2550176 -0.19173996
0003f0 44 10 4e 3d c9 4f 64 bd 08 9e 9c bd 21 0a 14 be
       0.05030848 -0.05574015 -0.076473296 -0.14456989

model/dense_4/MatMul;model/activation_4/Relu;model/dense_4/BiasAdd f4 [100]
000000 6d 13 99 3d c5 85 fc 3f cc 57 b1 c0 0a 43 1e 40
       0.07474408 1.9728323 -5.5419674 2.4728417
000010 53 ba 00 c1 6f 0f 69 bf ad ec 73 40 a6 da d8 bf
       -8.045489 -0.91039175 3.8113205 -1.6941726
000020 20 05 87 41 b7 fe 27 41 09 b2 0c c1 dd 52 4d c0
       16.877502 10.499686 -8.793466 -3.2081826
000030 ac 7c a9 41 8e f2 83 41 b0 1c 07 c1 a3 96 ce c0
       21.185875 16.493435 -8.444504 -6.4558883
000040 78 7d 2f c1 ff 22 00 c1 63 67 c5 3f 58 a0 3c 41
       -10.968132 -8.008544 1.5422176 11.789146
000050 22 9b f2 c0 31 88 4a c1 51 29 0a 41 05 98 0f c1
       -7.581437 -12.65825 8.635087 -8.974614
000060 04 ca 93 41 b7 7b 8e c0 a0 f2 ac 40 21 93 36 41
       18.47364 -4.452602 5.4046173 11.41092
000070 85 20 31 41 51 87 c6 3f f9 fd d5 bf 7e 00 09 c0
       11.070439 1.5510045 -1.6718131 -2.140655
000080 d3 4a 8f 41 2d 9f e1 3f 7e f2 4e 41 d4 93 d3 c0
       17.911535 1.7626702 12.934202 -6.6117954
000090 3c 4a 26 c1 0b c4 a6 40 1a c6 3e 41 ea f9 4d 41
       -10.393124 5.211431 11.923365 12.873514
0000a0 6d 6e b2 41 34 bc 1c 40 e6 98 12 41 03 fe 03 c0
       22.303919 2.448987 9.162329 -2.0623786
0000b0 3b 6c a2 41 a4 71 c3 bf 99 96 b4 3f a5 0e 60 c0
       20.302847 -1.5269055 1.4108459 -3.5008938
0000c0 96 c1 1e c1 08 d4 a1 bf 8d 33 36 41 a7 7d 4e 41
       -9.922262 -1.2642832 11.387586 12.905677
0000d0 f5 f1 14 c1 63 b9 e3 bf e5 25 0e 40 b1 f7 9e 40
       -9.309072 -1.779095 2.221063 4.967736
0000e0 eb 81 dc 40 29 0f fc 40 bc 2e 2f 41 05 89 84 be
       6.890859 7.8768506 10.94891 -0.25885788
0000f0 df 17 01 c1 f7 98 28 40 56 05 0d c0 df 05 27 41
       -8.068328 2.6343362 -2.2034507 10.438933
000100 da f5 80 3f 49 50 26 41 39 eb 85 c0 e8 b8 1c 41
       1.0075028 10.394601 -4.1849637 9.795143
000110 75 ef 1b 41 a1 44 3d 41 ca f7 30 bf 0e 4d ae 41
       9.745961 11.829255 -0.69128096 21.787624
000120 63 61 fc 40 c6 71 6b c1 6b 71 07 41 5e 0d 7b 41
       7.886888 -14.715277 8.46519 15.690763
000130 2e 7f 40 41 fb 48 6a be 09 36 61 41 ae 58 32 c1
       12.03105 -0.22879402 14.075692 -11.14665
000140 bb 40 43 41 27 21 69 41 07 13 82 41 e3 45 0b c1
       12.203303 14.570594 16.25929 -8.704562
000150 f3 95 4a 40 dd e4 f9 3f 33 0c b4 40 b5 0b 31 c0
       3.1654022 1.9522969 5.626489 -2.7663395
000160 30 80 10 40 ae 24 a4 c0 d9 26 1a bd 20 61 8a 40
       2.257824 -5.1294775 -0.037634704 4.324356
000170 18 18 d1 40 a2 d1 81 40 b4 19 a2 41 65 97 a0 41
       6.534191 4.05684 20.26255 20.073923
000180 79 f3 68 bd f2 87 c4 c0 20 28 f9 40 d5 29 06 3f
       -0.05687282 -6.141595 7.786148 0.5240758

model/batch_normalization_3/batchnorm/mul_1;model/batch_normalization_3/batchnorm/add_1;model/dense_4/MatMul;model/activation_4/Relu;model/dense_4/BiasAdd f4 [100, 100]
000000 48 56 58 3c 8c cd 12 3d a8 5f 8b 3d 09 33 41 be
       0.013204165 0.035840556 0.06805354 -0.18867125
000010 70 04 8b be 09 eb 28 3e 08 26 0a 3d 26 3d 08 be
       -0.27151823 0.16495909 0.033727676 -0.13304576
000020 e4 41 04 be 8a 8a 3c 3d 04 5a 94 bb db 1a 17 3e
       -0.1291576 0.04603056 -0.0045273323 0.14756338
000030 07 cd 42 bd 03 12 e9 bd 5d 56 1f 3e 45 6c a8 3e
       -0.04755881 -0.113803886 0.15560289 0.32895103
000040 02 1b 46 3d 87 b8 fe 3c 25 25 8a bc 47 14 6e b9
       0.0483656 0.031093849 -0.016863415 -0.00022705003
000050 2d e7 c2 bd f1 a0 41 3e 0c 87 a6 3e 86 49 b7 3d
       -0.095167495 0.1890905 0.32524908 0.0894957
000060 3d 7c c5 bd bd fc 3f bd 40 a0 a3 3d af 15 03 3d
       -0.09642837 -0.04687189 0.0798955 0.0320031
000070 92 fa a4 3d 14 e4 88 be af 8b 81 bd 92 be 6a be
       0.08055605 -0.2673651 -0.06325471 -0.2292426
000080 e2 d8 42 3d d6 c4 7d bd 2b 08 45 3d 7d 60 47 3e
       0.047570117 -0.061955296 0.048103493 0.19470401
000090 28 88 e3 3d 73 42 98 bd 41 0b dd bd 6b c9 5e bc
       0.11109954 -0.07434549 -0.10793162 -0.0135978265
0000a0 7f 10 e2 bd a5 04 49 be 1b 89 85 3b fd ff bd 3d
       -0.11038303 -0.19630678 0.004075182 0.092773415
0000b0 74 0b af 3d 35 89 7e 3e c2 b5 d4 be 57 31 d3 bd
       0.085471064 0.24857028 -0.4154492 -0.10312145
0000c0 2d be a8 3e 05 4f d3 3c b9 8e 45 3c 8d bb 27 bc
       0.32957593 0.025794515 0.0120579535 -0.010237587
0000d0 90 de 1b 3e 46 59 8c 3d b5 30 b4 bd 2f ce f0 3d
       0.1522162 0.06852965 -0.08798353 0.117580764
0000e0 43 59 d2 bd 3f c8 e2 3d b8 67 c1 3d 52 f4 72 3e
       -0.102709316 0.1107335 0.09443611 0.23726013
0000f0 bd 8c 61 be dd 4f 10 3c d4 20 54 bd 54 6c 58 3d
       -0.22026344 0.008808103 -0.05178912 0.052837685
000100 29 66 32 bd 56 b9 ef 3c ba 2b 5c 3d 1d be 43 bd
       -0.04355446 0.02926318 0.05375264 -0.047788728
000110 d7 ec c7 ba 6e ff cd bb 1f bc fa bd db d9 b4 3d
       -0.0015253079 -0.006286553 -0.122429125 0.08830615
000120 cb a2 57 be 60 c8 93 3d 71 97 b9 bd ab dc 8b be
       -0.21058194 0.07215953 -0.09062088 -0.27316794
000130 00 27 eb bd c9 9d 6b bc ca 13 ac bc 14 5e 1c 3d
       -0.11482048 -0.014380881 -0.02100553 0.038175657
000140 94 56 6e 3c bb 06 1b 3d 7a 70 c3 3d 3d e5 ed bd
       0.014547009 0.037848216 0.095429376 -0.11615989
000150 59 36 9c 3c 32 9a 4b bd ee f1 28 bd 85 67 47 bc
       0.019068884 -0.0497076 -0.041246347 -0.012170677
000160 81 eb 85 bd 4f 6d 1b 3c 0c 09 c1 bd 06 90 78 3c
       -0.065390594 0.00948651 -0.09425554 0.015171057
000170 fc 95 97 3c 8d 2f a3 3d fa 0f b7 be d1 99 51 3e
       0.018504135 0.07968054 -0.35754377 0.20468833
000180 e7 d3 04 3d 6a 75 80 3e 93 f1 6e bd 85 b2 ce bc
       0.03242865 0.2508958 -0.058335852 -0.02523161
000190 8b 77 bf bb c8 17 8c 3d a1 b5 e9 3d 9e 1b 3a 3d
       -0.005843108 0.068404734 0.11411596 0.045436494
0001a0 fc e5 3a bd 54 80 74 3d d6 7a 7b 3d 5b 09 3b 3e
       -0.045629486 0.059692696 0.061396442 0.18265288
0001b0 0c c3 00 be e9 d9 73 3d 3c 7a 3b bc dc b7 0d 3e
       -0.12574404 0.059533987 -0.011442717 0.13839668
0001c0 8f 26 6d ba 28 b0 65 3d 92 62 a7 3b 3f 42 b6 3c
       -0.0009046578 0.0560762 0.005108186 0.022248385
0001d0 13 1e 87 3d f9 03 f5 3c ba 9a d3 3d 7d fe 91 be
       0.06597533 0.02990912 0.10332246 -0.28514472
0001e0 fe d5 0c be 8f 7b 27 be 88 54 9b bd aa d6 a0 3e
       -0.13753507 -0.16355728 -0.075844824 0.31413776
0001f0 1c 4c 95 3d e9 3a 81 3c ca 58 d0 bd fe d9 84 3d
       0.07289907 0.01577516 -0.10173185 0.06486891
000200 6a 59 58 3d 84 7b 78 3e c7 13 54 bd b2 e1 dc bd
       0.052819647 0.24265867 -0.051776674 -0.107852355
000210 ec 2b 9d 3d 6a c1 72 be 98 8c 0c 3e 0c 19 f2 bd
       0.07674393 -0.23706594 0.13725507 -0.118211836
000220 5c 21 df 3d 7e f9 20 be 16 e9 75 3d a9 42 4b bd
       0.10895035 -0.15720174 0.06003674 -0.04962412
000230 8c 60 01 3e b3 8d 43 be 1a e7 3f bd 72 31 b4 3c
       0.12634486 -0.19097023 -0.046851255 0.021996234
000240 7c 3b 07 3c fb 79 39 3d 05 b1 87 3d 29 30 1c be
       0.008253928 0.045282345 0.06625561 -0.15252747
000250 38 ae 8e bd 15 1a 61 3d b0 df 2b bc d7 65 83 3e
       -0.06966823 0.054956514 -0.010490343 0.25663635
000260 f7 3a 5f bd 05 02 0e 3d 75 5c b0 3c 77 d2 0a 3e
       -0.054499593 0.034669895 0.021528462 0.13556848
000270 ec 3a 15 3c 3f a5 96 bd 73 00 82 bd 06 b3 78 be
       0.009108286 -0.07355737 -0.06347742 -0.24287042
000280 65 a5 56 3e c0 ea cf bc 80 9b 4d bd 47 8d 1b 3c
       0.2096153 -0.025380492 -0.050197124 0.009494132
000290 24 b8 28 3d 15 ea 34 be e9 07 07 bd f4 81 46 bd
       0.041191235 -0.1766742 -0.032966528 -0.048463777
0002a0 e8 87 89 3e 6c de 52 3d 5b d9 2b 3d ee 5a 9b be
       0.268615 0.05148165 0.041955333 -0.3034281
0002b0 8a 96 4a 3f c1 86 17 3e f8 6a 9a 39 39 33 7c bd
       0.79135954 0.14797498 0.00029452867 -0.061572287
0002c0 56 dd d1 bd d0 68 42 3b 58 2e e8 3d e3 68 8d be
       -0.102472946 0.0029664524 0.11336964 -0.27619085
0002d0 a8 11 05 bc 30 9c b9 3d f7 a4 50 be 5e 07 f9 bd
       -0.008121885 0.090629935 -0.20375429 -0.12159608
0002e0 f6 69 c3 3c cd f2 47 be f5 8f f0 3d 76 31 a6 3d
       0.023854237 -0.19526215 0.117462076 0.08114903
0002f0 e0 21 e1 bd 25 d2 38 bd 6e cb ac 3c 51 f6 f5 bd
       -0.10992789 -0.045122284 0.021093097 -0.12009872
000300 9a 56 89 3c d0 15 42 3d 4c dd 01 3d 17 3b 2f 3e
       0.016764928 0.047384083 0.031705186 0.17112385
000310 6b 5c 5d 3e 88 da f9 3d 86 f5 ac bc a3 83 1d 3e
       0.21617286 0.12199885 -0.021113168 0.15382247
000320 55 04 81 bc 13 f0 50 3e f2 ae 80 3c 38 d7 20 3e
       -0.015749136 0.20404081 0.01570842 0.157071
000330 9c 6b f1 3d 42 c2 7e 3b 0b 2b 9a bd 83 89 01 3e
       0.11788103 0.003887311 -0.07527741 0.12650113
000340 ed ab 42 bd 6f 85 6f bd 35 17 8b bd b2 df c2 3e
       -0.047527242 -0.05847686 -0.06791536 0.3806129
000350 57 25 eb 3d 99 98 4c ba 23 26 8b 3d 98 fb 41 3d
       0.114817314 -0.0007804721 0.067943834 0.04735908
000360 81 e0 0f 3e e9 c9 b9 3d 61 28 02 be 9b 95 dc 3d
       0.14050485 0.090717144 -0.12710716 0.107707225
000370 aa 32 5b 3d bf 2e c6 3d 31 63 6f 3c 86 1c cf bc
       0.053515114 0.09676885 0.014611051 -0.025282156
000380 ca 84 3c 3d ff 28 7f be aa 22 86 bb d6 f0 5e 3d
       0.046025075 -0.24917983 -0.0040934877 0.054428898
000390 1c 8c ef 3d 0b d3 cc 3d 68 65 25 3d 5d 7e 77 bd
       0.116966456 0.10001191 0.04037991 -0.060423244
0003a0 80 b4 7a bd e0 5e 85 3d d0 15 6c 3c 71 37 b7 be
       -0.061207294 0.065122366 0.014409497 -0.35784486
0003b0 bc b3 0b 3d fc 15 f9 3c 0a 38 d1 bd e3 db 39 be
       0.034106955 0.03040599 -0.10215767 -0.18150286
0003c0 78 25 c1 bc 4b ef 3c be a2 69 d5 bd 80 3d 1f 3b
       -0.023577437 -0.18450658 -0.104205385 0.0024298131
0003d0 e8 b2 9b bd 1e bf 38 bd 41 be e5 bc 92 2e 18 bd
       -0.07602483 -0.04510414 -0.028044822 -0.037153788
0003e0 4c 53 78 3e 88 e3 4e bd c6 2d 6a 3d 58 b6 a3 be
       0.24250525 -0.05050996 0.05717256 -0.31975055
0003f0 b9 92 11 3d d1 fd 73 3e 55 13 a9 3d cd 59 93 3d
       0.035540316 0.23827292 0.082556404 0.071948625

model/dense_5/MatMul;model/activation_5/Relu;model/dense_5/BiasAdd f4 [100]
000000 b9 ce 16 41 06 2c 4b 41 58 29 b2 c0 9a 52 1f c0
       9.425469 12.698248 -5.567547 -2.4894166
000010 2b 97 9d 40 36 bf 1e c0 53 b5 70 41 b3 24 a7 40
       4.924703 -2.4804206 15.044269 5.22323
000020 bf 05 3c c0 e8 d7 a5 3f e2 6c 43 41 47 97 9c 3f
       -2.9378507 1.2956514 12.214083 1.2233666
000030 42 5c d4 3f d2 18 43 41 72 e8 1e c1 29 07 33 41
       1.6590655 12.19356 -9.931749 11.189248
000040 b2 3d 09 c0 54 cb af 40 9c b2 d1 40 8a 8f bb 40
       -2.1443906 5.4935703 6.553053 5.861272
000050 a4 ce d8 41 d0 cc 29 c1 2f 5f 47 41 26 b0 13 41
       27.100899 -10.612503 12.460738 9.230505
000060 8f c0 a5 40 26 d6 23 40 79 91 fb c0 60 ec 08 41
       5.1797557 2.5599456 -7.861508 8.557709
000070 ce 85 ba 40 43 c6 8a 41 33 00 d2 c0 76 5d 31 40
       5.8288336 17.346807 -6.5625243 2.7713294
000080 04 31 aa bf 8e fe 05 41 bf f2 dd 40 d9 82 a3 40
       -1.3296208 8.374647 6.935882 5.1097226
000090 0a b8 cb 40 d9 d3 0e 41 3b 71 34 c0 86 54 95 c1
       6.3662157 8.926721 -2.819411 -18.666271
0000a0 2a 59 6d 41 9f ad e3 c0 6a bc 1b 41 94 a0 8c 40
       14.834269 -7.114944 9.7335 4.394602
0000b0 9d 9f 40 41 fb 68 f8 c0 0d a5 33 be c8 c2 ac 40
       12.038968 -7.762815 -0.1754343 5.398777
0000c0 5d 15 2e c0 b9 3e 82 41 32 0c ca c0 76 91 21 41
       -2.720054 16.280626 -6.3139887 10.098013
0000d0 2c 5c 6d c1 b7 51 70 40 e6 d3 80 c0 40 49 02 c0
       -14.835003 3.7549875 -4.0258665 -2.0357208
0000e0 b4 30 ea c0 e9 bf 06 41 92 5d 99 c0 17 04 55 41
       -7.318445 8.421853 -4.792672 13.3134985
0000f0 20 de 25 41 d5 5f 12 40 46 9f 0e 41 e7 46 30 41
       10.36673 2.2870991 8.913885 11.01731
000100 a2 c5 07 c1 7d 6f 28 41 76 ee 2c 41 40 62 91 40
       -8.48575 10.527219 10.808218 4.5432434
000110 1e aa 5f c0 e6 48 2d c0 0e 15 9d c1 e2 65 b4 40
       -3.4947581 -2.7075744 -19.63528 5.637437
000120 ad c3 8f 41 c8 5c e2 40 7d 05 45 3f 60 74 4b 3f
       17.970545 7.073826 0.769615 0.7947445
000130 02 75 2e bf 7f 4e 32 c1 f5 96 98 c0 c3 f9 c3 c1
       -0.6814729 -11.144164 -4.7684274 -24.496954
000140 1c f0 d8 41 c6 07 ee 3f 0e c9 97 41 d9 3d ac 41
       27.11724 1.8596122 18.973171 21.5302
000150 f5 1b 20 40 c5 2d 94 bf ce e6 0d bd e8 54 f3 3f
       2.5017064 -1.1576468 -0.03464394 1.9010286
000160 8c 93 90 c0 5a ea b7 3f 05 2b 22 c0 8f bb d1 40
       -4.518011 1.4368393 -2.5338757 6.5541453
000170 d8 dc 82 c0 a1 fb 25 c1 2b f6 8e 40 44 9f 43 40
       -4.0894585 -10.373933 4.46755 3.0565958
000180 b5 cb 82 41 2d 7a 80 41 80 85 29 41 31 bc d9 40
       16.349466 16.059656 10.595093 6.8042226

model/batch_normalization_4/batchnorm/mul_1;model/batch_normalization_4/batchnorm/add_1;model/dense_5/MatMul;model/activation_5/Relu;model/dense_5/BiasAdd f4 [100, 100]
000000 42 c7 40 3d 75 de 93 bd 00 3d 37 bd cd 0c 32 3e
       0.047065027 -0.07220165 -0.04473591 0.17387696
000010 b1 79 5c 3e dd b4 e5 3c 1d 64 42 3e 48 84 d6 3e
       0.21530797 0.028040344 0.18983503 0.41897798
000020 35 52 ad 3d 14 a6 a9 be 5b f4 19 bf a2 a8 c5 be
       0.08462945 -0.3313452 -0.6013848 -0.3860522
000030 3e 93 58 3d a9 ed 94 bc 0d 55 80 bc 20 cd 5d 3e
       0.052874796 -0.018179731 -0.015665555 0.2166028
000040 73 33 9a bd cb 67 64 bc b1 6d 49 3e 7f e1 8a be
       -0.075293444 -0.013940762 0.1967075 -0.27125165
000050 e2 40 f3 bc e9 16 87 3d 10 97 39 bd cc e1 35 be
       -0.029694024 0.06596167 -0.04531008 -0.17761916
000060 71 5f 70 3c 76 3e 19 bd f2 f9 5c bd fb d0 f5 3d
       0.0146711925 -0.037413083 -0.053949304 0.120027505
000070 cd 98 48 3d 2c 7d 72 bb 6d 1c 06 be 2e 08 b2 be
       0.048973847 -0.0037000878 -0.13096781 -0.34771866
000080 97 33 69 bc db 64 86 be 2a 81 62 bc 76 a2 84 bd
       -0.014233491 -0.26248822 -0.01382474 -0.064762995
000090 67 39 1b be a9 b4 aa 3d 65 13 a2 bd 29 78 2c 3d
       -0.15158616 0.083352394 -0.079138555 0.04210678
0000a0 f7 6e 97 3d 40 66 dc 3d 21 d9 61 bd 4a 3e 04 be
       0.07394212 0.1076169 -0.05513871 -0.12914386
0000b0 b9 0d c3 bc 2a 97 61 3e 4a 97 ad bd 17 1a 06 3e
       -0.023810254 0.22030321 -0.08476122 0.1309589
0000c0 df e7 2f 3c 86 61 36 bf 9b 65 0d 3e b8 b2 19 3d
       0.010736435 -0.7124256 0.1380829 0.037523955
0000d0 06 66 40 3e 24 47 44 3d c0 42 a9 bc 99 49 3a 3e
       0.18788919 0.047919407 -0.020661712 0.18192138
0000e0 40 cf 7f bd 2c ca 35 be 48 a3 f2 bd 68 13 95 3d
       -0.06245351 -0.17752904 -0.1184755 0.07279092
0000f0 63 9b 57 3d f9 e5 4c bd dc 05 36 3d cc 08 31 3e
       0.052638423 -0.050024007 0.04443918 0.17288512
000100 21 e5 ba 3d 26 6f 63 3d 83 c2 1d 3e bd 75 d3 3b
       0.09125734 0.05552592 0.15406232 0.0064532445
000110 d7 01 42 3a a7 ea 47 be 3b 60 84 ba 11 07 08 be
       0.0007400787 -0.19523107 -0.001009948 -0.13283946
000120 a2 92 75 bd 97 5e 1d bc 13 63 da 3b c5 64 c7 3c
       -0.059954293 -0.0096050715 0.0066646426 0.024340043
000130 d8 e8 e7 bb ac 7f 76 3d 10 ec 33 3e 09 e6 5b bd
       -0.0070773177 0.06018035 0.1757052 -0.053686175
000140 76 f0 89 be a8 4e a3 3c 14 83 01 be 65 db 8b 3e
       -0.2694127 0.019934967 -0.12647659 0.27315822
000150 47 24 8a bd 7c 3b cd bd 67 c3 55 bd bd 28 62 3d
       -0.067452006 -0.10021111 -0.052188303 0.055214632
000160 b3 56 80 be f5 b9 44 be 7d 6e b3 be d1 3e 0b 3e
       -0.25066146 -0.19211562 -0.35045233 0.13598181
000170 74 15 78 bb 92 64 d5 bd b4 31 aa 3d 11 20 60 bd
       -0.0037854584 -0.10419573 0.08310261 -0.05471808
000180 5a 12 1a be 2c c1 01 be 64 89 67 3e 16 78 ba bc
       -0.15046063 -0.12671345 0.22611004 -0.02276234
000190 92 d4 ac 3c 34 83 23 be 52 95 e7 bd 36 26 96 be
       0.021097455 -0.15968019 -0.113077775 -0.29326028
0001a0 ce 69 0a 3d af 89 f8 3e 5e 6f d9 3d 3b d9 1a be
       0.03379231 0.48542544 0.10616945 -0.1512193
0001b0 52 59 88 bc bd c5 03 3e 4d cf fc 3e c7 92 6f 3e
       -0.016644154 0.128684 0.49376908 0.23395835
0001c0 77 86 ad bb b0 e6 1b 3e f8 89 66 3e 44 8e eb bd
       -0.0052955705 0.15224719 0.22513568 -0.115017444
0001d0 3c 2c 1d be 5e d8 d7 be bb 18 46 3e ad 38 c0 3d
       -0.15348905 -0.42157263 0.19345371 0.0938581
0001e0 8d 0f 38 be 7e e1 aa bd 4a 68 6d 3d f6 9d a8 3d
       -0.17974682 -0.083437905 0.057960786 0.08233254
0001f0 4c e7 c6 bd 9a 90 ea bc 96 0b 08 3c 0e e0 03 3d
       -0.09712085 -0.028633405 0.008303544 0.032196097
000200 51 7e 83 3d 64 d5 2a be 9c 8f 48 3d 54 25 b1 be
       0.06420577 -0.16682965 0.04896508 -0.34598792
000210 57 48 94 3d 19 ec 36 3e 7e d8 f3 3c 2a d3 69 3d
       0.0724036 0.17863502 0.029766317 0.057086147
000220 cf 38 03 bf 3d 93 ba 3d 11 3a 47 3d 37 c8 07 bc
       -0.5125856 0.09110115 0.04863936 -0.008287481
000230 1b f7 fe 3d 31 7c 2a be c6 23 b9 bd a9 af 9e 3b
       0.124494754 -0.16648938 -0.09040026 0.0048427177
000240 d2 ce 34 bd 3c af 58 bf 52 1d 96 3d 81 15 ef bc
       -0.04414255 -0.84642386 0.07329811 -0.029185059
000250 79 31 5c bd cf 88 7d 3e c4 87 b7 3d dc 46 ce bb
       -0.05375812 0.2475922 0.08961442 -0.006295068
000260 ca 02 39 be d3 3a fe bc 2d f2 61 3d 90 31 4b be
       -0.1806747 -0.031033909 0.055162597 -0.19843125
000270 b0 69 b1 bd 43 da 85 bd 94 a5 be bd 6f 40 6d 3d
       -0.086627364 -0.06535771 -0.09308925 0.057922777
000280 f7 63 e0 bd 83 f3 cd bb 19 32 5e 3d 9a d0 53 be
       -0.10956567 -0.0062851324 0.054246996 -0.20685044
000290 8a cf 65 bd cd 70 77 be 02 e7 3a bd 20 87 14 be
       -0.056106128 -0.24164124 -0.045630462 -0.14504671
0002a0 bb be 2c be 05 bc b6 bd 40 2d b2 be 66 48 5d 3d
       -0.16869633 -0.08922581 -0.34800148 0.054024123
0002b0 4b 63 c0 bd 15 fc 25 3c e0 b9 e7 bd dc f3 93 bd
       -0.09393939 0.010130902 -0.1131475 -0.07224247
0002c0 75 8e a5 bc 82 e3 0e be 88 9c 09 be d2 1d a4 3c
       -0.02020953 -0.13953975 -0.13438618 0.02003375
0002d0 c1 2f 98 3d fb 51 b0 bc 9d a5 92 bd 88 d8 3b 3c
       0.07430983 -0.021523466 -0.071604945 0.011465199
0002e0 b2 be 86 be 27 32 91 bd 87 48 5a bb eb 62 00 be
       -0.26317364 -0.07089644 -0.003330739 -0.12537734
0002f0 59 3b b1 3e ba 1d 0c 3d 51 0d cd 3c d9 48 8e be
       0.3461559 0.034208037 0.025030764 -0.27789953
000300 7d 77 cc bd cc 59 7b bd e5 b2 be bd a1 30 92 3c
       -0.09983728 -0.061364934 -0.09311465 0.017845454
000310 6d f7 b2 3d 42 5b 0e be 3f de ae bd e9 db 74 be
       0.08738599 -0.13902 -0.08538484 -0.23912014
000320 2e 0c 52 3e 58 41 5e 3c da d0 92 3b a0 85 cc bd
       0.20512459 0.013565384 0.0044804635 -0.099864244
000330 07 61 cd 3c 15 4d b5 bd ff 56 82 bd 86 7c 5f 3e
       0.02507068 -0.08852593 -0.063642494 0.21824846
000340 ef 74 fe bd 97 b0 bd 3c 24 53 89 be f7 e5 62 be
       -0.12424647 0.023155494 -0.26821244 -0.22158037
000350 46 18 17 3d 95 6d ec bd f6 a6 57 bd 3a 23 a6 3d
       0.036888383 -0.115443386 -0.05264946 0.08112188
000360 26 9b e8 3d 0f 03 29 be cd 43 3b be 8a 66 4e 3e
       0.11357717 -0.16505073 -0.18287583 0.20156303
000370 c7 e5 1d be f3 5b a1 3c 5e 86 06 3e 48 92 75 3b
       -0.15419684 0.019697165 0.13137195 0.0037471224
000380 ed ef 3a bd e8 d5 e5 bc b2 7c 0c be 3a dd a1 3d
       -0.045638967 -0.0280561 -0.13719442 0.07903524
000390 6c c4 97 3e a8 fe 83 bc 66 b3 cc 3d 3e b2 97 bd
       0.29642045 -0.01611264 0.09995155 -0.07407044
0003a0 5d da ba bd a8 45 4d bd 19 0a 12 bd 35 d8 4f bd
       -0.09123681 -0.050115258 -0.03565416 -0.0507433
0003b0 d3 94 9c bc fd c0 9e bc a7 bd 2b bd c0 23 2d 3e
       -0.019113934 -0.019379133 -0.041928913 0.16908169
0003c0 25 b1 44 3d 74 87 ba bc a3 05 29 bb 28 c0 63 be
       0.0480205 -0.022769667 -0.0025790713 -0.2224127
0003d0 26 8f 73 bd f6 f1 3a bd dc 4e 76 3d ce 64 83 3d
       -0.05946269 -0.04564091 0.0601338 0.06415711
0003e0 63 46 60 3b 82 87 30 bf 08 86 2f 3f d1 d9 3e be
       0.0034221641 -0.6895677 0.6856389 -0.18637778
0003f0 a5 be df 3d e7 66 df 3c 6a c9 23 be 12 09 d0 3d
       0.109250344 0.027270747 -0.15994802 0.1015798
