corintho_ai/rating/tflite_models/model_54.tflite (tflite, 521576 bytes, 27 tensors)

model/dense_1/MatMul;model/activation_1/Relu;model/dense_1/BiasAdd f4 [100]
-26.310726 141.76668 -52.41237 1.0589004 54.06119 36.915314 74.68377 -28.599197
-41.676197 -2.5638688 3.2235968 -54.7288 13.434288 -39.353657 -8.849927 -62.9862
30.6312 11.933335 -11.664438 2.0483925 3.811753 0.20672734 13.409451 -54.087456
80.7743 5.385184 -1.2344701 -9.272473 -58.835617 41.451435 -38.00607 -6.8055577
33.659878 -32.913692 70.9703 59.84156 11.968889 -26.5876 14.398702 33.77298
72.27746 -20.295937 -50.437695 -0.94431275 13.147871 -26.137909 7.52875 -29.589931
-14.147977 -5.983325 21.650597 -51.01164 19.186882 146.49808 -4.917317 30.61601
14.666701 -13.642722 31.15789 -10.609212 17.764193 70.60005 4.554528 33.334393
52.20673 84.27069 123.89502 15.491622 -19.556326 -78.6407 -23.350292 -25.648687
-7.8754907 90.97215 -11.725137 67.49194 -5.426364 9.8315325 -110.106155 -7.037608
12.621505 45.14084 14.11725 -29.369493 -4.325853 70.115685 24.423298 -24.778927
82.81829 33.312424 94.83874 10.94565 63.86895 5.0608525 6.9962564 -2.2482433
135.8087 23.983885 15.412745 -85.03541
00000000: 5e7c d2c1 45c4 0d43 44a6 51c2 0c8a 873f
00000010: a93e 5842 48a9 1342 175e 9542 28cb e4c1
00000020: 6db4 26c2 6d16 24c0 694f 4e40 4bea 5ac2
00000030: d8f2 5641 256a 1dc2 4d99 0dc1 def1 7bc2
00000040: b30c f541 f1ee 3e41 8aa1 3ac1 dd18 0340
00000050: c3f3 7340 55b0 533e 1c8d 5641 8e59 58c2
00000060: 718c a142 6d53 ac40 1e03 9ebf 0d5c 14c1
00000070: ac57 6bc2 45ce 2542 3706 18c2 21c7 d9c0
00000080: b7a3 0642 9fa7 03c2 cbf0 8d42 c25d 6f42
00000090: 9280 3f41 68b3 d4c1 1561 6641 8817 0742
000000a0: 0f8e 9042 145e a2c1 33c0 49c2 7bbe 71bf
000000b0: ae5d 5241 701a d1c1 85eb f040 2eb8 ecc1
000000c0: 1d5e 62c1 6677 bfc0 6c34 ad41 eb0b 4cc2
000000d0: bc7e 9941 827f 1243 a95a 9dc0 97ed f441
000000e0: cfaa 6a41 9748 5ac1 5c43 f941 55bf 29c1
000000f0: 111d 8e41 3a33 8d42 b2be 9140 6b56 0542
00000100: b1d3 5042 988a a842 40ca f742 afdd 7741
00000110: 5b73 9cc1 0a48 9dc2 66cd bac1 8330 cdc1
00000120: 0504 fcc0 bef1 b542 299a 3bc1 e0fb 8642
00000130: c6a4 adc0 f54d 1d41 5a36 dcc2 1634 e1c0
00000140: aff1 4941 3890 3442 42e0 6141 b9f4 eac1
00000150: 636d 8ac0 3b3b 8c42 ea62 c341 3e3b c6c1
00000160: f7a2 a542 ec3f 0542 6fad bd42 6221 2f41
00000170: ce79 7f42 81f2 a140 55e1 df40 38e3 0fc0
00000180: 07cf 0743 ffde bf41 9b9a 7641 2112 aac2

model/batch_normalization/batchnorm/mul_1;model/batch_normalization/batchnorm/add_1;model/dense_1/MatMul;model/activation_1/Relu;model/dense_1/BiasAdd f4 [100, 100]
0.17886738 -0.62823755 0.05978909 0.023023231 1.49295 0.12793149 -0.91994834 -0.9035678
0.09932382 0.63261247 0.5582822 0.26754263 0.27936137 0.02869645 -0.6548318 0.08953497
0.1835125 -1.4448296 0.2342314 -0.21624823 -0.014371816 4.834887 -0.009509325 -0.013948635
-0.08712815 -0.022164647 -0.024862261 -0.62305623 0.16452034 -0.2188054 -0.09334803 0.57547814
0.07452448 -0.40841702 -0.06321497 -0.34928536 -0.18874723 -0.1286147 -0.024758996 0.13409984
0.5464898 1.1582229 0.38474724 0.23596808 -0.29865015 -0.18411903 0.17699859 -0.032022845
0.7422178 0.110413596 0.007287564 -2.1382928 0.5950983 4.628902 0.057754107 -0.07234949
0.063515015 0.4295802 2.228108 0.48118505 0.38807562 -0.13004771 0.20023552 -0.8890038
0.43037888 -0.4457626 -0.07836629 0.24641192 -0.14625625 0.7898048 0.598228 -0.14400887
-0.080266446 -0.029520063 0.6792022 -0.2967364 -0.502693 -0.021941712 -0.04220676 0.34944698
-0.5333719 0.2226784 -0.28946036 -0.104408175 -0.31547052 -0.06353166 0.057839647 -0.5239039
-0.119115785 -0.1464681 -0.9484137 1.050059 0.06615213 -0.39145687 -0.16838256 0.13470948
0.2888033 -0.097407386 -0.4044829 -0.056188103 -0.8808735 -1.1251022 -0.19402194 0.20613392
-1.2111089 1.8532503 0.45472333 0.26429105 0.008921906 -0.51691884 0.36277404 0.035032194
-1.402857 -0.10041757 -0.24994898 -0.77466965 0.16557337 -1.6647624 -0.8866574 0.23950759
-0.23683086 -0.7696898 -0.06767255 -0.050057545 0.11443449 0.0022877601 -0.42735106 0.23787418
-0.23260128 0.19048189 -0.026205584 0.24105646 0.10220471 -0.06640605 -0.44884986 -0.023190407
-0.4711837 -1.8464857 -0.7516852 -0.8387137 0.19537893 -0.26957417 -1.0043201 -0.27132645
-0.21819562 -1.1015604 0.12012342 0.048570506 -0.32136655 0.30854353 0.052006748 2.100831
-0.16696464 0.78494596 0.14664686 -0.32750243 -0.39334843 0.85616624 0.77936655 0.025824523
0.20999785 0.52506423 -0.042371117 -0.81179935 -0.8072578 -0.44093028 0.24832219 0.90936285
-0.3725864 -0.085188866 -0.12856503 0.31731874 0.19454394 0.055940952 -0.14487845 -0.020208463
-0.46951252 -0.63380647 0.5099622 0.026121488 0.3237294 -0.9435227 0.38410848 0.626586
-0.11846396 0.16291654 0.16559766 0.41022143 0.24944557 0.07786785 -0.75969994 0.7824895
-0.4165068 -0.5724032 -0.5944599 -0.039120417 -0.18349847 -0.8706448 -0.76787674 -0.3030169
0.91270494 -0.61915797 -0.08238223 0.06563177 1.0225242 -0.038399763 0.93827754 -1.3383229
-0.93345064 -0.6912842 -0.15281287 1.9798766 -0.03643356 0.06508024 -0.13528599 0.53616285
0.3562086 -0.5226767 -1.2104466 -0.11421151 -0.23976849 -1.6274602 -0.07809811 0.13098308
0.016097475 0.18932201 -0.51877165 -0.037379153 0.9151949 0.39111722 0.7674687 0.69610465
-0.15771346 0.2951551 0.7659651 -0.054096095 -0.11062465 0.15089789 0.50294554 -0.8680831
0.29271817 -0.06475909 1.0687913 0.055132426 0.18660371 -1.2389141 0.86727345 -0.10594017
-1.5402637 -0.055450894 0.11701558 0.941101 -0.028518556 -0.010710329 0.11603581 0.23235074
00000000: 0329 373e 2dd4 20bf 68e5 743d 379b bc3c
00000010: fc18 bf3f 7900 033e bc81 6bbf 3850 67bf
00000020: 496a cb3d e4f2 213f 95eb 0e3f 59fb 883e
00000030: 7408 8f3e d114 eb3c 0fa3 27bf 1c5e b73d
00000040: b3ea 3b3e 2df0 b8bf 5bda 6f3e 2d70 5dbe
00000050: c477 6bbc 65b7 9a40 00cd 1bbc d188 64bc
00000060: 3e70 b2bd a292 b5bc f1ab cbbc 9d80 1fbf
00000070: 0578 283e 860e 60be 402d bfbd 8952 133f
00000080: 4aa0 983d 091c d1be da76 81bd 88d5 b2be
00000090: f446 41be 92b3 03be 61d3 cabc 7851 093e
000000a0: c1e6 0b3f a640 943f 97fd c43e 9ea1 713e
000000b0: ace8 98be b389 3cbe 1e3f 353e 632a 03bd
000000c0: fc01 3e3f 8620 e23d 85cc ee3b cad9 08c0
000000d0: 5d58 183f f71f 9440 928f 6c3d f82b 94bd
000000e0: 2914 823d f0f1 db3e 5299 0e40 e35d f63e
000000f0: d9b1 c63e 3a2b 05be 8a0a 4d3e c195 63bf
00000100: 9f5a dc3e ff3a e4be 817e a0bd 6853 7c3e
00000110: 33c4 15be a630 4a3f 7825 193f 1077 13be
00000120: bc62 a4bd 0fd4 f1bc 32e0 2d3f d5ed 97be
00000130: 7db0 00bf 1bbf b3bc ffe0 2cbd b7ea b23e
00000140: 108b 08bf ce05 643e 2634 94be f4d3 d5bd
00000150: 5a85 a1be e31c 82bd 44e9 6c3d 911e 06bf
00000160: faf2 f3bd bcfb 15be 3ecb 72bf 5568 863f
00000170: c57a 873d 096d c8be 7a6c 2cbe 48f1 093e
00000180: 07de 933e 867d c7bd 6218 cfbe 7f25 66bd
00000190: ed80 61bf 5903 90bf b0ad 46be c514 533e
000001a0: 9e05 9bbf 4e37 ed3f 7fd1 e83e 2851 873e
000001b0: 302d 123c cb54 04bf 85bd b93e eb7d 0f3d
000001c0: d190 b3bf baa7 cdbd a0f2 7fbe c050 46bf
000001d0: 118c 293e ef16 d5bf fbfb 62bf 7a41 753e
000001e0: ca83 72be 640a 45bf e897 8abd 2409 4dbd
000001f0: a15c ea3d 3fee 153b c2cd dabe 4a95 733e
00000200: 082f 6ebe af0d 433e 18ad d6bc 81d7 763e
00000210: b450 d13d e5ff 87bd a6cf e5be cff9 bdbc
00000220: fd3e f1be a559 ecbf 716e 40bf f1b5 56bf
00000230: 6a11 483e a005 8abe 908d 80bf 4deb 8abe
00000240: ac6e 5fbe eeff 8cbf 4503 f63d def1 463d
00000250: 288a a4be 6bf9 9d3e 0705 553d 0474 0640
00000260: c7f8 2abe 38f2 483f 982a 163e 66ae a7be
00000270: f764 c9be b62d 5b3f 9184 473f f38d d33c
00000280: ad09 573e 9c6a 063f 568d 2dbd 15d2 4fbf
00000290: 72a8 4ebf 9dc1 e1be 2c48 7e3e 01cc 683f
000002a0: a5c3 bebe 8077 aebd 8da6 03be 9a77 a23e
000002b0: 8736 473e 5722 653d 045b 14be 388c a5bc
000002c0: f263 f0be 2441 22bf e28c 023f bbfc d53c
000002d0: dcbf a53e b48a 71bf dea9 c43e f167 203f
000002e0: 3c9d f2bd 98d3 263e 6f92 293e 8b08 d23e
000002f0: a96e 7f3e 2e79 9f3d b27b 42bf 3b51 483f
00000300: 6140 d5be 0489 12bf 862e 18bf bb3c 20bd
00000310: 06e7 3bbe 94e2 5ebf 9293 44bf 0825 9bbe
00000320: 08a7 693f 2381 1ebf 04b8 a8bd f369 863d
00000330: 13e2 823f 1249 1dbd f532 703f 2a4e abbf
00000340: 9ff6 6ebf 00f8 30bf fa7a 1cbe 996c fd3f
00000350: 5b3b 15bd ca48 853d 6988 0abe f841 093f
00000360: f960 b63e 24ce 05bf eaef 9abf b9e7 e9bd
00000370: df85 75be 9e50 d0bf e7f1 9fbd 6e20 063e
00000380: dade 833c a1dd 413e 38ce 04bf e21a 19bd
00000390: 374a 6a3f 8440 c83e d478 443f ea33 323f
000003a0: a37f 21be 921e 973e 4a16 443f de93 5dbd
000003b0: 2d8f e2bd fa84 1a3e 0ac1 003f b23a 5ebf
000003c0: 28df 953e 6aa0 84bd 27ce 883f 8ad2 613d
000003d0: 0b15 3f3e bd94 9ebf a205 5e3f 29f7 d8bd
000003e0: 5c27 c5bf 7a20 63bd dda5 ef3d ffeb 703f
000003f0: bf9f e9bc 607a 2fbc 2fa4 ed3d 5aed 6d3e

model/dense_2/MatMul;model/activation_2/Relu;model/dense_2/BiasAdd f4 [100]
64.09419 -55.26599 0.056777045 -66.38207 -10.716788 20.941492 27.267488 31.695677
-16.429039 -0.51860493 -18.04801 -22.01548 2.773984 11.448437 5.233811 -53.3317
-45.350883 24.616377 -10.875025 3.5255902 45.02299 7.172275 38.67831 15.7946
1.7623162 14.884931 -4.561465 47.44142 -20.872921 11.287856 0.16434705 7.519363
32.589436 -15.636673 30.11351 -46.793087 81.96209 -23.5528 -38.251717 -25.498484
-7.2709475 -60.470886 -2.3767786 -17.28962 -28.91527 42.95301 -26.436338 -9.742806
-39.037888 20.536905 70.046165 67.076706 14.863657 -3.8159306 7.3757706 5.0595284
9.290955 47.95398 32.29465 -33.993042 -19.93914 -0.9055958 -10.9683275 124.10083
28.029356 13.8108835 -55.09578 -31.968967 4.9678144 39.871933 -129.78973 13.772412
-44.75996 26.566582 -58.45137 -27.248045 27.107214 -32.379303 -41.536392 40.770336
57.60615 28.296682 28.837954 26.482895 -9.471918 -58.05851 -1.3529838 39.495296
31.152979 28.47526 -56.651543 21.494148 9.534169 4.8190947 -27.812796 53.399067
70.767685 39.49619 8.941484 -17.206612
00000000: 3a30 8042 6010 5dc2 0c8f 683d 9fc3 84c2
00000010: f777 2bc1 2d88 a741 d123 da41 bf90 fd41
00000020: ac6e 83c1 4bc3 04bf 5362 90c1 b41f b0c1
00000030: f488 3140 cc2c 3741 617b a740 a953 55c2
00000040: 4e67 35c2 57ee c441 1a00 2ec1 45a3 6140
00000050: 8b17 3442 4783 e540 97b6 1a42 aeb6 7c41
00000060: 9493 e13f ad28 6e41 85f7 91c0 04c4 3d42
00000070: befb a6c1 0f9b 3441 984a 283e 9f9e f040
00000080: 955b 0242 d02f 7ac1 78e8 f041 1f2c 3bc2
00000090: 97ec a342 226c bcc1 c201 19c2 e5fc cbc1
000000a0: 9aab e8c0 30e2 71c2 241d 18c0 2451 8ac1
000000b0: 7952 e7c1 e2cf 2b42 9f7d d3c1 89e2 1bc1
000000c0: cc26 1cc2 954b a441 a317 8c42 4627 8642
000000d0: 8ad1 6d41 3538 74c0 5006 ec40 a8e7 a140
000000e0: c0a7 1441 e0d0 3f42 b92d 0142 e0f8 07c2
000000f0: 5c83 9fc1 20d5 67bf 457e 2fc1 a033 f842
00000100: 1f3c e041 61f9 5c41 1462 5cc2 72c0 ffc1
00000110: 56f8 9e40 dc7c 1f42 2cca 01c3 cd5b 5c41
00000120: 330a 33c2 5c88 d441 34ce 69c2 fffb d9c1
00000130: 93db d841 6884 01c2 4425 26c2 d314 2342
00000140: b36c 6642 9b5f e241 21b4 e641 f8dc d341
00000150: fa8c 17c1 ea3b 68c2 932e adbf 2ffb 1d42
00000160: 4d39 f941 55cd e341 2e9b 62c2 04f4 ab41
00000170: f58b 1841 0636 9a40 9b80 dec1 a598 5542
00000180: 0e89 8d42 19fc 1d42 5210 0f41 24a7 89c1

model/batch_normalization_1/batchnorm/mul_1;model/batch_normalization_1/batchnorm/add_1;model/dense_2/MatMul;model/activation_2/Relu;model/dense_2/BiasAdd f4 [100, 100]
-0.17449243 -0.13027887 0.30771893 -0.01312001 -0.21325175 -0.18255724 0.12031236 -3.16813e-05
0.21178573 -0.032009345 0.1264134 0.17219257 0.09140325 -0.10246187 -0.23442201 0.0592952
0.011103843 -0.24551407 0.14602374 -0.06296511 -0.1462287 -0.042122714 0.08704695 0.15815786
-0.09732978 -0.027070018 -0.008220548 0.0047781076 -0.17641383 -0.09346768 -0.032807272 0.011501494
-0.23853412 0.017514946 -0.037790995 0.18638693 -0.05787004 0.034269813 0.091609776 -0.117012575
-0.035339948 -0.18586937 -0.3318962 0.09489463 0.031340048 -0.00027328017 -0.09592105 -0.08251864
-0.10445732 0.00016090514 0.057746325 0.042745087 -0.015062202 -0.11368668 -0.13233943 -0.05840018
0.045617893 0.035211038 0.19645984 -0.0269113 0.176697 -0.11709028 0.08941015 -0.25643688
0.016924607 0.033114914 0.06245373 -0.042474058 0.012051871 0.0026558465 -0.2336459 -0.15294479
-0.030623846 -0.057541896 -0.24722025 -0.076297514 0.060492393 -0.050703887 -0.061839253 -0.3087018
0.04306282 -0.06902045 0.052628726 0.038636502 -0.017461611 -0.01868854 0.08513922 -0.018393291
-0.14297931 0.037429698 0.09794479 -0.039911304 -0.07619529 -0.19258654 -0.33809373 0.2961754
0.21752688 -0.4570398 0.132316 -0.27397844 0.020563317 -0.02824211 -0.04137612 -0.10386014
0.047095135 0.014666511 0.08788989 0.0342579 0.07173375 -0.034061417 -0.016435703 -0.00020678024
-0.024298035 -0.07400135 0.099624164 0.062486198 -0.03158694 -0.020804515 -0.10081679 0.021360662
-0.10806368 0.0019929262 0.09585738 0.09630489 0.018234223 -0.0104544135 -0.14211248 -0.12804697
-0.00012649734 -0.057972107 0.18910553 0.25864354 0.1060524 0.05147543 0.057322703 -0.107406914
0.034218833 0.10114664 -0.046409603 0.01059487 -0.055521265 -0.04178767 -0.0038993626 -0.017587563
0.11253112 0.071152695 0.040124714 0.057886 0.06104837 0.09901444 0.05130766 -0.08104609
0.22332196 0.93063325 0.05022875 0.034096267 0.13896146 0.0013738077 -0.026002178 -0.007971086
0.013769691 -0.15213916 0.3937712 -0.013008609 0.008986308 0.094623156 -0.1403936 -0.018697763
0.005012352 -0.09519863 -0.10684822 0.0061194752 -0.030503975 0.27928793 -0.012519822 -0.15644237
0.018735737 0.09280427 -0.073332705 -0.097365074 0.08009453 0.017670788 0.017322961 0.11437058
-0.009049872 -0.013168843 -0.037788827 0.05582432 0.0052758805 0.038715526 0.49492317 0.040012524
-0.25626975 0.11375971 0.01595002 -0.12482281 -0.2089308 -0.004625288 -0.14796092 -0.034943763
0.38910538 0.2126564 -0.046603236 0.08370497 -0.019657984 0.0010022817 0.082950056 0.00024118832
-0.03209465 0.18830733 0.02090187 0.038052645 -0.00025839894 -0.089049675 -0.022814574 -0.20307279
0.030371375 0.047673885 -0.0797692 -0.011982926 0.2096529 -0.005165451 0.026120657 0.0049840524
-0.03178767 -0.06844408 0.0011426863 -0.043454256 0.0031423096 0.034058996 0.001691058 0.14405908
-0.012998522 0.03755559 -0.15487956 -0.063529655 0.08357791 0.009038498 -0.015594966 0.08495421
0.049237844 0.51353633 0.03167984 0.053962957 0.18127657 0.020093333 -0.025478065 0.008154938
-0.10418268 0.07083005 0.101758786 0.013112088 -0.02914831 0.040153477 -0.07265952 -0.02734898
00000000: 25ae 32be d367 05be 568d 9d3e 4ff5 56bc
00000010: ab5e 5abe 49f0 3abe 5466 f63d 89e1 04b8
00000020: 5cde 583e 3b1c 03bd 8472 013e 4053 303e
00000030: a131 bb3d 87d7 d1bd 530c 70be 86df 723d
00000040: e5ec 353c 0a68 7bbe 3f87 153e daf3 80bd
00000050: fabc 15be de88 2cbd ac45 b23d 22f4 213e
00000060: d654 c7bd f1c1 ddbc 7aaf 06bc ac91 9c3b
00000070: d4a5 34be fc6b bfbd eb60 06bd c370 3c3c
00000080: 4a42 74be 817b 8f3c bbca 1abd 37dc 3e3e
00000090: 2309 6dbd 815e 0c3d e89d bb3d 4aa4 efbd
000000a0: 9fc0 10bd 8a54 3ebe 4cee a9be 1e58 c23d
000000b0: 6c5e 003d 0b47 8fb9 4172 c4bd 88ff a8bd
000000c0: b8ed d5bd a5b8 2839 6987 6c3d 7915 2f3d
000000d0: 74c7 76bc 90d4 e8bd fd83 07be 0735 6fbd
000000e0: d4d9 3a3d 7339 103d c52c 493e 1675 dcbc
000000f0: 0ff0 343e 07cd efbd ab1c b73d b24b 83be
00000100: 79a5 8a3c 81a3 073d 7bcf 7f3d 47f9 2dbd
00000110: 3675 453c b60d 2e3b df40 6fbe 8f9d 1cbe
00000120: dcde fabc 0db1 6bbd 4e27 7dbe df41 9cbd
00000130: dfc6 773d e1ae 4fbd 284b 7dbd 2a0e 9ebe
00000140: a462 303d 985a 8dbd 3891 573d 4f41 1e3d
00000150: a70b 8fbc b618 99bc 795d ae3d 87ad 96bc
00000160: 2b69 12be e24f 193d 4797 c83d 097a 23bd
00000170: 470c 9cbd 6835 45be 9f1a adbe 4da4 973e
00000180: 5ebf 5e3e 1f01 eabe d87d 073e e746 8cbe
00000190: 6774 a83c ff5b e7bc 027a 29bd a0b4 d4bd
000001a0: d4e6 403d ce4b 703c 9dff b33d 0352 0c3d
000001b0: 25e9 923d fc83 0bbd 2ba4 86bc 26d3 58b9
000001c0: ac0c c7bc 058e 97bd c107 cc3d 87f1 7f3d
000001d0: 4f61 01bd 3b6e aabc 0879 cebd 8efc ae3c
000001e0: 7e50 ddbd c19b 023b e050 c43d 803b c53d
000001f0: f05f 953c fd48 2bbc ef85 11be bf1e 03be
00000200: 5fa4 04b9 2974 6dbd e1a4 413e ed6c 843e
00000210: 0032 d93d e7d7 523d 36cb 6a3d 28f8 dbbd
00000220: 0c29 0c3d f825 cf3d ff17 3ebd 1b96 2d3c
00000230: 446a 63bd 8c29 2bbd 738c 7fbb cb13 90bc
00000240: b776 e63d 81b8 913d d059 243d df19 6d3d
00000250: db0d 7a3d 15c8 ca3d fb27 523d 7efb a5bd
00000260: 83ae 643e fb3d 6e3f a9bc 4d3d 87a8 0b3d
00000270: ea4b 0e3e 5611 b43a 8502 d5bc 2899 02bc
00000280: 459a 613c 5eca 1bbe 619c c93e 1022 55bc
00000290: 4f3b 133c c9c9 c13d 57c3 0fbe 0d2c 99bc
000002a0: a83e a43b 80f7 c2bd 3dd3 dabd e185 c83b
000002b0: 79e3 f9bc d4fe 8e3e f11f 4dbc 6e32 20be
000002c0: b07b 993c 2a10 be3d 752f 96bd 5767 c7bd
000002d0: 9a08 a43d 54c2 903c e2e8 8d3c 1f3b ea3d
000002e0: ea45 14bc 22c2 57bc 75c8 1abd 0ba8 643d
000002f0: 4be1 ac3b 2c94 1e3d 9266 fd3e 2ce4 233d
00000300: ca35 83be dafa e83d 9ea9 823c 1aa3 ffbd
00000310: f5f1 55be ba8f 97bb 1183 17be 3121 0fbd
00000320: d238 c73e 99c2 593e 09e3 3ebd 836d ab3d
00000330: c809 a1bc fe5e 833a b8e1 a93d 7fe7 7c39
00000340: ae75 03bd a3d3 403e 663a ab3c 17dd 1b3d
00000350: b879 87b9 ad5f b6bd a1e5 babc 50f2 4fbe
00000360: 64cd f83c b145 433d 095e a3bd 0954 44bc
00000370: 40af 563e f242 a9bb fdfa d53c 4351 a33b
00000380: ca33 02bd 692c 8cbd 31c6 953a 17fd 31bd
00000390: 35ef 4d3b 7281 0b3d 7ea6 dd3a 3984 133e
000003a0: c1f7 54bc e4d3 193d bf98 1ebe d61b 82bd
000003b0: e52a ab3d 3516 143c 0782 7fbc 79fc ad3d
000003c0: 9fad 493d 1e77 033f b8c2 013d 4308 5d3d
000003d0: 91a0 393e c69a a43c 60b7 d0bc 4a9c 053c
000003e0: bb5d d5bd 580f 913d e966 d03d 15d4 563c
000003f0: 70c8 eebc f977 243d 84ce 94bd f80a e0bc

model/dense_3/MatMul;model/activation_3/Relu;model/dense_3/BiasAdd f4 [100]
-26.540087 37.21379 -3.4584227 -6.302958 12.839381 -13.132746 2.1812172 5.9674306
37.150707 21.071924 43.016983 46.781292 42.251198 14.209228 10.817687 6.3102064
-9.598388 13.922618 6.8357444 -7.0476255 30.833933 -2.6209657 -4.4102917 24.747826
39.210567 50.683037 21.045639 -6.269875 -14.957357 -42.26386 12.658297 19.560802
14.313079 -15.673545 15.118316 64.259964 -5.4768004 19.406263 -27.865728 13.815373
34.410908 38.179047 49.434258 -25.7289 2.473452 12.125701 -20.119308 14.855822
16.909948 -2.4866264 4.961985 -31.646877 -20.422289 -24.210066 -28.47423 18.805182
-6.4703374 -13.511745 15.872129 19.566528 -5.717287 9.515156 -1.4820652 19.70456
-17.88992 15.550897 6.6856294 -12.402403 16.183252 -0.71016395 3.02332 12.387642
3.632245 -26.813522 33.59479 -9.698564 -22.310196 11.587539 -10.6414795 -37.70755
-37.221794 -1.3540419 -0.9190283 25.408699 -7.5227966 -9.271887 16.460558 1.8506769
-14.820294 15.947164 -10.286942 26.955624 -3.7016346 -7.302001 18.770897 -49.169308
-6.5190516 23.762543 22.183899 4.385004
00000000: 1952 d4c1 ecda 1442 cc56 5dc0 d5b1 c9c0
00000010: 1b6e 4d41 ba1f 52c1 1099 0b40 31f5 be40
00000020: 539a 1442 4d93 a841 6411 2c42 0b20 3b42
00000030: 3a01 2942 ff58 6341 3f15 2d41 36ed c940
00000040: ff92 19c1 0bc3 5e41 6bbe da40 2686 e1c0
00000050: e5ab f641 e7bd 27c0 1c21 8dc0 8cfb c541
00000060: 9fd7 1c42 6ebb 4a42 785d a841 d1a2 c8c0
00000070: 5651 6fc1 310e 29c2 6288 4a41 867c 9c41
00000080: 5f02 6541 d7c6 7ac1 9fe4 7141 1a85 8042
00000090: f341 afc0 0740 9b41 03ed dec1 c50b 5d41
000000a0: c5a4 0942 58b7 1842 aebc 4542 cad4 cdc1
000000b0: 0a4d 1e40 df02 4241 58f4 a0c1 72b1 6d41
000000c0: 9347 8741 e324 1fc0 95c8 9e40 ce2c fdc1
000000d0: d960 a3c1 37ae c1c1 39cb e3c1 0371 9641
000000e0: 010d cfc0 1c30 58c1 3ef4 7d41 4088 9c41
000000f0: 04f4 b6c0 143e 1841 50b4 bdbf f0a2 9d41
00000100: 8e1e 8fc1 79d0 7841 adf0 d540 3e70 46c1
00000110: 4d77 8141 4ecd 35bf 137e 4140 c833 4641
00000120: b476 6840 1882 d6c1 1161 0642 512d 1bc1
00000130: 487b b2c1 8f66 3941 8043 2ac1 88d4 16c2
00000140: 1ee3 14c2 3f51 adbf 7045 6bbf 0445 cb41
00000150: c0ba f0c0 a659 14c1 39af 8341 fbe2 ec3f
00000160: ed1f 6dc1 9527 7f41 5097 24c1 1ea5 d741
00000170: 95e7 6cc0 fea9 e9c0 cc2a 9641 5fad 44c2
00000180: 129c d0c0 b019 be41 a078 b141 f451 8c40

model/batch_normalization_2/batchnorm/mul_1;model/batch_normalization_2/batchnorm/add_1;model/dense_3/MatMul;model/activation_3/Relu;model/dense_3/BiasAdd f4 [100, 100]
0.11443389 -0.07472587 0.025440374 0.024396315 0.03399031 -0.09256136 0.07129282 0.18668501
-0.09312938 0.0655633 -0.22818443 -0.073949486 -0.105803736 -0.07252244 0.06477331 0.068353556
0.019135227 0.16797645 0.054661974 0.035051372 -0.023746142 -0.012044039 0.5103615 -0.10553763
-0.05750136 0.0043647103 0.13724884 0.026791204 -0.24533378 -0.1762952 -0.09892135 -0.07905069
0.012392295 0.016763851 -0.20958841 -0.10687414 0.11821465 -0.07504625 -0.070935614 0.020553024
-0.036233865 0.014077703 0.054993495 0.22770827 -0.05339724 -0.074864715 0.08459816 -0.11108345
0.13179572 0.2883205 0.10740443 0.09944266 0.10788675 0.10487956 -0.09842622 0.09186641
0.08676396 0.2341113 0.12806958 -0.108173676 -0.13619195 0.021012489 0.021471186 -0.12375836
0.046886936 0.005416027 -4.1361957 0.0827354 0.10908414 0.12468741 -0.031870995 -0.08111932
-0.041606933 -0.043859627 0.058948893 0.07608867 -0.008978043 0.1462732 -0.025677528 0.0994806
-0.0055880263 -0.066659555 -0.00094763126 0.01581022 -0.010937682 0.031072292 0.086102836 -0.19564444
0.26617488 0.44076523 -0.07146881 -0.21525453 0.0452917 0.1005251 0.039056074 0.0022376413
0.026888847 -0.30610603 -0.10305567 -0.048951246 -0.2721431 -0.023438202 -0.27996138 -0.0955147
0.03254691 0.042157933 0.059530176 0.153637 -0.059180424 -0.3155173 0.0756513 0.20827721
-0.037087526 -0.032307588 0.19456652 0.005558113 0.01116815 -0.043773927 -0.16201362 -0.117513314
0.017793704 0.056901384 -0.13827777 -0.086238906 0.06826576 -0.19103192 0.2928183 0.12533046
0.20447575 0.11625207 -0.24032421 0.21899933 0.12331361 0.11512556 -0.05704491 -0.13139094
0.053534906 0.10891736 -0.028793572 0.25010702 -0.20507576 -0.019725569 -0.13381535 -0.15009496
0.14712337 0.065941066 0.003283083 -0.46119365 -0.10707991 -0.2721872 -0.0011082293 0.3229912
-0.07752646 -0.2492768 -0.17698842 -0.09874141 0.054621823 0.013427782 -0.23875087 0.1998896
0.11273172 0.18916781 0.10368682 -0.118004486 0.041971974 -0.07537694 0.2839352 -0.117273346
0.11601527 -0.0734108 -0.085657015 0.11269752 0.07325104 0.011127291 -0.040157195 -0.017370401
-0.02268004 -0.11943247 -0.0046878858 0.27423087 -0.077705406 -0.13189861 0.055901166 -0.32119453
-0.083688036 -0.023706531 0.22093461 -0.21650617 -0.26916188 0.039481074 0.09293489 0.16783112
0.14213452 0.022422979 -0.08891441 -0.05079184 0.023349848 -0.1509567 0.024867248 0.047267675
0.076254085 0.19331339 -0.04609206 -0.07237469 0.043339834 0.09473424 0.045439683 0.05557964
0.10670731 0.0062610954 -0.09096195 0.0996624 -0.025200915 -0.19035731 0.09869821 0.11119218
0.25708765 0.018420171 -0.08000773 0.10182419 -0.11085363 -0.016645303 -0.0015468186 -0.008281718
-0.07477188 0.041475814 -0.12784694 -0.022820992 0.04535357 0.013541962 -0.12344871 -0.04604531
-0.23684108 0.023782874 -0.059039786 -0.046322457 0.13349581 0.11291677 0.0052803066 -0.1718934
0.027289765 -0.0192936 -0.044413656 0.056107655 0.00609535 -0.20084842 -0.07273714 0.012804327
-0.12300278 -0.058235105 -0.22073394 0.01872062 0.10384505 0.009042072 -0.007111838 -0.1194711
00000000: 515c ea3d e009 99bd 5568 d03c c8da c73c
00000010: 6c39 0b3d cf90 bdbd f801 923d 5b2a 3f3e
00000020: 9eba bebd 0d46 863d 2ea9 69be d472 97bd
00000030: a1af d8bd a586 94bd dfa7 843d f3fc 8b3d
00000040: 7bc1 9c3c 0502 2c3e 3ce5 5f3d 0792 0f3d
00000050: 4587 c2bc 5c54 45bc 0da7 023f 1d24 d8bd
00000060: 8c86 6bbd d805 8f3b f68a 0c3e 3a79 db3c
00000070: c738 7bbe bb86 34be 4797 cabd 54e5 a1bd
00000080: 0d09 4b3c 5854 893c 589e 56be d4e0 dabd
00000090: 861a f23d d9b1 99bd b146 91bd d15e a83c
000000a0: f669 14bd 2aa6 663c dc40 613d 5b2c 693e
000000b0: 10b7 5abd ac52 99bd cd41 ad3d b87f e3bd
000000c0: 75f5 063e bf9e 933e dbf6 db3d 98a8 cb3d
000000d0: baf3 dc3d 18cb d63d b093 c9bd 7524 bc3d
000000e0: 4eb1 b13d dfba 6f3e ac24 033e 298a ddbd
000000f0: e775 0bbe 6222 ac3c 57e4 af3c 0675 fdbd
00000100: 840c 403d ed78 b13b b75b 84c0 2d71 a93d
00000110: 8167 df3d 1d5c ff3d 298b 02bd e321 a6bd
00000120: 086c 2abd 27a6 33bd 6574 713d 60d4 9b3d
00000130: a418 13bc a4c8 153e ae59 d2bc 7cbc cb3d
00000140: c31b b7bb ce84 88bd 756a 78ba 6f84 813c
00000150: f733 33bc 528b fe3c af56 b03d 0457 48be
00000160: 1348 883e fbab e13e 3d5e 92bd af6b 5cbe
00000170: ca83 393d 1be0 cd3d 43f9 1f3d 64a5 123b
00000180: 0046 dc3c eeb9 9cbe da0e d3bd 1a81 48bd
00000190: 5756 8bbe 7901 c0bc 1957 8fbe 369d c3bd
000001a0: e94f 053d ccad 2c3d ead5 733d 0553 1d3e
000001b0: 2c67 72bd 7c8b a1be 12ef 9a3d 9f46 553e
000001c0: 17e9 17bd f654 04bd 723c 473e d520 b63b
000001d0: 9efa 363c 4a4c 33bd e6e6 25be d2aa f0bd
000001e0: 1ac4 913c 6d11 693d b098 0dbe 069e b0bd
000001f0: ebce 8b3d df9d 43be 48ec 953e a156 003e
00000200: 1762 513e 9115 ee3d 8d17 76be 5c41 603e
00000210: d98b fc3d f3c6 eb3d eca7 69bd 598b 06be
00000220: 6b47 5b3d 1110 df3d 7fe0 ebbc 070e 803e
00000230: 61ff 51be 8497 a1bc e406 09be 7eb2 19be
00000240: 82a7 163e 1c0c 873d fe28 573b 9321 ecbe
00000250: b64c dbbd 1f5c 8bbe 0142 91ba 1a5f a53e
00000260: 31c6 9ebd 6b42 7fbe 743c 35be f038 cabd
00000270: 22bb 5f3d 3300 5c3c 1c7b 74be dcaf 4c3e
00000280: e3df e63d 35b5 413e c159 d43d 56ac f1bd
00000290: ceea 2b3d 3a5f 9abd f45f 913e 022d f0bd
000002a0: 6a99 ed3d 6758 96bd f26c afbd f5cd e63d
000002b0: a404 963d 3e4f 363c df7b 24bd 5f4c 8ebc
000002c0: 7ecb b9bc 0399 f4bd d69c 99bb fd67 8c3e
000002d0: 0324 9fbd 6e10 07be 9ff8 643d 9c73 a4be
000002e0: a264 abbd 3334 c2bc af3c 623e cbb3 5dbe
000002f0: 96cf 89be e8b6 213d a654 be3d ecdb 2b3e
00000300: b68b 113e 65b0 b73c c218 b6bd 1b0b 50bd
00000310: 2e48 bf3c 6594 1abe 66b6 cb3c c09b 413d
00000320: 1a2b 9c3d f2f3 453e 07cb 3cbd 2e39 94bd
00000330: 1c85 313d 0604 c23d f61e 3a3d 7aa7 633d
00000340: 5d89 da3d e029 cd3b 424a babd cd1b cc3d
00000350: 2672 cebc 07ed 42be 4a22 ca3d bab8 e33d
00000360: fea0 833e e6e5 963c 18db a3bd 3389 d03d
00000370: 3a07 e3bd bb5b 88bc 9fbe caba 0bb0 07bc
00000380: 0022 99bd 8be2 293d 4fea 02be 17f3 babc
00000390: aac4 393d 1bdf 5d3c add2 fcbd 029a 3cbd
000003a0: 7886 72be 4dd4 c23c b4d3 71bd 9ebc 3dbd
000003b0: 20b3 083e e840 e73d 6c06 ad3b d304 30be
000003c0: c98e df3c 9d0d 9ebc 18eb 35bd 24d1 653d
000003d0: 80bb c73b 35ab 4dbe 36f7 94bd 3dc9 513c
000003e0: e2e8 fbbd ef87 6ebd 1408 62be fc5b 993c
000003f0: b7ac d43d 3325 143c 6c0a e9bb 44ad f4bd

model/dense_4/MatMul;model/activation_4/Relu;model/dense_4/BiasAdd f4 [100]
-2.6280127 11.000815 -11.551275 6.3758965 -0.43356463 -3.8794768 0.7868394 12.506543
28.840847 7.0070753 -5.9005203 -9.989698 42.137577 15.565657 -12.8786 -24.581528
0.1549159 -6.977078 9.345097 4.8947453 -2.528048 -9.139988 11.670251 4.5435596
33.33593 9.992688 20.35937 4.069648 7.4000745 -10.803168 15.825547 -3.733011
26.108429 2.4151914 18.845852 -12.4972 -14.104681 11.363178 27.12998 45.765358
40.669094 5.7622585 -6.3688054 0.07987387 49.33517 -5.0793047 -18.142942 -10.846856
-24.94092 3.357204 35.762077 20.443811 -3.81924 3.6878498 22.05548 0.42966208
13.787098 15.123513 17.211704 14.143781 -15.69668 12.449241 -14.51053 11.494504
10.154009 27.93243 -10.799181 16.415697 26.963741 42.405716 1.0318685 37.84535
6.6126633 -41.267517 1.5797087 37.229973 35.321632 -1.9011029 19.22983 -10.899374
25.691223 25.53523 2.269286 -18.143396 -1.4834869 -11.250638 23.967297 10.536978
8.368721 9.112363 -20.067884 29.16832 25.178036 9.957177 44.42283 34.917038
-0.7660163 -20.237568 42.530422 -3.9748695
00000000: 5c31 28c0 5703 3041 06d2 38c1 5807 cc40
00000010: 2ffc ddbe 5949 78c0 4f6e 493f cd1a 4841
00000020: 0eba e641 f639 e040 10d1 bcc0 ced5 1fc1
00000030: e18c 2842 ee0c 7941 bf0e 4ec1 f8a6 c4c1
00000040: 46a2 1e3e 3944 dfc0 8485 1541 c1a1 9c40
00000050: 8acb 21c0 643d 12c1 59b9 3a41 d764 9140
00000060: fe57 0542 0de2 1f41 fddf a241 8e3a 8240
00000070: 69cd ec40 c7d9 2cc1 7135 7d41 a7e9 6ec0
00000080: 10de d041 7f92 1a40 4ec4 9641 88f4 47c1
00000090: c6ac 61c1 94cf 3541 330a d941 ba0f 3742
000000a0: 27ad 2242 6c64 b840 41cd cbc0 e994 a33d
000000b0: 3757 4542 aa89 a2c0 bf24 91c1 b98c 2dc1
000000c0: 0187 c7c1 6edc 5640 5e0c 0f42 ed8c a341
000000d0: 6e6e 74c0 bb05 6c40 9f71 b041 abfc db3e
000000e0: f497 5c41 e9f9 7141 92b1 8941 ed4c 6241
000000f0: 9a25 7bc1 1730 4741 222b 68c1 7de9 3741
00000100: d276 2241 9e75 df41 72c9 2cc1 5953 8341
00000110: beb5 d741 749f 2942 4414 843f a361 1742
00000120: f09a d340 f011 25c2 e533 ca3f 7eeb 1442
00000130: 5a49 0d42 5757 f3bf b1d6 9941 d663 2ec1
00000140: a087 cd41 2748 cc41 fb3b 1140 ad25 91c1
00000150: e6e2 bdbf 9d02 34c1 06bd bf41 7697 2841
00000160: 48e6 0541 3dcc 1141 078b a0c1 b858 e941
00000170: 9e6c c941 9950 1f41 fab0 3142 0cab 0b42
00000180: a519 44bf 8ae6 a1c1 271f 2a42 4364 7ec0

model/batch_normalization_3/batchnorm/mul_1;model/batch_normalization_3/batchnorm/add_1;model/dense_4/MatMul;model/activation_4/Relu;model/dense_4/BiasAdd f4 [100, 100]
-0.12423689 0.0026139354 0.016221413 -0.19938603 -0.20947929 0.11145759 -0.009504675 -0.009204346
-0.17970856 0.077959605 -0.014910319 0.13995329 -0.06481778 0.054795653 0.091288544 0.08043489
-0.03702692 -0.08616202 -0.10744658 -0.06803294 0.0138086965 0.41509804 0.5317493 0.15118635
-0.06775429 0.027305016 0.17593938 0.019052388 -0.38063693 -0.04430322 -0.043904323 -0.2821164
0.007852819 -0.06764767 -0.029123181 0.034526363 0.23515657 -0.09980773 -0.20067129 0.00022462534
-0.26558143 0.058352623 0.010692471 0.000465082 0.111937545 0.10462917 0.07323249 -0.028674025
0.25617045 -0.005007228 0.071682535 -0.013581365 0.24650541 -0.0112933535 0.064833544 0.100794315
-0.02495875 0.12271767 0.030310431 0.18407556 -0.31010792 -0.016963493 0.07576617 0.04793948
-0.030834453 -0.018509429 0.13568267 -0.019765291 0.050356068 0.052831274 -0.004180521 0.017303364
0.2265405 -0.029482838 -0.03757105 -0.2379775 -0.18177065 -0.09627655 -0.0026122418 0.03530003
0.121974096 0.018048922 0.107146 -0.08038106 0.10328584 0.06694635 -0.08885179 -0.001756233
-0.011208458 -0.021039117 -0.020125147 0.07904453 0.19527684 0.06731903 -0.38015437 0.031541772
0.20578425 0.089901246 0.027980777 0.0990371 0.0944845 0.01778508 -0.021916188 0.10421862
-0.07454725 -0.013553407 0.014153071 0.23230946 -0.23685388 0.062246796 -0.0615317 0.20361069
-0.07749642 -0.05773297 0.08189219 0.08152951 0.059460912 0.031485036 0.10677679 -0.53491646
-0.06464913 -0.15274487 -0.07781128 0.16444913 -0.13759658 0.047486868 -0.13787404 -0.00037359638
0.0027017167 0.19494572 0.08634471 -0.1038317 -0.0124790175 -0.053235523 0.18852629 -0.04116586
0.10955582 -0.056933492 -0.02847424 0.03416112 0.10291361 -0.15316378 0.04085737 -0.002121187
0.12693927 0.04365872 0.12824565 -0.08961277 -0.13449949 0.016341748 -0.00503074 0.20903945
-0.18975204 0.14688823 0.041338645 -0.024530381 -0.096892454 -0.0049610087 -0.053614806 -0.27235606
0.076993346 -0.018545885 -0.1372052 0.066644296 0.11028276 -0.12638289 -0.05958169 0.03696795
0.2583456 0.14177367 -0.029160177 -0.53857535 -0.13348165 0.19494133 -0.06141198 -0.06998327
-0.14225629 0.27125332 0.04470695 -0.060662553 -0.06428942 0.06748836 -0.23353893 -0.12517738
-0.14100341 -0.1818788 0.14532374 -0.9361826 -0.037503224 0.040036395 0.07611574 -0.18120462
-0.16901729 -0.027350424 -0.032384556 0.06504278 0.41387677 0.12192673 -0.0019105873 0.15753667
-0.12000062 0.15593603 0.33473095 0.20987836 0.10537036 -0.065648265 0.044416074 0.16093142
-0.0076711867 -0.061052855 -0.21533154 0.3286904 0.12911592 0.096609734 0.02770845 0.010172544
0.23627083 0.13223359 0.0068465825 0.12670732 0.04089385 -0.03360698 -0.041947056 -0.00977317
-0.04551052 -0.20426378 0.18611209 0.009790839 -0.026616689 0.1752549 0.0357741 -0.016461635
-0.11618006 0.05257684 -0.015256141 -0.2300143 0.053777013 -0.06346745 -0.055737097 -0.0738709
-0.01205802 -0.092165485 -0.17057738 -0.0062918826 -0.013693333 -0.0060323523 -0.028093647 -0.02138725
0.1818097 -0.078770064 0.025263479 -0.44083858 0.09283341 0.12724644 -0.005430908 0.061907988
00000000: e96f febd 8f4e 2b3b c5e2 843c da2b 4cbe
00000010: bd81 56be e043 e43d 7fb9 1bbc d3cd 16bc
00000020: 8505 38be 49a9 9f3d 694a 74bc ea4f 0f3e
00000030: 2fbf 84bd 6871 603d 7df5 ba3d 0cbb a43d
00000040: 8aa9 17bd b775 b0bd f40c dcbd db54 8bbd
00000050: df3d 623c bb87 d43e b920 083f 98d0 1a3e
00000060: c3c2 8abd c5ae df3c 7429 343e c113 9c3c
00000070: d8e2 c2be 4b77 35bd 05d5 33bd 9071 90be
00000080: 1ca9 003c dd8a 8abd bd93 eebc 846b 0d3d
00000090: e2cc 703e ff67 ccbd c67c 4dbe 6889 6b39
000000a0: 4afa 87be 2903 6f3d 792f 2f3c 40d6 f339
000000b0: 833f e53d d147 d63d eafa 953d cae5 eabc
000000c0: c628 833e ac13 a4bb 4bce 923d 6084 5ebc
000000d0: ea6b 7c3e c207 39bc 73c7 843d 406d ce3d
000000e0: 4b76 ccbc 6753 fb3d 954d f83c 4e7e 3c3e
000000f0: 77c6 9ebe 06f7 8abc 4b2b 9b3d 305c 443d
00000100: 8998 fcbc 16a1 97bc 66f0 0a3e d2ea a1bc
00000110: 2a42 4e3d 9b65 583d c0fc 88bb c9bf 8d3c
00000120: 3cfa 673e fe85 f1bc 1ae4 19bd 60b0 73be
00000130: 1622 3abe a42c c5bd 2532 2bbb c496 103d
00000140: 8ecd f93d 55db 933c 5d6f db3d d39e a4bd
00000150: 8787 d33d 2b1b 893d edf7 b5bd 6731 e6ba
00000160: aea3 37bc 3a5a acbc 7edd a4bc 19e2 a13d
00000170: a7f6 473e 8fde 893d 98a3 c2be f231 013d
00000180: 1bb9 523e 251e b83d f137 e53c f7d3 ca3d
00000190: 1781 c13d 04b2 913c 9489 b3bc 9270 d53d
000001a0: 3bac 98bd 1c0f 5ebc 48e2 673c 88e2 6d3e
000001b0: d389 72be 7ff6 7e3d aa08 7cbd 527f 503e
000001c0: 71b6 9ebd 6879 6cbd 18b7 a73d f2f8 a63d
000001d0: 498d 733d 74f6 003d caad da3d 49f0 08bf
000001e0: c366 84bd 2769 1cbe 855b 9fbd 5a65 283e
000001f0: 1ee6 0cbe 9781 423d da2e 0dbe 42df c3b9
00000200: 490f 313b da9f 473e 7fd5 b03d b7a5 d4bd
00000210: cb74 4cbc 7e0d 5abd 090d 413e 889d 28bd
00000220: cd5e e03d 1833 69bd cf42 e9bc 88ec 0b3d
00000230: 5fc4 d23d f7d6 1cbe 0f5a 273d 9d03 0bbb
00000240: 5efc 013e 7cd3 323d d452 033e e686 b7bd
00000250: 3cba 09be 21df 853c e8d8 a4bb 700e 563e
00000260: 5c4e 42be de69 163e b652 293d f0f3 c8bc
00000270: 8d6f c6bd f58f a2bb 339b 5bbd 4172 8bbe
00000280: b0ae 9d3d 8aed 97bc 857f 0cbe ce7c 883d
00000290: eddb e13d 846a 01be ee0b 74bd b56b 173d
000002a0: e045 843e 1e2d 113e 53e1 eebc 13e0 09bf
000002b0: 6aaf 08be b39e 473e 218b 7bbd 6353 8fbd
000002c0: a2ab 11be b7e1 8a3e a31e 373d 4c79 78bd
000002d0: 2caa 83bd 5637 8a3d d424 6fbe 802e 00be
000002e0: 3363 10be 703e 3abe bfcf 143e aaa9 6fbf
000002f0: fb9c 19bd 34fd 233d 92e2 9b3d b48d 39be
00000300: de12 2dbe ff0d e0bc aba5 04bd 2635 853d
00000310: a8e7 d33e b9b4 f93d ac6c faba 4b51 213e
00000320: e3c2 f5bd b2ad 1f3e db61 ab3e 5aea 563e
00000330: 6acc d73d 9972 86bd a1ed 353d 35cb 243e
00000340: 945e fbbb 8f12 7abd df7f 5cbe 1c4a a83e
00000350: f736 043e 53db c53d d5fc e23c beaa 263c
00000360: fbf0 713e 3e68 073e 4c59 e03b 90bf 013e
00000370: 4f80 273d 79a7 09bd add0 2bbd a51f 20bc
00000380: 3d69 3abd 862a 51be 2b94 3e3e c169 203c
00000390: 3e0b dabc 0576 333e dd87 123d 8dda 86bc
000003a0: d0ef edbd d05a 573d e5f4 79bc de88 6bbe
000003b0: 4945 5c3d 39fb 81bd 954c 64bd a049 97bd
000003c0: 008f 45bc 42c1 bcbd d6ab 2ebe 232c cebb
000003d0: 005a 60bc 0aab c5bb a624 e6bc 5034 afbc
000003e0: 522c 3a3e 3352 a1bd 5bf5 ce3c 98b5 e1be
000003f0: 711f be3d e44c 023e c2f5 b1bb 3b93 7d3d

model/dense_5/MatMul;model/activation_5/Relu;model/dense_5/BiasAdd f4 [100]
5.908479 39.77153 -16.541975 11.467185 28.239445 -1.8571867 37.68709 21.727688
-2.8420393 -0.20416863 28.4806 1.9342434 3.5680504 30.837517 -22.134886 18.652525
-14.6665945 9.130625 18.471043 -11.92715 60.441753 -22.672255 24.35524 28.581419
28.336843 19.692226 -6.7624974 9.290736 16.55285 18.194788 -18.252558 1.4406531
-16.611692 -23.089996 10.734408 25.608274 15.267323 32.734936 7.419356 -38.45196
26.650871 -22.839104 17.053698 9.589048 17.327576 -18.382338 16.712162 4.3689666
-37.82688 20.114206 -3.1966336 16.886599 -28.133415 -9.179331 19.280064 -3.1413414
4.9890704 10.2484045 10.562554 34.757954 20.61717 1.9605391 27.665369 25.399063
-0.35148633 24.782772 1.9013782 -9.700692 -7.987677 15.016414 -30.22034 21.394646
35.168495 16.58858 -6.9837804 0.35871205 4.9019427 -10.768175 -1.7581205 -51.767025
64.425766 -23.349398 29.731743 29.892588 6.864233 22.394405 8.384003 22.01526
-12.083943 -6.4827633 -11.031553 14.739116 -1.842798 -2.8827183 0.12944318 8.38673
22.653557 19.70748 13.496678 5.4860287
00000000: 4312 bd40 0c16 1f42 f755 84c1 9779 3741
00000010: 62ea e141 4bb8 edbf 95bf 1642 4ed2 ad41
00000020: f9e3 35c0 9511 51be 45d8 e341 4a95 f73f
00000030: f05a 6440 3cb3 f641 3f14 b1c1 5f38 9541
00000040: 5faa 6ac1 0a17 1241 b2c4 9341 9bd5 3ec1
00000050: 5bc4 7142 c760 b5c1 88d7 c241 bfa6 e441
00000060: dbb1 e241 ae89 9d41 6166 d8c0 dba6 1441
00000070: 3d6c 8441 ed8e 9141 3d05 92c1 5267 b83f
00000080: bfe4 84c1 50b8 b8c1 23c0 2b41 bfdd cc41
00000090: f446 7441 93f0 0242 5d6b ed40 cfce 19c2
000000a0: fc34 d541 7cb6 b6c1 f96d 8841 be6c 1941
000000b0: e09e 8a41 070f 93c1 82b2 8541 93ce 8b40
000000c0: ba4e 17c2 e5e9 a041 a595 4cc0 c117 8741
000000d0: 3c11 e1c1 8ade 12c1 923d 9a41 bd0b 49c0
000000e0: 77a6 9f40 77f9 2341 3900 2941 2508 0b42
000000f0: f7ef a441 f2f2 fa3f ad52 dd41 4831 cb41
00000100: 04f6 b3be 1e43 c641 5c60 f33f 0936 1bc1
00000110: 0d9b ffc0 3b43 7041 42c3 f1c1 3c28 ab41
00000120: 8aac 0c42 69b5 8441 217b dfc0 1ba9 b73e
00000130: b7dc 9c40 724a 2cc1 180a e1bf 6f11 4fc2
00000140: fed9 8042 91cb bac1 9cda ed41 0524 ef41
00000150: cca7 db40 be27 b341 e024 0641 411f b041
00000160: d557 41c1 cc72 cfc0 3e81 30c1 6bd3 6b41
00000170: cee0 ebbf 757e 38c0 c18c 043e 0c30 0641
00000180: 7c3a b541 eba8 9d41 65f2 5741 8c8d af40

model/batch_normalization_4/batchnorm/mul_1;model/batch_normalization_4/batchnorm/add_1;model/dense_5/MatMul;model/activation_5/Relu;model/dense_5/BiasAdd f4 [100, 100]
-0.090287045 0.03735941 0.013711652 0.07433584 0.029205913 0.28630617 0.082529426 -0.006602236
0.25214916 -0.20537925 -0.27540204 -0.14849702 0.08331959 -0.08168405 0.044069894 0.22594789
-0.2718776 0.0028211905 0.074571654 -0.08655208 0.18640622 -0.027168173 -0.080890335 -0.1746354
0.07149404 0.03655255 -0.018520007 0.0030071458 0.18255566 0.08641142 -0.18177137 -0.18198536
-0.06601253 -0.018292867 -0.23173603 -0.39178216 -0.041752584 -0.08620386 -0.056638982 0.051633753
0.104657345 0.10107187 -0.07957159 -0.06800788 -0.0134874405 0.10717787 -0.12747645 -0.012378536
0.042025387 -1.0069427 0.08237096 0.015198939 0.20392084 0.020228967 -0.05422661 0.07749229
-0.09788024 -0.3207156 -0.17371514 0.10145756 0.1168575 -0.034606144 -0.0020352595 0.11808718
0.092950046 -0.0033104059 -0.31628877 -0.075315505 -0.06718772 -0.2524597 0.010702976 -0.086937435
-0.05039255 -0.07209133 -0.01750013 -0.10145134 0.0141346585 0.045681298 0.4054122 0.13110664
-0.13668244 -0.10339855 -0.20358664 0.28481123 -0.26782414 0.102435224 0.027650684 0.043311298
-0.21056338 -0.123470806 -0.16502148 0.04160336 0.12279234 -0.012532987 0.2227459 0.015738279
0.005683878 -0.44812694 0.086880654 -0.028865231 0.038798 -0.042513613 -0.05304899 -0.62610334
-0.00972023 0.81421787 -0.008713303 -0.19723602 -0.008436276 0.25849706 -0.0718437 -0.20609379
-0.03615555 0.07287485 0.20693702 -0.060062308 -0.56652904 -0.6920456 0.06399539 -0.03191756
-0.22514695 -0.2892209 -0.030753145 0.035386246 -0.03917709 -0.06850114 0.06236477 -0.06788806
-0.0324491 -0.12049445 -0.074923255 -0.34637114 0.09613795 0.09247464 -0.06656916 -0.33667976
-0.34351942 0.03571781 0.1575804 -0.06764777 0.005925854 -0.1742523 0.05923144 -0.032504328
0.04555832 -0.4772253 0.075938925 -0.3209054 0.015071025 0.29308012 0.060920566 -0.012428213
-0.26267046 -0.03721106 -0.0564357 -0.035890307 0.00011100457 -0.061481413 -0.11349771 -0.052809183
-0.04266728 0.007694086 0.028268743 -0.12342523 -0.0020835074 -0.081551544 -0.11044707 -0.022462513
-0.0067092204 -0.048584662 -0.60698587 -0.07313065 -0.06945931 -0.086515605 -0.13706915 0.006176209
-0.036631275 -0.106451906 -0.22397977 0.10038806 0.07727601 -0.03685836 -0.008338708 0.09670788
-0.41586408 0.046195194 0.050179508 -0.04818615 0.08903581 0.20110409 -0.048216462 -0.24543492
-0.04601425 -0.019035798 -0.027207846 -0.13945238 -0.14857203 -0.27318788 -0.13433434 -0.56902164
0.11814476 0.114123896 0.017086076 0.055767633 -0.031294696 -0.13024779 -0.029551174 0.11996171
-0.009962635 -0.12273732 0.16010253 -0.042426236 0.06028513 -0.2938959 0.12273322 0.031641804
0.026925907 -0.12251638 -0.089112476 0.2347787 -0.041994814 0.13410129 0.050746568 0.07192837
-0.06200442 -0.032614775 0.021489903 -0.074673034 0.23805723 -0.03316099 -0.013072545 -0.15341799
-0.01261718 -0.09320048 0.05156614 0.091085106 0.16195486 -0.09013668 0.07099994 0.095436364
0.12872228 -0.042851493 -0.028481394 -0.09742238 0.023601191 0.06657388 0.02221775 0.09816855
-0.030940477 -0.60322315 1.0850179 -0.13370295 -0.11351225 0.0810195 -0.14706668 0.02423661
00000000: 6ae8 b8bd 2e06 193d d6a6 603c 643d 983d
00000010: 3d41 ef3c b996 923e 3005 a93d 9257 d8bb
00000020: b219 813e f04e 52be 7f01 8dbe 9a0f 18be
00000030: 76a3 aa3d f849 a7bd a282 343d e25e 673e
00000040: 8a33 8bbe b9e3 383b 06b9 983d 3842 b1bd
00000050: 46e1 3e3e ca8f debc d5a9 a5bd 9fd3 32be
00000060: 786b 923d 20b8 153d 45b7 97bc 8913 453b
00000070: dfef 3a3e 78f8 b03d 4622 3abe 5f5a 3abe
00000080: 9431 87bd ecda 95bc 364c 6dbe ac97 c8be
00000090: c204 2bbd a68b b0bd 47fe 67bd ea7d 533d
000000a0: 9756 d63d c5fe ce3d 6ef6 a2bd b747 8bbd
000000b0: 6dfa 5cbc 1280 db3d 3089 02be 58cf 4abc
000000c0: d022 2c3d 80e3 80bf 1bb2 a83d f804 793c
000000d0: a0d0 503e 38b7 a53c b91c 5ebd 47b4 9e3d
000000e0: 6f75 c8bd d634 a4be 62e2 31be fbc8 cf3d
000000f0: fc52 ef3d 2cbf 0dbd fd61 05bb b1d7 f13d
00000100: 985c be3d 65f3 58bb 9af0 a1be 043f 9abd
00000110: b799 89bd 6642 81be 895b 2f3c 410c b2bd
00000120: 6b68 4ebd 9fa4 93bd 6f5c 8fbc b8c5 cfbd
00000130: 0e95 673c 501c 3b3d 3092 cf3e d240 063e
00000140: 7bf6 0bbe 9ec2 d3bd 0479 50be c7d2 913e
00000150: 3f20 89be 8fc9 d13d b083 e23c 3067 313d
00000160: ed9d 57be 43de fcbd 64fb 28be 4968 2a3d
00000170: 8d7a fb3d 2857 4dbc 8017 643e 90ed 803c
00000180: d33f ba3b e570 e5be 7cee b13d c776 ecbc
00000190: a7ea 1e3d c122 2ebd e649 59bd 4f48 20bf
000001a0: 9941 1fbc 9570 503f 3ec2 0ebc 3df8 49be
000001b0: 4e38 0abc ba59 843e ca22 93bd 400a 53be
000001c0: d817 14bd 693f 953d 4ce7 533e e503 76bd
000001d0: 0c08 11bf e729 31bf 0410 833d fdbb 02bd
000001e0: ec8c 66be c314 94be 05ee fbbc 2bf1 103d
000001f0: 2878 20bd 534a 8cbd 3372 7f3d e508 8bbd
00000200: 59e9 04bd cbc5 f6bd 5d71 99bd 8f57 b1be
00000210: f9e3 c43d 5863 bd3d 6955 88bd 4a61 acbe
00000220: c7e1 afbe d74c 123d c25c 213e ea8a 8abd
00000230: ab2d c23b 326f 32be ab9c 723d 4223 05bd
00000240: 5c9b 3a3d e056 f4be de85 9b3d b64d a4be
00000250: 76ec 763c 990e 963e d887 793d b49f 4bbc
00000260: be7c 86be a06a 18bd 1f29 67bd b701 13bd
00000270: 20cb e838 efd3 7bbd 7d71 e8bd 714e 58bd
00000280: e3c3 2ebd ac1e fc3b da93 e73c 5ec6 fcbd
00000290: 748b 08bb 7f04 a7bd 1332 e2bd 4e03 b8bc
000002a0: 05d9 dbbb b600 47bd 6d63 1bbf 86c5 95bd
000002b0: af40 8ebd 182f b1bd db5b 0cbe cc61 ca3b
000002c0: ad0a 16bd 7503 dabd f45a 65be 4198 cd3d
000002d0: e242 9e3d cbf8 16bd 149f 08bc c80e c63d
000002e0: 23ec d4be 2c37 3d3d 0789 4d3d d75e 45bd
000002f0: 6858 b63d 3bee 4d3e a07e 45bd 4b53 7bbe
00000300: 7079 3cbd f6f0 9bbc fde2 debc 9bcc 0ebe
00000310: 4423 18be 48df 8bbe f18e 09be 67ab 11bf
00000320: e1f5 f13d cab9 e93d 19f8 8b3c 9a6c 643d
00000330: de2e 00bd ad5f 05be 4e15 f2bc 7cae f53d
00000340: 523a 23bc b45d fbbd ebf1 233e 22c7 2dbd
00000350: 8aed 763d 8679 96be 8e5b fb3d d69a 013d
00000360: b893 dc3c dee9 fabd 9a80 b6bd d469 703e
00000370: c102 2cbd d951 093e a2db 4f3d 2e4f 933d
00000380: 59f8 7dbd 1297 05bd 980b b03c 2dee 98bd
00000390: 46c5 733e d1d3 07bd 3a2e 56bc 9b19 1dbe
000003a0: 4ab8 4ebc e5df bebd 0437 533d d48a ba3d
000003b0: 7fd7 253e 9499 b8bd 6b68 913d 2474 c33d
000003c0: c6cf 033e 0c85 2fbd d051 e9bc 6285 c7bd
000003d0: 4957 c13c e357 883d 0002 b63c 980c c93d
000003e0: e276 fdbc d56c 1abf dee1 8a3f 6de9 08be
000003f0: 1c79 e8bd 8ded a53d a698 16be db8b c63c

model/dense_6/MatMul;model/activation_6/Relu;model/dense_6/BiasAdd f4 [100]
-6.6629176 9.577094 4.4874926 3.2461753 34.535656 -3.1710331 8.395498 18.706596
-15.723822 17.21333 34.16925 -1.2925563 6.744625 30.63332 -10.232237 1.6148808
30.03635 13.532084 35.594345 19.226364 56.12857 21.467129 -8.999707 -27.151459
5.485103 16.28332 0.5091618 17.671103 25.814554 -3.2776034 -13.057219 12.588861
6.942884 5.7152696 -0.4974185 44.267212 -27.91763 18.773731 -1.5856857 8.922774
26.982397 5.340148 18.078407 -19.188232 21.033884 7.7305818 -26.025986 8.958181
12.251805 6.1913204 4.7403674 -17.368244 4.016857 16.407583 14.296638 31.276072
27.207008 -11.306033 20.876846 34.37791 16.403202 -13.115639 4.1816936 5.3417788
-6.402129 14.209071 49.071968 -2.8459544 -15.829999 10.488544 21.72087 1.6843779
-4.388822 5.0956 6.1263356 -1.0748699 -16.895199 20.165812 -15.435602 -4.708828
-4.985206 4.0500603 -11.421235 23.730043 19.994843 16.672451 12.097173 6.6827087
-10.914117 -3.9142172 23.327652 -12.474005 10.694102 10.897949 1.0131239 7.6608124
35.265858 -7.602469 -20.232695 -1.3302654
00000000: 9f36 d5c0 c73b 1941 8a99 8f40 56c1 4f40
00000010: 8324 0a42 35f2 4ac0 f653 0641 1ca7 9541
00000020: c694 7bc1 e6b4 8941 50ad 0842 7c72 a5bf
00000030: f8d3 d740 0a11 f541 3eb7 23c1 6ab4 ce3f
00000040: 724a f041 6b83 5841 9c60 0e42 98cf 9941
00000050: a883 6042 aebc ab41 cdfe 0fc1 3036 d9c1
00000060: f785 af40 3d44 8241 6d58 023f 6b5e 8d41
00000070: 3584 ce41 41c4 51c0 5eea 50c1 fa6b 4941
00000080: 1b2c de40 7de3 b640 a3ad febe a011 3142
00000090: 4e57 dfc1 9a30 9641 c0f7 cabf afc3 0e41
000000a0: f3db d741 7ee2 aa40 94a0 9041 8081 99c1
000000b0: 6545 a841 ed60 f740 3835 d0c1 b654 0f41
000000c0: 6507 4441 4c1f c640 17b1 9740 2af2 8ac1
000000d0: 188a 8040 bb42 8341 07bf 6441 6535 fa41
000000e0: f4a7 d941 83e5 34c1 c803 a741 fb82 0942
000000f0: c239 8341 a8d9 51c1 6fd0 8540 daef aa40
00000100: 3ede ccc0 5b58 6341 b249 4442 1e24 36c0
00000110: ad47 7dc1 14d1 2741 57c4 ad41 b299 d73f
00000120: 3b71 8cc0 280f a340 f10a c440 5695 89bf
00000130: 5e29 87c1 9553 a141 3af8 76c1 b8ae 96c0
00000140: cf86 9fc0 189a 8140 61bd 36c1 21d7 bd41
00000150: 70f5 9f41 2e61 8541 058e 4141 c0d8 d540
00000160: 39a0 2ec1 8982 7ac0 089f ba41 8695 47c1
00000170: 0b1b 2b41 005e 2e41 0bae 813f 6025 f540
00000180: 3d10 0d42 6d47 f3c0 8fdc a1c1 2346 aabf
