corintho_ai/rating/tflite_models/model_34.tflite (tflite, 521576 bytes, 27 tensors)

model/dense_1/MatMul;model/activation_1/Relu;model/dense_1/BiasAdd f4 [100]
00000000: c9af f9c1 f435 a642 153a 26c2 59e9 393d
00000010: cfbd 3742 a833 c841 34e2 5142 7867 e2c1
00000020: ace5 11c2 0c10 f940 9d70 5e40 1ec0 0fc2
00000030: 856e 6040 8605 d7c1 61b9 29c0 cea2 4ac2
00000040: aa29 1a41 0c9a 8b40 9ac2 28c1 06d1 08c0
00000050: 8699 0341 957a cd40 b0c9 3c41 5e1a 2dc2
00000060: 10a7 3d42 ed86 e2c0 e34c 92c1 96ec cac0
00000070: 4321 ebc1 2b43 d341 5e92 d6c1 d864 0cc1
00000080: 84c6 9441 84f6 c3c1 6f80 4842 b1c3 1a42
00000090: 5acf 9c40 df78 b1c1 0449 2540 940e c141
000000a0: 2e58 4442 1b00 1ec1 15a1 06c2 7c07 14bf
000000b0: f1f8 2641 f931 63c1 e78c 8940 0451 b6c1
000000c0: 8e42 f0c0 5d40 83c1 54ab 6741 fa32 0bc2
000000d0: e89b fa40 f219 c742 5514 1cc0 1c56 ba41
000000e0: 4ae5 6e41 a7b0 0ac1 0108 ab41 58b2 0ac1
000000f0: 597e 4641 6542 2a42 9b5a 6b40 9aa2 b241
00000100: ede2 2042 04f5 3b42 621e 9742 43a9 2e41
00000110: 7c89 63c1 873e 3bc2 9e83 8ac0 27a8 8bc1
00000120: f0e1 1d41 94a1 5442 c57d 63c0 839c 3842
00000130: 5729 9dc0 aa48 c23f 1694 7cc2 915f 12c0
00000140: 96c8 4340 797a ff41 ba59 5740 9079 7fc1
00000150: 849c a2c1 7e77 4142 7734 2141 2e34 67c1
00000160: 5049 4f42 f97d 0942 025c 8d42 f22c 1941
00000170: 7368 3d42 be61 9a40 daa1 cabf 6e0a 0b41
00000180: 9459 bc42 903e 9141 ad05 1441 c762 88c2
-31.210833 83.10538 -41.55672 0.045388553 45.93536 25.025223 52.4709 -28.300522
-36.47429 7.783209 3.4756234 -35.937614 3.5067456 -26.877697 -2.6519396 -50.65899
9.635172 4.3625546 -10.54751 -2.1377578 8.224981 6.4212136 11.79924 -43.27575
47.413147 -7.0789704 -18.287542 -6.34138 -29.391241 26.407797 -26.821468 -8.77462
18.596931 -24.495369 50.125423 38.691105 4.9003115 -22.18402 2.5825815 24.132118
49.086113 -9.875026 -33.657307 -0.5782392 10.435777 -14.1997 4.29845 -22.789558
-7.5081244 -16.406427 14.479328 -34.79978 7.8315315 99.550674 -2.438741 23.292046
14.930979 -8.668128 21.378908 -8.668541 12.405847 42.56484 3.677405 22.329395
40.221607 46.989273 75.55934 10.916324 -14.2210655 -46.81106 -4.3285666 -17.457106
9.8676605 53.15779 -3.5545514 46.152843 -4.9112964 1.5178425 -63.144615 -2.287083
3.0591178 31.934801 3.3648515 -15.967178 -20.326424 48.36669 10.075309 -14.450239
51.821594 34.37302 70.6797 9.573473 47.352 4.8244314 -1.5830643 8.690046
94.17496 18.155548 9.251386 -68.192924

model/batch_normalization/batchnorm/mul_1;model/batch_normalization/batchnorm/add_1;model/dense_1/MatMul;model/activation_1/Relu;model/dense_1/BiasAdd f4 [100, 100]
00000000: 0715 0f3e e149 09bf a29f 113f e53c 183e
00000010: 7c4c c03f a9e1 c53e 0239 65bf 2ed5 5ebf
00000020: 6e5f ca3d d6f4 253f 2bfc 053f a18a b43e
00000030: 7ad2 0a3f c48d c03d b25b d0be 834b 613d
00000040: 9b2e 413e fbac a1bf b13b 403e e352 33be
00000050: a12f 913d b7ba 8a40 98e1 8e3d d79a 09bc
00000060: 9be5 6abe 190f 023d 118f 5a3d 263a 0fbf
00000070: 06c6 883e cfd6 99be 466a e9bd 122f 273f
00000080: 76d1 943d 5c91 84be 3b91 89be 919d 3fbd
00000090: e459 10bd e2d9 29be 3652 28bc b02c 523e
000000a0: e55e 283f 793f 843f 4603 0c3f 7476 2c3e
000000b0: bcfc 91be feb3 19be 6366 5c3e ff47 23be
000000c0: 8e84 293f 4bd2 85bd 25f6 97bd c682 d8bf
000000d0: 5c05 123f d5fb 7240 7573 2d3e 4613 32bc
000000e0: 90ee 9abd 5b92 e13e b401 c43f d4d9 df3e
000000f0: 4404 953e 3cbd 8cbd cb44 a33d 431d 5bbf
00000100: 89b6 cf3e 274b 8fbe 4f89 6cbe cf24 803e
00000110: 1511 e0bd 6699 313f 0b70 1a3f c196 44ba
00000120: 3ff2 bfbd 38e1 833d a5bd 3e3f 2cbd 95be
00000130: 5ae8 afbe 02f9 d4bd 778d 3cbe 339d e63e
00000140: 5b67 cfbe 33ad 893e 6be7 01bf 5b83 37be
00000150: 4444 c4be 458c 90bc 2025 40be d5bd 02bf
00000160: 42df 99bd 71c4 08be 6723 56bf bf5f 533f
00000170: 4653 5f3e 902c fabe 549b 0bbe 549c 533e
00000180: 8d95 793e 1627 c1bd 0a86 b9be 6640 b7bd
00000190: 5092 35bf 0b0b 80bf 4c25 80be 7e88 103c
000001a0: 354b 8ebf 730e ec3f 51e4 963e 93e8 a33e
000001b0: 978a 893d 9540 88be 249c fd3e e033 bb3d
000001c0: 15e9 85bf dfee e8bd 55c3 adbe 7e5c 2fbf
000001d0: 6cc9 1f3d 98ba b0bf e7de 26bf 0123 963c
000001e0: ffb8 4fbf 07ea 8cbf a453 d8bd 9145 f5bd
000001f0: cdba 1cbe f7a5 f1bd c356 9cbe a0a9 693d
00000200: f50c 8bbe f299 323e 80b7 ba3d 51cb a33e
00000210: b963 ab3d 8421 e6bd 95e5 30be f396 f43e
00000220: a0b5 b7be c43c e4bf 622c 21bf 6a80 22bf
00000230: cbca a43d af1c 12be 67dd 6abf 7557 59be
00000240: 2ae6 43be 1530 6fbf c522 013e 5528 883d
00000250: e23d b4be 1f9f 403e 7733 bdbc dae9 1740
00000260: 4715 7bbe 0b65 543f 7d56 313e 0d91 4bbe
00000270: 45d1 babe 6a22 5d3f 67f1 c33e bdac bf3e
00000280: ff0b 5d3e 6e32 bc3e 6055 793b 8162 47bf
00000290: a4a2 5ebf 4537 e5be 84b9 2d3e 18df 653f
000002a0: 6a86 edbd 20e7 19be c097 a8bd 02eb f03e
000002b0: 5c00 c03d 5465 c53d 6865 21be 63fd 0bbe
000002c0: 4579 06bf 451b 0fbf 15ba 003f 9f7b bb3d
000002d0: e2a7 833d 1b80 20bf f338 713e 9daa 213e
000002e0: 8cf0 b5bd 238c 213e 9798 163d 85dc 393e
000002f0: 59ed e73e d200 a1bd a20b 55bf ce5e 593f
00000300: 21df 1cbe a94f 01bf 1024 1abf 415c 513d
00000310: 5707 d6bd ea69 73bf d9d4 2bbf b723 f8be
00000320: 2110 503f b354 08bf 985a 9a3d a984 163d
00000330: df06 253f a4c2 4cbd ed67 663f 5802 8fbf
00000340: 2098 60bf 1023 11bf 7638 5bbe f2b8 b43f
00000350: 09ee 2b3c e427 473e ed34 f5bd 0892 f03e
00000360: c786 9f3e 52bd aebe 1e48 84bf 19dd a8be
00000370: 00aa e0bd 7f65 c6bf dabb 79bd adcf 7c3e
00000380: 2bec 013c 39ab 433d e0d5 a1be b9ce b03e
00000390: d807 1c3f f7a9 7a3f 67cd 483f 45e5 363f
000003a0: 3acf 5ebd a7da ba3e c8bf 7f3f 46cf e23b
000003b0: e3f9 9bbc 0560 7c3e 334e ef3e ed0b 32bf
000003c0: 060c 273e 3db6 4fbd 9b02 6b3f ed74 723e
000003d0: 82fe 0f3e 3250 8dbf bab8 3a3f 149c a1bd
000003e0: 6fcd abbf b006 a73d 714a a63d 78f0 613f
000003f0: 3b0e c03e aa2c fabd 0c22 2c3d 880e dc3d
0.13972865 -0.53628355 0.56884205 0.1486698 1.5023341 0.38648728 -0.8954011 -0.87044036
0.09881483 0.64826715 0.523379 0.35262015 0.5422741 0.0940204 -0.40694958 0.055003654
0.18865435 -1.2630914 0.1877277 -0.17512088 0.070891626 4.3352923 0.06976622 -0.008398733
-0.2293915 0.03175268 0.053359095 -0.559481 0.2671358 -0.30046698 -0.11397223 0.653062
0.07266514 -0.2589215 -0.26868615 -0.046781126 -0.035241976 -0.16587022 -0.010273507 0.2052486
0.657698 1.033187 0.54692495 0.16842061 -0.28513134 -0.15010068 0.21523432 -0.15945433
0.6621789 -0.06534251 -0.07419995 -1.6914909 0.5703943 3.7966206 0.16938575 -0.010868853
-0.075650334 0.44056973 1.531302 0.43720877 0.29104817 -0.06872031 0.079721056 -0.85591525
0.4056895 -0.27987024 -0.23099254 0.25028083 -0.10940758 0.6937469 0.60327214 -0.0007499271
-0.09372377 0.064394414 0.74508125 -0.2924589 -0.34356958 -0.10399057 -0.1841334 0.45041808
-0.4050854 0.26889953 -0.5074374 -0.17921202 -0.38333333 -0.01764501 -0.18764162 -0.5107091
-0.07513286 -0.13356186 -0.8364777 0.8256797 0.2180911 -0.48862123 -0.13633472 0.20665103
0.24373455 -0.09431283 -0.36235076 -0.0894783 -0.7092638 -1.000337 -0.25028455 0.008821605
-1.1116701 1.844191 0.29471067 0.32013378 0.06715887 -0.26611772 0.49533188 0.09140754
-1.0461756 -0.11373686 -0.3393809 -0.68500507 0.03901045 -1.3806944 -0.6518387 0.018327238
-0.81141657 -1.100892 -0.10562828 -0.11976159 -0.15305634 -0.117992334 -0.30534944 0.057046533
-0.27158323 0.17441538 0.09117031 0.31991056 0.0836863 -0.11236861 -0.17275079 0.47771415
-0.35880756 -1.7831044 -0.6295835 -0.63477194 0.08046492 -0.14268754 -0.91744083 -0.21224768
-0.1913077 -0.9343274 0.1261092 0.06648318 -0.35203463 0.188107 -0.02309583 2.3736482
-0.24519835 0.8296668 0.17318149 -0.19879551 -0.36487785 0.86380637 0.38270113 0.37436476
0.21586607 0.36757225 0.0038045272 -0.7788468 -0.8696692 -0.4476873 0.169653 0.8979354
-0.11597903 -0.15029573 -0.08232069 0.47054297 0.093750685 0.096384674 -0.1576134 -0.13670878
-0.5252879 -0.55900985 0.5028394 0.09154438 0.064285055 -0.62695473 0.2355688 0.1578774
-0.08883771 0.15776114 0.036766615 0.18150528 0.4529827 -0.078614846 -0.83220875 0.84910285
-0.15319492 -0.50512177 -0.60211277 0.05111337 -0.10450619 -0.9508349 -0.67121655 -0.48464748
0.8127461 -0.5325424 0.07536811 0.03674761 0.6446361 -0.04999031 0.9000233 -1.117259
-0.87732124 -0.56694126 -0.21408257 1.4118941 0.010493764 0.19448811 -0.119729854 0.46986413
0.31157514 -0.34128815 -1.0334508 -0.32981184 -0.10969925 -1.5499724 -0.060970165 0.24688597
0.007929842 0.047770713 -0.31608486 0.34532717 0.6094947 0.97915596 0.7843842 0.7144359
-0.054396845 0.36494943 0.9990201 0.0069216816 -0.019040054 0.24646004 0.4673935 -0.6954945
0.1631318 -0.050710905 0.9180085 0.23677416 0.14061931 -1.1040099 0.7293812 -0.07891098
-1.3422068 0.081555724 0.08119667 0.8825755 0.37510857 -0.1221555 0.042024657 0.10744959

model/dense_2/MatMul;model/activation_2/Relu;model/dense_2/BiasAdd f4 [100]
00000000: 319b 2442 6df8 61c2 d15a 6c3f 6433 38c2
00000010: 2c17 e6c0 cf03 6a41 a07b f741 f8b1 df41
00000020: 17bf 2ec1 8288 50c0 826e 09c1 7318 21c1
00000030: 4fa0 e6bf 79d1 5541 1ac6 1041 83a9 29c2
00000040: 1f76 e5c1 4916 e33f c9cb bdc0 9a75 f640
00000050: 0a66 e241 7b34 2341 1224 8d41 c8ab 7a41
00000060: e832 c73e 358a 0541 c7fb cf3f 1341 0242
00000070: 788a 66c1 64c1 b140 aa05 50c1 0862 2541
00000080: 940e c841 898e 9cc1 c7f2 b241 e00f e9c1
00000090: fe4a 5442 c518 8fc1 7b37 92c1 e77a 9cc1
000000a0: 05a7 7540 350b 09c2 a911 66c0 169d 81c1
000000b0: 1143 64c1 3586 e341 b77d 6ec1 aecc 29c1
000000c0: 782e 28c2 9df4 5941 ca55 3342 20a3 4a42
000000d0: 9f5f a6bf 42fe 77c0 7980 e540 ff1c 2ac1
000000e0: e5d3 bb40 094c 3642 76af ad41 3116 bac1
000000f0: 1f5b 2ec1 be87 7840 67ac 253f 385a a942
00000100: 4c59 0042 f92a 2441 af2c 22c2 5912 99c1
00000110: 0176 19c1 b35a fc41 7502 d7c2 aed3 3e41
00000120: 7355 20c2 0279 d541 d101 99c1 7117 aec1
00000130: a888 4841 3551 9ac1 0352 edc1 d01b 9a41
00000140: 3722 1a42 b324 4b41 607a a241 8d05 7541
00000150: c68a d0c0 641c 22c2 b737 3ac0 e9b4 c441
00000160: 8d8c d341 353b bb41 4dfc f9c1 fd83 f640
00000170: 8ea8 bdc0 cbcb 2640 b446 d3c0 8204 2342
00000180: 93d1 1842 2efb bf41 a842 0f41 ec6c 9bc0
41.151554 -56.492603 0.92326075 -46.050186 -7.1903286 14.62593 30.935364 27.961899
-10.921653 -3.2583318 -8.589479 -10.068469 -1.8017672 13.363641 9.048365 -42.41554
-28.682676 1.7741176 -5.931126 7.7018557 28.299824 10.200313 17.642612 15.666939
0.38906026 8.346242 1.6248711 32.56355 -14.408806 5.5548573 -13.001383 10.336433
25.007118 -19.569597 22.368544 -29.132751 53.073235 -17.887094 -18.27709 -19.56001
3.838319 -34.260944 -3.594828 -16.201702 -14.266374 28.44053 -14.905692 -10.612471
-42.04538 13.62222 44.83378 50.6593 -1.2997931 -3.8748937 7.1719327 -10.632079
5.869616 45.574253 21.710674 -23.260836 -10.897246 3.883285 0.6471619 84.67621
32.087204 10.260491 -40.543636 -19.133959 -9.59131 31.544287 -107.5048 11.92668
-40.083447 26.684086 -19.125887 -21.761446 12.533363 -19.289652 -29.665045 19.26358
38.533413 12.69646 20.309753 15.313855 -6.51694 -40.527725 -2.9096506 24.588335
26.443628 23.40391 -31.248194 7.703612 -5.9268255 2.6061885 -6.6023808 40.754402
38.204662 23.997646 8.9537735 -4.857046

model/batch_normalization_1/batchnorm/mul_1;model/batch_normalization_1/batchnorm/add_1;model/dense_2/MatMul;model/activation_2/Relu;model/dense_2/BiasAdd f4 [100, 100]
00000000: 1d2a 0cbe 5554 45be 426d 443e e8a8 a2bd
00000010: c989 5cbe d45b 49be b0dc 163e ba01 963d
00000020: 9df9 6a3e 2056 32bc 4779 0b3e 9ed2 163e
00000030: 3e37 fe3d 45e2 13be 7047 76be 2679 9f3d
00000040: be09 913c f64b 9ebe 4ca1 313e ca79 b3bd
00000050: 22b0 f9bd 3e71 56bd 5ad5 fc3c 6c73 353e
00000060: 7cf9 bcbd 7c6f a4bc 9133 18bd e152 113d
00000070: 0ab9 9bbd 4a51 11be e852 3abd 3a94 18bc
00000080: fc54 a6be c5ce 6d3c 94f9 65bc f96e 793e
00000090: 3e53 75bd 232a 333d 9a2c 913d d3d9 80bd
000000a0: 6b32 bebc 423d 3bbe 1704 73be 482f ac3d
000000b0: a964 80bc 4e62 cb3c 3eac 39bd f2ed 67bd
000000c0: 0d5b b7bd 23ea cfbb e1ea 7e3d 6b98 6c3d
000000d0: f5c5 ff3c aa20 0fbd e12e 94bd 8289 7fbd
000000e0: 87e3 ce3d 87c7 f63c a973 7a3e 7d40 f5bc
000000f0: 0e99 7a3e a5ef 1bbe ad79 7b3c db5e 80be
00000100: 2556 4f3c cc69 483d 6aaa 1c3d 0b21 adbd
00000110: 4dd6 0abd 10f2 403d 5e3b 80be 0f6c 00be
00000120: f238 35bd 5acd 25bd 6b58 64be 8c95 17be
00000130: f808 75bb e37b 903a 909f a8bd e02b 9cbe
00000140: 3de0 933c ccd2 7cbd 9c1c 773d 8741 9c3d
00000150: 901e 6cbd 7e97 86bc dac2 af3d f278 b5bb
00000160: 5f7e 25be adbc 81bd 318a 833d 58df 15bd
00000170: 9647 debd 45b4 2abe 1595 f3be cfea c63e
00000180: ef52 523e ad49 02bf 89da 9f3d 599d 72be
00000190: ac60 27bd 88d5 6d3d b58d ae3d 5d4b 90bd
000001a0: febf dd3d 1688 7a3d 76d5 f23d d1bf 1b3d
000001b0: 3ea1 c13c 3585 1a3d 3b59 4e3c 0987 81b9
000001c0: 8bc0 fabc 63a2 5dbd e32f 5a3d d8d0 d03d
000001d0: a442 d0bc 3dd3 9bbd 5233 e3bd ce6b f1bd
000001e0: 0518 f1bd 0618 dfbc 29a8 c43c 2694 773d
000001f0: 4a82 9d3d 62ac f33c 4756 37bd 7e2b 90bd
00000200: f5c7 8abd 9cd7 493d 9376 433e ee8e b33e
00000210: 458f d03a 4585 323c 45c2 593d aab6 acbd
00000220: 9a12 aa3c 8800 283d 553b d2bd 0aab 8a3c
00000230: 9a47 cebb a5e8 54bd 5cb1 a1bd 25f2 343d
00000240: 6437 f53d 8133 a93d f68b 483c afed 8c3d
00000250: df13 1c3e cfbd bc3d 24f7 773d 1c90 b4bd
00000260: 2e58 623e 997e 513f 32fd e43d 61a4 debc
00000270: 1bc3 223e d4b6 c23c 929c b6bd c82b dbba
00000280: 51cf 12bd 491b 35be e826 bc3e 0298 10bd
00000290: 148b f7bc 2f8c 9a3d c634 0ebe 89d9 a5bc
000002a0: 9e6f 563c 92af 57bd 1fac bfbd d5bb 633d
000002b0: 2ee8 e9bc ae86 7b3e 8c23 1a3d 83be efbd
000002c0: 86ef 57bc ff55 ca3d 885f 9ebc 5ba7 b3bd
000002d0: ec78 0a3d 3717 6abc 50d3 ae3d 231c ec3d
000002e0: abf7 5bbc a9a1 e3bb f6c9 35bd 0f3e 9b3d
000002f0: f507 78bd 76b3 a93d d7bc 033f d10c 45bd
00000300: 28a0 3abe b9a8 673e 1fcf cebc 3ff1 1fbe
00000310: 3f53 52be 01ad dfbc 7768 99bd 4695 7bbe
00000320: ee95 bd3e fda5 3f3e 869a 723c 1940 ef3d
00000330: 201f b5bc 5533 a3bb d539 d73d f29f 3dbd
00000340: a04f e0bd a620 1b3e feda 1b3d c0fb 7c3d
00000350: 5123 6ebc 153c b2bd 9731 d33c 150c 52be
00000360: 47fb 3b3d f21f 44ba ccda edbd 621c 4b3d
00000370: 0f17 453e 25cc fb3c 4b11 503d 80e8 093d
00000380: c2ef 65bd 401f 923b 0b0e 59bd 178a bbbd
00000390: c9b1 fd3c 2a7d a83d 296c 9f3c 1e51 1a3e
000003a0: ef6f ecbc 7d75 37bc fc40 24be d4a7 07bd
000003b0: 2687 4f3d 3b5b 433d 1d04 21bd 8fdf 593d
000003c0: 1882 223d 2f93 d63e ba9d c0ba 02a4 3e3d
000003d0: e4c1 183e dc5d 393d 3255 0bbd 2ed7 e1bb
000003e0: 1a5b cabd 75b7 61bd e033 7c3d ade5 9abc
000003f0: fd48 47bd 1ffe fcbb 3732 31be 404c 203c
-0.1368794 -0.19270451 0.19182304 -0.079423726 -0.21536936 -0.19663936 0.14732623 0.07324548
0.22946782 -0.010884792 0.13620482 0.14728782 0.1241288 -0.14441784 -0.24050689 0.07786779
0.01770484 -0.3091733 0.17346686 -0.08763464 -0.12191798 -0.05235409 0.030863453 0.17719811
-0.09227273 -0.020072691 -0.037158553 0.03547943 -0.07603653 -0.14191166 -0.04548922 -0.009312684
-0.32486713 0.01451463 -0.014036555 0.24358739 -0.05989384 0.043741357 0.07088585 -0.06291547
-0.0232174 -0.18285087 -0.23732029 0.08407456 -0.015672999 0.024827149 -0.04533028 -0.056623407
-0.089529134 -0.00634505 0.062235717 0.057762545 0.031222323 -0.03494326 -0.07235504 -0.062386997
0.10101991 0.030124439 0.24458183 -0.029937977 0.24472448 -0.15228136 0.015348834 -0.2507237
0.012654816 0.04892902 0.038248457 -0.08453568 -0.03389578 0.04710585 -0.25045294 -0.12541221
-0.04424376 -0.04047904 -0.22299354 -0.14803141 -0.003738938 0.0011023249 -0.08233559 -0.30502224
0.018051261 -0.06172447 0.06033002 0.07629686 -0.057646334 -0.016429659 0.08582087 -0.0055380994
-0.16161488 -0.06334815 0.06422842 -0.03658995 -0.10853498 -0.1667033 -0.47574678 0.3885102
0.20539449 -0.5089367 0.07805354 -0.23692836 -0.040863678 0.058064967 0.08523122 -0.070456244
0.10827635 0.061164938 0.11857121 0.038024727 0.023636457 0.037724692 0.012594516 -0.00024705406
-0.03060939 -0.054109942 0.053268325 0.10196084 -0.025422402 -0.0760865 -0.11093773 -0.1178814
-0.117721595 -0.027233135 0.024005966 0.06044402 0.07690866 0.029745284 -0.044760015 -0.070395455
-0.0677642 0.049277887 0.19088201 0.35069984 0.0015911838 0.010896032 0.053163785 -0.08433278
0.020760823 0.04101613 -0.10265223 0.01692726 -0.0062951567 -0.05197968 -0.07895157 0.04417624
0.119734555 0.08261777 0.012240401 0.06881272 0.15241955 0.092158906 0.060538426 -0.08816549
0.2210395 0.818338 0.11181106 -0.027177991 0.1589474 0.02376882 -0.08916582 -0.0016721422
-0.035842244 -0.1768619 0.36748433 -0.035301216 -0.030217685 0.07546269 -0.13887319 -0.02024533
0.013088135 -0.05265767 -0.09359001 0.055599052 -0.028553095 0.24563095 0.037631556 -0.11706259
-0.013179665 0.09879684 -0.019332662 -0.08772155 0.033806726 -0.014287761 0.085363984 0.11528804
-0.013425748 -0.0069467616 -0.044382058 0.07580196 -0.060554463 0.082861826 0.5146002 -0.048107926
-0.18225157 0.22622956 -0.025245247 -0.15619372 -0.20539568 -0.027304174 -0.07490628 -0.24568662
0.3702845 0.18715663 0.014807349 0.116821475 -0.022109568 -0.0049804845 0.105090775 -0.046295114
-0.10952687 0.15149173 0.038050644 0.061763525 -0.014534787 -0.08702866 0.025780482 -0.20512421
0.045893934 -0.0007481567 -0.11613998 0.049587615 0.19247077 0.030736992 0.05079774 0.033668995
-0.056136854 0.0044592917 -0.052991908 -0.09157198 0.030968564 0.08226998 0.019460754 0.15070006
-0.028861968 -0.011197445 -0.16040415 -0.033119038 0.050665997 0.047694426 -0.039310563 0.053191718
0.03967485 0.41909167 -0.0014695444 0.04654313 0.14917713 0.045255527 -0.034016795 -0.0068921065
-0.098806575 -0.0551066 0.06157291 -0.018908346 -0.04865359 -0.0077207233 -0.17304312 0.009783804

model/dense_3/MatMul;model/activation_3/Relu;model/dense_3/BiasAdd f4 [100]
00000000: dc72 03c1 8d17 ef41 57eb 0bc1 815a 79c0
00000010: 3bcb 6c41 92b9 c5c0 a88c 0c40 487c 2c41
00000020: 6c99 8f41 57d2 0a40 6045 c141 31ac 0e42
00000030: d196 e941 2a84 1641 0920 f740 3000 2b40
00000040: 6cd2 f6bf 8a7a d840 1a27 b840 0228 2f40
00000050: 77e4 6341 27ab 82bf b467 1240 b91e bd41
00000060: 6069 e941 6030 0342 8dbc e841 d45c 523f
00000070: 4c86 4dc1 696e cec1 6ac9 1a40 4031 6d41
00000080: e87f 8741 1cb0 c5c0 75f7 1c3d e524 4042
00000090: 1c7f 15c1 daf5 cd41 1ce2 c4c1 eb01 3841
000000a0: be80 c941 1679 b041 88a5 0442 cb4b 97c1
000000b0: 74a5 1441 bd0f 4340 ab3c 6ec1 2a57 aebe
000000c0: 7bd6 7041 c55b 3640 97f1 9c40 94a9 a7c1
000000d0: 38e4 1bc1 ce84 86c1 7088 9cc1 8bed a041
000000e0: 28a0 14c1 3a18 d8c0 6fdb 9740 ae8a 9341
000000f0: 7c56 823e e0fa 3d41 db97 a9c0 e7f9 cf41
00000100: d26c 55c1 426b 8141 a54e 7640 cbc9 0ac0
00000110: fe31 1041 9fc2 f040 1284 a540 b0e1 7e41
00000120: 37b0 f740 2813 93c1 4936 8d41 4e3a 3bc0
00000130: 9b7c 74c1 9355 cf40 2e08 26c1 7ff2 03c2
00000140: 2b43 7ac1 34aa cb3f 89a9 ffc0 297e 6341
00000150: 3d76 6ec1 b0f8 37c1 4c56 6b41 09d7 4640
00000160: 8f7d 2bc1 0dcf 5241 a898 a8c0 7af0 8041
00000170: a03f cfc0 fdcf ea3f 9d0b 6841 dd7a 29c2
00000180: 891c dfbf 73c8 2741 fcb5 7a41 bb76 80c0
-8.215542 29.8865 -8.744956 -3.896149 14.799617 -6.1789026 2.196085 10.780342
17.949913 2.1690881 24.158875 35.668156 29.19864 9.407267 7.7226605 2.6718864
-1.9282966 6.7649584 5.754773 2.736817 14.243278 -1.0208482 2.2875795 23.640001
29.176453 32.79724 29.092066 0.82172894 -12.845287 -25.803911 2.4185433 14.824524
16.937454 -6.1777477 0.03832193 48.03603 -9.343533 25.745045 -24.610405 11.500468
25.187862 22.059124 33.16165 -18.912008 9.290394 3.0478356 -14.8898115 -0.34050876
15.052363 2.8493512 4.904491 -20.957802 -9.743217 -16.814846 -19.56662 20.115988
-9.289101 -6.7529573 4.7455363 18.442715 0.25456607 11.873749 -5.299787 25.997023
-13.339067 16.177372 3.84855 -2.1685665 9.012205 7.5237575 5.172372 15.9300995
7.7402606 -18.384354 17.651506 -2.9254336 -15.280421 6.479196 -10.376997 -32.986813
-15.641398 1.5911317 -7.989445 14.218301 -14.903867 -11.498215 14.708569 3.1068747
-10.718154 13.1755495 -5.268635 16.11742 -6.4765167 1.8344723 14.502835 -42.369984
-1.7430583 10.486438 15.66943 -4.0144935

model/batch_normalization_2/batchnorm/mul_1;model/batch_normalization_2/batchnorm/add_1;model/dense_3/MatMul;model/activation_3/Relu;model/dense_3/BiasAdd f4 [100, 100]
00000000: 3642 043e 6202 4cbd a7d6 05bd c17d 623d
00000010: 0e67 afbc ca90 02be a26a 49bd 90fd 063e
00000020: 4721 1fbd f0d4 6e3e 1ab0 3cbe 30f2 e6bd
00000030: 6b0c 33be 2f25 d4bc 6269 5a3e b3f4 e3bd
00000040: 8bf4 18bd 778b 5b3e 15f7 3a3d 48da e13d
00000050: dd08 e8bd 91fd 433c af06 d23e d806 0abe
00000060: 1e92 fdbb af29 06bd 49b7 183e 4590 0c3d
00000070: ae67 76be a356 2cbe 1199 55bd 7e1d 07bc
00000080: dc41 b8bc 3c7b a0bc f633 30be e23a 3abc
00000090: 2d27 e63d f7d4 f3bd df7d cebc 86d7 d9bb
000000a0: 7c2f 97bd bd66 d4bd a3f7 8cbc e209 453d
000000b0: 4b5e 0e3b a028 a7bd 4223 7d3c a04a 8cbe
000000c0: e6f6 843d 7f11 533e ac88 0fb6 f07f ab3c
000000d0: 6811 123e 8305 b53d 2bea 56be c65c 143d
000000e0: f8ed 40bd fe01 313e ab86 213e c131 5fbe
000000f0: 7e1b 4fbe 0f63 993e 421a 473e ba86 02be
00000100: a313 143d 402c 25bd 6949 6ac0 5956 abbd
00000110: a48d 9abb a50f 5d3d 83b3 8e3d 28e1 debd
00000120: 8960 8abd e0d5 9fbc acad 3b3d 7fba 0d3d
00000130: c2ec 09be d894 e1bd e7fb e5bd bf14 a63d
00000140: a1ed 44bd db4b 14be 4fa4 3dbe 0dae eb3c
00000150: 3112 043d eeea 0039 818b 1b3d a267 58be
00000160: 2b7a 483e 209b f33e e588 b0bd 0a64 69be
00000170: 156e 383d 55e6 dd3d 792f 2c3e 5f5b 84bd
00000180: 105c 213d 02e0 a8be 3f03 07be 18b8 42bd
00000190: 7071 6dbe 17d2 553d 69e2 72be 07eb 4fbd
000001a0: a067 a5bd 7de9 ae3d e3ea 6c3d 1fd9 bb3d
000001b0: eef4 21be d2e1 bbbe 3e4a 413d 26d4 4e3e
000001c0: 2f30 22bd de6d a2bd ec67 893e 8c10 8fbd
000001d0: 8ddc 3b3a bcd0 1abd a5b2 3ebe aad5 7bbd
000001e0: b89e e03c 0480 663d e3fa 2dbe 6deb c2bd
000001f0: 7577 db3c e82f 3cbe e525 383e 75b0 d53d
00000200: 6193 063d 0c87 92bd 869b 25be 183e 8d3e
00000210: b5fe 783d ea1f 293e 2911 f3bd 82c8 eebd
00000220: cc29 3e3d 7f30 a13d 700f 303d d5b3 9f3e
00000230: 1235 03be 3a89 6fbd 6639 0abb fa14 84be
00000240: ffa8 373d e8fd 023e 6e37 c13d 9bc6 fbbe
00000250: f5d8 003e 961d 8dbe 6820 34bd a4c2 303e
00000260: fb92 49bd eb59 65be 0526 24be 08fc 88bd
00000270: 3738 a03d 1264 153c 563a 6abe 96c1 3a3e
00000280: f46e 6f3e b76c 4c3e dbcf 21bd da21 2cbe
00000290: 875a 42bd c117 08be cc10 423e db51 36bd
000002a0: e5a3 273d 84c5 2fbe ba58 0cbe 8d3c 0a3e
000002b0: 9bc0 9a3d fcdd 633d 5921 82bd fddc 0d3c
000002c0: 28b2 d6bd 1e00 54bd fae3 8c3c 45d9 353e
000002d0: 5730 bebd 12db 36be bca6 1e3e 844c 4ebe
000002e0: 4ed7 61bd 945a 273d 58f1 993e a5da 9ebe
000002f0: 669b 11be 4051 0b3d 866b f13d 2558 49bb
00000300: 5388 d63d c322 71bd 272c 5cbd e8e0 20bd
00000310: 0caf ab3d 0cfc a4bd 8b1e 81bd 52a1 803b
00000320: 3f98 913d cac7 c63d 29b5 14be c3b3 82bd
00000330: cbc5 64bc c175 883d 20a2 113e ab6c 983d
00000340: a140 753d 5bf9 82bd e91a 16bd f8b5 7b3e
00000350: c1e5 893d ec0d 34be 5365 863d fd61 883e
00000360: 7c07 a53e 5a6d 203d 5c32 1abe 467d f63d
00000370: bf5d 8cbd dd50 b53d a100 923c 4ec8 bcbd
00000380: db86 ecbd 23bc 833c 4b48 633b fa9d 713c
00000390: 93c1 f0bd 1fe7 4ebe e84d 5dbd 29b6 8dbd
000003a0: e497 eebd 6fa8 993d 4a67 4b3c f210 edbd
000003b0: 9a3d 213e f396 1a3e 0940 9e3c 9b81 e8bd
000003c0: 6c3d 953d d722 cebd 2952 15be 1bb1 da3d
000003d0: b20b 01bd 37fe 28be 912d 85bd 1e8a cdbd
000003e0: d8bd 29be 2290 05bd 1c06 87be c8c3 62bd
000003f0: 5ac2 a53d cb1d 06bd 37b1 bfbd 7d80 3dbd
0.12915882 -0.04980696 -0.03267541 0.05529571 -0.021411445 -0.12750545 -0.04917396 0.13182664
-0.038850095 0.23323417 -0.18426552 -0.11276662 -0.17485206 -0.025896637 0.21329263 -0.11130657
-0.03734259 0.2143992 0.045645792 0.11027962 -0.113298155 0.01196231 0.41020724 -0.13479173
-0.007738366 -0.032754596 0.14913668 0.034317274 -0.24062988 -0.16829924 -0.05214793 -0.008246778
-0.022492342 -0.019590013 -0.17207322 -0.011366578 0.11237941 -0.11905854 -0.025206504 -0.006648007
-0.07382104 -0.10371158 -0.017207926 0.048105128 0.0021723683 -0.081620455 0.015450301 -0.27400684
0.06492405 0.20612143 -2.1388214e-06 0.020935029 0.14264452 0.08838942 -0.20987765 0.03622129
-0.047101945 0.17285916 0.15774028 -0.21796323 -0.20225331 0.29958388 0.1944361 -0.12746707
0.03615154 -0.040325403 -3.6607306 -0.08366079 -0.004716592 0.053969998 0.06967833 -0.10882789
-0.06756694 -0.019511163 0.045819923 0.034601685 -0.13469222 -0.11014718 -0.11229687 0.08109426
-0.048078183 -0.14482062 -0.1851971 0.028769517 0.03224391 0.0001229455 0.03797484 -0.21133283
0.19577853 0.47579288 -0.086198606 -0.22792068 0.045026857 0.10834948 0.16814984 -0.0646274
0.03939444 -0.32983404 -0.13184832 -0.047538847 -0.23187804 0.05220231 -0.23719181 -0.05076125
-0.080764055 0.08540628 0.057841193 0.09172272 -0.1581609 -0.36695725 0.047189943 0.20198116
-0.039596733 -0.07931112 0.268371 -0.06985578 0.00071663485 -0.03779672 -0.18622835 -0.061483063
0.027419433 0.05627443 -0.16990237 -0.0951756 0.02679036 -0.1837765 0.17983206 0.10434047
0.032855395 -0.071546644 -0.16172609 0.27586436 0.060789783 0.1651608 -0.118685074 -0.116593376
0.04642658 0.07870578 0.042983472 0.31191888 -0.12813213 -0.05848048 -0.002109134 -0.25797254
0.0448389 0.1279217 0.094344005 -0.4917496 0.12582763 -0.27561635 -0.043976218 0.1726175
-0.049212437 -0.22397582 -0.16030128 -0.06688696 0.07823222 0.009118097 -0.22873816 0.1823791
0.23382169 0.19963346 -0.039504867 -0.16809788 -0.047449615 -0.13290311 0.1895172 -0.044511657
0.040927786 -0.1716519 -0.13705721 0.13499661 0.07556268 0.055631623 -0.06354017 0.008658645
-0.10483199 -0.051757924 0.017198551 0.17758663 -0.09286564 -0.17857006 0.15493292 -0.20146376
-0.05513697 0.040857866 0.30066943 -0.31026188 -0.14219436 0.034013033 0.117880866 -0.0030722704
0.104752205 -0.058871042 -0.053753044 -0.039276987 0.08382997 -0.080558866 -0.06304654 0.003925481
0.07109117 0.097060755 -0.14522232 -0.06381943 -0.013963173 0.06663085 0.14222002 0.07442602
0.059876088 -0.06395217 -0.036646757 0.24581134 0.06733275 -0.17583436 0.06562295 0.2663726
0.32232273 0.039166786 -0.15058273 0.12035613 -0.06853818 0.08853314 0.017822566 -0.092178926
-0.11549159 0.016080922 0.003468054 0.014747137 -0.11755671 -0.20205353 -0.054029375 -0.0691951
-0.116500646 0.07502829 0.012414763 -0.11575498 0.15746155 0.15096645 0.019317644 -0.11352845
0.07287106 -0.10065239 -0.14582123 0.106783114 -0.031505294 -0.16503225 -0.06502832 -0.100361094
-0.16576326 -0.03260816 -0.2637185 -0.055362493 0.0809371 -0.032743257 -0.09359973 -0.046265114

model/dense_4/MatMul;model/activation_4/Relu;model/dense_4/BiasAdd f4 [100]
00000000: a1c1 05c1 2f99 6d40 f03a 43c1 625c 293f
00000010: c0c6 f8bf d91b 1340 3135 4541 ef90 e93e
00000020: e800 d641 3517 1241 3066 f1c0 7a5e 99c0
00000030: 479c de41 0d64 5141 28ce 41c1 5241 11c1
00000040: 39d3 20c0 c17b 91c0 01ac 4640 48e8 a540
00000050: 791c a2c0 0fe4 48c1 366d 6941 bc3b 2ac1
00000060: 36e1 0f42 bc04 bfc0 542a f640 0a0c 0341
00000070: f448 9740 8f37 f2c0 5fb3 4140 f49f 8ac0
00000080: da79 aa41 ba5c 8940 8500 5b41 6b39 8ac1
00000090: e216 0dc1 4ec0 2041 ebe8 aa41 98ff 9b41
000000a0: 2f73 1242 2ff6 a640 3a25 0141 1bc1 83bf
000000b0: 1bac 0842 99ae 0cc1 1fd6 54c1 a564 26c1
000000c0: 9f92 9cc1 de7a 9840 89c0 e041 1a80 8941
000000d0: 3b1d a4c0 e96e 2c3f e5a8 7b41 897e 0b41
000000e0: af65 aa41 ad86 0a41 33a0 8b41 8b1b 3341
000000f0: 66b3 64c1 8472 0a41 a1b0 23c0 0f28 9241
00000100: 22a7 c040 721b d641 7a71 d6c0 77ed 8941
00000110: 62bc cc41 ef09 b541 51c7 0ec0 da20 ee41
00000120: a7a0 2340 066d fac1 1906 2c41 9829 f441
00000130: 0b11 c041 dbd0 8c40 42b9 9441 9974 8fc1
00000140: 1e71 a341 f387 b441 57d5 2d41 b686 89c1
00000150: ad3d de3f ce37 17c0 0cad 6041 a9e6 a140
00000160: eb50 98bf ed47 d43f 3a7a 7dc1 4545 4d41
00000170: 0702 aa41 8c74 f740 2e77 0342 50c3 ef41
00000180: 3e1c 4fc0 bf20 2cc1 2b04 8841 8d97 d9be
-8.359773 3.7124746 -12.201889 0.6615659 -1.9435654 2.2985747 12.325486 0.45618388
26.750443 9.130666 -7.543724 -4.792783 27.826307 13.086926 -12.112831 -9.078447
-2.512892 -4.5463567 3.1042483 5.1846046 -5.0659757 -12.555678 14.589163 -10.639584
35.969933 -5.969328 7.692667 8.190439 4.7276554 -7.569282 3.026573 -4.3320255
21.309498 4.292569 13.687627 -17.278036 -8.818087 10.046949 21.36373 19.499802
36.612484 5.2175517 8.0715885 -1.0293306 34.16807 -8.792626 -13.302276 -10.399571
-19.571592 4.7649984 28.094011 17.18755 -5.128568 0.67356735 15.728734 8.718392
21.29965 8.65788 17.453222 11.194224 -14.293798 8.652958 -2.5576556 18.26956
6.020402 26.763401 -6.701352 17.24095 25.591984 22.62985 -2.2309153 29.76604
2.5566804 -31.303234 10.751489 30.52031 24.008322 4.400495 18.590458 -17.931932
20.430233 22.566381 10.864585 -17.190777 1.7362572 -2.362781 14.042248 5.0594068
-1.1899694 1.658445 -15.84234 12.8294115 21.25099 7.732977 32.866386 29.970367
-3.2360988 -10.757995 17.002035 -0.42498437

model/batch_normalization_3/batchnorm/mul_1;model/batch_normalization_3/batchnorm/add_1;model/dense_4/MatMul;model/activation_4/Relu;model/dense_4/BiasAdd f4 [100, 100]
00000000: dcb9 a7bd e08a a1bd 8322 09bd 0312 21be
00000010: f754 15be 5e32 dc3d 4289 b13d 9add 21bd
00000020: cd8a febd 591c 353d 39d2 15bd 36d5 273e
00000030: ad43 ec3b 453c 63bb e1e4 e13d 1c9d 313e
00000040: e666 07bd 7e54 dcbc eec4 9bbc 01bf ab3d
00000050: 08e9 b8bc c744 b03e 9037 bb3e 875a 133e
00000060: e2ca 99bd 0c0c 7b3d 7312 1c3e 6020 4c3d
00000070: 6859 44be 2691 04be 1f28 36bd 9e52 86be
00000080: 0c3d e4bc 187d bbbd 370e 9dbc 99c4 983d
00000090: a27e 593e efd6 1cbd 8954 43be bc48 bdbc
000000a0: f2ab 61be 4d7a cebc 5819 f03b 9a5f 513d
000000b0: bcd3 ff3d ff27 163e d21a 63be 5c4a 8f3c
000000c0: 52d4 ab3e 9f35 ccbb 4a52 233e 5791 083e
000000d0: a984 533e 8faf 5f3d 70ad ad3d 9b2a d13b
000000e0: 19e0 a1bd 338a f23d 1d46 083d a1d8 543e
000000f0: 9402 7cbe 1737 28bc cd85 bf3b 60c1 863d
00000100: 08bb 64bd 447e 38bd 6c13 8d3d 5242 063b
00000110: 6d2f 393d 52d6 2f3d f301 76bd 58ff 6d3d
00000120: 22ed 2f3e 8fcd 703c 0313 dcbd d32d c0be
00000130: ce37 4cbe fc7f 51be 1dec 55ba a2a0 fc3c
00000140: 8694 5f3d b217 17bc 879f 873c 925a a2bd
00000150: 507f 763d 5518 56bd 54c8 66bd 1234 033e
00000160: 9171 f3bc edd5 453d fdc6 b5bd 30e0 773c
00000170: e9de 003e 5ac6 61bc 34b5 a0be 4221 be3d
00000180: 53bb 1d3e 4f5b 133e 4b1e 743c 0ef8 d43c
00000190: 99aa 763d c1a4 3a3d 6781 9e3c 7b9b b83d
000001a0: dd9a cfbd b0d0 603c f2b8 b83c 29f1 7b3e
000001b0: 6bbc 56be e9a8 443d 2fec 67bc c9c8 493e
000001c0: 918a 9bbd 2565 4fbc abdf 603d 5c34 7c3b
000001d0: 36c6 e1bc d634 f73d f453 d43d bedc c8be
000001e0: d828 a5bd 01a8 a2bc d6a2 1abd c5cf 5d3e
000001f0: 8c6e 10bd 06f6 a03d 8963 e1bd 8a07 fd3c
00000200: 73cd 0fbe 8d10 6e3e 6054 aa3d 7be2 bebd
00000210: fdeb c13c 7f63 5cbd 5bfe 183e d97e 8fbd
00000220: acee 203e 91db 31be 6de0 ab3d b999 59bd
00000230: e4dd d73d b636 70be b060 f33c 82af d0bd
00000240: fca4 783d 085d 04bd adbf 2f3d 45e0 33bd
00000250: 447a e1bd 5409 443c 1f31 56bd 2a30 563e
00000260: 1e55 79be 5686 233e b126 333d b416 a33c
00000270: 0bb3 75bd 2467 42be 98bf 8fbc 880b 80be
00000280: 5fd5 0cbd 28c1 33bc 328f 81bd f496 e33c
00000290: 781d e63d 1f45 17be ca3e 38bc c82f 79bd
000002a0: 87a3 3d3e 09f4 0a3e 7c52 50bc e7d0 c0be
000002b0: dbe4 003e cf0d 7d3e 905d d9bc a2e4 68bd
000002c0: 3ce6 f9bd cbe8 583e 9fa7 693d d62e 0dbe
000002d0: 7a07 6a3c 46d4 ba3d fc2a 6fbe 711c 23be
000002e0: d4bb 20be e4d1 18be 9d0b 203e eb97 e7be
000002f0: f2b3 d0bd c025 8e3c 9798 f9bb 8e02 19be
00000300: da7d 30bd 706b a4bc 2d12 b33c 35a0 dd3d
00000310: d307 f03e b44b 503e 6886 933c fd61 683e
00000320: 67c6 3dbd 2efd 613e d783 943e cd34 223e
00000330: a090 dc3d abfa 49bd 732f a53c fcb2 113e
00000340: fbd3 343d 66cb b4bd 0ea6 07be e85e b83e
00000350: 1bde 1b3e 5c64 09bd 3318 9b3c 9699 053a
00000360: ddff dd3d bdcc 2a3e 1b59 3fbe 83da 113e
00000370: d0a0 28bd dbe0 253d 9eef 7a3c 07b0 13ba
00000380: c082 993c d1ba 29be bf43 153e 8aa1 b1bd
00000390: fca3 32bd 97aa 3f3e 1d13 8b3d 7a9b 02bd
000003a0: e17e 02be d919 b83d 4c27 293d 3342 85be
000003b0: 9cbd 033c 6dbc 46bc f50a d6bc 8466 c5bd
000003c0: 1fca 91bc d416 febd 16cf 2abe acee af3c
000003d0: 0f13 75bd 956d acbd b61e 233e a0b0 f0bc
000003e0: 682f 823e b6a0 1bbc 2f5a 173e eb5a 59be
000003f0: f8b4 523d aaf0 b83d c4e7 db3d 690d 763d
-0.08189747 -0.078878164 -0.03348018 -0.15729527 -0.14583193 0.10751794 0.08668758 -0.039517976
-0.12428818 0.044216488 -0.036577437 0.16389927 0.007210216 -0.0034673375 0.11029983 0.17345089
-0.033057116 -0.026895758 -0.019014802 0.083860405 -0.022572055 0.34427473 0.36565828 0.14390002
-0.075094 0.061290786 0.15241413 0.049835563 -0.19174731 -0.12945995 -0.044471856 -0.26234907
-0.02786114 -0.09154719 -0.019171817 0.07459373 0.21239713 -0.038290914 -0.19075216 -0.023105972
-0.22038248 -0.025204802 0.00732724 0.051116563 0.12491557 0.14663695 -0.221782 0.017491512
0.33560425 -0.006231978 0.1594936 0.13336693 0.20656075 0.054610785 0.08480346 0.006383253
-0.07904071 0.11842766 0.03326999 0.20785762 -0.24610358 -0.010267041 0.0058448077 0.06579852
-0.05584243 -0.04504229 0.0688847 0.0020486307 0.045211244 0.042929 -0.060060453 0.058104843
0.17180303 0.0146974465 -0.10745814 -0.3753496 -0.19943163 -0.20458978 -0.0008160489 0.030838314
0.054585002 -0.009221958 0.01655556 -0.07927431 0.06018001 -0.0522693 -0.05634339 0.12812832
-0.029717239 0.04829972 -0.08875845 0.015129134 0.12585033 -0.013780201 -0.31388247 0.09283687
0.1540349 0.143903 0.0148998005 0.025997188 0.06022129 0.045567278 0.019348813 0.090140305
-0.1013696 0.01372163 0.022549126 0.24603714 -0.20970313 0.048012648 -0.014155432 0.197055
-0.07594789 -0.012658392 0.054900806 0.0038483357 -0.027560335 0.120706245 0.10367575 -0.39230913
-0.08064431 -0.019855501 -0.03775295 0.21661289 -0.035261676 0.07859425 -0.11005313 0.030887384
-0.14043216 0.23248501 0.083168745 -0.093205415 0.023672098 -0.053805824 0.14940779 -0.07006616
0.15716046 -0.17368914 0.08392415 -0.053125117 0.10540369 -0.2345837 0.02970919 -0.101897255
0.060704216 -0.032315284 0.042907406 -0.043915052 -0.110096484 0.011965115 -0.05229294 0.2091681
-0.24348876 0.15969214 0.04373807 0.019908287 -0.0599852 -0.18984658 -0.017547414 -0.25008798
-0.034383174 -0.010971345 -0.063261405 0.027781941 0.112360895 -0.14772461 -0.011245439 -0.060836583
0.18519412 0.13569655 -0.012714978 -0.3765938 0.12587301 0.24712299 -0.026533872 -0.056858666
-0.12202117 0.21182553 0.05704462 -0.13787398 0.014284009 0.09122519 -0.23356241 -0.15928818
-0.1569665 -0.14923817 0.1562943 -0.45233092 -0.10190572 0.017351985 -0.007617067 -0.14942381
-0.04308877 -0.020070761 0.021859253 0.10821573 0.4688097 0.20341378 0.018008426 0.2269363
-0.04633179 0.22069237 0.29006836 0.15840454 0.107697725 -0.04931132 0.020164227 0.14228433
0.044147473 -0.08827858 -0.13246939 0.36009908 0.15221445 -0.033542976 0.018932438 0.00050964335
0.10839818 0.16679664 -0.18686335 0.14243512 -0.041168988 0.040497642 0.015315918 -0.0005633835
0.018739104 -0.16575171 0.14576624 -0.08673389 -0.04361342 0.18717419 0.06790755 -0.031886555
-0.12743713 0.08989305 0.041297242 -0.26027068 0.008040812 -0.012129885 -0.026128272 -0.09638694
-0.017796574 -0.12406698 -0.1668056 0.021476112 -0.05983263 -0.084193386 0.15929684 -0.029381096
0.25426793 -0.009498766 0.14780496 -0.21226089 0.051442116 0.09030278 0.10737565 0.060071383

model/dense_5/MatMul;model/activation_5/Relu;model/dense_5/BiasAdd f4 [100]
00000000: cb62 50be b443 c741 cb81 02c1 c1f0 b940
00000010: 1147 7341 8225 b7c0 10db 2042 7978 0141
00000020: 29f0 dabf 4f00 113e 324d b341 c57b 9440
00000030: 5ae5 adbf 3112 9241 87e2 b9c1 2652 8341
00000040: 5f0d 38c1 2977 df40 9d7e d940 4f8e 9f3f
00000050: e1fe 1a42 6aa5 afc1 e34e 8c41 60fd 7541
00000060: e026 c741 a384 dc40 5d54 aec0 7c82 1140
00000070: 1219 1c41 29e5 ad41 a23f 77c1 2272 bec0
00000080: 840e 16c1 3ba9 3dc1 3a56 ee40 75f3 9341
00000090: 7eeb 0e40 a7dc 7b41 add0 a2bf 8e84 d5c1
000000a0: 3305 ae41 0201 c9c1 5de0 c440 f1d0 5c41
000000b0: d188 2041 3205 4fc1 f034 863f 3231 b440
000000c0: 1ba1 b6c1 9044 3c41 1aa9 89bf 6403 1d41
000000d0: 7001 44c1 f0d8 103e 4f5d 4641 b330 cec0
000000e0: 5250 30c1 3978 3741 bca1 8b40 fe36 8341
000000f0: 1923 5541 2bc1 5640 5a6a 7041 ea78 4b41
00000100: ba09 25c1 66eb 7d41 e2c3 4541 3cef fec0
00000110: bd2c dac0 8b4b 83bf cca5 06c2 8098 5241
00000120: 21df ef41 cb09 3b41 18c4 9b40 b13a 18c0
00000130: ec66 583e c522 a3c1 eed7 dabe a69a 24c2
00000140: 8efe 1842 68cc 613e 1142 f241 e2bc c741
00000150: 415b 9740 9d13 d63f 2639 b8bf abb8 9241
00000160: 67b4 d0bf e012 eabf 01e5 39c1 4f7e 7141
00000170: 0c1a b040 127e 18c1 5060 b7bf ac40 0241
00000180: b334 7141 331f 8441 069e 4f41 1195 623f
-0.20350187 24.908058 -8.156688 5.810639 15.20485 -5.7233286 40.21393 8.091912
-1.7104541 0.14160274 22.412693 4.6401086 -1.3585618 18.258883 -23.23561 16.415112
-11.503264 6.983296 6.7967057 1.2465304 38.748905 -21.955769 17.538519 15.374359
24.893982 6.891191 -5.4477983 2.2735891 9.756121 21.736895 -15.453035 -5.951432
-9.378544 -11.853816 7.4480257 18.493876 2.2331233 15.74137 -1.2719933 -26.689724
21.752539 -25.125492 6.152388 13.801011 10.033402 -12.938768 1.0484905 5.6310053
-22.828665 11.766739 -1.0754731 9.813328 -12.250351 0.14145255 12.39778 -6.4434447
-11.019609 11.466851 4.363493 16.401852 13.321069 3.35554 15.025965 12.71702
-10.314875 15.86997 12.360323 -7.9667034 -6.817961 -1.0257429 -33.66191 13.162231
29.98395 11.689891 4.867687 -2.3785822 0.21133012 -20.391977 -0.42742866 -41.151024
38.24859 0.22050631 30.282259 24.967228 4.7298894 1.6724735 -1.439244 18.34017
-1.6305054 -1.828701 -11.618409 15.093337 5.5031796 -9.530779 -1.4326267 8.140789
15.075366 16.515234 12.97608 0.8850871

model/batch_normalization_4/batchnorm/mul_1;model/batch_normalization_4/batchnorm/add_1;model/dense_5/MatMul;model/activation_5/Relu;model/dense_5/BiasAdd f4 [100, 100]
00000000: 61dc 363d c1f5 8f3b eefa 913d 3073 023e
00000010: 1085 493d f3e5 1b3f 8f9e e83d df48 f23e
00000020: 0995 5d3d 81ff 93be 06c5 70be ee93 b5be
00000030: 7dd1 09bd 2df6 0abd 5f22 7dbb 9f5f 703e
00000040: 1ada 62be 8aaa b9bd 1a3f 163e fb5b 10be
00000050: 7076 e13d 1f68 71bc e60c 63bb 6c06 b1bd
00000060: 03a4 c63c 7f0b f5bc 569a babd 6c7b b53b
00000070: da6d 503e 38a8 f03d c765 46be 5fe5 34be
00000080: 3e15 89bd 06b8 46bb 6547 4cbe f76b a8be
00000090: 0b8c 56bc e6b0 073d 070c dd3d 4717 7cbc
000000a0: c1f2 713d eabd 393e 4659 44bc 47a5 75bd
000000b0: 1b65 803c 7307 513e f02c fdbd 1171 f33d
000000c0: b2c4 00bd ae28 a13c c8ad df3c d896 f9bc
000000d0: 36d5 8e3e 017d 193c 9687 923c 5f04 803e
000000e0: 02fb 193b cbe6 70be 1463 32be f232 833d
000000f0: 30f8 393d cd4e 9dbc aaea 12bd 5368 a83d
00000100: 3d4f 5a3e b35c 77bc acec aa3d 6f9a 3d3d
00000110: a2a6 c7bb 5882 2abe ef74 7dbc 2082 cfbd
00000120: 0be2 8bbd 7174 f3bd fb09 d8bd b5b8 a1b9
00000130: 50fd 0d3b 3162 f93d 0add a83e 4abe 193e
00000140: a852 debd 4191 53bc 64b9 f9bd f0b2 ec3e
00000150: faf1 a7be 66f4 833c f02f 9b3d fe52 083e
00000160: 7b42 59be b316 8fbe 91ce 95be 5a91 4a3d
00000170: 82f8 983d a3d7 97bd 5132 2e3e 71b3 d0bc
00000180: 93e1 7dbe c5f4 0f3c fc12 0d3e ef5e 8abe
00000190: 5cc8 e23c 8ef6 a7bd 40ad 21be 5754 b7be
000001a0: be9f 783d 6509 8f3e 2b46 cf3a 2f65 74be
000001b0: fa74 a23d 3051 8c3e 4264 25be e33d 98be
000001c0: 4671 22bd 67c4 243e c565 933e f20c 00be
000001d0: 5a58 91be 48bd d6be 866b d03d e069 1a3d
000001e0: f001 37be 092f 4dbe f968 2f3c 1d31 9e3d
000001f0: 2f40 41bd 0d56 21bd f20a 433d e46a 0ebd
00000200: cd2d 62bd b6d2 47be 4ba7 29bd 1803 8abe
00000210: 3695 003d 0a78 6a3d d8cb afba f165 73be
00000220: 4b77 c6bd d20a 983d 48e2 ed3d a29d 69bd
00000230: c39d 34bc b54c e9bd 6892 ccbc 0943 9c3d
00000240: 6d93 41bc 7f8b 22bf 70db 363d 79b3 aebe
00000250: 9cac 823b 1f0c 2f3e 7040 f03d 5358 06bd
00000260: 97dd 4c3e 70e6 c23b f583 e8bc 5e75 20bd
00000270: 8168 373d a79b 53bd 28da 02be 930b 8f3c
00000280: 2703 6ebc 444d b03d 46be b6bc 755a 8cbd
00000290: 15af e2bd d07b bdbd 591c 99bd b4fa 11be
000002a0: 8c53 d9bd 772d 84bc 58df 20bf 45af 46bd
000002b0: e215 65bd 56c9 96bd a7f7 57be 21cf 4b3c
000002c0: 452f c3bc 3f58 0abe d468 eebd 5d9e 293e
000002d0: a7b6 043e 3c13 90bd f16c cfbc 9cd5 e13d
000002e0: e4f1 eabe 578a 083d 89bf 023e 5001 0bbd
000002f0: 73e7 823e 0947 4a3e 53c0 263d 12e2 b2be
00000300: a38f 35bd dbb1 0ebc 2373 0dbd 2d95 08be
00000310: 70df 24be 3b64 07be c22d 47be 3cee a0be
00000320: 48a5 283e ad94 073e 3810 bfbc 6030 9cbd
00000330: b479 92bc a0b2 3b3c 88d3 7f3c 0dee ed3d
00000340: 07c3 61bc 8e6f 4dbe 3d75 b7bc a897 86be
00000350: c024 1d3d 5614 57be dbfb c73d 2dd2 203d
00000360: b6e1 873d e698 4dbe 2714 aebd 76cb 7a3e
00000370: 8ae8 29bc 7b73 693e 2983 b93d f7dc ccbc
00000380: 259a 46bd e13a e9bc 47a4 74bd c77e 8b3c
00000390: e157 993e 9af5 73bd d287 29bd 3fde d0bc
000003a0: 73f5 5cbd 0152 c0bd 04f4 1b3d 4552 14bd
000003b0: 8673 623d f93b dcbd c722 3e3d 0982 c63d
000003c0: 06b9 ac3d 3a5d 9dbd 4a5a 543d 9de7 87be
000003d0: 6b0a 113d 4fcd 3d3c cf71 8a3d 7c1a 623d
000003e0: d237 183b 53fc e5be c27a 823f 0e96 dabd
000003f0: 3fc4 c2bd 0521 6f3d cf79 1abe ada5 43bb
0.044643763 0.00439331 0.07127939 0.12739253 0.049199164 0.6089775 0.11358368 0.4732122
0.05409721 -0.28905872 -0.23512658 -0.35464424 -0.03364705 -0.033926178 -0.0038625223 0.23473977
-0.22153512 -0.09065731 0.14672509 -0.14097588 0.11008918 -0.014734297 -0.003464514 -0.08643803
0.024248129 -0.029912708 -0.091114685 0.0055383947 0.20354405 0.11750835 -0.19374762 -0.17665623
-0.06693505 -0.003032209 -0.1994911 -0.3289487 -0.013094912 0.033127688 0.1079331 -0.015386409
0.0590694 0.18138853 -0.011984175 -0.059972074 0.01567321 0.20412998 -0.12362087 0.118868
-0.031437583 0.019672718 0.027304545 -0.030467436 0.27897042 0.009368182 0.017886918 0.25003335
0.002349556 -0.2352554 -0.17420608 0.064062014 0.045402706 -0.019202614 -0.035868324 0.08223023
0.2131929 -0.015097785 0.08345923 0.046289857 -0.006092862 -0.16651285 -0.015469774 -0.10132241
-0.06830224 -0.11887444 -0.105487786 -0.0003084593 0.0021665879 0.12176932 0.3298114 0.15013996
-0.10855609 -0.012913049 -0.121935636 0.46230268 -0.328018 0.01610775 0.07577503 0.13312909
-0.21216767 -0.27947006 -0.2925916 0.049455024 0.07469274 -0.07414176 0.17011382 -0.02547619
-0.24793081 0.008786385 0.13776773 -0.27025554 0.02768343 -0.082013234 -0.15788746 -0.35806534
0.060699217 0.27936855 0.0015813758 -0.23866723 0.07932468 0.2740569 -0.16151527 -0.29734716
-0.039658807 0.16090547 0.28788581 -0.12504938 -0.2838772 -0.41941285 0.101767585 0.037698627
-0.17871833 -0.20037474 0.01070618 0.07724211 -0.04718035 -0.039388705 0.04761786 -0.034769908
-0.05521946 -0.19513974 -0.04141931 -0.26955485 0.0313923 0.057243384 -0.0013412191 -0.23769356
-0.09690722 0.07423939 0.11615425 -0.057035096 -0.011023941 -0.11391584 -0.024972156 0.076299734
-0.011814934 -0.63494104 0.044642866 -0.34121302 0.003987862 0.17094468 0.117310405 -0.032799076
0.20006405 0.0059478804 -0.028383235 -0.03917443 0.044777397 -0.051662114 -0.12778533 0.017461574
-0.014527119 0.08608487 -0.022307526 -0.06853191 -0.110685505 -0.09252131 -0.0747611 -0.14255792
-0.106116384 -0.01613496 -0.62840796 -0.048506994 -0.055929072 -0.073626205 -0.21090566 0.01243952
-0.02382625 -0.13510226 -0.11641088 0.16564317 0.12960301 -0.07034919 -0.025320502 0.11027071
-0.45887673 0.033335056 0.12768377 -0.0339368 0.25567207 0.1975366 0.04071076 -0.34938103
-0.044326436 -0.008709396 -0.03453363 -0.13338156 -0.1610086 -0.13221829 -0.19451049 -0.31431758
0.164693 0.13240309 -0.023323163 -0.07626414 -0.017880298 0.011456162 0.015614398 0.1161767
-0.013779408 -0.20062086 -0.02239477 -0.2628758 0.038365126 -0.21003851 0.097648345 0.03926294
0.06634848 -0.20077857 -0.084999375 0.24491677 -0.010370383 0.22797959 0.0905822 -0.025007708
-0.048486847 -0.028470458 -0.05972698 0.017028226 0.2994986 -0.059560396 -0.041389294 -0.0254966
-0.053945016 -0.09390641 0.03807451 -0.03621127 0.055285953 -0.107536264 0.046419885 0.09692771
0.08433728 -0.07683797 0.05184392 -0.26543894 0.035410326 0.011584594 0.067599885 0.05520104
0.002322663 -0.4491907 1.0193713 -0.10673152 -0.09510087 0.0583811 -0.15085529 -0.002985339

model/dense_6/MatMul;model/activation_6/Relu;model/dense_6/BiasAdd f4 [100]
00000000: c9cd 1fc1 6d6b 2a41 f991 cf40 2e4d 7f3e
00000010: 1cc9 ba41 d7b3 51c0 8954 b640 1315 2d41
00000020: bddd 13c1 927a 3241 fa74 b241 6827 33c0
00000030: d71b d03e 2f3f b241 227a 2d41 2f0b 43c0
00000040: d640 6241 5152 973f 0396 ca41 3143 6b41
00000050: 2cfd 1f42 24f1 8341 613d 08c1 1689 67c1
00000060: 8c8b ed40 67f2 5441 9012 4b3f 5ed7 8441
00000070: 3564 9941 7183 5ac0 cfa6 5bc0 5d85 efbf
00000080: a779 9d40 1633 17bd 6fa8 d340 eca7 0342
00000090: 78f3 cfc1 9a7e 9741 d293 4fc1 4caa ca40
000000a0: 9e1c 1941 2c1e a740 ec72 3341 27ff 28c1
000000b0: ce58 9c41 4cd8 8440 bed2 86c1 992d 3941
000000c0: 13d9 bb40 36b2 0941 7e88 01c1 20ea 4bc1
000000d0: bc3f 8740 b682 0541 cf1c 0d40 640b 8041
000000e0: 3df9 a741 c421 2dc1 22d3 2f41 a648 c741
000000f0: 7da4 8c41 e9fd d240 b7ce d1c0 988a d9bf
00000100: 8fc6 34c1 5bc4 3641 3587 ad41 3f66 9640
00000110: c25b aac0 9a4f 6340 9b9a b541 9c5a 0141
00000120: 9662 06c0 295b 1341 3a2c 9a40 233a 33be
00000130: a73f 02c1 43de a541 da9f 87c1 af9a 1fc0
00000140: 0f76 92be b013 81bd 06ad 8cc0 a82f 8b41
00000150: 873d 7041 40a7 7240 3f76 5741 667c 263f
00000160: db7b 0ac1 83d8 3fc0 389e dc40 eafc fcc0
00000170: b814 2141 aa67 b240 9acf 52c0 a21c f940
00000180: 0884 a241 d437 69bf 2974 59c1 701b b13e
-9.9877405 10.651227 6.486569 0.24931785 23.348198 -3.2766016 5.697819 10.817645
-9.241635 11.154924 22.307117 -2.7992802 0.4064624 22.280851 10.842318 -3.0475576
14.140829 1.1821996 25.323248 14.703904 39.99724 16.492744 -8.514985 -14.470968
7.4232845 13.30918 0.793252 16.60516 19.17393 -3.4142725 -3.4320562 -1.8712574
4.9211 -0.036913954 6.6143107 32.913986 -25.993881 18.936817 -12.973589 6.333288
9.569487 5.222433 11.215557 -10.562293 19.543362 4.1514034 -16.852901 11.573632
5.8702483 8.606009 -8.095823 -12.744659 4.22653 8.344412 2.2048833 16.005562
20.996698 -10.820744 10.989046 24.910473 17.580317 6.593495 -6.5564837 -1.699542
-11.298476 11.422938 21.69102 4.699981 -5.323701 3.5517335 22.70049 8.084621
-2.0997672 9.209756 4.8178988 -0.17502646 -8.14054 20.733526 -16.953053 -2.4938161
-0.28605697 -0.06302583 -4.396121 17.39827 15.015021 3.7914581 13.466369 0.65033567
-8.655238 -2.9975898 6.894314 -7.9058733 10.067558 5.5751543 -3.293921 7.784745
20.314468 -0.9110081 -13.590859 0.34591246
