corintho_ai/rating/tflite_models/model_7.tflite (tflite, 521576 bytes, 27 tensors)

model/dense_1/MatMul;model/activation_1/Relu;model/dense_1/BiasAdd f4 [100]
0	0xc1a4a688	-20.581314
1	0x41f0dd52	30.108067
2	0xc18a1c6d	-17.26388
3	0xc163dba0	-14.241119
4	0x41cc814f	25.563139
5	0x40d1b727	6.5536075
6	0x40ba9229	5.830342
7	0xc17980e5	-15.593968
8	0xc1ac751a	-21.557178
9	0x40b1bb8e	5.554145
10	0x40bf629c	5.9807873
11	0xc1ba5733	-23.292578
12	0x3ed7ba72	0.42134434
13	0xc1267e2a	-10.405802
14	0x3ff0adc4	1.8803029
15	0xc189a285	-17.204355
16	0x3edbaeff	0.4290695
17	0x40dc9b75	6.8939767
18	0xc0b3a9ee	-5.6144934
19	0xc06d1fbe	-3.7050624
20	0xc02093ec	-2.5090284
21	0xbfc683a4	-1.5508924
22	0x404b6ce4	3.1785212
23	0xc163a02d	-14.226605
24	0x41890617	17.127974
25	0xc04895a7	-3.134134
26	0xc160a05c	-14.03915
27	0x407d5b34	3.9586916
28	0xc13c8ce6	-11.784399
29	0xc0b0b40e	-5.5219793
30	0xc18cdc65	-17.607615
31	0x3fd95d6e	1.6981637
32	0x405757ec	3.3647413
33	0xc19236ee	-18.276821
34	0x41a425a6	20.518383
35	0x40b93b52	5.7884912
36	0xc0f6103f	-7.689483
37	0xc0d6e4f3	-6.715448
38	0x3f2576fb	0.64634675
39	0x41828570	16.315155
40	0x41798907	15.595954
41	0xc030e4a2	-2.7639546
42	0xc1335b81	-11.20984
43	0x40179c54	2.3689165
44	0x4132965c	11.161709
45	0xc06e009d	-3.7187874
46	0x4047fd16	3.1248221
47	0xc11f34dd	-9.950406
48	0x402215e4	2.532586
49	0xc141ba6f	-12.108016
50	0x410cb9e2	8.795382
51	0xc178187b	-15.505977
52	0x3f7f41ef	0.9970998
53	0x4234240a	45.035194
54	0xc03c0b86	-2.9382033
55	0x40ad4750	5.414955
56	0x40d044e6	6.5084105
57	0xc0c3b4ca	-6.115819
58	0x41738ed4	15.22237
59	0x3eb06c7d	0.3445777
60	0x3ff9b7dd	1.9509236
61	0x41a4d3df	20.603453
62	0xbfdd6229	-1.7295581
63	0xbe503f8f	-0.20336746
64	0x410663d0	8.399368
65	0x4169d186	14.613653
66	0x4206ed06	33.73147
67	0x41034283	8.203738
68	0xc117b87a	-9.482538
69	0xc1f3cb8f	-30.474394
70	0xc0a79fb4	-5.238245
71	0xc0e46271	-7.137017
72	0x413c189b	11.756007
73	0x41e47614	28.557655
74	0xc069a3a5	-3.650613
75	0x41214742	10.079897
76	0xc082584e	-4.0732794
77	0x3e6476fc	0.22311014
78	0xc1ad9ad3	-21.700598
79	0x3e14bf08	0.14525998
80	0x3f9722c9	1.180749
81	0x41b8b6d1	23.089266
82	0x3f2072db	0.62675256
83	0xc14f7acb	-12.967479
84	0xc160e9bc	-14.057064
85	0x41591b48	13.56916
86	0x4138c9a9	11.549233
87	0xc0c37ed6	-6.109233
88	0x41ad6008	21.67189
89	0x412c06cc	10.751659
90	0x4183f43a	16.494251
91	0x4031c36b	2.7775524
92	0x41af5b5e	21.919613
93	0x3f9c8da5	1.2230726
94	0xc0d1641f	-6.543472
95	0x40927033	4.576196
96	0x41b55c39	22.67003
97	0x402aac62	2.6667714
98	0x3ea8e2ee	0.32985634
99	0xc1d5f23f	-26.743284

model/batch_normalization/batchnorm/mul_1;model/batch_normalization/batchnorm/add_1;model/dense_1/MatMul;model/activation_1/Relu;model/dense_1/BiasAdd f4 [100, 100]
0	0xbde5a04e	-0.11212216
1	0x3e0a658e	0.13515303
2	0xbecdb8de	-0.40180105
3	0xbe6a4aa8	-0.22880042
4	0x3f8edbd3	1.1160835
5	0x3f0e4c43	0.55585116
6	0x3caccc75	0.021093586
7	0xbf39cfa6	-0.7258247
8	0x3e6e5314	0.2327388
9	0x3f2ba20a	0.67044127
10	0xbd8b02d8	-0.06787652
11	0x3e612697	0.21987377
12	0x3cba085d	0.022709066
13	0x3da8e5af	0.08246934
14	0x3e0e8dd5	0.13921292
15	0x3e2b6926	0.1673933
16	0x3f1daec0	0.6159477
17	0xbf16d43a	-0.5891758
18	0x3e556f8d	0.20843334
19	0xbe6f3e87	-0.23363696
20	0x3e55cf8d	0.20879956
21	0xbf33c208	-0.70217943
22	0x3ea38fd1	0.3194566
23	0x3c5f0f8b	0.013614546
24	0x3ef7d2ef	0.48403117
25	0x3efd9235	0.4952561
26	0x3f096772	0.5367347
27	0xbf06c021	-0.52636915
28	0x3e3605bf	0.1777563
29	0x3e0cf500	0.13765335
30	0x3e9497b3	0.29021987
31	0x3e9f24c2	0.3108273
32	0x3dacbe50	0.08434737
33	0x3efa7b12	0.4892202
34	0xbeb87ced	-0.3603281
35	0x3e815f5f	0.25268075
36	0x3eb121f8	0.3459623
37	0xbf0c30d8	-0.5476203
38	0xbe69e56f	-0.22841428
39	0x3f0cd314	0.5500958
40	0x3e2fec4f	0.17179988
41	0x3f2a9b1e	0.6664294
42	0x3f0e314a	0.5554396
43	0x3f0f9e5e	0.56101024
44	0xbed44c0d	-0.41464272
45	0xbe1fb631	-0.15596844
46	0x3e9edd6d	0.3102831
47	0xbe9ad5b3	-0.30241165
48	0x3e613c3a	0.21995631
49	0x3e3558e4	0.1770969
50	0x3e100423	0.14064078
51	0x402544f1	2.5823328
52	0x3ff0847c	1.8790431
53	0x3fb9f4e4	1.452786
54	0x3f09fd8f	0.53902525
55	0x3eec5aa8	0.46162915
56	0x3f0f64b9	0.56013066
57	0x3c7b5aba	0.015341455
58	0xc0a11ca0	-5.0347443
59	0x3e21bd34	0.15794832
60	0xbdd1d893	-0.102463864
61	0x3df203c0	0.118171215
62	0xbccc6c25	-0.024953911
63	0xbeb71fa0	-0.35766315
64	0x3f04f407	0.51934856
65	0xbf385c2a	-0.7201563
66	0xbf02ea9e	-0.5113925
67	0x3dac4106	0.0841084
68	0x3f113aea	0.5673052
69	0x3f5bdd05	0.85884124
70	0xbe2b4d7c	-0.16728777
71	0xbda9b74f	-0.082869165
72	0xbe11507c	-0.14190859
73	0xbe8c5b77	-0.27413532
74	0x3f818d78	1.0121298
75	0xbf2052ef	-0.62626547
76	0x3e42d370	0.1902597
77	0xbe2f5a20	-0.17124224
78	0x3f13664f	0.57577986
79	0x3f2f17a3	0.6839544
80	0xbe32b18a	-0.17450538
81	0x3d05cfa5	0.03266873
82	0x3e4d8d48	0.20073426
83	0x3f302053	0.6879932
84	0xbf135398	-0.5754943
85	0x3eab5c8c	0.33469045
86	0xbc6f2456	-0.0145960655
87	0x3f215e48	0.63034487
88	0x3c0d682c	0.008630794
89	0xbe8c483c	-0.2739886
90	0xbf30db61	-0.69084746
91	0x3f50ce32	0.8156463
92	0xbd06fc4f	-0.032955464
93	0xbf3741cb	-0.7158477
94	0xbe619a5a	-0.22031537
95	0x3e245882	0.16049388
96	0x3e37b0b9	0.17938508
97	0xbe3454ee	-0.17610523
98	0xbe4a6ec4	-0.19768816
99	0xbe998a83	-0.2998849
100	0xbf6c015e	-0.92189586
101	0xbf3c2ce6	-0.7350601
102	0xbc33d67d	-0.010976431
103	0xbd3eb55a	-0.04655967
104	0xbf8ed3e4	-1.1158414
105	0x3fc78814	1.5588403
106	0x3eac4a0b	0.3365024
107	0x3e979826	0.29608268
108	0x3e104261	0.14087822
109	0xbe12baea	-0.14329115
110	0x3eb1e95d	0.34748355
111	0x3e4e40b5	0.20141871
112	0x3dc27fd0	0.094970345
113	0xbe515557	-0.20442711
114	0xbeb75d60	-0.35813427
115	0xbf0dfbd0	-0.5546236
116	0x3d40e0f2	0.047089525
117	0xbfaf29dc	-1.368465
118	0xbf0c3e2e	-0.5478238
119	0xbe8731e3	-0.26405248
120	0x3e2d97ed	0.16952486
121	0x403cffd3	2.9531143
122	0x3dbd1342	0.09232189
123	0x3e617264	0.22016293
124	0x3e7dbdc5	0.24779423
125	0x3d79d1f6	0.06099125
126	0xbebadb03	-0.36495218
127	0xbf323642	-0.6961404
128	0x3d505501	0.050862316
129	0xbe1b22bd	-0.1514997
130	0xbc84601a	-0.016159106
131	0x3ef93a1c	0.48677146
132	0xbc80ed2b	-0.01573809
133	0xbedf66f5	-0.43633237
134	0x3da4d290	0.08047974
135	0x3edd5a97	0.43233177
136	0xbea655fe	-0.32487482
137	0xbfb6940b	-1.4263929
138	0xbead6373	-0.33864936
139	0xbf00c169	-0.5029512
140	0x3e162406	0.1466218
141	0xbe8be5bc	-0.2732371
142	0xbf2f339b	-0.6843812
143	0xbe462d11	-0.19353129
144	0x3d25f453	0.04051621
145	0xbf0941b6	-0.5361589
146	0xbdb8e772	-0.0902852
147	0xbec0fe15	-0.3769385
148	0x3df47192	0.11935724
149	0x3deca41c	0.11554739
150	0x3dc3fa11	0.09569181
151	0xbf6ad029	-0.9172388
152	0x3f0c8b52	0.54900086
153	0x3eac1e8f	0.33617064
154	0x3e641458	0.22273386
155	0xbdc336dd	-0.09531949
156	0xbe22dac1	-0.1590376
157	0x3f853240	1.040596
158	0x40b0c212	5.52369
159	0x3ddbb33e	0.10727547
160	0x3ec49f3a	0.3840273
161	0x3ea71bea	0.32638484
162	0x3c3f55be	0.011678157
163	0xbf1b7e30	-0.6073942
164	0xbe3ac19a	-0.18237916
165	0xbd803d0d	-0.062616445
166	0x3e4ce76c	0.20010155
167	0x3ee30113	0.44336757
168	0xbd9ec3ba	-0.07752176
169	0x3d0340ab	0.032044094
170	0xbe6976e1	-0.22799255
171	0x3f233aa6	0.63761365
172	0x3b9a35f2	0.004706138
173	0x3ea93172	0.33045536
174	0xbf0461df	-0.5171184
175	0xbec54a4d	-0.3853325
176	0xbe98cf6d	-0.29845753
177	0x3d453291	0.048143927
178	0x3f0951cd	0.53640443
179	0x3e653a29	0.22385468
180	0x3ccb0380	0.024781942
181	0xbf0fb8fc	-0.5614164
182	0xbe1976bf	-0.14986704
183	0x3f0e700d	0.55639726
184	0x3c72a9c3	0.014810982
185	0x3e6c7b32	0.2309387
186	0xbe14845e	-0.14503619
187	0xbf017e10	-0.5058298
188	0x3df7a17e	0.12091349
189	0xbf02422e	-0.5088223
190	0xbeae4e6c	-0.34044206
191	0x3f16be15	0.5888379
192	0xbbb56359	-0.005535525
193	0xbea03fba	-0.3129862
194	0xbf1cbd72	-0.6122657
195	0x3c317be6	0.010832762
196	0x3de26beb	0.1105574
197	0xbf8d0962	-1.1018488
198	0xbea9ef24	-0.33190262
199	0x3d06e1c4	0.03293015
200	0x3f183e89	0.5947042
201	0x3dc773b4	0.097388655
202	0x3fef2be1	1.8685266
203	0x3f3b9f16	0.7328962
204	0xbf511776	-0.81676424
205	0xbece3f86	-0.4028284
206	0x3eb08644	0.34477437
207	0x3e431f82	0.19054988
208	0x3de6d7d6	0.11271636
209	0xbf3fe5a7	-0.74959797
210	0xbe8f4fbc	-0.2799052
211	0x3f60868a	0.8770529
212	0x3ee1f343	0.44130906
213	0x3e2b9cbb	0.16759007
214	0x3f27095d	0.6524866
215	0x3e91a24f	0.28444144
216	0x3e267528	0.16255629
217	0xbe60daeb	-0.2195851
218	0xbeb11f82	-0.3459435
219	0x3f4b3a8e	0.7938622
220	0xbf3ce144	-0.7378123
221	0xc0d18855	-6.547892
222	0xbea408a3	-0.3203784
223	0x3e2dae7c	0.16961092
224	0xbe91cf57	-0.284785
225	0xbf071b00	-0.52775574
226	0x3eda2cbb	0.42612252
227	0x3e3af349	0.18256868
228	0xbd23137a	-0.039813496
229	0x3f86ac18	1.0521269
230	0x3f6f2de9	0.9342943
231	0x3e02a9db	0.12760107
232	0x3e58ecbb	0.21184056
233	0x3eee32d2	0.46523148
234	0x3eeacd64	0.45859826
235	0xbebdee93	-0.3709608
236	0x3e938dcd	0.28819123
237	0x3e380264	0.17969662
238	0x3edb6f19	0.42858198
239	0x3e48c0da	0.19604817
240	0x3e9b9800	0.30389404
241	0xbf187279	-0.5954967
242	0x3f274f81	0.6535569
243	0x3f354c43	0.7081949
244	0xbe045122	-0.12921575
245	0xbf5976a8	-0.8494668
246	0x3e3ee152	0.1864064
247	0xbd221537	-0.039571013
248	0xbf20cf4d	-0.62816316
249	0xbdf68798	-0.12037581
250	0xbe7a48a7	-0.24441777
251	0x409da454	4.9263096
252	0x4001a91b	2.0259464
253	0xbe89257a	-0.26786405
254	0x3e3fef2c	0.1874358
255	0xbed695e5	-0.41911235

model/dense_2/MatMul;model/activation_2/Relu;model/dense_2/BiasAdd f4 [100]
0	0x4190e97b	18.114004
1	0xc1b5beff	-22.71826
2	0x40edac7c	7.427305
3	0xc18caf7c	-17.585686
4	0xc18d012f	-17.625578
5	0xc17b6a93	-15.713519
6	0x4084c474	4.148981
7	0x41751660	15.317963
8	0xbfb4f590	-1.413744
9	0xbf93aa9b	-1.153644
10	0xc0f7c655	-7.7429605
11	0xc0e85093	-7.2598357
12	0x3fcd40f4	1.6035447
13	0x40a6db47	5.2142673
14	0x3d9b6f69	0.07589609
15	0xc1c4742a	-24.55672
16	0xc1034df1	-8.206529
17	0x408b5b4a	4.3548937
18	0x3ebff49c	0.3749131
19	0x404e559d	3.2239754
20	0x41165d04	9.397709
21	0x3fad599f	1.3542975
22	0x408bda6d	4.3704133
23	0xbf865e07	-1.0497445
24	0xc090c764	-4.5243397
25	0x4005d5ce	2.0911746
26	0xc0a47927	-5.139789
27	0x40d4f2ed	6.654654
28	0xc0300dcf	-2.7508428
29	0xc0fb8faa	-7.861287
30	0xc0006238	-2.0059948
31	0x4027ff5d	2.6249611
32	0x411e519e	9.894926
33	0xc0900a3c	-4.5012493
34	0x41730c76	15.190542
35	0xc0ece296	-7.4026594
36	0x4142f211	12.184098
37	0xc11713cb	-9.442332
38	0xc14b7ec6	-12.718451
39	0xc0b6fc20	-5.718277
40	0x3db53862	0.08848645
41	0xc11f3a9d	-9.95181
42	0xc06b32cd	-3.6749756
43	0x4018c386	2.3869338
44	0xc0390cc8	-2.891405
45	0x41353b68	11.3270035
46	0xbfb43c85	-1.4080969
47	0xc0179478	-2.3684368
48	0xc163ab09	-14.229257
49	0x404fbf56	3.2460532
50	0x416fb265	14.981053
51	0x41602308	14.008553
52	0x40f18dfb	7.5485816
53	0x3f9f3e7b	1.2440943
54	0x4000b60e	2.0111117
55	0xc0ef49aa	-7.477742
56	0xc055a805	-3.33838
57	0x4145d427	12.364295
58	0x417ae947	15.681952
59	0xc0f2c126	-7.5860777
60	0xbf173f2d	-0.59080774
61	0xbfac5bd4	-1.3465524
62	0x3f39a174	0.7251198
63	0x4208ccb6	34.199913
64	0x410a5e18	8.647972
65	0x40156200	2.3341064
66	0xc1a05841	-20.043093
67	0xc11d335b	-9.825038
68	0xc087792e	-4.2335424
69	0x41707d1d	15.030545
70	0xc2493e05	-50.310566
71	0xbfedecc7	-1.8587884
72	0xc192571f	-18.29254
73	0x4121a382	10.102419
74	0xc16a47a7	-14.642493
75	0xc17aa70e	-15.665785
76	0x3ed7e316	0.4216544
77	0xbfccefa8	-1.6010637
78	0xc0ffb4ab	-7.990804
79	0x408ec6e3	4.461778
80	0x4141b257	12.10604
81	0x415a3376	13.637564
82	0x4189d038	17.22667
83	0x4112db16	9.178488
84	0xc0922902	-4.567506
85	0xc183bcec	-16.467247
86	0x3f3c4277	0.7353892
87	0x418fb487	17.963148
88	0x408fb618	4.4909782
89	0x4137c8e6	11.486547
90	0xc15136c7	-13.075873
91	0xc07387d5	-3.8051655
92	0xc0139a4f	-2.3062932
93	0x411df7ff	9.873046
94	0x3f401028	0.7502465
95	0x4114b6f5	9.294667
96	0x4150cf88	13.050667
97	0x40a612b6	5.189784
98	0x4093dc76	4.6206617
99	0x40afe8ec	5.497183

model/batch_normalization_1/batchnorm/mul_1;model/batch_normalization_1/batchnorm/add_1;model/dense_2/MatMul;model/activation_2/Relu;model/dense_2/BiasAdd f4 [100, 100]
0	0xbc7e3598	-0.015515707
1	0xbe7fcb08	-0.24979794
2	0x3b9539ca	0.004554008
3	0xbe0b4989	-0.1360227
4	0xbe85f3ec	-0.2616266
5	0xbe4cb406	-0.19990548
6	0x3d5ffc35	0.054683883
7	0xbda70a22	-0.081562296
8	0x3e787f99	0.24267425
9	0xbde2f51e	-0.11081909
10	0x3dc886a8	0.09791309
11	0x3d990093	0.07470813
12	0x3c7a0237	0.015259317
13	0xbd6e828f	-0.05822998
14	0xbe0ff57e	-0.14058492
15	0x3c26fda0	0.010192305
16	0x3c458ae2	0.012057038
17	0xbe9bde0f	-0.30442855
18	0x3dc46e89	0.095913954
19	0x3e6e4120	0.2326703
20	0xbcf597e4	-0.029979654
21	0xbe04613a	-0.12927714
22	0x3e22b511	0.15889384
23	0x3e5dc156	0.21655783
24	0xbd5855e6	-0.052816294
25	0xbcd4cda2	-0.02597696
26	0xbd956996	-0.072955295
27	0x3d459efa	0.048247315
28	0x3cc1b733	0.023646927
29	0xbd8383ad	-0.064215995
30	0x3d2785f6	0.04089924
31	0xbca75a2e	-0.020428743
32	0xbe60c56c	-0.2195031
33	0x3d92da26	0.07170515
34	0x3dbf2835	0.09333841
35	0x3e4b077b	0.19827072
36	0xbd70f3c9	-0.05882624
37	0x3ded8a82	0.11598684
38	0x3e04c9dc	0.12967628
39	0xbe44ee4b	-0.19231527
40	0xbd5e70df	-0.05430686
41	0xbe23fe9a	-0.16015092
42	0xbe3075ea	-0.1723248
43	0x3d151d53	0.03640492
44	0xbd3fb269	-0.046801005
45	0x3d058ca9	0.032604847
46	0xbc0a65e5	-0.008447145
47	0x3cbb80ac	0.022888504
48	0xbd23c083	-0.039978515
49	0x3c23ad53	0.009990054
50	0x3c3e7ef6	0.0116269495
51	0x3d87be03	0.06628039
52	0x3d50f140	0.051011324
53	0xbdf04064	-0.117310315
54	0x3c63b722	0.013898643
55	0xbd39399c	-0.045220956
56	0xbbc0b8ed	-0.00588142
57	0x3e1750aa	0.14776865
58	0x3eb3f9f9	0.35151652
59	0xbcf1d8c0	-0.0295223
60	0x3eb464b9	0.35233095
61	0xbdf3108b	-0.1186839
62	0x3c80fea8	0.01574643
63	0xbd34f9fe	-0.044183724
64	0xbdc8d45a	-0.09806128
65	0xbc144f2f	-0.009052082
66	0x3d517cd7	0.051144447
67	0xbdca70d8	-0.098848045
68	0xbde32586	-0.110911414
69	0x3dccc62f	0.09998738
70	0xbe91a0cb	-0.28442988
71	0xbe382fc5	-0.17986973
72	0xbdcb5594	-0.09928432
73	0xbdc6928b	-0.096959196
74	0xbe71eb01	-0.23624803
75	0xbe340eeb	-0.17583816
76	0xbe0e3935	-0.1388901
77	0x3cff2eee	0.031150308
78	0xbe3f37cf	-0.18673633
79	0xbe550e2b	-0.20806186
80	0x3e1e76d6	0.1547502
81	0x3dbf44a3	0.09339263
82	0x3d11fdac	0.03564231
83	0x3d61b855	0.055107433
84	0xbcbc47a5	-0.022983382
85	0xbdae5272	-0.08511819
86	0xbdeb27dd	-0.11482213
87	0x3d44237d	0.047885407
88	0xbe11910c	-0.14215487
89	0xbd677289	-0.056505714
90	0x3d971cb9	0.07378525
91	0xbdc453b2	-0.09586276
92	0xbe00ae28	-0.12566435
93	0xbe22fd41	-0.15916921
94	0xbf1a3052	-0.6022998
95	0x3f0a15c6	0.53939474
96	0x3e39e55e	0.18153903
97	0xbf30a18c	-0.689965
98	0x3da87ae4	0.082265645
99	0xbd5cf523	-0.053944718
100	0x3e210462	0.15724328
101	0x3e2e29ba	0.17008105
102	0x3d79e976	0.06101366
103	0x3ccb22be	0.02479684
104	0x3cf7c0c1	0.03024328
105	0xbdb4dd6b	-0.088312946
106	0x3df63fc9	0.12023885
107	0x3a3eb6ad	0.00072751456
108	0x3d0ee276	0.03488394
109	0x3e333d6f	0.17503904
110	0xbd16220d	-0.036653567
111	0xbd685abc	-0.056727156
112	0x3d96d026	0.0736392
113	0x3d747c0d	0.059688617
114	0xbc04950f	-0.008092179
115	0x3e65b882	0.22433665
116	0xbd1cab91	-0.038249556
117	0xbe13ca46	-0.1443263
118	0x3dacbfc4	0.08435014
119	0x3e86a36e	0.26296562
120	0x3d31beaf	0.04339474
121	0xbe3deca2	-0.185473
122	0x3e1c0ce0	0.15239286
123	0x3d3f2c55	0.046673138
124	0xbbccda80	-0.006251633
125	0x3d9f0fca	0.077666834
126	0x3d869e72	0.0657319
127	0x3c47098f	0.012148275
128	0x3e676b76	0.22599587
129	0x3b9e27d3	0.0048265248
130	0x3e890a27	0.26765558
131	0x3ed48f91	0.41515782
132	0x3d2cb4ec	0.042164728
133	0x3cae6ed2	0.021293078
134	0x3cc4ed64	0.024038978
135	0x3d0b2809	0.033973727
136	0xbd42a21a	-0.047517873
137	0x3de87084	0.11349586
138	0x3d991cd6	0.07476203
139	0xbd007d4b	-0.03136949
140	0xbda81a2b	-0.08208116
141	0x3cb62268	0.022233203
142	0x3ee5f05f	0.4490995
143	0xbde3c65d	-0.11121819
144	0x3e3c2f38	0.18377388
145	0xbdc72175	-0.09723178
146	0xbd343e6f	-0.044004854
147	0x3d4ad00d	0.04951482
148	0x3d105848	0.03524044
149	0x3da90c67	0.08254319
150	0x3dab45d9	0.08362932
151	0xbdba748e	-0.09104262
152	0x3e4ff7e6	0.2030941
153	0xbe338644	-0.17531687
154	0x3e57b07a	0.21063414
155	0xbd673b40	-0.05645299
156	0x3e189179	0.14899243
157	0x3d5f9696	0.05458697
158	0x3c604f7a	0.013690824
159	0x3c605290	0.013691559
160	0xbd257758	-0.04039702
161	0xbd71ac39	-0.059002135
162	0x3e8fe51f	0.28104493
163	0x3beae040	0.007167846
164	0xbbd34d9f	-0.006448462
165	0x3e48a516	0.19594225
166	0xbba139d6	-0.0049202247
167	0xbd55b996	-0.05217894
168	0xbc800487	-0.015627159
169	0x3e2f0252	0.17090729
170	0xbe69a83d	-0.22818084
171	0xbb668a34	-0.003517759
172	0x3c89538c	0.016763471
173	0x3e4b13ef	0.19831823
174	0xbd9cbc34	-0.076530844
175	0xbe97a3c6	-0.29617137
176	0xbd373360	-0.04472673
177	0x3d21f6fa	0.039542176
178	0x3dc5c25c	0.09656212
179	0xbc8d38a8	-0.01723893
180	0x3ad69edf	0.0016374252
181	0xbe2008e9	-0.15628399
182	0x3d7320a5	0.059357304
183	0xbda6687f	-0.081254
184	0xbce426fb	-0.027850619
185	0xbde4e016	-0.111755535
186	0x3d398981	0.04529715
187	0x3e061a01	0.13095857
188	0x3d5381c1	0.051637415
189	0xbd25a933	-0.040444564
190	0x3ed6cb05	0.41951767
191	0xbd076336	-0.0330536
192	0xbdd3c1c4	-0.10339692
193	0x3d26c5f9	0.040716145
194	0xbe01384a	-0.12619129
195	0x3c2d1ef4	0.010566462
196	0xbe76b49b	-0.24092333
197	0xbe2e814b	-0.17041509
198	0x3e0f6c2f	0.14006113
199	0xbd025ff4	-0.03182979
200	0x3e0c2a2e	0.13687965
201	0x3dcd78dc	0.10032818
202	0xbd1475f7	-0.036245313
203	0xbd8daae7	-0.06917363
204	0xbd4eade9	-0.050458822
205	0xbd807938	-0.06273121
206	0x3de830c7	0.113374285
207	0xbcf25285	-0.029580364
208	0xbd7d04b8	-0.06177208
209	0x3e3bd282	0.18342021
210	0x3c82881a	0.015934039
211	0x3d7770f9	0.060410473
212	0xbe48ad60	-0.19597387
213	0xbe45071d	-0.19240995
214	0x3ce02bf6	0.027364712
215	0xbe690507	-0.22755824
216	0x3d61be7b	0.055113297
217	0xbe7bde3f	-0.24596499
218	0xbdd97fe6	-0.10620098
219	0xbd0543d7	-0.0325354
220	0x3de3bce5	0.11120013
221	0xbde82113	-0.113344334
222	0x3e78207c	0.24231142
223	0x3d168152	0.036744423
224	0xbdc3de58	-0.09563893
225	0x3d21f45e	0.039539687
226	0x3bdaea34	0.006680751
227	0xbca3cf65	-0.019996354
228	0x39231682	0.00015553276
229	0xbdaf11ea	-0.08548339
230	0x3d7ceb05	0.06174757
231	0x3e415f2f	0.18883966
232	0x3ca13a09	0.019680994
233	0xbdcd3a97	-0.10020941
234	0xbd1369a8	-0.035989434
235	0xbd7a3682	-0.06108714
236	0x3db47fb4	0.0881342
237	0xbdba8eb7	-0.09109252
238	0xbb88e61d	-0.0041778223
239	0xbd603f9a	-0.054748155
240	0x3d40765d	0.04698788
241	0x3e6094d2	0.2193177
242	0x3c1c7941	0.009550394
243	0x3e1ed1a8	0.15509665
244	0xbd3116c3	-0.043234598
245	0x3efd1686	0.49431247
246	0xbdac9bf3	-0.084281825
247	0xbd9a5fcc	-0.07537803
248	0xbe308f25	-0.17242105
249	0xbd2c36df	-0.042044517
250	0xbcfabbf7	-0.030607207
251	0xbd409427	-0.04701629
252	0xbd802fe7	-0.06259137
253	0x3ec89ed6	0.39183682
254	0xbde69beb	-0.11260208
255	0x3d52efc2	0.051498182

model/dense_3/MatMul;model/activation_3/Relu;model/dense_3/BiasAdd f4 [100]
0	0xc0c7bb22	-6.2415934
1	0x4112f52b	9.184855
2	0xc066f9db	-3.609
3	0xc04b856c	-3.1800184
4	0x41056edc	8.339565
5	0xbfd172e9	-1.6363193
6	0x40aec980	5.462097
7	0x4117012c	9.437786
8	0x3fb224b3	1.391745
9	0x40aa34f2	5.318963
10	0x3fea77f8	1.8317862
11	0x4178c9e1	15.549287
12	0x40e8fe4d	7.2810426
13	0xbff5cd5d	-1.9203297
14	0x40f50975	7.6574044
15	0x408ce239	4.402615
16	0xc1007ca8	-8.030434
17	0x3fff35bc	1.9938273
18	0x40d5f55f	6.6862025
19	0x3fab7f99	1.3398315
20	0x4063e156	3.5606284
21	0xbebb8cad	-0.36630765
22	0xc0cf8299	-6.484692
23	0x410f3ad8	8.951866
24	0x4123c43b	10.235408
25	0x4170e260	15.055267
26	0x413e4628	11.892128
27	0xc0afe930	-5.4972153
28	0xc02eea42	-2.733048
29	0xc137b21a	-11.480982
30	0xc0fb32c9	-7.8499494
31	0x4080e009	4.027348
32	0x3ef92feb	0.4866937
33	0xc0827527	-4.076801
34	0xc079d728	-3.903757
35	0x41a3335f	20.400084
36	0xc04637b7	-3.0971506
37	0x418daf4a	17.71059
38	0xc0469da7	-3.1033723
39	0x417a88f8	15.65844
40	0x40e13b90	7.038521
41	0x4110ce20	9.0503235
42	0x41028aa9	8.158853
43	0xc097f6f3	-4.748895
44	0xc00db664	-2.2142572
45	0xbee78e41	-0.4522572
46	0x3fc49e58	1.5360823
47	0x405187aa	3.2739053
48	0x414b56f6	12.708731
49	0x407fe4ee	3.9983478
50	0x4101cce8	8.112526
51	0xc0fc2f09	-7.8807416
52	0xc0e19c2b	-7.0503135
53	0xc101bc04	-8.108402
54	0x40afc838	5.493191
55	0x411068fb	9.02563
56	0x4132bd5e	11.171232
57	0x40134052	2.3008008
58	0x3ff9cbe0	1.9515343
59	0x40c0d783	6.0263076
60	0x3f3d1572	0.7386085
61	0xbf622d57	-0.88350433
62	0x40afb66b	5.491018
63	0x410ae0fe	8.67993
64	0x40111611	2.2669718
65	0x4020c70c	2.5121489
66	0x4106e3b6	8.4305935
67	0x3f18a909	0.5963293
68	0x40c3e738	6.121975
69	0x41003dc9	8.015084
70	0x4071fb25	3.7809536
71	0x3fffc05b	1.9980577
72	0x406ace65	3.6688473
73	0xc11e66f1	-9.900132
74	0x409efc64	4.9683094
75	0x4001d72e	2.0287585
76	0x40108d24	2.2586145
77	0xc086c852	-4.211953
78	0xc083cf75	-4.1190743
79	0xc09d2d1d	-4.911757
80	0xbf9eba48	-1.2400599
81	0x4122ea9e	10.18228
82	0xc0670625	-3.60975
83	0x40f43165	7.6310296
84	0xbf9ca621	-1.2238199
85	0xbfcdbc24	-1.6073041
86	0x410d5259	8.832604
87	0x40c046d5	6.0086465
88	0xbfc4ef29	-1.5385486
89	0x4142681e	12.150419
90	0xbe5f6b25	-0.21818216
91	0x411dc58f	9.860732
92	0x40ed9f27	7.425678
93	0xc06ef506	-3.733705
94	0x406c39d7	3.6910303
95	0xc12af53a	-10.68487
96	0x40f4a4a9	7.6451
97	0x3fe7e90c	1.8117995
98	0x4052fa6c	3.2965345
99	0xc0d2c90d	-6.5870423

model/batch_normalization_2/batchnorm/mul_1;model/batch_normalization_2/batchnorm/add_1;model/dense_3/MatMul;model/activation_3/Relu;model/dense_3/BiasAdd f4 [100, 100]
0	0x3e8fa976	0.28058976
1	0xbd84cd92	-0.06484522
2	0xbd9938c8	-0.07481533
3	0xbd2d70ab	-0.042343777
4	0x3e04b2a7	0.12958775
5	0xbd5b8d23	-0.053601395
6	0xbc33cde4	-0.010974381
7	0x3d29c11b	0.041443925
8	0xbda8c3be	-0.0824046
9	0x3e4f9db1	0.20274998
10	0xbdc4d2ab	-0.09610494
11	0x3e51794b	0.20456426
12	0xbe7ba4d1	-0.24574591
13	0x3e63f62e	0.22261879
14	0x3e334207	0.17505656
15	0xbe3d03c6	-0.1845847
16	0xbda10fed	-0.07864366
17	0x3e1736b4	0.14766961
18	0x3d1d1e6e	0.038359098
19	0x3d5bb7dd	0.053642143
20	0xbc9b314b	-0.018944403
21	0xbd1514fa	-0.036396958
22	0x3eac06dd	0.33598986
23	0xbe3a0d57	-0.18169151
24	0xbc3f866b	-0.011689763
25	0x3e03e7cc	0.12881392
26	0xbdd88c9b	-0.10573693
27	0xbd677f62	-0.056517966
28	0xbe523e02	-0.20531467
29	0xbd6ece05	-0.058301944
30	0x3d1f038e	0.03882175
31	0xbd519ac2	-0.05117298
32	0xbd94ed73	-0.07271852
33	0xbd86f232	-0.06589164
34	0xbe54db9d	-0.20786901
35	0x3dcb84e7	0.099374585
36	0x3e072faf	0.13201784
37	0x3cd3ae34	0.025839902
38	0x3d357b50	0.044307053
39	0xbceb7fa1	-0.028747382
40	0xbdfa7a2a	-0.12230332
41	0xbdc7e31d	-0.09760115
42	0xbd8a4e1e	-0.06753181
43	0x3e01147a	0.12605467
44	0xbd1da2db	-0.03848539
45	0xbcfddab2	-0.030988071
46	0xbdd277fc	-0.102767915
47	0xbeab9f0d	-0.33519784
48	0xbcccbce3	-0.024992412
49	0x3e171555	0.14754231
50	0xbcf6689d	-0.03007918
51	0x3d92de0c	0.07171258
52	0x3e20013c	0.15625471
53	0x3e29111c	0.16510433
54	0xbe57441e	-0.21022078
55	0xbdc54940	-0.09633112
56	0xbc3305db	-0.010926689
57	0x3e25c60e	0.16188833
58	0x3e815088	0.25256753
59	0xbdd9a831	-0.10627783
60	0xbe09c10a	-0.13452545
61	0x3eaedef3	0.34154472
62	0x3e067cde	0.1313357
63	0xbe246c2e	-0.16056892
64	0xbd13fc7b	-0.036129456
65	0xbd99cadc	-0.075093955
66	0xbfa04e10	-1.2523823
67	0xbdaa2dca	-0.08309515
68	0x3d9917cc	0.07475242
69	0x3d974270	0.07385719
70	0x3dc70798	0.09718245
71	0xbc8c3edf	-0.017119823
72	0x3af5ad86	0.0018743731
73	0xbd62c593	-0.055364203
74	0x3e0a634f	0.13514446
75	0x3e2251db	0.15851538
76	0x3b0f2f32	0.00218482
77	0xbcbdfc14	-0.02319149
78	0x3bbc2865	0.00574212
79	0x3d444894	0.04792078
80	0xbe0708a6	-0.13186893
81	0xbda23366	-0.0791996
82	0xbda75496	-0.0817043
83	0x3db8ceb9	0.09023804
84	0x3d8242a1	0.06360365
85	0xbdcf951d	-0.10135863
86	0xbc97397e	-0.018460032
87	0xbd8e5708	-0.06950194
88	0xbc840430	-0.016115278
89	0x3ee7772e	0.45208114
90	0xbd7eed87	-0.062238242
91	0xbecfbd09	-0.4057391
92	0xbdab1223	-0.08353069
93	0x3db57b49	0.088614054
94	0x3ea16c02	0.31527716
95	0x3e0250ad	0.12726088
96	0xbd860921	-0.0654471
97	0xbe8514f3	-0.25992545
98	0x3d4aefd5	0.049545128
99	0xbd76d756	-0.060263954
100	0xbe1dd5d0	-0.15413594
101	0x3d6c2b61	0.057658557
102	0xbe6a9013	-0.22906522
103	0xbd928129	-0.071535416
104	0xbd217ed0	-0.03942758
105	0x3e626416	0.22108492
106	0x3d31e9ae	0.043435745
107	0xbd21b2ae	-0.039477043
108	0xbe26bfea	-0.16284147
109	0xbd92f1e7	-0.071750455
110	0xbdc6c7e3	-0.09706094
111	0x3df347e5	0.11878947
112	0x3c6f734d	0.014614892
113	0xbd5dd7a5	-0.054160733
114	0x3e895b77	0.26827595
115	0x3d44394e	0.047906213
116	0x3ded372d	0.115827896
117	0xbcb6fa44	-0.022336133
118	0xbe0b06c6	-0.13576803
119	0xbe102c16	-0.14079317
120	0x3d800e8d	0.06252775
121	0xbd967b51	-0.073477395
122	0xbc66fbd9	-0.014098131
123	0xbe04d173	-0.12970524
124	0xbdf5ed6f	-0.120081775
125	0xbd12c5f4	-0.035833314
126	0x3db3f5c9	0.08787114
127	0xbdb54f0e	-0.08852969
128	0xbdafae37	-0.08578151
129	0xbed1a361	-0.4094496
130	0x3ca29eae	0.019851055
131	0x3d02297c	0.031777844
132	0x3e61735f	0.22016667
133	0x3ca2aa77	0.019856675
134	0x3d3a8f21	0.045546655
135	0x3e010550	0.12599683
136	0x3e510391	0.20411517
137	0x3d23facf	0.04003411
138	0x3d3d697d	0.04624318
139	0x3d52c53c	0.05145763
140	0xbf1b6af8	-0.60710096
141	0xbcce126f	-0.025155274
142	0xbdf49e27	-0.11944228
143	0x3d12b0ee	0.035813265
144	0xbca9dde7	-0.020735694
145	0x3e0eee84	0.13958174
146	0xbde81ca9	-0.113335915
147	0xbe27be2f	-0.16381143
148	0x3e09299c	0.13394779
149	0x3d055f61	0.032561664
150	0x3d14d883	0.036339294
151	0x3d22e028	0.039764553
152	0x3e0acffe	0.13555905
153	0xbc7464ff	-0.0149166575
154	0x3d7025d0	0.05862981
155	0x3df7cc2c	0.120994896
156	0xbdf2b780	-0.11851406
157	0x3d1c1050	0.038101494
158	0xbe2af77f	-0.16695975
159	0x3ec33318	0.3812492
160	0xbda9afc9	-0.082854815
161	0x3dde5930	0.10856855
162	0xbe0a904b	-0.13531606
163	0xbe9f3581	-0.31095508
164	0xbe59ce3e	-0.21270081
165	0x3d9ae1f2	0.07562627
166	0xbba9b887	-0.005179468
167	0xbbb89ea8	-0.0056341477
168	0x3dfc6147	0.12323242
169	0xbd7a9e21	-0.06118596
170	0x3d4170c9	0.0472267
171	0x3e3f0e73	0.18657856
172	0x3e08b8d5	0.13351758
173	0x3de6d619	0.11271305
174	0x3db9c571	0.09070862
175	0xbbb81f07	-0.005618933
176	0xbe398bff	-0.1811981
177	0xbd874d3c	-0.06606528
178	0xbc4ee9c5	-0.012628977
179	0x3e2bd0d4	0.1677888
180	0xbe1dfa57	-0.15427528
181	0xbe13f61c	-0.14449352
182	0x3ec01889	0.3751872
183	0xbcfeb449	-0.031091826
184	0xbde2ece9	-0.11080343
185	0x3d3a3e03	0.045469295
186	0x3e900953	0.28132114
187	0xbe8a8288	-0.27052712
188	0xbe745e30	-0.23864055
189	0x3d3a2ed7	0.045454826
190	0xbdbe75b0	-0.09299791
191	0x3e7085d0	0.23488545
192	0xbcb13101	-0.021629812
193	0xbd33395a	-0.043755867
194	0x3bf1c4f9	0.0073782173
195	0xbd8324ee	-0.06403528
196	0x3e097c0b	0.13426225
197	0x3ae8dacb	0.0017765401
198	0xbe1215e3	-0.14266162
199	0xbd932d45	-0.07186369
200	0x3cae1522	0.021250311
201	0xbdd03408	-0.10166174
202	0xbe69c35e	-0.22828433
203	0xbcd14e19	-0.025549935
204	0xbdabaa23	-0.083820604
205	0x3d271aea	0.04079715
206	0xbd87b40c	-0.06626138
207	0x3ed4ede3	0.41587743
208	0x3da66266	0.08124237
209	0xbbfbe6f3	-0.0076874434
210	0xbde36983	-0.11104109
211	0x3ebd189a	0.36932832
212	0x3e0b0f92	0.13580158
213	0xbe1a747e	-0.150835
214	0x3dad2bf2	0.084556475
215	0xbc497fca	-0.012298534
216	0xbd274bec	-0.04084389
217	0x3d428b33	0.047496032
218	0xbd2b6726	-0.041846417
219	0x3e017584	0.12642485
220	0xbe49f6e8	-0.19723094
221	0x3e9a4ac2	0.3013516
222	0xbd8d49ee	-0.068988666
223	0xbdf05850	-0.11735594
224	0xbdd7bb26	-0.105337426
225	0x3cd2408b	0.025665542
226	0xbd3b7793	-0.04576833
227	0x3d22b6e1	0.03972519
228	0xbe42f370	-0.19038177
229	0xbe34725b	-0.17621748
230	0xbe14ff1c	-0.14550442
231	0x3da8aa01	0.08235551
232	0xbdf1f90e	-0.118150815
233	0x3d970aed	0.07375131
234	0x3dfaefd0	0.12252772
235	0xbd148632	-0.03626079
236	0xbd347033	-0.044052314
237	0xbc8cc644	-0.017184384
238	0xbda393d5	-0.07987181
239	0xbe4610fd	-0.19342418
240	0x3e31bfc7	0.17358314
241	0x3c74c80f	0.014940276
242	0x3cc7cf16	0.024390738
243	0x3d38eea3	0.045149457
244	0xbe1a0066	-0.15039214
245	0xbdc85833	-0.09782448
246	0x3da89f52	0.08233513
247	0x3e10b659	0.1413206
248	0x3d8ef820	0.0698092
249	0xbdd13f89	-0.102171965
250	0xbe666dc5	-0.22502811
251	0xbe4ebcb5	-0.20189174
252	0xbd796cf9	-0.06089494
253	0xbd263ff8	-0.04058835
254	0xbe21392f	-0.1574447
255	0xbdfc2bf4	-0.12313071

model/dense_4/MatMul;model/activation_4/Relu;model/dense_4/BiasAdd f4 [100]
0	0x402d44a5	2.7073147
1	0x3ef9afd2	0.48766953
2	0xc00bffea	-2.1874948
3	0x3f68d077	0.9094309
4	0xc0bf6584	-5.981142
5	0xc05a306f	-3.4092062
6	0x409f9b3c	4.9876995
7	0x4000825c	2.0079565
8	0x411008f2	9.002184
9	0x40f8ed93	7.7790008
10	0xc0f1691a	-7.54408
11	0xc09dd259	-4.931927
12	0x41625f7d	14.148313
13	0x41000a20	8.002472
14	0xc0c45894	-6.1358128
15	0xbf686be6	-0.9078964
16	0xc0af15bd	-5.4714036
17	0xc0b6fe4d	-5.7185426
18	0x402bce25	2.684457
19	0x4112c07a	9.171991
20	0xc02a1c74	-2.6579866
21	0xc05ee480	-3.4826965
22	0x4133b457	11.231528
23	0xc065c114	-3.5899096
24	0x4143f661	12.247651
25	0xbeeda9f7	-0.46418735
26	0x400d3467	2.2063234
27	0x40a0739f	5.014114
28	0x40ef4e06	7.4782743
29	0xc043b801	-3.0581057
30	0x3fe7659a	1.8077881
31	0xbf0809a9	-0.5313974
32	0x4149eb17	12.619895
33	0x401ed2f1	2.4816248
34	0x4127cb3b	10.487117
35	0x4093fdef	4.6247478
36	0xc0b2fd03	-5.593385
37	0x40ba210b	5.8165336
38	0x41153e46	9.327703
39	0x40d3b990	6.6164017
40	0x4179f5e9	15.622537
41	0x3f37c565	0.71785575
42	0x4100422a	8.016153
43	0xc0bd0ff5	-5.908198
44	0x414403e4	12.25095
45	0xc021b1ec	-2.5264845
46	0x40321c67	2.7829835
47	0xbffd3bf2	-1.9783919
48	0xc0cc0950	-6.376137
49	0xc005ad37	-2.0886972
50	0x40e74869	7.227589
51	0x40fa4f49	7.8221784
52	0xbe400449	-0.18751635
53	0x3f235942	0.6380807
54	0x40897e03	4.2966323
55	0x40b64dd2	5.6969995
56	0x3f814fb5	1.010245
57	0x40a73447	5.2251315
58	0x410d25eb	8.821757
59	0xbf6e3965	-0.9305633
60	0xc00395c7	-2.0560167
61	0x3e0e5b37	0.13901983
62	0x402a213f	2.6582792
63	0x4008a7a4	2.135232
64	0xc03cbd19	-2.9490416
65	0x40188a27	2.3834321
66	0xc059abb7	-3.4011056
67	0x407dae4f	3.963764
68	0x40fb5dc3	7.8551955
69	0x40f2fc23	7.5932784
70	0xc07232a2	-3.7843404
71	0x416a135c	14.629726
72	0x40609b54	3.5094805
73	0xc0c02af0	-6.0052414
74	0x407106c0	3.766037
75	0x410957e4	8.583958
76	0x40d5d86c	6.6826687
77	0xbfc80f53	-1.5629677
78	0x410c761a	8.778833
79	0xc06a28b8	-3.6587353
80	0x408646d8	4.196148
81	0x41282c30	10.510788
82	0x411cf8f7	9.810782
83	0xc05891ee	-3.3839068
84	0x3f9f1336	1.2427738
85	0xbe76b277	-0.24091516
86	0x40da76f7	6.827022
87	0xc0ca109a	-6.3145266
88	0x401f4854	2.4887896
89	0xc09d6b03	-4.919313
90	0x41024f70	8.144394
91	0x4093f0c0	4.6231384
92	0xbf004e24	-0.50119233
93	0x40d8ed5c	6.7789745
94	0x41633266	14.199804
95	0x4143f3d2	12.247026
96	0xc067b15c	-3.6202002
97	0xc0db0da5	-6.8454156
98	0x406d6f42	3.7099156
99	0x40c3b56b	6.1158957

model/batch_normalization_3/batchnorm/mul_1;model/batch_normalization_3/batchnorm/add_1;model/dense_4/MatMul;model/activation_4/Relu;model/dense_4/BiasAdd f4 [100, 100]
0	0x3c0e6bda	0.008692706
1	0x3dc1631f	0.09442734
2	0x3d9c4a07	0.07631307
3	0xbe685b38	-0.22691047
4	0xbe4102c4	-0.18848711
5	0x3dcb9172	0.09939851
6	0x3da9ebd3	0.08296933
7	0xbda2b723	-0.07945087
8	0xbe1ad69b	-0.15120928
9	0x3d19f5be	0.037587874
10	0xbc915780	-0.017741919
11	0x3d5d98e1	0.054100875
12	0xbd845b19	-0.06462688
13	0xbd93028a	-0.07178219
14	0x3dea54dc	0.11441967
15	0x3e42b27b	0.19013397
16	0xbcacae29	-0.02107914
17	0x3d1693bb	0.03676198
18	0xbd065307	-0.032794025
19	0x3d51b77a	0.051200368
20	0xbd4c4bb6	-0.04987689
21	0x3e6a161a	0.22859994
22	0x3f1922e2	0.5981885
23	0x3d31e3f3	0.04343028
24	0xbe2aae26	-0.16667995
25	0xbc992efb	-0.01869916
26	0xbd0ae648	-0.03391102
27	0x3cfa9ed6	0.030593317
28	0xbaa72553	-0.0012752212
29	0xbdfb7ec4	-0.12280038
30	0xbe0054db	-0.1253237
31	0xbe59ab78	-0.21256816
32	0x3ce5d0ba	0.02805363
33	0xbdadaadb	-0.08479854
34	0x3d9696e3	0.07352998
35	0x3e070f24	0.1318937
36	0x3de24a96	0.110493824
37	0xbd17f338	-0.037097186
38	0x3d58be88	0.05291608
39	0xbddd26fa	-0.1079845
40	0xbd6c428c	-0.05768065
41	0xbe80e457	-0.2517421
42	0x3d29b052	0.041427918
43	0x3ded8af1	0.115987666
44	0x3b481e93	0.0030535802
45	0x3d9b2386	0.07575135
46	0xbf04df81	-0.5190354
47	0xbe0b9467	-0.1363083
48	0x3e967afe	0.2939071
49	0x3cef6a73	0.029225564
50	0xbd05282b	-0.03250901
51	0x3e015ad6	0.12632307
52	0x3a858db0	0.0010189321
53	0x3cd7f6ab	0.026362738
54	0xbe1768b5	-0.14786036
55	0x3ecef62a	0.40422183
56	0xbd7c33c0	-0.06157279
57	0x3dfd715a	0.12375136
58	0x3c69765c	0.0142494105
59	0x3e5ac020	0.21362352
60	0xbe491d28	-0.19640028
61	0x3c906be8	0.017629579
62	0x3c5208e3	0.012819502
63	0xbd0cf46f	-0.034412798
64	0xbd8f5b07	-0.06999784
65	0x3c7df453	0.015500146
66	0x3db82ade	0.08992551
67	0xbe0c96a9	-0.13729347
68	0xbd989b33	-0.07451477
69	0xbd89b49a	-0.067239
70	0x3b820851	0.0039682765
71	0x3de6a787	0.11262422
72	0xbe40c840	-0.1882639
73	0x3c534a29	0.012896099
74	0x3d398dd5	0.045301277
75	0x3c79890c	0.015230428
76	0xbda9b1d8	-0.08285874
77	0x3d697e8d	0.057005454
78	0x3bf7b366	0.0075592278
79	0x3ccfa154	0.025345482
80	0xbc9a1320	-0.018807948
81	0xbd66a281	-0.05630732
82	0x3ced840d	0.02899363
83	0xbd88dfb0	-0.0668329
84	0x3d55825c	0.052126274
85	0xbd46562a	-0.048422016
86	0x3dd0430e	0.1016904
87	0x3c75ce19	0.015002751
88	0xbd7f18b2	-0.06227941
89	0x3d336afc	0.0438032
90	0xbc2da523	-0.010598454
91	0x3c884be1	0.016637744
92	0xbc80f26d	-0.015740598
93	0x3d767aef	0.060175832
94	0xbeb6b31d	-0.35683528
95	0x3e731f41	0.23742391
96	0x3cd34c5c	0.025793247
97	0x3e1eef98	0.15521085
98	0xbcacb0a1	-0.021080317
99	0x3cdbde96	0.026839536
100	0xb9b31e45	-0.00034164093
101	0x3dedea17	0.11616915
102	0x3d844a75	0.06459514
103	0xbd9a4bcc	-0.07533988
104	0xbd1e6908	-0.038674384
105	0xbc006a44	-0.007837836
106	0x3db7ba5b	0.08971091
107	0x3e1bb756	0.15206656
108	0xbccfd427	-0.025369717
109	0x3ced26fd	0.028949255
110	0xbcfe34ed	-0.031031096
111	0x3dff0274	0.1245164
112	0x3cac89aa	0.021061737
113	0x3d85f7dd	0.06541417
114	0x3bab599a	0.005229187
115	0x3d7a23b6	0.061069213
116	0xbddab4de	-0.10679029
117	0xbd0958d8	-0.033531994
118	0x3d9c2b4c	0.07625446
119	0xbe7c8d1e	-0.24663207
120	0xbd86c38d	-0.06580267
121	0x3cb35fea	0.021896321
122	0x3dadad81	0.08480359
123	0x3e9b1c4f	0.30295035
124	0xbd5b1b6c	-0.05349295
125	0x3cfa84f8	0.030580983
126	0xbd96da48	-0.073658526
127	0x3db48a6f	0.088154666
128	0x3dc425b2	0.09577502
129	0x3e9f7515	0.31144014
130	0xbd492125	-0.049103875
131	0xbe7425ff	-0.2384262
132	0x3d8d7766	0.06907539
133	0xbe8e4b57	-0.27791855
134	0x3dd61eea	0.10455115
135	0xbe3d2010	-0.18469262
136	0x3dd70af1	0.10500134
137	0xbd5c1ba5	-0.0537373
138	0x3decccee	0.11562525
139	0x3db465d9	0.088084884
140	0x3e788fa6	0.24273548
141	0xbe03edd6	-0.12883696
142	0xbcb82ccc	-0.022482298
143	0x3d59893a	0.053109385
144	0xbe3fac9f	-0.18718193
145	0xbd15fc42	-0.036617525
146	0x3e56e22d	0.20984717
147	0xbe5ccfbc	-0.2156362
148	0xbdbefa26	-0.09325056
149	0x3d03ecb8	0.032208174
150	0xbcf704fa	-0.03015374
151	0xbd3e0a2a	-0.046396412
152	0x3d8642ac	0.065556854
153	0xbc9ebb23	-0.019376343
154	0xbd2dd889	-0.042442832
155	0x3d9d4a69	0.07680208
156	0x3bf7306c	0.007543614
157	0x3c8a8988	0.016911283
158	0xbe3187b0	-0.17336917
159	0xbe003155	-0.12518819
160	0x3ca8b41e	0.020593699
161	0xbcb49008	-0.022041336
162	0x3d73c8ff	0.059517857
163	0xbd1069b9	-0.035257075
164	0xbdd7259d	-0.10505221
165	0xbd7b3d6b	-0.06133787
166	0xbc61a308	-0.01377178
167	0x3e04f3f5	0.12983687
168	0x3e66da96	0.22544321
169	0x3e12716a	0.14301077
170	0xbcb3a360	-0.02192849
171	0xbe5ccfe5	-0.2156368
172	0x3e87c4f6	0.26517457
173	0x3db99e11	0.09063352
174	0x3dc0bc88	0.094109595
175	0xbd23b766	-0.039969824
176	0xbdffa193	-0.1248199
177	0xbda33a0d	-0.07970057
178	0x3dc237d2	0.09483303
179	0xbec059ba	-0.37568456
180	0xbe231f4b	-0.15929906
181	0x3bdc24df	0.0067182626
182	0xbd03f1e7	-0.032213118
183	0xbde6c5d4	-0.112682015
184	0x3e1c72b3	0.1527813
185	0xbe298b9e	-0.16557166
186	0x3e4ae7cf	0.1981499
187	0x3c0bf304	0.008541826
188	0xbd3bb43f	-0.045826193
189	0xbda85095	-0.08218495
190	0x3d86d12e	0.065828666
191	0xbdbf0dd3	-0.09328809
192	0x3e018ef5	0.1265219
193	0xbdeed660	-0.116619825
194	0x3c49deee	0.012321217
195	0x3e1fa5de	0.15590617
196	0xbe030514	-0.12794906
197	0x3dac2464	0.084053785
198	0x3c5fe1b9	0.013664656
199	0x3d844814	0.0645906
200	0x3d1ea14d	0.038728047
201	0x3d8d681e	0.069046244
202	0xbca0fb38	-0.01965104
203	0x3ddb2868	0.10701066
204	0x3d952da6	0.072840974
205	0xbca1583d	-0.019695396
206	0x3b3002b9	0.0026857092
207	0x3c5e6efa	0.013576264
208	0xbcd418d6	-0.025890749
209	0xbcd9ab3c	-0.026570909
210	0x3bb48432	0.005508923
211	0x3e915f3f	0.2839298
212	0x3e0b16f8	0.1358298
213	0x3daa8f83	0.08328154
214	0x3ce35fa2	0.027755562
215	0xbad6626d	-0.0016356237
216	0x3cf7dd7b	0.030256977
217	0x3d34228e	0.043978266
218	0xbe776b2c	-0.24161977
219	0x3e04abbf	0.12956141
220	0x3d6b24ba	0.057408072
221	0x3d744300	0.05963421
222	0xbd5bbd3f	-0.053647276
223	0x3b1d1b80	0.002397269
224	0x3d8a813b	0.0676293
225	0xbe6c6d5d	-0.23088594
226	0xbb9fc9b6	-0.0048763407
227	0x3db3645f	0.08759379
228	0x3e995322	0.29946238
229	0x3dda64e0	0.10663772
230	0x3e09a004	0.13439947
231	0xbd6b337b	-0.057422142
232	0xbd5077b5	-0.05089541
233	0x3cd03a0d	0.025418306
234	0x3e02a6a8	0.12758887
235	0xbe9fc59d	-0.31205454
236	0x3d460950	0.048348725
237	0x3d7b67ec	0.061378404
238	0xbed92dfd	-0.424179
239	0xbe0b5aeb	-0.13608901
240	0xbd869b12	-0.06572546
241	0xbdb8af6a	-0.090178326
242	0xbe19442f	-0.14967416
243	0xbd629ab0	-0.055323303
244	0xbb0a9f26	-0.0021151989
245	0xbd364078	-0.044495076
246	0xbe916d9d	-0.2840394
247	0xbcfaf6f0	-0.030635327
248	0x3e4a33a0	0.19746256
249	0xbdd44a48	-0.103657305
250	0x3d3c1ea4	0.04592766
251	0xbbb68e28	-0.0055711456
252	0x3cf30f83	0.029670483
253	0x3e51a9f9	0.20474996
254	0xbd2a69ce	-0.04160481
255	0x3cdf02de	0.027223047

model/dense_5/MatMul;model/activation_5/Relu;model/dense_5/BiasAdd f4 [100]
0	0x412f60fc	10.961178
1	0x40b620e7	5.6915164
2	0xc0c3d44d	-6.1196656
3	0xc043d478	-3.059843
4	0x3f93fb22	1.1561015
5	0xbf01379f	-0.50475496
6	0x40b7ded8	5.7459526
7	0xbf89cd59	-1.0765792
8	0xc05d6188	-3.4590778
9	0x3efdd80e	0.495789
10	0x40f9c33d	7.805083
11	0xc0297f17	-2.648382
12	0x3fbd7fa3	1.4804577
13	0x410df592	8.872454
14	0xc09aa5a0	-4.832718
15	0x40b669ee	5.700431
16	0xbfa7f997	-1.3123044
17	0x40d9cd42	6.806306
18	0xbf584e55	-0.84494525
19	0x3fa3f2f8	1.2808523
20	0x419c3228	19.52449
21	0xc0b422af	-5.629234
22	0x4122f7cd	10.185498
23	0x3f8e15cb	1.1100401
24	0x403391a9	2.8057654
25	0x3f29ecc0	0.66376877
26	0xc0f5e21a	-7.6838503
27	0x4103a912	8.228777
28	0x3f6934c1	0.9109612
29	0x411baaae	9.72917
30	0xc06f8726	-3.7426238
31	0x3f7aed4f	0.98018354
32	0xc0161fd2	-2.3456922
33	0x40227cbe	2.5388637
34	0x40f374eb	7.608022
35	0x409468e6	4.637805
36	0x4044e346	3.0763717
37	0x40c090cf	6.017677
38	0xc02b0f92	-2.6728253
39	0xc130cb45	-11.049626
40	0x41252bfb	10.323237
41	0xc11c54c3	-9.770694
42	0x40c3556f	6.104179
43	0x4099de07	4.808353
44	0x40a8e82a	5.2783403
45	0xc09b8ebd	-4.861174
46	0xc0202450	-2.5022163
47	0xbf3e4291	-0.7432032
48	0xbf92a76b	-1.1457342
49	0x412f171f	10.943145
50	0xc0b428a1	-5.6299596
51	0x40aa8b1a	5.32948
52	0xc13fc665	-11.985936
53	0x3fcff4f6	1.6246631
54	0xbfbb47d6	-1.4631298
55	0xc05225d6	-3.2835593
56	0xbf8a6da6	-1.0814712
57	0x40cdfbc4	6.436983
58	0xbf8c53dc	-1.0963092
59	0x410ba1f0	8.7270355
60	0x40ba92c7	5.830417
61	0x409f60c4	4.980562
62	0x412227d0	10.13472
63	0x40b44cb0	5.6343613
64	0xc0eff20f	-7.498298
65	0x40659351	3.5871165
66	0x40f2061f	7.563247
67	0xbdaf8508	-0.085702956
68	0x3e742c46	0.23845014
69	0xbfde9931	-1.73905
70	0xc1439405	-12.223638
71	0x408fabe6	4.4897337
72	0x413a7db8	11.655693
73	0x40bf1cd0	5.972267
74	0x405cc399	3.4494383
75	0xbfd3c1d3	-1.6543525
76	0xbfa34019	-1.2753936
77	0xc0a15b9f	-5.042434
78	0x3ec936c6	0.392996
79	0xc17e2bd1	-15.885697
80	0x41873560	16.901062
81	0xbf1bf906	-0.60926855
82	0x412b6eef	10.714583
83	0x4141d56f	12.114608
84	0x4008b033	2.1357543
85	0xc08a0305	-4.3128686
86	0xc0f201a3	-7.5627
87	0xc025b135	-2.5889409
88	0xc06b2bdc	-3.674552
89	0x407f755b	3.9915378
90	0xbc934eeb	-0.017981967
91	0x4001320b	2.0186794
92	0xc0892482	-4.2857065
93	0xc0fd6c2d	-7.919455
94	0x402b1ee7	2.6737611
95	0x3fb941c2	1.4473193
96	0x413bfe6d	11.749616
97	0x410bb880	8.732544
98	0x41088ac5	8.533879
99	0x408e8dc6	4.4548063

model/batch_normalization_4/batchnorm/mul_1;model/batch_normalization_4/batchnorm/add_1;model/dense_5/MatMul;model/activation_5/Relu;model/dense_5/BiasAdd f4 [100, 100]
0	0x3d218991	0.039437834
1	0xbe035d33	-0.12828521
2	0xbc825251	-0.015908392
3	0x3e12ed48	0.14348328
4	0x3e14a99f	0.1451783
5	0xbd49a755	-0.049231846
6	0x3e53c896	0.20681986
7	0x3e921f4a	0.28539497
8	0x3ce0fc8f	0.02746418
9	0xbe9699ea	-0.29414302
10	0xbed24815	-0.4107062
11	0xbdfcf80d	-0.123519994
12	0x3e109cfd	0.14122386
13	0xbdb2b0d3	-0.08725133
14	0x3e229f68	0.15881121
15	0x3e4646cd	0.19362946
16	0xbc843173	-0.01613686
17	0x3dd2cb5f	0.10292696
18	0x3e3712c0	0.17878246
19	0xbe891d63	-0.26780233
20	0xbd45fe45	-0.048338193
21	0x3d85303e	0.06503342
22	0xbd7ef092	-0.062241144
23	0xbe030058	-0.127931
24	0xbbc6a460	-0.0060620755
25	0xbd134e48	-0.035963327
26	0xbde1afe6	-0.11019878
27	0x3dadbe69	0.084835835
28	0xbca40697	-0.020022674
29	0xbce21c81	-0.027601482
30	0xbe688884	-0.22708327
31	0xbcba501f	-0.022743283
32	0xbbd59106	-0.0065175323
33	0xbe8d9b13	-0.27657375
34	0xbcc467ca	-0.023975272
35	0x3cc198c1	0.023632409
36	0x3d8afdd7	0.06786697
37	0xbd6fc8c4	-0.058541074
38	0xbd68f602	-0.056875236
39	0xbce5fedc	-0.028075628
40	0x3e4ee7d7	0.20205627
41	0x3e0c56ca	0.13704982
42	0x3dc36866	0.09541397
43	0xbdff1085	-0.12454323
44	0xbd4ca67d	-0.049963463
45	0x3ea7d1c8	0.32777238
46	0xbcb7add6	-0.022421759
47	0x3ca30eef	0.019904582
48	0xbb94d788	-0.004542295
49	0xbf5731c6	-0.84060323
50	0x3ddf9af5	0.109182276
51	0xbbed0f59	-0.0072344956
52	0x3e77f8b1	0.24215962
53	0xbbd526b8	-0.00650486
54	0xbd9aa9bd	-0.07551906
55	0x3e3e6ead	0.18596907
56	0xbd8f21d0	-0.06988871
57	0xbe2859cd	-0.16440506
58	0xbcab532e	-0.020913687
59	0xbdb68091	-0.08911241
60	0x3a2c19fd	0.0006565152
61	0x3c8abbfa	0.016935337
62	0x3d2c1416	0.042011343
63	0x3dc6fefa	0.09716602
64	0x3e0c724b	0.13715474
65	0xbd2acd78	-0.041699857
66	0x3e2f18a8	0.1709925
67	0x3d1701cd	0.03686695
68	0xbccb73b7	-0.02483545
69	0xbe2b1bd0	-0.16709828
70	0xbe1d5a3e	-0.15366456
71	0xbdd71adf	-0.10503172
72	0xbd89687b	-0.06709381
73	0x3df13e8d	0.11779509
74	0xbd498093	-0.049194884
75	0xbd1a1adb	-0.037623268
76	0xbd8712d2	-0.065953866
77	0x3d1b4ab4	0.03791304
78	0x3dce17ec	0.100631565
79	0xbe3937c8	-0.18087685
80	0xbddc3ba1	-0.10753561
81	0xbd2c61d7	-0.042085495
82	0xbc647379	-0.013943546
83	0xbca9622c	-0.020676695
84	0x3c974a70	0.018468112
85	0xbded9b87	-0.1160193
86	0xbdf50491	-0.119637616
87	0x3da71c65	0.08159713
88	0xbe7764be	-0.24159524
89	0xbdf13d86	-0.11779313
90	0xbe8a2bcc	-0.2698654
91	0x3e2c5e2d	0.168328
92	0xbd64b286	-0.055834316
93	0xbe50e02b	-0.20398013
94	0x3e030b95	0.12797387
95	0xbe0b05b6	-0.13576397
96	0xbde11654	-0.10990587
97	0x3a4e1650	0.0007861601
98	0x3debfd8b	0.11522969
99	0xbdfa3450	-0.12217009
100	0xbc13ccd1	-0.009021
101	0x3e15f7c2	0.14645293
102	0xbdd3b912	-0.10338034
103	0xbe54e796	-0.20791468
104	0x3dac635c	0.08417389
105	0x3e8e6e10	0.27818346
106	0x3e0290d6	0.12750563
107	0xb9388821	-0.0001759832
108	0xbda1cca0	-0.07900357
109	0x3dcf18d9	0.10112161
110	0x3ee4a48c	0.4465679
111	0x3ee239d7	0.44184753
112	0xbd52a73b	-0.051429015
113	0x3d6bba10	0.05755049
114	0x3c822d95	0.015890876
115	0xbd7f6add	-0.062357772
116	0xbdd1c83a	-0.10243268
117	0xbf0956bd	-0.5364798
118	0x3e5c805e	0.21533343
119	0x3d73b70c	0.05950074
120	0xbe44c174	-0.19214422
121	0x3e542b01	0.2071953
122	0x3d951669	0.07279665
123	0x3d7d7e3a	0.061887957
124	0xbd90ba45	-0.07066778
125	0x3d0248bd	0.03180765
126	0xbd2510c4	-0.040299192
127	0xbcd01415	-0.0254002
128	0x3df4a67e	0.11945818
129	0xbdb05e0a	-0.086116865
130	0x3d464c17	0.04841241
131	0xbd91608e	-0.070984945
132	0x3d0df68e	0.03465896
133	0x3e0c83d4	0.13722163
134	0xbd8f74a4	-0.07004669
135	0x3d8e9ee0	0.06963897
136	0xbeecf7e2	-0.4628287
137	0x3dd7e07f	0.10540866
138	0x3d048fa7	0.03236356
139	0xbd5eb790	-0.054374278
140	0x3de837be	0.11338757
141	0xbe6cda19	-0.23130073
142	0xbdbe5f55	-0.09295527
143	0x3d4fc82f	0.05072802
144	0xbd78eb00	-0.06077099
145	0xbf2014f9	-0.62532
146	0x3dd76535	0.105173506
147	0xbe4bab93	-0.19889669
148	0xbd5a321e	-0.05327045
149	0x3f33a207	0.7016911
150	0x3d36aba6	0.04459729
151	0xbddded6f	-0.108363025
152	0xbe3c5164	-0.18390423
153	0xbce844e1	-0.028353157
154	0x3e0d07a6	0.13772449
155	0xbea56275	-0.3230168
156	0xbde8c8a8	-0.11366397
157	0x3d721f07	0.05911162
158	0xbe002906	-0.12515649
159	0x3e34d386	0.17658815
160	0xbd0742b8	-0.033022612
161	0xbdb61c97	-0.08892172
162	0x3d34fc7b	0.044186097
163	0xbd1130e5	-0.03544702
164	0x3c823324	0.015893526
165	0xbde7897c	-0.1130552
166	0xbde95f37	-0.11395114
167	0xbe03765c	-0.1283812
168	0xbdd9433e	-0.106085286
169	0xbd917046	-0.071014926
170	0xbeb84aae	-0.35994476
171	0x3debab3d	0.115072705
172	0xbd843b58	-0.064566314
173	0xbcffda5f	-0.031232057
174	0xbd71c7bb	-0.05902837
175	0xbc7a097e	-0.015261052
176	0x3cb4e3a3	0.022081202
177	0xbcb20bf1	-0.02173421
178	0xbdda15a3	-0.10648658
179	0x3c95889b	0.018253615
180	0xbd5b868d	-0.053595114
181	0xbbb617db	-0.005557043
182	0xbd75951c	-0.059956655
183	0xbdbbc1dc	-0.09167835
184	0xbe082aed	-0.13297625
185	0xbdda38f9	-0.10655398
186	0xbd9847dc	-0.07435581
187	0xbddc3493	-0.10752215
188	0x3e8d0edf	0.27550408
189	0xbcf81d0b	-0.030287286
190	0x3d8d9bd4	0.069144875
191	0xbe4dfbf1	-0.2011564
192	0xbd6aef96	-0.057357393
193	0xbd571d89	-0.0525184
194	0xbde5331a	-0.111913875
195	0x3dbc95d4	0.09208265
196	0x3e00f42e	0.12593147
197	0xbea10e6a	-0.3145631
198	0x3b39f80f	0.0028376614
199	0xbea3e2ea	-0.3200906
200	0x3e2bc5eb	0.16774718
201	0xbb853ab4	-0.004065836
202	0xbd8aee32	-0.067837134
203	0xbe04c4e1	-0.12965728
204	0x3d9ef72e	0.077619895
205	0xbe9ecd30	-0.3101592
206	0xbdc55b2b	-0.096365295
207	0x3dc4ff7e	0.09619044
208	0xbdcf6ba2	-0.10127951
209	0xbd4da364	-0.05020465
210	0x3e4dfcca	0.20115963
211	0xbd22f839	-0.039787505
212	0xbcc672eb	-0.024224719
213	0xbca3ff32	-0.020019148
214	0x3c3a5d9e	0.011374859
215	0xbb89a19a	-0.0042001726
216	0x3d5310bb	0.051529627
217	0xbd888658	-0.06666249
218	0xbddf8b29	-0.109152146
219	0x3e13f857	0.14450203
220	0x3d739524	0.059468403
221	0x3d2c8f0a	0.0421286
222	0x3dda07e8	0.10646039
223	0x3c9a59e0	0.018841684
224	0xbd81dc5a	-0.06340857
225	0xbc3472f2	-0.011013733
226	0xbe0a700c	-0.13519305
227	0x3bff28e6	0.007786858
228	0x3e8a863b	0.27055535
229	0xbc83924b	-0.016060969
230	0x3e0f14f7	0.13972841
231	0x3c0a4eb8	0.00844162
232	0x3c9ff154	0.019524254
233	0xbd2e7897	-0.042595472
234	0xbe0620be	-0.13098428
235	0xbd88903c	-0.066681355
236	0x3e2f2d9a	0.1710724
237	0xbd866fa7	-0.06564265
238	0x3cd1d459	0.02561395
239	0x3e30c71c	0.17263454
240	0xbcd35519	-0.025797414
241	0x3d8de99a	0.069293216
242	0x3b868f4f	0.004106439
243	0xbe591c90	-0.21202302
244	0xbdbd54f3	-0.092447184
245	0x3de8ab4b	0.113607965
246	0x3dd1b261	0.10239101
247	0x3e20ce01	0.15703584
248	0xbdc04672	-0.093884364
249	0xbf018251	-0.5058947
250	0x3f1e72c9	0.618939
251	0xbe5e7340	-0.21723652
252	0x3da8da9b	0.08244821
253	0xbba367da	-0.0049867453
254	0xbdd6447e	-0.104622826
255	0x3defbc71	0.11705864

model/dense_6/MatMul;model/activation_6/Relu;model/dense_6/BiasAdd f4 [100]
0	0x3f8a50da	1.0805924
1	0x4096218e	4.691596
2	0x407c8388	3.945528
3	0x402b4a5c	2.6764135
4	0x41509f69	13.0389185
5	0x40ad3e27	5.413837
6	0x40e34744	7.1024494
7	0x40e4443d	7.13333
8	0x3f20ce8f	0.62815183
9	0x411f6e1b	9.964381
10	0x4111c7b0	9.111252
11	0xbf028bdf	-0.50994676
12	0x402f8a86	2.7428298
13	0x4131a216	11.102072
14	0x410ec1c0	8.922302
15	0xbebc59ee	-0.3678736
16	0x4070071d	3.7504342
17	0x3e115509	0.14192595
18	0x41568dd7	13.409629
19	0x41206e59	10.02694
20	0x418731f6	16.899395
21	0x3e89e63b	0.26933464
22	0xc049663b	-3.1468647
23	0xc0d1b628	-6.553486
24	0x40b7defd	5.7459702
25	0x3f0be0cd	0.54639894
26	0x4074e403	3.8264167
27	0x407b7cdb	3.9294956
28	0x412b2f84	10.6991005
29	0xbfaebb94	-1.3650994
30	0xc077ca20	-3.8717117
31	0x408ed757	4.4637866
32	0xbea81d6d	-0.3283495
33	0xc024257a	-2.5647874
34	0x40b4b0bf	5.6465755
35	0x41629022	14.160189
36	0xc10cff87	-8.812385
37	0x40d9e48c	6.809149
38	0xc08ba9fe	-4.364501
39	0x41278c21	10.471711
40	0x40c6dd54	6.2145176
41	0x4085f35e	4.185958
42	0xbfafa7f5	-1.3723131
43	0xc10c3d3e	-8.764952
44	0x41339934	11.224903
45	0x400feb2c	2.2487288
46	0xc0edf45d	-7.4360795
47	0x40aff643	5.4988112
48	0x4028c1df	2.636833
49	0x4083a179	4.113461
50	0x401d8964	2.4615107
51	0xc0530f3d	-3.297805
52	0xc0b4d32b	-5.6507773
53	0x412ee384	10.930546
54	0xbf38e13f	-0.722187
55	0x40739226	3.8057952
56	0x411f25ac	9.946697
57	0xc09e1870	-4.940483
58	0x40784e25	3.8797696
59	0x40fefcfb	7.9683814
60	0x4096cceb	4.7125144
61	0xc04120c1	-3.0176241
62	0xc06b0d3a	-3.6726823
63	0x3fb10d31	1.3832151
64	0x40be2eed	5.9432282
65	0x3e399220	0.18122149
66	0x41023afd	8.139401
67	0x3f9b97e5	1.215573
68	0xc01f25d7	-2.4866846
69	0x4035e204	2.84192
70	0x41175631	9.458543
71	0x40a4ce86	5.1502104
72	0xbfed8e9f	-1.855915
73	0x40e94b42	7.2904367
74	0x3e0d8ede	0.13824031
75	0xc026f7b1	-2.608868
76	0xc1111a9e	-9.068998
77	0x401f2b56	2.48702
78	0xc1445720	-12.271271
79	0xbf268406	-0.650452
80	0x40b7ae18	5.7400017
81	0x40bb362f	5.850364
82	0xc06e7bfa	-3.726317
83	0x415858bc	13.521664
84	0x40c23fcd	6.070288
85	0x3f8d8c6a	1.1058476
86	0x40a70eb2	5.220544
87	0xbe2ab071	-0.1666887
88	0xc001f013	-2.030278
89	0xbfaffa2a	-1.3748219
90	0x409a2c45	4.817904
91	0x3e86642f	0.2624831
92	0x4100ea72	8.057238
93	0x40591965	3.392175
94	0xc0e689a5	-7.2043023
95	0xbfbabed3	-1.4589485
96	0x41387d2e	11.530561
97	0xc0824fff	-4.072265
98	0xc002266a	-2.0335946
99	0xc0147c61	-2.3200915
