corintho_ai/rating/tflite_models/model_14.tflite (tflite, 521576 bytes, 27 tensors)

model/dense_1/MatMul;model/activation_1/Relu;model/dense_1/BiasAdd f4 [100]
00000000: 0b15 ddc1 3294 3542 aff7 b8c1 23f1 20c1
00000010: 1637 fd41 5a70 6c41 d7d9 8e41 1ab6 a1c1
00000020: f440 c9c1 1798 f640 99f3 0141 5427 e6c1
00000030: 01b6 3a40 ac92 38c1 05fd 5e40 2eab d0c1
00000040: 0fd7 2740 37ee bc3f 8806 08c1 419d b9c0
00000050: 7168 14bf 2860 d9bf a4b2 6540 5006 9dc1
00000060: f341 b341 27c8 b93f 6c26 53c1 3608 1cbf
00000070: 899a 97c1 846c 0940 e4b1 a1c1 fca9 73bf
00000080: d464 0541 11da c5c1 b771 ec41 a87e 2b41
00000090: fa7a 96bf f6ab 32c1 1e51 7d3f 628b 7441
000000a0: dd57 a741 3a51 73c0 8c72 4ac1 7a44 1340
000000b0: 83e6 e040 6e1f cfc0 a398 5d40 47e0 5bc1
000000c0: 2a38 64c0 95df 5dc1 f07d cb40 048a b8c1
000000d0: ae18 5d3f 11d0 7342 0d67 b4c0 91a4 5041
000000e0: 0e0c 1041 c126 97c0 ca0f b141 ccbf 26c0
000000f0: a2b2 c940 1ce4 c941 bcb8 dabf 23a0 b840
00000100: ab60 9541 51bc b641 a18f 2542 cd19 7541
00000110: b42f fac0 1776 02c2 98fa 4fbe 736a dcc0
00000120: 26b9 5d41 1adb 1e42 2b4e 98c0 4168 7041
00000130: c9c0 bcc0 83f5 6040 8c32 ddc1 772a 79c0
00000140: 037f b43f 51eb ce41 b7e4 3e40 8de7 83c1
00000150: 53f1 90c1 06c3 b141 cf5a 2441 ef36 5ac1
00000160: 6959 f241 48f7 9141 5e20 c141 63cd 9040
00000170: dad6 d241 5b83 c840 64e9 f5c0 0495 a840
00000180: fba5 1c42 bf19 be3f 3aac 8abf c6b3 0cc2
-27.635275 45.394722 -23.12094 -10.058871 31.651897 14.77743 17.856367 -20.213917
-25.156715 7.7060657 8.121972 -28.769203 2.9173586 -11.535809 3.484193 -26.083584
2.6225011 1.4760197 -8.501595 -5.800446 -0.57971865 -1.698247 3.5890284 -19.628082
22.407202 1.4514207 -13.19688 -0.6095003 -18.950457 2.1472483 -20.21186 -0.9518125
8.337116 -24.731478 29.555525 10.718422 -1.175628 -11.166983 0.989519 15.284029
20.917902 -3.8018327 -12.652966 2.3010545 7.0281386 -6.4725866 3.4624412 -13.742255
-3.565928 -13.867085 6.359123 -23.06739 0.86365783 60.95319 -5.6375794 13.040177
9.002943 -4.7234807 22.13271 -2.6054564 6.303056 25.236382 -1.7087626 5.769548
18.672201 22.841951 41.390263 15.318799 -7.818323 -32.615322 -0.20310438 -6.8879943
13.857702 39.713966 -4.759542 15.025453 -5.8985333 3.5149848 -27.649681 -3.8932168
1.4101261 25.8649 2.9827096 -16.488062 -18.117834 22.220226 10.27217 -13.6384115
30.293657 18.245743 24.140804 4.5250716 26.354908 6.2660346 -7.68474 5.2681904
39.16209 1.4851607 -1.0833809 -35.17556

model/batch_normalization/batchnorm/mul_1;model/batch_normalization/batchnorm/add_1;model/dense_1/MatMul;model/activation_1/Relu;model/dense_1/BiasAdd f4 [100, 100]
00000000: ab45 47bd 0f82 9ebe e2fd 523e c0d7 44be
00000010: bb86 cc3f 9d2a 4a3f b423 4cbe 7dab 6ebf
00000020: 6b13 333e 230c 1b3f c875 183e a99d 083f
00000030: 00d9 573b eafd e5bc 0a45 4e3c 60fb 213e
00000040: 4555 f53e f697 45bf 5a90 f63d 5385 d53e
00000050: b7e7 55bc 74b0 e63f 1a2a a7bd a41b aebc
00000060: 1cf6 0bbe b98e 463e d445 ca3e 1687 43bf
00000070: bcb9 a33e a1f8 103d 5dd2 283e fc5a 1e3f
00000080: a7bf 953e 6109 9f3e a586 b9be e67f 933e
00000090: 378b ab3e 98b3 11bf be43 2cbe b232 753e
000000a0: 57bb 0a3f 5242 2d3f 6e0d 013f a83c 153e
000000b0: 9cfe 93be 9965 c4be 7935 d23e d67e 8cbd
000000c0: 19a7 5f3e 500f 96bc 0a97 26bd 603e f23e
000000d0: be1b 1d40 5ceb f43f 30cf 4a3e d263 8e3e
000000e0: 5e6b 2bbe 0132 423e caa0 e7bf 42f9 bd3e
000000f0: b255 c63e 02d6 95bc 8fe5 a9be 0cec 2abf
00000100: d94a 213f 1034 efbe a0df bbbe 24dc 633e
00000110: 381d 9f3e a143 353f 4dba 303e 6c36 653e
00000120: 730f 80bd e478 1ebd abcc 633f 8601 31bf
00000130: 1749 4cbc 0e32 03bf 03a3 823e 684e 5c3f
00000140: 586a 953c feda 4c3e 25c2 b5bd 331a d1be
00000150: 4dd2 e4be 9165 5b3e 9e9d 503d d68d 81bd
00000160: 8e34 6f3e bcd3 0fbe d4c5 36bf f72b 403f
00000170: cffb e03d 2946 4cbf 080a 89be 60ab 4f3d
00000180: 9c5c 51bd 6925 d6bd 25e1 6abe 4fcf 36be
00000190: fb98 54bf dbd8 4cbf 523a 04bf 4463 0bbe
000001a0: 7b67 3abf 230c 9d3f a92e 3b3e 57ff 6c3e
000001b0: 6492 bd3d 83bd 1fbe 862d a83e 1ed6 053e
000001c0: b719 1cbf 2962 65bd 5645 e4be d15b 13bf
000001d0: ee6d fe3d d462 a8bf 0ac1 f4be 7eef 65be
000001e0: 98af b8be 52ff 073f 2835 6f3e b728 ebb7
000001f0: c867 323e 1ddb ccbd 1f57 b2be 99a7 b8be
00000200: 7eb3 563e a768 d73d 7622 0b3e 0fdd ce3e
00000210: 2dcc 0f3e e8b2 b7be 5514 7c3e 5b49 c5bd
00000220: f957 a7be 7862 c8bf e2ec 06bf 43e5 1bbf
00000230: 2d79 073e aafb 0abe 1ad7 37bf 8e92 50be
00000240: 27c2 553d a048 54bf 1c4a 83bd 6d42 87be
00000250: e6fb 38be 685d 973d 043b 9dbd 89e1 833f
00000260: 75f4 943d cabc 353f 7e72 b93d 92e4 74be
00000270: 5c59 e1bd 63b3 623f d360 2140 06eb 7e3e
00000280: 2d78 c33e 4ed7 4b3e 0aa3 613d 295f 2dbf
00000290: d06d e4be 68ee 3ebe 5234 063d 67c5 303f
000002a0: e85a e6bd ba2d dcbd 233d 00be 6640 093f
000002b0: 58d7 8cbc 787d 273e d226 dabe 016e a7be
000002c0: e58e f3be fd66 ffbd 9a38 2f3f e729 f73d
000002d0: 4f97 af3c 77d9 dabe 6a95 233e 628a 983d
000002e0: de8a 933d 8724 433e c8fb 06be 5f29 19bf
000002f0: 9995 063e 8b65 fdbe 31d5 54bf 4d05 593f
00000300: a0b2 23be 9ef9 03bf db45 00bf e6aa f4bd
00000310: df46 1dbd 2624 78bf cef9 d9be 5d09 9bbe
00000320: b965 193f 6cac adbd cc9a 7fbf 96df f33e
00000330: fb0f 4ebe 3dd2 cf3c d78b 4f3f 645d c1be
00000340: d959 21bf a270 24bf b9dd c2be b8e0 5a3f
00000350: 8fd3 0f3e e98d 463e 6c70 78bc 99e5 f33e
00000360: 06ee 243e 2dfd 90be 9ea5 0ebf aebb 40be
00000370: a4ed 33be a08b 86c0 4ce7 24be 4eff 873c
00000380: 8d90 ca3d c7c3 92be 4361 3a3e 0a80 8d3e
00000390: 2c5d adbd 83b5 f43f 818d 5f3f 8b31 693e
000003a0: 55aa ed3d 40b7 223f 9908 563f a03b a2bd
000003b0: dc88 a73d 5cc8 8d3e 3870 853e eb2a 0ebe
000003c0: 7463 9a3e b761 babe 5e55 f63e a2b9 053f
000003d0: 8331 563d dfac 17bf 6e4f a73e c525 9a3c
000003e0: 2b37 74be 9e5c 73be 1171 fbbd 1bf4 4840
000003f0: 3b08 2d3f 3f18 4dbe 7680 68be e763 cbbe
-0.048650425 -0.30958602 0.20604661 -0.19222927 1.5978616 0.7897127 -0.19935495 -0.9323042
0.17487876 0.60565394 0.1488868 0.5336557 0.0032935739 -0.028075177 0.012589702 0.15818548
0.47916618 -0.77185 0.120392516 0.4170328 -0.013055733 1.8022599 -0.08162327 -0.021253414
-0.13668102 0.19390382 0.395064 -0.76378 0.31977642 0.03539336 0.16486497 0.6185758
0.29247782 0.31061843 -0.36235538 0.28808516 0.3350465 -0.56914663 -0.16822717 0.2394512
0.5419211 0.6767932 0.5041112 0.1457392 -0.2890519 -0.38358763 0.4105642 -0.068601295
0.21841086 -0.018317848 -0.040671386 0.47313213 2.4548182 1.9134326 0.19805598 0.27810532
-0.16740176 0.18964387 -1.8095944 0.3710423 0.38737255 -0.018290523 -0.33182952 -0.6676643
0.63004833 -0.46719408 -0.3669405 0.22251946 0.3107698 0.7080632 0.17258568 0.22384042
-0.06252947 -0.03868951 0.88984174 -0.6914295 -0.012468598 -0.5124825 0.25514993 0.8605714
0.018239185 0.20005414 -0.08874921 -0.408403 -0.44691697 0.21425463 0.050931565 -0.06325881
0.23359892 -0.14045614 -0.7139561 0.75067085 0.10985529 -0.79794556 -0.26765466 0.050700545
-0.05111371 -0.10456354 -0.22937448 -0.1785252 -0.8304593 -0.80018395 -0.5165149 -0.13612086
-0.7281415 1.2269329 0.18279518 0.2314428 0.092564374 -0.15599637 0.32847232 0.1306996
-0.6097674 -0.056001816 -0.4458415 -0.57561976 0.12423311 -1.315516 -0.47803527 -0.2245464
-0.36071467 0.5312396 0.23360121 -2.8033142e-05 0.17422402 -0.1000273 -0.34832093 -0.36065367
0.20966908 0.10518008 0.13587365 0.4040303 0.1404273 -0.35878682 0.24617131 -0.09633132
-0.32684305 -1.565505 -0.52705204 -0.608967 0.13229819 -0.13572565 -0.71812594 -0.20368406
0.05218711 -0.82923317 -0.064106196 -0.26417866 -0.18064842 0.07390863 -0.07677272 1.0303203
0.07273189 0.70991194 0.09055041 -0.23915318 -0.11003372 0.8855497 2.5215347 0.24894342
0.38177624 0.19906351 0.055087127 -0.6772333 -0.4461503 -0.18645632 0.03276474 0.6905121
-0.11247808 -0.10750909 -0.12523322 0.5361389 -0.017192528 0.16356456 -0.42607743 -0.32701114
-0.47569957 -0.12470815 0.6844574 0.12068539 0.021434454 -0.42744038 0.15974966 0.074482694
0.07204221 0.19056903 -0.13181984 -0.5982875 0.13143004 -0.49491534 -0.83137804 0.84773713
-0.15986109 -0.5155276 -0.5010659 -0.11946659 -0.038397666 -0.9693016 -0.42573398 -0.3028058
0.5992084 -0.084801525 -0.99845576 0.4763152 -0.20123284 0.025368804 0.81072754 -0.37766564
-0.6302772 -0.64234364 -0.38059786 0.85499144 0.14045547 0.19390072 -0.015163522 0.47636107
0.16106424 -0.28318158 -0.5572146 -0.18821594 -0.17571121 -4.204544 -0.16103858 0.016601231
0.09890852 -0.2866499 0.18201165 0.2763675 -0.08465037 1.9117893 0.8732529 0.22772805
0.11604754 0.6356087 0.8360687 -0.07921529 0.08180401 0.27691925 0.2606218 -0.1388356
0.30154002 -0.36402676 0.48112005 0.5223638 0.05229331 -0.59248155 0.32677788 0.018816838
-0.2384917 -0.237658 -0.12277425 3.139899 0.67590684 -0.2002878 -0.22705254 -0.39724657

model/dense_2/MatMul;model/activation_2/Relu;model/dense_2/BiasAdd f4 [100]
00000000: 3d47 aa41 d15e fbc1 fbba 1f40 059c b3c1
00000010: 23d1 90c1 b759 64c1 c89f 5e41 3795 7e41
00000020: e685 aec0 f7a8 303f 684d 54c1 f6db abc0
00000030: caf5 17c0 28db bf40 f454 2440 a30e e7c1
00000040: 4aab 0cc1 c640 5340 8aee 1440 f99b ef40
00000050: e651 1f41 e785 8a3f 793b 6840 9b66 7340
00000060: 9927 18c1 b1e7 953f 6379 26c0 451a 4241
00000070: 4391 09c1 0cde 28bf 7857 cac0 0768 9640
00000080: 2f4d 5441 d9e4 04c1 7706 4441 8fac 51c1
00000090: 6b98 ae41 c8d0 62c1 bced 8ac1 2668 67c0
000000a0: ec9f a040 2ea1 83c1 f2fe 0dc0 72fc da3e
000000b0: b5d2 c3c0 c255 7d41 51f6 ccbf 6caf bf3e
000000c0: c156 b2c1 231a c940 634b c241 3c59 af41
000000d0: cf0b 2e41 213b a3bd de2f 3540 51fb b0c0
000000e0: 71a5 7e3f da1c c341 59a4 8441 2479 5bc1
000000f0: 1977 1bc0 1aa6 493f d7cc 5b40 702a 2e42
00000100: 5e0c b741 fc57 4d40 3077 bbc1 eefa 76c1
00000110: 6a3b 05c1 a0ed 9b41 87ef 7cc2 d776 a53e
00000120: 8a9d 8bc1 687f 7441 2425 19c1 b63d 9bc1
00000130: 1cc7 be40 336a 6dc0 d88f 2ec1 ca6f d240
00000140: 3a3a 4641 30eb 4541 29a3 9641 31c3 1f41
00000150: 1d52 4ec0 09f2 bcc1 0d01 853f a7c1 a141
00000160: f02c 0d41 5697 6341 9b2b 96c1 a56e cb3f
00000170: 4dd8 4dc0 ea78 8440 525c b840 3f49 8541
00000180: 85f7 9741 7b80 f340 27ce 1541 656a 4a40
21.284784 -31.421297 2.4957874 -22.451181 -18.102118 -14.271903 13.914009 15.911429
-5.453845 0.6900782 -13.268898 -5.3706007 -2.3743768 5.9955025 2.5676851 -28.882147
-8.791819 3.3008285 2.3270593 7.4877896 9.957495 1.0822114 3.62863 3.8031375
-9.509667 1.1711332 -2.6011589 12.131413 -8.597964 -0.65963817 -6.3231773 4.7001987
13.268844 -8.305871 12.251578 -13.104629 21.824423 -14.175972 -17.366081 -3.6157317
5.0195217 -16.453701 -2.2186856 0.42770725 -6.119471 15.833437 -1.601267 0.37438524
-22.29236 6.2844405 24.28681 21.918571 10.877883 -0.07970262 2.8310466 -5.5306783
0.99471194 24.389088 16.580248 -13.717075 -2.4291441 0.78769076 3.4343774 43.541443
22.881039 3.2084951 -23.433197 -15.436262 -8.327005 19.491028 -63.233913 0.3231723
-17.451923 15.281105 -9.571568 -19.405132 5.9618053 -3.709607 -10.910118 6.576146
12.389215 12.369919 18.829668 9.985154 -3.2237618 -23.618181 1.0390946 20.219557
8.823471 14.224447 -18.771292 1.5893141 -3.216327 4.13976 5.7612696 16.660765
18.99586 7.6094337 9.36283 3.1627438

model/batch_normalization_1/batchnorm/mul_1;model/batch_normalization_1/batchnorm/add_1;model/dense_2/MatMul;model/activation_2/Relu;model/dense_2/BiasAdd f4 [100, 100]
00000000: 6195 6bbc 5ad8 40be 45e6 943d 76ba f4bd
00000010: 4809 5ebe 2184 4dbe a182 a03d 93dc 7ebd
00000020: 9201 8a3e 9dfb aabd d292 c13d 9e30 333e
00000030: 31e1 143d adf7 96bd 8cac 2cbe c2a2 593d
00000040: 5342 033d 57b6 8fbe b622 273e 512e f93d
00000050: 8361 8fbd cbab a7bd 6d3d 5b3e f28d 4e3e
00000060: a50c e7bd efdd dd3a 0a03 26bd 208d 603c
00000070: 92da bb3c c2f0 1ebd ed8b 0b3c b526 82bc
00000080: 28ef 50be c12b 9f3b 6d23 6b3d c699 693e
00000090: 30ac 96bd 75bb dc3d 9e9e 193e edb8 6bbd
000000a0: 3ae0 bbbc 02b9 6dbe 7229 b9bd 5a6b 203d
000000b0: 5603 d7bc fba6 de3d 59db 2bbd 1534 433b
000000c0: 2b05 bbbd 65e2 2ebd 6361 973d 4fcc 0a3d
000000d0: a805 913c 6ddd 50be 1534 97bc 8f3c 30bd
000000e0: 8d90 5f3d e197 ab3d f16b a13e 2108 5ebd
000000f0: 3555 903e cea0 36be 1228 8b3c 9961 10be
00000100: 5bc3 b1bc 20cd 00bc 5012 2c3d d76a 60bd
00000110: 77ff 0abe 6fde f33d 7514 8bbe c1cd 00be
00000120: f881 a4bd 1d8a a4bd 4ff5 83be e288 0ebe
00000130: fc8f 07be 3164 9e3d bb40 32be 79ce 79be
00000140: e66f bf3d 04cd 9f3d 6793 133d 6c12 e93d
00000150: b84f 83bd 6dfc 8cbd a09d c03c 8ed8 363d
00000160: 2fae 6cbe 6a2d 23bd 4fc0 d53d 8acd cbbd
00000170: 0002 32be e5c8 0abe 4cbd 1abf 953b cc3e
00000180: affb 4c3e 3c87 3dbf ffff 3a3d 0696 3cbe
00000190: ad6b c43d 7638 163e 7ca3 42bd 29c8 3cbd
000001a0: 6081 cc3c 000b 6a3c 081d 173e ea83 83bb
000001b0: 41c3 ef3d 5c6b c43d e4e3 60bd f411 a1bc
000001c0: 36d7 a5bc e86f 4b3b c194 b83c 75f5 3b3e
000001d0: 09b2 8cbd 658b 44be 0f18 f4bc 6fa0 a83e
000001e0: 8d44 593c 5b56 80bd 1876 843e cbfd 40bd
000001f0: f13e 133d a043 153b f4ee 113b 83da dc3c
00000200: 63f7 723e c50a 003c b541 8c3e be84 c73e
00000210: 69aa 663d 69d9 433d 6efb 703d a96f c9bd
00000220: 44a3 e93b 2f42 813d 8e1a dfbc d282 c8bb
00000230: 099c 14bd 6b2b a8bd 4b21 ba3e 3fd1 ed3b
00000240: da6a d23d 2e7f f23c 854e 553c e372 a63d
00000250: 1f19 003e 2e46 a13d 286f e53c 4169 05be
00000260: 3e71 863e f8a3 87bd b290 043e 4a3b 28bc
00000270: 3254 eb3d 41fb 003b 3889 7abd f9bc f03c
00000280: c898 68bc 3f0d 22be f5b6 c83e 8582 81bd
00000290: 3030 233d a743 2b3e d293 78bd aeef 2dbd
000002a0: c248 243d 5cef f93d 76d5 29be 183f 413c
000002b0: 6936 ddbc 8ab2 8a3e c96e 17bd 2256 67be
000002c0: aff8 91bd db2a 533d edb3 953d f430 a5bc
000002d0: 51ef 873d 91d4 03bd 734d 8e3d db75 803d
000002e0: 4276 30bd e660 24bd 410e d7bc 78ba 0a3e
000002f0: 9380 373d 233c bdbd c314 e33e ce56 dbbd
00000300: a2d9 a1bd 129f 903d d0c5 e0bd b1f8 12bc
00000310: a789 3cbe 1df6 01bc b9a1 093e 3533 56bd
00000320: 73bc 163e ccb7 fe3d a839 f4bc a0e1 dcbd
00000330: 18e4 d439 e544 d9bd a5ea c73d 2610 853c
00000340: 9ab8 253d 237f 533e 7732 d83c 599d 9c3d
00000350: c1e3 4abe eefa eebd 3ede 8f3d 421d 63be
00000360: ecd1 323d 2a82 0dbe 4c16 e9bd b097 163e
00000370: ae77 013e 6f28 00bd a367 603e 1705 57bc
00000380: 9c79 a1bd 3045 063d 4952 17bd 5685 cfbd
00000390: 7b24 fe3c 63ce 69bd 197e 3b3d fd2b 353e
000003a0: 6ff2 64bd 468d 11be 9691 12be 178a 0dbd
000003b0: 62f2 ca3d 37df 08bd d257 a73c 376d 33bd
000003c0: c5e3 953d 2507 b43e 482b 103d 1b4b 193e
000003d0: 4fba a53d 7d12 8e3e 543a 15bc 2abc 4fbd
000003e0: 8f94 05be ca11 19bd 4093 bb3c 439d 65bd
000003f0: 938f 60bd e82c 293e 9f3a 55be 8d08 593d
-0.014378876 -0.18832532 0.07270483 -0.11949627 -0.21683228 -0.20069934 0.078374155 -0.062222075
0.26954323 -0.08348773 0.09451832 0.17499015 0.03634757 -0.07371459 -0.16862696 0.053133734
0.032045674 -0.28068802 0.16321835 0.12167037 -0.07001021 -0.08187064 0.21410151 0.20171335
-0.11281709 0.0016927103 -0.040530242 0.013705522 0.02293137 -0.038803823 0.008517248 -0.015887598
-0.20403731 0.004857511 0.05740683 0.22812566 -0.07357061 0.10777942 0.15001914 -0.057549406
-0.022934068 -0.23215106 -0.09041108 0.03916488 -0.026246708 0.10871693 -0.041957233 0.0029785682
-0.09131845 -0.042696375 0.07391622 0.03388625 0.017702892 -0.20396967 -0.018457452 -0.043026503
0.054581214 0.08378578 0.31527665 -0.05420697 0.28190008 -0.1783478 0.01698688 -0.1409973
-0.021699598 -0.007861406 0.04200965 -0.05478939 -0.13574015 0.1190766 -0.27164045 -0.12578489
-0.08032602 -0.080341555 -0.25773093 -0.13919404 -0.1323852 0.07733954 -0.17407505 -0.2439517
0.09347515 0.078027755 0.036029246 0.11380467 -0.064116895 -0.06884084 0.023512661 0.044640116
-0.23113321 -0.039838232 0.104370706 -0.09951313 -0.17383575 -0.13553198 -0.60445094 0.39889207
0.20017885 -0.74034476 0.045654293 -0.18416604 0.0959085 0.14669976 -0.047519192 -0.046089325
0.024964035 0.014284849 0.14757168 -0.004013528 0.117071636 0.0959079 -0.054904833 -0.019661881
-0.020244222 0.0031042043 0.022531869 0.18355353 -0.06869895 -0.191938 -0.029796628 0.329349
0.013260973 -0.06266471 0.25871348 -0.047117036 0.035948697 0.0022775903 0.0022267671 0.026959663
0.23727183 0.007815068 0.2739388 0.38968462 0.05631486 0.04781476 0.058833532 -0.098357506
0.0071300585 0.06311452 -0.027234342 -0.0061191106 -0.03628162 -0.08211406 0.36353526 0.00725761
0.102742866 0.02960166 0.013019209 0.08127382 0.12509583 0.07874714 0.028007105 -0.13028432
0.26258272 -0.066230714 0.12945822 -0.010268042 0.11490668 0.001968101 -0.06116602 0.029386984
-0.014196582 -0.15825365 0.39202085 -0.06323723 0.039840877 0.16725026 -0.060687847 -0.042464904
0.04010845 0.12203857 -0.16585335 0.011794828 -0.027003484 0.2708934 -0.036970887 -0.22591451
-0.07127511 0.051554542 0.07309709 -0.020164944 0.06637443 -0.03218514 0.06948366 0.06272479
-0.04308153 -0.040131472 -0.026251914 0.13547695 0.044800352 -0.09239986 0.44351777 -0.10709916
-0.07902838 0.0706159 -0.1097523 -0.008970425 -0.18411885 -0.007932213 0.13440599 -0.05229493
0.14720325 0.124374 -0.029812649 -0.10785222 0.00040605734 -0.10608844 0.09761552 0.016243052
0.040459253 0.20653968 0.026391251 0.07647199 -0.19813444 -0.11668955 0.07024811 -0.2217913
0.04365723 -0.13819185 -0.11381206 0.14706302 0.1264331 -0.03128856 0.21914534 -0.013123772
-0.07884523 0.032780826 -0.036943708 -0.10132854 0.031023255 -0.05708159 0.045774553 0.17692561
-0.055895265 -0.14214048 -0.14313349 -0.03455552 0.09909512 -0.033416 0.020427618 -0.043805327
0.07318834 0.351617 0.035197526 0.14970057 0.08092176 0.2774848 -0.009108145 -0.050716557
-0.13044952 -0.03737048 0.022897363 -0.05605818 -0.054824423 0.16521037 -0.20823143 0.05298667

model/dense_3/MatMul;model/activation_3/Relu;model/dense_3/BiasAdd f4 [100]
00000000: ee2d 37c1 2e5b 8a41 b60e 9bc0 6043 cc3f
00000010: 219a fd40 833c a8c0 e73f 9b3f 5c65 0841
00000020: e3a6 1940 ab04 0641 830c 0a41 67d9 a341
00000030: 1f56 0941 1bef 8540 c442 0a41 2b55 e93f
00000040: 2ded 09c1 191d 7040 253b be40 1b6a 6340
00000050: 318b cd40 454e 1d3f 346f 26c1 b34a 3d41
00000060: 2632 2d41 ebad 7f41 3bd3 8e41 da72 d4c0
00000070: dbe6 d9c0 0d91 64c1 0640 52c1 8bee 0f40
00000080: aeba 1a40 2ba0 8dc0 c12b a3be bf69 e241
00000090: a998 aac0 c4c2 5841 69e8 0dc1 45ec ad41
000000a0: ae43 1941 1fbd 5a41 5d47 4541 cb2e 95bf
000000b0: a23a 6c40 7fb9 943f 4235 73bd 0610 6d40
000000c0: 46dc 3741 bf33 b940 9ae9 d740 e189 4cc1
000000d0: 0b79 17c1 7936 5ac1 a638 6bc0 30d6 2c41
000000e0: 5fbb de3f 2582 8fbf 254e 2340 cc94 1641
000000f0: e1a4 733e 8412 0ac0 6c22 1141 17b8 0841
00000100: 9021 14bf 1c1b a140 4a9a 2b41 8a42 acc0
00000110: 55b6 a240 672b 3941 7f50 5a40 0c37 fc40
00000120: 6526 ea40 1b68 22c1 b024 1e40 a099 48bf
00000130: 5c1b 71c0 8781 cec0 795e 7abf 9cfd c8c0
00000140: 412d 5cc0 dbb6 5241 0605 97c0 77f0 1341
00000150: fb0f e3c0 2bce 99c0 1f1b 3741 a093 0241
00000160: 90c7 4d3f c78b 3741 fbc8 1340 39c3 2041
00000170: 63d6 7f40 a801 2e3f 684d 0440 de22 48c1
00000180: 4cf6 e240 8f68 7c40 39ca 0740 f38a e8c0
-11.448713 17.294521 -4.845546 1.5958061 7.9250646 -5.2573867 1.2128876 8.524746
2.400811 8.37614 8.628055 20.481153 8.583526 4.1854377 8.6413 1.8229116
-8.620404 3.751776 5.94472 3.5533512 6.423241 0.61447555 -10.402149 11.830737
10.824743 15.97996 17.85314 -6.63902 -6.8094306 -14.285413 -13.140631 2.2489345
2.417644 -4.4258018 -0.3186932 28.301634 -5.3311353 13.54755 -8.869241 21.740366
9.579023 13.671172 12.329923 -1.1654905 3.6910787 1.1619109 -0.059376962 3.704103
11.491278 5.7875667 6.747266 -12.783662 -9.4670515 -13.638299 -3.6753325 10.802292
1.7400931 -1.1211592 2.5516446 9.411327 0.23793365 -2.15738 9.070904 8.544944
-0.5786371 5.0345592 10.725168 -5.3831224 5.0847573 11.573096 3.411163 7.8817196
7.317187 -10.150416 2.4709892 -0.78359413 -3.767295 -6.4533114 -0.97800404 -6.280958
-3.440262 13.169642 -4.719363 9.246207 -7.0957007 -4.806417 11.444121 8.161041
0.80382633 11.471625 2.3091419 10.047662 3.9974601 0.6797128 2.0672245 -12.5085125
7.0925655 3.9438818 2.1217177 -7.2669616

model/batch_normalization_2/batchnorm/mul_1;model/batch_normalization_2/batchnorm/add_1;model/dense_3/MatMul;model/activation_3/Relu;model/dense_3/BiasAdd f4 [100, 100]
00000000: 3fb0 883e b7e7 89bd ddbc 97bd 16b6 813d
00000010: 8f83 8f3d 8b46 8cbd 691e 2fbd 2199 943d
00000020: 204d 85bd ebec 253e 1405 f1bd 1377 4b3e
00000030: 6107 75be 88ff 143e 6212 873e 7d71 7cbe
00000040: 898d 47bd 03ee 723e bc46 503d de35 ce3d
00000050: 1d7d 8fbd 4546 bdbd fb67 8a3e 6e57 24be
00000060: d1ab 563d f79b 373d 97fd 30bd 75cf 64bd
00000070: 7c3b e9bd 32ca 62bd 9549 233d 91d2 fdbc
00000080: 3d15 e5bd b1af 813d a71a 0bbe 56d0 d8bc
00000090: b561 363e c1dd 833b 7d1b 0fbd bc30 50bd
000000a0: 2e6b 04be d952 803c cb47 16bd d901 193e
000000b0: 49c8 00be 0a0d 9dbd 7232 45be c3c0 8fbe
000000c0: f785 b23d 9110 1b3e 28a9 1abc 4325 103e
000000d0: deee 2f3e 7eaa 463e 99b2 a9bd 4ac2 85bd
000000e0: c86e 553d 7027 f83d d0ce 733e 856a e8bd
000000f0: 196d e9bd 7ecf b63e 019b 1d3e 66e9 16be
00000100: 8a6c 083d e6c0 51bd 4840 1cc0 b861 b33c
00000110: aa42 aa3d ff98 8b3d 72f2 1e3e 40d7 b1bd
00000120: 85a8 4fbd 71b2 3fbd 928f 183e 22b0 063e
00000130: f002 0a3d c604 e3bd 7e2e 6ebd fcd3 2c3c
00000140: fc08 0cbe 7c18 02be 0d1b cebd 49bf dd3d
00000150: e54b d43d 28a4 0d3d 8975 993d 7de1 6bbc
00000160: 4d81 a6bb 6202 ed3e 58fa 07bd de32 babe
00000170: 7d73 43be 491b ce3d a7b9 683e d43f 223d
00000180: 5612 fe3a 6007 8abe 6768 e1bc 0b88 babd
00000190: 2443 73bd 81b1 1c3d 24a1 bdbe 1bf8 8bbb
000001a0: 864d 98bd 483b 7b3e f257 ac3c 43b0 6f3d
000001b0: 3253 21be 3816 8cbe 62f0 95bd 267e c83e
000001c0: a386 a3b9 83d5 f73b b5b0 863e fa7e 3d3d
000001d0: 72be cc3d d46c a63b 03b0 71be 875e e0bd
000001e0: dbed 933d 1126 203d fca8 cabd 969e 91bd
000001f0: fcd1 02bc c62a cfbd ef5d 123d 9018 2dbd
00000200: eeba 19bd b074 e1bd 45c3 933d 292a 3c3d
00000210: d94a 073e c31f 333d 1326 d1bd 672a e03d
00000220: 404e 3f3e 4372 183e 5903 a33d 360b af3d
00000230: 829a 84be 864e ecbd e29c 5f3e 8e77 86bd
00000240: 770c ffbc 4ec0 c63d 4bb0 9bbc 720b cebe
00000250: 966a 4a3d 619e e0bd e207 8cbc 6cb9 a2bb
00000260: 7cdc a8bc 099b 7ebc ecb9 fb3c 4293 833e
00000270: f50b 9dbd f655 a13d bd8f 2fbe 7ca2 b63e
00000280: f71a 9f3c 49aa a7bd b0ad e8bd ef4b 8fbe
00000290: 3d72 96be 883a 373b eb54 c13e 8d0f ab3d
000002a0: 5032 fb3d 910a 953c 9f2f 063b 7bfa 493e
000002b0: 4b29 013d 5217 983d 0aef 6f3d d4fd b7bc
000002c0: e68f 3ebe f326 f03d 22e4 0a3d 225b 283e
000002d0: 4b0b 63be e0d0 8cbe 58e2 ca3e eafd 3cbe
000002e0: f7f2 43be e88d 333d 13db 693e 3811 41be
000002f0: b74f 81be ae79 b23d be10 423c 44e1 083e
00000300: 1d82 92bd 3e78 91bd 69cb bfbc 49d3 b3b8
00000310: 6971 ba3d b0ef d2bb aaa2 64be 3c09 f7bc
00000320: 66f0 cc3d 961f 94bd 757f d4bd 89cb 09be
00000330: 94df 9ebd 380e a53c 708b 923c 9ab3 c83e
00000340: cf67 ad3c a5c4 343e a4ce 75bd 0463 833e
00000350: 1110 933c 4562 dbbd 714a afbc acad 863e
00000360: eb67 c33d 7fa8 903d 0065 33bd 72d2 9c3d
00000370: 0cb2 fbbd 3c96 843e b96e 9dbc 9109 24be
00000380: 21df dbbd 9bea 8aba 0173 3abd 55e7 9c3d
00000390: 1188 4bbe 3a4f 82be 48d4 21be f59b 2cbd
000003a0: ce45 a9bd 8b9c 343e ff50 4f3d be3a 89bc
000003b0: 5be7 fa3b e867 3cbc 8ec2 21bd bf14 6cbe
000003c0: 66f9 aa3d 8358 8f3d 27e9 253d 159f 193e
000003d0: ffd4 43be 03af 28be 469a 743d c324 253d
000003e0: 0097 143e d542 99bd b065 23be cfe5 4bbe
000003f0: d86e d63b 0b5f 69bd 7983 c4bd bad8 11be
0.26696965 -0.06733649 -0.0740907 0.06333558 0.07007515 -0.068493925 -0.04275361 0.072557695
-0.06508851 0.16203658 -0.11768547 0.19869642 -0.23928596 0.14550602 0.26381212 -0.24652667
-0.048718963 0.23723607 0.050848708 0.10068868 -0.07006285 -0.092419185 0.27032456 -0.16048977
0.05240995 0.044826474 -0.043210592 -0.05586191 -0.11388299 -0.05536861 0.039865095 -0.030984195
-0.111856915 0.063323386 -0.13584386 -0.02646653 0.1781071 0.004024238 -0.034938324 -0.050827727
-0.12931511 0.015664505 -0.03668956 0.14942111 -0.12576403 -0.07668503 -0.19257525 -0.28076753
0.08716958 0.15143038 -0.009439744 0.14076714 0.17180964 0.19400975 -0.08286018 -0.06531198
0.052107602 0.12116897 0.23809361 -0.11348442 -0.11397762 0.3570518 0.1539116 -0.14737472
0.033306636 -0.051209353 -2.4414234 0.021897182 0.083134964 0.06816291 0.15522173 -0.08683634
-0.050697822 -0.046801034 0.14898518 0.13153127 0.033694208 -0.11084895 -0.058149807 0.010548588
-0.13675302 -0.12704653 -0.10063753 0.108275004 0.10366038 0.03458038 0.07493121 -0.014397022
-0.005081332 0.4629088 -0.03319773 -0.36366934 -0.19087024 0.10063798 0.22727071 0.039611652
0.0019384127 -0.26958752 -0.027515603 -0.091079794 -0.059390202 0.03825522 -0.37037003 -0.00427152
-0.074366614 0.24534333 0.02103803 0.058517706 -0.15754393 -0.27360702 -0.0732124 0.39158744
-0.00031190095 0.0075632944 0.26306692 0.046263672 0.09997262 0.0050788913 -0.236023 -0.1095553
0.07223102 0.039098803 -0.098955125 -0.07110326 -0.0079846345 -0.1011558 0.035734113 -0.042259753
-0.037531786 -0.110085845 0.07214979 0.045938645 0.13212146 0.043731462 -0.1021234 0.109455876
0.18682194 0.14887337 0.07959623 0.0854706 -0.2589913 -0.11538415 0.2183719 -0.06565772
-0.031133873 0.09704648 -0.019004961 -0.40243107 0.049418055 -0.109677084 -0.017093603 -0.0049659517
-0.020612948 -0.015539893 0.030728303 0.25698286 -0.07668296 0.07877724 -0.17144676 0.3567084
0.019422038 -0.08186776 -0.11361253 -0.2798762 -0.29384032 0.0027958471 0.377601 0.083525755
0.12265456 0.018193515 0.0020475162 0.19724457 0.03153352 0.07426323 0.058577575 -0.022459902
-0.1860958 0.11726179 0.03390897 0.16441014 -0.22172277 -0.2750311 0.39625812 -0.18456236
-0.19135652 0.043836504 0.22837476 -0.18854225 -0.2525613 0.08714615 0.011844812 0.13367182
-0.071537234 -0.071030125 -0.023412423 -8.57474e-05 0.091036625 -0.0064372644 -0.22327676 -0.03015577
0.1000679 -0.07232587 -0.10375873 -0.13456549 -0.07757488 0.020148382 0.017888755 0.39199525
0.021167664 0.17653139 -0.06001152 0.2566148 0.017951997 -0.10712103 -0.021397801 0.26304376
0.09541305 0.07063388 -0.043797493 0.07657327 -0.12289819 0.2589587 -0.019217836 -0.16019274
-0.10735918 -0.0010598482 -0.045519833 0.076613106 -0.19876124 -0.2545107 -0.15803635 -0.04214092
-0.08265267 0.17637841 0.050614353 -0.016751643 0.0076569743 -0.011499383 -0.039492182 -0.23054789
0.0834835 0.06999304 0.040505555 0.15002091 -0.1912422 -0.16473012 0.05971744 0.04031826
0.14510727 -0.0748345 -0.1595676 -0.19911884 0.0065439753 -0.056975406 -0.09595389 -0.14242831

model/dense_4/MatMul;model/activation_4/Relu;model/dense_4/BiasAdd f4 [100]
00000000: 6d55 3440 b147 1d40 afc5 db3e f408 5b3f
00000010: b97e 19c1 783b 4abf 556b a840 efcd 4c3f
00000020: 0122 6841 603c 3b41 2a68 0fc1 8969 67c0
00000030: 5b4e 9941 30d8 4541 9163 ebc0 689d 85c0
00000040: 8f48 2fc1 0c01 0bc1 50c2 7e40 3303 4241
00000050: 8e6f 8ac0 0168 33c1 b656 1b41 0cbc 0ac1
00000060: e7cf 8841 55e2 7cc0 59d3 9d40 7096 4141
00000070: fa48 1941 8b24 a3bf 0fb8 f53d c1a4 bdbf
00000080: 1de1 7941 71c7 7c40 57ad 5041 2d76 00c0
00000090: 84c6 ffc0 b8d1 6440 0dda 4241 69d6 2041
000000a0: 0232 9d41 8c7c 1c3f 60f1 f640 3890 dcbf
000000b0: 79c4 ac41 e5a3 95c0 8a85 7b40 7e8d 92c0
000000c0: 901d 23c1 8bef 08bf 6dd9 3041 21a6 3441
000000d0: 386b 99c0 7efe c23e 7c13 6e40 73c0 b440
000000e0: 89a0 ca40 155e 0941 0308 1841 acd9 65bf
000000f0: 99aa a8c0 5351 7640 fc3e a5bf 0496 b640
00000100: b168 823f 51d8 0741 229b 27c0 5562 3341
00000110: 86de 2741 f8b5 3641 d509 64c0 23d2 8e41
00000120: c389 e540 6fe7 25c1 8007 a040 ea7a 6e41
00000130: aaf2 2441 a0a6 0b3e 4933 4941 a853 d9c0
00000140: ec1e 0341 b2d7 4341 f763 6341 5a96 9cc0
00000150: 733f fb3f 1e68 c73f 7ec9 5d40 2af7 74c0
00000160: b947 e73e 1d4d c8c0 c713 af3f 653c 4c40
00000170: 7491 7540 1868 cd40 514e 9541 b481 7941
00000180: 45ff d43d ea10 9ec0 23be cc40 9eff c73f
2.817714 2.4575007 0.42924258 0.85560536 -9.593438 -0.7899699 5.263102 0.8000173
14.508302 11.70224 -8.962931 -3.6158164 19.16326 12.36528 -7.355904 -4.1754646
-10.9552145 -8.687756 3.98061 12.125781 -4.3261175 -11.212892 9.70867 -8.67091
17.101515 -3.9513142 4.9320493 12.099228 9.580317 -1.2745527 0.11997997 -1.4815904
15.617459 3.949673 13.042319 -2.0072129 -7.992983 3.5753002 12.178235 10.052346
19.649418 0.61127543 7.7169647 -1.7231512 21.595934 -4.6762567 3.9300256 -4.579772
-10.194717 -0.53490514 11.053082 11.290559 -4.794338 0.38084787 3.7199392 5.6484923
6.3320966 8.585469 9.501956 -0.89785266 -5.270825 3.8487136 -1.2909846 5.7058125
1.0188199 8.490312 -2.6188436 11.211507 10.491827 11.419426 -3.5631 17.852606
7.1730666 -10.369002 5.0009155 14.905008 10.309244 0.13637781 12.575021 -6.791462
8.195049 12.24016 14.2119055 -4.8933535 1.9628738 1.5578649 3.465423 -3.8275857
0.45171908 -6.2594132 1.367791 3.1911862 3.8370028 6.4189568 18.66324 15.594166
0.10400251 -4.9395647 6.39821 1.5624883

model/batch_normalization_3/batchnorm/mul_1;model/batch_normalization_3/batchnorm/add_1;model/dense_4/MatMul;model/activation_4/Relu;model/dense_4/BiasAdd f4 [100, 100]
00000000: c649 82bc 86a3 9e3d 3622 5f3d 3259 5bbe
00000010: 43d8 81be c805 283e 37a7 3a3c 0f85 02be
00000020: aa7d 0fbe cbc8 363d e02b 6b3c d98d 1a3e
00000030: 2455 f0bc 1ea6 ecbd 3627 0b3e b67a 903e
00000040: f92e 97bc 9e28 233d def2 86bc 9a42 803b
00000050: 6b9b c1bd 8b2c 463e f8e2 cd3e 9b7e 3a3d
00000060: 61b0 0ebe 1f0d 17bd 3a98 0e3d 817d e53b
00000070: 5b3d 923d 3c0f 1abe ee6a 84bd 3c7f 6bbe
00000080: 169a 243d 52c7 9dbd 941d 923c 9985 523e
00000090: 603b b03d 9a37 88bd 957d 54ba ebd1 64bd
000000a0: 1da8 cabd 1d3a 61be 717d 94bc 9c0a ca3d
000000b0: 99f8 a43d e774 953e ba34 e7be 497a c4bd
000000c0: e5f7 9e3e 2bf6 9b3d 8958 b63c 8c91 873c
000000d0: c532 e93d 0a5d 543d 1b4b f4bd 2453 713e
000000e0: 3ead 87bd 2f13 e93d b0de cb3d d5dd 5c3e
000000f0: d44c 94be 0440 223d a002 5fbd b65f 373d
00000100: 6cc5 28bd 51ba 843c 27f3 073d bc5f a8bd
00000110: 7524 233b 2ec2 c6bc b623 24be 3c95 7b3d
00000120: 50a6 5fbe 7339 8f3c 48a9 76bd 0e6d 29be
00000130: fc5e c9bd c677 e63d cc68 363a 788f 373d
00000140: 2ffd 093d 774d 813b ccf7 853d 5d10 14be
00000150: 0ae5 beb9 6664 b83c dd90 c7bb e0c7 8bbd
00000160: 5aa8 82bd a5bb cb3c b8f4 03be 982f a7bc
00000170: c948 e73b 1f97 143d 7a3d 9bbe fa16 843e
00000180: 1239 643c 4e4f 543e af17 9abd c109 ae3b
00000190: dc5c 52bd 1b92 9d3d 1d74 fd3d f540 003d
000001a0: a30a 18bd e443 ef3c 2a7d bb3d 611a 353e
000001b0: f6eb c9bd 6c23 fd3c 3b9c 27bd 9b0e f43d
000001c0: 8de0 973b 1d0d 8c3d 8f9b 2b3c c466 9a3d
000001d0: 5a33 953d 193c d2bb 439f c33d 293b 6bbe
000001e0: 6a8d 13be 5d93 92bd 589d 86bb 3685 9f3e
000001f0: 54b9 063d 7062 223d 6c72 96bd bdbd 9f3d
00000200: 79cb ff3d 6d7c 773e 97cf 303c a983 30be
00000210: f804 b43d c162 8bbe 8652 fb3d 9ea3 3cbe
00000220: ebd3 083e d116 2fbe fa50 2abc e787 ebbb
00000230: 1220 193e fbd4 18be ab82 b3bc 9ee9 b7bc
00000240: ed8d 90bd a60a 1ebd 6f57 e83d 704b 3cbe
00000250: dc5b 5abd 41ee cd3d 484a 2cbd 0ba4 683e
00000260: e066 45bd 2fce 1e3d d30f c23c 2db4 163e
00000270: 0fa3 d2bc ead2 9b3c 6232 c8bd ae19 7abe
00000280: 574e d63d 7372 52bd 2d3f 98bd 4697 223b
00000290: f029 e23c 6091 bbbd 23ff 19bd 564e 18ba
000002a0: a053 4a3e b1b5 863d 0c1d 833c cad8 81be
000002b0: da19 0b3f 8b17 ae3d 8f84 b53c 4577 96bd
000002c0: 4679 cbbd 2572 60bd 22bc f13d 94e4 aabe
000002d0: 400a 3dbd 6c5b 8b3d 83b9 53be ee48 96bd
000002e0: bad1 823d eec3 49be ca54 d83d 7c0c 223e
000002f0: da2f b2bd 76a8 95bd 93da ba3d a7fc 1dbe
00000300: 8f92 6b3d ebb1 f4bc 05ae 803d 9139 693e
00000310: c2b7 bf3d f0bd 473d 71d1 92bc 5c3b 133e
00000320: b644 6dbd 2723 fe3d dec3 ad3a 244f 193e
00000330: e56f df3d cd29 8f3c d037 85bd b720 ed3d
00000340: 1316 8fbd c2a5 c4bc fbab e6bc 6588 b53e
00000350: b3c6 f13d f697 563c 6c99 5f3d 9a82 953d
00000360: 4519 123e 7102 9b3d 128d 2bbe 40f6 493d
00000370: e355 293d bd17 8c3d 1a73 a23a 778c 27bd
00000380: 2765 c03b 7a1e a0be f99b 75bc a559 f53c
00000390: f03d a53d 9800 643e 3cb2 b03d 28c9 85bd
000003a0: 45e8 94bd 59e5 b23c 07cb 8bbb 45cc c8be
000003b0: 9e71 b7bb c267 1a3d ad79 fabd 016f 3cbe
000003c0: 3e15 26bd e63d 1dbe 9e9b 9bbd eadd c13c
000003d0: 884e 61bd 37cd bdbd bb46 90bd b058 87bd
000003e0: 99fa 433e 15bf b1bc 498f 223d 0228 8ebe
000003f0: b822 863c 8cab 6b3e 5b53 8c3d 5a25 803d
-0.015904319 0.07746033 0.054475985 -0.21420744 -0.25360307 0.16408455 0.011392406 -0.1274607
-0.14012781 0.044625085 0.014353722 0.15093173 -0.029337473 -0.11555122 0.13589177 0.2821862
-0.018455015 0.039833657 -0.01647323 0.0039141895 -0.09453472 0.1935293 0.40212226 0.045530897
-0.1393447 -0.036877748 0.034813143 0.0070034866 0.07140609 -0.15044874 -0.06465708 -0.22997755
0.04018601 -0.07704033 0.01783637 0.20558776 0.08605075 -0.0665123 -0.00081058714 -0.055864256
-0.09895346 -0.21994825 -0.018126221 0.09865305 0.08055229 0.29190752 -0.45157415 -0.095936365
0.31048504 0.07615312 0.022259014 0.016548894 0.11386637 0.05184654 -0.11928388 0.23566872
-0.0662484 0.11380612 0.09954584 0.21568997 -0.28964865 0.03961183 -0.054445863 0.04476901
-0.0412039 0.016202124 0.033190873 -0.08221385 0.0024893556 -0.024262514 -0.16029248 0.061421618
-0.21840787 0.017483449 -0.060220033 -0.16545507 -0.0983257 0.11253314 0.0006958365 0.044814557
0.03368872 0.003946002 0.06541404 -0.14459367 -0.0003641027 0.022508811 -0.006090267 -0.068252325
-0.06379767 0.02486975 -0.12886322 -0.020408437 0.007058237 0.036276933 -0.3032034 0.2579878
0.013929622 0.20733377 -0.075240485 0.0053112213 -0.05135809 0.07693883 0.123756625 0.031311948
-0.03711952 0.029207177 0.091547325 0.17685844 -0.09859459 0.03090068 -0.040920477 0.11916848
0.004634923 0.06838439 0.0104741 0.07539132 0.07285185 -0.0064158556 0.09551861 -0.22971787
-0.14409414 -0.071570136 -0.0041081123 0.3115632 0.032891586 0.03964466 -0.07346043 0.077998616
0.12489981 0.24168558 0.010791681 -0.17237724 0.0879001 -0.2722378 0.122715995 -0.1842179
0.1336209 -0.17098548 -0.010395283 -0.0071878317 0.1495364 -0.14924996 -0.021912893 -0.022450265
-0.0705832 -0.038584374 0.11344802 -0.18388152 -0.05331026 0.10055209 -0.042063028 0.22718827
-0.048193812 0.03877085 0.023689186 0.14717169 -0.025712518 0.01902147 -0.09775235 -0.24423859
0.10464161 -0.05137868 -0.07433925 0.0024809404 0.027607888 -0.091585875 -0.037596833 -0.0005810013
0.19758463 0.06577624 0.016005062 -0.2536071 0.5433632 0.08500584 0.022157935 -0.073469676
-0.099352404 -0.054796357 0.118034616 -0.33377516 -0.046152353 0.06804547 -0.20676236 -0.07338129
0.063876584 -0.19703647 0.10563047 0.15825075 -0.08700533 -0.07307522 0.09123721 -0.1542841
0.057512816 -0.029869994 0.062831916 0.22775866 0.09361221 0.048765123 -0.017922135 0.14378113
-0.057926856 0.124090485 0.0013257226 0.14971596 0.10910014 0.017475987 -0.06504786 0.115785055
-0.06986632 -0.02400482 -0.028158179 0.35455623 0.11805477 0.013097754 0.054589674 0.07300301
0.14267452 0.07568825 -0.16753033 0.049307108 0.041341674 0.06840465 0.0012393922 -0.040905442
0.0058714333 -0.31273252 -0.0149908 0.029949972 0.08068454 0.22265851 0.086277455 -0.06532508
-0.072708644 0.021837877 -0.004266146 -0.39218345 -0.005598261 0.037696607 -0.12230239 -0.1840172
-0.040547602 -0.15355644 -0.07598041 0.023665387 -0.055006534 -0.09267657 -0.07044741 -0.06608713
0.19138564 -0.02169756 0.03968743 -0.277649 0.016373977 0.23014659 0.06851836 0.06257124

model/dense_5/MatMul;model/activation_5/Relu;model/dense_5/BiasAdd f4 [100]
00000000: fafd 2e41 f3d4 6241 8fec f5c0 09a4 99c0
00000010: 09fe 5940 5c06 28c0 c37c 4341 3c32 8b40
00000020: 33e2 84bf 72b2 97bc 6caa 3541 39e1 1c40
00000030: 5c3a e2bf 5463 1341 8453 11c1 3ca8 1641
00000040: a2f8 0dc0 41b3 0a41 8435 d740 0e21 3b40
00000050: d866 be41 6dd8 19c1 6683 5441 8994 bf40
00000060: a1e5 af40 acfe 1d40 c401 8ec0 9b6e 0041
00000070: 0f45 bf40 d656 6541 19da 09c1 6799 7c3e
00000080: 45b7 8cc0 5ce4 a540 0622 fc40 7525 7440
00000090: 9b79 b740 2b00 0241 40e2 debf ced0 88c1
000000a0: 767d 6341 14f4 0cc1 afc9 2341 ca97 4b40
000000b0: 7e63 2341 fc9e d4c0 5c76 2c40 a779 9a40
000000c0: 969b 05bf 1350 5541 d748 c8c0 d230 1041
000000d0: deb4 6fc1 2264 2440 5490 13bf a231 86c0
000000e0: 5382 b8c0 f502 ca40 ea03 253e f8f4 4241
000000f0: 91a4 2941 bfab 9440 623d 4641 0ea4 fc40
00000100: 81b1 e9c0 a916 1441 c664 0841 ee20 6940
00000110: 54b3 2fc0 cc03 bc3e e89d 84c1 043e c940
00000120: 6916 7e41 8590 5140 87ac 1b3f 4d64 8c3e
00000130: 35b9 24bf 31e0 08c1 18b0 0bc0 b284 b0c1
00000140: 78de d041 e729 c63f e7e8 8141 d022 9941
00000150: 2110 ab40 8bc8 60c0 42f0 e1bf 25ee bebf
00000160: 2026 0cc0 8671 9740 f41a 13bf 202f ec3f
00000170: a7df 94c0 a00c 06c1 e6f6 2e40 bc3e 1340
00000180: d0a1 8141 9761 8041 122c 2e41 eb88 e240
10.937006 14.17699 -7.685127 -4.801274 3.40613 -2.6253881 12.217959 4.349882
-1.038153 -0.018517707 11.354107 2.4512465 -1.767406 9.21175 -9.08289 9.416073
-2.2183003 8.668763 6.7252827 2.9238925 23.800217 -9.615338 13.28208 5.9868817
5.496781 2.468669 -4.4377155 8.027003 5.97718 14.3337 -8.6157465 0.24667893
-4.397372 5.184126 7.8791533 3.8147862 5.7335944 8.125041 -1.7412796 -17.101955
14.21813 -8.809589 10.236739 3.1811395 10.21179 -6.6444073 2.694724 4.82735
-0.5219053 13.332049 -6.2588916 9.011919 -14.981657 2.5686116 -0.576421 -4.1935587
-5.7659087 6.312861 0.16114774 12.184807 10.602677 4.645965 12.389986 7.895026
-7.302918 9.255532 8.524603 3.6426349 -2.7453203 0.36721647 -16.577103 6.2888203
15.880471 3.2744458 0.6081013 0.27420273 -0.64345104 -8.554734 -2.182623 -22.064793
26.108627 1.5481538 16.238722 19.141998 5.345719 -3.5122402 -1.7651446 -1.4916426
-2.189827 4.732608 -0.57463 1.8451881 -4.6523013 -8.378082 2.7338195 2.300704
16.20401 16.047651 10.885759 7.0792136

model/batch_normalization_4/batchnorm/mul_1;model/batch_normalization_4/batchnorm/add_1;model/dense_5/MatMul;model/activation_5/Relu;model/dense_5/BiasAdd f4 [100, 100]
00000000: d467 023c 508b f2bd ad57 6aba 7efb 893e
00000010: f5ed 8d3e a0e0 b13d 8479 363e 5152 ae3e
00000020: e59b 873d be85 babe 82ae e0be bd73 05bf
00000030: 3f26 8d3d a8d9 55bd ebeb fb3c e8d2 513e
00000040: c5f1 3cba 14ff e5bb 6412 2a3e bdc4 a5be
00000050: e8d2 31bd 4092 6c3d c888 d5bd dc67 2cbe
00000060: 73a8 76bc 2c46 22bd 1a21 93bd 8833 c43d
00000070: ebd5 a23d 0d3d 5d3d b58c 31be a124 95be
00000080: 6408 0fbd 5382 72be 60cf b2ba 3dfe 09bc
00000090: b96f 3dbd afca b23d c5f9 0ebe a468 13bd
000000a0: b314 173e 2ddb a13d 621b d2bb 6191 2cbe
000000b0: 4120 46bd 55a8 3c3e 0ee4 45bd 3668 393e
000000c0: a73c c73b d742 3fbf 68d5 c43d df9e 9c3c
000000d0: 5b0b 5e3e 4acc 2f3d f7dd 7ebd f338 123e
000000e0: 5bfc 3fbd 6267 40be 40e2 dabd 3c12 133e
000000f0: 1a3c 3f3d 1839 ddbc 860e 8b3d dafc 183e
00000100: f7b2 e53d 9463 253d aed0 723e ac4f 0f3c
00000110: c169 3b3d 79a2 4bbe f7c7 04bd d233 02be
00000120: 5430 50bc 0e63 093e bf1d 0cbd 7e9d 083d
00000130: 38c8 ebbc c53e 993d 7bf6 e93d b8b5 f7bd
00000140: 7221 64be 2b97 c13c 5cc6 a2bd 756e 5d3e
00000150: bffe b2bd 4090 81bd 29ee 95bd 82e4 ac3d
00000160: 1454 2fbe 80de d4bd 5527 99be 9a27 ed3d
00000170: 5d61 89bc 59bf ddbd 930f fc3d 42e8 dcbd
00000180: b05e 89bd d6d1 efbd 8ef0 4a3e 6fcc 07bd
00000190: 381c 373c 8405 b8bd 493b 3cbd f0fa a5be
000001a0: c7a7 383d b617 033f d698 a13d 3114 d9bd
000001b0: 411d 69bd dbf8 d23d 1219 d33e 0ce5 7e3e
000001c0: a21a adbc 7cd3 e73d c291 d93d 54fd 06be
000001d0: 8b18 cdbd 15fb dfbe b385 073e 0239 bd3d
000001e0: b2f1 6abe 5b44 253d 93c5 813d 37bc bb3d
000001f0: bf10 dfbd cfe5 7b3a 0d0e ba3c 0dde 1e3d
00000200: 58b0 a23d e7a0 27be e631 523d 1da0 06bf
00000210: 36f1 183d fa28 1b3e 2d3b 80bb 08e9 573d
00000220: e4fa fbbe aeba e43d 6ec8 1f3c 0c25 203b
00000230: 6f58 d63d e6de 6abe d0ae d6bd 27f4 c93b
00000240: 0d99 8abd e952 46bf 6031 703d 0694 d93c
00000250: 41fe 44bd 3280 c93e 877e f93d ed4f 83bd
00000260: e36a 4cbe a574 32bc 70fe 773d 74b9 6cbe
00000270: 8349 dcbd 0d30 8bbd f47e eabd 4fbf 833d
00000280: 06a9 e5bd 7266 0ebd 13ff 673d 4572 edbd
00000290: b2a7 2ebb 033c 3ebe c538 17be d18f 02be
000002a0: f8bb 2ebe fc38 7abd 1e48 a2be d81c b73d
000002b0: 7088 97bd 109e 76bc 90d6 d5bd 4a44 6abd
000002c0: 806b 27bc 8279 d7bd ecfe fabd a3a3 8cbc
000002d0: ca8c 4d3d 7e40 383c d392 a7bd 5eb6 d8bc
000002e0: b146 d1be 3b1e 39bd c285 2fbd 9bc3 23be
000002f0: e267 9c3e 9339 893c b7f7 133d f553 58be
00000300: aef8 6ebd 7ab8 dcbd 9ae0 0dbe c5b4 253d
00000310: 3d20 043e 8e0a e9bd 8fec 84bd c5a1 8abe
00000320: 37ce 903e 797c d13c a99f 75bd ce52 7dbd
00000330: 4192 043d 3b4d 1d3d 8fb6 aebd 76d0 5d3e
00000340: 6ab6 fcbd 4e20 9dba 6941 44be 6839 01be
00000350: e79d 603d 7f41 95bd 7f80 ddbc 5d8e 8d3d
00000360: 203e db3d 3afa 06be 5ea8 4dbe c35d 193e
00000370: 2cf4 c2bd fe1e 653d e0c5 233e 41e8 053d
00000380: fb55 25bd e55e 4abd 8f6c 24be a671 aa3d
00000390: bbdc ad3e 9549 1cbd 25c7 e13d 280c 0dbc
000003a0: a605 86bd 9489 3fbd d535 84bd 432f 0dbd
000003b0: 8acd 893d 2573 e9b9 8c13 c6bc 44d5 1e3e
000003c0: bf31 3d3d 4a27 9ebc 056e eabc f12e 8fbe
000003d0: 9b58 8cbd d16e acbb 6c3e 7f3d 7932 b13d
000003e0: 5e91 633c df38 34be a2c8 233f c445 0cbe
000003f0: 9ba8 cc3d 14be d6ba 8c0f 43be 4b92 803d
0.007959325 -0.11842978 -0.00089394563 0.26949686 0.2772061 0.08685422 0.17819792 0.34047177
0.066215314 -0.36430162 -0.4388314 -0.5212973 0.068920605 -0.052209526 0.030752143 0.2049061
-0.00072076573 -0.007018933 0.16608578 -0.32376662 -0.043414026 0.057756662 -0.104264796 -0.16836494
-0.01505481 -0.039617702 -0.07184048 0.09580141 0.07950958 0.0540133 -0.17338832 -0.29129508
-0.03492011 -0.23682527 -0.0013642125 -0.008422432 -0.046249125 0.08730065 -0.13962467 -0.035988465
0.1475399 0.079031326 -0.0064119557 -0.16852333 -0.048370603 0.18423589 -0.048313193 0.1810616
0.0060802284 -0.74711365 0.096110165 0.019118724 0.2168402 0.042919435 -0.0622234 0.14279537
-0.046871524 -0.18789437 -0.10687685 0.14362425 0.046688177 -0.027004763 0.067898795 0.14940205
0.112157755 0.04037817 0.23712417 0.008747023 0.04575515 -0.19886197 -0.032417264 -0.1271508
-0.012706835 0.13416693 -0.034208056 0.03335332 -0.028781995 0.074826755 0.114239655 -0.12095207
-0.22278383 0.023631653 -0.0794799 0.21624167 -0.08739995 -0.06326342 -0.07320816 0.08442022
-0.17121917 -0.10394001 -0.2991282 0.11579819 -0.01677006 -0.10827512 0.12307658 -0.10786487
-0.06707513 -0.11709945 0.19818327 -0.033153947 0.0111761615 -0.08985427 -0.045954976 -0.32418013
0.04508188 0.51208055 0.07890479 -0.10599554 -0.056912664 0.10301372 0.41230065 0.24892062
-0.021130864 0.11319634 0.10623504 -0.13182575 -0.10014447 -0.43746248 0.13234596 0.09239389
-0.22943762 0.040348392 0.063365124 0.091667585 -0.10891866 0.0009609134 0.022711778 0.038785983
0.07943791 -0.16369973 0.051317118 -0.52588063 0.03733941 0.1515235 -0.0039133043 0.05271247
-0.49214852 0.11168419 0.009752376 0.0024436144 0.10466086 -0.22936592 -0.104825616 0.0061631384
-0.06767473 -0.7747026 0.058640838 0.02655984 -0.048094038 0.39355618 0.12182336 -0.06411729
-0.19962649 -0.010892068 0.060545385 -0.2311762 -0.10756209 -0.06796274 -0.11449996 0.064329736
-0.11213879 -0.03476567 0.056639742 -0.11594061 -0.0026650247 -0.1857758 -0.1476775 -0.12750174
-0.17063892 -0.0610895 -0.31695646 0.089410484 -0.0739907 -0.0150523335 -0.10441315 -0.05719403
-0.010218501 -0.10521223 -0.12255654 -0.017167872 0.050183095 0.011245845 -0.08182301 -0.026454147
-0.40874246 -0.045194846 -0.04285217 -0.15992586 0.30548006 0.016751086 0.03612491 -0.21125777
-0.05834263 -0.107773736 -0.1385521 0.0404556 0.12902923 -0.11378966 -0.064904325 -0.27076545
0.2828233 0.025572049 -0.059966717 -0.061846547 0.03236604 0.03840373 -0.08530914 0.21661553
-0.1233948 -0.0011987777 -0.19165577 -0.12619555 0.054838087 -0.07287883 -0.02703881 0.06911919
0.10705209 -0.13181391 -0.20083758 0.14977174 -0.09519228 0.05593776 0.15993452 0.032692198
-0.0403652 -0.049406905 -0.16057037 0.08322458 0.33957466 -0.03815611 0.11024312 -0.008608855
-0.06544046 -0.046762064 -0.0645558 -0.0344689 0.067286566 -0.00044527013 -0.024179243 0.15511042
0.04619002 -0.019305844 -0.028616915 -0.279655 -0.06852838 -0.005262234 0.06231539 0.08652205
0.013889639 -0.1759982 0.63978016 -0.13698488 0.099930964 -0.0016383552 -0.190489 0.06277903

model/dense_6/MatMul;model/activation_6/Relu;model/dense_6/BiasAdd f4 [100]
00000000: 5393 90be 4513 8240 741e ca40 a784 8040
00000010: bb5f 9141 7efb fc40 768d 2941 1123 1641
00000020: 7115 b7bf bc3d 2b41 31ba 3e41 c302 653f
00000030: a699 853e b78a 6041 5766 d040 c2fe 663f
00000040: fa90 0341 c9f4 da3e 9fc9 8341 9b72 5041
00000050: d832 a241 0708 a8be cef3 d7c0 e601 3bc1
00000060: afe3 dd40 e5ca 3140 96c1 0a40 9129 af40
00000070: fe24 6141 40e6 c340 c19d 82c0 2eee 1440
00000080: 1db4 97bf 1162 4cc0 267d a640 fb1b 9e41
00000090: 3d10 8bc1 fdee 9940 1330 d6c0 f39e fb40
000000a0: 6917 e640 44d2 f940 2a8d 8340 5dcd 39c1
000000b0: 9060 3741 c3d5 bb40 432b a2c0 36cd 9e40
000000c0: 2e91 df3f f671 8540 30f7 08bf 7fba d3c0
000000d0: 1ab7 1d40 d85f 5441 93ca 81be 0af5 9b40
000000e0: 3215 7141 3e10 76c0 577b b440 cb40 6c41
000000f0: 978e 0041 c127 1540 7641 7cc0 3db3 1b40
00000100: ff94 a0be 5397 5740 3e63 1d41 7109 53bf
00000110: 2b96 66c0 5e01 b340 6fe1 5941 8080 fc40
00000120: 50a0 e3bf 2afa 6841 3ef4 3340 2287 803f
00000130: d7be 90c1 077c 3d40 b968 4cc1 600d 2b40
00000140: ab8c bc40 e50b 9640 32ed 15c0 91d1 8641
00000150: 8056 c040 bcb1 9a40 77df 8b40 975b b23f
00000160: af85 94c0 1ed2 05c0 d46a 6240 81a0 9bc0
00000170: 9585 0541 fd52 a040 3f8b 17c1 aa2f ed3f
00000180: 04f0 9041 47d3 f5be 914f 8ec0 5c12 87bf
-0.282374 4.064852 6.3162174 4.016193 18.171743 7.9056997 10.597036 9.383561
-1.4303418 10.702572 11.920457 0.8945734 0.26093787 14.033866 6.5124927 0.9023248
8.222895 0.4276488 16.473448 13.02798 20.274826 -0.32818624 -6.7485113 -11.6879635
6.9340434 2.7780087 2.1680655 5.473824 14.071531 6.1218567 -4.081757 2.3270373
-1.1851841 -3.1934855 5.202777 19.763662 -17.382929 4.8104234 -6.6933684 7.863153
7.1903577 7.806917 4.110982 -11.6126375 11.461075 5.869844 -5.067781 4.96255
1.746618 4.1701612 -0.5350218 -6.6165156 2.4643006 13.273399 -0.25349864 4.873662
15.067675 -3.8447413 5.640056 14.765819 8.034812 2.3305514 -3.9414954 2.4328148
-0.31363675 3.368611 9.836729 -0.8243628 -3.6029155 5.593917 13.6175375 7.890686
-1.7783298 14.561075 2.8117824 1.0041239 -18.093184 2.960695 -12.775567 2.6726913
5.8921714 4.688952 -2.3426023 16.852327 6.010559 4.834196 4.3710284 1.3934201
-4.641319 -2.0909495 3.5377703 -4.863343 8.345113 5.0101304 -9.471496 1.8530171
18.117195 -0.48012754 -4.4472127 -1.0552478
