corintho_ai/rating/tflite_models/model_67.tflite (tflite, 521576 bytes, 27 tensors)

model/dense_1/MatMul;model/activation_1/Relu;model/dense_1/BiasAdd f4 [100]
-20.319557 150.01454 -67.87155 5.809946 68.780655 45.113735 84.0404 -31.298922
-47.968693 0.55535656 -6.094232 -55.648884 21.799263 -49.304546 -7.8611236 -74.06682
38.66613 14.724845 -12.819676 4.7681994 13.114728 -0.6834579 11.292547 -63.957226
83.96518 9.977757 1.3223045 -8.953295 -72.0254 46.550747 -43.219196 9.032744
38.186623 -39.14152 79.51877 63.57627 14.208982 -34.25674 22.068216 35.087765
79.20035 -25.997452 -51.780495 -0.8292465 13.414607 -31.761324 -0.564458 -36.06622
-14.966191 -7.4305296 27.94767 -56.405277 15.515344 147.63068 -4.3572016 29.871391
12.640185 -22.732243 27.39302 -10.795909 25.807343 78.06094 -4.5637293 39.113457
54.995888 93.518456 133.5891 11.097752 -27.653166 -101.221794 -32.295746 -33.454807
-13.370435 120.77285 -8.524769 81.163185 -4.6741433 8.392792 -132.12839 -4.6498303
24.626833 44.433792 19.862394 -27.31401 7.4704638 85.5592 44.49775 -23.011633
88.95596 40.838943 107.06276 15.419344 67.87018 7.6696634 20.249155 -6.4000025
160.8536 35.31853 16.994556 -90.156265
00000000: 748e a2c1 b903 1643 3cbe 87c2 14eb b940
00000010: b28f 8942 7774 3442 af14 a842 3164 fac1
00000020: f1df 3fc2 d92b 0e3f f303 c3c0 7598 5ec2
00000030: e464 ae41 db37 45c2 538e fbc0 3622 94c2
00000040: 1eaa 1a42 f798 6b41 651d 4dc1 1795 9840
00000050: edd5 5141 19f7 2ebf 46ae 3441 33d4 7fc2
00000060: 2cee a742 e5a4 1f41 4641 a93f b240 0fc1
00000070: 010d 90c2 f733 3a42 75e0 2cc2 1f86 1041
00000080: 1abf 1842 eb90 1cc2 9c09 9f42 1a4e 7e42
00000090: fe57 6341 e706 09c2 b58b b041 df59 0c42
000000a0: 9466 9e42 c8fa cfc1 3a1f 4fc2 8049 54bf
000000b0: 3ba2 5641 3117 fec1 5280 10bf cf43 10c2
000000c0: 8575 6fc1 e6c6 edc0 d494 df41 019f 61c2
000000d0: d93e 7841 74a1 1343 326e 8bc0 9cf8 ee41
000000e0: 333e 4a41 a2db b5c1 e824 db41 0bbc 2cc1
000000f0: 7075 ce41 341f 9c42 120a 92c0 2e74 1c42
00000100: cafb 5b42 7309 bb42 cf96 0543 6490 3141
00000110: af39 ddc1 8f71 cac2 d82e 01c2 b9d1 05c2
00000120: 4ded 55c1 b38b f142 7465 08c1 8d53 a242
00000130: 9592 95c0 e048 0641 de20 04c3 69cb 94c0
00000140: c103 c541 34bc 3142 2fe6 9e41 1883 dac1
00000150: 0a0e ef40 4f1e ab42 b2fd 3142 d317 b8c1
00000160: 74e9 b142 145b 2342 2220 d642 a2b5 7641
00000170: 88bd 8742 e26d f540 45fe a141 d2cc ccc0
00000180: 86da 2043 2d46 0d42 daf4 8741 0250 b4c2

model/batch_normalization/batchnorm/mul_1;model/batch_normalization/batchnorm/add_1;model/dense_1/MatMul;model/activation_1/Relu;model/dense_1/BiasAdd f4 [100, 100]
0.15556256 -0.7005472 0.36820266 0.13878189 1.4841565 0.32585776 -1.039634 -1.0719525
0.114485145 0.60650647 0.47393703 0.13327536 0.20722482 0.0052635083 -0.65575135 0.010912689
0.12985577 -1.5874892 0.30782306 -0.5223722 -0.13208444 4.2944202 -0.07529083 -0.0038053826
-0.10467855 0.21515012 -0.10951076 -1.08447 0.17162317 -0.28527462 -0.03236064 0.64599025
0.07862873 -0.49958 0.05697773 -0.12182192 -0.17248818 -0.19910067 -0.0394671 0.14170809
0.41963017 1.1999118 0.42204624 0.215416 -0.24171473 -0.18304682 0.3113111 -0.10655512
0.72016096 0.18339546 0.025374385 -1.6859772 0.73977005 5.1475625 0.26103303 -0.044090617
-0.15676744 0.3944842 1.5499836 0.5459126 0.39839944 -0.13737826 0.12511197 -0.8988736
0.33326733 -0.46094036 -0.18925835 0.3746555 -0.050121285 0.86798936 0.4894942 -0.2028141
-0.12252149 -0.094157614 0.72631735 -0.7835952 -0.48802063 -0.0027623167 0.14638077 0.35198545
-0.8717887 0.2261991 -0.18573296 -0.12083874 -0.26790702 -0.23922038 -0.12939838 -0.9072035
-0.121735856 -0.18460216 -1.1590104 1.080269 0.11670661 -0.38600773 -0.18420956 0.19291723
0.25503895 -0.15237606 -0.3822492 -0.17892323 -0.9657414 -1.1791041 -0.35344467 0.03751528
-1.2405317 2.0703776 0.71997416 0.18902929 0.05045082 -0.5621958 0.29222697 0.034442306
-1.1156443 -0.1572787 -0.34920457 -0.7984024 0.070288114 -1.6250535 -0.98703384 -0.07024638
-0.47095388 -0.22914483 -0.13417949 -0.03267759 0.14041242 -0.07406795 -0.42028886 -0.122835375
-0.21922475 0.111211844 0.02450168 0.2698485 0.040069666 -0.003763559 -0.5394226 0.071120724
-0.423185 -1.8427323 -0.71791357 -0.83950454 0.21640463 -0.39793524 -1.0403436 -0.16315037
-0.15386425 -1.0724162 0.052417465 0.16262758 -0.2275123 0.30416524 0.102765895 1.6486622
-0.38023764 0.8921383 0.0034944678 -0.3387746 -0.5746069 1.0673602 1.4708116 0.15978159
0.18073435 0.6399872 0.08026805 -0.86556315 -0.90378904 -0.46221253 0.28181186 0.8591234
-0.37651566 -0.16601306 0.028000299 0.41740873 0.21075967 0.16502602 -0.26327583 -0.5181329
-0.52264583 -0.6865043 0.6783152 0.10521091 -0.014135948 -1.0429053 0.70136285 0.8334404
-0.13891019 0.15629598 0.014656026 0.3754247 0.21771635 0.1513302 -0.28443533 0.9016865
-0.49771053 -0.52533656 -0.64459777 -0.1705296 -0.28387055 -0.7369645 -0.80078274 -0.17247204
0.91984934 -0.6367697 0.033161066 0.18596421 1.0449213 -0.007199736 1.0721856 -1.425863
-1.0122806 -0.7195876 -0.07980406 2.0976524 -0.028738474 0.055356834 -0.24926816 0.5561456
0.32609275 -0.5177495 -1.2641892 0.02638882 -0.07660489 -1.0042434 -0.006297458 0.0675959
-0.0037105838 -0.032651924 -0.50243753 0.11461463 0.81042033 0.30399463 0.8174081 0.6469409
-0.13270043 0.34892863 0.7185611 -0.012090043 -0.14279045 0.15542561 0.590014 -0.9136654
0.24540547 -0.13857092 1.1779555 0.085833855 0.19529001 -1.2491776 0.90227133 0.12565888
-1.5455787 -0.0077453847 0.15449563 0.41292498 -0.39561403 0.024197988 -0.07196715 0.29115203
00000000: cb4b 1f3e 1057 33bf 0f85 bc3e d71c 0e3e
00000010: d7f8 bd3f d4d6 a63e ba12 85bf bd35 89bf
00000020: 3077 ea3d 0244 1b3f e0a7 f23e 5679 083e
00000030: be32 543e 8279 ac3b 52df 27bf 23cb 323c
00000040: e9f8 043e d932 cbbf fc9a 9d3e 2fba 05bf
00000050: 2541 07be e46b 8940 1432 9abd ba63 79bb
00000060: b561 d6bd 5050 5c3e 2d47 e0bd eacf 8abf
00000070: fcbd 2f3e 840f 92be 978c 04bd 9e5f 253f
00000080: 1908 a13d f3c8 ffbe 7b61 693d c57d f9bd
00000090: bea0 30be 0ce1 4bbe 41a8 21bd ed1b 113e
000000a0: c4d9 d63e b696 993f 7216 d83e 0396 5c3e
000000b0: 1184 77be a070 3bbe 2b64 9f3e 9239 dabd
000000c0: 785c 383f 05cc 3b3e f1dd cf3c 1ace d7bf
000000d0: 9261 3d3f d5b8 a440 1fa6 853e 5d98 34bd
000000e0: a587 20be d5f9 c93e dd65 c63f eec0 0b3f
000000f0: 03fb cb3e e3ac 0cbe 5a1d 003e 951c 66bf
00000100: 04a2 aa3e 6000 ecbe f1cc 41be d8d2 bf3e
00000110: fa4b 4dbd 8d34 5e3f fc9e fa3e 80ae 4fbe
00000120: 8cec fabd b5d5 c0bd efef 393f b299 48bf
00000130: d7dd f9be fc07 35bb d7e4 153e 7037 b43e
00000140: 8b2d 5fbf bda0 673e c830 3ebe 4d7a f7bd
00000150: 1c2b 89be 30f6 74be 0281 04be 7d3e 68bf
00000160: a650 f9bd 5908 3dbe 745a 94bf 4146 8a3f
00000170: e003 ef3d cea2 c5be 6ea1 3cbe 188c 453e
00000180: 7794 823e 7808 1cbe 2bb6 c3be a737 37be
00000190: d43a 77bf e2ec 96bf b3f6 b4be 9fa9 193d
000001a0: bec9 9ebf 1181 0440 3a50 383f e590 413e
000001b0: 85a5 4e3d 10ec 0fbf c69e 953e 6013 0d3d
000001c0: 6fcd 8ebf ab0d 21be f1ca b2be 1a64 4cbf
000001d0: 37f3 8f3d c101 d0bf 40ae 7cbf 56dd 8fbd
000001e0: de20 f1be f1a4 6abe 5966 09be f0d8 05bd
000001f0: 46c8 0f3e f0b0 97bd 1a30 d7be 1d91 fbbd
00000200: 747c 60be 09c3 e33d bfb7 c83c 9529 8a3e
00000210: 1720 243d 0ba6 76bb 9917 0abf bea7 913d
00000220: b4ab d8be a7de ebbf 2fc9 37bf c5e9 56bf
00000230: 2d99 5d3e 2bbe cbbe fb29 85bf e410 27be
00000240: 978e 1dbe ef44 89bf b2b3 563d d887 263e
00000250: fcf8 68be 8cbb 9b3e ed76 d23d 5d07 d33f
00000260: 82ae c2be 2d63 643f 7103 653b dd73 adbe
00000270: 7019 13bf 429f 883f 8e43 bc3f c99d 233e
00000280: 6d12 393e 33d6 233f 9363 a43d 8c95 5dbf
00000290: b85e 67bf 1fa7 ecbe a549 903e 83ef 5b3f
000002a0: a9c6 c0be 54ff 29be e260 e53c 99b6 d53e
000002b0: 62d1 573e 95fc 283e 17cc 86be 5ca4 04bf
000002c0: 1ecc 05bf bfbe 2fbf 11a6 2d3f d178 d73d
000002d0: 779a 67bc ec7d 85bf 848c 333f 5a5c 553f
000002e0: 793e 0ebe 0e0c 203e d41f 703c ab37 c03e
000002f0: 09f1 5e3e 4ef6 1a3e 82a1 91be edd4 663f
00000300: ead3 febe 757c 06bf 5c04 25bf 509f 2ebe
00000310: 7b57 91be b5a9 3cbf 1900 4dbf 839c 30be
00000320: 3f7b 6b3f 5703 23bf e6d3 073d 676d 3e3e
00000330: fbbf 853f c3eb ebbb 613d 893f ae82 b6bf
00000340: 6992 81bf e536 38bf 5070 a3bd f03f 0640
00000350: f36c ebbc d9bd 623d 2740 7fbe 8f5f 0e3f
00000360: a1f5 a63e 3b8b 04bf f4d0 a1bf 5e2d d83c
00000370: 06e3 9cbd 0c8b 80bf e85a cebb b86f 8a3d
00000380: 442d 73bb 06be 05bd bf9f 00bf 13bb ea3d
00000390: b577 4f3f 2fa5 9b3e a841 513f eb9d 253f
000003a0: 9fe2 07be c6a6 b23e 9ff3 373f 5115 46bc
000003b0: a937 12be e427 1f3e 280b 173f fae5 69bf
000003c0: 924b 7b3e 89e5 0dbe 3fc7 963f a9c9 af3d
000003d0: 1bfa 473e 0de5 9fbf 41fb 663f b9ac 003e
000003e0: 86d5 c5bf ffcc fdbb 1a34 1e3e e76a d33e
000003f0: ec8d cabe dc3a c63c 8363 93bd e111 953e

model/dense_2/MatMul;model/activation_2/Relu;model/dense_2/BiasAdd f4 [100]
73.79391 -87.10022 -3.2381952 -65.392 -14.108444 16.11256 28.71143 33.126286
-18.240643 4.6621943 -8.864984 -16.037031 -2.689275 19.638817 -2.080081 -80.59075
-60.40926 20.032917 1.9866828 -5.8736544 63.904655 7.3920794 33.227325 19.520237
1.5262848 21.582762 -2.718258 61.613182 -17.375965 13.77435 5.629729 16.553831
36.624653 -13.6749 24.73396 -62.080494 93.29867 -24.632996 -25.986326 -23.090687
-17.778042 -67.93804 -3.710533 -22.809202 -47.9057 44.289448 -27.556337 -17.285032
-38.573833 14.343854 70.26148 73.825584 20.90789 4.2980456 0.9347162 3.5553944
5.556723 65.54092 43.802666 -34.852234 -14.3573885 -9.24298 -18.133837 138.23483
18.952095 17.915855 -67.43025 -48.418808 7.595694 47.032867 -161.11713 29.390766
-13.612046 21.570187 -57.66544 -29.135891 35.51645 -37.54489 -34.148293 61.54212
64.73067 54.209076 52.001 34.80478 -12.384145 -62.42897 0.45233858 49.694973
37.882217 33.10587 -51.50479 25.06592 24.554897 22.146635 -24.300676 70.589836
81.53196 50.361027 11.992419 -19.339727
00000000: 7b96 9342 5033 aec2 973e 4fc0 b4c8 82c2
00000010: 30bc 61c1 86e6 8041 02b1 e541 5181 0442
00000020: d6ec 91c1 b230 9540 f9d6 0dc1 d74b 80c1
00000030: 151d 2cc0 4c1c 9d41 0c20 05c0 772e a1c2
00000040: 15a3 71c2 6a43 a041 9f4b fe3f faf4 bbc0
00000050: 5e9e 7f42 ea8b ec40 c8e8 0442 7229 9c41
00000060: 4d5d c33f 7fa9 ac41 f0f7 2dc0 e673 7642
00000070: fa01 8bc1 bd63 5c41 bd26 b440 3f6e 8441
00000080: a57f 1242 64cc 5ac1 26df c541 6d52 78c2
00000090: eb98 ba42 6010 c5c1 ffe3 cfc1 bab9 b8c1
000000a0: 6e39 8ec1 47e0 87c2 5f79 6dc0 3f79 b6c1
000000b0: 709f 3fc2 6528 3142 6173 dcc1 bf47 8ac1
000000c0: 9b4b 1ac2 6d80 6541 e185 8c42 b3a6 9342
000000d0: 5c43 a741 9789 8940 9049 6f3f 958b 6340
000000e0: add0 b140 f314 8342 ee35 2f42 b068 0bc2
000000f0: ddb7 65c1 3fe3 13c1 1912 91c1 1e3c 0a43
00000100: e49d 9741 ac53 8f41 4adc 86c2 dcac 41c2
00000110: ed0f f340 a821 3c42 fc1d 21c3 4a20 eb41
00000120: f1ca 59c1 be8f ac41 69a9 66c2 4e16 e9c1
00000130: d810 0e42 f82d 16c2 da97 08c2 222b 7642
00000140: 1a76 8142 18d6 5842 0601 5042 1838 0b42
00000150: 7525 46c1 44b7 79c2 ec98 e73e a7c7 4642
00000160: 6487 1742 696c 0442 e804 4ec2 0187 c841
00000170: 6e70 c441 4f2c b141 c967 c2c1 ff2d 8d42
00000180: 5d10 a342 b171 4942 f3e0 3f41 c3b7 9ac1

model/batch_normalization_1/batchnorm/mul_1;model/batch_normalization_1/batchnorm/add_1;model/dense_2/MatMul;model/activation_2/Relu;model/dense_2/BiasAdd f4 [100, 100]
-0.035871167 -0.043052904 0.31352523 0.044782516 -0.21461532 -0.1588664 0.12537679 -0.05005235
0.21449262 -0.045459654 0.1300393 0.18759722 0.10101765 -0.1667279 -0.23163271 0.08260106
0.00066818536 -0.22031927 0.1508286 -0.015306693 -0.111659825 -0.045529637 0.0686814 0.11962003
-0.11381082 -0.043921918 -0.020336641 0.03281828 -0.17702214 -0.09976297 -0.016447555 0.0010644413
-0.28139913 0.03754977 -0.047181137 0.1456879 -0.052860413 0.051901527 0.05701454 -0.12448065
-0.03159422 -0.19131003 -0.3028217 0.09639217 0.049708005 -0.022134952 -0.108539864 -0.09005095
-0.093504906 0.024463959 0.07805131 0.057240468 -0.008056859 -0.216651 -0.1234514 -0.04938859
0.02952178 0.039566115 0.197361 -0.051253043 0.14703679 -0.10886236 0.08814585 -0.24981107
-0.005571779 0.052525938 0.07137937 -0.031939253 -0.02446981 -0.0215788 -0.23019543 -0.15788884
-0.0053798924 -0.05510612 -0.25829196 -0.071718544 0.110756 -0.021457672 -0.058857363 -0.30839193
0.074779734 -0.097806476 0.06403743 0.04956717 -0.03630318 -0.020920873 0.086540766 -0.0155390175
-0.13770503 0.050055094 0.077599116 -0.023164712 -0.082092926 -0.17134638 -0.2957898 0.19696628
0.2039401 -0.4400156 0.091359146 -0.32352746 -0.047407337 0.048747312 -0.008601366 -0.051289544
0.017087523 0.05921304 0.0598736 0.02940575 0.053012773 0.0577338 -0.025701234 0.052724384
-0.032032423 -0.080433995 0.0860284 0.07508858 0.0023978835 -0.008044691 -0.10082112 0.09786502
-0.13490866 0.027444191 0.10608392 0.091583595 0.013906057 0.027861629 -0.11250182 -0.100204386
0.02757416 -0.03339157 0.22272702 0.2754026 0.11048794 -0.009146921 0.08063061 -0.02303542
-0.035821203 0.121659555 -0.046522703 0.027650613 -0.013963975 0.008388683 0.012382854 0.007167336
0.09566197 0.096044965 0.084700175 0.047565408 0.07121025 0.06754793 0.06396179 -0.1165112
0.22525452 0.90533555 0.10020258 0.077009775 0.16254728 0.03180075 0.015479698 0.038182616
0.045274206 -0.12904736 0.33414385 0.07014263 0.050024554 0.07394159 -0.1748225 -0.029828047
0.043818615 -0.032693364 -0.092438236 0.03858135 -0.013412818 0.27519345 0.021990063 -0.12194618
0.106873065 0.09314076 -0.020391306 -0.1261869 0.060893275 0.0025384868 0.03441324 0.17337807
0.03268652 -0.013930753 -0.053808212 0.0052993214 0.018586261 0.09893253 0.46148065 0.04936829
-0.20996211 0.15266024 -0.0024559249 -0.112055294 -0.22183952 0.0031602154 -0.32116613 -0.117722794
0.3192066 0.18705022 -0.04326301 0.098235786 0.0090219 0.0013041471 0.06778359 -0.0050371727
-0.070072584 0.18761414 0.027172292 0.058626115 -0.011062562 -0.102158114 -0.04045359 -0.22129706
0.0346868 0.027666917 -0.0711614 0.1445822 0.16402972 -0.009662006 0.007011438 0.0113244485
-0.03798716 -0.087362394 -0.009801361 -0.044195082 0.06414747 -0.0068928953 -0.017864235 0.11806448
-0.11251112 0.04576456 -0.14438608 -0.042461064 0.07565386 0.016197024 -0.026255727 0.08850281
0.05668476 0.5837962 0.07970642 0.058078907 0.16656092 0.044985387 -0.04595783 0.021117393
-0.07519107 0.071484804 0.103393845 -0.011107683 -0.037745506 -0.008752385 -0.07185285 -0.0024521502
00000000: a5ed 12bd 3e58 30bd 6186 a03e df6d 373d
00000010: 1ec4 5bbe e0ad 22be c662 003e b103 4dbd
00000020: f4a3 5b3e e733 3abd 0629 053e 7c19 403e
00000030: 57e2 ce3d b8ba 2abe 2031 6dbe bf2a a93d
00000040: 2929 2f3a 609b 61be d072 1a3e ecc8 7abc
00000050: e8ad e4bd 497d 3abd d5a8 8c3d 59fb f43d
00000060: a615 e9bd 78e7 33bd 0799 a6bc 766c 063d
00000070: 4b45 35be 8750 ccbd 06bd 86bc b984 8b3a
00000080: 8c13 90be cacd 193d 0241 41bd 352f 153e
00000090: 2984 58bd b296 543d 1488 693d b6ef febd
000000a0: f168 01bd c7e6 43be 720b 9bbe 4269 c53d
000000b0: 9f9a 4b3d 5c54 b5bc 264a debd a26c b8bd
000000c0: 807f bfbd a468 c83c 5dd9 9f3d fb74 6a3d
000000d0: ea00 04bc c2d9 5dbe 16d4 fcbd b14b 4abd
000000e0: a9d7 f13c 1410 223d 0119 4a3e b6ee 51bd
000000f0: d090 163e 3bf3 debd d085 b43d 79ce 7fbe
00000100: 7893 b6bb 7025 573d 592f 923d bcd2 02bd
00000110: e974 c8bc 06c6 b0bc 5ab8 6bbe 9dad 21be
00000120: cf49 b0bb f4b6 61bd d83e 84be 2ce1 92bd
00000130: 0bd4 e23d 00c8 afbc 6b14 71bd 8ce5 9dbe
00000140: 1e26 993d c34e c8bd 0e26 833d f206 4b3d
00000150: a5b2 14bd 4062 abbc 493c b13d 5d97 7ebc
00000160: 8c02 0dbe 9206 4d3d 49ec 9e3d ecc3 bdbc
00000170: 5620 a8bd 6d75 2fbe c371 97be 87b1 493e
00000180: acd5 503e ba49 e1be 811a bb3d 64a5 a5be
00000190: 322e 42bd 43ab 473d beec 0cbc fc14 52bd
000001a0: 22fb 8b3c 5f89 723d 053e 753d 54e4 f03c
000001b0: ec23 593d 477a 6c3d 658b d2bc 86f5 573d
000001c0: 6e34 03bd 94ba a4bd a82f b03d 0bc8 993d
000001d0: cf25 1d3b e1cd 03bc 4e7b cebd 756d c83d
000001e0: 7f25 0abe a4d2 e03c 8742 d93d 2e90 bb3d
000001f0: 3bd6 633c 123e e43c 5b67 e6bd f537 cdbd
00000200: 34e3 e13c 99c5 08bd 8d12 643e 9201 8d3e
00000210: 8047 e23d f8dc 15bc a921 a53d c7b4 bcbc
00000220: 41b9 12bd a528 f93d 978e 3ebd 8a83 e23c
00000230: 28c9 64bc b070 093c 74e1 4a3c f9db ea3b
00000240: 6cea c33d 39b3 c43d 4977 ad3d f2d3 423d
00000250: aed6 913d 9256 8a3d 66fe 823d 6d9d eebd
00000260: 1fa9 663e 12c4 673f 0337 cd3d 4db7 9d3d
00000270: cb72 263e 8141 023d 8f9e 7d3c 6065 1c3d
00000280: 7271 393d fe24 04be e714 ab3e f0a6 8f3d
00000290: 8ce6 4c3d b06e 973d ab04 33be f359 f4bc
000002a0: 267b 333d 7ae9 05bd 4250 bdbd 7a07 1e3d
000002b0: 70c1 5bbc 28e6 8c3e 8124 b43c ebbe f9bd
000002c0: 44e0 da3d 95c0 be3d ab0b a7bc 2437 01be
000002d0: 3a6b 793d be5c 263b e6f4 0c3d 058a 313e
000002e0: 4de2 053d d03d 64bc 0066 5cbd eea5 ad3b
000002f0: 3742 983c 239d ca3d 3147 ec3e 6736 4a3d
00000300: 4f00 57be f752 1c3e 95f3 20bb 3f7d e5bd
00000310: e629 63be 9e1b 4f3b e36f a4be a618 f1bd
00000320: 0c6f a33e 188a 3f3e 8e34 31bd d82f c93d
00000330: 97d0 133c eaef aa3a 1fd2 8a3d de0e a5bb
00000340: 3782 8fbd ec1d 403e 6d98 de3c f021 703d
00000350: bf3f 35bc 4638 d1bd aab2 25bd b29b 62be
00000360: bf13 0e3d bba5 e23c 11bd 91bd 5b0d 143e
00000370: 68f7 273e 644d 1ebc 34c0 e53b 2e8a 393c
00000380: 6d98 1bbd 0eeb b2bd e395 20bc e705 35bd
00000390: c05f 833d ccdd e1bb 0458 92bc cacb f13d
000003a0: 3b6c e6bd 9f73 3b3d f2d9 13be a7eb 2dbd
000003b0: 69f0 9a3d 9faf 843c 4016 d7bc f640 b53d
000003c0: 472e 683d ab73 153f 1f3d a33d 26e4 6d3d
000003d0: f28e 2a3e 9942 383d 473e 3cbd 62fe ac3c
000003e0: c7fd 99bd a066 923d 27c0 d33d 00fd 35bc
000003f0: 089b 1abd 2a66 0fbc 9627 93bd 41b4 20bb

model/dense_3/MatMul;model/activation_3/Relu;model/dense_3/BiasAdd f4 [100]
-29.011967 50.980343 13.158479 -8.111027 15.8242655 -20.061462 -6.37084 16.72904
48.087006 23.122934 48.310753 52.08212 49.08518 0.9454189 12.960374 9.109939
-10.09077 16.534828 10.65756 -2.7984185 32.308846 -7.662131 -0.52673024 34.583126
48.170036 60.151154 30.315928 -6.9279013 -15.798018 -48.42832 14.024092 21.936035
25.132805 -0.48249722 13.484857 69.33536 -3.0281768 27.183933 -35.534744 10.345684
42.15717 43.33211 56.330635 -29.3632 3.0097454 5.147226 -23.456203 6.897541
28.744047 1.7691301 14.7560005 -36.113132 -18.410656 -40.928127 -29.897242 19.306585
-0.09904604 -19.047842 9.792703 22.532719 -3.537764 5.6550922 9.506984 20.844639
-15.460817 4.894712 10.932774 -1.5902835 19.037159 -6.4165897 -3.1946442 10.325331
-0.7580525 -29.843712 34.239548 -1.5446393 -24.122019 10.725423 0.91611916 -38.64852
-46.027786 -0.8370869 1.0862268 29.336155 -2.8531818 -24.781637 12.7915945 2.2458086
-13.788827 10.854133 -5.0382576 36.88173 -5.052835 -3.0358448 25.397913 -59.6987
2.967495 25.296165 25.277996 3.3640485
00000000: 8218 e8c1 dfeb 4b42 2189 5241 c4c6 01c1
00000010: 3130 7d41 e07d a0c1 ecdd cbc0 13d5 8541
00000020: 1859 4042 c5fb b841 363e 4142 1754 5042
00000030: 3957 4442 f906 723f b15d 4f41 4fc2 1141
00000040: cb73 21c1 5447 8441 5e85 2a41 4a19 33c0
00000050: 423c 0142 2d30 f5c0 cbd7 06bf 1f55 0a42
00000060: 1eae 4042 c89a 7042 0587 f241 5eb1 ddc0
00000070: afc4 7cc1 9ab6 41c2 ae62 6041 007d af41
00000080: fc0f c941 e009 f7be f9c1 5741 b4ab 8a42
00000090: a6cd 41c0 b278 d941 9423 0ec2 ec87 2541
000000a0: f1a0 2842 1554 2d42 9252 6142 d5e7 eac1
000000b0: ab9f 4040 13b6 a440 4ea6 bbc1 a8b8 dc40
000000c0: cff3 e541 db72 e23f 9418 6c41 d973 10c2
000000d0: 0649 93c1 67b6 23c2 8d2d efc1 e373 9a41
000000e0: a6d8 cabd fb61 98c1 e9ae 1c41 0243 b441
000000f0: ba6a 62c0 84f6 b440 9b1c 1841 d2c1 a641
00000100: 825f 77c1 7ba1 9c40 a4ec 2e41 698e cbbf
00000110: 1a4c 9841 b454 cdc0 0d75 4cc0 8e34 2541
00000120: bb0f 42bf ecbf eec1 4cf5 0842 beb6 c5bf
00000130: e5f9 c0c1 559b 2b41 c986 6a3f 1698 1ac2
00000140: 741c 38c2 544b 56bf 7b09 8b3f 72b0 ea41
00000150: 889a 36c0 cb40 c6c1 5faa 4c41 54bb 0f40
00000160: 099f 5cc1 87aa 2d41 6839 a1c0 e486 1342
00000170: d3b0 a1c0 484b 42c0 ed2e cb41 78cb 6ec2
00000180: 70eb 3d40 8c5e ca41 5639 ca41 924c 5740

model/batch_normalization_2/batchnorm/mul_1;model/batch_normalization_2/batchnorm/add_1;model/dense_3/MatMul;model/activation_3/Relu;model/dense_3/BiasAdd f4 [100, 100]
0.086045966 0.028972002 -0.014487178 0.027538069 0.047391098 -0.04302079 0.06921785 0.21876214
-0.12677294 -0.045229398 -0.26628813 -0.03594721 -0.1165095 -0.059114024 0.047394663 0.02119037
-0.018631158 0.1298094 0.07829162 0.007315952 -0.005635653 0.06682181 0.5687536 -0.07089098
0.032501332 -0.031357024 0.07429188 0.020138951 -0.19459735 -0.12049899 -0.06781971 -0.08276655
-0.018433634 -0.006080303 -0.21500942 -0.1864766 0.1122701 -0.03185984 -0.048819505 -0.017768182
-0.017795118 0.017284945 0.036242757 0.16349003 -0.025119737 -0.019178597 0.09461511 -0.24184544
0.10384951 0.27714977 0.08745103 0.08326822 0.045366928 0.06888126 -0.08395191 0.072509974
0.08392515 0.23416796 0.10350357 -0.0465971 -0.12303682 -0.008842562 -0.07955133 -0.09212875
0.1833102 0.01255571 -4.124822 0.06326171 0.07975309 0.15894508 -0.018989531 -0.115072556
0.029515617 -0.050198827 0.033342943 0.067343354 -0.021849958 0.10071443 -0.033753525 0.08688905
0.014798191 -0.13494512 0.03652563 -0.010165044 0.015023318 -0.07278581 0.077106215 -0.15082787
0.28648058 0.44872013 -0.10109104 -0.12679672 0.0048179175 0.14330001 0.09341295 0.004203321
0.008037455 -0.28846678 -0.12629786 -0.017469106 -0.27267227 -0.03143212 -0.4337967 -0.018486872
-0.11275088 0.047221612 0.05928831 0.13722618 -0.08763618 -0.27990508 0.08664661 0.14627224
-0.0046015657 -0.16872315 0.17042454 0.003189042 -0.009480545 -0.11174418 -0.110409684 -0.13640527
-0.063118026 0.043625426 -0.16852108 -0.06782662 0.1989193 -0.15841763 0.41137758 0.18652439
0.118565775 0.10021715 -0.15046713 0.32717317 0.102863185 0.101300076 -0.018305538 -0.11907068
0.023855425 0.060852345 -0.076867536 0.23759636 -0.11776734 -0.04235861 -0.00436177 -0.08552536
0.1483425 0.04339057 -0.06687731 -0.46496117 0.07961113 -0.25296187 0.035456114 0.2703935
-0.08899302 -0.26363528 -0.16546924 -0.15468998 -0.0033406857 -0.06002636 -0.22888274 0.16054763
0.077935494 0.20515399 0.043013345 -0.11874429 0.0025424017 -0.031873543 -0.0055571073 -0.03316525
0.05053676 -0.10734298 -0.01075397 0.117764734 0.13260952 -0.011805611 -0.015040189 -0.06824075
-0.15073971 -0.0010904139 -0.02236916 0.30672312 -0.0499173 -0.14667113 0.12943488 -0.24528922
-0.059505932 0.03887034 0.21519314 -0.28607276 -0.21295288 -0.06253241 0.068334706 0.14680289
0.13809058 0.014326383 -0.1351453 -0.09492727 0.04470854 -0.19157052 0.066032596 -0.0055573797
0.095349684 0.20755239 -0.05589403 -0.09939089 0.057469536 -0.013071722 0.06030496 0.056955308
0.09300255 0.13756652 -0.11815836 0.13486007 -0.028438648 -0.24287212 0.029961167 0.14306559
0.13652653 0.006094723 -0.12193939 0.08218026 -0.065827146 0.082438715 0.025240146 -0.011838427
-0.16559371 0.03840544 -0.064409375 -0.037080288 0.09968784 0.060821522 -0.14138985 -0.09949011
-0.23747462 -0.010851893 -0.032928146 0.029168481 0.048381373 0.15597229 0.032028247 -0.12441023
0.014866403 -0.067970574 -0.23871417 0.08269883 0.06866087 -0.26841313 -0.009903645 -0.0649773
-0.1361481 -0.04274901 -0.22327195 0.0015136674 0.07844318 -0.023190647 -0.05300911 -0.091178566
00000000: de38 b03d b156 ed3c a15b 6dbc 8497 e13c
00000010: 2b1d 423d 9136 30bd 17c2 8d3d 2f03 603e
00000020: c4d0 01be 7642 39bd eb56 88be 623d 13bd
00000030: 889c eebd 8c21 72bd e820 423d 6d97 ad3c
00000040: 5fa0 98bc c1ec 043e 5b57 a03d a7ba ef3b
00000050: 49ab b8bb e0d9 883d d699 113f 4a2f 91bd
00000060: 1e20 053d 3970 00bd 5726 983d 71fa a43c
00000070: 8744 47be 2dc8 f6bd 0fe5 8abd 8281 a9bd
00000080: 2202 97bc 473d c7bb 6e2b 5cbe b9f3 3ebe
00000090: deed e53d 777f 02bd f6f6 47bd 948e 91bc
000000a0: 11c7 91bc 2899 8d3c 4973 143d ee69 273e
000000b0: e8c7 cdbc 6f1c 9dbc 91c5 c13d 55a6 77be
000000c0: 0daf d43d 93e6 8d3e 8719 b33d 8788 aa3d
000000d0: acd2 393d 9e11 8d3d fbee abbd 1c80 943d
000000e0: f3e0 ab3d bac9 6f3e aef9 d33d 9adc 3ebd
000000f0: bafa fbbd 65e0 10bc cfeb a2bd 00ae bcbd
00000100: abb5 3b3e 77b6 4d3c 8bfe 83c0 5b8f 813d
00000110: 9755 a33d 80c2 223e ef8f 9bbc 29ab ebbd
00000120: bcca f13c 499d 4dbd 9c92 083d 50eb 893d
00000130: affe b2bc 5e43 ce3d 2341 0abd e3f2 b13d
00000140: 1d74 723c 0e2f 0abe e69b 153d 498b 26bc
00000150: 5d24 763c ba10 95bd dde9 9d3d 9f72 1abe
00000160: 95ad 923e a5be e53e d208 cfbd 00d7 01be
00000170: 9fdf 9d3b 3dbd 123e 4a4f bf3d 03bc 893b
00000180: 88af 033c ebb1 93be 3a54 01be 5f1b 8fbc
00000190: b39b 8bbe f7be 00bd 9a1a debe c871 97bc
000001a0: efe9 e6bd 736b 413d 4dd8 723d 0585 0c3e
000001b0: 997a b3bd b84f 8fbe c773 b13d 64c8 153e
000001c0: bbc8 96bb c3c5 2cbe c583 2e3e 3fff 503b
000001d0: 4a54 1bbc 22da e4bd 791e e2bd d3ad 0bbe
000001e0: 0644 81bd 93b0 323d ca90 2cbe afe8 8abd
000001f0: 80b1 4b3e 3b38 22be 15a0 d23e 4000 3f3e
00000200: 9dd2 f23d a63e cd3d 0e14 1abe 3e83 a73e
00000210: efa9 d23d 6a76 cf3d 7ff5 95bc 54db f3bd
00000220: 746c c33c 4f40 793d ba6c 9dbd 764c 733e
00000230: 0130 f1bd 3980 2dbd 2eed 8ebb ec27 afbd
00000240: 19e7 173e 4fba 313d f9f6 88bd 640f eebe
00000250: 290b a33d 3884 81be 6e3a 113d 0471 8a3e
00000260: f941 b6bd 34fb 86be c570 29be 0d67 1ebe
00000270: 68ef 5abb 33de 75bd 3d60 6abe 9966 243e
00000280: a59c 9f3d e313 523e c32e 303d 3530 f3bd
00000290: 6c9e 263b d58d 02bd 6518 b6bb 49d8 07bd
000002a0: a2ff 4e3d a3d6 dbbd 6b31 30bc a32e f13d
000002b0: caca 073e 526c 41bc 206b 76bc cec1 8bbd
000002c0: 835b 1abe 38ec 8eba 873f b7bc d00a 9d3e
000002d0: 1576 4cbd f530 16be 948a 043e 192d 7bbe
000002e0: 7ebc 73bd 8136 1f3d 975b 5c3e 2178 92be
000002f0: 5210 5abe fe10 80bd 11f3 8b3d 7f53 163e
00000300: 9e67 0d3e 35b9 6a3c 8863 0abe 3b69 c2bd
00000310: 4d20 373d 102b 44be 193c 873d ae1a b6bb
00000320: b246 c33d 9d88 543e 23f1 64bd 738d cbbd
00000330: 2d65 6b3d c72a 56bc 5502 773d f849 693d
00000340: 1f78 be3d 3dde 0c3e 03fd f1bd c218 0a3e
00000350: 2bf8 e8bc 78b3 78be 1f71 f53c c97f 123e
00000360: 9ccd 0b3e 3eb6 c73b 5cbb f9bd 204e a83d
00000370: 62d0 86bd a1d5 a83d 6cc4 ce3c f6f5 41bc
00000380: 6691 29be 064f 1d3d 10e9 83bd 80e1 17bd
00000390: 2329 cc3d fd1f 793d 80c8 10be 79c1 cbbd
000003a0: 8c2c 73be 23cc 31bc aadf 06bd bdf2 ee3c
000003b0: 8c2b 463d 33b7 1f3e 0d30 033d caca febd
000003c0: 3792 733c 2834 8bbd 7d71 74be 015e a93d
000003d0: 129e 8c3d 726d 89be e642 22bc d212 85bd
000003e0: 686a 0bbe 9619 2fbd 67a1 64be 4066 c63a
000003f0: d1a6 a03d 50fa bdbc 1520 59bd d4bb babd

model/dense_4/MatMul;model/activation_4/Relu;model/dense_4/BiasAdd f4 [100]
-0.85577595 12.869856 -1.99161 3.5847895 -6.2060504 -6.542362 1.5703079 13.659127
41.67455 17.923927 -6.5049458 -12.766742 56.297977 22.959282 -10.616489 -22.361479
0.22964033 -10.767525 19.48011 5.0196223 -14.420715 -1.3873929 9.520439 16.455828
41.189167 -2.0156162 26.205004 -0.7422859 8.895374 -5.3035865 19.698977 -1.0024918
31.785543 7.4507523 23.836075 -6.9499183 -19.233019 10.921762 34.280315 42.74193
43.148952 0.043643925 2.8029115 -0.42957318 49.714928 -12.300082 -15.054953 -23.192122
-34.434135 2.899418 45.640587 22.46388 -3.955287 -1.3353989 35.788902 12.894391
23.38213 9.537218 20.636383 21.491392 -28.643879 24.582548 -16.630455 17.810019
9.808724 29.600834 -9.051069 17.125912 27.2943 49.378902 -6.543982 38.70319
5.071951 -49.790535 9.603651 51.31854 41.82317 -14.862837 28.774632 -18.992107
34.961525 30.274584 3.7673256 -18.431013 -7.4273705 -5.022736 23.575739 3.0120864
9.012583 9.056335 -15.257321 33.800507 33.069584 5.3264756 55.236576 38.26762
1.2370262 -13.803676 41.735264 -6.6736026
00000000: 2214 5bbf eeea 4d41 14ed febf 316d 6540
00000010: f797 c6c0 085b d1c0 d9ff c83f c98b 5a41
00000020: bdb2 2642 3464 8f41 8428 d0c0 9344 4cc1
00000030: 2131 6142 9cac b741 24dd 29c1 4fe4 b2c1
00000040: d626 6b3e c847 2cc1 44d7 9b41 bfa0 a040
00000050: 40bb 66c1 1796 b1bf b853 1841 89a5 8341
00000060: b5c1 2442 dbff 00c0 d9a3 d141 7306 3ebf
00000070: 7453 0e41 fbb6 a9c0 8197 9d41 a751 80bf
00000080: cb48 fe41 906c ee40 48b0 be41 bb65 dec0
00000090: 39dd 99c1 8abf 2e41 0b1f 0942 bcf7 2a42
000000a0: 8798 2c42 f9c3 323d e762 3340 04f1 dbbe
000000b0: 16dc 4642 23cd 44c1 16e1 70c1 7789 b9c1
000000c0: 8ebc 09c2 1190 3940 f68f 3642 07b6 b341
000000d0: 6c23 7dc0 5aee aabf d627 0f42 6d4f 4e41
000000e0: 9a0e bb41 7298 1841 5017 a541 5fee ab41
000000f0: aa26 e5c1 0fa9 c441 2c0b 85c1 eb7a 8e41
00000100: 89f0 1c41 82ce ec41 2ed1 10c1 de01 8941
00000110: ba5a da41 ff83 4542 4d68 d1c0 11d0 1a42
00000120: 6c4d a240 8229 47c2 8ea8 1941 2f46 4d42
00000130: ed4a 2742 2ece 6dc1 7232 e641 d6ef 97c1
00000140: 9ad8 0b42 5932 f241 dd1b 7140 b772 93c1
00000150: 05ad edc0 41ba a0c0 1d9b bc41 06c6 4040
00000160: 8a33 1041 c0e6 1041 fd1d 74c1 b833 0742
00000170: 4147 0442 7d72 aa40 41f2 5c42 0b12 1942
00000180: e056 9e3f dbdb 5cc1 e9f0 2642 278e d5c0

model/batch_normalization_3/batchnorm/mul_1;model/batch_normalization_3/batchnorm/add_1;model/dense_4/MatMul;model/activation_4/Relu;model/dense_4/BiasAdd f4 [100, 100]
-0.12677436 0.016362635 0.018686546 -0.18469486 -0.21989925 0.118006155 -0.06923331 0.026373904
-0.19545934 0.088737294 -0.0078033633 0.11833474 -0.054393303 0.05032942 0.09418332 0.06501112
0.017841376 -0.045406673 -0.14062043 -0.006602966 0.045240935 0.49402487 0.5929561 0.17100888
-0.0787021 0.04062333 0.15003107 0.019190757 -0.43921375 0.00946335 -0.009704611 -0.27060348
-0.0020286608 -0.10120857 0.026779125 0.017878385 0.20577884 -0.1086991 -0.07111834 0.014340895
-0.26407987 0.05279719 -0.007901694 0.05992197 0.11326525 0.064804584 0.14556491 -0.021277497
0.28582028 0.039310444 0.050752193 0.10467567 0.2427214 0.040324647 0.0381945 0.15447108
-0.043241344 0.08692434 0.04212084 0.16482551 -0.31937695 -0.020024542 0.022235915 0.03000858
-0.05059903 -0.04983373 0.13033779 0.020241663 0.055554297 0.09470781 -0.036692448 0.029452415
0.16930978 -0.045814157 -0.04152782 -0.094462074 -0.20578851 0.048882302 0.0036446764 0.019218585
0.1051274 -0.063776635 0.14521548 -0.08770834 0.050231297 0.04132509 -0.10859084 0.11398193
-0.021701934 -0.029218458 -0.06107173 0.089069866 0.18936925 0.06822362 -0.3861386 0.004564074
0.13980906 0.08342323 -0.023932751 0.07908638 0.09068482 0.028160619 -0.014434641 0.12686744
-0.0849623 -0.05214292 0.038312316 0.22844337 -0.26118454 0.030318795 -0.020609878 0.1724148
-0.051729307 -0.068225734 0.109847315 0.079801954 0.057022855 -0.034189146 0.08581079 -0.5043667
-0.014951639 -0.13491471 -0.052008312 0.19139351 -0.15543328 0.029526114 -0.17563926 0.005092551
0.07240744 0.24947757 0.03272316 -0.10314551 -0.022132335 -0.054255676 0.19431503 -0.026869021
0.07090549 -0.017581448 0.068513446 0.08219171 0.081954986 -0.17472479 -0.019328674 -0.03223385
0.11373038 -0.013081715 0.11870442 -0.050634183 -0.10398308 0.072922416 -0.0031050234 0.3204105
-0.13362642 0.15006408 -0.0046350933 -0.016501995 -0.08334779 -0.10181758 -0.046376716 -0.28282672
0.10699153 -0.032691866 -0.112765364 0.022780027 0.1614276 -0.067367695 -0.071393825 0.054561935
0.24288769 0.15679848 -0.097234175 -0.6674739 -0.31363627 0.10521344 -0.052756254 -0.036781896
-0.15153377 0.20914249 0.043932326 0.024450632 -0.059896193 0.037597045 -0.24958366 -0.11444131
-0.09409874 -0.18043585 0.17551342 -1.0517877 0.0041492847 0.034012724 0.08785076 -0.16070761
-0.14886892 0.046752453 -0.0192096 0.007207033 0.35230893 0.08448286 -0.0069507114 0.15151282
-0.07870122 0.26782104 0.37157547 0.17973372 0.10430872 -0.075952925 0.03661671 0.048089627
-0.054950077 -0.054147672 -0.19858646 0.20576146 0.14876595 0.058236968 -0.048029352 0.03473663
0.07220678 0.24324079 0.07314423 0.118479475 0.08559508 0.025724053 0.00290778 0.02227851
-0.059522644 -0.24292943 0.15482454 -0.069742434 0.014009539 0.14901541 -0.0109206345 0.0075874315
-0.17202258 0.10888798 -0.05040967 -0.16009694 0.13120729 -0.022800008 -0.15042052 -0.046961922
-0.0845202 -0.10415087 -0.16042785 0.03037145 0.0091292495 -0.00408785 -0.01531355 -0.031452924
0.14734568 -0.11599147 -0.038089488 -0.17486987 0.01554339 0.14501561 0.044012073 0.05698974
00000000: 23d1 01be ef0a 863c 8714 993c a620 3dbe
00000010: 452d 61be 36ad f13d 32ca 8dbd 160e d83c
00000020: 7e26 48be e6bb b53d 5bb3 ffbb 7c59 f23d
00000030: 83cb 5ebd 3926 4e3d 2fe3 c03d 8d24 853d
00000040: 1428 923c 59fc 39bd cdfe 0fbe b25d d8bb
00000050: 8f4e 393d d4f0 fc3e f9cb 173f f41c 2f3e
00000060: 912e a1bd a664 263d bfa1 193e ef35 9d3c
00000070: a0e0 e0be 2b0c 1b3c 1700 1fbc 8a8c 8abe
00000080: 48f3 04bb 7046 cfbd e55f db3c b175 923c
00000090: b0b7 523e a29d debd 7ea6 91bd 13f6 6a3c
000000a0: 7a35 87be de41 583d 1b76 01bc bd70 753d
000000b0: 9df7 e73d 44b8 843d f80e 153e 254e aebc
000000c0: 0957 923e fd03 213d 88e1 4f3d 3360 d63d
000000d0: f58b 783e 752b 253d d671 1c3d ab2d 1e3e
000000e0: d61d 31bd 6305 b23d e786 2c3d 05c8 283e
000000f0: 6085 a3be 820a a4bc 1828 b63c 8ed4 f53c
00000100: ee40 4fbd 741e 4cbd 4577 053e d8d1 a53c
00000110: e78c 633d 2bf6 c13d d24a 16bd 3146 f13c
00000120: 8b5f 2d3e a0a7 3bbd 1319 2abd 5575 c1bd
00000130: 39ba 52be cf38 483d 86db 6e3b 4b70 9d3c
00000140: 094d d73d 539d 82bd 5eb3 143e 6ea0 b3bd
00000150: 55bf 4d3d 7f44 293d e064 debd 5c6f e93d
00000160: 41c8 b1bc 8c5b efbc 5a26 7abd 436a b63d
00000170: 03ea 413e d3b8 8b3d f5b3 c5be 3a8e 953b
00000180: 1b2a 0f3e ccd9 aa3d 9e0e c4bc 0af8 a13d
00000190: f7b8 b93d 19b1 e63c 467f 6cbc 8ae9 013e
000001a0: b700 aebd d193 55bd 60ed 1c3d 0fed 693e
000001b0: fbb9 85be 1f5f f83c 0cd6 a8bc 818d 303e
000001c0: 1ce2 53bd efb9 8bbd a1f7 e03d 356f a33d
000001d0: cc90 693d eb09 0cbd 91bd af3d 2d1e 01bf
000001e0: b8f7 74bc 1527 0abe ab06 55bd a9fc 433e
000001f0: e729 1fbe c0e0 f13c c7da 33be 6adf a63b
00000200: 5a4a 943d 0c77 7f3e b808 063d f43d d3bd
00000210: df4e b5bc 333b 5ebd 85fa 463e 6c1c dcbc
00000220: e636 913d f806 90bc c750 8c3d 2154 a83d
00000230: 04d8 a73d 0eeb 32be 2b57 9ebc a407 04bd
00000240: 79eb e83d b154 56bc 4e1b f33d ca65 4fbd
00000250: 15f5 d4bd 5958 953d a67d 4bbb d80c a43e
00000260: 5dd5 08be 66aa 193e fbe1 97bb 312f 87bc
00000270: 3fb2 aabd bc85 d0bd 83f5 3dbd aace 90be
00000280: 601e db3d e8e7 05bd 87f1 e6bd 2e9d ba3c
00000290: 474d 253e 13f8 89bd ed36 92bd 567c 5f3d
000002a0: 8db7 783e c88f 203e b622 c7bd 92df 2abf
000002b0: ef94 a0be 257a d73d f116 58bd 9da8 16bd
000002c0: ab2b 1bbe 7329 563e 62f2 333d b14c c83c
000002d0: b655 75bd 5cff 193d dc92 7fbe 3560 eabd
000002e0: d7b6 c0bd 2dc4 38be cab9 333e fba0 86bf
000002f0: b9f6 873b ed50 0b3d 19eb b33d 8990 24be
00000300: 1871 18be 807f 3f3d 735d 9dbc fa28 ec3b
00000310: d661 b43e 5a05 ad3d cbc2 e3bb 2d26 1b3e
00000320: 1b2e a1bd d71f 893e 243f be3e 1e0c 383e
00000330: cf9f d53d 358d 9bbd 67fb 153d a1f9 443d
00000340: 5513 61bd f3c9 5dbd 405a 4bbe 22b3 523e
00000350: 1a56 183e e389 6e3d 6dba 44bd ff47 0e3d
00000360: 26e1 933d 1d14 793e a4cc 953d 5ea5 f23d
00000370: 794c af3d 40bb d23c 7490 3e3b 6c81 b63c
00000380: 04ce 73bd 7ec2 78be 538a 1e3e 1fd5 8ebd
00000390: 4488 653c 7f97 183e 76ec 32bc fd9f f83b
000003a0: b026 30be a900 df3d 5f7a 4ebd 74f0 23be
000003b0: 345b 063e 15c7 babc d607 1abe 255b 40bd
000003c0: ed18 adbd 0d4d d5bd 3347 24be 8ccd f83c
000003d0: d992 153c 5ff3 85bb afe5 7abc c8d4 00bd
000003e0: c9e1 163e f08c edbd b903 1cbd 1611 33be
000003f0: b4a9 7e3c f97e 143e 0146 343d 136e 693d

model/dense_5/MatMul;model/activation_5/Relu;model/dense_5/BiasAdd f4 [100]
8.264761 47.72007 -12.338916 1.2762173 34.24259 -6.7838216 41.47562 16.981073
5.142755 3.1499906 31.304272 0.5914477 9.192072 32.909275 -34.02445 27.82767
-17.213133 14.356267 18.422203 -23.99229 72.861084 -15.404998 22.68806 39.31105
30.086918 10.553386 -0.792096 -0.88883483 12.993023 9.68242 -16.432499 7.7468815
-17.686108 -30.001278 4.488492 35.92864 23.655993 38.446075 2.8791676 -32.914787
28.240873 -30.263374 20.65256 19.031025 15.818968 -29.295805 8.8925 13.559445
-41.417156 34.027214 2.6744444 28.170008 -27.8917 -6.9725547 11.954229 4.764512
10.129621 16.418 4.411304 45.763752 22.670328 5.0433373 42.397808 33.255493
-7.556091 30.157234 -5.700248 -13.372883 -6.718799 8.868701 -26.735313 22.425858
37.83213 28.326527 -19.942825 2.0709822 18.204138 -18.028442 4.6950207 -58.51327
71.36055 -28.470304 25.996037 28.766615 -6.910254 30.829872 -6.571105 12.811297
-10.173576 3.692299 -12.24365 20.795303 -0.7802302 -13.205269 -5.2564125 4.3532033
28.346615 5.1953077 9.928234 11.822758
00000000: 763c 0441 5ae1 3e42 336c 45c1 175b a33f
00000010: 6af8 0842 1115 d9c0 09e7 2542 3dd9 8741
00000020: 7391 a440 7299 4940 266f fa41 1e69 173f
00000030: ba12 1341 19a3 0342 0919 08c2 119f de41
00000040: 7fb4 89c1 45b3 6541 ac60 9341 36f0 bfc1
00000050: e0b8 9142 df7a 76c1 2681 b541 843e 1d42
00000060: 02b2 f041 abda 2841 cec6 4abf ae8a 63bf
00000070: 6ce3 4f41 31eb 1a41 c275 83c1 74e6 f740
00000080: 267d 8dc1 9e02 f0c1 baa1 8f40 edb6 0f42
00000090: 793f bd41 c8c8 1942 4844 3840 bea8 03c2
000000a0: 4fed e141 641b f2c1 7138 a541 8a3f 9841
000000b0: 7e1a 7d41 cf5d eac1 ae47 0e41 7df3 5841
000000c0: 2bab 25c2 de1b 0842 192a 2b40 2d5c e141
000000d0: 3422 dfc1 2b1f dfc0 8644 3f41 e276 9840
000000e0: ed12 2241 1058 8341 6729 8d40 150e 3742
000000f0: d55c b541 0563 a140 5b97 2942 a005 0542
00000100: 7fcb f1c0 0442 f141 6e68 b6c0 54f7 55c1
00000110: 6700 d7c0 33e6 0d41 ece1 d5c1 2868 b341
00000120: 1a54 1742 ba9c e241 e88a 9fc1 f98a 0440
00000130: 13a2 9141 403a 90c1 9c3d 9640 970d 6ac2
00000140: 9ab8 8e42 2fc3 e3c1 e2f7 cf41 0722 e641
00000150: cd20 ddc0 94a3 f641 7e46 d2c0 13fb 4c41
00000160: f8c6 22c1 a04e 6c40 fee5 43c1 c85c a641
00000170: 2bbd 47bf c848 53c1 8834 a8c0 714d 8b40
00000180: dec5 e241 f63f a640 0cda 1e41 042a 3d41

model/batch_normalization_4/batchnorm/mul_1;model/batch_normalization_4/batchnorm/add_1;model/dense_5/MatMul;model/activation_5/Relu;model/dense_5/BiasAdd f4 [100, 100]
-0.000120423196 0.090633795 -0.004819458 0.0669377 0.054008316 0.49446443 0.014951169 -0.21130894
0.24858244 -0.14104865 -1.2953986 -1.0061707 0.09489311 -0.06297456 -0.03563164 0.20320868
-0.262818 -0.12369405 0.13363373 -0.05730433 0.07777775 0.016110659 -0.09931554 -0.11204796
-0.060445294 0.058921266 0.042780004 0.04153327 0.19161825 0.0550565 0.011000979 -0.047238827
-0.02417485 0.030224027 -0.22215216 -0.12730432 -0.01637146 -0.10871992 -0.06004997 0.05140453
0.094223246 0.09095432 -0.15591921 -0.034165625 0.030307801 0.1128961 -0.13323769 0.023600841
0.009328123 0.021453049 0.10527666 0.014386985 0.29301786 0.061636478 -0.048601046 0.20945512
-0.022604512 -0.36776394 -0.22784229 0.09623708 0.103214025 0.0026126436 0.022099063 0.23073633
0.04641442 -0.04120428 -0.46695408 -0.010278688 -0.05436551 -0.35391152 -0.012994785 -0.07677065
-0.08316145 0.04598997 -0.0036262916 -0.07340029 -0.0038974832 0.017948618 0.37645403 0.14638534
-0.11385094 -0.108324535 -0.233576 0.36895314 -0.26846504 0.091207 0.038919307 -0.021767152
-0.22047745 -0.1262412 -0.1289312 0.018550046 0.1127745 0.015726905 0.22040306 0.039395016
-0.11527727 -0.18460467 -0.007206312 -0.01630461 -0.03757858 -0.046717346 -0.10010408 -0.5945299
-0.08274946 0.7568743 -0.0017513403 -0.3193443 -0.008168999 0.22816175 0.28283376 0.27083933
-0.0031244303 0.05500958 0.35223818 -0.03501094 -0.5503029 -0.69236803 0.1798109 0.04133667
-0.2038589 -0.16521701 -0.030894235 0.028961929 -0.03332214 -0.012311492 0.04233899 -0.13753377
-0.014056118 -0.11215734 -0.14395262 0.08277637 0.12522252 0.059052143 -0.07454912 -0.27412567
-0.4829877 -0.008969723 0.19382642 0.0048074774 -0.022008348 -0.15417837 0.11532361 0.015681403
0.04598445 -0.6354685 0.026231306 -0.3208298 -0.029032513 0.187609 0.04354469 0.03487908
-0.31498003 -0.087188266 -0.08492786 -0.037371445 0.08721724 -0.044509247 -0.08392917 0.07168487
-0.07832405 0.019551503 0.070510596 -0.120591804 -0.062808014 -0.12723415 -0.4637961 -0.039543867
-0.019148901 -0.09642425 -0.50158507 -0.09969862 -0.06855135 -0.019845137 -0.13403781 -0.0097388
-0.039462574 -0.12158076 -0.23630336 0.094070606 0.064339265 -0.02862516 -0.05932158 0.03956503
-0.28855798 -0.1211699 0.00017095935 -0.044460867 0.015653947 0.09228616 -0.09819234 -0.1900819
0.01521129 -0.049255457 -0.053373013 -0.13756505 -0.11193741 -0.0320261 -0.077922724 -0.42216346
0.08214317 0.08741173 0.059804443 0.12241654 -0.028304182 -0.119809665 -0.033768263 0.12841955
0.0038393007 -0.15392622 -0.13070919 -0.15302685 0.06260331 -0.31533453 0.061957926 -0.0047250628
0.02280475 -0.08003692 -0.066365704 0.24584387 0.054752722 0.07460651 0.023455067 0.049359098
-0.04663798 -0.031073395 0.051201828 -0.1003967 0.19450474 -0.047359977 0.065239295 -0.080521956
-0.024299175 -0.01995391 0.05213937 0.032904513 0.06753656 -0.10136728 0.06885537 0.014606745
0.06813576 0.030414071 -0.02361785 -0.07533387 -0.0018375758 -0.037815526 0.03373267 -0.04696162
-0.0468693 -1.1218766 1.2189494 -0.06896468 -0.14146416 0.06886959 -0.14566351 0.01967441
00000000: b68b fcb8 369e b93d 8bec 9dbb a216 893d
00000010: d337 5d3d 712a fd3e bff5 743c 5f61 58be
00000020: 658c 7e3e 0f6f 10be 9fcf a5bf 34ca 80bf
00000030: 5257 c23d cef8 80bd 7cf2 11bd f015 503e
00000040: 1590 86be 4e53 fdbd 48d7 083e f2b7 6abd
00000050: f149 9f3d 80fa 833c f265 cbbd 6779 e5bd
00000060: 7c95 77bd 6d57 713d 163a 2f3d ca1e 2a3d
00000070: 9337 443e ed82 613d 733d 343c 807d 41bd
00000080: 560a c6bc 6198 f73c db7b 63be 105c 02be
00000090: 711d 86bc 8da8 debd f5f6 75bd 8e8d 523d
000000a0: 1ef8 c03d 4246 ba3d 49a9 1fbe 41f1 0bbd
000000b0: 1148 f83c 1236 e73d 766f 08be 8d56 c13c
000000c0: fcd4 183c 4ebe af3c 4a9b d73d 64b7 6b3c
000000d0: 7006 963e 8876 7c3d e411 47bd 677b 563e
000000e0: 192d b9bc 8e4b bcbe 7d4f 69be f217 c53d
000000f0: e061 d33d e338 2b3b 1809 b53c 2546 6c3e
00000100: 0c1d 3e3d d2c5 28bd 9b14 efbe f167 28bc
00000110: 5eae 5ebd e433 b5be 14e8 54bc ee39 9dbd
00000120: 8d50 aabd fb5f 3c3d 14a7 6dbb e452 96bd
00000130: eb6c 7fbb fb08 933c 95be c03e 0ae6 153e
00000140: ae2a e9bd 41d9 ddbd 8c2e 6fbe 6de7 bc3e
00000150: 4074 89be bcca ba3d da69 1f3d 0751 b2bc
00000160: d7c4 61be 6045 01be 8a06 04be 44f6 973c
00000170: 51f6 e63d b6d5 803c 57b1 613e ab5c 213d
00000180: 7d16 ecbd 0209 3dbe ed22 ecbb 3f91 85bc
00000190: ffeb 19bd b05a 3fbd 5e03 cdbd 1d33 18bf
000001a0: 8d78 a9bd 84c2 413f 3b8d e5ba 1981 a3be
000001b0: 44d7 05bc 3ca3 693e 96cf 903e 74ab 8a3e
000001c0: 3ec3 4cbb ba51 613d 9058 b43e a267 0fbd
000001d0: a7e0 0cbf 083f 31bf 5920 383e a450 293d
000001e0: 63c0 50be a62e 29be e815 fdbc 9141 ed3c
000001f0: cc7c 08bd 24b6 49bc a66b 2d3d a7d5 0cbe
00000200: a24b 66bc bfb2 e5bd 5168 13be a886 a93d
00000210: 553a 003e a9e0 713d 36ad 98bd 335a 8cbe
00000220: 2a4a f7be bff5 12bc 6f7a 463e 0b88 9d3b
00000230: da4a b4bc efe0 1dbe c92e ec3d 4976 803c
00000240: 315a 3c3d 10ae 22bf 09e3 d63c ce43 a4be
00000250: 98d5 edbc 931c 403e eb5b 323d 5edd 0e3d
00000260: 1045 a1be c38f b2bd a8ee adbd cd12 19bd
00000270: f49e b23d 544f 36bd 0fe3 abbd 84cf 923d
00000280: 5c68 a0bd 792a a03c dc67 903d d6f8 f6bd
00000290: 7da1 80bd ab49 02be af76 edbe c0f8 21bd
000002a0: 28de 9cbc 147a c5bd e167 00bf ca2e ccbd
000002b0: a664 8cbd 4592 a2bc 3541 09be 7d8f 1fbc
000002c0: 82a3 21bd 55ff f8bd 82f9 71be 17a8 c03d
000002d0: 4ec4 833d 507f eabc 2ffb 72bd f10e 223d
000002e0: dfbd 93be ed27 f8bd 8d43 3339 991c 36bd
000002f0: b53c 803c 8700 bd3d 1119 c9bd d4a4 42be
00000300: c638 793c 17c0 49bd a99d 5abd dadd 0cbe
00000310: 713f e5bd cd2d 03bd f395 9fbd cf25 d8be
00000320: ae3a a83d ec04 b33d 81f5 743d 86b5 fa3d
00000330: 2cde e7bc c55e f5bd 9750 0abd 6a80 033e
00000340: c79c 7b3b d69e 1dbe a1d8 05be 12b3 1cbe
00000350: 2a36 803d 8773 a1be 98c7 7d3d b3d4 9abb
00000360: 07d1 ba3c 66ea a3bd beea 87bd 7fbe 7b3e
00000370: 6444 603d 4ccb 983d d724 c03c c42c 4a3d
00000380: 7707 3fbd a28d febc 02b9 513d c99c cdbd
00000390: 402c 473e 89fc 41bd 2e9c 853d b2e8 a4bd
000003a0: 100f c7bc 6276 a3bc 1890 553d e2c6 063d
000003b0: 9c50 8a3d a699 cfbd 0b04 8d3d 2151 6f3c
000003c0: c38a 8b3d ee26 f93c 397a c1bc a548 9abd
000003d0: d0da f0ba 74e4 1abd 452b 0a3d d45a 40bd
000003e0: 06fa 3fbd a799 8fbf 8906 9c3f 5b3d 8dbd
000003f0: fbdb 10be 800b 8d3d d128 15be 3a2c a13c

model/dense_6/MatMul;model/activation_6/Relu;model/dense_6/BiasAdd f4 [100]
-6.8857183 10.647539 5.206998 -10.155503 33.338486 -10.339983 6.015476 26.8033
-10.953073 24.902868 41.599525 -1.3365865 -1.5086322 25.979939 2.5153942 -1.6213446
34.657684 12.724152 30.450178 20.529242 55.93409 18.329704 -8.918541 -14.000981
8.691271 21.68943 -9.650458 22.335384 27.216228 2.4816153 -5.959739 10.782711
2.2361617 0.33901608 -0.008236025 48.534515 -15.0460205 12.185092 4.052346 4.4278297
32.829247 6.8804197 23.61041 -16.932474 24.293959 -3.1270382 -23.474674 6.5231323
13.992631 8.896537 7.378842 -33.023247 -0.8135259 18.53844 17.216787 36.007603
34.403156 -8.501061 22.444937 43.866943 12.508608 -15.922202 -3.229982 11.545322
-2.9442759 17.360994 51.556488 2.1532812 -12.864483 15.94855 34.12963 11.479548
-10.0505495 5.12045 8.906969 -1.3604947 -13.026063 23.037653 -9.230386 -8.134682
-4.4786606 8.488252 -8.905758 27.823755 16.446024 23.050987 17.756418 8.374506
-19.620224 0.25659728 20.752277 -6.19348 11.563708 16.341854 -0.07971724 6.3405986
40.667164 -0.0016061771 -24.4418 -8.110685
00000000: ce57 dcc0 525c 2a41 ba9f a640 f17c 22c1
00000010: 9c5a 0542 9270 25c1 c87e c040 296d d641
00000020: c93f 2fc1 1339 c741 ea65 2642 4415 abbf
00000030: dc1a c1bf ead6 cf41 38fc 2040 3888 cfbf
00000040: 78a1 0a42 2096 4b41 f799 f341 e33b a441
00000050: 82bc 5f42 3ca3 9241 58b2 0ec1 0504 60c1
00000060: 720f 0b41 f483 ad41 4768 1ac1 deae b241
00000070: d6ba d941 c9d2 1e40 2fb6 bec0 fc85 2c41
00000080: 461d 0f40 8493 ad3e 65f0 06bc 5823 4242
00000090: 80bc 70c1 23f6 4241 d2ac 8140 c8b0 8d40
000000a0: 2651 0342 662c dc40 1fe2 bc41 b575 87c1
000000b0: 075a c241 6521 48c0 22cc bbc1 80bd d040
000000c0: d1e1 5f41 3758 0e41 791f ec40 ce17 04c2
000000d0: 3c43 50bf ba4e 9441 fbbb 8941 c907 1042
000000e0: d59c 0942 5904 08c1 3b8f b341 c077 2f42
000000f0: 4223 4841 57c1 7ec1 06b8 4ec0 a4b9 3841
00000100: 046f 3cc0 51e3 8a41 d839 4e42 5ccf 0940
00000110: ecd4 4dc1 432d 7f41 be84 0842 3bac 3741
00000120: 0dcf 20c1 bada a340 f282 0e41 b124 aebf
00000130: c16a 50c1 1d4d b841 a9af 13c1 a827 02c1
00000140: 3051 8fc0 e1cf 0741 fc7d 0ec1 0d97 de41
00000150: 7591 8341 6c68 b841 250d 8e41 fafd 0541
00000160: 38f6 9cc1 b860 833e aa04 a641 fd30 c6c0
00000170: f304 3941 1ebc 8241 cb42 a3bd 2fe6 ca40
00000180: 2dab 2242 5c86 d2ba ce88 c3c1 5ec5 01c1
