corintho_ai/rating/tflite_models/model_12.tflite (tflite, 521576 bytes, 27 tensors)

model/dense_1/MatMul;model/activation_1/Relu;model/dense_1/BiasAdd f4 [100]
-29.03057 41.012928 -23.404526 -9.639014 32.074078 12.122813 13.814198 -19.958883
-24.49131 8.720763 5.7516418 -27.78322 4.054718 -11.782041 1.8925638 -24.18806
-0.33651283 3.5364432 -7.3622017 -5.7073874 0.583079 0.07409004 2.897486 -19.13133
20.535713 0.39924565 -11.678232 0.2070776 -16.44483 0.33225423 -17.409178 1.0502276
8.1813345 -23.207962 27.129185 7.6792893 -1.9192623 -8.517991 1.5732584 16.54921
18.41601 -2.9441698 -11.8691 2.2627685 8.911152 -5.298602 3.9636867 -12.95633
-1.2981486 -11.603473 6.7186475 -21.728376 2.0036166 54.308086 -5.976693 9.641854
8.670299 -4.3612356 21.32663 -1.2099582 5.0994406 25.25563 -0.92430156 6.03129
16.836485 20.564432 37.519573 12.989339 -6.8152723 -28.908737 -1.3492357 -6.6670837
14.124935 35.81315 -5.714469 14.586375 -5.474254 0.7357159 -25.190691 -3.9913712
2.4350035 27.157335 5.3715334 -15.007364 -17.593191 19.831861 9.135852 -11.755271
29.124554 14.4231415 22.09268 3.76901 27.123293 5.877218 -7.758179 5.7931256
34.12264 1.4908229 -1.9698745 -35.91496
00000000: 9b3e e8c1 3d0d 2442 783c bbc1 6739 1ac1
00000010: db4b 0042 0bf7 4141 f406 5d41 cbab 9fc1
00000020: 34ee c3c1 3f88 0b41 730d b840 0944 dec1
00000030: 40c0 8140 3d83 3cc1 883f f23f 2681 c1c1
00000040: 694b acbe 1655 6240 2897 ebc0 eba2 b6c0
00000050: aa44 153f 85bc 973d 6970 3940 f70c 99c1
00000060: 2449 a441 ed69 cc3e 0ada 3ac1 260c 543e
00000070: 038f 83c1 3a1d aa3e ff45 8bc1 dc6d 863f
00000080: bfe6 0241 e8a9 b9c1 9208 d941 bdbc f540
00000090: 63aa f5bf b149 08c1 8860 c93f c864 8441
000000a0: fd53 9341 476d 3cc0 d5e7 3dc1 33d1 1040
000000b0: 1494 0e41 268e a9c0 0bad 7d40 214d 4fc1
000000c0: bc29 a6bf d3a7 39c1 29ff d640 b7d3 adc1
000000d0: 413b 0040 7b3b 5942 1241 bfc0 0945 1a41
000000e0: 8bb9 0a41 3e8f 8bc0 f09c aa41 e9df 9abf
000000f0: 9e2e a340 880b ca41 079f 6cbf 5400 c140
00000100: 1fb1 8641 f583 a441 0b14 1642 55d4 4f41
00000110: b616 dac0 1845 e7c1 c1b3 acbf c058 d5c0
00000120: bcff 6141 aa40 0f42 eedc b6c0 cb61 6941
00000130: 172d afc0 e157 3c3f 8986 c9c1 a072 7fc0
00000140: 19d7 1b40 3942 d941 9ae3 ab40 2a1e 70c1
00000150: dbbe 8cc1 a7a7 9e41 732c 1241 9715 3cc1
00000160: 16ff e841 30c5 6641 cfbd b041 7637 7140
00000170: 81fc d841 2b12 bc40 0143 f8c0 4961 b940
00000180: 957d 0842 49d3 be3f d924 fcbf eba8 0fc2

model/batch_normalization/batchnorm/mul_1;model/batch_normalization/batchnorm/add_1;model/dense_1/MatMul;model/activation_1/Relu;model/dense_1/BiasAdd f4 [100, 100]
-0.034370817 -0.22405629 0.18135653 -0.10983431 1.530397 0.6347912 -0.139298 -0.75193447
0.14798751 0.6122085 0.11535335 0.3053923 0.16457632 0.054592263 -0.0045559164 0.11772309
0.5743834 -0.7086084 0.26529118 -0.07630682 0.25816852 0.91110563 0.032823082 -0.01851537
-0.079382695 0.35655344 0.42164496 -0.9603267 0.32862133 -0.014288431 0.22432435 0.5262421
0.31328997 0.3840689 -0.4285325 0.12630086 0.37636936 -0.60111684 -0.19845921 0.2669252
0.37499097 0.68657535 0.535719 0.2674662 -0.32223746 -0.27100688 0.4482046 -0.072279565
0.4200103 0.080513075 0.036603604 1.2335409 2.3035967 1.7857445 0.37639168 0.27203703
0.009170455 0.15916142 -2.9699905 0.27291623 0.4122876 0.044109985 -0.36465952 -0.64535403
0.6112735 -0.47139418 -0.4904841 0.181654 0.39979884 0.78349423 0.116993345 0.15022814
-0.16038097 -0.14851043 0.97405046 -0.88918686 0.0721065 -0.45541957 0.26583552 0.85606605
-0.34563926 0.16639555 0.050561495 -0.18901855 -0.45821157 0.19987369 0.05751481 -0.014422791
0.14573583 -0.14366765 -0.847876 0.7385649 0.069757454 -0.86663705 -0.23153433 0.12873143
0.04918483 -0.10868038 -0.1949313 -0.1727386 -0.85485405 -0.7749467 -0.15161079 -0.141965
-0.8754449 1.3207427 0.23010835 0.09044774 0.12837042 -0.18176697 0.2857892 0.23406415
-0.43121696 -0.17583576 -0.3763369 -0.59667194 0.12159157 -1.3153017 -0.5094975 -0.19021118
-0.23831655 1.031751 0.13906375 0.06730345 0.16737624 -0.05103071 -0.3680651 -0.6241974
0.2019068 0.012822717 0.053218804 0.44457364 0.0907417 -0.293918 0.2323194 -0.046571463
-0.34363154 -1.5458847 -0.5095652 -0.5763859 0.11216937 -0.07093586 -0.72770476 -0.15363468
-0.028288595 -0.85473704 -0.0051768697 -0.41862833 -0.13145642 0.085944265 0.014945781 0.61265457
0.12366337 0.5684513 0.18957816 -0.18146203 -0.25800183 0.95515424 3.171983 0.22128493
0.37367326 0.22503735 -0.048252534 -0.635039 -0.39426595 -0.17132513 0.123665385 0.60108334
-0.13737142 -0.115145676 -0.15559436 0.57949626 0.09474955 0.21187127 -0.4780037 -0.39654174
-0.4428238 -0.19288921 0.8710825 0.16130923 0.002605518 -0.47019893 0.122083634 0.19675642
-0.0044247606 0.17888848 -0.17724407 -0.39890707 0.20000255 -0.47016466 -0.68240976 0.77729434
-0.12238048 -0.47633258 -0.5068247 -0.12486976 -0.105183154 -1.033988 -0.2907962 -0.2310326
0.57514375 0.0065767327 -0.07402282 0.58090585 -0.37552807 -0.21195957 0.75651014 -0.25929302
-0.53946733 -0.6369754 -0.42910478 0.79856485 0.29084378 0.18672626 0.13413346 0.4257148
0.13129133 -0.30381963 -0.5481935 0.23609333 -0.19209822 -4.758265 -0.15292124 0.03546311
0.03913201 -0.4342545 0.29269803 0.32196283 -0.02994354 1.865016 0.8251475 0.17901365
0.043557122 0.6881048 0.8077551 -0.009200136 0.07179825 0.21685198 0.33992904 -0.047095913
0.31074122 -0.42348146 0.49495357 0.4809369 -0.013922283 -0.57063663 0.25940594 0.1334957
-0.18326873 -0.2881057 -0.1923025 3.613053 0.35545146 -0.1965395 -0.1157125 -0.3787593
00000000: 6ac8 0cbd 036f 65be 87b5 393e d0f0 e0bd
00000010: 0de4 c33f ad81 223f 23a4 0ebe c77e 40bf
00000020: 0a8a 173e b2b9 1c3f 613e ec3d 615c 9c3e
00000030: b286 283e 239c 5f3d cc49 95bb ce18 f13d
00000040: ca0a 133f 5c67 35bf 3fd4 873e c046 9cbd
00000050: aa2e 843e 383e 693f 7f71 063d 8cad 97bc
00000060: 6593 a2bd 2c8e b63e d9e1 d73e f8d7 75bf
00000070: 0e41 a83e 061a 6abc 48b5 653e cdb7 063f
00000080: 8b67 a03e aea4 c43e 9d68 dbbe 0355 013e
00000090: 7cb3 c03e cbe2 19bf e438 4bbe 6baa 883e
000000a0: d1fe bf3e 67c3 2f3f e124 093f 54f1 883e
000000b0: 4ffc a4be 6ac1 8abe 137b e53e 4f07 94bd
000000c0: 970b d73e 0ae4 a43d a9ed 153d abe4 9d3f
000000d0: 216e 1340 4793 e43f 69b6 c03e 7048 8b3e
000000e0: ad3f 163c 36fb 223e 5314 3ec0 adbb 8b3e
000000f0: 5c17 d33e acac 343d a7b4 babe ec35 25bf
00000100: 6c7c 1c3f 945a f1be bb20 fbbe 8203 3a3e
00000110: 6fb2 cc3e 1493 483f 359a ef3d 68d5 193e
00000120: e93a 24be 1e13 18be 5f5b 793f c0a1 63bf
00000130: 93ac 933d c12c e9be 981b 883e 2527 5b3f
00000140: a1f7 b0be 9863 2a3e 9219 4f3d 148e 41be
00000150: b59a eabe b0ab 4c3e a694 6b3d 924d 6cbc
00000160: c63b 153e 9d1d 13be 670e 59bf 9712 3d3f
00000170: ffdc 8e3d eddb 5dbf 5617 6dbe 2cd2 033e
00000180: 0876 493d d293 debd 129c 47be 63e2 30be
00000190: b7d7 5abf e862 46bf dc3f 1bbe 465f 11be
000001a0: 281d 60bf 190e a93f 86a1 6b3e aa3c b93d
000001b0: 8973 033e 1f21 3abe f652 923e 83ae 6f3e
000001c0: 78c8 dcbe 4a0e 34be 3baf c0be 7ebf 18bf
000001d0: 0005 f93d ce5b a8bf 6e6e 02bf b8c6 42be
000001e0: 4109 74be 6b10 843f ba66 0e3e 64d6 893d
000001f0: ad64 2b3e 9405 51bd 0773 bcbe 67cb 1fbf
00000200: a8c0 4e3e 6016 523c f6fb 593d 289f e33e
00000210: c9d6 b93d 6c7c 96be 23e5 6d3e b8c1 3ebd
00000220: 79f0 afbe 8ddf c5bf dd72 02bf 078e 13bf
00000230: 0eb9 e53d d246 91bd dc4a 3abf 6952 1dbe
00000240: 7cbd e7bc 0cd0 5abf bba2 a9bb 7456 d6be
00000250: 839c 06be 8c03 b03d 26df 743c eed6 1c3f
00000260: 3943 fd3d 0686 113f c720 423e 2fd1 39be
00000270: d118 84be fd84 743f c501 4b40 8498 623e
00000280: 1a52 bf3e 3170 663e 73a4 45bd ea91 22bf
00000290: 3add c9be db6f 2fbe 4744 fd3d 99e0 193f
000002a0: 18ab 0cbe 7fd1 ebbd 2154 1fbe de59 143f
000002b0: 0d0c c23d c8f4 583e e7bc f4be 8507 cbbe
000002c0: cdb9 e2be c084 45be 43ff 5e3f 3f2e 253e
000002d0: 57c1 2a3b eabd f0be fc06 fa3d 847a 493e
000002e0: 95fd 90bb 8b2e 373e 787f 35be 8c3d ccbe
000002f0: 78cd 4c3e 6cb9 f0be 68b2 2ebf c3fc 463f
00000300: 9ea2 fabd dde1 f3be 43bf 01bf b7bb ffbd
00000310: 446a d7bd b859 84bf 3de3 94be cf93 6cbe
00000320: 9f3c 133f a281 d73b 4799 97bd 3fb6 143f
00000330: 3745 c0be ee0b 59be a6aa 413f 0ec2 84be
00000340: 881a 0abf d210 23bf 9fb3 dbbe bf6e 4c3f
00000350: 7ae9 943e 2b35 3f3e 485a 093e 4af7 d93e
00000360: 3c71 063e 3f8e 9bbe 6956 0cbf 73c2 713e
00000370: 65b5 44be b543 98c0 6397 1cbe c441 113d
00000380: e348 203d 9b56 debe 84dc 953e 50d8 a43e
00000390: 284c f5bc d8b8 ee3f de3c 533f 5b4f 373e
000003a0: f468 323d a327 303f 0ac9 4e3f 2bbc 16bc
000003b0: f60a 933d 720e 5e3e 2e0b ae3e a5e7 40bd
000003c0: 7919 9f3e 90d2 d8be 8e6a fd3e 5d3d f63e
000003d0: 4a1a 64bc 3e15 12bf dbd0 843e 19b3 083e
000003e0: ccaa 3bbe 9782 93be f2ea 44be 433c 6740
000003f0: bcfd b53e a741 49be adfa ecbd bdec c1be

model/dense_2/MatMul;model/activation_2/Relu;model/dense_2/BiasAdd f4 [100]
23.32704 -31.408897 4.514268 -24.550558 -17.007425 -16.154737 10.514371 17.835396
-4.6169496 0.56849164 -11.339903 -4.84941 -0.78028846 5.2124157 3.2202423 -25.03361
-9.446382 5.2695293 0.0028003617 5.802253 8.922214 -0.18807222 3.987311 2.5652845
-7.6294184 2.2378047 -1.7359047 11.788114 -6.949609 -3.3142693 -7.7703543 4.465653
10.992099 -6.7332444 11.075518 -12.122032 21.267862 -11.0706005 -15.880371 -5.459935
5.0078897 -16.506601 -2.6060622 3.3499668 -8.617806 14.05846 -4.671331 0.39221153
-21.186157 4.266664 24.387148 19.742832 10.262748 -0.22907865 0.50523007 -5.760501
-0.80699676 20.449541 15.177413 -11.428813 -3.5618138 0.8901859 1.7933202 42.75016
22.32776 1.9534745 -22.548973 -12.967933 -7.7356567 20.151346 -61.93498 2.9414008
-20.324162 14.438989 -14.520496 -18.495243 5.4011397 -2.2164617 -11.495398 5.0515113
10.454763 11.874708 17.25381 8.320976 -1.9378195 -20.748568 1.3866929 19.749157
6.361937 14.837012 -17.80272 2.3231866 -4.0450945 5.9757037 4.6344724 9.482359
16.531057 8.984879 9.588925 6.202374
00000000: c79d ba41 6c45 fbc1 e274 9040 8b67 c4c1
00000010: 350f 88c1 e73c 81c1 dd3a 2841 e4ae 8e41
00000020: 0dbe 93c0 ab88 113f 3e70 35c1 5e2e 9bc0
00000030: fcc0 47bf 1ccc a640 7318 4e40 d544 c8c1
00000040: 6124 17c1 fc9f a840 4686 373b 0eac b940
00000050: 63c1 0e41 0196 40be 1a30 7f40 9f2d 2440
00000060: 3224 f4c0 3138 0f40 2032 debf 1d9c 3c41
00000070: 3263 dec0 fd1c 54c0 bea6 f8c0 a1e6 8e40
00000080: a3df 2f41 bd76 d7c0 5235 3141 d8f3 41c1
00000090: 9524 aa41 2e21 31c1 0016 7ec1 cab7 aec0
000000a0: a240 a040 850d 84c1 b9c9 26c0 db65 5640
000000b0: 89e2 09c1 74ef 6041 8b7b 95c0 f3cf c83e
000000c0: 407d a9c1 8388 8840 e118 c341 52f1 9d41
000000d0: 3734 2441 9893 6abe c256 013f 0656 b8c0
000000e0: 5797 4ebf a998 a341 afd6 7241 6bdc 36c1
000000f0: c2f4 63c0 39e3 633f 848b e53f 2a00 2b42
00000100: 419f b241 740b fa3f 4c64 b4c1 a77c 4fc1
00000110: 808a f7c0 f535 a141 6bbd 77c2 e93f 3c40
00000120: e297 a2c1 1906 6741 f453 68c1 42f6 93c1
00000130: 23d6 ac40 82da 0dc0 26ed 37c1 fba5 a140
00000140: b646 2741 cefe 3d41 ce07 8a41 b822 0541
00000150: 780a f8bf 11fd a5c1 277f b13f 46fe 9d41
00000160: fd94 cb40 6764 6d41 f86b 8ec1 17af 1440
00000170: 6a71 81c0 f738 bf40 994d 9440 beb7 1741
00000180: 9b3f 8441 10c2 0f41 3d6c 1941 d979 c640

model/batch_normalization_1/batchnorm/mul_1;model/batch_normalization_1/batchnorm/add_1;model/dense_2/MatMul;model/activation_2/Relu;model/dense_2/BiasAdd f4 [100, 100]
-0.053519525 -0.23746143 0.022657951 -0.10673868 -0.21798272 -0.192765 0.06401249 -0.07312487
0.2853746 -0.08663364 0.093133606 0.16464695 0.045193717 -0.05290139 -0.1697791 0.038981233
0.024874939 -0.28679714 0.1520791 0.13248527 -0.08024964 -0.09928115 0.25289318 0.1837086
-0.10087754 -0.003437098 -0.067541026 0.01610683 0.056637432 -0.0367889 0.009054492 -0.0018070337
-0.2153289 0.024373166 0.083997406 0.20886132 -0.0750126 0.09953598 0.15587394 -0.091157585
-0.026951853 -0.21760514 -0.1096033 0.021920068 -0.049895145 0.09790891 -0.035729114 0.017110499
-0.07126948 -0.05662021 0.04740175 0.034808416 0.035990454 -0.22230212 -0.024702908 -0.0331207
0.037570823 0.091761686 0.3029045 -0.0589892 0.29383865 -0.16153604 0.022033034 -0.11312574
-0.031490996 -0.022274565 0.0585234 -0.06672417 -0.106909595 0.11507773 -0.2878598 -0.13284929
-0.08638799 -0.0836513 -0.25594312 -0.16448236 -0.16375688 0.064100854 -0.17312802 -0.24575208
0.11431269 0.09397491 0.032643612 0.07439727 -0.05833779 -0.090250805 -0.009141878 0.06729009
-0.217855 -0.057400655 0.101367444 -0.105959274 -0.15489347 -0.1317714 -0.66086966 0.41791427
0.19375364 -0.76467466 0.039500248 -0.13718686 0.06570289 0.15085725 -0.039163962 -0.029113797
0.02258859 -0.0064221052 0.14793257 0.0059502614 0.11646208 0.14310841 -0.0525579 -0.02687394
-0.01830481 -0.027228862 0.033704918 0.19024701 -0.105377294 -0.18625413 -0.040189005 0.3412844
0.022524593 -0.09962356 0.27439114 -0.030025145 0.030039798 0.01034914 0.07333293 0.03776195
0.2031764 -0.021369696 0.32057843 0.39333525 -0.010380068 0.038126603 0.04721458 -0.051242676
0.012094518 0.04598853 0.07696309 -0.0131587675 -0.03945954 -0.05937857 0.38882437 -0.044093095
0.10434985 0.020040045 -0.009441237 0.06325005 0.14822996 0.07126809 0.035638418 -0.12612353
0.25888965 -0.10624124 0.10879686 -0.05919875 0.097043075 0.0171732 -0.036706727 0.032270923
-0.02018997 -0.15880105 0.35363495 -0.07603998 0.00761922 0.15331595 -0.03776601 -0.03938455
0.031763438 0.14594573 -0.15547737 -0.0084599005 -0.013645247 0.27704808 -0.04694256 -0.22173142
-0.036294475 0.04098793 0.0778251 -0.044107974 0.061085448 -0.06016929 0.06385432 0.035738323
-0.051624972 -0.04282466 -0.011107188 0.15793626 0.058551695 -0.07515974 0.43313396 -0.08589734
-0.08107454 0.0063552475 -0.15614039 -1.9116434e-05 -0.15713304 -0.05912073 0.23686536 0.005143064
0.12150032 0.13232143 -0.012573194 -0.09339436 0.0157901 -0.09455236 0.09572575 0.014020992
-0.011602195 0.21281528 0.029230038 0.07988126 -0.19919002 -0.15813376 0.05362413 -0.20180121
0.06003176 -0.14720416 -0.10789057 0.09235243 0.144601 -0.023508988 0.2265337 0.018917132
-0.10874106 0.023712644 -0.04044785 -0.08871045 -0.026402462 -0.07984162 0.045310535 0.17814478
0.035673708 -0.12851034 -0.14825995 -0.046733137 0.09558382 -0.035275146 -0.003294129 -0.05588511
0.08450408 0.3167287 -0.05048485 0.1661984 0.06155893 0.29896447 -0.014837515 -0.08020861
-0.109557554 -0.03269832 -0.010351034 -0.08041583 -0.051758155 0.20729922 -0.20980266 0.043288253
00000000: 4a37 5bbd 1729 73be 2b9d b93c cf99 dabd
00000010: dd36 5fbe 3064 45be fb18 833d 7ec2 95bd
00000020: 9f1c 923e fa6c b1bd d5bc be3d 3699 283e
00000030: 0c1d 393d 21af 58bd 93da 2dbe c9aa 1f3d
00000040: 87c6 cb3c 13d7 92be a0ba 1b3e 38aa 073e
00000050: ec59 a4bd ea53 cbbd 377b 813e 1b1e 3c3e
00000060: e298 cebd f040 61bb f352 8abd 79f2 833c
00000070: a7fc 673d f5af 16bd 4b59 143c fdd9 ecba
00000080: 2e7f 5cbe 3caa c73c d506 ac3d bedf 553e
00000090: 35a0 99bd 85d9 cb3d 6b9d 1f3e d4b0 babd
000000a0: 22ca dcbc e2d3 5ebe b277 e0bd b791 b33c
000000b0: da5e 4cbd 7784 c83d b158 12bd 512b 8c3c
000000c0: bcf5 91bd 98ea 67bd 5628 423d 4593 0e3d
000000d0: ba6a 133d 2ba3 63be c15d cabc 92a9 07bd
000000e0: dde3 193d 8ded bb3d 4c16 9b3e a99e 71bd
000000f0: 0572 963e b469 25be 9f7e b43c 78ae e7bd
00000100: b4fc 00bd 2679 b6bc 3cb6 6f3d afa6 88bd
00000110: 6bf3 dabd dfad eb3d 5c62 93be a509 08be
00000120: 30ec b0bd 5f51 abbd fa0a 83be 106e 28be
00000130: e2af 27be 4f47 833d 7948 31be 6fa6 7bbe
00000140: c61c ea3d eb75 c03d 4fb5 053d 995d 983d
00000150: 9bf3 6ebd 6ad5 b8bd d1c7 15bc 63cf 893d
00000160: 6215 5fbe f31c 6bbd bc99 cf3d 2d01 d9bd
00000170: 659c 1ebe 15ef 06be c12e 29bf dcf8 d53e
00000180: 5b67 463e b8c1 43bf 03cb 213d b67a 0cbe
00000190: 3d8f 863d 537a 1a3e 646a 20bd 0f80 eebc
000001a0: b50b b93c 8670 d2bb a37b 173e 69fa c23b
000001b0: ac83 ee3d 038b 123e f446 57bd bd26 dcbc
000001c0: f8f3 95bc 100f dfbc 2b0e 0a3d 1dd0 423e
000001d0: 0dd0 d7bd 67b9 3ebe 3a9d 24bd d4bc ae3e
000001e0: 7f85 b83c 7007 ccbd ff7c 8c3e 4bf7 f5bc
000001f0: 0616 f63c 708f 293c 932f 963d 46ac 1a3d
00000200: 790d 503e 800f afbc db22 a43e 3d63 c93e
00000210: 2911 2abc a42a 1c3d 1364 413d d7e3 51bd
00000220: 1628 463c 785e 3c3d d39e 9d3d df97 57bc
00000230: 54a0 21bd f236 73bd fd13 c73e f69a 34bd
00000240: 60b5 d53d 052b a43c 6baf 1abc 3e89 813d
00000250: 98c9 173e 01f5 913d 97f9 113d 8726 01be
00000260: 2f8d 843e 0295 d9bd e3d0 de3d 637a 72bd
00000270: 85be c63d d0ae 8c3c cb59 16bd 842e 043d
00000280: 7065 a5bc be9c 22be a40f b53e d9ba 9bbd
00000290: a6aa f93b dbfe 1c3e 88b0 1abd b251 21bd
000002a0: 611a 023d cc72 153e 7635 1fbe 659b 0abc
000002b0: 5090 5fbc 3fd9 8d3e d746 40bd 900d 63be
000002c0: 84a9 14bd f6e2 273d c462 9f3d 90aa 34bd
000002d0: bc34 7a3d 1374 76bd 0ec6 823d 5962 123d
000002e0: b574 53bd e968 2fbd ecfa 35bc 0bba 213e
000002f0: e7d3 6f3d 5aed 99bd bcc3 dd3e f2ea afbd
00000300: 690a a6bd ae3f d03b 44e3 1fbe 3b5c a0b7
00000310: 7ce7 20be 9428 72bd d58c 723e 2687 a83b
00000320: 29d5 f83d 457f 073e ccff 4dbc 8b45 bfbd
00000330: 3d5a 813c aba4 c1bd dd0b c43d 4eb8 653c
00000340: 2217 3ebc 40ec 593e d573 ef3c c998 a33d
00000350: 78f8 4bbe d1ed 21be faa4 5b3d faa4 4ebe
00000360: dde3 753d b0bc 16be bbf5 dcbd 4523 bd3d
00000370: 4912 143e ec95 c0bc 73f8 673e 1af8 9a3c
00000380: a2b3 debd 0541 c23c a5ac 25bd d3ad b5bd
00000390: fa49 d8bc 0184 a3bd 8a97 393d 966b 363e
000003a0: 981e 123d 3798 03be 75d1 17be 3f6b 3fbd
000003b0: 73c1 c33d ac7c 10bd 50e2 57bb c9e7 64bd
000003c0: 7a10 ad3d 442a a23e 34c9 4ebd ea2f 2a3e
000003d0: 3725 7c3d df11 993e 0c19 73bc 6944 a4bd
000003e0: b65f e0bd acee 05bd 6297 29bc 0eb1 a4bd
000003f0: 5c00 54bd 3f46 543e 82d6 56be 064f 313d

model/dense_3/MatMul;model/activation_3/Relu;model/dense_3/BiasAdd f4 [100]
-10.704571 15.148963 -4.5845814 0.6743321 8.795201 -1.8112668 2.6553485 8.812222
1.003356 7.4585834 8.904168 17.79192 5.9082975 3.2708523 9.249878 2.1590488
-4.8980756 0.3060688 6.406463 0.37010515 7.8220124 2.9832041 -9.089608 8.647948
11.889299 12.480458 16.517984 -6.381409 -5.787996 -14.043566 -11.018491 4.6767144
-0.3374776 -5.0153136 0.8036995 23.854584 -6.943707 12.306287 -9.25939 17.62172
9.6518345 13.789344 8.92268 -0.6372834 1.1230292 2.4695525 0.82572263 3.599307
12.139074 5.0681067 8.339751 -11.707138 -6.285341 -11.059453 -5.673693 11.231528
4.0403433 -0.52932394 3.3991342 10.355233 0.52851224 -5.515134 7.7637744 7.9318466
0.79495084 3.4707172 6.3063617 -1.6477927 5.0848947 10.406655 2.79797 7.3232036
7.189212 -9.724925 4.343597 -0.32791692 -2.69993 -6.608324 -1.8778925 -5.2808948
-0.8697494 9.478078 -4.4015994 8.031174 -2.7071111 -1.490333 9.6554575 8.789983
0.45957482 9.276739 0.78481066 10.137525 5.9076304 0.28439102 3.679073 -13.106074
6.15438 3.2465384 1.4694232 -6.628244
00000000: ec45 2bc1 2762 7241 e4b4 92c0 07a1 2c3f
00000010: 25b9 0c41 97d7 e7bf 3bf1 2940 dcfe 0c41
00000020: f86d 803f b7ac ee40 7977 0e41 da55 8e41
00000030: c610 bd40 a555 5140 80ff 1341 db2d 0a40
00000040: 09bd 9cc0 0db5 9c3e bf01 cd40 6c7e bd3e
00000050: ed4d fa40 d1ec 3e40 096f 11c1 ff5d 0a41
00000060: 923a 3e41 f5af 4741 d524 8441 8134 ccc0
00000070: 4337 b9c0 72b2 60c1 bd4b 30c1 a5a7 9540
00000080: ddc9 acbe 737d a0c0 40bf 4d3f 30d6 be41
00000090: d932 dec0 8de6 4441 7626 14c1 48f9 8c41
000000a0: ea6d 1a41 27a1 5c41 4cc3 0e41 0125 23bf
000000b0: 6cbf 8f3f 260d 1e40 8f62 533f 0c5b 6640
000000c0: a639 4241 ee2d a240 9f6f 0541 7050 3bc1
000000d0: 8321 c9c0 85f3 30c1 e58e b5c0 57b4 3341
000000e0: 7e4a 8140 c681 07bf 6a8b 5940 09af 2541
000000f0: 944c 073f fa7b b0c0 d770 f840 b0d1 fd40
00000100: e681 4b3f 3b20 5e40 b7cd c940 dfea d2bf
00000110: 75b7 a240 a981 2641 f111 3340 af57 ea40
00000120: 060e e640 4b99 1bc1 bffe 8a40 bae4 a7be
00000130: a7cb 2cc0 6477 d3c0 c85e f0bf 17fd a8c0
00000140: e6a7 5ebf 35a6 1741 e7d9 8cc0 b07f 0041
00000150: 4f41 2dc0 3bc3 bebf c17c 1a41 c5a3 0c41
00000160: 644d eb3e 866d 1441 5ae9 483f 4d33 2241
00000170: 4f0b bd40 b39b 913e ef75 6b40 7bb2 51c1
00000180: aef0 c440 49c7 4f40 0f16 bc3f 931a d4c0

model/batch_normalization_2/batchnorm/mul_1;model/batch_normalization_2/batchnorm/add_1;model/dense_3/MatMul;model/activation_3/Relu;model/dense_3/BiasAdd f4 [100, 100]
0.27806827 -0.0604153 -0.058057155 -0.03037335 0.04394262 -0.08938829 -0.037388258 0.050443575
-0.06823989 0.16357043 -0.108731024 0.21315175 -0.21971975 0.14736524 0.24253722 -0.22388138
-0.042304456 0.22181831 0.062453467 0.109891325 -0.040556613 -0.03174025 0.324165 -0.167413
0.02640587 0.049041346 -0.090786576 -0.05986969 -0.18010826 -0.01727004 0.05247326 -0.04602502
-0.14086388 0.06988504 -0.14231844 0.03688692 0.1602908 0.028802732 -0.026093893 -0.08947095
-0.08339999 -0.04411877 -0.058308445 0.1919294 -0.1395642 -0.08661306 -0.1878986 -0.2805224
0.022098709 0.13589385 0.006362167 0.13152444 0.16503227 0.18544511 -0.10267104 -0.13509247
0.06647419 0.13857673 0.27160853 -0.18135129 -0.14070648 0.36583325 0.13724287 -0.11809183
-0.023759194 -0.037713524 -1.8988843 0.010883404 0.058956567 0.07854409 0.16059606 -0.09111082
-0.05017945 -0.036949895 0.1331798 0.1517425 0.05266176 -0.069066286 -0.051131 -0.012126795
-0.13942334 -0.14404216 -0.07178897 0.11122916 0.1058096 0.010911147 0.07391034 -0.04343654
0.0035169371 0.4425711 -0.05022072 -0.41243336 -0.1860443 0.11337542 0.23010303 0.07709276
0.009048402 -0.2640332 -0.018742941 -0.072610445 -0.10729444 0.026701024 -0.31736887 -0.031645227
-0.06239859 0.27756032 -0.012117433 0.015850574 -0.15437222 -0.17616642 -0.044897657 0.35773742
-0.01393878 -0.0020927975 0.29060864 0.0030077244 0.121024914 -0.085365444 -0.20187095 -0.14251238
0.07602667 0.017849779 -0.04815309 -0.07726885 -0.08643128 -0.11362774 0.059485037 -0.009623574
-0.002652601 -0.18798181 0.04738215 0.033337943 0.12090872 0.04490702 -0.0763061 0.11244574
0.18047684 0.11205963 0.09642617 0.044086527 -0.3871905 -0.08392001 0.084960304 0.03602396
-0.058924705 0.077717915 -0.009293457 -0.33739516 0.10961003 -0.1072147 -0.003008647 0.006921842
0.030470835 0.03056859 0.065987416 0.23143041 -0.10731697 0.086599186 -0.17555462 0.3198887
-0.013170864 -0.029276285 -0.13077536 -0.29461315 -0.29882923 0.041146003 0.14657174 0.036370035
0.13944973 -0.0038206151 0.058212366 0.20012741 0.019257296 0.07705542 0.013387442 -0.01807566
-0.15926398 0.084571466 0.011834243 0.18342356 -0.26560298 -0.18470185 0.3981795 -0.15358841
-0.16883838 0.057007656 0.26664498 -0.18825184 -0.23983559 0.05927363 -0.016191863 0.14564848
-0.04283296 -0.084262885 -0.024302717 0.009692051 0.11105171 -0.033580694 -0.2855179 -0.050111685
0.08623384 -0.008085629 -0.16399996 -0.053988483 -0.13235103 0.001150383 -0.021077896 0.30911997
0.042874143 0.15258597 -0.06494275 0.36498368 0.06070816 -0.13295479 0.0627343 0.2547183
0.10654219 0.061977834 -0.07050903 0.064269304 -0.13573144 0.27715704 -0.029327547 -0.16130659
-0.050103776 0.0032209184 -0.09536952 0.035178017 -0.14391501 -0.1664235 -0.09987064 -0.008814467
-0.12907553 0.1774186 0.08585454 -0.034604818 -0.0043694894 -0.019790731 -0.057316422 -0.21215926
0.08002952 0.02688928 0.0743203 0.0718701 -0.2130945 -0.10210154 0.05948487 0.06089354
0.16066714 -0.09242847 -0.20902872 -0.22233367 -0.03199217 -0.049882464 -0.07463266 -0.120912306
00000000: f75e 8e3e 0976 77bd 57cd 6dbd 88d1 f8bc
00000010: 2dfd 333d 3511 b7bd 6e24 19bd ec9d 4e3d
00000020: 5bc1 8bbd 027f 273e 5fae debd 7444 5a3e
00000030: 37fe 60be eae6 163e ad5b 783e 2941 65be
00000040: 7047 2dbd 5724 633e 35cf 7f3d b40e e13d
00000050: b11e 26bd 1002 02bd f4f8 a53e 506e 2bbe
00000060: 2051 d83c 94df 483d 50ee b9bd ec39 75bd
00000070: 4d6e 38be e679 8dbc 33ee 563d bb84 3cbd
00000080: 9f3e 10be e31f 8f3d edbb 11be bd16 173d
00000090: 4523 243e b5f3 eb3c dcc2 d5bc 8c3c b7bd
000000a0: 9dcd aabd e2b5 34bd d6d4 6ebd 2489 443e
000000b0: ebe9 0ebe 3062 b1bd 7e68 40be a2a0 8fbe
000000c0: 5a08 b53c c227 0b3e ba79 d03b 58ae 063e
000000d0: 38fe 283e 53e5 3d3e 3245 d2bd ae55 0abe
000000e0: 9f23 883d 0fe7 0d3e 4610 8b3e 27b4 39be
000000f0: 5c15 10be 7f4e bb3e 6589 0c3e 21da f1bd
00000100: a4a2 c2bc 7f79 1abd a40e f3bf 4e50 323c
00000110: 717c 713d b9db a03d 4b73 243e 4f98 babd
00000120: f888 4dbd c658 17bd 4960 083e 6362 1b3e
00000130: dcb3 573d a072 8dbd bd6e 51bd 77af 46bc
00000140: fec4 0ebe ca7f 13be 1806 93bd 1dcc e33d
00000150: b4b2 d83d abc4 323c 4e5e 973d 83ea 31bd
00000160: 6a7c 663b ae98 e23e 3eb4 4dbd 772a d3be
00000170: 6682 3ebe 5f31 e83d 21a0 6b3e cfe2 9d3d
00000180: c03f 143c 5c2f 87be cc8a 99bc c9b4 94bd
00000190: 30bd dbbd 1bbc da3c 2c7e a2be 6d9e 01bd
000001a0: aa95 7fbd 631c 8e3e 3388 46bc 10d9 813c
000001b0: c013 1ebe f864 34be 9be6 37bd 5c29 b73e
000001c0: 7b5f 64bc 5127 09bb a8ca 943e 3e1d 453b
000001d0: e9db f73d 14d4 aebd 42b7 4ebe c4ee 11be
000001e0: dfb3 9b3d b339 923c 2d3c 45bd 213f 9ebd
000001f0: e202 b1bd a9b5 e8bd 95a6 733d 32ac 1dbc
00000200: 43d7 2dbb 4e7e 40be c913 423d 5e8d 083d
00000210: fe9e f73d 6cf0 373d 5f46 9cbd f449 e63d
00000220: ecce 383e 857f e53d 157b c53d 1394 343d
00000230: d53d c6be 41de abbd abff ad3d dc8d 133d
00000240: 085b 71bd 922a 9f3d 9543 18bc 0fbf acbe
00000250: 397b e03d 6193 dbbd b82c 45bb 9fd0 e23b
00000260: f99d f93c fb6a fa3c 6924 873d 18fc 6c3e
00000270: 00c9 dbbd ea5a b13d 97c4 33be 74c8 a33e
00000280: 9cca 57bc d2d4 efbc fae9 05be 89d7 96be
00000290: 2500 99be b688 283d e716 163e bff8 143d
000002a0: e9cb 0e3e 4963 7abb 1770 6e3d 33ee 4c3e
000002b0: 7ac1 9d3c 3bcf 9d3d 0057 5b3c 6813 94bc
000002c0: 1916 23be ce33 ad3d 6ae4 413c 63d3 3b3e
000002d0: 1dfd 87be 7b22 3dbe 2fde cb3e 4846 1dbe
000002e0: f8e3 2cbe dc80 693d b185 883e 17c5 40be
000002f0: 7697 75be e8c8 723d cca4 84bc e024 153e
00000300: 9d71 2fbd 0592 acbd 7e16 c7bc 69cb 1e3c
00000310: 146f e33d e98b 09bd 672f 92be e941 4dbd
00000320: 5e9b b03d 9679 04bc 9bef 27be 0723 5dbd
00000330: 0787 07be 73c8 963a 8dab acbc f944 9e3e
00000340: cc9c 2f3d 7f3f 1c3e b400 85bd 24df ba3e
00000350: 1fa9 783d 4d25 08be d77a 803d 706a 823e
00000360: cb32 da3d 78dc 7d3d 0a67 90bd a09f 833d
00000370: 2ffd 0abe 87e7 8d3e 5340 f0bc 8e2d 25be
00000380: 9e39 4dbd 0b16 533b 1851 c3bd d316 103d
00000390: 755e 13be ec6a 2abe fa88 ccbd 8e6a 10bc
000003a0: 602c 04be 39ad 353e 81d4 af3d c8bd 0dbd
000003b0: ef2d 8fbb 2c20 a2bc a0c4 6abd 4740 59be
000003c0: 84e6 a33d e846 dc3c 3e35 983d a230 933d
000003d0: 7235 5abe 9d1a d1bd 68a6 733d 816b 793d
000003e0: ed85 243e 234b bdbd a00b 56be 70ab 63be
000003f0: 390a 03bd 8e51 4cbd 02d9 98bd dfa0 f7bd

model/dense_4/MatMul;model/activation_4/Relu;model/dense_4/BiasAdd f4 [100]
2.0044696 2.6975136 -2.0209296 1.6429827 -9.149025 -2.3109696 5.93904 -0.7481818
12.91943 9.939841 -8.488082 -3.9427972 18.77891 11.748349 -7.7579193 -4.3011527
-8.152149 -8.751579 3.1466534 10.873199 -2.5221941 -11.515518 9.294492 -6.417004
16.720207 -3.4603183 4.445645 10.353465 7.0980067 -0.5563189 0.6148583 0.36248067
16.264269 3.7643628 12.25188 -0.852051 -7.559158 4.8557434 11.234443 8.091679
18.887869 0.8669987 6.5207605 -3.9353037 19.57085 -2.502322 2.0373757 -2.9556544
-11.369001 -1.9943084 9.027713 12.134934 -1.2608979 0.70525277 4.272397 4.689305
3.371115 9.780108 8.061456 -1.5927454 -2.5058668 2.984526 -0.45468622 2.6929657
1.8640985 8.7677145 -3.4177272 9.20429 10.788362 9.859837 -3.2224724 16.489298
9.373317 -10.527864 5.56215 12.96165 9.975951 0.85862565 11.801423 -7.4018855
9.563692 10.55933 11.287817 -4.7709436 3.1612146 1.212419 2.7871308 -5.132139
1.2277826 -5.4569006 2.3586926 1.8291743 1.4966629 6.4526634 15.834011 14.869379
1.5276812 -5.282268 4.856342 2.385236
00000000: 3b49 0040 10a4 2c40 e956 01c0 424d d23f
00000010: 6862 12c1 ede6 13c0 9e0c be40 d888 3fbf
00000020: fcb5 4e41 9709 1f41 2fcf 07c1 ca56 7cc0
00000030: 353b 9641 3df9 3b41 e040 f8c0 0ba3 89c0
00000040: 346f 02c1 7806 0cc1 c562 4940 a0f8 2d41
00000050: a16b 21c0 903f 38c1 3db6 1441 1958 cdc0
00000060: fcc2 8541 db75 5dc0 b942 8e40 cba7 2541
00000070: df22 e340 ea6a 0ebf 5b67 1d3f 1197 b93e
00000080: 391d 8241 52eb 7040 b307 4441 0420 5abf
00000090: 9fe4 f1c0 4062 9b40 47c0 3341 8477 0141
000000a0: 5b1a 9741 a0f3 5d3f 12aa d040 04dc 7bc0
000000b0: 1a91 9c41 0b26 20c0 5d64 0240 7129 3dc0
000000c0: 6ee7 35c1 7f45 ffbf 8371 1041 b128 4241
000000d0: 1a65 a1bf 728b 343f 7ab7 8840 c90e 9640
000000e0: 59c0 5740 537b 1c41 b9fb 0041 15df cbbf
000000f0: 1f60 20c0 7902 3f40 a2cc e8be 8d59 2c40
00000100: c89a ee3f 8f48 0c41 0bbc 5ac0 c644 1341
00000110: 219d 2c41 e4c1 1d41 fd3c 4ec0 15ea 8341
00000120: 1bf9 1541 2272 28c1 22fd b140 eb62 4f41
00000130: 7f9d 1f41 e4ce 5b3f a1d2 3c41 3fdc ecc0
00000140: e204 1941 04f3 2841 e69a 3441 92ab 98c0
00000150: 5751 4a40 8c30 9b3f 5a60 3240 7c3a a4c0
00000160: fb27 9d3f ee9e aec0 d2f4 1640 6222 ea3f
00000170: a692 bf3f 387c ce40 1c58 7d41 fae8 6d41
00000180: 0f8b c33f 5708 a9c0 2767 9b40 b5a7 1840

model/batch_normalization_3/batchnorm/mul_1;model/batch_normalization_3/batchnorm/add_1;model/dense_4/MatMul;model/activation_4/Relu;model/dense_4/BiasAdd f4 [100, 100]
0.0063715284 0.09978903 0.092606366 -0.23484324 -0.25341475 0.14647822 0.011635009 -0.12516002
-0.13426821 0.026378471 0.0043756673 0.14083627 -0.028912751 -0.10670983 0.12648962 0.24493045
-0.012587015 0.03936659 -0.010654081 0.0061931396 -0.07753416 0.1702987 0.5234366 0.008618173
-0.12675549 -0.024814725 0.033036303 0.008514029 0.06588716 -0.21525265 -0.045648906 -0.16192493
0.031457674 -0.05651348 0.041442126 0.17014122 0.06925442 -0.02545143 0.021217048 -0.08097056
-0.07079925 -0.23891313 -0.012879263 0.13969482 0.088185064 0.22867933 -0.4662141 -0.11794832
0.32616913 0.04225387 -0.0013875662 0.11928621 0.07647768 0.0479929 -0.15285096 0.27790546
-0.059442546 0.08324989 0.09744405 0.22879641 -0.29944742 0.016887678 -0.0394949 0.02505037
-0.021470997 0.026755193 0.05928049 -0.09636438 0.01742872 -0.044833336 -0.14558871 0.051838174
-0.22080617 0.01759261 -0.018443985 -0.14283617 -0.111387655 0.13451307 0.018753013 0.04285618
0.02663058 0.03560519 0.076313585 -0.15078141 0.019511463 0.015179393 -0.005546614 -0.023529079
-0.09280241 0.058291644 -0.072911605 -0.0042422297 0.012049708 -0.0033617362 -0.3229277 0.25653437
0.035808425 0.15017928 -0.058439806 0.0059692366 -0.04729479 0.106933914 0.13428319 0.0023622648
-0.07368843 -0.020626947 0.08955728 0.14729244 -0.073947094 0.031879082 -0.03415165 0.13202702
-0.0020320571 0.05372583 0.0006567085 0.049207117 0.082862124 0.0023701487 0.10071938 -0.22747196
-0.101294816 -0.0005645044 0.036155853 0.32825163 0.06708242 0.05745479 -0.07383325 0.11741457
0.08642379 0.23289438 -0.044443563 -0.18422629 0.06501829 -0.30831662 0.14876032 -0.22744735
0.11329644 -0.08630166 0.072039105 -0.0013104219 0.19762601 -0.16868536 -0.039178453 0.033557896
-0.100644514 0.002696005 0.06017626 -0.1646314 -0.07859237 0.081608735 -0.005300037 0.11380611
-0.005270404 0.054069746 0.03281067 0.15560845 -0.06162099 0.03048737 -0.13244459 -0.22140776
0.0632385 -0.03544677 -0.039974067 -0.04582727 0.017008143 -0.14389561 -0.06078382 0.011525507
0.22705714 0.09067852 0.059780527 -0.2511453 0.4292673 0.10636522 0.021825636 -0.06529835
-0.07328356 -0.082696296 0.098886885 -0.36338133 -0.04935171 0.08411364 -0.13892527 -0.07651786
0.07818453 -0.14929016 0.10727279 0.10975219 -0.08885942 -0.064463064 0.039169718 -0.19412826
0.06602133 -0.095536254 0.025913186 0.23648553 0.022333277 0.060955536 -0.018140145 0.10028188
-0.0021992165 0.12870303 0.0039244117 0.12391634 0.1257173 0.013595864 -0.07257751 0.12075158
-0.038459297 -0.014827454 -0.04288734 0.32295373 0.13079175 0.029141651 0.0026020582 0.049306635
0.10830162 0.068998344 -0.17301475 0.08503074 0.014983912 0.07288165 -0.03491992 -0.01883279
0.058363706 -0.318808 0.0006519837 0.105233796 0.029617606 0.120294146 0.13088824 -0.04623339
-0.02313362 0.043338798 0.02709755 -0.39301986 0.07371177 0.10126106 -0.2039513 -0.17753214
-0.02489765 -0.15350576 -0.06832565 -0.027861007 -0.045027006 0.02361543 -0.16043152 -0.071067706
0.2214873 -0.06848774 0.015105329 -0.3781464 0.016248718 0.29812187 -0.0063310177 0.04230094
00000000: 41c8 d03b 315e cc3d 68a8 bd3d bf7a 70be
00000010: 94bf 81be 63fe 153e c4a0 3e3c f329 00be
00000020: 9b7d 09be aa17 d83c c261 8f3b 6237 103e
00000030: 6fda ecbc af8a dabd 7f86 013e 0ccf 7a3e
00000040: c439 4ebc dd3e 213d 748e 2ebc d2ef ca3b
00000050: 3bca 9ebd c862 2e3e f1ff 053f 3d33 0d3c
00000060: 31cc 01be 4048 cbbc 1351 073d 6d7e 0b3c
00000070: d9ef 863d 316b 5cbe 59fa 3abd a6cf 25be
00000080: c3d9 003d ae7a 67bd 38bf 293d 8039 2e3e
00000090: 43d5 8d3d 847f d0bc 60cf ad3c e5d3 a5bd
000000a0: 32ff 90bd a5a5 74be 8b03 53bc 290c 0f3e
000000b0: 5f9a b43d ea2a 6a3e 9db3 eebe e48e f1bd
000000c0: a4ff a63e 6512 2d3d ffde b5ba 544c f43d
000000d0: 54a0 9c3d 3494 443d f684 1cbe a049 8e3e
000000e0: 077a 73bd eb7e aa3d bf90 c73d 9b49 6a3e
000000f0: 2c51 99be 0758 8a3c 67c5 21bd 6f36 cd3c
00000100: f2e3 afbc b52d db3c 19d0 723d b05a c5bd
00000110: adc6 8e3c 29a3 37bd 3515 15be 4454 543d
00000120: 031b 62be 611e 903c d717 97bc a543 12be
00000130: 361f e4bd cbbd 093e eb9f 993c f689 2f3d
00000140: 6028 da3c bfd6 113d 4c4a 9c3d 7166 1abe
00000150: 81d6 9f3c fdb2 783c 5fc0 b5bb 0ec0 c0bc
00000160: 310f bebd 38c3 6e3d ae52 95bd 6702 8bbb
00000170: 236c 453c 9350 5cbb c856 a5be 7958 833e
00000180: dbab 123d 99c8 193e 945e 6fbd 9699 c33b
00000190: 2fb8 41bd 2b00 db3d 8881 093e 3ad0 1a3b
000001a0: f6e9 96bd d8f9 a8bc cf69 b73d d4d3 163e
000001b0: 9371 97bd a493 023d 9ae2 0bbd 1732 073e
000001c0: 432c 05bb 9e0f 5c3d f626 2c3a 678d 493d
000001d0: 9eb3 a93d 7f54 1b3b f645 ce3d 69ee 68be
000001e0: a873 cfbd 40fb 13ba 2918 143d 9910 a83e
000001f0: 8262 893d b755 6b3d e335 97bd 0d77 f03d
00000200: f5fe b03d dd7b 6e3e 740a 36bd d1a5 3cbe
00000210: 4f28 853d addb 9dbe a054 183e f5e7 68be
00000220: f707 e83d edbe b0bd 3d89 933d 76c2 abba
00000230: 795e 4a3e dbbb 2cbe 9679 20bd 0174 093d
00000240: b61e cebd 75af 303b 627b 763d 2295 28be
00000250: 09f5 a0bd 7b22 a73d efab adbb 2e13 e93d
00000260: 5ab3 acbb 3d78 5d3d 7b64 063d d257 1f3e
00000270: 4b66 7cbd a6c0 f93c 8e9f 07be b7b8 62be
00000280: 3083 813d a230 11bd d9bb 23bd 60b5 3bbd
00000290: a954 8b3c 5f59 13be 74f8 78bd 7bd5 3c3c
000002a0: ab81 683e a9b5 b93d 6ddc 743d 1e96 80be
000002b0: ecc8 db3e 02d6 d93d adcb b23c 24bb 85bd
000002c0: b115 96bd ad5c a9bd 3585 ca3d 1e0d babe
000002d0: 0525 4abd c643 ac3d 6d42 0ebe 65b5 9cbd
000002e0: 361f a03d 85df 18be d6b1 db3d c2c5 e03d
000002f0: edfb b5bd 3605 84bd 6d70 203d 8fc9 46be
00000300: 3136 873d 83a8 c3bd e447 d43c 4329 723e
00000310: 47f4 b63c 83ac 793d a49a 94bc 9660 cd3d
00000320: bb20 10bb baca 033e 5a98 803b dac7 fd3d
00000330: 09bc 003e 30c1 5e3c 84a3 94bd 9b4c f73d
00000340: 7f87 1dbd daee 72bc a3aa 2fbd 315a a53e
00000350: 46ee 053e 79ba ee3c 4b87 2a3b c1f5 493d
00000360: 3dcd dd3d 014f 8d3d c72a 31be 9924 ae3d
00000370: 157f 753c f942 953d 3108 0fbd 3947 9abc
00000380: c80e 6f3d cd3a a3be e3e9 2a3a d184 d73d
00000390: 9fa0 f23c c75c f63d 9107 063e 395f 3dbd
000003a0: b882 bdbc 0684 313d aefb dd3c e639 c9be
000003b0: 32f6 963d f561 cf3d 9cd8 50be fcca 35be
000003c0: 28f6 cbbc 9d30 1dbe 52ee 8bbd c43c e4bc
000003d0: 3d6e 38bd 2575 c13c 2948 24be f28b 91bd
000003e0: 91cd 623e 4d43 8cbd 587c 773c 689c c1be
000003f0: 081c 853c 6ea3 983e 6d74 cfbb c043 2d3d

model/dense_5/MatMul;model/activation_5/Relu;model/dense_5/BiasAdd f4 [100]
10.462118 10.940885 -6.981055 -3.06786 -0.2029252 -1.6446477 11.304838 4.983394
-2.515065 1.2985688 12.9897995 1.7411416 -1.3818704 9.995504 -10.396912 10.424958
-1.9920028 9.607135 4.970433 5.669409 24.668858 -7.827829 13.973278 6.1901855
4.8712025 3.0384624 -5.718781 8.0973 4.763894 14.984018 -4.7179313 -0.73795176
-2.969078 4.7137384 8.690792 6.5853157 7.2521095 6.9864507 -2.4562666 -15.700956
12.06439 -9.860908 8.261816 2.6034667 10.21636 -6.156479 -1.6226368 1.5641772
-2.7387917 13.665579 -7.6131773 4.2441154 -13.141078 2.7173262 -2.0319197 -3.8775716
-5.292568 7.9364886 -3.0245156 11.969354 7.6545777 3.552293 12.623144 6.8591976
-9.606819 10.352787 10.13063 3.1407146 -1.1749139 -2.0499575 -15.25777 4.9374743
16.118128 4.1965394 1.5135953 0.6025004 -2.1361318 -7.089511 -2.854758 -20.368074
24.021568 0.000111386296 15.953885 19.204521 4.969681 -5.4056506 -4.644275 0.5004134
-1.7670304 3.5079846 1.7920756 3.793575 -4.4178934 -7.2771144 3.4178047 2.4807587
14.218116 14.377006 10.919083 4.7575116
00000000: d664 2741 dd0d 2f41 cd64 dfc0 d157 44c0
00000010: a0cb 4fbe d183 d2bf 9ee0 3441 f777 9f40
00000020: d3f6 20c0 8137 a63f 38d6 4f41 badd de3f
00000030: 21e1 b0bf 96ed 1f41 c059 26c1 a1cc 2641
00000040: f3f9 febf d3b6 1941 ca0d 9f40 cc6b b540
00000050: d259 c541 937d fac0 8c92 5f41 0016 c640
00000060: e4e0 9b40 2b76 4240 4100 b7c0 8a8e 0141
00000070: d271 9840 8abe 6f41 4bf9 96c0 68ea 3cbf
00000080: 6005 3ec0 f2d6 9640 7c0d 0b41 e8ba d240
00000090: 4811 e840 0191 df40 7933 1dc0 1e37 7bc1
000000a0: be07 4141 47c6 1dc1 6630 0441 339f 2640
000000b0: 3676 2341 e001 c5c0 90b2 cfbf f536 c83f
000000c0: 5d48 2fc0 36a6 5a41 269f f3c0 cbcf 8740
000000d0: db41 52c1 ace8 2d40 f90a 02c0 222a 78c0
000000e0: b85c a9c0 b7f7 fd40 aa91 41c0 7982 3f41
000000f0: 4df2 f440 c558 6340 66f8 4941 8c7e db40
00000100: 88b5 19c1 04a5 2541 0f17 2241 7801 4940
00000110: 9463 96bf 8132 03c0 d31f 74c1 caff 9d40
00000120: edf1 8041 0d4a 8640 7ebd c13f 773d 1a3f
00000130: 62b6 08c0 46dd e2c0 5bb4 36c0 d1f1 a2c1
00000140: 2c2c c041 1098 e938 1d43 7f41 dca2 9941
00000150: a007 9f40 17fb acc0 e79d 94c0 181b 003f
00000160: 0d2e e2bf d282 6040 bc62 e53f efc9 7240
00000170: 625f 8dc0 1fde e8c0 50bd 5a40 c0c4 1e40
00000180: 677d 6341 3708 6641 90b4 2e41 893d 9840

model/batch_normalization_4/batchnorm/mul_1;model/batch_normalization_4/batchnorm/add_1;model/dense_5/MatMul;model/activation_5/Relu;model/dense_5/BiasAdd f4 [100, 100]
0.013666427 -0.10104917 0.014040702 0.19371293 0.24177156 0.019441245 0.20428438 0.3662267
0.086763926 -0.2663397 -0.41782412 -0.37234712 0.07164259 -0.015637996 0.08208462 0.19981009
0.057969633 0.021994922 0.20640379 -0.3222119 -0.06450326 0.059952848 -0.107225195 -0.16642739
-0.012163547 -0.02397917 -0.078929946 0.10539212 0.078785 0.060373466 -0.1895917 -0.13320792
-0.036455564 -0.24070844 -0.03793832 -0.039775215 0.031343084 0.10274718 -0.095356986 -0.021495888
0.13506506 0.12143967 0.0157601 -0.16894397 -0.034313023 0.1843615 -0.01215775 0.0812962
-0.049674455 -0.25829643 0.06025311 0.008357218 0.24115717 -0.005267509 -0.11486941 0.21899755
-0.015503125 -0.189732 -0.10017954 0.12626539 -0.008329416 -0.016744973 0.037061024 0.084662795
0.09569452 0.067654535 0.32292882 0.00072730076 0.01221725 -0.18761584 -0.04327122 -0.109700225
-0.040117506 0.15354192 -0.041777924 0.026151275 -0.029021885 0.030293629 0.14953291 -0.14604792
-0.20357935 -0.0026025902 -0.05289878 0.1880581 -0.10436304 -0.07248301 -0.055129837 0.07740903
-0.24446191 -0.098905176 -0.32050058 0.07979998 -0.029234545 -0.15058534 0.14722793 -0.09625518
-0.048079357 -0.14559574 0.16529706 -0.051595148 0.027662363 0.0059544514 -0.07568078 -0.24068803
-0.0057663205 0.37691897 0.10775976 -0.10435907 -0.027405458 0.08994224 0.12111261 0.2400863
-0.030967675 0.074893564 0.06321462 -0.13397291 -0.08336204 -0.5333069 0.18178731 0.109698154
-0.20542856 0.07992839 0.05970631 0.071201414 -0.10579188 0.015207077 0.011340777 0.054973792
0.0987891 -0.16161825 0.091104575 -0.2837126 0.02774815 0.18806717 -0.05016714 0.033686947
-0.76238143 0.12518713 0.01812169 -0.042378943 0.12240757 -0.24225828 -0.10296354 -0.010842177
-0.05298262 -0.49589348 0.06708292 -0.13206485 -0.060947265 0.42312324 0.06506042 -0.05121757
-0.23910967 -0.016612766 0.051766977 -0.27509186 -0.09848775 -0.07209333 -0.12065824 0.12780559
-0.066576205 -0.043044455 0.062182877 -0.06554666 -0.021802012 -0.18240379 -0.15847875 -0.119318925
-0.1495593 -0.07916874 -0.364357 0.11228545 -0.086137354 -0.017788181 -0.09908994 -0.06722152
-0.0015206959 -0.09773698 -0.09129501 -0.032106936 0.021269841 0.04727684 -0.06367836 -0.01825115
-0.16086502 0.014163001 -0.02206701 -0.14585008 0.28954813 0.042306624 0.02402117 -0.22032289
-0.05623956 -0.08335343 -0.13351277 0.051777426 0.029532926 -0.14711034 -0.035298683 -0.33921915
0.25250533 0.0040012444 -0.066809624 -0.052355852 0.042086054 -0.009569532 -0.095684096 0.19931673
-0.13822041 0.013717993 -0.2668057 -0.20490889 0.04297707 -0.05135869 0.011770413 0.057632785
0.10102998 -0.16126235 -0.115704365 0.15267296 -0.05648241 0.019943038 0.13553606 0.029373521
-0.04448197 -0.05597863 -0.16926292 0.029219177 0.3551341 -0.06812621 0.1260919 -0.027745256
-0.03519224 -0.08199973 -0.07581528 -0.096206434 -0.009081995 0.0075828885 -0.00727894 0.1411693
0.046951797 0.016983198 -0.023318725 -0.26247087 -0.088270806 0.04252002 0.042124633 -0.0715564
0.0072172084 -0.19243366 0.62652093 -0.22007076 0.14921647 0.004848249 -0.1419157 0.15450905
00000000: 26e9 5f3c def2 cebd f90a 663c af5c 463e
00000010: f792 773e 3f43 9f3c ed2f 513e 1182 bb3e
00000020: 49b1 b13d ad5d 88be 0bed d5be 48a4 bebe
00000030: 5ab9 923d 411b 80bc fb1b a83d 049b 4c3e
00000040: 9171 6d3d b22e b43c 845b 533e f5f8 a4be
00000050: 491a 84bd 1e91 753d e298 dbbd f16b 2abe
00000060: 9d49 47bc f76f c4bc 06a6 a1bd d3d7 d73d
00000070: 085a a13d 2b4a 773d 5424 42be a867 08be
00000080: 6e52 15bd 467c 76be 3665 1bbd 56eb 22bd
00000090: 9b61 003d 1d6d d23d 864a c3bd 2518 b0bc
000000a0: 7f4e 0a3e 5db5 f83d 531b 813c a6ff 2cbe
000000b0: d08b 0cbd 43c9 3c3e 4d31 47bc 9f7e a63d
000000c0: 7177 4bbd 6e3f 84be f7cb 763d b6ec 083c
000000d0: e8f1 763e 119b acbb a740 ebbd e540 603e
000000e0: d200 7ebc 1b49 42be ee2a cdbd b74b 013e
000000f0: 1a78 08bc c12c 89bc 4dcd 173d b063 ad3d
00000100: 7dfb c33d 768e 8a3d ed56 a53e 54a8 3e3a
00000110: dc2a 483c 5e1e 40be 2a3d 31bd 83aa e0bd
00000120: 4152 24bd 183a 1d3e 541f 2bbd 333b d63c
00000130: 4ebf edbc 582a f83c 281f 193e 968d 15be
00000140: 1b77 50be 3890 2abb 64ac 58bd 4d92 403e
00000150: 4abc d5bd f971 94bd d3cf 61bd a088 9e3d
00000160: 3954 7abe cc8e cabd a718 a4be 2c6e a33d
00000170: 497d efbc 0b33 1abe ebc2 163e 7021 c5bd
00000180: dcee 44bd 0d17 15be a243 293e 6f55 53bd
00000190: 2e9c e23c 8f1d c33b 86fe 9abd ec76 76be
000001a0: 67f3 bcbb 86fb c03e 26b1 dc3d 35ba d5bd
000001b0: 6981 e0bc a333 b83d e309 f83d 2fd9 753e
000001c0: ecaf fdbc cc61 993d ab76 813d 3230 09be
000001d0: b8b9 aabd cd86 08bf 7426 3a3e 6da9 e03d
000001e0: dd5b 52be 7fb1 a33d 9b8e 743d 0cd2 913d
000001f0: 6aa9 d8bd 1b27 793c abce 393c 332c 613d
00000200: f151 ca3d 417f 25be 0995 ba3d c742 91be
00000210: 1750 e33c ae94 403e 0f7c 4dbd 53fb 093d
00000220: 6e2b 43bf 0e31 003e f073 943c 8b95 2dbd
00000230: d2b0 fa3d 8e12 78be 8cde d2bd 63a3 31bc
00000240: 4e04 59bd c0e5 fdbe c562 893d 023c 07be
00000250: d7a3 79bd 9ca3 d83e 663e 853d 84c9 51bd
00000260: 2ad9 74be 7f17 88bc 9c09 543d d7d8 8cbe
00000270: f2b3 c9bd aba5 93bd ab1b f7bd 78df 023e
00000280: 1b59 88bd 624f 30bd 79b3 7e3d 543d 86bd
00000290: 229a b2bc 0fc8 3abe 4148 22be 7b5d f4bd
000002a0: 1326 19be 3823 a2bd 008d babe eaf5 e53d
000002b0: c868 b0bd 85b8 91bc abef cabd 70ab 89bd
000002c0: 1652 c7ba 532a c8bd e1f8 babd 9082 03bd
000002d0: 173e ae3c 5ca5 413d cd69 82bd 7083 95bc
000002e0: cdb9 24be ef0b 683c e0c5 b4bc b959 15be
000002f0: a73f 943e b649 2d3d 0bc8 c43c 539c 61be
00000300: 745b 66bd 34b5 aabd 92b7 08be 9114 543d
00000310: 09ef f13c 18a4 16be 5a95 10bd 22ae adbe
00000320: 6148 813e df1c 833b 7cd3 88bd 1773 56bd
00000330: 6d62 2c3d 87c9 1cbc 06f6 c3bd af19 4c3e
00000340: a789 0dbe 6fc1 603c c29a 88be a3d3 51be
00000350: b908 303d 7d5d 52bd b1d8 403c 5b10 6c3d
00000360: cee8 ce3d f521 25be 69f6 ecbd 4d56 1c3e
00000370: 195a 67bd 955f a33c f7c9 0a3e bda0 f03c
00000380: ba32 36bd d949 65bd 4253 2dbe 0e5d ef3c
00000390: 23d4 b53e c185 8bbd 3c1e 013e 054a e3bc
000003a0: bd25 10bd 79ef a7bd 0b45 9bbd e107 c5bd
000003b0: a6cc 14bc e179 f83b 2d84 eebb af8e 103e
000003c0: 8750 403d 5920 8b3c e906 bfbc 9562 86be
000003d0: 53c7 b4bd 7929 2e3d e18a 2c3d 298c 92bd
000003e0: 557e ec3b 540d 45be ad63 203f 3b5a 61be
000003f0: 34cc 183e 0fde 9e3b 5952 11be 9f37 1e3e

model/dense_6/MatMul;model/activation_6/Relu;model/dense_6/BiasAdd f4 [100]
-0.9436311 4.321261 4.9452033 1.7566575 16.18696 6.9042616 11.322018 10.17788
-0.32199243 12.219083 11.716512 1.1598812 1.2467682 13.699274 8.852831 2.7011507
8.2285 2.100723 15.473684 12.274858 20.73902 -0.32548982 -7.5593705 -9.167953
4.683513 2.9367094 3.8260412 6.3316503 12.734525 4.663121 -3.8491976 1.4783338
-0.45527542 -2.7508783 6.825261 19.840193 -14.2042 5.6021113 -4.920587 9.331715
5.9607406 6.9667397 1.7682892 -9.404508 12.558951 6.5318494 -3.5136716 5.9504676
1.8706129 2.7128098 2.5834568 -3.0640411 -0.09630505 13.746273 -1.4415251 1.6991129
14.636366 -4.194172 6.8549 11.2485895 6.3166957 0.5991754 -2.8449466 1.6497983
0.58258784 2.6293566 8.252421 -0.8754229 -4.0169353 5.7740135 12.342694 6.7930436
-1.0689589 9.82895 2.4393256 0.45796645 -11.778979 4.4223433 -13.302623 3.2724063
5.516624 4.0880213 -2.391397 16.28132 9.073192 3.4812758 4.869447 1.4793568
-5.0227323 -4.3274813 2.5778384 -5.6656785 9.060163 4.020029 -9.900712 -0.34127358
14.742646 -1.4176421 -4.7274294 -0.46780363
00000000: cf91 71bf c547 8a40 1b3f 9e40 27da e03f
00000010: e57e 8141 b6ef dc40 fc26 3541 99d8 2241
00000020: 31dc a4be 5d81 4341 d576 3b41 fd76 943f
00000030: 1a96 9f3f 3a30 5b41 32a5 0d41 a7df 2c40
00000040: f0a7 0341 3f72 0640 3694 7741 d265 4441
00000050: 83e9 a541 9aa6 a6be 5de6 f1c0 efaf 12c1
00000060: 57df 9540 0cf3 3b40 dcdd 7440 e19c ca40
00000070: 9dc0 4b41 4a38 9540 4159 76c0 0b3a bd3f
00000080: dc19 e9be 640e 30c0 8a68 da40 b7b8 9e41
00000090: 6744 63c1 7f44 b340 7375 9dc0 b44e 1541
000000a0: 63be be40 88ef de40 4d57 e23f dd78 16c1
000000b0: 77f1 4841 e904 d140 ffdf 60c0 3b6a be40
000000c0: 3e70 ef3f ad9e 2d40 5b57 2540 4019 44c0
000000d0: 953b c5bd bcf0 5b41 e583 b8bf 887c d93f
000000e0: 8e2e 6a41 a836 86c0 575b db40 39fa 3341
000000f0: 5f22 ca40 8f63 193f 9b13 36c0 972c d33f
00000100: 7a24 153f 6147 2840 eb09 0441 b71b 60bf
00000110: bc8a 80c0 b8c4 b840 ad7b 4541 9d60 d940
00000120: a5d3 88bf 6143 1d41 e91d 1c40 947a ea3e
00000130: b376 3cc1 d683 8d40 8bd7 54c1 1b6f 5140
00000140: 2f88 b040 12d1 8240 a60c 19c0 2540 8241
00000150: cb2b 1141 39cd 5e40 83d2 9b40 905b bd3f
00000160: 39ba a0c0 ba7a 8ac0 4efb 2440 3d4d b5c0
00000170: 6df6 1041 14a4 8040 5169 1ec1 69bb aebe
00000180: e1e1 6b41 4c75 b5bf 1a47 97c0 f583 efbe
