corintho_ai/rating/tflite_models/model_75.tflite (tflite, 521576 bytes, 27 tensors)

model/dense_1/MatMul;model/activation_1/Relu;model/dense_1/BiasAdd f4 [100]
0	0xc1a2d8be	-20.355831
1	0x4316f201	150.94533
2	0xc28a01d6	-69.003586
3	0x40b9bdf8	5.8044395
4	0x4287db2f	67.92809
5	0x423a7009	46.60941
6	0x42a9d06d	84.90708
7	0xc1fbff8e	-31.499783
8	0xc2402555	-48.036457
9	0x3edcf735	0.43157354
10	0xc0b34c46	-5.6030607
11	0xc264dbcb	-57.21464
12	0x41ab1f9e	21.390438
13	0xc2441b28	-49.02652
14	0xc10afde2	-8.686983
15	0xc293847c	-73.75876
16	0x421af36e	38.737724
17	0x417730b3	15.449389
18	0xc14a141f	-12.629912
19	0x408c2983	4.3800673
20	0x415f4f11	13.956803
21	0xbdd77dec	-0.105220646
22	0x413994f8	11.598869
23	0xc282084b	-65.0162
24	0x42a78dff	83.777336
25	0x4126a806	10.416021
26	0x3fada822	1.3566935
27	0xc1067a85	-8.404912
28	0xc2923b9a	-73.11641
29	0x423b473f	46.819576
30	0xc22df3f5	-43.48824
31	0x411142d4	9.078815
32	0x421a47bd	38.570057
33	0xc21c5287	-39.080593
34	0x429f86c4	79.763214
35	0x427f42b6	63.815147
36	0x41584627	13.517127
37	0xc206c1a9	-33.68912
38	0x41b9cb14	23.22416
39	0x420b1d9c	34.778915
40	0x429f79a3	79.73757
41	0xc1d12f9d	-26.148249
42	0xc257d5c3	-53.95875
43	0xbf9e4fc8	-1.2368097
44	0x41645453	14.270587
45	0xc1fbec80	-31.490479
46	0x3f0f918f	0.5608148
47	0xc2137b3d	-36.87035
48	0xc16b913f	-14.72296
49	0xc0da9d60	-6.831711
50	0x41e2c012	28.343784
51	0xc2667663	-57.615612
52	0x4181c582	16.22144
53	0x431632eb	150.1989
54	0xc0a0eadb	-5.028669
55	0x41f0f55c	30.119804
56	0x414c8e31	12.784715
57	0xc1aeef0e	-21.866726
58	0x41d72eb4	26.897804
59	0xc125266f	-10.321883
60	0x41d07c2c	26.06063
61	0x429b7375	77.7255
62	0xc0857edd	-4.1717362
63	0x421bfe2d	38.99822
64	0x425b6f3f	54.85864
65	0x42bcc243	94.37942
66	0x4305fa2e	133.97726
67	0x4127cb06	10.487066
68	0xc1e103e2	-28.126896
69	0xc2ce7eeb	-103.24789
70	0xc20057ac	-32.085617
71	0xc20a3b0f	-34.557674
72	0xc1549035	-13.285207
73	0x42f1aa95	120.83317
74	0xc11b1693	-9.693011
75	0x42a36e4a	81.71541
76	0xc0b3096a	-5.594899
77	0x410cfa3d	8.811093
78	0xc30552df	-133.32372
79	0xc0b9627e	-5.793273
80	0x41c0eac0	24.114624
81	0x4230c8cf	44.196102
82	0x41a06b6f	20.052458
83	0xc1d86d3a	-27.053333
84	0x40f7050b	7.7193656
85	0x42ab4c16	85.648605
86	0x42330ac1	44.7605
87	0xc1b90167	-23.125685
88	0x42b4d8e1	90.42359
89	0x422062c9	40.09647
90	0x42d55e7d	106.68455
91	0x417dff50	15.874832
92	0x4288c61d	68.38694
93	0x40f989a2	7.798051
94	0x41a7a2ed	20.954554
95	0xc0b69f15	-5.706919
96	0x43221807	162.09386
97	0x421179d1	36.36896
98	0x418aba0f	17.340849
99	0xc2b4db0d	-90.42783

model/batch_normalization/batchnorm/mul_1;model/batch_normalization/batchnorm/add_1;model/dense_1/MatMul;model/activation_1/Relu;model/dense_1/BiasAdd f4 [100, 100]
0	0x3e211522	0.15730718
1	0xbf36925d	-0.7131708
2	0x3ecc3572	0.39884526
3	0x3e18f519	0.14937247
4	0x3fbf1172	1.4927199
5	0x3eb3ac38	0.3509233
6	0xbf8344e9	-1.0255405
7	0xbf88c3a7	-1.0684708
8	0x3de551a8	0.11197215
9	0x3f1b504a	0.60669386
10	0x3ef2027f	0.4726753
11	0x3dffb944	0.124865085
12	0x3e6c524f	0.23078273
13	0x3b13faa8	0.0022579823
14	0xbf27e316	-0.6558088
15	0x3bace9d5	0.0052768984
16	0x3e085a89	0.13315786
17	0xbfcee449	-1.6163417
18	0x3e98cfd6	0.29846066
19	0xbf0d9ed2	-0.55320466
20	0xbdb7f756	-0.089827225
21	0x407af96d	3.9214737
22	0xbda57902	-0.08079721
23	0x3ab06496	0.0013457711
24	0xbdc93ea4	-0.09826401
25	0x3e596878	0.21231258
26	0xbdddedcd	-0.108363725
27	0xbf8d03e0	-1.1016808
28	0x3e339ffb	0.17541496
29	0xbe9be276	-0.30446213
30	0xbcccb4f2	-0.024988625
31	0x3f285291	0.65750986
32	0x3d91aaae	0.07112633
33	0xbefd5f70	-0.49486876
34	0x3d811ddd	0.06304524
35	0xbe0e7f43	-0.13915734
36	0xbe2e29da	-0.17008153
37	0xbe50303d	-0.20330901
38	0xbd37eb99	-0.044902418
39	0x3e116a33	0.14200668
40	0x3ed88d5f	0.42295358
41	0x3f9881fa	1.1914666
42	0x3ed6d0c5	0.41956154
43	0x3e623ac7	0.22092734
44	0xbe73c3d1	-0.23805167
45	0xbe3abb3b	-0.18235485
46	0x3ea1ed1c	0.31626213
47	0xbde356e8	-0.111005604
48	0x3f3c338b	0.7351615
49	0x3e309f63	0.17248301
50	0x3cf260f6	0.02958725
51	0xbfaf43a2	-1.3692515
52	0x3f3a497e	0.7276839
53	0x40a4df07	5.152225
54	0x3e86ce66	0.26329345
55	0xbcf410a7	-0.029793097
56	0xbe205795	-0.1565841
57	0x3eccde8a	0.40013534
58	0x3f8873bd	1.066032
59	0x3f0a7ce1	0.540968
60	0x3ed4b953	0.4154764
61	0xbe05157f	-0.12996481
62	0x3e007177	0.12543283
63	0xbf686666	-0.9078125
64	0x3eaa408f	0.3325238
65	0xbeec9b9e	-0.46212476
66	0xbe45f656	-0.19332251
67	0x3ebc1572	0.3673511
68	0xbd60b544	-0.05486037
69	0x3f5f72aa	0.8728434
70	0x3ef92eae	0.48668426
71	0xbe4acddf	-0.19805096
72	0xbde733b3	-0.11289158
73	0xbdbbf705	-0.091779746
74	0x3f3a983c	0.7288854
75	0xbf460c6a	-0.7736269
76	0xbefb77ce	-0.4911484
77	0xbbeb5353	-0.007181564
78	0x3e16097e	0.14652058
79	0x3eb25492	0.34830147
80	0xbf5e867d	-0.8692396
81	0x3e66ed6e	0.2255151
82	0xbe39215a	-0.18079129
83	0xbdf6e7e6	-0.1205595
84	0xbe8da2fd	-0.27663413
85	0xbe692af3	-0.2277029
86	0xbe0b177c	-0.13583177
87	0xbf6613a3	-0.89873713
88	0xbe10a7ae	-0.14126465
89	0xbe45a3df	-0.19300793
90	0xbf937ae8	-1.1521883
91	0x3f8c0d4d	1.0941559
92	0x3dfb08b7	0.122575216
93	0xbec917a1	-0.3927584
94	0xbe3b7fcb	-0.18310468
95	0x3e48661b	0.195702
96	0x3e8597e9	0.2609246
97	0xbdfb37a9	-0.12266476
98	0xbec2ad4e	-0.38022846
99	0xbe33f161	-0.17572547
100	0xbf7dc242	-0.9912454
101	0xbf9678a3	-1.1755565
102	0xbeb1c347	-0.34719297
103	0x3d4e6338	0.05038759
104	0xbf99e133	-1.202185
105	0x4002cf0d	2.0438874
106	0x3f324284	0.69632745
107	0x3e62c2fd	0.22144695
108	0x3d0e6c1c	0.03477107
109	0xbf170564	-0.589926
110	0x3e911b85	0.28341308
111	0x3d3fea62	0.046854384
112	0xbf9170d9	-1.1362563
113	0xbe1ac331	-0.15113522
114	0xbeb8f73f	-0.36126134
115	0xbf4654c6	-0.77473104
116	0x3d2c754d	0.042104054
117	0xbfcea08b	-1.6142744
118	0xbf7ab2f9	-0.9792934
119	0xbd853db2	-0.06505908
120	0xbef87e1f	-0.48533723
121	0x3d6bc781	0.05756331
122	0xbe026a8f	-0.12735961
123	0xbcd3a2ad	-0.025834406
124	0x3e0898eb	0.13339584
125	0xbd68b238	-0.056810588
126	0xbecdf19f	-0.40223405
127	0xbdeb9727	-0.115034394
128	0xbe6cccab	-0.2312495
129	0x3ded7320	0.11594224
130	0x3b84452a	0.0040365653
131	0x3e8cdbdf	0.27511498
132	0x3d2d00a0	0.042236924
133	0xbc7d5011	-0.015460984
134	0xbf0b2d11	-0.5436564
135	0x3d1325d1	0.035924736
136	0xbed9da80	-0.42549515
137	0xbfeec28c	-1.8653121
138	0xbf3a8a1d	-0.72866994
139	0xbf56d96e	-0.8392552
140	0x3e640caf	0.22270463
141	0xbec361de	-0.38160604
142	0xbf863a9f	-1.048664
143	0xbe408a42	-0.18802741
144	0xbe1bef67	-0.15228043
145	0xbf8d0fea	-1.1020482
146	0x3d84a5c2	0.06476928
147	0x3e13347a	0.14375487
148	0xbe39423f	-0.18091677
149	0x3e9689c7	0.2940199
150	0x3dd6c9da	0.10487719
151	0x3fb3e4e2	1.4054224
152	0xbeb3ee97	-0.35142967
153	0x3f647b1e	0.8925036
154	0x3c8e98da	0.01740687
155	0xbebc6ce2	-0.3680182
156	0xbf11e95f	-0.5699672
157	0x3f86dd32	1.0536253
158	0x3febddd6	1.8427074
159	0x3e31f7bc	0.1737966
160	0x3e4080d3	0.18799143
161	0x3f25185e	0.64490306
162	0x3d83308b	0.06405743
163	0xbf66589c	-0.8997896
164	0xbf658e06	-0.89669836
165	0xbee679e2	-0.45014864
166	0x3e8d3ceb	0.2758554
167	0x3f5d68c6	0.86487997
168	0xbec41b56	-0.38302106
169	0xbe121726	-0.14266643
170	0x3ca23ae9	0.019803481
171	0x3ee323d6	0.44363278
172	0x3e860972	0.2617908
173	0x3e2b2682	0.16713908
174	0xbe8c75a2	-0.27433497
175	0xbf01841b	-0.505922
176	0xbf0876ab	-0.5330607
177	0xbf2e026e	-0.6797246
178	0x3f295354	0.66142774
179	0x3def346e	0.11679922
180	0x3c0199f9	0.007910245
181	0xbf885fbf	-1.0654219
182	0x3f2f7b1a	0.68547213
183	0x3f49e724	0.7886832
184	0xbe1a323d	-0.15058227
185	0x3e28e982	0.16495326
186	0x3c9135cf	0.017725853
187	0x3ec4f844	0.38470662
188	0x3e5c4393	0.21510153
189	0x3e15be7f	0.1462345
190	0xbe8ae2b7	-0.27126095
191	0x3f64cf7c	0.89379096
192	0xbefab1d0	-0.48963785
193	0xbf059090	-0.5217371
194	0xbf275a6f	-0.65372366
195	0xbe2fa467	-0.17152558
196	0xbe9568d3	-0.29181537
197	0xbf34d397	-0.7063536
198	0xbf4f92ac	-0.8108318
199	0xbe2882e3	-0.1645618
200	0x3f6f08f5	0.9337304
201	0xbf202d43	-0.62569064
202	0x3cbfb82a	0.023403246
203	0x3e4e58d6	0.20151076
204	0x3f86bd67	1.0526551
205	0xbc0cb676	-0.008588424
206	0x3f869cff	1.0516661
207	0xbfb8720e	-1.4409807
208	0xbf7efb85	-0.9960254
209	0xbf38d788	-0.72203875
210	0xbd9f02fb	-0.0776424
211	0x4008bb30	2.136425
212	0xbd2f9ce3	-0.04287423
213	0x3d5eb9b0	0.054376304
214	0xbe730a4f	-0.23734401
215	0x3f0ac540	0.5420723
216	0x3eac0b1b	0.33602223
217	0xbf0b0fc4	-0.5432093
218	0xbfa12727	-1.2590073
219	0x3c8549a4	0.016270466
220	0xbd808e19	-0.06277103
221	0xbf867739	-1.0505134
222	0xbbafd6b3	-0.0053661703
223	0x3d873f25	0.06603841
224	0x3b40fd0d	0.0029447705
225	0xbd36791a	-0.044549085
226	0xbefadd08	-0.48996758
227	0x3dd3c81e	0.10340904
228	0x3f53a414	0.8267224
229	0x3e98a36d	0.29812184
230	0x3f5257e0	0.82165337
231	0x3f289823	0.6585714
232	0xbe0957bc	-0.13412374
233	0x3eb06b20	0.3445673
234	0x3f39ec02	0.72625744
235	0xbc871770	-0.016490668
236	0xbe0a8625	-0.13527735
237	0x3e107666	0.14107665
238	0x3f16523e	0.5871924
239	0xbf6a5cd3	-0.9154789
240	0x3e7bda87	0.2459508
241	0xbe04d7cc	-0.12972945
242	0x3f975377	1.1822346
243	0x3daf55f6	0.085613176
244	0x3e49039c	0.19630283
245	0xbfa09ca4	-1.2547803
246	0x3f6904b7	0.9102282
247	0x3e050bb9	0.12992753
248	0xbfc6e602	-1.5538943
249	0xbc0d1905	-0.008611922
250	0x3e27865f	0.16359852
251	0x3ee78045	0.4521505
252	0xbec682e7	-0.38771746
253	0x3d4d36f0	0.05010122
254	0xbd972319	-0.07379741
255	0x3e9370fb	0.28797135

model/dense_2/MatMul;model/activation_2/Relu;model/dense_2/BiasAdd f4 [100]
0	0x42917bc9	72.74177
1	0xc2ad5f26	-86.68584
2	0xc0a330ea	-5.099721
3	0xc287542d	-67.664406
4	0xc1645f3a	-14.273249
5	0x4182403b	16.281363
6	0x41e88160	29.063171
7	0x4205b6b5	33.428425
8	0xc1961c36	-18.763775
9	0x4099ba9b	4.804029
10	0xc11c0d67	-9.753272
11	0xc18378bc	-16.433952
12	0xc0656f20	-3.5849075
13	0x4194c895	18.59794
14	0xbfadb6c2	-1.3571398
15	0xc29ee48e	-79.446396
16	0xc274321f	-61.048946
17	0x419f717d	19.930414
18	0x3f3bfcd3	0.73432654
19	0xc0a3e34b	-5.1214957
20	0x427ecba5	63.69887
21	0x40d07a80	6.5149536
22	0x4204c6e2	33.19422
23	0x419a8f32	19.31992
24	0x3fb9e362	1.4522517
25	0x41ab9a06	21.450207
26	0xc056bdc0	-3.3553314
27	0x4279bbfd	62.433582
28	0xc193a123	-18.45368
29	0x41539217	13.223166
30	0x40999474	4.7993717
31	0x41790957	15.56478
32	0x4212eee5	36.733295
33	0xc1642c60	-14.260834
34	0x41c59351	24.696932
35	0xc2797ad3	-62.369946
36	0x42bbe237	93.941826
37	0xc1ccd355	-25.60319
38	0xc1d4de43	-26.608526
39	0xc1aada8a	-21.356709
40	0xc18a9756	-17.323895
41	0xc287897b	-67.76852
42	0xc037b805	-2.8706067
43	0xc1bdf123	-23.742743
44	0xc2428240	-48.627197
45	0x4230faeb	44.245037
46	0xc1ee4956	-29.785809
47	0xc19b8690	-19.440704
48	0xc21ae975	-38.727985
49	0x41647d0a	14.280527
50	0x428d7f0b	70.74813
51	0x42962745	75.0767
52	0x41a3278f	20.394316
53	0x4098d3ad	4.7758393
54	0x3fd232be	1.6421735
55	0x408d7276	4.4202223
56	0x40b3113c	5.595854
57	0x4283102a	65.53157
58	0x422f581c	43.836044
59	0xc2109d6b	-36.15373
60	0xc16f1bd1	-14.944291
61	0xc11949f2	-9.580553
62	0xc18bc781	-17.472414
63	0x430a1c4c	138.11053
64	0x41b2b0de	22.33636
65	0x41842a99	16.5208
66	0xc288d8e6	-68.42363
67	0xc246ca76	-49.697716
68	0x40f9a6e3	7.801622
69	0x423e524c	47.580368
70	0xc320375d	-160.21626
71	0x41ed4ef6	29.663555
72	0xc15a1565	-13.630223
73	0x41946576	18.549541
74	0xc26325ef	-56.787045
75	0xc1ee38fa	-29.77782
76	0x420e68ce	35.60235
77	0xc210402c	-36.062668
78	0xc2039b46	-32.901634
79	0x42777bb1	61.870792
80	0x42836275	65.6923
81	0x4254482c	53.07048
82	0x424b665d	50.849964
83	0x420f9170	35.89203
84	0xc14223c1	-12.133729
85	0xc2775148	-61.829376
86	0x3f75624a	0.958531
87	0x4245d36f	49.45648
88	0x421aad0c	38.66899
89	0x420070d5	32.110188
90	0xc24c1540	-51.020752
91	0x41c7289e	24.894833
92	0x41cb0174	25.37571
93	0x41a244cd	20.283594
94	0xc1c49cb3	-24.576513
95	0x428b33f2	69.601456
96	0x42a36e5b	81.71554
97	0x4249d799	50.460545
98	0x413a0dda	11.628382
99	0xc1a43702	-20.52686

model/batch_normalization_1/batchnorm/mul_1;model/batch_normalization_1/batchnorm/add_1;model/dense_2/MatMul;model/activation_2/Relu;model/dense_2/BiasAdd f4 [100, 100]
0	0xbd0a2f5f	-0.033736583
1	0xbd20c56f	-0.039250787
2	0x3e9d26b0	0.3069358
3	0x3d453f54	0.048156098
4	0xbe5dae20	-0.21648455
5	0xbe242e29	-0.16033234
6	0x3dfe9f00	0.124326706
7	0xbd58ee84	-0.05296184
8	0x3e5e902a	0.21734682
9	0xbd28d485	-0.0412183
10	0x3e03ce50	0.1287167
11	0x3e3d5413	0.18489103
12	0x3dcd8eb5	0.10036985
13	0xbe29cb3d	-0.16581436
14	0xbe6d236d	-0.23158045
15	0x3da6fdae	0.08153854
16	0x3aa4f385	0.0012584782
17	0xbe640619	-0.22267951
18	0x3e196c44	0.14982706
19	0xbba336f8	-0.004980918
20	0xbde63717	-0.11240976
21	0xbd2efe0c	-0.042722747
22	0x3d8bc1a6	0.06824045
23	0x3de974ab	0.11399206
24	0xbde8f25a	-0.1137435
25	0xbd326830	-0.043556392
26	0xbcba6cf6	-0.022757035
27	0x3d0dc0f1	0.03460783
28	0xbe348e82	-0.17632487
29	0xbdce6ab6	-0.10078947
30	0xbc806612	-0.01567367
31	0x3afecf48	0.0019440437
32	0xbe8fa1e4	-0.280532
33	0x3d03c62d	0.032171417
34	0xbd35e1b5	-0.044404704
35	0x3e17cbf3	0.14823894
36	0xbd5033ee	-0.050830774
37	0x3d5aa5eb	0.053380888
38	0x3d6530f9	0.055954907
39	0xbe002bca	-0.12516704
40	0xbce78635	-0.028262237
41	0xbe43f185	-0.19135101
42	0xbe9acf97	-0.30236503
43	0x3dc0e7af	0.0941919
44	0x3d4c95d7	0.049947586
45	0xbcb9bcdc	-0.022673063
46	0xbde36130	-0.111025214
47	0xbdbad2f8	-0.0912227
48	0xbdc02014	-0.093811184
49	0x3cde6f5a	0.027152706
50	0x3da58238	0.08081478
51	0x3d63a34b	0.05557565
52	0xbc0cdb1b	-0.008597161
53	0xbe562d66	-0.20915756
54	0xbdf3d5d6	-0.1190602
55	0xbd49637f	-0.049167152
56	0x3cf123f6	0.029436093
57	0x3d27fd03	0.041012775
58	0x3e46d12e	0.19415733
59	0xbd5cab30	-0.053874195
60	0x3e131514	0.1436351
61	0xbdda623a	-0.106632665
62	0x3db8d7e1	0.09025551
63	0xbe82255a	-0.25419122
64	0xbb41058a	-0.0029452764
65	0x3d52089e	0.05127775
66	0x3d996005	0.074890174
67	0xbd0bf134	-0.034165576
68	0xbcb481de	-0.022034582
69	0xbccd6405	-0.025072107
70	0xbe6c0b25	-0.23051126
71	0xbe22eacb	-0.15909879
72	0xbb0827dc	-0.002077571
73	0xbd5fe5e1	-0.05466259
74	0xbe8242f9	-0.2544172
75	0xbd8fac38	-0.0701527
76	0x3ddb7461	0.10715557
77	0xbcbca34b	-0.023027083
78	0xbd7c30c2	-0.061569937
79	0xbe9e4267	-0.30910036
80	0x3da04a5d	0.07826684
81	0xbdc78cf1	-0.09743679
82	0x3d843f7c	0.06457421
83	0x3d4908a8	0.04908052
84	0xbd1b0f0b	-0.037856143
85	0xbc87aeb3	-0.016562795
86	0x3db5c713	0.08875861
87	0xbc70bef8	-0.014693968
88	0xbe09928f	-0.13434814
89	0x3d57f0ae	0.052719764
90	0x3d9c573c	0.07633826
91	0xbcb3bf59	-0.021941828
92	0xbda1d949	-0.07902772
93	0xbe3244ee	-0.17409107
94	0xbe9b6200	-0.30348206
95	0x3e42d453	0.19026308
96	0x3e4fe517	0.20302235
97	0xbedefe05	-0.43553177
98	0x3db404ae	0.08789955
99	0xbeaa02b2	-0.3320518
100	0xbd36d080	-0.044632435
101	0x3d370e09	0.04469112
102	0xbbc45971	-0.0059921076
103	0xbd5afd8f	-0.05346447
104	0x3ccdc584	0.025118597
105	0x3d815229	0.06314499
106	0x3d758423	0.05994047
107	0x3d1fe08e	0.03903251
108	0x3d6af6da	0.057364322
109	0x3d73301f	0.059372064
110	0xbced08f3	-0.028934931
111	0x3d3ceb66	0.04612293
112	0xbd00f886	-0.03148701
113	0xbd9fee29	-0.07809097
114	0x3dad8a76	0.08473675
115	0x3d974ee8	0.07388097
116	0x3b8d762d	0.004317066
117	0xbc3e52bd	-0.011616406
118	0xbdd9a66e	-0.10627447
119	0x3da56958	0.08076733
120	0xbe0bd332	-0.13654783
121	0x3cd05d04	0.025434978
122	0x3dd97488	0.1061793
123	0x3dbb8444	0.09156087
124	0x3c50d07d	0.01274502
125	0x3cefbdf8	0.029265389
126	0xbde8a469	-0.11359484
127	0xbdd24d2b	-0.10268625
128	0x3cddfa21	0.02709681
129	0xbd04f979	-0.03246448
130	0x3e61bed2	0.22045448
131	0x3e8d26bf	0.27568623
132	0x3de03a3b	0.109486066
133	0xbc9a7731	-0.018855663
134	0x3d9e8096	0.077393696
135	0xbcaf94c2	-0.021433238
136	0xbd15eea2	-0.03660453
137	0x3df34ab2	0.118794814
138	0xbd2e9d7a	-0.04263065
139	0x3ceb9284	0.028756388
140	0xbc5092c0	-0.0127303
141	0x3c278ece	0.010226918
142	0x3c9aca32	0.018895242
143	0x3c17111c	0.009220388
144	0x3db73dc9	0.089473315
145	0x3dbd39f9	0.09239573
146	0x3da5e25e	0.08099817
147	0x3d489afe	0.048975937
148	0x3d9aaded	0.07552705
149	0x3d8dc4de	0.06922315
150	0x3d7ee294	0.0622278
151	0xbde9d61c	-0.11417791
152	0x3e6e55d3	0.23274927
153	0x3f5e419c	0.8681886
154	0x3db9da18	0.09074801
155	0x3da49334	0.08035889
156	0x3e22ce6c	0.15899056
157	0x3cf7ae08	0.030234352
158	0x3c9b1f4c	0.018935822
159	0x3d127692	0.03575761
160	0x3d484d1c	0.048901662
161	0xbdff5192	-0.1246673
162	0x3ead2b87	0.3382227
163	0x3d998206	0.07495503
164	0x3d4fd18f	0.05073696
165	0x3d971489	0.07376964
166	0xbe3585b7	-0.1772679
167	0xbcddb73b	-0.02706491
168	0x3d31c6e1	0.043402556
169	0xbd42cd81	-0.047559265
170	0xbdb5ced6	-0.088773414
171	0x3d0da3e2	0.03458012
172	0xbc358030	-0.011077926
173	0x3e8dbda2	0.2768374
174	0x3cdccabf	0.026952146
175	0xbdf8c75f	-0.12147402
176	0x3dce376f	0.10069167
177	0x3dc1b60b	0.0945855
178	0xbcb7c61d	-0.022433335
179	0xbdfe39e9	-0.12413389
180	0x3d7e760f	0.06212431
181	0x3b054f05	0.0020341289
182	0x3d19ff2c	0.037596866
183	0x3e32d879	0.1746539
184	0x3d02aae0	0.03190124
185	0xbc1dd471	-0.0096331695
186	0xbd5d636d	-0.054049898
187	0xbb4223e5	-0.0029623446
188	0x3caff697	0.021479888
189	0x3dc18f41	0.09451152
190	0x3ef04d5d	0.46934023
191	0x3d500ede	0.05079543
192	0xbe59adc4	-0.21257693
193	0x3e14bd1e	0.14525267
194	0xbc157dbf	-0.0091242185
195	0xbde1d75d	-0.110274054
196	0xbe69102d	-0.22760077
197	0xbb31d8a4	-0.0027137185
198	0xbea26dac	-0.31724298
199	0xbdefe3d9	-0.1171338
200	0x3e9f5dc2	0.3112622
201	0x3e447fae	0.19189331
202	0xbd280a04	-0.041025177
203	0x3dbc16b3	0.09184017
204	0x3b553987	0.003253551
205	0xbb80ca7a	-0.003930387
206	0x3d8873f7	0.066627435
207	0xbc3cb882	-0.011518599
208	0xbd8f645e	-0.070015654
209	0x3e3f61bd	0.18689628
210	0x3cd3d8e4	0.025860257
211	0x3d704dac	0.058667824
212	0xbc1606e3	-0.009156915
213	0xbdc917f0	-0.09819019
214	0xbd1aab93	-0.037761282
215	0xbe63aebf	-0.22234629
216	0x3d1cd593	0.038289618
217	0x3cf15f50	0.029464394
218	0xbd86d622	-0.06583811
219	0x3e0dbe7c	0.13842195
220	0x3e294b5c	0.16532654
221	0xbc398fa3	-0.01132575
222	0xba6e5f72	-0.0009093202
223	0x3bf7aa90	0.0075581744
224	0xbd1fae9f	-0.03898489
225	0xbdafcb95	-0.08583752
226	0xbbd111c7	-0.006380293
227	0xbd288329	-0.04114071
228	0x3d8190ac	0.06326422
229	0xbba4e447	-0.0050320956
230	0xbc971248	-0.018441334
231	0x3df8ff40	0.1215806
232	0xbdeebf84	-0.116576225
233	0x3d4d1249	0.050066266
234	0xbe12eaf2	-0.14347437
235	0xbd34d76b	-0.04415075
236	0x3d97714d	0.07394657
237	0x3c560f93	0.013065237
238	0xbcef1b9d	-0.029187972
239	0x3db625c0	0.08893919
240	0x3d711e28	0.05886665
241	0x3f15c086	0.5849689
242	0x3d93514d	0.07193241
243	0x3d637060	0.05552709
244	0x3e2b3c78	0.16722286
245	0x3d34d013	0.044143748
246	0xbd25e715	-0.04050358
247	0x3cb4d791	0.022075446
248	0xbd93fa58	-0.07225484
249	0x3d95c12d	0.07312236
250	0x3de15164	0.11001852
251	0xbc1e0892	-0.009645598
252	0xbd200232	-0.039064594
253	0xbc22f76f	-0.009946688
254	0xbd9b8431	-0.07593573
255	0xbb21a5e8	-0.0024665538

model/dense_3/MatMul;model/activation_3/Relu;model/dense_3/BiasAdd f4 [100]
0	0xc1ea2c12	-29.271519
1	0x42477a19	49.869236
2	0x413d56b5	11.833669
3	0xc0d899bd	-6.768767
4	0x4176c877	15.423942
5	0xc19d5c49	-19.670061
6	0xc090fed1	-4.5311055
7	0x41906e09	18.053728
8	0x4240516c	48.079514
9	0x41b90235	23.126078
10	0x423ad64f	46.709286
11	0x424b440d	50.816456
12	0x424177f6	48.36715
13	0x3e518654	0.20461398
14	0x41585ecb	13.523143
15	0x41010ba3	8.065341
16	0xc1025211	-8.145036
17	0x41839907	16.44972
18	0x4117eaaa	9.494791
19	0xc09d0e15	-4.907969
20	0x42046f22	33.10853
21	0xc1136109	-9.21119
22	0xbf6d05dc	-0.92587066
23	0x420f7df8	35.873016
24	0x4245e0f4	49.46968
25	0x4272e091	60.719303
26	0x41f94463	31.158392
27	0xc0db66c4	-6.8562946
28	0xc166cfac	-14.425701
29	0xc248bc50	-50.1839
30	0x41691078	14.566521
31	0x41b64722	22.784733
32	0x41c55dad	24.67074
33	0xbfb0f183	-1.3823704
34	0x4161a8ff	14.103759
35	0x428ab384	69.35062
36	0xbfe19124	-1.7622418
37	0x41e14bc8	28.162003
38	0xc21410b6	-37.01632
39	0x4123e784	10.244022
40	0x4225df16	41.467857
41	0x422cdaa1	43.213505
42	0x425c71aa	55.111
43	0xc1e46866	-28.550976
44	0x407e9349	3.9777396
45	0x40c301a4	6.0939503
46	0xc1b356b0	-22.417328
47	0x40bf9b6d	5.987723
48	0x41d873c5	27.056528
49	0x3f169344	0.5881846
50	0x41635652	14.208574
51	0xc20ae581	-34.724125
52	0xc18d50a4	-17.664375
53	0xc21db2fe	-39.424797
54	0xc1edb506	-29.71339
55	0x41970030	18.875092
56	0x3f1cc9fc	0.61245704
57	0xc193e86a	-18.488483
58	0x4121dab6	10.115896
59	0x41abed77	21.49095
60	0xc0824901	-4.0714116
61	0x401adc76	2.4197059
62	0x40f949a1	7.790238
63	0x41b08608	22.065445
64	0xc16ba76b	-14.728374
65	0x40adada0	5.4274445
66	0x41319621	11.099153
67	0xbe95390b	-0.29145083
68	0x419bc389	19.470476
69	0xc0bb2211	-5.8479085
70	0xc08d8892	-4.422921
71	0x4118303a	9.511774
72	0xbf7466d6	-0.95469415
73	0xc1e7f048	-28.992325
74	0x4210178b	36.02299
75	0xbf873add	-1.0564839
76	0xc1b7779e	-22.933407
77	0x412b5c57	10.710044
78	0x402fc1bd	2.7461998
79	0xc21af593	-38.73982
80	0xc23ca888	-47.16458
81	0x3c9b406a	0.018951613
82	0x3ef573e2	0.47939974
83	0x41ea4e12	29.28812
84	0xc017542e	-2.364513
85	0xc1c27d9a	-24.311329
86	0x4176c7c9	15.423776
87	0x4033ff9f	2.8124769
88	0xc14b0f1b	-12.691188
89	0x412a311d	10.636991
90	0xc0cb9c53	-6.3628325
91	0x42106088	36.09427
92	0xc0a629f0	-5.1926193
93	0xc010f0c6	-2.2646956
94	0x41c9272c	25.144127
95	0xc26bd7c5	-58.960712
96	0x4071e8e2	3.779839
97	0x41c52e00	24.64746
98	0x41d03047	26.023573
99	0x407797d9	3.868643

model/batch_normalization_2/batchnorm/mul_1;model/batch_normalization_2/batchnorm/add_1;model/dense_3/MatMul;model/activation_3/Relu;model/dense_3/BiasAdd f4 [100, 100]
0	0x3dadf221	0.08493448
1	0x3ce59b12	0.028028045
2	0xbcaa4df9	-0.020789133
3	0x3ce2b3a1	0.027673544
4	0x3d484320	0.04889214
5	0xbd43a0e0	-0.047760844
6	0x3d880ab1	0.06642664
7	0x3e61b9d2	0.22043541
8	0xbdfc3669	-0.123150654
9	0xbd1a7354	-0.03770764
10	0xbe863209	-0.2621005
11	0xbd2de1f1	-0.042451803
12	0xbde3a5b7	-0.11115592
13	0xbd78d915	-0.0607539
14	0x3d448355	0.04797681
15	0x3cb41fcd	0.02198782
16	0xbca12d4a	-0.019674916
17	0x3dff1556	0.124552414
18	0x3d9e9f75	0.07745258
19	0x3bf83467	0.007574606
20	0xbb87792e	-0.004134319
21	0x3d8a7cd2	0.06762089
22	0x3f115d72	0.5678321
23	0xbd93c3fa	-0.07215114
24	0x3d148bd2	0.036266156
25	0xbcdd9b92	-0.02705172
26	0x3d9962c1	0.07489539
27	0x3c9cac59	0.01912515
28	0xbe509f4b	-0.20373265
29	0xbe03df2a	-0.12878099
30	0xbd943db7	-0.07238334
31	0xbdb55edc	-0.088559836
32	0xbc5eaff2	-0.013591753
33	0xbb7c111f	-0.0038462353
34	0xbe5caa26	-0.21549281
35	0xbe3b7265	-0.18305357
36	0x3ddfa084	0.10919288
37	0xbd2a23f7	-0.041538205
38	0xbd436aa8	-0.047709137
39	0xbcbc6d1e	-0.02300125
40	0xbc98ecf6	-0.01866768
41	0x3c676b3d	0.014124689
42	0x3cafdae5	0.021466682
43	0x3e2551ed	0.16144533
44	0xbc8db307	-0.017297281
45	0xbc9d10c8	-0.019173041
46	0x3dc49871	0.095993884
47	0xbe73db5d	-0.23814149
48	0x3dc622d8	0.09674615
49	0x3e8f8f51	0.2803903
50	0x3db4b8d2	0.08824314
51	0x3da4d7f8	0.08049005
52	0x3d4a1c8d	0.049343634
53	0x3d8e8c98	0.0696041
54	0xbdafbfa2	-0.08581473
55	0x3d89d827	0.06730681
56	0x3dae7de1	0.08520103
57	0x3e7149b3	0.2356327
58	0x3de037b4	0.109481245
59	0xbd3b3e44	-0.045713678
60	0xbe039282	-0.12848857
61	0xbc0c65cd	-0.008569193
62	0xbd992acc	-0.07478866
63	0xbdbc477e	-0.091933236
64	0x3e26a8da	0.1627535
65	0x3c3517df	0.011053055
66	0xc085d13a	-4.1817904
67	0x3d7b8226	0.061403416
68	0x3da99735	0.082807936
69	0x3e27d232	0.16388777
70	0xbc6d04b4	-0.014466453
71	0xbdf16dc3	-0.117885135
72	0x3d0507ec	0.032478258
73	0xbd3c33b2	-0.045947738
74	0x3d0844ae	0.033268623
75	0x3d91e6ca	0.07124098
76	0xbce09296	-0.027413648
77	0x3dc7c7ab	0.097548805
78	0xbd024be3	-0.031810652
79	0x3daf59dc	0.08562061
80	0x3c387ef7	0.0112607395
81	0xbe03af98	-0.12859952
82	0x3d11289d	0.035439122
83	0xbc830a25	-0.015996048
84	0x3c9a952e	0.018869963
85	0xbd93705b	-0.071991645
86	0x3d9f95e7	0.077922635
87	0xbe1b8d90	-0.1519072
88	0x3e92c01b	0.2866219
89	0x3eddfb5b	0.43355832
90	0xbdcebd08	-0.100946486
91	0xbe00cbd2	-0.12577751
92	0x3bbfc802	0.0058527
93	0x3e0fcd51	0.14043166
94	0x3db9994c	0.09062442
95	0x3be56835	0.007000948
96	0x3c23b850	0.009992674
97	0xbe92aaef	-0.28646037
98	0xbe0483eb	-0.12940948
99	0xbc8f3331	-0.017480465
100	0xbe90ad53	-0.28257236
101	0xbce6c845	-0.028171668
102	0xbeda9b5d	-0.42696658
103	0xbcb236d6	-0.021754663
104	0xbde8f89c	-0.113755435
105	0x3d3b3e19	0.045713518
106	0x3d71ded7	0.059050407
107	0x3e0a0ce5	0.13481481
108	0xbdbf2e8f	-0.09335052
109	0xbe8d16e3	-0.27556524
110	0x3db8cdfc	0.090236634
111	0x3e1fb0dc	0.1559481
112	0xbbd8db73	-0.0066179573
113	0xbe27ceb0	-0.16387439
114	0x3e33a112	0.17541912
115	0x3b43dd7d	0.0029886656
116	0xbc3b2bb9	-0.0114239985
117	0xbdcdd33e	-0.10050057
118	0xbde3d6df	-0.11124968
119	0xbe0df258	-0.13861978
120	0xbd75d0ee	-0.060013704
121	0x3d3f2c1e	0.046672933
122	0xbe3046b8	-0.17214477
123	0xbd9bc518	-0.07605952
124	0x3e47bd72	0.19505861
125	0xbe28679a	-0.16445771
126	0x3ed6a0e7	0.41919634
127	0x3e4a4f94	0.19756919
128	0x3dfca16b	0.123354755
129	0x3de4f38f	0.111792676
130	0xbe18a3a1	-0.1490617
131	0x3ea5a422	0.32351786
132	0x3dd24e37	0.102688245
133	0x3dcce6c0	0.100049496
134	0xbc69b3a4	-0.014264021
135	0xbe0093c0	-0.12556362
136	0x3cc42f31	0.023948284
137	0x3d868291	0.06567872
138	0xbd9b5c6b	-0.07585987
139	0x3e6c1468	0.2305466
140	0xbdf9300a	-0.12167366
141	0xbd1dc7fb	-0.038520794
142	0x3b7a8648	0.003822701
143	0xbdb1b00d	-0.08676157
144	0x3e1e7ee0	0.15478086
145	0x3d43841f	0.047733422
146	0xbd7c979a	-0.061668016
147	0xbee9f64e	-0.45695728
148	0x3d8978f8	0.06712526
149	0xbe81986b	-0.25311598
150	0x3d1589ca	0.03650836
151	0x3e8c2beb	0.27377257
152	0xbda65d35	-0.081232466
153	0xbe878297	-0.2646682
154	0xbe2ac42f	-0.166764
155	0xbe24cb81	-0.16093256
156	0xbc325e62	-0.01088676
157	0xbd6c2518	-0.057652563
158	0xbe6243ef	-0.22096227
159	0x3e22a470	0.1588304
160	0x3dadb675	0.084820665
161	0x3e4cb5c2	0.1999121
162	0x3d7271e4	0.059190646
163	0xbde67f00	-0.11254692
164	0xb9848845	-0.0002527853
165	0xbd12ef28	-0.03587261
166	0xbc898c17	-0.016790433
167	0xbcf2b93e	-0.029629346
168	0x3d436109	0.04769996
169	0xbdf4cb4b	-0.119528376
170	0xbc34ac6f	-0.0110274395
171	0x3dee665e	0.11640619
172	0x3e027967	0.12741624
173	0xbc81996d	-0.01582023
174	0xbca572ac	-0.020196281
175	0xbd854771	-0.06507767
176	0xbe1fa178	-0.15588939
177	0x3c0b0e17	0.008487246
178	0xbcde3455	-0.027124563
179	0x3e9a3906	0.3012163
180	0xbd6104e9	-0.054936323
181	0xbe0b49f2	-0.13602427
182	0x3e055829	0.13021912
183	0xbe80ce9f	-0.2515764
184	0xbd86ddbd	-0.06585262
185	0x3cf5bf1c	0.029998355
186	0x3e5d018d	0.21582623
187	0xbe8eb33e	-0.27871126
188	0xbe5b7797	-0.21432339
189	0xbd8b176b	-0.06791576
190	0x3d89a9b5	0.06721822
191	0x3e1c300e	0.15252706
192	0x3e0c41a8	0.13696921
193	0x3c551e77	0.013007752
194	0xbe10cf5a	-0.14141598
195	0xbdc8559c	-0.09781954
196	0x3d511380	0.051043987
197	0xbe3b4db9	-0.18291368
198	0x3d651a54	0.05593331
199	0xbb908ac0	-0.0044110715
200	0x3dc2727e	0.09494494
201	0x3e3bd7be	0.18344018
202	0xbd8f96c3	-0.070111774
203	0xbddcab11	-0.10774816
204	0x3d83f19e	0.06442569
205	0xbc54a798	-0.012979411
206	0x3d8b6054	0.068054825
207	0x3d732dd4	0.059369877
208	0x3dc801cc	0.09765968
209	0x3e0f3f4c	0.1398899
210	0xbdf21e3a	-0.118221715
211	0x3e0cbd20	0.1374402
212	0xbd06d30b	-0.03291611
213	0xbe7cf6d0	-0.24703526
214	0x3cc10dfa	0.023566235
215	0x3e0e609a	0.13904038
216	0x3e0a3fe4	0.13500935
217	0x3b421db3	0.0029619753
218	0xbdeeec16	-0.116661236
219	0x3db06568	0.08613092
220	0xbd854ce4	-0.06508806
221	0x3d9809d0	0.074237466
222	0x3d00aaa4	0.031412736
223	0xbc3d3790	-0.011548892
224	0xbe1d6ea7	-0.15374242
225	0x3d1d2a8a	0.038370647
226	0xbda92c97	-0.08260458
227	0xbd27c2aa	-0.04095713
228	0x3dca4e49	0.09878213
229	0x3d67718a	0.056504764
230	0xbe13e8ab	-0.14444225
231	0xbdbfdb82	-0.0936804
232	0xbe655dae	-0.22399017
233	0xbc393122	-0.011303218
234	0xbcf27740	-0.029597878
235	0x3d2e37f9	0.04253385
236	0x3d5f0793	0.054450583
237	0x3e23a2c6	0.15980062
238	0x3d016243	0.03158785
239	0xbdf3d17b	-0.119051896
240	0x3c7a9ad0	0.015295699
241	0xbd8f8803	-0.07008364
242	0xbe70a0d1	-0.23498847
243	0x3da79986	0.08183579
244	0x3d8f6702	0.07002069
245	0xbe8c7e16	-0.27439946
246	0xbc344bd9	-0.011004412
247	0xbdaf02cf	-0.085454576
248	0xbe10cc95	-0.14140542
249	0xbd2bfa9e	-0.041987054
250	0xbe6252d6	-0.22101912
251	0x39aaf119	0.00032604559
252	0x3d9d1d2b	0.07671579
253	0xbcefa123	-0.02925164
254	0xbd54a34d	-0.05191355
255	0xbdbcab78	-0.092123926

model/dense_4/MatMul;model/activation_4/Relu;model/dense_4/BiasAdd f4 [100]
0	0xbe8c4666	-0.2739746
1	0x41496a47	12.588447
2	0xbfced790	-1.6159534
3	0x3ff5a627	1.9191331
4	0xc0c39ce5	-6.112902
5	0xc0cf53db	-6.4789863
6	0x3ffd9e91	1.9814016
7	0x41479098	12.472801
8	0x42270bfa	41.761696
9	0x4188fa79	17.122301
10	0xc0d31d3a	-6.5973177
11	0xc147022c	-12.43803
12	0x425f4a7f	55.82275
13	0x41bda4ab	23.705404
14	0xc135d57e	-11.364622
15	0xc1abe8fd	-21.488764
16	0x3f612e64	0.8796141
17	0xc130619c	-11.02383
18	0x4192e84d	18.363428
19	0x406c8a56	3.6959434
20	0xc16daec9	-14.855172
21	0xbfbc92f5	-1.4732348
22	0x410648cb	8.392772
23	0x417ef2bb	15.93426
24	0x422433b9	41.05051
25	0xc03bf449	-2.936785
26	0x41d9b4ea	27.213337
27	0x3ec27f3e	0.37987703
28	0x41132485	9.196416
29	0xc08706d4	-4.2195835
30	0x419e884c	19.816551
31	0xbe793030	-0.24334788
32	0x41f54c74	30.66233
33	0x41068754	8.408039
34	0x41c4a025	24.578196
35	0xc1006fdb	-8.027308
36	0xc191ad86	-18.209728
37	0x4138286c	11.509869
38	0x4207437d	33.815907
39	0x4232963a	44.646706
40	0x422e0291	43.502506
41	0x3fa433e1	1.2828332
42	0x403c7854	2.9448442
43	0xbfc6d95a	-1.553508
44	0x424ce2b3	51.221386
45	0xc1442890	-12.259903
46	0xc17b75e6	-15.716284
47	0xc1ba143c	-23.25988
48	0xc205ff12	-33.499092
49	0x4034ce9f	2.8251112
50	0x4237916b	45.89201
51	0x41b1eb56	22.23991
52	0xc04a11c5	-3.1573346
53	0xbf600c53	-0.87518805
54	0x420a3496	34.551353
55	0x4134f683	11.310184
56	0x41c21522	24.260319
57	0x41190d8f	9.56581
58	0x41a669d6	20.801678
59	0x41b5edae	22.741055
60	0xc1dfe5e5	-27.987253
61	0x41c168d1	24.17618
62	0xc1833c54	-16.404457
63	0x4199adae	19.209805
64	0x41178793	9.470599
65	0x41fa4829	31.285234
66	0xc120810d	-10.031507
67	0x419fe6e0	19.987732
68	0x41dc7f7b	27.562246
69	0x42438b4e	48.88604
70	0xc0c19635	-6.049586
71	0x421cd5a7	39.208645
72	0x407bc13d	3.9336693
73	0xc24022af	-48.03387
74	0x4121957d	10.098996
75	0x424b817a	50.876442
76	0x422878f9	42.118137
77	0xc170e6ce	-15.056349
78	0x41e8ba2d	29.090906
79	0xc18ef816	-17.871136
80	0x420d19e3	35.27528
81	0x41ef9814	29.949257
82	0x40a88e2a	5.267354
83	0xc199319b	-19.149221
84	0xc0aa7f20	-5.328018
85	0xc0b498eb	-5.6436667
86	0x41bfb0be	23.9613
87	0x4059833e	3.3986354
88	0x41208725	10.032994
89	0x41079bcf	8.475539
90	0xc1816c29	-16.177813
91	0x4201e674	32.47505
92	0x4205ca36	33.44747
93	0x40a42ce4	5.13048
94	0x425c2f15	55.04598
95	0x4219c81a	38.44541
96	0x400169fc	2.0220938
97	0xc151e8ae	-13.119307
98	0x4221f0dc	40.485214
99	0xc0d35898	-6.6045647

model/batch_normalization_3/batchnorm/mul_1;model/batch_normalization_3/batchnorm/add_1;model/dense_4/MatMul;model/activation_4/Relu;model/dense_4/BiasAdd f4 [100, 100]
0	0xbe028dfe	-0.12749478
1	0x3c713e4d	0.014724326
2	0x3cae47eb	0.021274528
3	0xbe3f8a8e	-0.18705198
4	0xbe654439	-0.22389306
5	0x3df3f01c	0.119110316
6	0xbd8ffbe5	-0.07030467
7	0x3cd915ba	0.026499618
8	0xbe49cce2	-0.19707063
9	0x3db6afb7	0.08920234
10	0xbbf76ae2	-0.007550583
11	0x3dee6fb8	0.116424024
12	0xbd529968	-0.05141583
13	0x3d4a23ad	0.04935043
14	0x3db8eb94	0.09029308
15	0x3d888481	0.06665898
16	0x3c4db96e	0.012556417
17	0xbd2115a6	-0.039327286
18	0xbe153bd5	-0.14573605
19	0xbb270f65	-0.0025491354
20	0x3d3b7abc	0.045771345
21	0x3effcf10	0.49962664
22	0x3f16b902	0.5887605
23	0x3e2e3c01	0.17015077
24	0xbd9fb136	-0.07797472
25	0x3d26bf38	0.040709704
26	0x3e1a74dc	0.15083641
27	0x3caa2a77	0.020772202
28	0xbee32516	-0.44364232
29	0x3be86dff	0.0070931907
30	0xbc585038	-0.013202719
31	0xbe89018f	-0.26759002
32	0xbadc24d8	-0.0016795648
33	0xbdd0ae58	-0.101895034
34	0x3cfeff66	0.031127643
35	0x3c9e8b5d	0.019353563
36	0x3e55a579	0.20863904
37	0xbdd8a863	-0.10578992
38	0xbd9d53df	-0.07682013
39	0x3c18be74	0.009322751
40	0xbe892030	-0.2678237
41	0x3d5cebba	0.053935744
42	0xbbdbf62f	-0.006712697
43	0x3d698627	0.057012703
44	0x3de59e3d	0.11211822
45	0x3d6f433e	0.058413737
46	0x3e33584a	0.17514148
47	0xbc9a1ed5	-0.01881353
48	0x3e90af91	0.28258947
49	0x3d262f85	0.040572662
50	0x3d500ea0	0.050795197
51	0x3dd23d89	0.10265643
52	0x3e747397	0.23872219
53	0x3d28144c	0.04103498
54	0x3d11c654	0.03558953
55	0x3e26a523	0.16273932
56	0xbd3de1e3	-0.046358
57	0x3d9b53a3	0.07584312
58	0x3d256f25	0.0403892
59	0x3e283f13	0.16430311
60	0xbea6f368	-0.3260758
61	0xbc9e64c2	-0.019335154
62	0x3c9f0652	0.019412193
63	0x3cf544c4	0.029940017
64	0xbd4d6716	-0.05014714
65	0xbd4ec2da	-0.050478794
66	0x3e0576ee	0.1303365
67	0x3ca96035	0.020675758
68	0x3d5d7a5d	0.054071773
69	0x3dbf8bef	0.09352862
70	0xbd2f7fd3	-0.042846512
71	0x3cc4da3f	0.02402985
72	0x3e2c7269	0.16840519
73	0xbd4c72dc	-0.049914226
74	0xbd2812c9	-0.04103354
75	0xbdbdb08c	-0.09262189
76	0xbe4549c3	-0.19266419
77	0x3d228cb5	0.03968497
78	0x3ba1a6f9	0.004933235
79	0x3cc76781	0.024341347
80	0x3de47d1b	0.111566745
81	0xbd8ce85c	-0.068802565
82	0x3e1709e0	0.14749861
83	0xbda93d78	-0.08263677
84	0x3d2ac32e	0.041690044
85	0x3d269e38	0.040678233
86	0xbddcb7aa	-0.10777219
87	0x3de1304d	0.10995541
88	0xbcb2b804	-0.021816261
89	0xbcf7e1c2	-0.030259017
90	0xbd69e898	-0.057106584
91	0x3dbef09e	0.09323238
92	0x3e440238	0.19141471
93	0x3d87693c	0.06611869
94	0xbec7e0b3	-0.3903862
95	0x3ba3639a	0.0049862387
96	0x3e0e3c3e	0.13890168
97	0x3da83b6a	0.08214457
98	0xbcbee942	-0.023304585
99	0x3da28138	0.07934803
100	0x3dbcfa81	0.09227467
101	0x3d08c903	0.033394825
102	0xbc7dcfaf	-0.01549141
103	0x3e0243f9	0.12721242
104	0xbdb2ff74	-0.0874013
105	0xbd58dcac	-0.052944824
106	0x3d144c28	0.03620544
107	0x3e711f4d	0.23547097
108	0xbe88f76b	-0.26751265
109	0x3ce166ac	0.027514778
110	0xbc9977d5	-0.018733898
111	0x3e2e8219	0.17041816
112	0xbd4d10be	-0.050064795
113	0xbd79fc0c	-0.061031386
114	0x3de0de56	0.10979907
115	0x3da057d5	0.07829253
116	0x3d631ac5	0.05544545
117	0xbd059943	-0.032616865
118	0x3db32526	0.0874732
119	0xbf03e857	-0.515264
120	0xbc4ad956	-0.0123809185
121	0xbe0b6f05	-0.1361657
122	0xbd538562	-0.051640876
123	0x3e44b4cc	0.19209594
124	0xbe22d0e6	-0.15900001
125	0x3d0156cf	0.031576928
126	0xbe363cf4	-0.1779669
127	0x3b96de43	0.0046041324
128	0x3d87359a	0.066020206
129	0x3e7edecd	0.24889679
130	0x3cb14d60	0.02164334
131	0xbdd199d9	-0.10234422
132	0xbcb7fc14	-0.022459067
133	0xbd5638c4	-0.05230023
134	0x3e4c3ae2	0.19944337
135	0xbcbb3cd5	-0.022856155
136	0x3d93e870	0.07222068
137	0xbcac31fb	-0.021019926
138	0x3d865b93	0.06560435
139	0x3dac54de	0.08414625
140	0x3dacab8b	0.08431157
141	0xbe35ba85	-0.17746933
142	0xbca1c234	-0.019745924
143	0xbd17f06e	-0.037094526
144	0x3de08ae6	0.10963993
145	0xbca6f19c	-0.02037888
146	0x3e0d3e95	0.13793404
147	0xbd536dba	-0.051618315
148	0xbdd06234	-0.10174981
149	0x3d9a890b	0.0754567
150	0xbb8e8aa2	-0.0043500224
151	0x3e8f20e4	0.2795478
152	0xbe0f309c	-0.13983387
153	0x3e1615f7	0.14656816
154	0xbc786d00	-0.015162706
155	0xbcb05276	-0.021523695
156	0xbdaeb470	-0.085305095
157	0xbdcfd585	-0.101481475
158	0xbd45729e	-0.04820501
159	0xbe8f207d	-0.27954474
160	0x3df85071	0.12124718
161	0xbd0132b8	-0.03154251
162	0xbde848b3	-0.11341991
163	0x3cb54835	0.022129158
164	0x3e2b29e3	0.16715197
165	0xbd9035df	-0.07041525
166	0xbd8846c1	-0.0665412
167	0x3d53dd73	0.051724862
168	0x3e714872	0.23562792
169	0x3e2348df	0.15945767
170	0xbdadc616	-0.084850475
171	0xbf2094df	-0.6272716
172	0xbe926a9e	-0.28596967
173	0x3ddf19b5	0.10893575
174	0xbd62fcc1	-0.055416826
175	0xbd0b4286	-0.03399899
176	0xbe0ff447	-0.14058028
177	0x3e550b8f	0.2080519
178	0x3d1c254c	0.038121507
179	0x3cbf431d	0.023347432
180	0xbd863938	-0.06553882
181	0x3d09af61	0.03361452
182	0xbe81b90f	-0.253365
183	0xbde29cbc	-0.11065051
184	0xbdbcb420	-0.092140436
185	0xbe37e3c9	-0.17957987
186	0x3e35e74a	0.17764011
187	0xbf84820b	-1.0352186
188	0x3bcc55e9	0.006235827
189	0x3d0c88f5	0.0343103
190	0x3daa2081	0.08306981
191	0xbe24c936	-0.16092381
192	0xbe1bd640	-0.15218449
193	0x3d4bdff5	0.04977413
194	0xbc9328db	-0.017963817
195	0x3b71f3ea	0.0036919066
196	0x3ebeb815	0.37249818
197	0x3db099a0	0.08623052
198	0xbba8a92b	-0.0051471195
199	0x3e1aa1bc	0.1510076
200	0xbda98f78	-0.082793176
201	0x3e94082f	0.28912494
202	0x3ebe07a3	0.371152
203	0x3e3b5bce	0.1829674
204	0x3dddcac0	0.10829687
205	0xbd98a519	-0.07453365
206	0x3d016ae8	0.031596094
207	0x3d4e87c1	0.050422434
208	0xbd838577	-0.06421941
209	0xbd5d46b8	-0.05402252
210	0xbe4da29a	-0.20081559
211	0x3e52e5cc	0.20595473
212	0x3e18d6ac	0.14925641
213	0x3d69a65a	0.05704341
214	0xbd40bedf	-0.04705703
215	0x3d0c2281	0.034212593
216	0x3d8f4489	0.06995494
217	0x3e67754e	0.22603342
218	0x3d9afd4b	0.07567843
219	0x3dda4b45	0.10658888
220	0x3db0fe7e	0.086422905
221	0x3cd26499	0.025682734
222	0x3a040e2b	0.00050375116
223	0x3ca65ca7	0.020307852
224	0xbd795655	-0.06087335
225	0xbe74b610	-0.23897576
226	0x3e1fc1c5	0.15601261
227	0xbd9903e1	-0.07471443
228	0x3a6a99e6	0.0008949324
229	0x3e170080	0.14746284
230	0xbbbcc95c	-0.0057613086
231	0x3c3a5d40	0.011374772
232	0xbe2c87b5	-0.16848643
233	0x3ddcd5c1	0.10782958
234	0xbd447f05	-0.047972698
235	0xbe1fa8aa	-0.15591684
236	0x3e05a860	0.13052511
237	0xbc60b128	-0.013714112
238	0xbe1f5580	-0.1555996
239	0xbd2bd643	-0.041952383
240	0xbdb24243	-0.08704045
241	0xbde11483	-0.109902404
242	0xbe293d6b	-0.16527335
243	0x3d164b5b	0.03669296
244	0x3bae3fa9	0.0053176475
245	0xbb885a7a	-0.0041611763
246	0xbbca83e2	-0.0061802724
247	0xbcdd3ce7	-0.02700658
248	0x3e1981c1	0.14990903
249	0xbde05a01	-0.10954667
250	0xbd2066b6	-0.039160453
251	0xbe136dfa	-0.14397421
252	0x3c669f9d	0.014076141
253	0x3e1a1c36	0.15049824
254	0x3d195855	0.037437756
255	0x3d863e0e	0.06554805

model/dense_5/MatMul;model/activation_5/Relu;model/dense_5/BiasAdd f4 [100]
0	0x40fb7e3a	7.8591585
1	0x423b20c8	46.782013
2	0xc133193d	-11.193662
3	0x3fb77a5e	1.4334219
4	0x4207ed3f	33.981686
5	0xc0d70951	-6.7198873
6	0x422aea2f	42.728695
7	0x418aaf1c	17.335503
8	0x4090b702	4.52234
9	0x402a6d99	2.6629393
10	0x420217cd	32.523243
11	0xbf7a2e59	-0.9772697
12	0x411daf7a	9.855341
13	0x4201afde	32.421745
14	0xc1ffce26	-31.975658
15	0x41d832eb	27.024862
16	0xc180922e	-16.071377
17	0x4169a789	14.603402
18	0x4191f8e4	18.246529
19	0xc1c02329	-24.017168
20	0x42907fd9	72.2497
21	0xc1819252	-16.196445
22	0x41b4fbda	22.622974
23	0x421b4db4	38.825882
24	0x41f70b33	30.880468
25	0x411d8556	9.845053
26	0xbfff7971	-1.9958936
27	0xbf09d9c0	-0.53847885
28	0x41600ff1	14.003892
29	0x4144b518	12.294212
30	0xc187e050	-16.984528
31	0x40de6b30	6.9505844
32	0xc189c145	-17.21937
33	0xc1e34c91	-28.412386
34	0x409f47c1	4.977509
35	0x420b335c	34.800156
36	0x41bb8df3	23.444311
37	0x421c03cd	39.00371
38	0x40408426	3.0080657
39	0xc20498b2	-33.149117
40	0x41e5f6be	28.74548
41	0xc1ef00b2	-29.87534
42	0x41a4dbe4	20.607368
43	0x41a0472a	20.034748
44	0x41823f11	16.280794
45	0xc1e71db9	-28.889513
46	0x4122ec15	10.182637
47	0x41666423	14.399447
48	0xc2284532	-42.067574
49	0x420565fb	33.34959
50	0x404452a1	3.0675433
51	0x41dbe108	27.484879
52	0xc1e2037a	-28.251698
53	0xc0d6c3eb	-6.711416
54	0x41397219	11.590356
55	0x4090150b	4.5025687
56	0x41100b68	9.002785
57	0x4178d03f	15.550841
58	0x403775f1	2.8665736
59	0x42374719	45.81943
60	0x41b136bf	22.151731
61	0x409a4b96	4.821727
62	0x42310f1e	44.264763
63	0x41fc9640	31.573364
64	0xc0b544ec	-5.6646633
65	0x41e5d6f1	28.729952
66	0xc0de180e	-6.9404364
67	0xc154675a	-13.275232
68	0xc0e64b65	-7.1967034
69	0x41199fa8	9.601479
70	0xc1ce33c5	-25.775278
71	0x41bfc94b	23.973288
72	0x4219359d	38.302357
73	0x41e783f1	28.939425
74	0xc1a2ff54	-20.374672
75	0x3fcda4ef	1.6065959
76	0x4190d358	18.103195
77	0xc18ab1e5	-17.336863
78	0x4048a311	3.1349528
79	0xc26b9d9d	-58.90392
80	0x428d1976	70.54973
81	0xc1e0e5af	-28.11215
82	0x41cc6ecd	25.554102
83	0x41e4f53d	28.619745
84	0xc0d9aa7a	-6.80206
85	0x41ebe276	29.485577
86	0xc0a7ab7d	-5.2396836
87	0x41546801	13.275392
88	0xc10e7b59	-8.905114
89	0x40627da5	3.5389187
90	0xc13d7d7f	-11.843139
91	0x41a79b47	20.950819
92	0x3d9ee975	0.07759372
93	0xc15391f7	-13.223136
94	0xc085ae91	-4.1775594
95	0x405728f7	3.3618753
96	0x41e450c5	28.539438
97	0x40a30ef4	5.0955753
98	0x4128183b	10.505916
99	0x4148af6d	12.542829

model/batch_normalization_4/batchnorm/mul_1;model/batch_normalization_4/batchnorm/add_1;model/dense_5/MatMul;model/activation_5/Relu;model/dense_5/BiasAdd f4 [100, 100]
0	0xb8fc887e	-0.0001204172
1	0x3db40441	0.08789874
2	0xb9be331b	-0.000362777
3	0x3d941b9b	0.07231828
4	0x3d69dbd1	0.0570944
5	0x3ef18b9c	0.47176826
6	0x3c4e915e	0.0126079
7	0xbe5dbf3b	-0.2165498
8	0x3e7438b3	0.23849754
9	0xbe036015	-0.12829621
10	0xbfadf929	-1.3591663
11	0xbf8c4c03	-1.0960697
12	0x3dbdb3c0	0.092628
13	0xbd800c18	-0.06252307
14	0xbd2d8ef6	-0.042372666
15	0x3e4e0ed7	0.20122848
16	0xbe8251e5	-0.25453106
17	0xbdf346d5	-0.118787445
18	0x3e1195fe	0.14217374
19	0xbd5e6f31	-0.05430526
20	0x3d9b2941	0.07576228
21	0x3c8ac72d	0.016940678
22	0xbdcf6a63	-0.101277135
23	0xbdf083f2	-0.117439166
24	0xbd84a4a0	-0.06476712
25	0x3d699835	0.05702992
26	0x3d2c7b84	0.04210998
27	0x3d3147ee	0.043281488
28	0x3e484625	0.19558008
29	0x3d73a005	0.05947878
30	0x3c5c4138	0.013443284
31	0xbd599459	-0.05311999
32	0xbcab2e65	-0.020896146
33	0x3cd1a86f	0.02559301
34	0xbe631232	-0.2217491
35	0xbe0c114b	-0.13678472
36	0xbccf4092	-0.025299344
37	0xbdea76e5	-0.114484586
38	0xbd846a46	-0.064655825
39	0x3d4fbbd5	0.05071624
40	0x3dc0d12e	0.09414898
41	0x3dcf54e5	0.10123614
42	0xbe243db5	-0.16039164
43	0xbd11b6ec	-0.03557484
44	0x3cb8ccbe	0.022558566
45	0x3dd3a383	0.10333922
46	0xbe062b9d	-0.13102575
47	0x3d0fc364	0.03509845
48	0x3c5690f8	0.013096087
49	0xbcad8abb	-0.021184316
50	0x3dddeb06	0.10835843
51	0x3c87e27b	0.016587486
52	0x3e92d5d7	0.28678772
53	0x3d742527	0.059605744
54	0xbd4d31f6	-0.050096475
55	0x3e559b11	0.20859934
56	0xbc8e71d1	-0.017388256
57	0xbebca9ab	-0.36848196
58	0xbe6a3b5b	-0.22874205
59	0x3ddd9747	0.108198695
60	0x3dd68736	0.10475008
61	0x3b7893e2	0.0037929942
62	0x3c4360cc	0.011924934
63	0x3e6047ce	0.21902391
64	0x3d33672b	0.04379956
65	0xbd3bfc36	-0.045894824
66	0xbee4eda1	-0.44712546
67	0xbc5b41c7	-0.013382382
68	0xbd3f28e5	-0.04666986
69	0xbeaf4ccd	-0.34238282
70	0xbcc2486f	-0.02371618
71	0xbd8d1d08	-0.06890303
72	0xbda55794	-0.08073345
73	0x3d3e6b6e	0.04648917
74	0xbb4f216f	-0.0031605621
75	0xbd8eb632	-0.06968345
76	0xba146d27	-0.0005662017
77	0x3c7eb9b6	0.015547207
78	0x3ec5ba79	0.3861883
79	0x3e1e1bb0	0.1544025
80	0xbde5d2cd	-0.11221848
81	0xbddcecda	-0.10787363
82	0xbe685e7c	-0.22692293
83	0x3ec48440	0.3838215
84	0xbe8cd120	-0.275033
85	0x3dbd6413	0.09247603
86	0x3d3524af	0.044224437
87	0xbcae22d1	-0.021256836
88	0xbe66b1eb	-0.22528808
89	0xbe0c02cf	-0.13672946
90	0xbdfc8a94	-0.12331119
91	0x3c8b26b9	0.016986238
92	0x3dd7a8d0	0.10530245
93	0x3c347f46	0.0110166725
94	0x3e5a574c	0.21322364
95	0x3d254087	0.04034474
96	0xbdfc2183	-0.12311079
97	0xbe2b439b	-0.16725008
98	0xbaf3d6a0	-0.0018603392
99	0xbcbe5432	-0.023233507
100	0xbd1dce6f	-0.03852695
101	0xbd52ede0	-0.051496387
102	0xbdc5e3a1	-0.096625574
103	0xbf1f69b8	-0.6227069
104	0xbdac47f4	-0.084121615
105	0x3f46ee35	0.77707225
106	0x3b2e99ef	0.0026642045
107	0xbea9b0cc	-0.33142698
108	0xbaee8704	-0.0018198197
109	0x3e6110ea	0.21979108
110	0x3ec278a1	0.37982658
111	0x3ea865b1	0.32890084
112	0xbab257f5	-0.0013606536
113	0x3d6e7785	0.05821945
114	0x3eaeb24e	0.3412041
115	0xbcfab108	-0.030601993
116	0xbf07c59f	-0.5303592
117	0xbf2d8cd7	-0.6779303
118	0x3e3f174f	0.18661235
119	0x3d1b7968	0.03795758
120	0xbe4be7a6	-0.19912586
121	0xbe15bb33	-0.14622192
122	0xbd02660e	-0.03183561
123	0x3d0c51d8	0.03425774
124	0xbcfac5e6	-0.030611943
125	0xbc21030a	-0.009827385
126	0x3d1f802c	0.038940594
127	0xbe09502a	-0.13409486
128	0xbc7eafe6	-0.015544867
129	0xbddaaa1f	-0.10676979
130	0xbe07ffd5	-0.13281186
131	0x3dd02a6d	0.10164342
132	0x3df852e7	0.12125187
133	0x3d5def3d	0.054183234
134	0xbd92565c	-0.07145378
135	0xbe8ea8e5	-0.2786323
136	0xbef2d194	-0.4742552
137	0xbc32563c	-0.010884818
138	0x3e49af5e	0.19695804
139	0x3c31aa64	0.010843847
140	0xbc9a62a0	-0.018845856
141	0xbe236816	-0.15957674
142	0x3deaee05	0.1147118
143	0x3ca8237f	0.020524738
144	0x3d26148e	0.040546946
145	0xbf1a9c44	-0.6039469
146	0x3cc02307	0.023454202
147	0xbe9f8433	-0.31155547
148	0xbcec4f4e	-0.02884641
149	0x3e2ac091	0.16675021
150	0x3d414ff1	0.04719538
151	0x3d0f236a	0.034945883
152	0xbe9cefa1	-0.30651572
153	0xbdbcd448	-0.09220177
154	0xbdab1ed4	-0.083554894
155	0xbd116b68	-0.03550282
156	0x3db87986	0.09007554
157	0xbd31575b	-0.0432962
158	0xbdaf35bd	-0.08555172
159	0x3d8ef16c	0.06979641
160	0xbdacdcb4	-0.08440533
161	0x3cbb0954	0.022831596
162	0x3d935112	0.07193197
163	0xbdd5c0ac	-0.1043714
164	0xbd84463a	-0.06458707
165	0xbdfcd347	-0.123449855
166	0xbee2c19e	-0.44288343
167	0xbd13367c	-0.035940632
168	0xbcba14eb	-0.022715053
169	0xbdb77272	-0.089573756
170	0xbf050e47	-0.5197491
171	0xbdc172cb	-0.09445723
172	0xbd96bcb6	-0.073602125
173	0xbc811a5d	-0.015759641
174	0xbe0837da	-0.13302556
175	0xbc004540	-0.0078290105
176	0xbd1d03c0	-0.038333654
177	0xbdf5b066	-0.11996536
178	0xbe6fd17c	-0.23419756
179	0x3dc684f5	0.09693328
180	0x3d95e9d5	0.073199905
181	0xbcff98ed	-0.03120085
182	0xbd71782c	-0.058952495
183	0x3d1c3085	0.03813221
184	0xbea2c7f6	-0.31793183
185	0xbe07e925	-0.13272531
186	0x393f582a	0.00018248023
187	0xbd2ecbbc	-0.042674765
188	0x3c68f972	0.014219629
189	0x3dc246d0	0.09486163
190	0xbdc7b081	-0.09750462
191	0xbe4939f7	-0.19651018
192	0x3b82e9a0	0.0039951354
193	0xbd469694	-0.048483446
194	0xbd52b9ef	-0.05144685
195	0xbe089531	-0.13338162
196	0xbde758b2	-0.11296214
197	0xbb072374	-0.0020620497
198	0xbd904886	-0.07045083
199	0xbee3772d	-0.4442686
200	0x3db410bd	0.08792255
201	0x3dc5dfd0	0.096618295
202	0x3d807336	0.06271975
203	0x3dffdcd3	0.12493291
204	0xbcd87355	-0.026422182
205	0xbdd374b3	-0.10324993
206	0xbcf7deb0	-0.030257553
207	0x3df860ac	0.12127814
208	0x39be1365	0.00036254074
209	0xbe191004	-0.14947516
210	0xbdfbe3d0	-0.12299311
211	0xbe0b93e5	-0.13630636
212	0x3d8cdaa4	0.0687764
213	0xbe9e0ff5	-0.3087155
214	0x3d7abd21	0.061215524
215	0xbbd21714	-0.0064114425
216	0x3ca25bfd	0.019819254
217	0xbda9cb6a	-0.08290751
218	0xbd950eea	-0.07278235
219	0x3e7167f5	0.23574813
220	0x3d42dbd9	0.047572944
221	0x3d88d8b3	0.06681957
222	0x3cd6252d	0.026140774
223	0x3d52e5c2	0.051488645
224	0xbd464ea3	-0.048414838
225	0xbd08e2a5	-0.03341927
226	0x3d476421	0.048679475
227	0xbdd13d2e	-0.10216747
228	0x3e4d6b89	0.20060553
229	0xbd34f764	-0.044181243
230	0x3d87f449	0.066383906
231	0xbd955346	-0.07291274
232	0xbcd4a5d4	-0.02595798
233	0xbc92f0ee	-0.01793715
234	0x3d56358e	0.052297167
235	0x3d072cb9	0.033001635
236	0x3d9b01b6	0.07568686
237	0xbdc95d2e	-0.09832226
238	0x3d8cc927	0.06874304
239	0x3bdc4322	0.00672187
240	0x3da3b523	0.079935335
241	0x3cfa62d9	0.030564712
242	0xbca9d5dd	-0.02073186
243	0xbd9948b6	-0.07484572
244	0xbb0cdcf4	-0.0021494003
245	0xbd175f68	-0.03695622
246	0x3d0f3bf3	0.03496928
247	0xbd6f8ec6	-0.05848577
248	0xbd3db43e	-0.04631447
249	0xbf8a5d01	-1.0809633
250	0x3f9c151c	1.2193942
251	0xbd9de0f9	-0.07708926
252	0xbe0aa460	-0.13539267
253	0x3d932921	0.07185579
254	0xbe106400	-0.14100647
255	0x3ca71990	0.020397931

model/dense_6/MatMul;model/activation_6/Relu;model/dense_6/BiasAdd f4 [100]
0	0xc0cc2510	-6.379524
1	0x4128850a	10.53248
2	0x40bc7d75	5.8903146
3	0xc10bb45c	-8.731533
4	0x420716b2	33.772163
5	0xc132b398	-11.168846
6	0x40997cab	4.7964683
7	0x41d577cb	26.683493
8	0xc1288f6c	-10.535015
9	0x41cada5c	25.35662
10	0x4224a079	41.15671
11	0xbfd055b9	-1.627616
12	0xbe8a4fe4	-0.27014077
13	0x41d08e1a	26.069386
14	0x400d8172	2.2110257
15	0xbfa22ba6	-1.266957
16	0x420bb343	34.92506
17	0x414df188	12.871468
18	0x41f888d0	31.066803
19	0x41a7d432	20.978611
20	0x426069a5	56.10317
21	0x41944ec1	18.538454
22	0xc110aa38	-9.041557
23	0xc1616fdd	-14.08981
24	0x41092e9c	8.573879
25	0x41a97e6e	21.186733
26	0xc10d12ab	-8.817058
27	0x41b6fef5	22.87449
28	0x41d00ac5	26.005259
29	0x3fe9bb49	1.826028
30	0xc0af7d76	-5.484065
31	0x412e51b7	10.89495
32	0x4084880d	4.1416078
33	0x3f31f5bd	0.6951559
34	0xbe236dc4	-0.15959841
35	0x4242374a	48.553993
36	0xc17939e6	-15.576635
37	0x41437d6b	12.21812
38	0x401520f6	2.3301368
39	0x40851ce1	4.1597753
40	0x4200afea	32.17179
41	0x40c575ea	6.170644
42	0x41bc8f03	23.56983
43	0xc180e0af	-16.109709
44	0x41c2b818	24.33989
45	0xc030a8e9	-2.7603095
46	0xc1bb6446	-23.423962
47	0x40b86911	5.7628255
48	0x415599f8	13.35009
49	0x4113610e	9.211195
50	0x40f0b7de	7.5224447
51	0xc2037e6f	-32.87347
52	0x3e8433e6	0.25820845
53	0x4189f450	17.244293
54	0x4189942b	17.197348
55	0x42131bfd	36.777332
56	0x420c883b	35.133038
57	0xc0f7c57e	-7.742858
58	0x41b2a27d	22.32934
59	0x422ef6f3	43.74116
60	0x414a5368	12.645363
61	0xc17cc139	-15.7971735
62	0xc0013bf4	-2.0192842
63	0x41411697	12.068015
64	0xc011b2c9	-2.2765372
65	0x41879361	16.946962
66	0x424cfecf	51.248837
67	0x40170f0b	2.3602931
68	0xc14eb28e	-12.918592
69	0x41817491	16.181917
70	0x4207ed53	33.981762
71	0x412ff2eb	10.996806
72	0xc1129ef2	-9.163805
73	0x408c2b2b	4.3802695
74	0x4116855b	9.4075575
75	0xbfefb23d	-1.8726269
76	0xc14a1f52	-12.632647
77	0x41b66dc6	22.8036
78	0xc10f9bdd	-8.975553
79	0xc0f9b275	-7.8030343
80	0xc0955bb6	-4.667445
81	0x40f67612	7.701913
82	0xc12284e7	-10.157447
83	0x41d8a48e	27.080349
84	0x417d7c4c	15.842846
85	0x41baec2b	23.365316
86	0x418ffbff	17.998045
87	0x410c7692	8.778948
88	0xc19937d0	-19.152252
89	0xbdbb3b7d	-0.09142206
90	0x41a42019	20.515673
91	0xc0babc14	-5.8354588
92	0x41323c85	11.139775
93	0x4183fdb9	16.498888
94	0x3d4e97b0	0.05043763
95	0x40a8050e	5.250617
96	0x4222ec41	40.730717
97	0xbd956b41	-0.07295848
98	0xc1c8ac3f	-25.084105
99	0xc10e8be1	-8.90915
