corintho_ai/rating/tflite_models/model_27.tflite (tflite, 521576 bytes, 27 tensors)

model/dense_1/MatMul;model/activation_1/Relu;model/dense_1/BiasAdd f4 [100]
0	0xc205d538	-33.45822
1	0x428c51cc	70.15976
2	0xc213f7f2	-36.992134
3	0xbfed95f9	-1.8561393
4	0x423d5912	47.336983
5	0x41b76f9a	22.929493
6	0x42259da2	41.40394
7	0xc1af4ef4	-21.913551
8	0xc1f01c33	-30.01377
9	0x416b8c66	14.721777
10	0x40517465	3.2727292
11	0xc216857b	-37.630352
12	0x410d271c	8.822048
13	0xc182a1ae	-16.328945
14	0x40911682	4.5339975
15	0xc232290c	-44.540085
16	0x40f16770	7.5438766
17	0x4101db17	8.115989
18	0xc1174b8a	-9.455942
19	0xc08ae1f7	-4.3400836
20	0x3fcf1088	1.617692
21	0x40c5ca39	6.1809354
22	0x4125ac5b	10.354579
23	0xc1e6f87f	-28.871336
24	0x42268dc7	41.638454
25	0xbeff42ee	-0.4985575
26	0xc1424cad	-12.14372
27	0xc0d3a17c	-6.6134624
28	0xc1e68c4c	-28.818504
29	0x41bfcf13	23.97611
30	0xc1aec643	-21.846807
31	0xc0502f71	-3.2528956
32	0x4190a920	18.08258
33	0xc1dbd7b4	-27.480324
34	0x422dfc18	43.496185
35	0x41e2215f	28.266294
36	0x404dd85b	3.2163303
37	0xc1a0ee7d	-20.11645
38	0x3d551902	0.052025802
39	0x41baf121	23.367739
40	0x421226a9	36.537754
41	0xc08c95ea	-4.3933
42	0xc1bba15a	-23.453785
43	0xbfa583d9	-1.2930862
44	0x41133952	9.201494
45	0xc0fe99f0	-7.956291
46	0x4085411f	4.1641994
47	0xc1ab47c1	-21.410036
48	0xbf61815b	-0.88088006
49	0xc1720eaf	-15.128585
50	0x41011002	8.066408
51	0xc1e997ff	-29.199217
52	0x40a63e04	5.1950703
53	0x42a4d2a7	82.41143
54	0xc0a03603	-5.006593
55	0x41cbcfbd	25.476435
56	0x41458682	12.345339
57	0xc1073fb9	-8.453057
58	0x41af410a	21.906757
59	0xc0e0bd44	-7.0231037
60	0x412c41bd	10.766049
61	0x4214cd50	37.2005
62	0xbed43093	-0.4144331
63	0x4166782b	14.404338
64	0x41fd19a0	31.637512
65	0x42225bfd	40.589832
66	0x427b0b5b	62.76109
67	0x41b720fc	22.891106
68	0xc04f43c1	-3.2385104
69	0xc201e2a3	-32.471325
70	0xc04ee4b0	-3.232708
71	0xc14a4de6	-12.644018
72	0x41283b3d	10.514462
73	0x4251427d	52.31493
74	0xc0de597a	-6.9484224
75	0x41f38f65	30.445017
76	0xc0124ace	-2.2858157
77	0x3f71d620	0.94467354
78	0xc24f66d8	-51.850433
79	0xbfc5074c	-1.5392852
80	0x3fdc205d	1.7197376
81	0x41faf11b	31.367727
82	0x40b8a440	5.77005
83	0xc18b00fe	-17.375484
84	0xc19aea76	-19.364483
85	0x42265e71	41.592228
86	0x4142bc62	12.170992
87	0xc18fd088	-17.976822
88	0x422f740b	43.863323
89	0x420bc0ca	34.93827
90	0x42402bf1	48.04291
91	0x400e7860	2.226097
92	0x423b14fb	46.77049
93	0x40387862	2.8823476
94	0xc056e3bc	-3.3576498
95	0x40ae8001	5.4531255
96	0x429765bd	75.69871
97	0x41303040	11.01178
98	0x40b7ada6	5.7399473
99	0xc25adcd5	-54.715656

model/batch_normalization/batchnorm/mul_1;model/batch_normalization/batchnorm/add_1;model/dense_1/MatMul;model/activation_1/Relu;model/dense_1/BiasAdd f4 [100, 100]
0	0x3de5c4a4	0.11219147
1	0xbef21f61	-0.47289565
2	0x3f4312df	0.7620067
3	0x3d4e5bf7	0.050380673
4	0x3fde8743	1.7385029
5	0x3f1e51d5	0.61843616
6	0xbf4cc0e7	-0.79981846
7	0xbf5d89dc	-0.8653848
8	0x3da4b1bd	0.080417134
9	0x3f1dbb18	0.6161361
10	0x3ed736e3	0.42034063
11	0x3f17a459	0.5923515
12	0x3d1b8309	0.03796676
13	0x3bb207ac	0.0054330435
14	0xbe8aa062	-0.27075487
15	0x3b562840	0.00326778
16	0x3edd70df	0.43250176
17	0xbf91dc37	-1.1395329
18	0x3de34def	0.11098849
19	0xbed36714	-0.4128958
20	0x3eba1f56	0.36352032
21	0x4083f326	4.123431
22	0x3c729086	0.014804965
23	0xbd8254d3	-0.06363835
24	0xbe981b51	-0.2970834
25	0x3e1dbe1b	0.1540455
26	0x3d4e72f3	0.050402593
27	0xbf644db1	-0.8918105
28	0x3e8e8d14	0.2784201
29	0xbea7b2b5	-0.3275353
30	0xbd6887c7	-0.056770112
31	0x3f360e3f	0.7111549
32	0x3e78b257	0.24286781
33	0xbdc2b6ef	-0.09507548
34	0xbe8650d4	-0.26233542
35	0xbe811f81	-0.25219348
36	0x3cffbd92	0.031218324
37	0xbe4709c7	-0.19437324
38	0xbdddeb37	-0.10835879
39	0x3e72710d	0.23675938
40	0x3f44597b	0.76699036
41	0x3f6ca81f	0.9244403
42	0x3f021a02	0.50820935
43	0x3e0803b9	0.1328267
44	0xbea2fc07	-0.31832907
45	0xbe45e732	-0.19326475
46	0x3e7d1b4f	0.24717449
47	0xbd85eb63	-0.06539037
48	0x3ee5a9b4	0.44856036
49	0xbe17e5ec	-0.14833802
50	0xbd96323d	-0.07333801
51	0xbfc09403	-1.504517
52	0x3eabef69	0.33581093
53	0x40579ee9	3.369074
54	0x3e8961c0	0.2683239
55	0x3c47fe0b	0.012206565
56	0xbe19ba49	-0.15012468
57	0x3ead2d4b	0.33823618
58	0x3f9e8a47	1.2385949
59	0x3ebe49eb	0.3716577
60	0x3eb52a06	0.35383624
61	0xbdbeae36	-0.09310572
62	0xbd97d26c	-0.07413182
63	0xbf6441c5	-0.89162856
64	0x3f135f6f	0.57567495
65	0xbe6a70d1	-0.22894599
66	0xbe0c0c3b	-0.1367654
67	0x3e021748	0.12704194
68	0xbd85bdf5	-0.06530372
69	0x3f3977b3	0.7244827
70	0x3ef3b707	0.47600576
71	0x3de8fc5c	0.11376259
72	0x3c55bba4	0.013045225
73	0x3d947ba8	0.07250148
74	0x3f4ae0d4	0.7924931
75	0xbeee3c7c	-0.4653052
76	0xbe6f25e2	-0.23354295
77	0xbebdb004	-0.37048352
78	0xbd8c65b7	-0.06855338
79	0x3f187f6f	0.5956945
80	0xbf2aa533	-0.66658324
81	0x3ebdad41	0.37046245
82	0xbe9971cc	-0.29969633
83	0xbe10ed3e	-0.14153
84	0xbf05e679	-0.523048
85	0x3e24cb84	0.1609326
86	0xbdd985c6	-0.106212184
87	0xbea55641	-0.3229237
88	0xbdcf1968	-0.10112268
89	0xbd5b98c7	-0.053612497
90	0xbf088350	-0.53325367
91	0x3f4f48b1	0.80970293
92	0x3e1ff457	0.15620552
93	0xbf07f44e	-0.53107154
94	0xbd1f2616	-0.03885468
95	0x3db126d0	0.08649981
96	0x3e23e53b	0.16005413
97	0xbcc32b3d	-0.023824329
98	0xbe87f941	-0.26557353
99	0xbe339bdb	-0.17539923
100	0xbf3df0b6	-0.7419542
101	0xbf67c990	-0.90541935
102	0xbec75d00	-0.3893814
103	0x3b41c34b	0.0029565867
104	0xbf580579	-0.8438335
105	0x3fe445e3	1.7833828
106	0x3ea35d0e	0.31906933
107	0x3eb4eccf	0.3533692
108	0x3dfd3d37	0.123651914
109	0xbe0ad696	-0.1355842
110	0x3eb585c6	0.35453624
111	0x3c68de07	0.014213092
112	0xbf7e1190	-0.9924555
113	0xbe089fcd	-0.13342209
114	0xbe94f085	-0.29089752
115	0xbf354c1f	-0.70819277
116	0x3da39bdc	0.07988712
117	0xbfaeebc5	-1.3665701
118	0xbf13355c	-0.57503295
119	0x3d5bace7	0.05363169
120	0xbec1905f	-0.3780546
121	0xbfa109ea	-1.258115
122	0x3ca5ed5b	0.020254781
123	0xbe055d6d	-0.1302392
124	0xbda9dc44	-0.082939655
125	0x3ca957d2	0.020671759
126	0xbecb5e32	-0.39720303
127	0x3dd7f051	0.105438836
128	0xbe14fc5b	-0.14549391
129	0x3c942117	0.018082185
130	0x3c84aac8	0.016194716
131	0x3e5ae5e7	0.21376763
132	0x3e0b0e02	0.13579562
133	0xbe121a2b	-0.14267795
134	0xbbdf6d70	-0.006818466
135	0xbdf3cc73	-0.1190423
136	0xbebf578a	-0.37371475
137	0xbfdd545e	-1.7291372
138	0xbf108954	-0.56459546
139	0xbf197bc3	-0.5995447
140	0x3cdf763c	0.027278058
141	0xbcb1a320	-0.02168423
142	0xbf3dfdcf	-0.74215406
143	0xbe22b878	-0.15890682
144	0xbdc27b94	-0.09496227
145	0xbf530866	-0.8243469
146	0x3e404561	0.18776466
147	0xbdd7a3ed	-0.10529313
148	0xbe852ab3	-0.2600914
149	0xbd91fb0e	-0.07127963
150	0xbda7a662	-0.08186032
151	0x4020f883	2.515168
152	0xbdd64b66	-0.104636
153	0x3f84fc9f	1.0389594
154	0x3e0972b8	0.13422668
155	0xbe912cd4	-0.28354514
156	0xbe85cdda	-0.26133615
157	0x3f473a43	0.77823275
158	0x3e422e71	0.18963028
159	0x3ed55bfa	0.41671735
160	0x3eb32373	0.34987983
161	0x3e3ef117	0.18646656
162	0x3e3771ec	0.17914551
163	0xbf53427e	-0.82523334
164	0xbf592ac9	-0.8483091
165	0xbe460798	-0.19338834
166	0x3dc18d9e	0.094508395
167	0x3f66c3ae	0.90142334
168	0xbd896385	-0.06708435
169	0xbd0c92eb	-0.0343198
170	0x3d86e67e	0.06586932
171	0x3ea4fcc0	0.32224083
172	0xbe7e09e2	-0.24808457
173	0x3bf220b0	0.0073891506
174	0xbe51b6d2	-0.20479897
175	0xbdcfb6eb	-0.10142311
176	0xbf1c93c3	-0.61162966
177	0xbd95557c	-0.072916955
178	0x3edc83ef	0.43069407
179	0x3dec2fc6	0.115325496
180	0x3dfc2b44	0.1231294
181	0xbf0022cb	-0.5005309
182	0x3f07b43a	0.5300938
183	0x3e33a170	0.17542052
184	0x3cec957a	0.02887987
185	0x3ddce263	0.10785367
186	0xbdb4c87a	-0.088273
187	0xbe575fef	-0.2103269
188	0x3ea77341	0.3270512
189	0xbcc8c49e	-0.024507817
190	0xbf81e486	-1.0147865
191	0x3f4722c6	0.77787435
192	0xbe0bac0a	-0.13639846
193	0xbf0d351e	-0.55159175
194	0xbf075ae6	-0.52873075
195	0x3e8ddf7a	0.27709562
196	0xbda70e49	-0.081570216
197	0xbf851900	-1.0398254
198	0xbf39e8ce	-0.72620857
199	0xbf138f13	-0.5764019
200	0x3f3d80a7	0.7402443
201	0xbed518bb	-0.4162043
202	0x3e9fbd81	0.31199268
203	0xbe036523	-0.1283155
204	0x3efe87f0	0.49713087
205	0x3df2cfd6	0.11856048
206	0x3f6c02ae	0.9219159
207	0xbf5130c3	-0.8171503
208	0xbf5c9ad2	-0.8617374
209	0xbf0b1f72	-0.54344857
210	0xbe66fba2	-0.22556928
211	0x3fa8d0d5	1.318873
212	0x3d90dc7f	0.07073306
213	0x3e1d878a	0.15383735
214	0xbe208256	-0.15674719
215	0x3ec86ae1	0.39144042
216	0x3e71186e	0.23544475
217	0xbeb4a85b	-0.35284695
218	0xbf5599fd	-0.8343809
219	0xbed9831d	-0.42482844
220	0xbd10f87f	-0.035393234
221	0xbfd1c285	-1.6387488
222	0xbdd24316	-0.10266702
223	0x3e440d5d	0.19145723
224	0xbd97e832	-0.074173346
225	0x3bbc29d0	0.005742289
226	0xbe51172f	-0.20419
227	0x3eec23cc	0.4612106
228	0x3ee0b10d	0.4388508
229	0x3fc76526	1.5577743
230	0x3f5bac7b	0.8581006
231	0x3f112a44	0.5670512
232	0x3d0cde8a	0.034391917
233	0x3eecc80c	0.46246374
234	0x3f819578	1.0123739
235	0xbbc3feaa	-0.005981286
236	0x3d4aa710	0.04947573
237	0x3e704433	0.23463516
238	0x3ea9a359	0.33132437
239	0xbf060a4e	-0.52359474
240	0x3e2d950c	0.16951388
241	0xbde2d7fc	-0.11076352
242	0x3f526340	0.82182693
243	0x3ea04dd3	0.31309375
244	0x3dfd7746	0.12376265
245	0xbf75fee6	-0.9609207
246	0x3f314b45	0.6925548
247	0xbd2579ad	-0.040399242
248	0xbf8c7942	-1.0974505
249	0xbd2096da	-0.039206363
250	0x3db43f74	0.08801165
251	0x3f757ea0	0.9589634
252	0x3df50884	0.11964515
253	0xbd4cd4a6	-0.050007485
254	0x3c902f15	0.017600575
255	0xbdab9e33	-0.083797835

model/dense_2/MatMul;model/activation_2/Relu;model/dense_2/BiasAdd f4 [100]
0	0x4214a434	37.160355
1	0xc21c39da	-39.056496
2	0x3f1c4fca	0.6105925
3	0xc23cafa7	-47.171535
4	0xc0f5843a	-7.672391
5	0x40f390a5	7.611407
6	0x41d36c81	26.42798
7	0x4190df06	18.108898
8	0xc12a6422	-10.6494465
9	0xbe9d9e33	-0.3078476
10	0xc12d18c1	-10.818543
11	0xc113edeb	-9.245585
12	0xc00f6db7	-2.2410715
13	0x40f73d3d	7.7262254
14	0x408cd103	4.400514
15	0xc242198a	-48.52494
16	0xc1de2971	-27.770235
17	0x403d497c	2.9576101
18	0x3fce50d5	1.6118418
19	0x405a2010	3.408207
20	0x412e6145	10.898747
21	0x40ea2a54	7.317667
22	0x41369789	11.411996
23	0x41208ac2	10.033876
24	0xc04428ac	-3.0649824
25	0x4107a1ef	8.477035
26	0x4013aa93	2.307286
27	0x41f19a38	30.200302
28	0xc16f8466	-14.969824
29	0x409187e6	4.547839
30	0xc0f32d86	-7.599307
31	0x4123561f	10.208526
32	0x41a85edf	21.046324
33	0xc17d1acf	-15.819045
34	0x41b5565a	22.667164
35	0xc1a50792	-20.628696
36	0x42228c86	40.63723
37	0xc1d352b7	-26.415388
38	0xc1959d81	-18.701906
39	0xc13d5dd8	-11.835411
40	0x40925289	4.572575
41	0xc1ee22fb	-29.76708
42	0xbf1241a5	-0.57131416
43	0xc118f2b7	-9.559257
44	0xc181cfa4	-16.226387
45	0x41da7410	27.306671
46	0xc14bb635	-12.731984
47	0xc0fc70fd	-7.8887925
48	0xc208601d	-34.09386
49	0x40ae20a0	5.4414825
50	0x421cf505	39.239277
51	0x42242cd3	41.043774
52	0x40cedded	6.4645905
53	0xc101dbb8	-8.116142
54	0x404f598f	3.2398412
55	0xc0a2535a	-5.0726748
56	0x404e6040	3.2246246
57	0x421dd2a1	39.455692
58	0x41b5afd9	22.710863
59	0xc19e4c8d	-19.787378
60	0xc03147cc	-2.7700071
61	0x4088a272	4.2698298
62	0xbf28182a	-0.6566187
63	0x42954bf1	74.64832
64	0x41d97b18	27.185104
65	0x4171178d	15.06825
66	0xc2137210	-36.86139
67	0xc19e7c6a	-19.81075
68	0xc1242feb	-10.261699
69	0x41ef63da	29.923756
70	0xc2b4fd01	-90.49415
71	0x4116e079	9.429803
72	0xc1e99a8e	-29.200466
73	0x41c70cc0	24.881226
74	0xc1921102	-18.258305
75	0xc1945345	-18.540659
76	0x411f95e6	9.974096
77	0xc1517d23	-13.093051
78	0xc1bf019e	-23.87579
79	0x416625b3	14.384204
80	0x41f2bfd5	30.343668
81	0x41893c89	17.154558
82	0x41556989	13.338265
83	0x4172815d	15.156583
84	0xc08b7d39	-4.359036
85	0xc1f2dad7	-30.356855
86	0xc088dc0c	-4.276861
87	0x41e057ed	28.042933
88	0x41596668	13.587502
89	0x418599db	16.700125
90	0xc1ab6ac1	-21.427126
91	0x40a63e4b	5.195104
92	0xc0c871a6	-6.263873
93	0x3f4a79af	0.79091924
94	0xc060d58b	-3.5130336
95	0x41f8f3e0	31.11908
96	0x4202e22f	32.720882
97	0x41a12e4a	20.147602
98	0x4130aeb1	11.042649
99	0xbf784d83	-0.96993273

model/batch_normalization_1/batchnorm/mul_1;model/batch_normalization_1/batchnorm/add_1;model/dense_2/MatMul;model/activation_2/Relu;model/dense_2/BiasAdd f4 [100, 100]
0	0xbd756025	-0.059906144
1	0xbe840125	-0.25782123
2	0x3dd847a4	0.10560539
3	0xbe215b2c	-0.15757436
4	0xbe50022a	-0.20313326
5	0xbe063f18	-0.13110006
6	0x3de8ea21	0.113727815
7	0x3da3b051	0.07992614
8	0x3e607865	0.21920927
9	0xbcb6f0e8	-0.02233167
10	0x3dc2d71f	0.09513687
11	0x3e012b8a	0.12614265
12	0x3df04ac9	0.11733014
13	0xbdf57aea	-0.119863346
14	0xbe69e4e9	-0.22841229
15	0x3d0aa2d1	0.03384668
16	0x3cc13646	0.02358545
17	0xbe8e427a	-0.27785093
18	0x3e3054fd	0.1721992
19	0xbcfa761a	-0.030573893
20	0xbe00b768	-0.12569964
21	0xbd95e690	-0.07319367
22	0x3d8990f2	0.06717099
23	0x3e422f1c	0.18963283
24	0xbda7ff9e	-0.08203052
25	0xbb5052a8	-0.0031787548
26	0xbd375ea2	-0.044767983
27	0x3ccbe170	0.02488777
28	0xbd1788ff	-0.036995884
29	0xbdf9a51e	-0.12189697
30	0xbcbd091c	-0.023075633
31	0xbca43559	-0.02004497
32	0xbe9a4ee1	-0.30138305
33	0xbd062538	-0.03275034
34	0xbc671774	-0.014104713
35	0x3e6ae33b	0.22938244
36	0xbda9b52c	-0.08286509
37	0x3d97602d	0.07391391
38	0x3dacb27e	0.08432482
39	0xbd2d108a	-0.0422521
40	0xbcdbc21f	-0.026825963
41	0xbe3a64da	-0.18202534
42	0xbe735dc5	-0.23766239
43	0x3df98295	0.1218311
44	0xbc8ffabe	-0.017575618
45	0x3d41d64d	0.047323514
46	0xbcf6b70f	-0.030116586
47	0xbcdb3346	-0.026757848
48	0xbdaa246f	-0.083077304
49	0xbd19cf4a	-0.037551202
50	0x3da34af4	0.079732805
51	0x3d840951	0.064470895
52	0x3d91c736	0.071180746
53	0xbba93d8e	-0.0051648086
54	0xbdfda52f	-0.12385022
55	0xbd875f0b	-0.06609925
56	0x3d7f8410	0.062381804
57	0x3da44a3f	0.08021974
58	0x3e8d8085	0.27637115
59	0xbd732167	-0.059358027
60	0x3e879b00	0.26485443
61	0xbe14c761	-0.14529182
62	0x3c1a5215	0.009418984
63	0xbe8e7ef9	-0.27831247
64	0xbbbb96eb	-0.005724778
65	0x3d4a3b56	0.049372993
66	0x3d2e5d8d	0.042569686
67	0xbd632e8f	-0.055464324
68	0xbcef2f4a	-0.029197354
69	0x3dcbb080	0.09945774
70	0xbe7b8be7	-0.24565087
71	0xbdf25916	-0.11833398
72	0xbd858f59	-0.06521482
73	0xbd5e13ec	-0.054218218
74	0xbe8455c0	-0.25846672
75	0xbe29a751	-0.16567732
76	0xbce3ace8	-0.027792409
77	0x3cdff254	0.02733723
78	0xbd85ad68	-0.06527215
79	0xbe99de8f	-0.3005261
80	0x3d5cc9a1	0.053903226
81	0x3bbe0bd5	0.0057997503
82	0x3da465db	0.0802724
83	0x3d221e5c	0.039579734
84	0xbde54dca	-0.11196478
85	0x3b7bcfb4	0.0038423361
86	0x3dbbdd9b	0.09173127
87	0x3d80792a	0.0627311
88	0xbe367962	-0.17819741
89	0xbdb5652e	-0.08857189
90	0x3d7bd697	0.061483946
91	0xbd7dbd17	-0.06194791
92	0xbde67636	-0.11253016
93	0xbe20d8b7	-0.1570767
94	0xbf0f8d2e	-0.560748
95	0x3eda6dc6	0.42661875
96	0x3e3bad77	0.1832789
97	0xbf25205d	-0.6450251
98	0x3d003ab2	0.031305976
99	0xbe8e6f4c	-0.27819288
100	0xbbee5b5f	-0.007274076
101	0x3dc69ae8	0.09697515
102	0xbb370f03	-0.0027932532
103	0xbd47abf7	-0.048747983
104	0x3def3dec	0.116817325
105	0x3d8e6834	0.06953469
106	0x3dd34dd2	0.103175774
107	0xbbae7e23	-0.0053250953
108	0x3d050c37	0.032482352
109	0xbae12814	-0.0017178082
110	0xbbcd6eb6	-0.0062693013
111	0x3cb56ff1	0.022148104
112	0x3bf02cbf	0.007329553
113	0xbde13792	-0.10996927
114	0x3d8da79a	0.06916733
115	0x3e40a999	0.18814696
116	0xbd8bb3d0	-0.06821406
117	0xbe1fb725	-0.15597208
118	0xbd793c0f	-0.060848292
119	0xbc0ebae5	-0.008711551
120	0xbdb1ed7b	-0.08687874
121	0xbc627e1e	-0.013824014
122	0xbc2680e6	-0.010162568
123	0xbb1c2b3c	-0.002382948
124	0x3d94f041	0.07272387
125	0x3d28b3a3	0.04118694
126	0xbd7a3bef	-0.061092313
127	0xbdcafb88	-0.09911257
128	0xbdd6acd4	-0.10482183
129	0x3d1828c2	0.037148245
130	0x3e4eefba	0.20208636
131	0x3eb83e64	0.359851
132	0x3e10ce32	0.14141157
133	0x3d32db8f	0.04366642
134	0x3d73f154	0.05955632
135	0xbc7bb26a	-0.015362361
136	0x3ba5c561	0.00505893
137	0x3c56e3d5	0.013115843
138	0xbce81350	-0.028329521
139	0xbcabf6f2	-0.020991776
140	0xbd49ec09	-0.049297366
141	0x3c0d3288	0.008618005
142	0xbcb27bc4	-0.021787532
143	0x3c4898d9	0.012243473
144	0x3da88632	0.08228721
145	0x3dc17999	0.09447021
146	0xbca738f6	-0.020412903
147	0x3d37a394	0.044833735
148	0x3e2f1288	0.17096913
149	0x3e04aa95	0.12955697
150	0x3cb62c28	0.022237852
151	0xbe466f59	-0.19378413
152	0x3e87cba1	0.26522544
153	0x3f1808f8	0.59388685
154	0x3d81e992	0.06343378
155	0xbc3dc481	-0.011582495
156	0x3e26fcfd	0.16307445
157	0x3cb660d9	0.022262977
158	0xbd3d6a93	-0.046244215
159	0xbcb9a5da	-0.022662092
160	0xbd2ba346	-0.041903757
161	0xbe289e8c	-0.16466731
162	0x3ee12a4d	0.43977585
163	0xbe0eeb28	-0.13956892
164	0xbc62a187	-0.013832456
165	0x3d91dfa5	0.07122735
166	0xbdcb8cd3	-0.099389695
167	0xbd7f0445	-0.06225993
168	0x3c9ded70	0.019278258
169	0xbb117149	-0.0022192767
170	0xbdf65f5e	-0.120299086
171	0x3dc46636	0.09589808
172	0xbda30e00	-0.07961655
173	0x3e721fd6	0.23644957
174	0xbcd09a1a	-0.025464106
175	0xbe0e2885	-0.13882644
176	0x3cedfaa4	0.029050179
177	0x3dc6ff30	0.09716642
178	0xbcd7c929	-0.026341038
179	0xbd7cb427	-0.061695244
180	0x3d80acac	0.062829345
181	0xbd3d889b	-0.046272855
182	0x3dabc12b	0.08386453
183	0x3d1c407b	0.03814743
184	0xbb024df3	-0.0019882887
185	0xbd08810c	-0.033326194
186	0xbd598ed9	-0.053114746
187	0x3de9cf1d	0.11416457
188	0xbb7e5834	-0.0038809897
189	0x3d7b8fa8	0.0614163
190	0x3edad0e6	0.42737502
191	0x3d56f5cb	0.0524805
192	0xbe2b83c8	-0.1674949
193	0x3e200907	0.15628444
194	0xbbfbb689	-0.007681672
195	0xbe22faca	-0.15915981
196	0xbe5f969f	-0.21834801
197	0x3ceb6df6	0.028738957
198	0xbdba10c8	-0.09085232
199	0xbde53520	-0.111917734
200	0x3e906cd9	0.28208044
201	0x3e177268	0.14789736
202	0x3c23c15e	0.009994833
203	0x3dc576cc	0.09641799
204	0xbca74651	-0.020419272
205	0xbd80e066	-0.062928006
206	0x3dd7fd51	0.10546363
207	0xbd42415d	-0.047425617
208	0xbc88fc58	-0.01672189
209	0x3e32f4f5	0.17476256
210	0x3c8c0db9	0.017096387
211	0x3d260156	0.040528618
212	0xbd6c874b	-0.057746213
213	0xbd7fedc3	-0.062482607
214	0x3cbdfc06	0.023191463
215	0xbe3cf805	-0.18453987
216	0x3da5e9d8	0.08101243
217	0xbd1fadc2	-0.038984068
218	0xbde725a9	-0.1128648
219	0x3e2fc71f	0.17165802
220	0x3e4c9a4e	0.19980738
221	0xbd97ef38	-0.07418674
222	0x3d8f8327	0.07007437
223	0x3c9056e4	0.017619558
224	0xbd620449	-0.055179868
225	0x3cf6aaa2	0.030110661
226	0xbdae5013	-0.08511367
227	0xbd83e559	-0.06440229
228	0x3d1efc01	0.03881455
229	0x3d2fb3b8	0.042896003
230	0x3d0150c0	0.03157115
231	0x3e1e4b5c	0.15458435
232	0x3b952407	0.004551414
233	0xbcda51a8	-0.026650265
234	0xbe3b0ac6	-0.18265828
235	0xbd5521b8	-0.05203411
236	0x3da9507f	0.082673065
237	0x3c7588a7	0.014986194
238	0xbc94c9fd	-0.018162722
239	0x3ce833c2	0.028344993
240	0x3d8fd716	0.07023446
241	0x3ee28ee6	0.44249648
242	0x3cac3b5d	0.0210244
243	0x3e03356b	0.12813346
244	0x3e223e80	0.15844154
245	0x3da460a0	0.08026242
246	0xbcfcaa05	-0.03084279
247	0xbc948fb6	-0.018134933
248	0xbe15f973	-0.14645939
249	0xbd577c90	-0.052609026
250	0x3d03458b	0.032048743
251	0xbc74ed29	-0.0149491215
252	0xbd8db502	-0.0691929
253	0x3d981e53	0.07427659
254	0xbe4a493b	-0.19754498
255	0x3c61a8fc	0.013773199

model/dense_3/MatMul;model/activation_3/Relu;model/dense_3/BiasAdd f4 [100]
0	0xc04dfc4f	-3.2185247
1	0x41a5d7a8	20.7303
2	0xc0c36720	-6.1063385
3	0xc10d91ec	-8.848125
4	0x410efb33	8.936328
5	0xc0ad4a26	-5.4153013
6	0x40808911	4.0167317
7	0x4183ea0b	16.489279
8	0x4138600b	11.523448
9	0x40f2ef03	7.591676
10	0x41c9cfa1	25.226381
11	0x420c14d1	35.02033
12	0x41b3bba0	22.466614
13	0x4119cbf1	9.61229
14	0x4125839f	10.344634
15	0x4093baf9	4.616574
16	0xc0d5cd56	-6.6813154
17	0x40168a49	2.3521903
18	0x40b206db	5.563337
19	0x40cd9640	6.424591
20	0x417dd584	15.864628
21	0xbfae4418	-1.361453
22	0xc0b5187d	-5.6592393
23	0x41a7c427	20.970778
24	0x419058ee	18.043423
25	0x41b12363	22.142279
26	0x41cfef7f	25.991941
27	0xc1478fc0	-12.472595
28	0xc111bcb5	-9.108571
29	0xc1c04550	-24.033844
30	0xc0b150a3	-5.5410933
31	0x4153f858	13.248131
32	0x4121aa53	10.104083
33	0xc0c177e9	-6.0458875
34	0xc08d74eb	-4.420522
35	0x422cce62	43.201546
36	0xc13004ae	-11.0011425
37	0x41bdb92f	23.715422
38	0xc1449498	-12.286278
39	0x412921d7	10.570762
40	0x419409f7	18.504866
41	0x4198548c	19.041283
42	0x41b2d779	22.355211
43	0xc0974d54	-4.7281895
44	0x402ef0d3	2.7334487
45	0xbbde976c	-0.0067929532
46	0xc16c4a71	-14.768174
47	0x4098b8d7	4.7725635
48	0x41529254	13.160725
49	0xba4b5730	-0.00077568274
50	0xc0265216	-2.5987601
51	0xc18e00ba	-17.750355
52	0xc0e0f2d6	-7.029643
53	0xc1a3c127	-20.469313
54	0xc11ad00c	-9.675793
55	0x4160517c	14.019894
56	0xc0e61fbd	-7.1913743
57	0xc112146f	-9.129989
58	0x40508f7d	3.2587578
59	0x414ce7af	12.806563
60	0xbf5af633	-0.8553192
61	0x4112dca7	9.17887
62	0x4055bdb8	3.3397045
63	0x413c62b1	11.774095
64	0xc1244ec1	-10.269227
65	0x4148caee	12.549543
66	0x404f9194	3.2432604
67	0x403d84d9	2.9612334
68	0x41002966	8.010107
69	0x41465baf	12.397384
70	0xbf2faa13	-0.6861889
71	0x40803923	4.0069747
72	0x4144c580	12.298218
73	0xc147e611	-12.493669
74	0x41211df1	10.06981
75	0x4058be02	3.3865972
76	0xc119634c	-9.586742
77	0x4017d312	2.3722577
78	0xc101f6e0	-8.122772
79	0xc193ea9f	-18.489561
80	0xc0e59047	-7.173862
81	0x3eeab2f9	0.4583967
82	0xc09f31dd	-4.974837
83	0x416f115c	14.941738
84	0xc18f28f0	-17.894989
85	0xc03c947a	-2.9465623
86	0x413c786f	11.779403
87	0x40d1708f	6.54499
88	0xc0fa98bf	-7.831146
89	0x413fa77b	11.978389
90	0xc07a4804	-3.9106455
91	0x4159a604	13.603031
92	0xbee8aa82	-0.45442587
93	0xc0231d6b	-2.5486705
94	0x41164500	9.391846
95	0xc20f6a6d	-35.85393
96	0xbf29b990	-0.6629877
97	0x40c49a4a	6.143834
98	0x418bacdf	17.45941
99	0xc08859e4	-4.260973

model/batch_normalization_2/batchnorm/mul_1;model/batch_normalization_2/batchnorm/add_1;model/dense_3/MatMul;model/activation_3/Relu;model/dense_3/BiasAdd f4 [100, 100]
0	0x3e2d3f1d	0.16918607
1	0x3ca47577	0.020075543
2	0xbd9cf989	-0.076647826
3	0x3d6730f9	0.05644319
4	0xbd245bbc	-0.040126547
5	0xbdc1d30a	-0.09464081
6	0xba8debbf	-0.0010827704
7	0x3e02153f	0.12703417
8	0xbd8c6a53	-0.06856217
9	0x3e9dd85a	0.30829126
10	0xbe18388a	-0.14865318
11	0x3d3d69a4	0.046243325
12	0xbe2ede55	-0.17077
13	0xbda5fa4c	-0.08104381
14	0x3e99882c	0.29986703
15	0xbe1bafd4	-0.15203792
16	0xbc02a2fb	-0.007973428
17	0x3ea079aa	0.31342822
18	0x3da70c62	0.08156659
19	0x3d0ca32b	0.034335297
20	0xbdc79639	-0.097454496
21	0xbd754e79	-0.05988929
22	0x3ec7a814	0.3899542
23	0xbdeaabac	-0.11458525
24	0xbd913957	-0.07091015
25	0xbdadabdb	-0.084800445
26	0x3cacb903	0.021084314
27	0x3d7accc3	0.061230432
28	0xbeb1c991	-0.34724095
29	0xbe0dd30e	-0.13850042
30	0x3c778007	0.015106208
31	0xbd16dc02	-0.03683091
32	0x3da5c8b0	0.08094919
33	0x3cbe80ac	0.023254715
34	0xbe014a1c	-0.12625927
35	0xbcba632c	-0.022752367
36	0x3dc876bd	0.097882725
37	0xbd5bcc62	-0.05366171
38	0x3cb41640	0.021983266
39	0x3c138b54	0.009005386
40	0xbd914087	-0.07092386
41	0xbd92257b	-0.07136055
42	0xbba8d6f7	-0.005152579
43	0x3df63968	0.12022668
44	0xbd2863d4	-0.04111083
45	0xbdab2b93	-0.083579205
46	0xbd6fd770	-0.058555067
47	0xbe80e23e	-0.2517261
48	0x3cc518c5	0.024059663
49	0x3e12eb3d	0.14347549
50	0xbd67110a	-0.056412734
51	0x3d12057a	0.035649754
52	0x3de93a6f	0.113880984
53	0x3d817a4e	0.06322156
54	0xbe1b8981	-0.15189172
55	0xbcb0c7ae	-0.02157959
56	0x3c964e18	0.018347785
57	0x3e3c6d58	0.18401086
58	0x3e26ef7d	0.16302295
59	0xbe065a90	-0.13120484
60	0xbe473b42	-0.19456199
61	0x3eb59bd1	0.3547044
62	0x3dd4be87	0.10387903
63	0xbdc5ce06	-0.096584365
64	0x3de52413	0.11188521
65	0xbd8b6a78	-0.06807417
66	0xc062773e	-3.538528
67	0xbbee72e1	-0.007276878
68	0x3d2525ae	0.040319137
69	0x3c9c61cd	0.019089604
70	0xbdadfa3b	-0.08494993
71	0xbe2013ee	-0.15632603
72	0xbd8468b4	-0.06465283
73	0xbb37afb3	-0.002802831
74	0x3da934f6	0.082620546
75	0x3d963e6d	0.073361255
76	0xbd1fbf0b	-0.039000552
77	0x3d790134	0.060792163
78	0xbdebbd27	-0.11510687
79	0x3d8a6426	0.06757383
80	0xbdbdeb70	-0.09273422
81	0xbe1c1167	-0.15241013
82	0xbe352cac	-0.17692822
83	0x3d98ccb6	0.074609205
84	0x3e10c241	0.14136602
85	0xbc864f30	-0.016395181
86	0x3d80e7c6	0.06294207
87	0xbdccab13	-0.09993567
88	0x3e00963f	0.12557314
89	0x3edc5e04	0.43040478
90	0xbd835536	-0.06412737
91	0xbe9df56d	-0.30851308
92	0xbd35f80b	-0.044426005
93	0x3dcb8257	0.0993697
94	0x3e5f004d	0.21777458
95	0xbda7ee1d	-0.081997134
96	0xbd1dfaff	-0.038569447
97	0xbed2e154	-0.41187537
98	0xbdbf5475	-0.09342281
99	0xbe080f22	-0.13287023
100	0xbe31b01d	-0.17352338
101	0x3d04d623	0.03243078
102	0xbe532fd7	-0.20623718
103	0xbddd8411	-0.10816205
104	0xbe3faad9	-0.18717517
105	0x3d46b7ad	0.04851501
106	0x3d63cb61	0.05561388
107	0x3dac30a5	0.08407716
108	0xbe288c3f	-0.1645975
109	0xbe800119	-0.25000837
110	0x3db1c67e	0.086804375
111	0x3e9fba22	0.31196696
112	0xbc7f2a63	-0.015574071
113	0xbd125b05	-0.035731334
114	0x3e86900e	0.2628178
115	0x3da0fe81	0.07861043
116	0xbcb03dc1	-0.021513822
117	0xbd79f1e0	-0.061021686
118	0xbe0a68b1	-0.13516499
119	0xbd9cff38	-0.076658666
120	0x3e06e9df	0.13175152
121	0xbc6f6f83	-0.014613989
122	0xbe0b0f7f	-0.1358013
123	0xbdc4c88e	-0.09608565
124	0x3b7516cf	0.0037397628
125	0xbe4bba7d	-0.19895358
126	0x3e80616b	0.25074324
127	0x3deed997	0.11662596
128	0x3cc4052b	0.023928246
129	0xbd89ef2f	-0.06735074
130	0xbdea9407	-0.11454015
131	0x3e836f92	0.2567106
132	0x3e16e993	0.14737539
133	0x3e27daa1	0.16391994
134	0xbd2f4f69	-0.04280034
135	0xbdfe4713	-0.124159
136	0x3e0100c0	0.12597942
137	0x3d82beba	0.063840345
138	0x3d70ceed	0.05879109
139	0x3e517ba4	0.20457321
140	0xbe1bfcd0	-0.15233159
141	0xbda8ab28	-0.082357705
142	0xbd2858cc	-0.04110031
143	0xbe499f3b	-0.19689648
144	0x3dac3b2e	0.08409725
145	0x3e053f0a	0.13012329
146	0x3dbf3946	0.09337096
147	0xbf0234be	-0.5086173
148	0x3e21876e	0.15774319
149	0xbe8b4c94	-0.27206862
150	0x3c0e27d8	0.008676492
151	0x3ddc344e	0.10752164
152	0xbdb33da8	-0.08751994
153	0xbe81c92f	-0.25348803
154	0xbe1cf62d	-0.15328284
155	0x3d873061	0.066010244
156	0x3e272e99	0.1632637
157	0x3d392387	0.045199897
158	0xbea034aa	-0.3129018
159	0x3e1c0874	0.152376
160	0x3e4230e7	0.18963967
161	0x3e25cd4c	0.16191596
162	0xbdf94920	-0.121721506
163	0xbe625534	-0.22102815
164	0xbe1e74ae	-0.15474197
165	0xbd95f972	-0.073229685
166	0xbde8efb2	-0.11373843
167	0xbd891bd6	-0.066947624
168	0x3d605be8	0.05477515
169	0xbe2e0052	-0.1699231
170	0xbdb7a75c	-0.08967468
171	0x3e2a4864	0.16629177
172	0xbc5e35c3	-0.0135626225
173	0x3d92c9d8	0.07167405
174	0xbda9d08c	-0.0829173
175	0xbd402eb0	-0.046919525
176	0xbe8f89d3	-0.2803484
177	0xbd01cbc5	-0.03168847
178	0x3d4eaa9d	0.05045568
179	0x3e2f3d17	0.17113148
180	0xbda3af9d	-0.0799248
181	0xbde4e4fe	-0.11176489
182	0x3e8ed456	0.27896374
183	0xbe519094	-0.20465308
184	0xbdfeb425	-0.124367036
185	0x3b446547	0.0029967593
186	0x3e989faf	0.2980933
187	0xbe617dfb	-0.22020714
188	0xbe2d2c09	-0.1691133
189	0x3d0e4346	0.034732126
190	0x3daa8a57	0.083271675
191	0x3d1d5d3f	0.038419005
192	0x3db7cae1	0.08974243
193	0xbd431ee3	-0.047636878
194	0xbd633bd8	-0.055476993
195	0x3d31d879	0.043419335
196	0x3de6fc8f	0.112786405
197	0xbd26ecc0	-0.040753126
198	0xbe0d626a	-0.13807073
199	0xbb99f8f8	-0.004698869
200	0x3e0b6368	0.13612139
201	0x3de53afa	0.111928895
202	0xbe00fbe3	-0.12596087
203	0xbe1534c0	-0.14570904
204	0xbd6d9c1e	-0.058010213
205	0x3d0d6d5e	0.03452813
206	0x3d9d29e7	0.07674008
207	0x3e196933	0.14981537
208	0x3d53e749	0.051734243
209	0x3d3af5f0	0.0456447
210	0xbd844439	-0.06458325
211	0x3e399cb0	0.18126178
212	0x3e04e7d6	0.12979063
213	0xbe115d6e	-0.14195797
214	0x3d0907db	0.033454757
215	0x3e338d26	0.17534313
216	0x3e7cc9c4	0.24686342
217	0xbc00ef47	-0.007869548
218	0xbdb5d728	-0.088789284
219	0x3de26c67	0.11055832
220	0xbdab98e1	-0.08378769
221	0x3dd4bde4	0.10387781
222	0x3d1bd3f9	0.03804395
223	0xbdd6a251	-0.10480178
224	0xbda93667	-0.082623295
225	0xbce0410b	-0.027374765
226	0xbdc86a63	-0.09785917
227	0x3d9985d1	0.074962266
228	0xbe285d22	-0.16441777
229	0xbe6cb0da	-0.23114339
230	0xbe211230	-0.15729594
231	0xbe1967cc	-0.14981002
232	0xbdd74f6f	-0.10513198
233	0x3dd2ff4a	0.10302599
234	0xbd25a538	-0.040440768
235	0xbd26e3b5	-0.040744502
236	0x3e16bb0c	0.1471979
237	0x3dd776d0	0.105207086
238	0x3bc79876	0.006091173
239	0xbd17b4c9	-0.037037645
240	0xbd404397	-0.04693946
241	0xbdd4da61	-0.10393215
242	0xbd803571	-0.06260193
243	0x3da42d5b	0.08016463
244	0xbdb69d15	-0.0891668
245	0xbe75a662	-0.23989251
246	0xbda29f85	-0.07940582
247	0x3d8c3cf9	0.06847567
248	0x3dece4b4	0.11567059
249	0xbd3ca155	-0.046052296
250	0xbe78727a	-0.2426242
251	0xbe140d44	-0.14458185
252	0x3e167b41	0.14695455
253	0xbc641add	-0.01392242
254	0xbd98a9bd	-0.0745425
255	0xbd992e67	-0.07479554

model/dense_4/MatMul;model/activation_4/Relu;model/dense_4/BiasAdd f4 [100]
0	0xc131d36f	-11.11412
1	0x4082c614	4.0866795
2	0xc0a1118e	-5.033393
3	0x4047d96b	3.1226451
4	0xbfb2b551	-1.3961583
5	0xc00a763e	-2.163467
6	0x40c689d9	6.204327
7	0x3eae250b	0.34012637
8	0x41b3239f	22.392393
9	0x41363c53	11.389728
10	0xc1122001	-9.132813
11	0xc01c7ea0	-2.4452286
12	0x41b51585	22.635508
13	0x4192a70d	18.331568
14	0xc1124c0a	-9.143564
15	0xc13c4cee	-11.768782
16	0xc093ee02	-4.6228037
17	0xc019535b	-2.3957126
18	0x3cb7644e	0.022386696
19	0x40fe2872	7.942437
20	0xc1192bd9	-9.573205
21	0xc142f74f	-12.185378
22	0x41481ade	12.506559
23	0xc12647f3	-10.392566
24	0x41f8a4a1	31.080385
25	0xbf6a1b4c	-0.914479
26	0x416f8e20	14.9721985
27	0x4143e8bb	12.244319
28	0x40b1f1aa	5.56075
29	0xc0cc098e	-6.3761663
30	0xc06014c6	-3.501268
31	0xc0cd5126	-6.416156
32	0x4199dce3	19.232855
33	0x4101bbe0	8.108368
34	0x416f8239	14.969293
35	0xc13de64b	-11.868724
36	0xc138513c	-11.519833
37	0x4103ab27	8.229285
38	0x41986217	19.047895
39	0x4168d7a8	14.55265
40	0x4200be9a	32.186134
41	0x3eefffeb	0.46874937
42	0x4102968f	8.161757
43	0xc08813b6	-4.252406
44	0x41e920b9	29.140978
45	0xc0a30107	-5.0938754
46	0xc082b0ca	-4.0840807
47	0xc113831a	-9.219507
48	0xc17b51dd	-15.707486
49	0x3fb966c5	1.4484488
50	0x419e6bb9	19.802599
51	0x416c025f	14.750579
52	0xc13687ce	-11.408155
53	0xbfb676ec	-1.4255042
54	0x411dd9a3	9.865634
55	0x411c4ef5	9.769277
56	0x41421d15	12.1321
57	0x40fa0f69	7.814381
58	0x4162e9ca	14.182077
59	0x413b0371	11.68834
60	0xc1745d33	-15.272754
61	0x40f7681d	7.731459
62	0xc0361002	-2.844727
63	0x41414b04	12.080814
64	0x40808d24	4.017229
65	0x41809260	16.071472
66	0xc0e6b0e5	-7.2090936
67	0x412fdfc6	10.992132
68	0x418ce713	17.61283
69	0x417bdbd3	15.741168
70	0x3f60e899	0.87854916
71	0x41ba8162	23.313175
72	0x40abafc0	5.365204
73	0xc1c30469	-24.377153
74	0x412d768d	10.841443
75	0x41c6edea	24.866169
76	0x419f788a	19.933857
77	0x40bf34b9	5.975186
78	0x413f381d	11.9512
79	0xc1c561a7	-24.672682
80	0x4185a3a6	16.704906
81	0x41a0c735	20.09727
82	0x419dbae3	19.716253
83	0xc1924181	-18.281984
84	0x40bee000	5.9648438
85	0x3f780141	0.96876913
86	0x410157f7	8.083976
87	0x3f768462	0.9629575
88	0x3fb3e22d	1.4053398
89	0xc08982b2	-4.297204
90	0xc1132a7a	-9.19787
91	0x412fc503	10.985599
92	0x412b5aec	10.709698
93	0x3f549961	0.8304654
94	0x41c1cff4	24.22654
95	0x41a42ea8	20.522781
96	0xc070cb2c	-3.7624006
97	0xc15670f4	-13.402576
98	0x418785bd	16.940302
99	0xbff625f8	-1.9230337

model/batch_normalization_3/batchnorm/mul_1;model/batch_normalization_3/batchnorm/add_1;model/dense_4/MatMul;model/activation_4/Relu;model/dense_4/BiasAdd f4 [100, 100]
0	0xbd92c1b6	-0.07165854
1	0x3c423757	0.011854014
2	0x3cb3977a	0.021922816
3	0xbe28f260	-0.16498709
4	0xbe3bc346	-0.1833621
5	0x3dece904	0.11567882
6	0x3dc37b20	0.095449686
7	0xbd865813	-0.065597676
8	0xbddebd17	-0.1087591
9	0x3ce7aea2	0.028281514
10	0xbceff6ca	-0.029292483
11	0x3e40fb38	0.18845832
12	0x3cebff5e	0.028808292
13	0xbcb04ba1	-0.021520438
14	0x3e35a057	0.17736946
15	0x3e4cd4a9	0.20002998
16	0x3c5a996d	0.013342244
17	0x3b73b98c	0.0037189452
18	0x39b316b1	0.00034158447
19	0x3d0dca4f	0.034616765
20	0xbd759e78	-0.05996558
21	0x3e6e427a	0.23267546
22	0x3e94c1cc	0.29054105
23	0x3e2d07a1	0.16897441
24	0xbd928669	-0.07154543
25	0x3c39c921	0.011339457
26	0x3e2e1528	0.17000258
27	0x3d334e1b	0.04377566
28	0xbdf847b7	-0.121230535
29	0xbd0b78a2	-0.03405059
30	0xbdbd97dd	-0.09257481
31	0xbe9c28ef	-0.3049998
32	0x3c8ebaf9	0.01742314
33	0xbdba3cc4	-0.090936214
34	0xbc3cb49b	-0.011517669
35	0x3e233b1d	0.15940519
36	0x3e5e5db4	0.21715432
37	0xbd5c9621	-0.05385411
38	0xbe5c08d1	-0.21487738
39	0xbd2a5abe	-0.041590445
40	0xbe48835c	-0.1958136
41	0xbd9dfe55	-0.077145256
42	0xb9b10f40	-0.00033771433
43	0x3d7ee53d	0.062230337
44	0x3da83eb6	0.08215086
45	0x3e53af49	0.20672335
46	0xbe935e2d	-0.28782788
47	0xbbdb5a45	-0.0066941106
48	0x3eb330a1	0.34998038
49	0x3caa8a93	0.02081803
50	0x3e0253c9	0.12727274
51	0x3d932c85	0.07186226
52	0x3dea75a6	0.11448221
53	0x3dbf9aae	0.09355675
54	0x3cf4dad6	0.029889505
55	0x3c8f8da1	0.017523589
56	0xbddcfa0a	-0.10789879
57	0x3e2bd4d8	0.16780412
58	0x3d57d9e0	0.052698016
59	0x3e44a830	0.19204783
60	0xbe51139a	-0.20417634
61	0xbb2eb108	-0.0026655812
62	0xbc2e4882	-0.010637404
63	0x3de61337	0.11234134
64	0xbdcda040	-0.10040331
65	0x3d2ef337	0.042712416
66	0x3d979024	0.074005395
67	0x3d090d39	0.033459876
68	0x3dabec88	0.08394724
69	0x3d9fb14b	0.07797488
70	0xbdf733d7	-0.120704345
71	0x3db3aac7	0.087728076
72	0x3e117de0	0.14208174
73	0x3ca9d835	0.020732978
74	0xbdcb3fb5	-0.099242605
75	0xbeb751d2	-0.3580461
76	0xbe29df0b	-0.1658899
77	0xbe65726e	-0.22406933
78	0xbcb1f5de	-0.021723684
79	0xbbb6c879	-0.0055780974
80	0x3d888213	0.06665435
81	0x3db6878c	0.08912572
82	0x3d57de0e	0.052702002
83	0xbd9a5530	-0.075357795
84	0x3d7ada52	0.061243363
85	0xbd8edc5a	-0.069756225
86	0xbd8ad6b8	-0.067792356
87	0x3e1012bb	0.14069645
88	0x3bc7c793	0.006096789
89	0x3c28ef7a	0.010311002
90	0xbd9c3f02	-0.07629205
91	0x3c77b61b	0.015119101
92	0x3de0bc2c	0.10973391
93	0xbd9ee256	-0.07758014
94	0xbe9af95d	-0.30268374
95	0x3daff97d	0.08592508
96	0x3d2f9ee3	0.042876136
97	0x3e00b98c	0.1257078
98	0x3c472e3d	0.01215702
99	0x3c73a2a3	0.014870319
100	0x3d1a0172	0.037599035
101	0x3e1334ab	0.1437556
102	0x3d94d2ff	0.07266807
103	0x3d321b1b	0.04348288
104	0xbdd02656	-0.10163562
105	0x3d2b782f	0.041862663
106	0x3d65bd2f	0.056088623
107	0x3e48149a	0.19539109
108	0xbe2cca1c	-0.16873974
109	0x3e03a869	0.12857212
110	0xbcb12d02	-0.021627907
111	0x3e1b9f09	0.15197386
112	0xbdba7571	-0.091044314
113	0x3d4b0cd9	0.0495728
114	0x3c843a00	0.016140938
115	0x3d077280	0.03306818
116	0x3d349e2c	0.044096157
117	0x3db2b8cc	0.087266535
118	0x3e084ba0	0.13310099
119	0xbeba0edc	-0.36339462
120	0xbc5c203e	-0.0134354215
121	0xbdc4121a	-0.09573765
122	0xbd3efd7d	-0.046628464
123	0x3e50a40d	0.2037508
124	0xbbe44953	-0.0069667487
125	0x3c09ee84	0.008418683
126	0xbdd514a0	-0.104043245
127	0x3d9ebc6c	0.07750782
128	0x3d36537d	0.044513214
129	0x3e8d6709	0.27617672
130	0x3a130a85	0.00056091725
131	0xbdbdf027	-0.09274321
132	0x3d38cd0a	0.045117415
133	0xbe267d32	-0.16258696
134	0x3df1d92c	0.118090004
135	0xbd996f7d	-0.07491968
136	0x3e1500aa	0.14551035
137	0xbdf6d8a2	-0.12053038
138	0x3e1abc1b	0.15110819
139	0xbd28f57d	-0.04124974
140	0x3da5ce7f	0.08096027
141	0xbe93587b	-0.28778443
142	0x3d193b3e	0.037410013
143	0xbda5a005	-0.08087162
144	0x3d2b3fe4	0.041808978
145	0xbd5c16e8	-0.053732783
146	0x3e356547	0.17714415
147	0xbddf5930	-0.10905683
148	0xbe0ef271	-0.13959672
149	0x3cae774c	0.02129712
150	0x3d0b0f48	0.03395012
151	0x3d1b6d67	0.03794613
152	0xbe572f70	-0.2101419
153	0x3d4e41e8	0.05035582
154	0xbbccddd5	-0.0062520304
155	0x3c964aa2	0.018346135
156	0xbcae4800	-0.021274567
157	0xbe335524	-0.17512947
158	0xbd00239b	-0.031283956
159	0xbe714317	-0.23560749
160	0xbc1aacb2	-0.009440588
161	0xbce7ea0c	-0.028309844
162	0xbdcb4925	-0.099260606
163	0x3c011927	0.007879532
164	0x3e21477b	0.15749924
165	0xbdc29c11	-0.095024236
166	0xbd06a0fb	-0.032868367
167	0xbc8c414e	-0.017120983
168	0x3e2a4e3a	0.16631404
169	0x3dbc8093	0.09204211
170	0x3ca46e5c	0.020072155
171	0xbec18d94	-0.37803328
172	0x3f1f759a	0.6228882
173	0x3e829467	0.25503847
174	0xbcbaa9c3	-0.022786027
175	0xbdd8e74b	-0.10590991
176	0xbe01a5f9	-0.1266097
177	0x3e247d6f	0.16063474
178	0x3dcdcf96	0.100493595
179	0xbd624821	-0.05524457
180	0xbd23380c	-0.039848372
181	0x3e0a59f6	0.1351088
182	0xbe262530	-0.16225123
183	0xbe2b907b	-0.16754334
184	0xbdcecd96	-0.10097806
185	0xbe18eea0	-0.14934778
186	0x3e013c4e	0.1262066
187	0xbdf1ddaa	-0.11809857
188	0xbe080cf1	-0.13286187
189	0xbca2d688	-0.019877687
190	0x3d19fc88	0.03759435
191	0xbe083f2d	-0.1330535
192	0xbb70b15d	-0.003672681
193	0x3a808128	0.0009804117
194	0x3daa0cd8	0.08303231
195	0x3e1f1b56	0.15537772
196	0x3ef140aa	0.47119647
197	0x3e7a7abd	0.24460883
198	0xbd12a9cc	-0.035806462
199	0x3e5612cb	0.20905606
200	0xbdb13095	-0.086518444
201	0x3e7b8847	0.24563704
202	0x3db9930a	0.090612486
203	0x3e64645d	0.2230391
204	0x3e047c61	0.12938072
205	0xbca570b7	-0.020195348
206	0xbbf27d97	-0.0074002254
207	0x3e1ad907	0.15121852
208	0x3d91801a	0.071045116
209	0xbdce07a6	-0.100600526
210	0xbe03a1fe	-0.12854764
211	0x3e87438c	0.26418722
212	0x3e34cfa4	0.17657334
213	0x3b62ba50	0.0034595914
214	0x3d694981	0.056954864
215	0x3ce92291	0.028458865
216	0xbcaf23e4	-0.021379419
217	0x3df139d0	0.11778605
218	0xbdfbae3a	-0.122890905
219	0x3dbd7c38	0.092522085
220	0x3bf704ce	0.0075384146
221	0x3d954142	0.072878376
222	0x3c701e0a	0.014655599
223	0xbd3ab80c	-0.045585677
224	0x3b51b51a	0.0031998814
225	0xbe847eaa	-0.25877887
226	0x3dd3406f	0.10315024
227	0xbd52897c	-0.051400647
228	0xbe166a5d	-0.14689012
229	0x3d41810b	0.047242206
230	0x3d9a76af	0.07542168
231	0xbd8a121e	-0.06741737
232	0xbdc41360	-0.09574008
233	0x3da1118e	0.078646764
234	0x3dcb23c8	0.09918934
235	0xbe994e62	-0.29942614
236	0x3d593f42	0.053038843
237	0xbbcd383d	-0.0062628076
238	0xbe0433c3	-0.1291037
239	0xbe0dc51d	-0.13844724
240	0xbc5a3c36	-0.0133200195
241	0xbe281183	-0.1641293
242	0xbe4eed38	-0.2020768
243	0xbc86ce31	-0.016455742
244	0xbd94d158	-0.07266492
245	0x3d0b7829	0.03405014
246	0x3d7c2982	0.061563022
247	0x3d4dda69	0.05025712
248	0x3e70401f	0.2346196
249	0xbde57317	-0.11203592
250	0x3e14f03b	0.14544766
251	0xbf103c07	-0.56341594
252	0xbcae75ad	-0.021296347
253	0x3de2dc37	0.11077159
254	0x3e015690	0.12630677
255	0x3db2ab22	0.08724047

model/dense_5/MatMul;model/activation_5/Relu;model/dense_5/BiasAdd f4 [100]
0	0xbf8db321	-1.1070291
1	0x4197f355	18.993814
2	0xc0f0fe62	-7.5310526
3	0xbf873738	-1.0563726
4	0x40a6873a	5.204007
5	0xc115a148	-9.351875
6	0x41f27e4c	30.311668
7	0x41296bc1	10.588807
8	0xbfd99ae8	-1.7000399
9	0x40f67a54	7.7024326
10	0x41942bee	18.52145
11	0xbd8ae402	-0.0678177
12	0xbe90e01b	-0.2829598
13	0x4189ea37	17.239363
14	0xc18a6c4b	-17.302877
15	0x41314111	11.078385
16	0xc0c5f0f1	-6.185662
17	0x405c0adc	3.4381628
18	0x404329aa	3.049418
19	0xc00d6ea4	-2.209878
20	0x420bf7f1	34.99213
21	0xc1554f9b	-13.331935
22	0x41880b69	17.005571
23	0x41584ae0	13.51828
24	0x418c5cdd	17.545343
25	0x408d7a77	4.4211993
26	0xc073c0eb	-3.8086498
27	0x4057dbe4	3.372796
28	0x40d7fd97	6.749706
29	0x41bf9dce	23.952053
30	0xc133cb13	-11.237079
31	0xc016aa00	-2.354126
32	0xc1269991	-10.412492
33	0xc0b3cf86	-5.6190825
34	0x410777de	8.466764
35	0x417181ad	15.094159
36	0x40655d89	3.583834
37	0x417cbcc9	15.79609
38	0xc03491a4	-2.8213892
39	0xc1b783e3	-22.939398
40	0x41acaf94	21.585732
41	0xc163ac3f	-14.229552
42	0x40e1693c	7.044096
43	0x4179c260	15.609955
44	0x41502a67	13.010352
45	0xc11c587e	-9.771605
46	0x3f8434d7	1.0328625
47	0x412d6bad	10.838788
48	0xc18f27e3	-17.894476
49	0x417eb91a	15.920191
50	0x3f6c9d0c	0.92427135
51	0x416eb2c2	14.918642
52	0xc16302a6	-14.188147
53	0x4085e5a7	4.1842837
54	0x40abb1cc	5.3654537
55	0xc0a91500	-5.2838135
56	0xc002ae88	-2.0419025
57	0x4113547d	9.208127
58	0xc020df74	-2.5136385
59	0x4195c61f	18.721739
60	0x40dfdc84	6.9956684
61	0x40977848	4.733433
62	0x414bd41e	12.739286
63	0x4169b33c	14.606258
64	0xbff4312a	-1.9077504
65	0x41330a7c	11.19006
66	0x41311918	11.068626
67	0xc0c1fd50	-6.062172
68	0xc0bb7434	-5.857935
69	0x3f7e0b7b	0.9923627
70	0xc1cf4669	-25.90938
71	0x40fcb992	7.8976526
72	0x41c8c039	25.093859
73	0x40b621ca	5.6916246
74	0x40867057	4.2012134
75	0x3f69e073	0.9135811
76	0x3fd0e839	1.6320869
77	0xc1709170	-15.035507
78	0xc0a37949	-5.1085553
79	0xc1f19f76	-30.202862
80	0x4215dec9	37.467564
81	0x402d24ac	2.7053633
82	0x41c85f95	25.04667
83	0x41e0cfbb	28.10143
84	0x404867c3	3.131333
85	0x3fd99681	1.6999055
86	0x4039dbd3	2.904042
87	0x415a8ff8	13.660149
88	0xc0fb5cf2	-7.855096
89	0x402e1951	2.7202952
90	0xc0ee8b34	-7.4544926
91	0x419c289c	19.519829
92	0xc0668b5b	-3.6022556
93	0xbf485beb	-0.78265256
94	0x403ffbe3	2.999749
95	0x40248ecc	2.5712156
96	0x413b71b6	11.715261
97	0x41935a9d	18.419245
98	0x411f23a9	9.946206
99	0x40b1f067	5.560596

model/batch_normalization_4/batchnorm/mul_1;model/batch_normalization_4/batchnorm/add_1;model/dense_5/MatMul;model/activation_5/Relu;model/dense_5/BiasAdd f4 [100, 100]
0	0x3d3dd92b	0.046349686
1	0xbdba9534	-0.091104895
2	0xbc8f9868	-0.017528728
3	0x3caac66f	0.020846574
4	0x3e0ba716	0.13637957
5	0x3f33d858	0.7025199
6	0x3e36c026	0.17846736
7	0x3eb59fb2	0.354734
8	0x3df52f28	0.11971885
9	0xbe4eb5c8	-0.20186532
10	0xbf14a748	-0.5806775
11	0xbf339151	-0.7014361
12	0xbccab032	-0.02474222
13	0xbd52c151	-0.051453892
14	0x3ab7f860	0.0014035814
15	0x3e3794b2	0.17927817
16	0xbdc4b509	-0.09604842
17	0xbd337241	-0.043810133
18	0x3e79ab8b	0.24381845
19	0xbe27de4c	-0.16393393
20	0x3db33ccf	0.08751833
21	0x3dba7ed9	0.091062255
22	0x3ca4d1cf	0.020119576
23	0xbdf57af7	-0.11986344
24	0x3d3d0814	0.046150282
25	0xbcb488de	-0.02203792
26	0xbdd7dc44	-0.10540059
27	0x3d721dc0	0.059110403
28	0x3e0129f7	0.12613665
29	0x3dff17df	0.12455725
30	0xbe15e8a2	-0.14639524
31	0x3d15c7f3	0.03656764
32	0xbd9ef723	-0.07761981
33	0xbda980d8	-0.08276528
34	0xbdf1089f	-0.117692225
35	0xbe6445bf	-0.22292231
36	0x3ca48a34	0.020085432
37	0x3deabae5	0.114614286
38	0x3d854912	0.06508078
39	0xbd423e92	-0.047422953
40	0x3dc81288	0.097691596
41	0x3e2d3045	0.16912945
42	0xbd2dfb13	-0.04247577
43	0xbd97894d	-0.07399235
44	0x3c791a48	0.01520402
45	0x3e780c9b	0.24223559
46	0xbe1dd017	-0.15411411
47	0xbcfb953d	-0.03071081
48	0xbd197e6f	-0.037474092
49	0xbeb5fe86	-0.35545748
50	0x3de27dac	0.11059126
51	0xbdb5253f	-0.08844995
52	0x3e4d552f	0.20052026
53	0x3d8d0a0d	0.06886683
54	0x3d925381	0.07144833
55	0x3e24125b	0.16022627
56	0xbbb78b39	-0.0056013134
57	0xbe82025c	-0.25392425
58	0xbdb54e16	-0.08852784
59	0x3c486468	0.01223097
60	0x3ddb769f	0.107159846
61	0x39e335c8	0.00043336884
62	0x3d8293c4	0.0637584
63	0x3e45f028	0.19329894
64	0x3df85c26	0.12126951
65	0x3d031edd	0.032011855
66	0x3d453614	0.048147276
67	0x3d747ba7	0.059688237
68	0x3cd138fe	0.025539871
69	0xbe683ffe	-0.22680661
70	0x3d68790a	0.056756057
71	0xbd8919dd	-0.06694386
72	0xbdbe8bba	-0.093039945
73	0xbdda516f	-0.106600635
74	0xbcfd9a40	-0.030957341
75	0x3d335b86	0.043788455
76	0xbc1b948f	-0.009495868
77	0x3daa15a1	0.08304907
78	0x3e8674a7	0.26260874
79	0x3d5fe704	0.054663673
80	0xbe3e988c	-0.1861288
81	0xbc3e772b	-0.011625092
82	0xbd69bf8e	-0.057067446
83	0x3ed7c81e	0.42144865
84	0xbe0ae8ee	-0.13565418
85	0xbdc6ed39	-0.097132154
86	0x3ded4cf6	0.11586945
87	0x3e0a6e50	0.13518643
88	0xbe857ea7	-0.2607319
89	0xbed508da	-0.41608316
90	0xbed691cc	-0.4190811
91	0x3d982081	0.07428075
92	0x3da29065	0.07937697
93	0xbd7fafc5	-0.062423486
94	0x3dc9b4c8	0.098489344
95	0xbb2e2074	-0.0026569637
96	0xbe657a9f	-0.22410057
97	0xbddb4d33	-0.10708084
98	0x3e239e9f	0.15978478
99	0xbdaccf35	-0.08437959
100	0x3c5d1572	0.0134938825
101	0xbe0bb8ca	-0.1364471
102	0xbe60626d	-0.21912546
103	0xbe8dc02d	-0.2768568
104	0x3dbd68d2	0.092485085
105	0x3ed53507	0.4164202
106	0x3ae06705	0.0017120546
107	0xbd55bf9e	-0.052184694
108	0x3da72c45	0.081627406
109	0x3e36c81a	0.1784977
110	0x3eefa7c8	0.46807694
111	0x3e380ea3	0.17974333
112	0x3d70d640	0.058798075
113	0x3e309531	0.17244412
114	0x3eaab01a	0.3333748
115	0xbe17fc48	-0.14842331
116	0xbe2739b5	-0.16330607
117	0xbef315e3	-0.47477636
118	0x3dce508d	0.100739576
119	0x3c074d34	0.008258153
120	0xbe31582d	-0.17318793
121	0xbe78144b	-0.24226491
122	0x3cabe589	0.020983474
123	0x3c8c87f6	0.017154675
124	0xbd0206b7	-0.031744685
125	0xbdb1f493	-0.08689227
126	0x3d3542c4	0.044253126
127	0xbd1a00cb	-0.037598412
128	0xbd6315b4	-0.05544062
129	0xbe463740	-0.19357014
130	0xbd9c5090	-0.076325536
131	0xbed21ce4	-0.41037667
132	0x3d1879a1	0.03722537
133	0x3d864568	0.06556207
134	0xbbf4a04a	-0.007465397
135	0xbe15156e	-0.14558956
136	0xbe4517be	-0.19247338
137	0x3df975ce	0.121806726
138	0x3e3dcb7b	0.18534653
139	0x3d4a054d	0.04932146
140	0xbae986a6	-0.0017816618
141	0xbe0cfc81	-0.13768198
142	0xbc9f87e3	-0.019473976
143	0x3ce1a4f2	0.027544472
144	0x3c6b0497	0.014344356
145	0xbece1567	-0.40250704
146	0x3d7df4a2	0.06200088
147	0xbe84fa75	-0.25972334
148	0xbd05f5ef	-0.032705244
149	0xbdda7b32	-0.10668029
150	0x3e602f4f	0.21893047
151	0xbcc68916	-0.02423529
152	0x3bc88230	0.006119035
153	0x3c400b28	0.01172141
154	0xbc4f1e0c	-0.012641441
155	0xbd85765f	-0.06516718
156	0xbcc2bf3d	-0.02377283
157	0xbd153340	-0.03642583
158	0xbe14e3e1	-0.14540054
159	0x3a9c9d93	0.0011948816
160	0xbe0ab953	-0.13547258
161	0x3d1f0746	0.038825296
162	0x3d9b28b8	0.07576126
163	0xbe1976af	-0.1498668
164	0xbd0121b3	-0.03152628
165	0xbe2edf20	-0.17077303
166	0xbe0ad3a8	-0.13557303
167	0xbe05bbd3	-0.1305993
168	0xbe617c7c	-0.22020143
169	0xbdbcdc56	-0.09221713
170	0xbf082406	-0.5317997
171	0xbcd1fa26	-0.025631975
172	0xbdb25587	-0.08707719
173	0xbda3b74f	-0.07993948
174	0xbe180b00	-0.14847946
175	0xbd371df7	-0.04470631
176	0xbb8aa596	-0.004231165
177	0xbdfb842a	-0.12281068
178	0xbe28b32e	-0.16474602
179	0x3d993ea0	0.07482648
180	0x3d1ff0b3	0.039047908
181	0xbd442cb0	-0.04789418
182	0xbd30b9ee	-0.043146066
183	0xbb44228d	-0.002992782
184	0xbee7c40a	-0.45266753
185	0x3aa8209b	0.00128271
186	0x3d61cba9	0.055125866
187	0xbd143bd0	-0.036189854
188	0x3e8d2da7	0.27573892
189	0x3e7ce7af	0.24697755
190	0x3cffea46	0.03123964
191	0xbebb2bfe	-0.36557
192	0xbc534207	-0.01289416
193	0xbd4ab94c	-0.04949312
194	0x3b1dfb3e	0.002410605
195	0xbd5aa2b1	-0.05337781
196	0x3c2bc49e	0.010483889
197	0x3cb51429	0.02210434
198	0xbdf3ad95	-0.118983425
199	0xbe8c677b	-0.274227
200	0x3e3f6817	0.18692051
201	0x3e3f3901	0.18674089
202	0xbd8034bb	-0.062600575
203	0xbdeb8f0d	-0.11501894
204	0xbc242127	-0.01001767
205	0xbe4bbea1	-0.19896938
206	0x3ccced91	0.025015624
207	0x3e28475a	0.16433468
208	0xbd1210aa	-0.035660423
209	0xbde9c936	-0.11415331
210	0xbcb0ee1a	-0.02159791
211	0xbe8ea021	-0.27856544
212	0x3d809340	0.06278086
213	0xbdec02fc	-0.11524007
214	0x3d80dd99	0.062922664
215	0x3d642b4a	0.055705346
216	0x3d791bc0	0.06081748
217	0xbe2809f7	-0.16410051
218	0xbe67594a	-0.22592655
219	0x3e45593c	0.19272321
220	0xbdaabbf7	-0.08336633
221	0x3d8301d6	0.063968346
222	0x3dc580bc	0.09643695
223	0x3d1a5c0f	0.03768545
224	0xbd9b6693	-0.07587924
225	0xbc7585e0	-0.014985532
226	0xbdc09a63	-0.09404447
227	0x3d221f9c	0.039580926
228	0x3e864f6a	0.26232463
229	0xbd6309ca	-0.055429257
230	0xbc0c2ce7	-0.008555627
231	0x3c32c4e3	0.010911199
232	0xbd55ff5c	-0.052245483
233	0xbd80a165	-0.062807836
234	0xbcb32c76	-0.021871787
235	0x3ba53858	0.005042117
236	0xbd098160	-0.033570647
237	0xbdc3dc84	-0.095635444
238	0x3d8ef0e3	0.06979539
239	0x3e27e2c3	0.16395096
240	0x3e0055a5	0.12532671
241	0xbdb1e6bb	-0.086865865
242	0x3c233a29	0.009962597
243	0xbe6f2178	-0.23352611
244	0xbca34f4b	-0.01993527
245	0xbbc666a5	-0.0060547167
246	0x3d39841a	0.045291997
247	0xbd103bf8	-0.03521344
248	0x3d1a98bd	0.03774332
249	0xbfc80f3b	-1.5629648
250	0x3f747e7a	0.9550549
251	0xbda66075	-0.081238665
252	0x3ca3ddea	0.020003278
253	0x3bde905e	0.0067921123
254	0xbe2d4657	-0.16921364
255	0x3d10e2d5	0.035372574

model/dense_6/MatMul;model/activation_6/Relu;model/dense_6/BiasAdd f4 [100]
0	0xc0c648a6	-6.196368
1	0x4064bd2b	3.574046
2	0x40f1479d	7.539992
3	0x3fe0c9a7	1.756154
4	0x41b95d5d	23.170588
5	0xbebb2d62	-0.36558062
6	0x40f26d3b	7.575834
7	0x415d5ef7	13.835685
8	0xc08467b5	-4.1376595
9	0x41761650	15.380447
10	0x41b9118d	23.13357
11	0x401bfdcd	2.4373658
12	0x3f2c2c80	0.672554
13	0x41a0ba69	20.09102
14	0x412459d0	10.271927
15	0xc073c36f	-3.8088033
16	0x4191d1f0	18.227509
17	0xbf6c729b	-0.92362374
18	0x41c6f117	24.86772
19	0x411f5538	9.958305
20	0x42046e52	33.107735
21	0x41042e09	8.261239
22	0xc157d3db	-13.489223
23	0xc185b247	-16.71205
24	0x403e6e70	2.9754906
25	0x40d69b7a	6.706479
26	0xbf9681cd	-1.1758362
27	0x4143d68a	12.239878
28	0x417cd43e	15.801817
29	0xbf8f8420	-1.1212196
30	0xc0dfec48	-6.997593
31	0x4074fb2d	3.8278306
32	0x3fd1f414	1.6402612
33	0xbf94cb07	-1.1624459
34	0x4089130f	4.2835765
35	0x41dfcedc	27.976006
36	0xc1c1663b	-24.174917
37	0x4142977a	12.161982
38	0xc10d3771	-8.8260355
39	0x410512e8	8.317116
40	0x413a1fda	11.632776
41	0x4063804b	3.5547054
42	0x40c0ac8e	6.021064
43	0xc11fe505	-9.993413
44	0x41983fab	19.031088
45	0x40ba046c	5.81304
46	0xc14225d3	-12.134234
47	0x40cd1bd4	6.409647
48	0x40b7a84c	5.739294
49	0x4140421e	12.016142
50	0xc08be6e7	-4.3719363
51	0xc10882d3	-8.5319395
52	0x40c163cc	6.043432
53	0x413ca279	11.789666
54	0x3fb4842a	1.4102833
55	0x411f07f8	9.9394455
56	0x4191bea8	18.218094
57	0xc0aded25	-5.4351983
58	0x4104f5a2	8.309969
59	0x41b1118e	22.133572
60	0x41aba9a7	21.457838
61	0x40032581	2.049164
62	0xc07b3daa	-3.9256387
63	0xc0522717	-3.2836359
64	0xc0d15cf2	-6.542596
65	0x40de0242	6.9377756
66	0x41923fb4	18.281105
67	0x4008be20	2.1366043
68	0x3ea4793c	0.32123744
69	0x41144938	9.267876
70	0x41bcaf6b	23.585653
71	0x411ce25c	9.8052635
72	0xbfa43675	-1.2829119
73	0x414f6e13	12.964374
74	0x4110d9d4	9.053181
75	0x405ff5ec	3.4993849
76	0xc118f6a0	-9.560211
77	0x414dd671	12.864854
78	0xc1586088	-13.523567
79	0x40a1a592	5.051461
80	0xc0659a74	-3.587552
81	0x3f9e81d9	1.2383376
82	0xc087fd50	-4.249672
83	0x4186fb73	16.872778
84	0x412c505e	10.769621
85	0x4138b3d1	11.5439005
86	0x41430557	12.188804
87	0x4069a8f4	3.650937
88	0xc11c4235	-9.766164
89	0xc026ca6b	-2.6061046
90	0x405bec03	3.43628
91	0xc14d3854	-12.826252
92	0x41126561	9.149751
93	0x40b8a664	5.7703114
94	0xbeedd722	-0.46453196
95	0x40ebc816	7.3681746
96	0x41b9fa04	23.247078
97	0x3fac7fc8	1.3476496
98	0xc0d611c6	-6.6896696
99	0xbfefa19a	-1.8721192
