corintho_ai/rating/tflite_models/model_58.tflite (tflite, 521576 bytes, 27 tensors)

model/dense_1/MatMul;model/activation_1/Relu;model/dense_1/BiasAdd f4 [100]
-24.051746 144.46455 -58.97119 4.8295383 59.973392 43.79058 78.18134 -32.889286
-44.1952 -5.1407514 -4.6428275 -55.272873 7.180641 -40.5991 -3.9063382 -64.33187
34.58809 6.4779696 -14.88351 3.2443147 11.1986 -0.43604127 10.432607 -59.96827
82.15315 9.721727 -1.4741888 -10.056992 -69.518814 45.98009 -45.24975 2.2065117
31.719322 -38.251404 73.95072 55.622368 11.100351 -29.509003 19.057543 34.678658
80.20108 -22.913406 -53.177208 -0.974584 15.456381 -26.387066 -1.2730439 -31.470106
-16.683254 -2.2463357 26.239248 -48.719383 21.118841 151.51266 -3.743883 30.387796
16.850754 -13.921052 31.326496 -11.33885 26.71466 79.045105 -2.7042174 33.573483
52.352104 85.9611 130.66206 5.4658313 -25.639023 -97.68547 -21.007967 -27.591557
-3.8082821 98.46506 -13.569605 74.39814 -7.136087 6.021488 -117.82021 4.753726
17.069025 47.551914 12.620172 -26.94581 4.604647 77.84708 34.48345 -26.69287
88.77555 34.621098 100.40049 6.979675 64.26087 7.338631 9.791683 -4.0058656
144.3366 25.722708 15.810295 -88.27077
00000000: fa69 c0c1 ed76 1043 80e2 6bc2 948b 9a40
00000010: c1e4 6f42 8e29 2f42 d95c 9c42 a18e 03c2
00000020: e3c7 30c2 0981 a4c0 0b92 94c0 6c17 5dc2
00000030: d0c7 e540 7a65 22c2 7201 7ac0 eba9 80c2
00000040: 345a 0a42 874b cf40 db22 6ec1 daa2 4f40
00000050: 772d 3341 cd40 dfbe f5eb 2641 82df 6fc2
00000060: 6a4e a442 328c 1b41 38b2 bcbf 70e9 20c1
00000070: a209 8bc2 9deb 3742 beff 34c2 7d37 0d40
00000080: 2cc1 fd41 7001 19c2 c5e6 9342 4e7d 5e42
00000090: 0a9b 3141 7012 ecc1 d975 9841 f2b6 0a42
000000a0: f466 a042 a84e b7c1 76b5 54c2 567e 79bf
000000b0: 564d 7741 b618 d3c1 1af3 a2bf c7c2 fbc1
000000c0: 4e77 85c1 f7c3 0fc0 fbe9 d141 a6e0 42c2
000000d0: 63f3 a841 3e83 1743 c79b 6fc0 351a f341
000000e0: 58ce 8641 a1bc 5ec1 aa9c fa41 ee6b 35c1
000000f0: a0b7 d541 1817 9e42 e611 2dc0 3f4b 0642
00000100: 8e68 5142 15ec ab42 7da9 0243 17e8 ae40
00000110: b81c cdc1 f65e c3c2 5110 a8c1 82bb dcc1
00000120: e5ba 73c0 1cee c442 1a1d 59c1 d9cb 9442
00000130: d35a e4c0 08b0 c040 f3a3 ebc2 861e 9840
00000140: 5d8d 8841 2935 3e42 39ec 4941 0591 d7c1
00000150: 4559 9340 b4b1 9b42 0eef 0942 ff8a d5c1
00000160: 158d b142 017c 0a42 0dcd c842 7f59 df40
00000170: 9185 8042 11d6 ea40 bcaa 1c41 0d30 80c0
00000180: 2b56 1043 1bc8 cd41 f8f6 7c41 a28a b0c2

model/batch_normalization/batchnorm/mul_1;model/batch_normalization/batchnorm/add_1;model/dense_1/MatMul;model/activation_1/Relu;model/dense_1/BiasAdd f4 [100, 100]
0.12575512 -0.64887893 0.24263579 0.09517164 1.4049686 0.026231388 -0.9325844 -1.0218545
0.09558253 0.5701425 0.5307234 0.16171192 0.264407 -0.008217463 -0.63418806 0.022284564
0.15617852 -1.5465534 0.27068838 -0.40492862 0.06349909 4.1345367 -0.08340387 0.021062518
-0.10159675 0.11485454 -0.029157199 -0.94339204 0.102740414 -0.11394391 -0.018230194 0.62155014
0.0340612 -0.45874745 0.002587991 -0.33736217 -0.246152 -0.26562572 -0.08625098 0.21383607
0.5700222 1.1300288 0.40482488 0.2641714 -0.3119605 -0.12456454 0.24161012 -0.071046524
0.7523965 0.14763667 0.049112383 -1.5461799 0.8762897 4.983156 0.19436929 -0.022433639
0.06509826 0.45483446 1.3301748 0.47259498 0.4594494 -0.11819866 0.11313333 -0.8218765
0.38235217 -0.42709184 -0.046966713 0.37169436 -0.107937776 0.8026812 0.5787304 -0.10472703
0.1302864 -0.1011737 0.6717027 -0.72055274 -0.48888627 -0.03889931 0.18009812 0.36117306
-0.78944486 0.25546965 -0.22703013 0.0316289 -0.31265503 -0.16492017 -0.10619391 -0.57874125
-0.19602898 -0.04128172 -0.8991342 1.0439432 0.10293471 -0.36416957 -0.17881566 0.186121
0.24604133 -0.10802457 -0.4988225 -0.12314127 -0.9637236 -1.1290689 -0.18208349 0.19826594
-0.93472856 2.0494204 0.53265965 0.30001408 0.032958247 -0.58293414 0.33259663 0.059950244
-1.2259448 -0.1703824 -0.31608856 -0.7232879 0.06521539 -1.6221197 -0.80684066 0.11051525
-0.30716938 1.391126 -0.07896675 -0.053989235 0.17680517 0.09110439 -0.43434468 0.028069505
-0.22835226 0.12729806 -0.080015674 0.24682322 0.050576087 -0.06944201 -0.48332006 0.07150878
-0.55528414 -1.8086674 -0.70985335 -0.835847 0.2551223 -0.32322204 -1.1175878 -0.14522058
-0.123929575 -1.1475282 0.029203387 0.14814927 -0.3460495 0.28723556 0.0464749 0.27552092
-0.07829883 0.94013584 0.15200007 -0.35433137 -0.850838 0.9739002 3.5732775 0.1778576
0.23433237 0.5839047 0.01803391 -0.8718755 -0.7615552 -0.56530684 0.23420657 0.83466566
-0.31430587 -0.11619785 -0.044920497 0.39244914 0.124244444 0.11377263 -0.3288296 -0.1664153
-0.4756165 -0.69726896 0.5962937 0.06325007 0.25180173 -0.937982 0.3451229 0.7955645
-0.23242393 0.050435744 0.021261172 0.58647996 0.25157887 0.08837931 -0.38024423 0.84171367
-0.41280457 -0.5223477 -0.6030257 -0.08301539 -0.23701961 -0.83683044 -0.8012447 -0.27588436
0.91510403 -0.60795677 -0.25820535 0.020680256 1.0010937 -0.087104455 1.0186373 -1.3969623
-0.99596965 -0.68245566 -0.1628653 2.0767868 -0.03351527 0.08885764 -0.17388874 0.5401905
0.33799165 -0.4669505 -1.2603496 -0.08660901 -0.11193972 -0.97990227 -0.032626253 0.0670874
-0.030248227 0.16011693 -0.4823648 0.13967821 0.8372292 0.2678178 0.75850946 0.6648544
-0.19850974 0.32254922 0.7329376 -0.04710814 -0.11329934 0.14708959 0.5423747 -0.9142489
0.2515306 -0.13175678 1.1343293 0.083343156 0.19145592 -1.1767795 0.9150947 -0.034632023
-1.4886283 0.0044121346 0.12219699 0.3870852 -0.27904877 -0.030755512 0.15380952 0.265209
00000000: f3c5 003e ee1c 26bf 8475 783e 59e9 c23d
00000010: 03d6 b33f 35e3 d63c dabd 6ebf 21cc 82bf
00000020: c6c0 c33d dcf4 113f 7ddd 073f cf97 253e
00000030: 5b60 873e 8aa2 06bc 265a 22bf 1e8e b63c
00000040: 43ed 1f3e 76f5 c5bf ab97 8a3e ce52 cfbe
00000050: d00b 823d 204e 8440 a6cf aabd 4d8b ac3c
00000060: f511 d0bd db38 eb3d 14db eebc 2482 71bf
00000070: 9169 d23d 6d5b e9bd 7d57 95bc e91d 1f3f
00000080: c283 0b3d f2e0 eabe 499b 293b bcba acbe
00000090: 450f 7cbe 1800 88be 5ba4 b0bd d8f7 5a3e
000000a0: faec 113f c9a4 903f 3545 cf3e 7941 873e
000000b0: 49b9 9fbe b21b ffbd a568 773e d780 91bd
000000c0: 0f9d 403f 112e 173e 112a 493d 39e9 c5bf
000000d0: 8654 603f 0476 9f40 be08 473e c0c6 b7bc
000000e0: 3d52 853d 10e0 e83e 2b43 aa3f f8f7 f13e
000000f0: f43c eb3e 2412 f2bd 73b2 e73d 8066 52bf
00000100: aac3 c33e c8ab dabe 2b60 40bd b94e be3e
00000110: 7b0e ddbd 847c 4d3f ad27 143f 207b d6bd
00000120: cc69 053e 2834 cfbd b5f4 2b3f 2576 38bf
00000130: 4d4f fabe e254 1fbd a46b 383e adeb b83e
00000140: 0f19 4abf ebcc 823e 967a 68be 4e8d 013d
00000150: 5214 a0be d5e0 28be 317c d9bd 6328 14bf
00000160: d2bb 48be 0517 29bd a92d 66bf ee9f 853f
00000170: 6fcf d23d 6f74 babe 741b 37be 8196 3e3e
00000180: 42f2 7b3e fc3b ddbd aa65 ffbe 7d31 fcbd
00000190: 97b6 76bf 5485 90bf 1874 3abe 3a06 4b3e
000001a0: 5f4a 6fbf b429 0340 625c 083f 729b 993e
000001b0: 3aff 063d 2c3b 15bf 1b4a aa3e 638e 753d
000001c0: c2eb 9cbf b978 2ebe 5cd6 a1be 6529 39bf
000001d0: a58f 853d 9ea1 cfbf 1c8d 4ebf d255 e23d
000001e0: 4e45 9dbe 6b10 b23f 52b9 a1bd d123 5dbd
000001f0: 6a0c 353e f094 ba3d 6d62 debe 05f2 e53c
00000200: 2dd5 69be 6c5a 023e 42df a3bd 3abf 7c3e
00000210: df28 4f3d 9d37 8ebd ba75 f7be 3273 923d
00000220: 1a27 0ebf 6a82 e7bf f3b8 35bf 12fa 55bf
00000230: 649f 823e 5c7d a5be 1e0d 8fbf b4b4 14be
00000240: cace fdbd 34e2 92bf f13b ef3c 71b4 173e
00000250: 662d b1be 8a10 933e 775c 3e3d 1411 8d3e
00000260: 235b a0bd beac 703f e8a5 1b3e ec6a b5be
00000270: 85d0 59bf 8651 793f 94b0 6440 4d20 363e
00000280: d3f4 6f3e c77a 153f dabb 933c 3c33 5fbf
00000290: 48f5 42bf f3b7 10bf d9d3 6f3e a6ac 553f
000002a0: b3ec a0be 23f9 edbd 8efe 37bd 18ef c83e
000002b0: df73 fe3d a001 e93d 5a5c a8be c668 2abe
000002c0: 0284 f3be 3880 32bf b4a6 183f 4189 813d
000002d0: 28ec 803e 971f 70bf f3b3 b03e 1daa 4b3f
000002e0: 8a00 6ebe b695 4e3d e92b ae3c 8d23 163f
000002f0: f2ce 803e 3600 b53d 5faf c2be 8c7a 573f
00000300: 1f5b d3be 94b8 05bf e45f 1abf f903 aabd
00000310: 45b5 72be 853a 56bf 5f1e 4dbf b740 8dbe
00000320: 4244 6a3f 0ea3 1bbf 7e33 84be a469 a93c
00000330: d723 803f d263 b2bd b562 823f a9cf b2bf
00000340: def7 7ebf 6ab5 2ebf 29c6 26be 13ea 0440
00000350: 4f47 09bd fffa b53d e40f 32be ed49 0a3f
00000360: 3e0d ad3e 2314 efbe 2353 a1bf 1160 b1bd
00000370: a740 e5bd e0da 7abf 1ba3 05bd 1e65 893d
00000380: 21cb f7bc b1f5 233e 85f8 f6be ce07 0f3e
00000390: a754 563f 6a1f 893e ad2d 423f e633 2a3f
000003a0: 2346 4bbe 2c25 a53e cca1 3b3f 77f4 40bd
000003b0: 7c09 e8bd a79e 163e 11d9 0a3f 370c 6abf
000003c0: 9ec8 803e 40eb 06be b431 913f d1af aa3d
000003d0: 050d 443e b6a0 96bf a543 6a3f 4fda 0dbd
000003e0: 5f8b bebf ab93 903b 6a42 fa3d 0830 c63e
000003f0: 7bdf 8ebe fcf2 fbbc 3e80 1d3e 79c9 873e

model/dense_2/MatMul;model/activation_2/Relu;model/dense_2/BiasAdd f4 [100]
67.29847 -69.308014 -3.2506127 -65.04681 -6.232774 15.670589 28.187042 33.62354
-17.50096 1.3068813 -16.509485 -13.42315 5.891249 11.282325 1.9116335 -64.23575
-41.883972 30.542656 -0.13971184 6.4780827 48.623554 5.183179 34.914505 11.727188
-8.350384 20.763447 -6.158709 47.599556 -21.413338 9.393329 0.6195244 9.318567
33.45535 -10.315217 24.863497 -54.382656 90.15503 -38.556606 -44.347637 -16.116581
-8.056939 -61.24153 -3.8527286 -22.054146 -40.023285 41.16579 -31.830465 -13.659883
-40.732723 10.145752 66.679016 65.66894 17.559587 2.4252784 9.416288 0.9672077
6.9786167 54.050545 33.612934 -28.107964 -13.218878 -12.2368145 -12.775704 122.652916
30.85289 6.3078737 -56.09823 -41.529938 8.652485 46.14475 -143.60506 15.59479
-37.2081 30.623846 -54.92536 -33.784946 31.92013 -39.356438 -36.62953 53.898144
54.41221 41.700535 42.689823 28.894983 -10.6347 -57.024605 -5.212671 46.02943
32.351837 27.68263 -52.10842 22.786516 14.436512 16.023043 -33.181187 61.83437
74.40201 38.987827 8.562679 -19.802248
00000000: d198 8642 b49d 8ac2 0a0a 50c0 f717 82c2
00000010: e272 c7c0 bcba 7a41 107f e141 817e 0642
00000020: f701 8cc1 e347 a73f 6d13 84c1 39c5 56c1
00000030: 1d85 bc40 6784 3441 68b0 f43f b478 80c2
00000040: 3089 27c2 5c57 f441 9f10 0fbe 744c cf40
00000050: 857e 4242 9adc a540 74a8 0b42 90a2 3b41
00000060: 2c9b 05c1 8a1b a641 2514 c5c0 f265 3e42
00000070: 844e abc1 134b 1641 2799 1e3f da18 1541
00000080: 47d2 0542 210b 25c1 71e8 c641 d787 59c2
00000090: 604f b442 f739 1ac2 fb63 31c2 c2ee 80c1
000000a0: 39e9 00c1 54f7 74c2 1b93 76c0 e46e b0c1
000000b0: d817 20c2 c5a9 2442 cba4 fec1 e18e 5ac1
000000c0: 4fee 22c2 0055 2241 a85b 8542 7f56 8342
000000d0: 097a 8c41 c337 1b40 1ea9 1641 ec9a 773f
000000e0: d450 df40 c233 5842 a573 0642 1cdd e0c1
000000f0: 8680 53c1 fec9 43c1 4969 4cc1 4b4e f542
00000100: b8d2 f641 1ada c940 9664 60c2 a81e 26c2
00000110: 9470 0a41 3994 3842 e59a 0fc3 4384 7941
00000120: 18d5 14c2 a3fd f441 92b3 5bc2 c923 07c2
00000130: 6d5c ff41 fe6c 1dc2 a484 12c2 b397 5742
00000140: 1aa6 5942 59cd 2642 61c2 2a42 ed28 e741
00000150: bb27 2ac1 3219 64c2 33ce a6c0 231e 3842
00000160: 4868 0142 0776 dd41 066f 50c2 c94a b641
00000170: f4fb 6641 312f 8041 89b9 04c2 6556 7742
00000180: d4cd 9442 89f3 1b42 bc00 0941 016b 9ec1

model/batch_normalization_1/batchnorm/mul_1;model/batch_normalization_1/batchnorm/add_1;model/dense_2/MatMul;model/activation_2/Relu;model/dense_2/BiasAdd f4 [100, 100]
-0.082945935 -0.10475778 0.31110734 0.051914692 -0.23904608 -0.1683127 0.12395917 -0.04784522
0.21515448 -0.046078704 0.13919257 0.17589812 0.096675925 -0.119442336 -0.21267068 0.07638965
0.008725401 -0.21597587 0.16243914 -0.027997138 -0.13530008 -0.026947513 0.05765341 0.14788504
-0.108267434 -0.038461596 -0.0032005522 0.0069940495 -0.16247411 -0.1057336 -0.024027316 -0.0034905055
-0.2674704 0.005550424 -0.059690233 0.17460847 -0.052841097 0.032309316 0.07071718 -0.10736103
-0.040598314 -0.1936049 -0.25825354 0.09152268 0.039815 -0.009167438 -0.10156411 -0.090170145
-0.10492378 -0.011259019 0.058514293 0.050817236 -0.005172253 -0.17652811 -0.17393191 -0.03674247
0.026441872 0.022327302 0.20111664 -0.024542036 0.1631747 -0.11048217 0.09602828 -0.2515975
-0.003049438 0.048274204 0.059789393 -0.033963874 0.0026985265 0.00038427845 -0.24080996 -0.15198384
-0.008144861 -0.059843443 -0.24828658 -0.07076869 0.08191436 -0.03351773 -0.052071754 -0.3244314
0.04075282 -0.08661102 0.059302717 0.09772799 -0.034901228 -0.027464934 0.08256119 -0.0048099896
-0.14385095 0.043286916 0.07748933 -0.033429414 -0.07614343 -0.19206125 -0.27955168 0.2594181
0.2077517 -0.4110023 0.13653848 -0.23085588 0.02069396 -0.028328063 0.034828093 -0.13510518
0.018953057 0.03327182 0.08273492 0.012210555 0.059925303 -0.005072869 -0.0129949795 0.018037993
-0.029556647 -0.031254284 0.06978941 0.10215956 0.00915494 -0.029425561 -0.07582189 0.01872712
-0.109459065 0.03256757 0.08686383 0.07596076 0.022861583 -0.020427011 -0.12793764 -0.10570673
-0.03205757 -0.05503992 0.2229605 0.25698313 0.097499385 0.03837705 0.063597396 -0.066208005
0.02650899 0.117626764 -0.06784011 -0.0013400379 -0.054915577 -0.07252053 -0.044495817 0.0021564397
0.102667786 0.090932444 0.10432744 0.04463689 0.07420789 0.10125875 0.049238108 -0.120392516
0.19446895 0.8471365 0.0144798765 0.04656272 0.1174299 0.010697626 0.00052346237 0.03484158
0.034903184 -0.13490425 0.36023307 0.026492594 0.021787701 0.108536884 -0.16555673 -0.028351966
0.063910976 -0.060055107 -0.11643348 0.018373584 -0.045068827 0.29493198 -0.0028003457 -0.11691944
0.0061309244 0.099487856 -0.06434982 -0.119919784 0.09384635 0.032344505 0.05232988 0.10668989
0.035463776 -0.03657134 -0.04414095 0.049708754 -0.0210217 0.030322528 0.48307312 0.03742855
-0.23345888 0.12494047 0.03510909 -0.096775636 -0.19431077 0.031212797 -0.18187559 -0.018042544
0.32952577 0.22869672 0.0009145328 0.14496459 0.0056953873 -0.037056707 0.073444866 0.014306104
-0.057321645 0.1954925 0.028595783 0.031719014 -0.02257579 -0.039788496 -0.029558685 -0.198996
0.070548944 0.030496286 -0.06168688 0.10722057 0.1887348 -0.049255952 -0.049123313 0.019097935
-0.046557244 -0.06837427 -0.007440985 -0.05685435 0.06345278 0.00174858 -0.015513297 0.1563281
-0.119706675 0.070123434 -0.13677457 -0.061170734 0.06914868 0.0042786887 -0.06376906 0.06842461
0.050211996 0.5251641 0.050649256 0.07816465 0.1766321 0.046393022 -0.03565168 0.017039608
-0.08849305 0.08825987 0.110041276 -0.010193729 -0.058365483 0.0012164947 -0.08384202 -0.0013890968
00000000: 8fdf a9bd 3f8b d6bd 7649 9f3e 80a4 543d
00000010: 7fc8 74be 2a5a 2cbe 4ede fd3d 59f9 43bd
00000020: 7551 5c3e 06bd 3cbd 7f88 0e3e a31e 343e
00000030: 07fe c53d 2f9e f4bd 58c6 59be 2d72 9c3d
00000040: fcf4 0e3c c728 5dbe 7256 263e 415a e5bc
00000050: 1b8c 0abe 08c1 dcbc fb25 6c3d 2d6f 173e
00000060: 51bb ddbd e889 1dbd 5bc0 51bb 572e e53b
00000070: 9d5f 26be dc8a d8bd efd4 c4bc f7c0 64bb
00000080: e1f1 88be 55e0 b53b bf7d 74bd 90cc 323e
00000090: e86f 58bd c656 043d 2bd4 903d 1ae0 dbbd
000000a0: 6b4a 26bd 5d40 46be cf39 84be 3e70 bb3d
000000b0: 0e15 233d 0633 16bc d800 d0bd 20ab b8bd
000000c0: 47e2 d6bd c077 38bc afac 6f3d bc25 503d
000000d0: 017c a9bb c9c3 34be 351b 32be 467f 16bd
000000e0: a09c d83c bfe7 b63c 85f1 4d3e 610c c9bc
000000f0: 4517 273e 7a44 e2bd 7aaa c43d 63d1 80be
00000100: 14d9 47bb 2cbb 453d b9e5 743d b41d 0bbd
00000110: c3d9 303b fb78 c939 e396 76be a7a1 1bbe
00000120: 0672 05bc 661e 75bd d63e 7ebe 2def 90bd
00000130: b7c2 a73d e349 09bd 3149 55bd df1b a6be
00000140: 6eec 263d 1e61 b1bd 68e7 723d 9d25 c83d
00000150: 97f4 0ebd 24fe e0bc d715 a93d 1e9d 9dbb
00000160: aa4d 13be 9f4d 313d bab2 9e3d 48ed 08bd
00000170: 16f1 9bbd b4ab 44be 6621 8fbe 73d2 843e
00000180: ddbc 543e e56e d2be bed0 0b3e 7c65 6cbe
00000190: 6186 a93c 4110 e8bc e7a7 0e3d 0359 0abe
000001a0: 7143 9b3c 0848 083d ed70 a93d c80e 483c
000001b0: 3c74 753d 4f3a a6bb e5e8 54bc 6ac4 933c
000001c0: c820 f2bc 7e04 00bd c0ed 8e3d 0839 d13d
000001d0: 9afe 153c e00d f1bc 8248 9bbd 9e69 993c
000001e0: 132c e0bd 9365 053d aae5 b13d 5191 9b3d
000001f0: 3748 bb3c 8c56 a7bc 1602 03be c57c d8bd
00000200: cc4e 03bd 8a71 61bd c24f 643e 4b93 833e
00000210: c2ad c73d 4131 1d3d 5a3f 823d 1098 87bd
00000220: 6229 d93c 4de6 f03d c1ef 8abd 36a4 afba
00000230: 28ef 60bd a585 94bd 3f41 36bd 0e53 0d3b
00000240: 7d43 d23d ca3a ba3d a0a9 d53d 2cd5 363d
00000250: 4efa 973d bf60 cf3d e6ad 493d 5a90 f6bd
00000260: de22 473e f0dd 583f 013d 6d3c 8db8 3e3d
00000270: 167f f03d 1845 2f3c f738 093a 0bb6 0e3d
00000280: a4f6 0e3d 5724 0abe 7870 b83e ff06 d93c
00000290: 1f7c b23c 9648 de3d b487 29be 6242 e8bc
000002a0: c2e3 823d 58fc 75bd ad74 eebd 3384 963c
000002b0: 179a 38bd 5301 973e 0186 37bb 7673 efbd
000002c0: ece5 c83b 4ac0 cb3d d7c9 83bd 8198 f5bd
000002d0: 8432 c03d ac7b 043d db57 563d 3b80 da3d
000002e0: 7742 113d d4cb 15bd 24cd 34bd 689b 4b3d
000002f0: b335 acbc f366 f83c 5c55 f73e ae4e 193d
00000300: d80f 6fbe cae0 ff3d 8dce 0f3d 4e32 c6bd
00000310: 67f9 46be fbb1 ff3c 983d 3abe f5cd 93bc
00000320: 9ab7 a83e 792f 6a3e 42bd 6f3a 9971 143e
00000330: 5fa0 ba3b c6c8 17bd 436a 963d 2664 6a3c
00000340: 1aca 6abd 302f 483e b441 ea3c cceb 013d
00000350: ddf0 b8bc 43f9 22bd 0e25 f2bc 9cc5 4bbe
00000360: f77b 903d 59d3 f93c 62ab 7cbd 7596 db3d
00000370: b243 413e 9cc0 49bd 8735 49bd 4673 9c3c
00000380: cfb2 3ebd cf07 8cbd 82d3 f3bb 1be0 68bd
00000390: 88f3 813d 9c30 e53a 7c2b 7ebc 7914 203e
000003a0: c628 f5bd e09c 8f3d a20e 0cbe 2a8e 7abd
000003b0: d39d 8d3d 3e34 8c3b 5a99 82bd 3422 8c3d
000003c0: 18ab 4d3d 2871 063f 9875 4f3d ca14 a03d
000003d0: 0cdf 343e 9c06 3e3d 7f07 12bd a696 8b3c
000003e0: d83b b5bd 97c1 b43d 525d e13d 9903 27bc
000003f0: a510 6fbd ca72 9f3a 5db5 abbd 5b12 b6ba

model/dense_3/MatMul;model/activation_3/Relu;model/dense_3/BiasAdd f4 [100]
-36.15579 43.74197 -0.64471453 -5.1156125 13.202759 -14.17469 0.4306345 21.87656
39.598263 17.475702 50.46204 53.61242 45.36353 11.67663 7.7870684 9.015229
-12.566941 27.003754 15.74711 -3.6869977 37.8139 -13.855369 -7.717978 27.317623
44.727463 53.17691 29.399412 -0.37263504 -13.530385 -44.24095 16.195879 21.346918
12.143344 -7.4945307 16.78542 67.68933 -0.9990984 22.582243 -30.007448 10.946385
38.294456 38.188583 50.212048 -20.926468 1.2249854 7.077094 -19.077505 11.700647
20.637989 -0.46812817 8.119087 -28.901941 -20.160152 -25.260958 -24.674786 18.128891
-20.386368 -10.814127 11.043857 21.812607 -1.133941 10.788509 2.6020422 21.858059
-19.370747 1.8755089 8.79308 -5.8879433 17.357222 2.04355 -7.555934 10.581322
5.1174273 -23.089073 34.05109 -13.842933 -17.000256 15.462974 -2.519319 -40.76846
-32.59832 -0.06550949 -2.6605682 29.374449 -11.711474 -23.91579 14.721158 10.411667
-11.528291 15.222074 -5.39419 27.443583 -0.14390033 -2.7842176 18.083418 -48.136787
-3.81118 21.673584 28.258837 2.0379996
00000000: 879f 10c2 c7f7 2e42 030c 25bf 19b3 a3c0
00000010: 803e 5341 88cb 62c1 207c dc3e 3203 af41
00000020: 9f64 1e42 3dce 8b41 21d9 4942 1e73 5642
00000030: 4174 3542 7ad3 3a41 aa2f f940 613e 1041
00000040: 3112 49c1 b007 d841 2af4 7b41 c5f7 6bc0
00000050: 6f41 1742 97af 5dc1 adf9 f6c0 7e8a da41
00000060: ece8 3242 28b5 5442 ff31 eb41 05ca bebe
00000070: 757c 58c1 bcf6 30c2 2991 8141 7dc6 aa41
00000080: 234b 4241 32d3 efc0 8a48 8641 f060 8742
00000090: eac4 7fbf 6fa8 b441 410f f0c1 6524 2f41
000000a0: 862d 1942 1cc1 1842 23d9 4842 6869 a7c1
000000b0: 52cc 9c3f 8e77 e240 bb9e 98c1 da35 3b41
000000c0: 9a1a a541 7fae efbe c8e7 0141 2d37 e7c1
000000d0: fe47 a1c1 7116 cac1 f665 c5c1 f807 9141
000000e0: 4817 a3c1 aa06 2dc1 a3b3 3041 3880 ae41
000000f0: fb24 91bf bc9d 2c41 dc87 2640 4edd ae41
00000100: 4af7 9ac1 ad10 f03f 75b0 0c41 086a bcc0
00000110: 97db 8a41 86c9 0240 36ca f1c0 184d 2941
00000120: f7c1 a340 6cb6 b8c1 5134 0842 a77c 5dc1
00000130: 8600 88c1 5768 7741 863c 21c0 e712 23c2
00000140: ae64 02c2 d729 86bd c046 2ac0 dffe ea41
00000150: 3362 3bc1 8a53 bfc1 dd89 6b41 3096 2641
00000160: e173 38c1 9d8d 7341 349d acc0 758c db41
00000170: 9c5a 13be 9f30 32c0 d7aa 9041 128c 40c2
00000180: 60ea 73c0 8063 ad41 1912 e241 966e 0240

model/batch_normalization_2/batchnorm/mul_1;model/batch_normalization_2/batchnorm/add_1;model/dense_3/MatMul;model/activation_3/Relu;model/dense_3/BiasAdd f4 [100, 100]
0.089030586 -0.030490203 -0.007257164 0.042425722 0.026030295 -0.08847216 0.065427646 0.24396981
-0.10318402 -0.024819538 -0.22690272 -0.053690653 -0.13556358 -0.07645431 0.08779877 0.0040208185
0.029137798 0.17190076 0.06244376 0.036027692 -0.019581456 0.039283007 0.53504664 -0.09858158
-0.007635798 -0.012579285 0.1592996 0.044600688 -0.16364573 -0.13020322 -0.094167896 -0.06165312
0.023317857 -0.009525659 -0.20818414 -0.1340948 0.15403037 -0.041861862 -0.07543345 -0.028890919
0.015179284 0.031934302 0.032107327 0.1958841 -0.020227384 -0.059029657 0.08175299 -0.12245691
0.089947216 0.30049232 0.09959004 0.13338844 0.07486425 0.09250857 -0.08386386 0.13782965
0.06796976 0.2387442 0.107599154 -0.11289237 -0.13450928 0.049057085 -0.023689132 -0.08955022
0.090027235 0.0046229362 -3.421391 0.10095998 0.06762488 0.120022 0.0077572786 -0.087600775
-0.00082368666 -0.055141855 0.04700505 0.08875178 -0.0061393287 0.1336763 0.004149201 0.10163745
0.017104099 -0.08405953 0.0036141279 0.033392806 0.00048575012 -0.025759941 0.118026145 -0.18282656
0.23638399 0.44322568 -0.056499 -0.101512164 0.034816436 0.12541884 0.06378074 -0.011628744
0.016293261 -0.2684048 -0.12651786 -0.02349202 -0.29632884 0.009414597 -0.43272182 -0.039024647
-0.10984582 0.05720936 0.09297382 0.18303697 -0.07784406 -0.35770074 0.053187557 0.15025547
-0.04409729 -0.13572808 0.21431673 0.0042242524 -0.054477964 -0.09687359 -0.10520103 -0.13769619
-0.0076934765 0.074212864 -0.15443785 -0.14088643 0.16428414 -0.19140193 0.33480966 0.14391303
0.07506816 0.06184963 -0.19857879 0.22194539 0.13702117 0.13227162 -0.07360208 -0.17404132
0.054590777 0.11078242 -0.03158794 0.25714108 -0.1416082 -0.06649372 -0.14514033 -0.11418857
0.08493398 0.06531942 -0.025513444 -0.3114679 0.014509139 -0.24633521 -0.06631929 0.2872084
-0.054002047 -0.23530485 -0.1947196 -0.02613548 -0.016166946 -0.0033700115 -0.23087482 0.17617136
0.09133413 0.22156192 0.11083429 -0.13413298 -0.09592901 -0.0074124876 0.27271754 -0.14961845
0.037618052 -0.114326306 -0.026706072 0.15118682 0.1310605 0.03615752 -0.015058755 -0.05109978
-0.012623091 -0.12864676 -0.014392637 0.26015097 -0.06830128 -0.098443955 0.076853685 -0.28233293
-0.055335265 0.043908264 0.1981111 -0.20314936 -0.22995183 -0.023856642 0.054856546 0.09057434
0.16224977 0.01850653 -0.11852821 -0.060355626 0.069904774 -0.16672304 0.02468916 0.01444337
0.10025064 0.21962427 -0.069682725 -0.070439644 0.10906079 0.056299705 0.11031121 0.054908097
0.08738804 0.07715067 -0.08614281 0.105109476 0.0032021496 -0.271232 0.05931757 0.18496783
0.22739878 0.063370675 -0.08262164 0.08989378 -0.095283836 0.03905789 0.0042933845 -0.05286768
-0.1600487 0.062059775 0.053249907 0.01800273 0.08742474 0.08766224 -0.1475441 -0.016926946
-0.20592494 -0.03390683 -0.0800639 0.0020979177 0.17435005 0.0979605 -0.008694453 -0.18407321
-0.0172235 -0.09381865 -0.21035263 0.059304044 0.13016921 -0.21887022 -0.0942918 -0.06674069
-0.12892652 -0.08442358 -0.25834298 -0.026224518 0.11606376 -0.053340226 -0.029910574 -0.1033239
00000000: ab55 b63d 97c6 f9bc 81cd edbb 98c6 2d3d
00000010: 7c3d d53c e430 b5bd eefe 853d 39d3 793e
00000020: 2552 d3bd 5852 cbbc 3059 68be bbea 5bbd
00000030: 2ed1 0abe 1494 9cbd d7cf b33d 12c1 833b
00000040: 64b2 ee3c c106 303e 07c5 7f3d c691 133d
00000050: 4a69 a0bc 38e7 203d d1f8 083f 24e5 c9bd
00000060: b735 fabb 5819 4ebc 6f1f 233e 36af 363d
00000070: bf92 27be fe53 05be 19db c0bd fb87 7cbd
00000080: 1705 bf3c 8211 1cbc 392e 55be 2650 09be
00000090: 23ba 1d3e 5877 2bbd da7c 9abd a6ac ecbc
000000a0: 88b2 783c 8bcd 023d f982 033d d795 483e
000000b0: e6b3 a5bc 15c9 71bd 1d6e a73d b0ca fabd
000000c0: 3f36 b83d 21da 993e ddf5 cb3d fb96 083e
000000d0: 6e52 993d 2275 bd3d d1c0 abbd 3723 0d3e
000000e0: bb33 8b3d 5c79 743e f25c dc3d 1d34 e7bd
000000f0: cdbc 09be 15f0 483d b60f c2bc 1b66 b7bd
00000100: 3360 b83d 007c 973b 12f8 5ac0 1bc4 ce3d
00000110: ea7e 8a3d 18ce f53d c530 fe3b 0968 b3bd
00000120: adec 57ba 6ddc 61bd 5e88 403d 7ec3 b53d
00000130: 6c2c c9bb 71e2 083e 05f6 873b 4c27 d03d
00000140: e51d 8c3c 6727 acbd 01db 6c3b e5c6 083d
00000150: 47ac fe39 8306 d3bc b1b7 f13d e336 3bbe
00000160: a50e 723e 7aee e23e 7f6b 67bd 9ce5 cfbd
00000170: ae9b 0e3d cc6d 003e 7a9f 823d 7d86 3ebc
00000180: 7279 853c 5b6c 89be e68d 01be 5672 c0bc
00000190: 6ab8 97be af3f 1a3c b78d ddbe 4fd8 1fbd
000001a0: d8f6 e0bd 5d54 6a3d 0f69 be3d 0b6e 3b3e
000001b0: b56c 9fbd 8d24 b7be 32db 593d 92dc 193e
000001c0: 5c9f 34bd 4dfc 0abe d875 5b3e 996b 8a3b
000001d0: 4924 5fbd a965 c6bd a373 d7bd 3b00 0dbe
000001e0: 8f19 fcbb eafc 973d f524 1ebe 8844 10be
000001f0: 1a3a 283e defe 43be 2c6c ab3e f05d 133e
00000200: 56bd 993d 0a56 7d3d 3d58 4bbe a745 633e
00000210: 474f 0c3e 3672 073e b0bc 96bd e337 32be
00000220: 949a 5f3d e5e1 e23d 5b62 01bd ffa7 833e
00000230: bd01 11be dc2d 88bd ab9f 14be b2db e9bd
00000240: def1 ad3d 30c6 853d 9201 d1bc b878 9fbe
00000250: bdb7 6d3c 4c3f 7cbe 68d2 87bd fb0c 933e
00000260: 4031 5dbd c1f3 70be 9364 47be 131a d6bc
00000270: 8b70 84bc 69db 5cbb 736a 6cbe 4466 343e
00000280: 630d bb3d 21e1 623e 17fd e23d 285a 09be
00000290: 6e76 c4bd 74e4 f2bb a2a1 8b3e 9435 19be
000002a0: 6315 1a3d e923 eabd b1c6 dabc b8d0 1a3e
000002b0: b934 063e e819 143d ffb8 76bc 014e 51bd
000002c0: 15d1 4ebc fabb 03be 18cf 6bbc 8232 853e
000002d0: 8be1 8bbd fc9c c9bd 7765 9d3d f18d 90be
000002e0: 3ba7 62bd 27d9 333d a3dd 4a3e 6306 50be
000002f0: 7e78 6bbe 016f c3bc 42b1 603d 0a7f b93d
00000300: ce24 263e 029b 973c ebbe f2bd 7637 77bd
00000310: 3c2a 8f3d 72b9 2abe ec40 ca3c e2a3 6c3c
00000320: 3550 cd3d 2fe5 603e d1b5 8ebd a942 90bd
00000330: 435b df3d 859a 663d d8ea e13d 50e7 603d
00000340: 80f8 b23d 2c01 9e3d a46b b0bd a343 d73d
00000350: 28db 513b ecde 8abe fbf6 723d 3568 3d3e
00000360: 3adb 683e 7cc8 813d 8935 a9bd 3b1a b83d
00000370: 2c24 c3bd 2bfb 1f3d 85af 8c3b c88b 58bd
00000380: cee3 23be 6432 7e3d 931c 5a3d 767a 933c
00000390: be0b b33d 4388 b33d cd15 17be 61aa 8abc
000003a0: fddd 52be e3e1 0abd 8bf8 a3bd 387d 093b
000003b0: d288 323e 849f c83d 2e73 0ebc b07d 3cbe
000003c0: 4c18 8dbc fe23 c0bd ae66 57be cce8 723d
000003d0: 144b 053e 841f 60be 0f1c c1bd 58af 88bd
000003e0: 5005 04be 45e6 acbd 8845 84be cdd4 d6bc
000003f0: d6b2 ed3d 487b 5abd 0507 f5bc 7b9b d3bd

model/dense_4/MatMul;model/activation_4/Relu;model/dense_4/BiasAdd f4 [100]
-3.212921 0.21496896 0.92506534 4.8208833 -1.7186731 -3.0786304 8.249313 6.9610806
40.520325 17.534445 -8.674858 -11.974168 47.251488 20.297184 -17.847841 -22.397638
-0.46616024 -8.823842 5.3988967 5.3342295 -6.2797637 -6.8360314 13.159897 6.969781
34.33308 8.964473 26.400585 4.0550117 2.921364 0.74272406 19.93438 -7.082053
28.930574 2.1412332 19.548136 -5.9912033 -16.94937 6.9803405 27.654547 37.923676
41.231636 -0.9831559 -3.170411 -6.757688 46.46248 -6.1225896 -13.4922495 -17.218996
-24.980457 8.464849 43.238552 19.040865 -1.2173669 1.0250447 20.57042 8.044175
17.582115 12.336794 18.372755 14.842652 -22.27313 16.157932 -19.025455 12.076449
7.637394 30.84312 -10.609875 10.8716755 28.056614 40.562065 -8.273427 41.247036
5.160836 -47.867924 1.0019826 40.833687 41.28125 -6.5577273 25.266176 -15.1076765
28.491062 25.192623 10.155212 -12.935982 -9.657779 -11.665361 29.526665 6.295125
20.87615 8.346244 -17.314236 32.514156 31.9105 6.159392 42.869987 37.580414
3.9683433 -21.089632 43.515133 0.28098905
00000000: 7fa0 4dc0 d320 5c3e 15d1 6c3f ad44 9a40
00000010: 7bfd dbbf 4808 45c0 30fd 0341 2cc1 de40
00000020: d014 2242 8b46 8c41 38cc 0ac1 3196 3fc1
00000030: 8601 3d42 a260 a241 61c8 8ec1 5d2e b3c1
00000040: 8eac eebe 752e 0dc1 c3c3 ac40 02b2 aa40
00000050: d3f3 c8c0 c5c0 dac0 f08e 5241 7208 df40
00000060: 1355 0942 7b6e 0f41 6634 d341 a8c2 8140
00000070: a1f7 3a40 2a23 3e3f 9c79 9f41 2ea0 e2c0
00000080: d171 e741 f709 0940 9562 9c41 f0b7 bfc0
00000090: 4f98 87c1 f35e df40 833c dd41 d8b1 1742
000000a0: 32ed 2442 1bb0 7bbf 04e8 4ac0 fb3e d8c0
000000b0: 94d9 3942 41ec c3c0 41e0 57c1 81c0 89c1
000000c0: fad7 c7c1 0670 0741 47f4 2c42 b153 9841
000000d0: aed2 9bbf aa34 833f 3890 a441 f1b4 0041
000000e0: 2ca8 8c41 8263 4541 67fb 9241 817b 6d41
000000f0: 5f2f b2c1 7243 8141 2234 98c1 2339 4141
00000100: 8865 f440 b6be f641 0cc2 29c1 62f2 2d41
00000110: f273 e041 8e3f 2242 f55f 04c1 f7fc 2442
00000120: 9225 a540 c178 3fc2 f740 803f b255 2342
00000130: 0020 2542 e7d8 d1c0 2121 ca41 0bb9 71c1
00000140: b2ed e341 7e8a c941 c07b 2241 c8f9 4ec1
00000150: 4386 1ac1 52a5 3ac1 9c36 ec41 aa71 c940
00000160: 5b02 a741 378a 0541 8e83 8ac1 7f0e 0242
00000170: b448 ff41 bd19 c540 de7a 2b42 5852 1642
00000180: 56f9 7d40 91b7 a8c1 7f0f 2e42 ccdd 8f3e

model/batch_normalization_3/batchnorm/mul_1;model/batch_normalization_3/batchnorm/add_1;model/dense_4/MatMul;model/activation_4/Relu;model/dense_4/BiasAdd f4 [100, 100]
-0.11248489 0.03461826 0.01865919 -0.19251342 -0.19401331 0.1070702 -0.041997742 0.007313542
-0.18863146 0.09803892 -0.0071765175 0.14313477 -0.036738124 0.04959943 0.0777105 0.059880115
0.03208726 -0.049227525 -0.11500565 -0.03705108 0.015420966 0.49392805 0.6025302 0.15321656
-0.064000815 0.037092958 0.16308081 0.0026315334 -0.39190766 0.0064047338 0.023713091 -0.2477294
0.012718212 -0.07893938 -0.0015743143 0.017179728 0.22862397 -0.1455863 -0.16199312 0.011173005
-0.26332182 0.020899398 0.01990599 0.023060508 0.107198395 0.103679106 0.17297664 -0.03214012
0.27158865 0.021144079 0.06649544 0.028391952 0.2733566 -0.0003092821 0.05868209 0.061939046
-0.06932307 0.07547623 0.021907583 0.17905886 -0.25428933 -0.025591645 0.048928406 0.04624564
-0.04720893 -0.058295302 0.14367615 0.0120809665 0.06431781 0.084442906 -0.018969873 0.0040173163
0.24738869 -0.073337905 -0.034887835 -0.15104948 -0.19571638 -0.063486986 0.011058531 0.02717567
0.10672064 -0.01622778 0.13452491 -0.09795473 0.04412697 0.08292367 -0.098552704 0.055116836
-0.013355978 -0.02227049 -0.036463793 0.05008015 0.19617723 0.07167449 -0.3801633 0.027304705
0.22116883 0.08867114 0.0013090386 0.102127224 0.14519095 -0.01471572 0.0053803576 0.12242771
-0.061358448 -0.0087637305 0.01143944 0.17973709 -0.24492371 0.051415678 -0.05104153 0.19004655
-0.063389964 -0.045030404 0.12339391 0.05815257 0.08345598 -0.0020364218 0.08759033 -0.50463545
-0.04430183 -0.055302534 -0.025116136 0.17890593 -0.13084398 0.040068135 -0.109088935 -0.009730203
0.03971511 0.16728887 0.05756754 -0.08361806 -0.017672159 -0.0870067 0.17853159 -0.0074752774
0.072529 -0.000303229 0.05528438 0.04957164 0.111884944 -0.12676783 0.016747836 -0.026970172
0.12150738 0.039868936 0.18805297 -0.077326246 -0.11980985 0.07060039 0.020976093 0.32863697
-0.20459327 0.17451936 0.12040366 0.0057612876 -0.111921355 -0.0761596 -0.035622027 -0.23765846
0.09592489 -0.039257627 -0.13231127 0.056753274 0.11433094 -0.08295078 -0.028600587 0.05904938
0.2594037 0.14079246 -0.048942644 -0.72221637 -0.2606863 0.14710552 -0.061789762 -0.049421616
-0.13211505 0.27923688 0.056286797 -0.05176979 -0.12650636 0.087476395 -0.26962766 -0.09827786
-0.14581572 -0.15217488 0.17662176 -0.98991394 -0.035967 0.056521583 0.073872 -0.16417472
-0.14741421 0.0035542143 -0.051133197 0.06782856 0.3893046 0.14672066 -0.009745323 0.1865292
-0.0946126 0.25507745 0.32298458 0.2044104 0.1083748 -0.09088899 0.0014571175 0.11294644
-0.07945595 -0.06990772 -0.25761676 0.3064976 0.15449089 0.07241612 -0.03627902 0.009628754
0.10380869 0.17308886 0.027624547 0.12230324 0.05975254 -0.08569603 -0.105014965 -0.0055562323
-0.043490823 -0.22932547 0.158332 0.0033556633 0.15067808 0.13963251 0.043117784 -0.015061257
-0.13884485 0.06518143 -0.07464097 -0.19503586 0.107432425 -0.01834602 -0.18507458 -0.06179878
-0.07410721 -0.09744973 -0.15041299 -0.025438402 -0.027262634 -0.0007892267 0.09825166 -0.019103304
0.1843245 -0.12137139 -0.016367419 -0.26269776 0.08935097 0.14202388 0.039332382 0.006789273
00000000: 7a5e e6bd e0cb 0d3d 28db 983c 3d22 45be
00000010: 6dab 46be 9f47 db3d d305 2cbd 70a6 ef3b
00000020: 9b28 41be a1c8 c83d fe28 ebbb ec91 123e
00000030: b77a 16bd c628 4b3d af26 9f3d da44 753d
00000040: ee6d 033d cda2 49bd 1588 ebbd e0c2 17bd
00000050: 38a8 7c3c 23e4 fc3e 6b3f 1a3f cde4 1c3e
00000060: dc12 83bd c9ee 173d a8fe 263e ce75 2c3b
00000070: 1fa8 c8be cdde d13b f541 c23c c7ac 7dbe
00000080: 0c60 503c f8aa a1bd 3959 ceba 80bc 8c3c
00000090: 671c 6a3e 9314 15be 86e1 25be fb0e 373c
000000a0: 1ed2 86be 3735 ab3c e311 a33c 64e9 bc3c
000000b0: d58a db3d b655 d43d ca20 313e 5ca5 03bd
000000c0: ab0d 8b3e 5936 ad3c c32e 883d 3d96 e83c
000000d0: 65f5 8b3e 2427 a2b9 a25c 703d ccb3 7d3d
000000e0: 41f9 8dbd 4893 9a3d 8877 b33c 355b 373e
000000f0: 3632 82be 92a5 d1bc 2769 483d 116c 3d3d
00000100: 275e 41bd 0ec7 6ebd d71f 133e 3fef 453c
00000110: 0eb9 833d 67f0 ac3d b566 9bbc b1a3 833b
00000120: 7653 7d3e 2f32 96bd 8ce6 0ebd b7ac 1abe
00000130: e069 48be 7705 82bd d72e 353c 839f de3c
00000140: 5a90 da3d 1ff0 84bc e6c0 093e 7d9c c8bd
00000150: 7bbe 343d e3d3 a93d 00d6 c9bd 31c2 613d
00000160: 08d3 5abc 9a70 b6bc 0f5b 15bd d820 4d3d
00000170: afe2 483e 13ca 923d c4a4 c2be 1eae df3c
00000180: 157a 623e 3799 b53d 0c94 ab3a 1428 d13d
00000190: f0ac 143e 341a 71bc b64d b03b 61bb fa3d
000001a0: ff52 7bbd c095 0fbc 7d6c 3b3c 000d 383e
000001b0: 48cd 7abe 3f99 523d ec10 51bd 909b 423e
000001c0: 99d2 81bd cd71 38bd f2b5 fc3d 6431 6e3d
000001d0: f8ea aa3d 7d75 05bb 8f62 b33d ca2f 01bf
000001e0: d675 35bd e984 62bd 5bc0 cdbc 1e33 373e
000001f0: f7fb 05be 7c1e 243d 056a dfbd 6e6b 1fbc
00000200: 50ac 223d c64d 2b3e f1cb 6b3d f23f abbd
00000210: 34c5 90bc 9230 b2bd fcd0 363e 2cf3 f4bb
00000220: 168a 943d b5fa 9eb9 e071 623d a20b 4b3d
00000230: ef23 e53d 6dcf 01be c232 893c 8df0 dcbc
00000240: dcd8 f83d 9c4d 233d f590 403e 395d 9ebd
00000250: de5e f5bd f096 903d 0ed6 ab3c 1b43 a83e
00000260: e680 51be 34b5 323e 3296 f63d 2fc9 bc3b
00000270: 0637 e5bd 90f9 9bbd 67e8 11bd bd5c 73be
00000280: 4574 c43d 9bcc 20bd 9b7c 07be 1f76 683d
00000290: 5726 ea3d 19e2 a9bd c74b eabc c3dd 713d
000002a0: 90d0 843e e62b 103e 1578 48bd 2ce3 38bf
000002b0: ad78 85be d4a2 163e 4317 7dbd 526e 4abd
000002c0: 2b49 07be 23f8 8e3e fc8c 663d 8f0c 54bd
000002d0: e28a 01be d326 b33d a30c 8abe e745 c9bd
000002e0: b750 15be bbd3 1bbe 56dc 343e 006b 7dbf
000002f0: 2252 13bd 2d83 673d 344a 973d 6b1d 28be
00000300: c0f3 16be d2ed 683b 0b71 51bd b3e9 8a3d
00000310: ef52 c73e f13d 163e d9aa 1fbc 8301 3f3e
00000320: 40c4 c1bd 8399 823e 3c5e a53e f650 513e
00000330: 9bf3 dd3d 0224 babd c0fc be3a 7750 e73d
00000340: cdb9 a2bd c72b 8fbd 58e6 83be 41ed 9c3e
00000350: dc32 1e3e e74e 943d 4f99 14bd ecc1 1d3c
00000360: a799 d43d 353e 313e e04c e23c 1f7a fa3d
00000370: 14bf 743d 6681 afbd 1612 d7bd 0e11 b6bb
00000380: 6f23 32bd 4cd4 6abe c921 223e b0ea 5b3b
00000390: 5b4b 1a3e d3fb 0e3e 469c 303d 7ec3 76bc
000003a0: 582d 0ebe d77d 853d 5ddd 98bd 7bb7 47be
000003b0: 8805 dc3d 644a 96bc 3184 3dbe b820 7dbd
000003c0: 85c5 97bd b993 c7bd dd05 1abe 3264 d0bc
000003d0: e355 dfbc 1be4 4eba 2b38 c93d 887e 9cbc
000003e0: 90bf 3c3e 9091 f8bd f714 86bc 5280 86be
000003f0: a4fd b63d b56e 113e fe1a 213d 8d78 de3b

model/dense_5/MatMul;model/activation_5/Relu;model/dense_5/BiasAdd f4 [100]
9.470387 40.487778 -15.72617 7.745643 29.522493 -10.760695 37.47912 28.793818
1.2592489 1.8229073 30.52834 0.31489536 3.896659 30.581423 -19.428028 16.028618
-20.313036 13.844768 19.830715 -17.314281 70.59902 -22.710045 26.11317 35.600014
27.880304 7.7739525 3.6717863 -2.7254074 10.801256 23.702496 -16.891327 3.8893776
-16.672506 -22.981808 8.289015 33.218704 19.277416 34.127987 6.425213 -35.006863
27.673956 -25.126959 17.102179 18.772507 16.414139 -34.747677 13.671839 10.038863
-30.68994 15.9691515 4.6391497 25.009153 -34.032726 -5.8649244 15.196915 -5.667858
4.4720445 15.654428 -5.645522 41.578587 28.639336 2.5853484 29.88882 29.208107
-1.0662385 23.504301 -1.7678963 -12.77558 -18.85673 9.451338 -36.00942 28.634277
35.072823 19.165302 -12.423312 2.4044697 7.9940715 -7.717674 0.18160337 -58.537502
65.40799 -13.869389 25.085585 18.44853 4.829589 36.946007 -0.6965495 20.941757
-17.080439 2.7856205 -9.520724 18.188725 1.2171954 -1.7997572 -6.113071 8.197182
19.630585 15.911475 12.734139 6.2974205
00000000: b586 1741 7cf3 2142 649e 7bc1 4fdc f740
00000010: 112e ec41 cf2b 2cc1 9eea 1542 bd59 e641
00000020: 112f a13f 0755 e93f 0a3a f441 f739 a13e
00000030: dc62 7940 c1a6 f441 9a6c 9bc1 9c3a 8041
00000040: 1981 a2c1 2b84 5d41 4ea5 9e41 a683 8ac1
00000050: b332 8d42 2cae b5c1 c6e7 d041 6a66 0e42
00000060: dd0a df41 38c4 f840 8cfe 6a40 136d 2ec0
00000070: f2d1 2c41 b69e bd41 7021 87c1 90eb 7840
00000080: 4b61 85c1 beda b7c1 ce9f 0441 f4df 0442
00000090: 2638 9a41 0f83 0842 589b cd40 0707 0cc2
000000a0: 4364 dd41 0304 c9c1 43d1 8841 182e 9641
000000b0: 2850 8341 9ffd 0ac2 dabf 5a41 2f9f 2041
000000c0: ff84 f5c1 a581 7f41 ea73 9440 bf12 c841
000000d0: 8321 08c2 76ad bbc0 9026 7341 185f b5c0
000000e0: fd1a 8f40 8978 7a41 1ea8 b4c0 7950 2642
000000f0: 5c1d e541 5976 2540 4e1c ef41 34aa e941
00000100: 817a 88bf cf08 bc41 6d4a e2bf c768 4cc1
00000110: 95da 96c1 ae38 1741 a509 10c2 0013 e541
00000120: 924a 0c42 8a52 9941 e3c5 46c1 d5e2 1940
00000130: 6fcf ff40 2ff7 f6c0 3cf6 393e 6726 6ac2
00000140: e4d0 8242 04e9 5dc1 47af c841 9796 9341
00000150: fe8b 9a40 b6c8 1342 1151 32bf b888 a741
00000160: bda4 88c1 9b47 3240 e354 18c1 8282 9141
00000170: 0fcd 9b3f 725e e6bf 479e c3c0 a827 0341
00000180: 700b 9d41 6795 7e41 09bf 4b41 7884 c940

model/batch_normalization_4/batchnorm/mul_1;model/batch_normalization_4/batchnorm/add_1;model/dense_5/MatMul;model/activation_5/Relu;model/dense_5/BiasAdd f4 [100, 100]
-0.06769484 0.09110218 -0.016630694 0.064872146 0.024071202 0.30041847 0.03969968 0.0567789
0.25341702 -0.22589259 -0.15802692 -0.17468396 0.083769694 -0.052300647 -0.0052084154 0.20285816
-0.1991721 -0.10897729 0.13362262 -0.070373826 0.08639135 -0.08983556 -0.102329366 -0.16323432
0.03478269 0.07118732 0.0369535 0.036751967 0.14986098 0.03142946 0.02312115 -0.18276465
-0.022467837 0.013897453 -0.2216813 -0.19062681 -0.044793755 -0.12049794 -0.029384188 0.08497971
0.11225919 0.12517257 -0.19677457 -0.03116899 -0.050805878 0.11520263 -0.18533199 0.095029615
0.055322114 0.08314099 0.035906922 0.06309803 0.2790342 0.020744309 -0.034038864 0.12773891
-0.05639812 -0.32456657 -0.18487562 0.0856988 0.08444713 -0.019811848 0.026314704 0.22272255
0.059006765 -0.0032121027 -0.26822138 -0.09580343 -0.08184343 -0.30465785 -0.034893386 -0.109417535
-0.10649234 -0.038012236 -0.027568376 -0.06641456 0.009732001 0.026592894 0.34091878 0.15470901
-0.10961848 -0.0748458 -0.21262898 0.40711245 -0.3097508 0.22472268 0.03445124 -0.001636378
-0.22109374 -0.1880799 -0.12777457 -0.0016029525 0.11715186 0.06977603 0.22250329 0.007263443
-0.04074777 -0.4208189 0.04576442 -0.093289115 -0.009722844 0.061690915 -0.07243882 -0.760016
-0.062051304 0.5590919 -0.017413186 -0.26263157 0.02361992 0.2204827 0.09299942 0.11167156
0.01041424 0.042403176 0.26722306 -0.046279665 -0.56614494 -0.69259804 0.11105171 0.05107198
-0.23633459 -0.3206451 -0.025807887 0.03146554 0.0059896354 -0.048374042 0.03690418 -0.116488636
-0.09522318 -0.10876488 -0.10156125 -0.22150975 0.102678746 0.08320888 -0.034698788 -0.30605757
-0.5292724 0.020402225 0.14621003 -0.058807157 -0.00891576 -0.152783 0.07890855 -0.050051246
0.047036275 -0.78444237 0.09018242 -0.29710087 -0.042876013 0.11221161 0.066777155 -0.0156599
-0.048367582 -0.076670185 -0.045339167 -0.08525743 0.014842727 -0.06278523 -0.07634249 -0.03777867
-0.09553311 -0.012735346 0.021367036 -0.062256698 -0.058735803 -0.14315236 -0.062350485 0.028942224
-0.046444926 -0.019956863 -0.54743004 -0.044805534 -0.044734236 -0.100880265 -0.12831137 -0.003285874
-0.048489843 -0.08283822 -0.23552698 0.0898134 0.08239763 -0.0068162302 0.0064959223 0.053635385
-0.19197045 0.03174969 0.03566997 -0.062621124 0.05803286 0.15356115 -0.047973186 -0.23253922
-0.015948739 -0.004093101 -0.00894739 -0.13593048 -0.07600884 0.028882844 -0.14894956 -0.41055486
0.06885465 -0.0018023987 0.008155728 0.14788456 -0.012302741 0.046138927 0.023870848 0.21401592
-0.010694509 -0.16055554 -0.10950678 -0.25434616 0.04501973 -0.31427616 0.105554745 0.042783845
0.0252512 -0.06373574 -0.05098126 0.22210868 -0.017427394 0.14761442 0.02417897 0.084429815
-0.047482982 -0.033111155 0.028413668 -0.100410074 0.24575706 -0.05710434 -0.08819642 -0.13867338
0.014212433 -0.06546946 0.027377473 0.13844937 0.16001283 -0.12448644 0.11302955 0.08511723
0.09741996 -0.0039645126 -0.054365333 -0.054500047 0.023123534 -0.04328893 -0.00081495626 0.04957083
-0.020814165 0.03549227 1.1042789 -0.14898336 0.019206375 0.08122897 -0.12552421 0.070155464
00000000: 98a3 8abd c893 ba3d 183d 88bc b0db 843d
00000010: f830 c53c 73d0 993e 229c 223d fe90 683d
00000020: e0bf 813e 6350 67be cfd1 21be 5ae0 32be
00000030: 728f ab3d 3439 56bd 5bab aabb 0dba 4f3e
00000040: c5f3 4bbe 7c2f dfbd 5ed4 083e 2720 90bd
00000050: f3ed b03d b5fb b7bd 0f92 d1bd e626 27be
00000060: 4b78 0e3d a8ca 913d 8e5c 173d 3b89 163d
00000070: 2875 193e 2dbc 003d 9168 bd3c a826 3bbe
00000080: 780e b8bc 25b2 633c 6c00 63be ad33 43be
00000090: a879 37bd a0c7 f6bd 1cb7 f0bc d809 ae3d
000000a0: 25e8 e53d 3d2d 003e 467f 49be 1c56 ffbc
000000b0: d319 50bd 5bef eb3d abc7 3dbe e39e c23d
000000c0: 7199 623d d345 aa3d 2313 133d 8a39 813d
000000d0: 92dd 8e3e f8ef a93c 566c 0bbd fdcd 023e
000000e0: b701 67bd 972d a6be 0950 3dbe da82 af3d
000000f0: 9ef2 ac3d 754c a2bc ef91 d73c 6111 643e
00000100: 14b1 713d 2482 52bb 5054 89be 9734 c4bd
00000110: 879d a7bd 1dfc 9bbe 5eec 0ebd 4d16 e0bd
00000120: a818 dabd b8b2 1bbd 13d7 e1bc 5b04 88bd
00000130: f972 1f3c 57d9 d93c e88c ae3e 0a6c 1e3e
00000140: a77f e0bd c148 99bd 69bb 59be 0b71 d03e
00000150: a897 9ebe b41d 663e be1c 0d3d bc7b d6ba
00000160: 6666 62be 0498 40be 56d7 02be 291a d2ba
00000170: 50ed ef3d bce6 8e3d e7d7 633e 2d02 ee3b
00000180: 22e7 26bd 9375 d7be 7973 3b3d 5d0e bfbd
00000190: 904c 1fbc 9daf 7c3d ce5a 94bd 6990 42bf
000001a0: 8229 7ebd a620 0f3f 19a6 8ebc a577 86be
000001b0: 907e c13c 38c6 613e 7b76 be3d 0fb4 e43d
000001c0: 7da0 2a3c f4ae 2d3d 76d1 883e bf8f 3dbd
000001d0: e0ee 10bf 1b4e 31bf 146f e33d da30 513d
000001e0: b201 72be 982b a4be 106b d3bc 03e2 003d
000001f0: b444 c43b dc23 46bd d628 173d 9891 eebd
00000200: 5f04 c3bd 1fc0 debd 58ff cfbd 74d3 62be
00000210: 3c49 d23d 6b69 aa3d 5120 0ebd 94b3 9cbe
00000220: 657e 07bf 9122 a73c 15b8 153e c6df 70bd
00000230: 6813 12bc 2673 1cbe ce9a a13d 8902 4dbd
00000240: 1ca9 403d 37d1 48bf 90b1 b83d 9b1d 98be
00000250: c29e 2fbd 33cf e53d 76c2 883d 3149 80bc
00000260: 161d 46bd 4205 9dbd 90b5 39bd 739b aebd
00000270: e92e 733c 8b95 80bd 7459 9cbd cfbd 1abd
00000280: dda6 c3bd eaa7 50bc ec09 af3c e100 7fbd
00000290: f494 70bd 8896 12be 3963 7fbd 3e18 ed3c
000002a0: 093d 3ebd 937c a3bc 6024 0cbf 0286 37bd
000002b0: 3f3b 37bd 509a cebd 0e64 03be d157 57bb
000002c0: 499d 46bd 16a7 a9bd fc2d 71be 16f0 b73d
000002d0: 17c0 a83d af5a dfbb bfdb d43b c7b0 5b3d
000002e0: e793 44be f70b 023d ad1a 123d 813f 80bd
000002f0: ddb3 6d3d 223f 1d3e 887f 44bd c31e 6ebe
00000300: eea6 82bc 6b1f 86bb 1398 12bc 5c31 0bbe
00000310: 86aa 9bbd b79b ec3c 3c86 18be 3f34 d2be
00000320: ab03 8d3d 773e ecba 9a9f 053c 0d6f 173e
00000330: 7091 49bc 2cfc 3c3d cc8c c33c fd26 5b3e
00000340: 0638 2fbc ac68 24be 1745 e0bd a939 82be
00000350: 9c66 383d cee8 a0be 162d d83d 1d3e 2f3d
00000360: 9bdb ce3c e287 82bd bad1 50bd 7570 633e
00000370: e5c3 8ebc 3c28 173e fa12 c63c 8ae9 ac3d
00000380: 847d 42bd 909f 07bd c8c3 e83c cca3 cdbd
00000390: bda7 7b3e 3ee6 69bd 53a0 b4bd 6500 0ebe
000003a0: 44db 683c da14 86bd b946 e03c acc5 0d3e
000003b0: 67da 233e bff2 febd 097c e73d f151 ae3d
000003c0: 1e84 c73d bee8 81bb 2fae 5ebd 713b 5fbd
000003d0: 916d bd3c bc4f 31bd caa2 55ba c80a 4b3d
000003e0: 7882 aabc 5860 113d 0359 8d3f 188f 18be
000003f0: b056 9d3c 605b a63d 6b89 00be abad 8f3d

model/dense_6/MatMul;model/activation_6/Relu;model/dense_6/BiasAdd f4 [100]
-10.58368 11.8996 6.070167 -4.9995103 29.30198 -8.451822 8.655158 21.94061
-11.922239 19.496231 29.977802 1.5686548 0.34011984 28.67789 -10.846067 -5.85109
26.91228 14.902239 27.683914 20.081793 51.081585 20.600374 -13.958704 -25.726017
8.848317 13.050522 -4.8110948 26.54733 23.899542 -7.9125223 -5.044005 12.811241
3.094408 3.4606605 0.7449726 44.674522 -27.292253 18.210184 7.142014 4.344469
26.311558 9.014272 24.968271 -20.304344 18.36547 7.237719 -20.331236 2.5891955
12.137313 9.525457 12.19376 -17.293842 -2.2540226 16.536339 14.982464 37.102108
26.155386 -8.856457 22.969917 31.73997 15.448605 -21.11165 4.928211 7.3997364
-5.1616726 13.801733 49.514095 0.104268745 -18.795242 8.376261 30.934862 8.8819275
1.9655936 4.1696877 10.036037 -5.055767 -13.264399 22.349274 -18.805302 -1.7949538
-6.721513 -0.16986704 -7.3068194 22.595156 21.56179 16.757277 14.508295 4.698713
-18.851534 -7.825726 17.048885 -14.057078 13.921824 13.435877 -3.85675 14.601815
32.182922 -3.858098 -27.836874 -5.266974
00000000: c156 29c1 c364 3e41 cf3e c240 fdfb 9fc0
00000010: 746a ea41 aa3a 07c1 877b 0a41 5f86 af41
00000020: 7ec1 3ec1 48f8 9b41 8ad2 ef41 aec9 c83f
00000030: 3024 ae3e 526c e541 7e89 2dc1 213c bbc0
00000040: 594c d741 926f 6e41 a878 dd41 83a7 a041
00000050: 8b53 4c42 91cd a441 da56 5fc1 e2ce cdc1
00000060: b592 0d41 f0ce 5041 7df4 99c0 ef60 d441
00000070: 4332 bf41 6233 fdc0 7d68 a1c0 d8fa 4c41
00000080: c80a 4640 767b 5d40 86b6 3e3f b6b2 3242
00000090: 8956 dac1 75ae 9141 618b e440 e405 8b40
000000a0: 127e d241 753a 1041 05bf c741 4c6f a2c1
000000b0: 7cec 9241 659b e740 5fa6 a2c1 61b5 2540
000000c0: 6f32 4241 4668 1841 a419 4341 ca59 8ac1
000000d0: e841 10c0 6c4a 8441 2cb8 6f41 8f68 1442
000000e0: 3b3e d141 0cb4 0dc1 64c2 b741 75eb fd41
000000f0: 7c2d 7741 a9e4 a8c1 e8b3 9d40 a4ca ec40
00000100: 6c2c a5c0 e6d3 5c41 6f0e 4642 da8a d53d
00000110: a85c 96c1 2a05 0641 997a f741 601c 0e41
00000120: 9298 fb3f 156e 8540 9c93 2041 d8c8 a1c0
00000130: fa3a 54c1 50cb b241 4271 96c1 0cc1 e5bf
00000140: a216 d7c0 a0f1 2dbe 77d1 e9c0 e1c2 b441
00000150: 8c7e ac41 e70e 8641 fa21 6841 db5b 9640
00000160: f1cf 96c1 596c fac0 1e64 8841 cbe9 60c1
00000170: cbbf 5e41 5af9 5641 fed4 76c0 09a1 6941
00000180: 50bb 0042 14eb 76c0 ebb1 dec1 0d8b a8c0
